PPO/ppo_actor.pth (torch, 549599 bytes, 10 tensors)

layer1.weight f4 [128, 29]
000000 fb f3 74 3e 43 1c 1d 3e ea 74 30 be 11 8e 02 be
       0.23921196 0.15342812 -0.17232099 -0.12749507
000010 3d 8d 1e 3d 7b c0 15 3e ec 26 b0 bd 5d e0 19 bd
       0.038708914 0.14624207 -0.08601174 -0.037567485
000020 f1 9f 42 be 33 88 78 be 6d 8d 1f 3d 87 cb 58 bd
       -0.19006325 -0.24270706 0.038953234 -0.052928474
000030 22 ab 95 3d d9 df 54 be 3a 4a b4 bd 5f 9f 89 3d
       0.073080316 -0.20788516 -0.0880322 0.06719851
000040 ea 13 84 bd cc 71 5c 3c b6 ac 06 bd fb e4 3d 3e
       -0.06449111 0.013454866 -0.032879554 0.1854438
000050 cf f6 26 3e 0d 12 da bd 01 71 93 3c b3 61 e9 3b
       0.16305088 -0.10647974 0.01799822 0.0071222424
000060 76 b8 2e 3e c5 50 32 be f4 5d cb 3d f0 e1 32 3e
       0.17062554 -0.17413624 0.099300295 0.17469001
000070 51 d2 b8 3d 03 cf b0 bd a0 b1 0b 3e 4e 1d 12 3e
       0.0902449 -0.08633234 0.13641977 0.14268991
000080 e4 22 3b bd e3 62 06 3e 94 df 5c 3e 51 37 29 3e
       -0.04568757 0.1312366 0.21569663 0.16525008
000090 2e a0 40 bb c9 7f 51 3d 62 aa ab 3d 5b 68 0d be
       -0.002939235 0.051147256 0.08382107 -0.1380934
0000a0 c7 f5 10 be 47 b3 02 be a5 19 07 be 39 4f d7 bc
       -0.14156257 -0.12763701 -0.13193376 -0.026282893
0000b0 79 65 9f bd 9a b8 0c be a5 c7 01 3e 28 a5 bc 3d
       -0.07783026 -0.13742295 0.12673815 0.092111886
0000c0 5c 44 38 bd 5a 73 d4 3d 95 48 e7 3d 10 50 0f 3e
       -0.044987068 0.10373564 0.11293141 0.13995385
0000d0 20 0b 37 3e 04 8d 0a 3e b0 42 fa bd a4 b4 d5 3d
       0.17875338 0.13530356 -0.12219751 0.10434845
0000e0 1a 7e 43 bd ce e4 13 be a9 cc 05 3e 44 00 11 be
       -0.04772768 -0.14442751 0.13066353 -0.14160258
0000f0 01 50 a1 bd be df 07 3d 87 37 9d 3d 5b 10 55 be
       -0.07876588 0.03317236 0.076766066 -0.2080702
000100 4d 2f 4b be c2 76 04 3d d8 18 21 3d 67 d8 9c bd
       -0.19842263 0.03233982 0.039330333 -0.07658463
000110 30 8f c2 bd 70 8f 17 3e 26 54 1b be c4 54 cc 3c
       -0.09499967 0.14800811 -0.15168819 0.024942763
000120 d7 7b e6 bd a1 c2 43 bc 1a 50 7a bd 89 18 4d be
       -0.11254089 -0.011948259 -0.061111547 -0.2002889
000130 93 82 16 3e d4 4e e4 bb 60 e1 3d 3c 6d a4 bc bd
       0.14698248 -0.006967405 0.011589378 -0.09211049
000140 25 58 0c 3e ad 75 3a 3d 9a fd 8f bd 42 c4 14 3c
       0.137055 0.04552238 -0.070307925 0.009079995
000150 f4 1c e9 bd 10 b2 f4 3c c6 02 ed bd e9 13 c4 bc
       -0.113824755 0.029870063 -0.115727946 -0.023935275
000160 2d fc 03 3e d1 8c 23 3d d1 1d a9 bd d1 70 be bb
       0.12889166 0.039929215 -0.0825764 -0.0058117886
000170 7d ab ce 3c 01 4a d8 3d dc c3 36 3e 3e 2a 41 be
       0.025228256 0.1056099 0.17848152 -0.1886377
000180 83 1f c9 3d 71 04 a4 3c c9 b6 b0 bd 58 05 87 3c
       0.098204635 0.02002165 -0.086286135 0.01648204
000190 f6 da 9d bc be c7 34 3d f9 be 1b be 18 86 66 3d
       -0.019269448 0.0441358 -0.15209569 0.056280226
0001a0 34 4c d1 3d 52 08 9a 3b d4 64 a5 bc 80 af 6d bd
       0.10219613 0.004700699 -0.02018968 -0.058028698
0001b0 e9 e2 f1 bc da 6c 09 be 55 4a c6 3d 31 71 3a bd
       -0.029527145 -0.1342043 0.096821465 -0.045518104
0001c0 6d 8b 3f be 25 4a bd 3c f0 ec 1b 3e 83 a4 e5 3d
       -0.1870553 0.023106644 0.15227103 0.11213019
0001d0 7f ed de 3d b2 a7 9c bd f7 41 0a 3e 37 be 3e 3c
       0.108851425 -0.07649173 0.13501726 0.01164203
0001e0 f1 39 09 3e a0 c3 dd bd 42 da e9 3d 5e b7 92 3c
       0.13401009 -0.10828328 0.114185825 0.017909702
0001f0 b1 db c0 3d 60 fd 9e be 68 53 38 3e e2 fb cf 3d
       0.09416903 -0.31052685 0.18000567 0.10155465
000200 a2 72 c1 3b 1f 17 b5 bb 76 8b 06 be b0 cf 02 be
       0.005903558 -0.005526438 -0.13139138 -0.12774539
000210 7a 7b 1c 3e 10 3b 3d 3e 6d a1 82 3c e8 3e 17 bd
       0.15281478 0.18479562 0.015946114 -0.036925226
000220 21 cb 3c be f5 4a a9 bd 47 ff 3e bd 4e 41 f4 bd
       -0.18436863 -0.0826625 -0.04663017 -0.119265184
000230 5f 08 1e be b4 dd ca bc 3e 77 33 3d 8b 15 06 3e
       -0.15432881 -0.02476392 0.04381489 0.13094155
000240 90 20 77 3d a4 c3 bb 3d f7 0a ed 3d de da a8 ba
       0.06033379 0.09168175 0.11574357 -0.001288261
000250 84 b2 53 3e 8d 46 5c be 25 6e 25 3e 38 ba 10 be
       0.20673567 -0.21511288 0.16155298 -0.14133537
000260 ce a6 ef bc d4 b5 10 3e dc cb 8d 3e 59 e3 a1 3d
       -0.029254343 0.14131862 0.27694595 0.07904691
000270 a3 f8 dd ba 21 6e 71 3c e6 cf 00 be d1 91 06 3e
       -0.0016935061 0.014735729 -0.12579307 0.13141562
000280 04 96 d3 3c d1 67 0b 3e f8 00 72 3d 53 44 84 bd
       0.025828369 0.13613822 0.059082955 -0.06458344
000290 7b d8 dd 3c 95 79 0e be 26 58 10 be 25 21 08 be
       0.027080765 -0.13913567 -0.14096126 -0.13293894
0002a0 fe fc ce 3d e6 5b 8a 3d 78 b2 84 bb 21 5e 8a 3d
       0.10106848 0.067558095 -0.0040495954 0.06756235
0002b0 b1 4a 8e 3d 97 a8 1f be 65 05 ed 3c 81 55 12 3e
       0.0694784 -0.15591656 0.028933236 0.1429043
0002c0 86 74 82 3d d0 64 37 bd 00 dc 1c bd d6 9a d3 bd
       0.06369881 -0.044773877 -0.038295746 -0.10332267
0002d0 a8 91 22 ba a9 16 93 3e 6a 70 cb 3d b0 ef 79 be
       -0.0006201514 0.28728226 0.09933551 -0.2440784
0002e0 5a 18 d1 ba 71 85 83 3c 60 49 29 3e be c3 15 3e
       -0.0015952692 0.01605484 0.16531897 0.14625451
0002f0 bb ba 7e bd 79 3b c1 3d 6f c6 04 be f2 20 53 3e
       -0.0621898 0.09435172 -0.12966321 0.20618036
000300 ec 22 65 bd d6 36 7d 3d f1 f2 28 be b2 66 17 bc
       -0.055941507 0.061819874 -0.16498925 -0.009240793
000310 36 32 01 be dd a7 cd bb f2 00 14 be 47 07 06 3e
       -0.1261681 -0.0062761144 -0.14453486 0.13088714
000320 0a 9c 83 bd d4 f2 92 bc bc 6c 8b bc a0 e9 18 3e
       -0.064262465 -0.017938055 -0.017019622 0.14932871
000330 5b 98 a8 3d 6c 0e 13 3e b6 cd 52 3e 01 d9 d3 3d
       0.082321845 0.1436097 0.20586285 0.103441246
000340 e7 06 88 3c bb 1d 10 3e 07 41 20 3c 47 a0 94 bd
       0.016604854 0.14073841 0.009781129 -0.07257133
000350 59 f9 a9 be dd 9a 96 bd bb 47 0a bc 23 84 0a bd
       -0.3319805 -0.073537566 -0.008439953 -0.03381742
000360 b8 d1 81 be 1c 1a 1f bd 10 6d f7 bd 5b 81 bc 3d
       -0.25355315 -0.03884326 -0.12081349 0.0920436
000370 8f 10 16 3e 95 63 65 bd 87 9a 02 bd df f3 dc bd
       0.14654754 -0.056003172 -0.03188565 -0.10788702
000380 02 34 a4 bd 24 f4 63 bd 99 27 dd 3c be 8c 94 bd
       -0.08017732 -0.055652753 0.02699642 -0.07253407
000390 fb 63 a7 bd e8 9d ef bc 44 9d f8 bd 56 46 fa bc
       -0.08173367 -0.0292501 -0.12139371 -0.030551117
0003a0 67 11 3a be 54 ba c5 bd 0d a4 da bc 8c 61 09 be
       -0.18170701 -0.0965468 -0.026689554 -0.13416117
0003b0 45 eb c7 3d 72 82 a2 3d 42 04 1a 3e 7a 45 da 3d
       0.09761671 0.07935037 0.15040687 0.10657783
0003c0 4c 46 a0 bd 1e 4a b7 bd bf 8b 28 3e 83 28 a3 bd
       -0.07825908 -0.089496836 0.16459559 -0.07966711
0003d0 7d 41 30 3e 17 83 21 3e 36 a1 71 bd 54 74 e4 3d
       0.17212482 0.15772663 -0.058991633 0.11155
0003e0 ae 7a e1 bd d3 ee e5 bd fa ec 77 3e 0a 65 5e be
       -0.110097274 -0.11227193 0.24211493 -0.21718231
0003f0 48 0c c7 bd be 0e bc 3d 29 fa 42 bd dc ef fe bd
       -0.09719139 0.09182499 -0.047601853 -0.12448093

layer1.bias f4 [128]
000000 1e cf 2d 3e 2f 95 3c be d0 2b 27 3e 07 53 94 bd
       0.1697354 -0.18416284 0.16325307 -0.07242399
000010 e0 80 2a 3d 2d 32 40 3e 49 b0 a9 bd a4 ad 80 bc
       0.04162681 0.1876914 -0.08285577 -0.015707798
000020 49 95 1e 3e 31 01 ee bd 4b 8c a5 bc 54 9e 91 bd
       0.15486635 -0.11621321 -0.020208498 -0.07110277
000030 4e 4c ef bd bd 7c 6e bd 5c 27 21 3e 75 d4 b2 bd
       -0.11684476 -0.05822443 0.1573767 -0.08731929
000040 1a f9 18 3e 1c 1d 4e bd 27 ac 12 3d 81 e5 dd 3d
       0.14938775 -0.05032073 0.03580871 0.1083479
000050 f5 6d ab 3d 57 68 8f bd ed f9 68 bd 27 1a 40 3e
       0.08370582 -0.07002323 -0.056878973 0.18759976
000060 35 f3 d6 3d 78 0e 34 bc e5 f1 40 3e 03 3c c1 bd
       0.10495607 -0.010989778 0.18842275 -0.094352745
000070 bc 08 89 bc c2 40 27 3e 32 e5 e1 3b f9 dd f8 3d
       -0.016727798 0.16333297 0.0068937773 0.12151713
000080 74 ce 2f 3e 3a c3 01 3d 08 c6 a2 3d 7b 61 f7 3d
       0.171686 0.031680323 0.07947928 0.1207914
000090 12 95 1a 3e 58 4f ce 3b 4d 4d b7 3d f2 37 c1 3d
       0.15095928 0.0062960796 0.08950291 0.09434499
0000a0 89 f8 ce bd 41 d0 23 3e c2 6c d6 bd 20 9b 86 bd
       -0.10105998 0.15997411 -0.10469963 -0.065725565
0000b0 fe 6c c2 bd 02 5f 06 bc d8 8b 89 3c bc fa 8a 3d
       -0.09493445 -0.008201363 0.016790316 0.06786105
0000c0 22 83 0f be ab bd ae 3b 54 53 eb 3b c1 87 f6 bc
       -0.14014867 0.005332669 0.0071815643 -0.03009403
0000d0 c0 10 22 3c 63 93 ba bc 59 de f4 3d c4 1b e9 3d
       0.009891689 -0.022775358 0.11956472 0.11382249
0000e0 e2 c7 c9 bd 9d 30 26 bd 7d 01 1a be bc b4 9c bd
       -0.09852578 -0.040573705 -0.1503963 -0.0765166
0000f0 15 e2 ed bd 04 06 9b 3c c1 ed fa bc 55 8f 15 3e
       -0.11615387 0.018923767 -0.030630948 0.14605458
000100 32 f3 2f 3d 3c d5 5f bd a0 bb a3 3d 5b 1c 1e be
       0.04295654 -0.054646716 0.07994771 -0.15440504
000110 1b 0f 92 3d 59 66 81 bd f8 26 a1 bd 64 ff 64 3d
       0.071317874 -0.063183494 -0.07868761 0.055907622
000120 ee 03 cf 3c 86 ec 42 be 6c b3 86 3d 8f da c6 bd
       0.025270429 -0.19035539 0.06577191 -0.097096555
000130 d3 9e 82 bd b3 a8 af 3c ce 27 f3 ba 93 0a 3f 3e
       -0.063779496 0.021442747 -0.0018551291 0.18656377
000140 a6 6c cc 3c b0 4c 32 bd 06 6a 18 3e 50 85 0b bd
       0.024954151 -0.043530166 0.14884195 -0.034062684
000150 74 bb 9d 3d 0f 28 8f bb b5 38 c1 bd f7 53 33 be
       0.077017695 -0.004368789 -0.09434644 -0.17512499
000160 c1 a0 11 3e 74 6a da 3c 0c 1a 7e bc ff 41 c5 bd
       0.14221479 0.026662089 -0.01550914 -0.096317284
000170 36 c7 36 3d 5a 2a 4b 3e 83 65 20 3e 97 66 a0 bd
       0.044623576 0.19840375 0.15663724 -0.078320675
000180 f1 d1 44 3e 13 e6 87 bd 6a 0b fb 3d e8 d7 fa 3d
       0.19220711 -0.0663568 0.122580364 0.12248212
000190 9e 9d 0b 3e 25 e5 0a be 45 e1 0f bd 18 3c 12 be
       0.13634345 -0.13563974 -0.035126943 -0.14280736
0001a0 03 ae 16 be 83 7d 2b 3e bd 1e c1 3c f5 ab 3f bc
       -0.14714818 0.16747098 0.023574227 -0.011698713
0001b0 6e 80 01 3e ce 33 05 be 1d 66 a2 3d e6 91 13 3e
       0.12646648 -0.13008043 0.07929633 0.14411125
0001c0 58 f4 27 3e bc 65 d0 bd 46 ee 13 be d9 96 09 3e
       0.16401803 -0.10175654 -0.14446363 0.1343645
0001d0 39 5b db 3c 59 02 7c bd 53 0e 07 be 7d b5 68 3d
       0.026776897 -0.061525676 -0.13189058 0.056813706
0001e0 fe 38 c7 3d 3e 6b 33 be 38 50 08 bd 58 d8 b1 bd
       0.09727667 -0.17521378 -0.033279628 -0.086838424
0001f0 8b 84 ef bd bb 7a 36 bd e3 31 3f be 7d 98 4a be
       -0.116952024 -0.04455064 -0.18671374 -0.19784732

layer2.weight f4 [256, 128]
000000 62 02 cb bd 8e 19 87 bd 04 5a ab bc 61 e4 c3 bd
       -0.09912564 -0.06596671 -0.020916946 -0.09565044
000010 87 05 3d 3d 2e 18 f9 bc d8 16 1d bb 2c ad 6a bd
       0.04614785 -0.030407038 -0.0023969915 -0.057294056
000020 23 02 bc 3d f1 55 57 bd 50 bd dd bd 03 fb 8f bd
       0.09180095 -0.052572194 -0.10827124 -0.070302986
000030 3b 2e ac 3d 2c a3 8a bd 61 0c 9d bc 02 9f a1 bd
       0.08407255 -0.06769404 -0.019170942 -0.078916565
000040 3a f9 a1 3d bf 7a 13 bc ed 0a ab 3c 1e 39 19 bd
       0.07908864 -0.009001433 0.020879233 -0.037407987
000050 3e ad 79 3d 78 33 ba bc b4 4b cc bd 4d 27 b9 3c
       0.060956232 -0.02272962 -0.09975377 0.022601748
000060 0b f2 81 3d 8b d0 2c 3d e8 13 e5 bd 4e da e1 bd
       0.06344994 0.04219107 -0.111854374 -0.110279664
000070 0c 9c fa bb 83 26 14 3d 88 13 fb bc 4d c0 37 3d
       -0.007647997 0.03616954 -0.030648962 0.044861127
000080 ae 23 62 3d 73 f6 94 bd 95 e2 a1 3b 62 5e 00 bc
       0.055209808 -0.07273569 0.0049403408 -0.007835003
000090 53 a4 a0 bc 96 af 17 3d 6c 46 b0 3d ce 7f 39 bd
       -0.019609606 0.037032686 0.08607182 -0.0452879
0000a0 73 a9 18 3d 34 60 28 bd 70 d5 fe 3c e9 6b 1e 3d
       0.037270974 -0.04110737 0.031107634 0.03867713
0000b0 18 84 5c 3d b0 57 85 bd d5 8a 86 3d ff 89 84 bc
       0.053836912 -0.06510866 0.06569449 -0.016179083
0000c0 b5 c3 12 bd 8f d5 4d bd 74 1a 21 bc 04 3a 20 bd
       -0.035831172 -0.050252493 -0.009832967 -0.039117828
0000d0 b5 85 5c 3d dd 92 b7 3d ec 6c 43 3c dc c4 02 3c
       0.05383845 0.08963559 0.0119278245 0.007981505
0000e0 7c 2a 9d 3d ed 17 0d bc b1 a5 5b bc 1a f1 72 bd
       0.07674119 -0.008611661 -0.013406203 -0.059311964
0000f0 df cf 8a bd 83 ff 0e bd 7b 25 0d 3d 7f f7 cc bc
       -0.067779295 -0.034911644 0.034459572 -0.02502036
000100 3d 55 bf 3d f6 cb c5 ba b9 de 8a 3d e5 69 d7 bd
       0.0934243 -0.0015090692 0.06780762 -0.10518245
000110 9d ca 75 3c 6e bc 97 bd 51 10 3f bd be c9 ba bd
       0.01500192 -0.07408987 -0.04664642 -0.091205105
000120 92 4e dd 3a ff 76 80 3d 19 b2 63 bd ab 80 8c 3d
       0.0016884378 0.06272697 -0.05558977 0.06860479
000130 44 66 0b be d3 b5 b0 bc de e5 a5 3d 51 a7 9b 3c
       -0.1361323 -0.021571076 0.08100484 0.019000681
000140 40 30 bf 3d ea 9d 53 bb 04 e0 73 3d 7a b5 4d 3d
       0.09335375 -0.003229017 0.05953981 0.050221898
000150 92 e9 25 bd 1d e1 f5 bc d5 26 64 bc b0 27 f4 3c
       -0.040505953 -0.030014569 -0.013925274 0.02980408
000160 7f e9 bf 3d 61 71 7a 3d b0 3b 23 3d 6a 06 fb 3c
       0.09370708 0.061143283 0.039851844 0.030642707
000170 d8 7f 15 3c 14 86 1a 3c 5d 51 68 3d 90 aa d9 3c
       0.009124719 0.009431381 0.05671822 0.026570588
000180 33 d6 dd bc 7b 78 4c 3d 8e a3 ef 3c fb 5a a7 bb
       -0.027079677 0.049919587 0.029252794 -0.0051072813
000190 fb 4b a9 3d ed 50 15 3d 52 74 f5 bc 4f b1 9d 3c
       0.08266445 0.03645413 -0.029962692 0.019249586
0001a0 02 4f 80 3a 3b 22 9d bc bf 03 37 3d 8c 34 38 3d
       0.0009789171 -0.019181361 0.044681307 0.044971988
0001b0 f3 9f f6 bc 7d c7 6a 3d b1 13 00 3d 38 fd 5a 3d
       -0.030105567 0.057319153 0.03126878 0.053464144
0001c0 01 91 24 3c d5 15 a5 bd fd 9c a1 3c 4a 98 6c 3d
       0.010044337 -0.08060805 0.019728178 0.05776242
0001d0 0a e2 f6 3c 27 48 6a 3d c4 d0 8d 3c 71 e1 95 bd
       0.03013708 0.057197716 0.017311461 -0.0731839
0001e0 f8 f9 a2 bd 4c 98 8f bb e3 55 3b bd 36 12 5d bd
       -0.07957834 -0.004382169 -0.045736205 -0.053972445
0001f0 c6 55 9d bd 85 54 a4 3d cf 1f b8 3d 53 70 45 3d
       -0.076823756 0.08023933 0.08990442 0.048202824
000200 d0 40 50 bd c2 1a e6 39 7e c9 93 bd f1 fb 13 bd
       -0.05084306 0.00043888955 -0.07216166 -0.036128942
000210 50 b1 47 bd fc 0a 0d 3d 7a 7a bb bb 51 58 57 bd
       -0.048753083 0.034434304 -0.0057213875 -0.05257446
000220 9e a9 ae bc 71 ee 6b 3d d0 3f b6 bb 57 e4 d2 3c
       -0.021321114 0.057600442 -0.0055618063 0.025743647
000230 d7 df 9b 3d 47 2e 8c bd 7e 98 a4 bd c0 8b 6d 3d
       0.076110534 -0.06844764 -0.08036898 0.057994604
000240 ae 88 b6 3c f8 01 75 bd 8b c3 97 bd e3 f1 8e 3d
       0.02228197 -0.05981633 -0.07410344 0.0697973
000250 3f dc 97 bd 4d 0e bd 3c 80 ea 9c 3b 35 83 0b 3d
       -0.074150555 0.023078108 0.0047886968 0.034060676
000260 67 9d be 3c c9 5e 79 3d ad b4 86 3d 6e 23 4d bd
       0.023268415 0.06088141 0.0657743 -0.050082617
000270 6d ef a3 3d 33 6a 38 3d 43 02 21 3d 61 20 a7 3c
       0.08004651 0.045023154 0.039308798 0.020401182
000280 f2 56 b7 3c 24 57 c0 3c 39 73 53 bc 5c 7f 07 3c
       0.022380326 0.023479052 -0.012905889 0.008270111
000290 bc 23 6b 3d 7e f2 6e 3c 57 65 a2 3c 20 58 af 3b
       0.057407126 0.014584182 0.019823713 0.0053510815
0002a0 e1 0a 34 3b b3 71 f2 bd 4f 8e 94 3c a1 71 2c 3d
       0.0027472305 -0.11838093 0.018134264 0.042100552
0002b0 ad 1d b9 3d f1 09 65 3d 5d 7e 9b bd e0 e8 99 3d
       0.09038863 0.055917684 -0.07592461 0.075151205
0002c0 ea e8 8b 3d 6c c4 06 bd 46 f6 f1 bc de 1d 25 bd
       0.06831534 -0.032902166 -0.029536378 -0.040311687
0002d0 69 76 a9 bd b6 9e 3e 3b 23 92 f8 3c 19 e0 a2 bd
       -0.08274538 0.0029086298 0.03034312 -0.079528995
0002e0 ff 70 86 3d 97 27 cf 3d 68 93 8f 3d 60 50 e0 3d
       0.06564521 0.10114973 0.070105374 0.1095283
0002f0 23 69 55 3d 44 59 17 bd d1 b5 4f 3c 25 34 9f bd
       0.05210222 -0.036950365 0.012677626 -0.07773618
000300 d1 20 d3 bd 00 f9 0d bd 35 20 14 bd f3 8b d3 ba
       -0.103089936 -0.034661293 -0.036163528 -0.001613973
000310 2c 29 9e bd 07 4b 82 3d f9 04 26 bc 56 cd 7f bb
       -0.07722697 0.063619666 -0.0101330215 -0.0039032302
000320 2e f8 bd bd e3 24 7f bd fe 8c cc bc 11 d0 c7 bd
       -0.09275852 -0.062291037 -0.024969574 -0.097564824
000330 f4 cd 97 bd b4 ce 78 3c de 73 cb bc 54 4d d5 bc
       -0.07412329 0.015186001 -0.024835523 -0.02603785
000340 7f bb 3f 3c 7c 39 5a 3d c6 be b4 3d 2b 22 1e bd
       0.011702417 0.053277478 0.0882545 -0.038606804
000350 a0 fd d0 bb 8b ed 87 bd d0 bd cd bc c8 20 24 3d
       -0.0063778907 -0.066371046 -0.025114924 0.040070325
000360 ac 5a be bd 46 95 a8 bc c4 49 0a bd 48 84 94 3d
       -0.09294638 -0.020578992 -0.033761755 0.07251793
000370 91 16 a7 3d 17 31 93 3d 89 2d 71 bd 62 49 85 3c
       0.08158601 0.071870975 -0.058881316 0.016270343
000380 c4 c1 2b 3c 05 a5 ad 39 40 47 57 3d 1f f6 1e bd
       0.010483209 0.0003312008 0.052558184 -0.038808938
000390 f2 cc 70 bd 01 7f ab 3b f1 56 3e bc 8f a7 ac 3d
       -0.0587892 0.005233646 -0.011617408 0.08430397
0003a0 a4 71 5e bd f2 d9 e2 3b ce c1 5d 3d c0 3d 6c 3d
       -0.054307595 0.0069229538 0.054139905 0.057676077
0003b0 dd 2a 5b 3d d7 3a 6b bc 69 ce bb bc cd ef 56 3d
       0.053507674 -0.01435729 -0.022925572 0.052474786
0003c0 2c 26 13 3d fa 00 a6 bd 7a 23 c0 bd 19 86 53 bc
       0.035925075 -0.08105655 -0.093817666 -0.012910389
0003d0 ac e2 4b 3c d8 fb c8 bd 4e 81 09 3d 2d f0 22 3c
       0.0124441795 -0.098136604 0.03357058 0.009944958
0003e0 99 ac d6 bd 4d c2 f4 bd 5f 0e 65 3d 04 42 d5 3a
       -0.10482139 -0.119511224 0.05592191 0.0016270285
0003f0 03 3f 1d bd e3 3f f3 3c ec 1d 51 bd 52 bf 9d bd
       -0.03839017 0.02969355 -0.051053926 -0.07702507

layer2.bias f4 [256]
000000 7a 76 de bc 03 70 6e bc ef e6 91 3d e3 31 af 3c
       -0.027156103 -0.014553073 0.07124125 0.021386093
000010 b6 81 1e 3d 81 25 94 3d b9 f5 1c 3e 85 11 b7 3d
       0.03869792 0.07233716 0.15328111 0.089388885
000020 25 4e cc 3d e4 f0 a1 bc 08 97 86 3d 3d 27 fe bc
       0.099758424 -0.019768186 0.06571776 -0.03102457
000030 42 b5 0b bd 02 1a a0 3d d1 14 8e 3d 45 fd dc bc
       -0.034108408 0.078174606 0.06937564 -0.026976237
000040 c2 06 95 3d ea 33 cc 3d 2b 4b 87 3c b1 92 a9 3d
       0.072766796 0.09970839 0.016515335 0.08279932
000050 ea 81 97 3d 3e cf 8c bd 77 5b 1f bd f9 3a 8b bd
       0.07397826 -0.06875466 -0.038905587 -0.067983575
000060 d0 c8 31 3d f8 12 81 bd 11 c5 f1 bc 96 3d 97 bd
       0.0434044 -0.06302446 -0.029512914 -0.073847935
000070 b8 de 2f bd 08 ec bf 3c 11 ba 86 3d 9b 4e 1a bd
       -0.04293701 0.023427978 0.06578458 -0.03767262
000080 88 22 2c 3d f8 d2 ad 3d a9 9a a0 3d bc 29 01 3c
       0.04202512 0.08487505 0.07841999 0.007883485
000090 04 db ad bd e9 76 93 3d 24 8d 8b bd 11 82 b8 3d
       -0.084890395 0.07200415 -0.0681403 0.09009183
0000a0 a9 1f 8f bd fe a3 09 bb 0c a8 58 3d e0 97 a0 3d
       -0.069884606 -0.0021002288 0.052894637 0.07841468
0000b0 f9 b2 ab bc 96 74 a3 3d 3b 55 94 3d 47 93 bf 3d
       -0.020959364 0.079812214 0.07242819 0.09354263
0000c0 e6 0b 73 bd 6d de 91 3d 71 c3 a7 bb 86 11 32 bd
       -0.05933752 0.071225025 -0.005119734 -0.043473743
0000d0 40 3e 3a 3d 67 f0 b0 bd a5 4b 0e bd ac 3a 93 bc
       0.045469522 -0.08639603 -0.03474011 -0.017972313
0000e0 37 cb b2 3d 96 b0 f8 3c 88 ac a3 bd 51 20 b7 bd
       0.087301664 0.03035764 -0.07991892 -0.08941711
0000f0 a6 6c 9a 3c c6 52 73 3d 3e 08 ca 3d 15 7d ab 3d
       0.018850636 0.05940511 0.09864853 0.08373467
000100 cd 4e 91 3d 9e df 54 bc ae 23 ba 3d b1 09 b3 bc
       0.07095108 -0.012992768 0.090888366 -0.021855207
000110 c3 5e 7d bd d5 7b ab bd d0 23 83 3b 38 6b 8a 3b
       -0.06185795 -0.083732285 0.004002072 0.0042242073
000120 2d 13 33 3d 32 1c 5f 3d de 7c b1 bd e7 a3 14 3d
       0.04371946 0.05447025 -0.08666395 0.036289122
000130 bc 5b f5 bc 16 1a 85 3d 07 40 ab bd ee 82 83 bc
       -0.029950969 0.06499116 -0.083618216 -0.016053643
000140 2c 66 8e 3d c6 c6 a7 3d 54 c0 8c bd af 06 66 bd
       0.069530815 0.0819221 -0.06872621 -0.056158718
000150 83 67 d3 3b a7 29 b5 3d be c7 7f bd 04 9a d2 bc
       0.0064515485 0.08845835 -0.06244635 -0.025708206
000160 d2 18 99 bc 3d c1 11 bd b5 ef 6d 3d fe 68 0c bb
       -0.018688593 -0.035584677 0.05808993 -0.0021424885
000170 cc a2 1e bd 90 45 4f 3d 1d a1 17 bd f3 2a 65 3d
       -0.038729474 0.05060345 -0.037018884 0.055949163
000180 c8 82 67 3d 5d 52 64 bd f7 52 23 3d 7e 4e 06 bd
       0.056521207 -0.05574261 0.039874043 -0.0327897
000190 30 2f 3b bd a1 53 8f bc 45 41 55 bd 84 b8 05 bd
       -0.0456993 -0.017495932 -0.0520642 -0.03264667
0001a0 cb 74 90 bd b7 b3 f3 bc 0d 0e 59 3d 04 74 9e 3d
       -0.070535265 -0.02974878 0.052991915 0.07736972
0001b0 64 13 4c bd 22 2c 92 bc d7 c9 f1 bc 7d 83 e6 bd
       -0.04982318 -0.01784331 -0.02951519 -0.11255548
0001c0 b9 af 84 bd e5 47 a3 3d c4 8d 1b bd 54 4b 66 bd
       -0.06478829 0.07972697 -0.037976995 -0.056224182
0001d0 40 90 28 3c 32 13 9a bd 1c 2b 53 3d c8 f4 25 3d
       0.010288298 -0.075231925 0.051554784 0.040516645
0001e0 08 e6 9e bb 78 c9 98 3d 9f 3a 1e 3d a6 7a a9 bd
       -0.004849199 0.07460302 0.038630124 -0.082753465
0001f0 24 45 7f 3d d9 6b 0d bd 7b b4 20 bd 33 1b ab 3c
       0.062321797 -0.03452668 -0.03923462 0.020886993
000200 6c bf 02 3d 39 d1 08 3d 4a 71 75 3d ea 22 14 3e
       0.031920835 0.033402655 0.059922494 0.14466444
000210 98 d7 62 3d de 58 4c bd 19 a6 79 3d 4b 75 a8 3a
       0.055381387 -0.049889438 0.06094942 0.0012852339
000220 3f 39 a4 3c 09 10 c6 3d 13 bb 74 3d 60 78 de 3d
       0.020046828 0.09671027 0.05974872 0.108628035
000230 20 fc ba 3d f5 fe 46 bd 01 98 e8 bb b8 21 d6 bc
       0.0913012 -0.04858299 -0.0070981984 -0.026139125
000240 9e 3a 50 bc e4 0f 95 bc 8c 16 95 bc c3 18 e2 3d
       -0.012709288 -0.018196054 -0.018199228 0.11039879
000250 01 a3 02 3d 3e b9 dd 3a 81 b1 05 bd 8c 81 7a 3d
       0.031893734 0.0016916168 -0.032639984 0.0611587
000260 d4 da 44 bb 16 30 b6 bc e5 ea db 3d 4c 20 99 bd
       -0.0030037658 -0.022239726 0.10738162 -0.07476863
000270 f6 fc 87 bd c4 1b aa bd 24 5f 9d 3c b0 25 77 3d
       -0.06640045 -0.08306077 0.019210406 0.060338676
000280 d3 f4 a8 3d 7e 66 96 bd dd 67 34 bd 17 ba ba bc
       0.082498215 -0.073437676 -0.044044364 -0.022793813
000290 73 5f 0b 3d 2e 08 aa 3d 2a 36 d2 3d 71 51 5a 3d
       0.034026574 0.083023414 0.10264237 0.053300325
0002a0 79 20 20 bd e4 b4 07 bb 9b 55 8a bc eb 67 8f 3c
       -0.03909347 -0.0020707184 -0.016886523 0.017505607
0002b0 ba 11 56 bd 24 b0 e0 3d fe ee 3f bd 8a 59 e5 3d
       -0.052263 0.10971096 -0.04685878 0.11198719
0002c0 61 9f c9 bd 08 68 d3 3c 7f 99 e4 3c 5b 7c f5 3d
       -0.09844852 0.025806442 0.027905224 0.119866095
0002d0 6e 8b ce bb dd d5 96 3d 7d f6 91 bd f5 02 7e bd
       -0.0063032424 0.0736501 -0.07127092 -0.06201454
0002e0 19 fd 98 bd 46 f2 7d bd 27 65 16 bd f8 07 88 3c
       -0.074701495 -0.061998628 -0.03671756 0.016605362
0002f0 1c de 41 bd fd 10 74 bd 22 4a 5b 3d 4d ec 3a bd
       -0.04733096 -0.059586514 0.053537495 -0.04563551
000300 14 68 89 3d 73 c9 06 3e 27 dd 90 bd 99 34 7f bd
       0.067093045 0.13162784 -0.070734315 -0.06230602
000310 42 c5 81 3d 99 15 b8 3d 2c 0b df bc 85 61 49 bd
       0.06336452 0.089884944 -0.027227007 -0.049165267
000320 71 81 df 3d e5 ed dc bb c8 93 6e 3c 90 f7 95 bd
       0.10913361 -0.0067422264 0.014561601 -0.073226094
000330 e3 a6 2b 3d 67 e1 35 3d f2 70 27 bd 19 6e 04 bc
       0.041907202 0.044404414 -0.040879197 -0.00808289
000340 74 53 03 bc ad f8 c6 bc 82 a0 81 bd 3e 5b cc 3d
       -0.008015502 -0.0242885 -0.063294426 0.099783406
000350 8b a1 42 bd 88 94 09 bd 97 2e bd bd 04 57 98 bd
       -0.04751734 -0.033588916 -0.09237402 -0.07438472
000360 06 53 de 3d b2 23 4d bd 4f 88 58 bb e1 c0 54 3d
       0.10855679 -0.05008287 -0.003304023 0.051941756
000370 24 7a 9c bc 1b b4 c4 bd 34 9a 60 3c 9b 5c 9b 3d
       -0.01910121 -0.09604665 0.01370864 0.075860225
000380 b4 da cb bb f0 2c ab bd 93 e7 03 bc 36 91 18 3c
       -0.00622114 -0.083581805 -0.008050817 0.009311965
000390 ee 4e 4d bd 67 8c a1 3d 32 5c 63 bd 3a 68 17 3d
       -0.0501241 0.07888108 -0.055507846 0.036964633
0003a0 e5 dd a4 bd b4 e7 08 3e ca 6e 53 3d fc 46 08 bc
       -0.080501355 0.13369638 0.05161933 -0.008317705
0003b0 61 20 9e 3d 7c bc 6b 3d c7 bc 9f bc 86 ac cb bd
       0.077210195 0.0575528 -0.019499196 -0.099450156
0003c0 e9 6b 67 bd 87 16 b4 3d ae 86 2c bd 03 1f 5c 3d
       -0.056499396 0.08793359 -0.042120628 0.053740513
0003d0 80 f8 f0 b9 43 ae 8d 3d a6 78 4b 3a 9d b1 6d 3c
       -0.00045961514 0.069180034 0.00077618135 0.014507678
0003e0 3d 2e 3f bd b9 2e 83 bc 0c ec 07 3d 63 e1 97 bd
       -0.046674956 -0.01601349 0.033184096 -0.07416036
0003f0 de 7b d3 bc 12 9b 22 3d 32 74 ce bc 4a 45 8a 3d
       -0.0258159 0.039698668 -0.02520189 0.06751497

layer3.weight f4 [256, 256]
000000 d5 73 b8 bc d7 10 0c bd 78 bb 31 bc f9 24 27 bd
       -0.02251617 -0.034195747 -0.010847919 -0.040806744
000010 5d 4c 94 3d 6b 4d 1e bd b9 2e 82 bb 35 72 9d bd
       0.07241128 -0.03864805 -0.003972855 -0.07687799
000020 6f 5a 1a bd 55 84 a9 3b 24 aa 96 bc 75 59 03 bc
       -0.0376839 0.005173246 -0.018391676 -0.008016934
000030 21 4a b6 bd a4 cc 45 bb 60 87 9e bb 82 f3 5f 3d
       -0.08900858 -0.003018179 -0.0048379153 0.054675587
000040 35 17 32 3d 91 4e 56 bd f3 4c 0f bd e1 bb 19 bd
       0.043479163 -0.05232102 -0.034985494 -0.03753269
000050 93 ed 9d 3d 9c d5 00 3c 11 05 a9 ba c8 f8 c8 bc
       0.07711329 0.007863428 -0.0012895187 -0.02453269
000060 7c 83 27 bd 89 2c 0e bd 39 e0 24 bd 56 c0 20 3d
       -0.040896878 -0.03471044 -0.040252898 0.039245926
000070 49 02 6d 3b fc 9a b2 bc ab 37 d1 bc 4e 7d 2f 3c
       0.0036164692 -0.021802418 -0.02553924 0.010711027
000080 8c f8 e5 3a fb b9 b6 bc 80 e0 63 3d 59 05 5b bd
       0.0017545386 -0.02230548 0.05563402 -0.053471897
000090 29 15 b1 bd 13 8a a1 bb 87 0e 86 3c 8d 40 53 bd
       -0.08646614 -0.00492979 0.016364349 -0.051575232
0000a0 8e 11 66 3c 05 0c c5 bc e8 b3 48 3d 31 7b 27 bd
       0.014042271 -0.024053583 0.048999697 -0.04088897
0000b0 c5 fc c9 3c ff a9 99 3c ac 41 cf 3c c2 43 64 bd
       0.024656663 0.018757818 0.02529987 -0.05572868
0000c0 de 83 0c bb 38 79 48 bd 82 ed e1 bc 4c 3f 08 3c
       -0.0021440904 -0.04894373 -0.027579073 0.008315872
0000d0 eb b2 4b bd b8 3b 4a 3d e6 0f 86 bd 71 e7 7e bd
       -0.049731176 0.04937336 -0.06546001 -0.06223244
0000e0 67 e7 05 3d 37 95 f3 3c f2 3e 0e 3d a0 93 35 3c
       0.032691386 0.029734237 0.034727998 0.01108256
0000f0 13 b7 79 bd 47 9a 87 3b ae a7 84 3c 19 9f 8b bd
       -0.06096561 0.0041382643 0.016193237 -0.06817455
000100 fa ff 81 3d ef f1 25 bc 77 ba 52 3d 4f 09 dc 3c
       0.06347652 -0.010128482 0.051447358 0.026859907
000110 39 bb aa bd 22 db ea 3c ce 1a 46 bd 1f 7a 28 3d
       -0.08336491 0.028668944 -0.048365407 0.04113209
000120 9c 96 90 bc dc 94 65 3d e5 44 f0 bc a5 f6 88 3d
       -0.017649941 0.056050166 -0.029329726 0.06687669
000130 a0 8b 6c 3d 9e 02 ae bc 59 60 aa bc e8 fd 76 bd
       0.057750344 -0.021241482 -0.020797895 -0.060300738
000140 bd 50 41 bd 30 37 26 bb e4 e8 29 b9 3e 51 03 bd
       -0.04719614 -0.0025362484 -0.00016203854 -0.0320599
000150 9c bf 7b bd 7b f9 49 3d 66 78 dc 3c 1f d4 39 bd
       -0.06146203 0.04931019 0.02691288 -0.04536831
000160 5a dc e2 bc 31 b0 2f 3c 10 22 a3 bc 0e 56 78 3d
       -0.027692962 0.01072316 -0.019913703 0.060628943
000170 ef ec a5 3d fa dd 5b bc 7c cc f8 bc 56 50 99 3c
       0.08101832 -0.013419623 -0.030370943 0.018715065
000180 93 94 87 3c e6 a1 ed 3c a8 0d fc 3c 33 47 bc 3b
       0.016550338 0.029007863 0.03076823 0.0057457923
000190 dd 49 84 ba d2 4b 52 bd 55 43 3d bc e9 4e 25 bd
       -0.0010092814 -0.05134184 -0.011551698 -0.040358458
0001a0 4e da 47 3d 74 3f ef bb 2d 87 81 bc b0 d1 55 3b
       0.048792176 -0.0073012654 -0.015811527 0.0032626204
0001b0 e7 b8 3b bd b1 da 7b bd 0d 7b 2d 3d c5 16 6c 3d
       -0.045830633 -0.061487857 0.04235368 0.057638902
0001c0 65 0e fc 3c 2a db e7 3b da c3 3e bd 31 52 48 3d
       0.030768583 0.007075687 -0.046573497 0.04890651
0001d0 f6 f4 d3 bc af c3 df bc 87 89 9d 3d a6 c1 18 bd
       -0.025873642 -0.027314989 0.07692247 -0.037294053
0001e0 f2 cd 7c bd a2 0f 12 3d 2f fd ed 3c 80 80 78 3d
       -0.061719842 0.03565944 0.029051391 0.060669422
0001f0 c8 dd 26 3d a4 47 0b bc 8e e5 be bb 0a 17 a8 bb
       0.04073885 -0.008500967 -0.005825705 -0.0051296996
000200 23 14 5c 3d 3e a0 8f bd ea 45 6e bd 64 36 91 bc
       0.05373014 -0.07012986 -0.058172144 -0.01772613
000210 9a 4b 70 3d 15 1d 57 bd 30 0a 5a 3d 0d d7 32 3d
       0.05866585 -0.05251797 0.05323237 0.04366212
000220 b5 02 67 3d c0 04 92 3c 9e bf 91 3d 02 e2 9c 3d
       0.056399066 0.01782453 0.07116626 0.07660295
000230 df 1e 50 3d e8 0e 32 3c 86 f8 01 3d 4d 4d c6 bc
       0.05081069 0.010867812 0.03173115 -0.024206782
000240 81 b4 08 bd e4 5d 39 3d 76 2f 06 3c 26 e4 18 3d
       -0.033375267 0.045255557 0.0081900265 0.037326954
000250 f9 50 4a 3d 05 fe 82 bc 20 13 cc bc f8 cf 29 3d
       0.049393628 -0.015990267 -0.024911463 0.0414581
000260 c1 5a 03 3c 37 af 34 3d 58 f2 a3 3d 75 e4 99 3d
       0.008017243 0.04411241 0.08005208 0.07514278
000270 1c 61 cb 3c 5f 27 23 3d b0 59 4d bc 44 4c 86 bd
       0.024826579 0.03983247 -0.01253359 -0.06557515
000280 8a ec 4f bd 37 1d 16 3d 54 b6 d7 bc c6 19 3f 3d
       -0.05076269 0.036648955 -0.026332058 0.04665544
000290 c0 2c a3 3b 8f c1 4a 3d 48 5c 1a bd 96 c7 18 bd
       0.0049797 0.049500998 -0.037685663 -0.037299715
0002a0 6a e2 3d bd c0 15 c4 3b e5 b8 1d 3d bd f8 72 3d
       -0.046358503 0.005984038 0.038506407 0.059319247
0002b0 7b 7b f5 3b f0 1e 2d 3c f2 77 6c 3d e3 32 3a bd
       0.0074915267 0.010566458 0.057731576 -0.045458686
0002c0 ad 9e 00 bc 8c 20 b0 bc 0a 20 b0 bd 9b 82 2a 3d
       -0.007850331 -0.021499895 -0.08599861 0.04162846
0002d0 82 5a ec ba 88 20 36 bd 0c 99 27 bc 57 93 63 3c
       -0.0018032345 -0.044464618 -0.01022936 0.013890109
0002e0 a6 63 a4 3c a5 47 33 bd 79 77 bc 3d 9c 72 c9 3c
       0.020067047 -0.043769497 0.09202475 0.024590783
0002f0 cc 91 bf 3c ad 9f f6 3c d7 bd 4b 3d b7 a2 50 bd
       0.023384951 0.030105436 0.049741592 -0.050936427
000300 fc 94 d0 3c 4b e9 51 bd 16 c9 99 3b 2a 24 4c 3d
       0.025461666 -0.051247876 0.0046931608 0.049839176
000310 d8 28 2a 3d 78 50 e8 3b 07 67 22 3d ca 55 39 3b
       0.041542858 0.0070896707 0.039649036 0.0028279894
000320 9a 96 91 3d 9d d1 bd 3d aa 0c 32 3c 19 ed 59 bc
       0.07108803 0.09268496 0.010867277 -0.013301157
000330 ec 43 5f 3d 92 57 b5 3d a8 c7 c8 bc 06 2c 67 bd
       0.054508135 0.08854593 -0.024509266 -0.05643847
000340 f2 94 a2 3d 5c 8f 72 bc de ce 50 bc 41 20 7b bc
       0.07938565 -0.014804687 -0.0127446335 -0.015327514
000350 b3 5f 6f bd 76 4f 58 bb 79 36 6c bb 39 63 27 bd
       -0.058440875 -0.0033006347 -0.003604321 -0.04086611
000360 a1 9f d6 bb 58 7c 51 3b b4 6c a1 bc 17 94 68 3d
       -0.006549791 0.0031964984 -0.019705154 0.056781854
000370 f0 12 58 bc bb 03 87 3d ac 3c 6f bd b5 5c 65 3b
       -0.013188109 0.065925084 -0.05840747 0.0034997885
000380 a0 06 8a 3d f9 77 8c 3c 06 55 2e 3d a5 92 6c ba
       0.06739545 0.017147051 0.042561553 -0.0009024537
000390 8b a4 92 3d 3d ef 8c bc a9 49 d8 bc 73 08 3b bd
       0.0716029 -0.017203921 -0.026402311 -0.045662355
0003a0 db 27 87 bc 35 75 26 bd 59 8e 67 3d 2e 2a 7e bd
       -0.016498497 -0.04063912 0.056532238 -0.062051944
0003b0 04 96 08 3d f2 48 62 bc 50 8e 33 bd a1 78 0b bc
       0.03334619 -0.013811337 -0.04383689 -0.008512647
0003c0 8a ef 7f ba d2 ca 36 3d 80 ba 02 3b f3 77 21 bd
       -0.0009763172 0.04462702 0.0019947588 -0.039421033
0003d0 81 73 00 3c a4 69 97 bd 4a 46 20 bd c8 2d 81 bb
       0.007840038 -0.07393196 -0.039129533 -0.003942225
0003e0 fc e3 56 3d b4 81 89 3d 10 81 e2 39 81 03 04 bd
       0.052463517 0.06714192 0.00043202238 -0.032229904
0003f0 01 63 0a bd a5 d7 34 ba 6b 88 8a 3c 8b 7a 6e 3c
       -0.033785824 -0.00068985886 0.016910752 0.014555584

layer3.bias f4 [256]
000000 59 bf 0a bd 8e 0d 9b 3d ac 90 39 3c b7 be 8a 3c
       -0.03387389 0.07570945 0.011325996 0.016936643
000010 9c cc f7 3c 6e ef e2 3a 90 da 24 3d d5 cd a3 3d
       0.030248933 0.0017313787 0.0402475 0.07998244
000020 12 92 74 bd a6 f3 8a bd 99 24 9e bc c9 45 15 3d
       -0.059709616 -0.067847535 -0.01930456 0.036443505
000030 c1 b9 f6 ba 2c eb 6f 3d d4 58 86 bd f0 a6 18 3c
       -0.001882367 0.058573887 -0.06559911 0.009317145
000040 84 23 8c bc 04 2b 94 3d fb 89 94 bc 29 2d 0b bd
       -0.017106779 0.07234767 -0.0181322 -0.033978615
000050 a9 9a a0 bc 5e 5b 0e bd 25 2a 50 bc 3d b1 b7 3d
       -0.019604998 -0.034755103 -0.012705361 0.089693524
000060 a3 28 40 bd 92 40 91 3d 41 2f 06 bd 9a f2 1e 3d
       -0.046913754 0.07092394 -0.03275991 0.03880558
000070 39 d4 37 3d 0b be 08 3d 3a c0 45 3d cc 27 65 3d
       0.044880126 0.033384364 0.048279025 0.055946156
000080 af cd 32 bd 6a c4 8e 3d a4 58 33 3d ff d0 ec bc
       -0.043653186 0.06971057 0.043785706 -0.02890825
000090 d0 19 df 3c 0b 1f a7 3d b2 46 91 bc c9 79 9a 3d
       0.027233988 0.08160218 -0.017733905 0.0754276
0000a0 b6 b1 99 3d 77 38 da 3d 53 c8 0b bc 1a 08 81 bd
       0.07504599 0.10655301 -0.008531648 -0.063003734
0000b0 ad 71 86 3c 77 55 67 3c 96 db aa bc be fd 23 3d
       0.016411627 0.0141194975 -0.02085666 0.04003691
0000c0 19 b3 d8 3c 0e 4f 35 3d ee e0 12 3d 81 32 11 bd
       0.026452588 0.044264846 0.03585904 -0.035448555
0000d0 2c e1 5a bd 41 7c 1a bc 6f eb 15 bc 52 04 0f 3c
       -0.053437397 -0.0094290385 -0.00915037 0.008729057
0000e0 c3 8d 35 bc f8 e5 1d 3d 0a 45 15 bc 0b a5 8f 3d
       -0.011081162 0.038549393 -0.0091106985 0.07013901
0000f0 0c bf de bc c8 d1 e0 bb 09 88 28 bb 46 ca 2d 3d
       -0.027190708 -0.0068609454 -0.002571585 0.04242923
000100 ab 37 e1 bc 89 8d 47 3d f3 65 91 3d 4a ff 0d 3b
       -0.027492365 0.048718963 0.070995234 0.0021667057
000110 ad d9 97 3b 79 dc f5 bc 32 c0 61 bc c2 18 03 3d
       0.0046341033 -0.030012356 -0.013778733 0.032006033
000120 40 2b 5c bd 0f fd d5 3c 46 19 3e bd 2a fd 95 3d
       -0.053752184 0.026121644 -0.04641082 0.07323678
000130 ef 2a 2a 3d e6 e2 2c 3b 2e 9e 18 3d 1d 87 2a bc
       0.04154485 0.002638036 0.037260227 -0.01040819
000140 f9 19 5f 3d 49 dc 90 3d 31 fa dd 3c 41 b7 22 bd
       0.05446813 0.07073266 0.02709684 -0.039725546
000150 94 6f 17 3d 95 c8 da 3c 57 2d a7 3c f9 d6 4f 3c
       0.036971644 0.026706973 0.020407362 0.012685531
000160 0d 27 72 3c 52 5a bb bb 93 42 16 bd bd 25 80 3d
       0.014779818 -0.005717554 -0.036684584 0.06257198
000170 b4 c3 a5 3d 51 48 f8 3c 71 6f 69 bc 72 b5 47 3d
       0.08093968 0.03030792 -0.014247761 0.048757024
000180 7e 28 0f 3d ca 34 2b bd dc 5b 26 bd 24 3c 8c 3d
       0.034950726 -0.04179839 -0.040614948 0.068474084
000190 43 1a c6 3d 6c be 07 3d db d2 87 3c 28 49 ea 3b
       0.09672978 0.033140585 0.016580036 0.007149834
0001a0 54 8c c3 3d fe d9 80 3c 88 fa c2 3d 6f 3b 70 bc
       0.0954825 0.015728947 0.09520441 -0.014662608
0001b0 c4 12 9a 3c ee 22 d4 bb 5f 7d b3 bc 77 5f 9e bc
       0.018807776 -0.0064738905 -0.021910368 -0.01933263
0001c0 ee 90 93 bd cf 48 1f bc f9 65 0d 3d b2 73 3a 3c
       -0.072053775 -0.009721949 0.034521077 0.011380123
0001d0 0b e2 d6 3c 0c 47 90 bc ca 88 1d 3b 86 d7 2f 3d
       0.026230833 -0.017612003 0.0024037831 0.04293015
0001e0 c7 88 dd 3c 67 68 53 bd 6b 7b 17 3d b6 82 e7 3d
       0.02704276 -0.051613238 0.036982935 0.11304228
0001f0 76 7c bb bc 6f 30 65 3d fc 0f 66 3b 40 63 06 3d
       -0.022886496 0.055954393 0.0035104742 0.032809496
000200 5a 17 db bc 13 fa 2c 3d f6 39 aa 3b a4 65 71 bc
       -0.026744533 0.042230677 0.0051948978 -0.014733706
000210 8d 50 f7 3c f6 ad 1f 3d 4e b0 1f 3c 80 d8 0d bd
       0.030189777 0.03898426 0.009746624 -0.0346303
000220 93 25 5e 3d 08 0a 3e 3d 95 f7 a9 3c f7 fe 6a 3d
       0.054235052 0.046396285 0.02074794 0.05737206
000230 ca 9c 25 3d 9a 9a 14 3d 00 da f7 bc b2 ec 94 3c
       0.04043273 0.036280252 -0.030255318 0.018179271
000240 04 f4 2e 3d c7 19 ea 3c 6e 7e 55 3c 6d e0 27 3d
       0.04271318 0.028576745 0.0130306315 0.040985513
000250 30 96 db bc 2a d0 a5 3c ed c7 38 bd 07 ef c8 bc
       -0.026805013 0.020240862 -0.04511254 -0.02452804
000260 03 87 a2 3c f9 cd 99 bb 03 e9 61 3d 7b 28 a9 3d
       0.01983977 -0.0046937433 0.055153858 0.08259674
000270 a8 6a 02 bd 4b 73 4e 3d 07 71 6f 3d 95 f4 00 bd
       -0.031839997 0.05040292 0.0584574 -0.03148325
000280 94 b4 68 bc 8e f7 45 bd 57 0b d2 3c ba b9 47 3d
       -0.014203209 -0.04833179 0.025640173 0.048761107
000290 54 2a 0c 3a f6 d9 22 3d 5b 23 0d bd f0 80 da 3d
       0.00053468836 0.039758645 -0.034457546 0.10669124
0002a0 9d 2b a0 3c f8 18 25 3d 5b fa c9 3c 89 b3 9b 3c
       0.019552046 0.040307015 0.024655512 0.019006507
0002b0 22 97 fe bc 95 d0 f4 3c 8d 4e 0c bd b9 ae 81 3d
       -0.031077925 0.029884616 -0.0342546 0.06332154
0002c0 39 fa 01 3c e6 85 52 3d 83 de d0 3d 74 9b 31 3c
       0.007933193 0.051397227 0.10198691 0.010840286
0002d0 22 89 f6 bc e7 70 22 3d 69 05 28 bc 0e 8f 64 3d
       -0.030094687 0.039658453 -0.010255196 0.05580049
0002e0 d7 1c 77 3c e8 38 22 bd 64 af 83 bd af bc f8 bc
       0.01508256 -0.03960505 -0.064299375 -0.030363409
0002f0 e7 ae ac bb 28 c5 1f bb 0d cb 81 3d 7c 8a 99 3c
       -0.0052698734 -0.002437899 0.06337557 0.018742792
000300 72 ff 87 3d f6 c5 b9 bc 26 5b 1e bd 7e bd cc 3d
       0.06640519 -0.022677403 -0.038661145 0.0999708
000310 58 76 05 3d 0c 24 a9 3c 42 fa 3b 3d a4 87 a4 bb
       0.032583565 0.020647071 0.04589296 -0.0050210524
000320 c0 7e 6a bd d4 88 2c bd c1 55 71 bc 8e 47 8d 3d
       -0.057249784 -0.042122677 -0.014729918 0.068984136
000330 72 b1 72 bc 46 75 1e bd 5f 3c 45 bc 62 86 75 3c
       -0.014812814 -0.03868606 -0.012038319 0.014985653
000340 d8 cb 04 bd cc 14 ed bc 3e 4c 3d bd b3 6a 2c bd
       -0.032420963 -0.02894058 -0.04621529 -0.042093944
000350 26 0f 47 3b a0 1c 49 3d f4 23 91 3d df d5 31 3a
       0.003037402 0.049099565 0.07086936 0.00067838834
000360 42 b1 bc 3a 3e bc 94 bd 83 75 6f bc be e5 aa 3c
       0.0014396089 -0.07262467 -0.014615419 0.020861503
000370 6f 5d 49 3d ba 1a 27 bd 63 ff e9 3a 43 36 38 bd
       0.04916137 -0.040796973 0.00178526 -0.044973623
000380 ac e9 16 bd af 8f 2d bd 16 2a 1f 3d 1a 12 63 3d
       -0.03684394 -0.042373355 0.038858496 0.055437185
000390 e3 8d 80 bd 03 ed 6d bc 57 a4 0b 3d 78 3d ac 3c
       -0.06277063 -0.01452184 0.034092274 0.021025404
0003a0 37 a0 be 3b 7f 76 8a 3d ae 4e da 3a bf 0f 0c bd
       0.005817439 0.067608826 0.0016655528 -0.034194704
0003b0 c2 3d e2 3c fa 2f e6 3c ca 9a 05 3d 55 6d bf bc
       0.027617339 0.028099049 0.03261832 -0.023367563
0003c0 4f 52 f8 3c f5 28 4a 3d 5a f0 44 3a 60 17 e9 3c
       0.030312685 0.049355466 0.0007512622 0.028453529
0003d0 34 93 da 3c 5a 9c 73 3d dc 04 57 bd 79 db 11 3b
       0.02668152 0.05947528 -0.05249487 0.002225606
0003e0 51 03 2e 3d 5e c4 0c 37 d3 72 2f bc 18 19 30 3d
       0.04248363 8.390371e-06 -0.010708529 0.04299268
0003f0 46 19 2d bd 26 1a 46 3d 57 7c c5 3c 7f 1d 8b bd
       -0.04226043 0.04836478 0.024107141 -0.06792735

layer4.weight f4 [128, 256]
000000 b5 b3 06 3d b1 45 ad bd a3 ce a2 bd 42 9d 20 3d
       0.032886226 -0.08460558 -0.07949569 0.039212473
000010 9a 6f 7b bb 3d de 84 bc cf 73 5c bd 9a cd 24 bb
       -0.003836608 -0.016219253 -0.05382138 -0.0025146962
000020 e4 fa 96 3c bc 16 2f 3d bb c1 14 bc b6 cf df bc
       0.01843018 0.04274629 -0.009079392 -0.027320724
000030 dc 39 97 3d c5 1b 0f bd a5 4c 72 bd 37 ab b4 bc
       0.07384083 -0.034938592 -0.059155125 -0.022054298
000040 13 34 b2 3c 64 77 87 bc 4b 5e 8a bc 21 52 89 bd
       0.021753347 -0.016536422 -0.016890666 -0.06705118
000050 49 ff b5 bb 61 d0 13 bd 33 c0 a2 3d 20 35 f7 3b
       -0.005554114 -0.036087397 0.07946815 0.007544175
000060 85 2d c8 3d 2a 18 12 3d e1 0b e9 ba ad b9 c0 3d
       0.09774307 0.035667576 -0.001778003 0.09410415
000070 67 1a 10 3c e1 19 81 bd 86 cc 8e bd aa 89 5f bd
       0.008795357 -0.06303764 -0.069726035 -0.054574646
000080 a8 20 5b bd 02 59 30 bc 3b 18 06 bd 20 aa 19 bd
       -0.05349794 -0.010763409 -0.03273795 -0.03751576
000090 7e d9 bf bc 3b db d2 3c 24 03 97 3d fe f3 6f 3d
       -0.023419138 0.025739303 0.07373646 0.0585823
0000a0 13 9e 53 bd 0a 7b 26 bd 9c 87 52 bc 49 2c 64 bc
       -0.051664423 -0.040644683 -0.012849715 -0.013926574
0000b0 52 7a 50 3d 1f 75 a1 3c 3d b9 d4 3c d0 34 e2 bc
       0.050897904 0.019709168 0.025967235 -0.027613074
0000c0 8a 09 3c 3d b7 33 f4 3a f2 4c 34 bd c7 c4 3f bd
       0.045907535 0.0018631135 -0.044018693 -0.04681852
0000d0 7c 29 82 3d b4 96 eb 3c d8 cb 09 bc da b9 2d bd
       0.06355569 0.028758384 -0.008410417 -0.04241357
0000e0 4d 40 4c bd 28 f7 11 bd 7f 73 32 3c 1b 9a 49 bc
       -0.04986601 -0.035636097 0.010891794 -0.012304808
0000f0 80 b6 7b bd 7a d8 e0 bb c7 39 63 3c bb 11 18 bd
       -0.061453342 -0.0068617435 0.013868756 -0.037126284
000100 0f 02 06 3d 7f 2d 52 bc d6 6a 62 3c d6 5c b3 3c
       0.032716807 -0.01282823 0.013819417 0.021894854
000110 1d c8 46 3c aa ea 02 3c a4 f4 1f 3d a5 48 21 3d
       0.012132672 0.007990519 0.039051667 0.03937592
000120 54 2e b8 3c 50 7f 3e bd 45 b0 3d bd 65 90 eb ba
       0.022483028 -0.046508133 -0.04631068 -0.001797211
000130 d0 b0 c8 bb 52 cc f8 bb 0b 90 31 bd a5 e8 0e bd
       -0.0061245933 -0.0075927163 -0.04335026 -0.034889836
000140 d7 e2 be 3c c0 73 73 3a 16 75 5c bd 7b 62 27 bd
       0.023301525 0.00092869624 -0.0538226 -0.040865403
000150 8b 2e 77 3d 4c 89 8f bd a4 ef ac bc 9d 00 00 3c
       0.06034712 -0.07008609 -0.021110363 0.007812646
000160 70 cd 83 3d 5f c2 ec bb e5 d5 97 bd be bc 00 bc
       0.064356685 -0.0072253193 -0.07413844 -0.0078575
000170 fd a2 11 3d da c0 63 3d e4 84 52 bd dc 3d 30 3d
       0.03555583 0.05560384 -0.051396266 0.043027744
000180 ee fb 10 bd c3 33 34 bc 52 3c dd bb 05 76 97 3d
       -0.03539651 -0.010998669 -0.0067515755 0.07395557
000190 ab 0d 37 bc c2 e4 ec 3b 9e f9 8a 39 86 16 a2 3d
       -0.011172692 0.0072294185 0.0002650739 0.07914452
0001a0 3b 8b c0 bc 4a 6b 3d 3d f8 78 75 3c b1 71 15 3d
       -0.02350389 0.046244897 0.0149824545 0.036485378
0001b0 7a ae 63 bd eb 6d 24 bd 26 d3 78 3d c0 25 a2 3d
       -0.055586316 -0.04014389 0.06074824 0.079173565
0001c0 34 d0 da 3b 7f ae 17 bd f1 9b 8c 3d 85 59 f8 3c
       0.006677652 -0.037031647 0.06865681 0.030316124
0001d0 d2 3e 85 3d 1c 5b 77 bd cd 55 86 bd 2a 89 82 bb
       0.06506123 -0.060389623 -0.06559334 -0.0039836364
0001e0 9c f2 30 bd 6c 87 61 3d f7 4d 2d 3d 2f dd d6 3c
       -0.04320012 0.05506079 0.04231068 0.026228515
0001f0 a8 89 c7 3a 14 3c 8e 3c a7 ff a6 3c f6 65 4a bd
       0.001522352 0.017362632 0.020385576 -0.049413644
000200 36 d6 84 bb 10 7f 5d 3d d1 a6 11 bd 48 1b f6 bc
       -0.0040538562 0.054076254 -0.03555948 -0.030042306
000210 3c cd 9b bd 52 df 31 bd 8a 78 d0 bd a2 38 ba 3b
       -0.07607505 -0.043425865 -0.10179241 0.0056830207
000220 e3 55 45 bb fd d5 7f 3d 30 d9 f9 bc 11 1d 0b 3d
       -0.0030111007 0.062459935 -0.03049907 0.033963267
000230 65 cc 3b 3d 5f e4 45 3c 0d f6 06 3d 34 82 b8 bd
       0.045849223 0.012078374 0.032949496 -0.09009209
000240 32 b5 31 bd 50 cf b3 bc 83 d2 ad bc f6 ec d2 3c
       -0.043385692 -0.02194944 -0.021218544 0.025747757
000250 39 83 05 bb 57 aa 0d 3c a3 69 44 3d 7f b1 89 3d
       -0.0020372404 0.008646569 0.047952306 0.06723308
000260 50 3e f3 bc 4e 86 e8 bc 46 a8 44 3c 6e a3 3c bc
       -0.029692799 -0.028384354 0.01200301 -0.011513574
000270 aa 90 5d 3c 10 32 b9 3b 40 3e b5 bb a6 9b a5 3d
       0.01352326 0.00565172 -0.0055311024 0.08086328
000280 f4 c0 5e 3d 5a c9 48 bd d4 26 22 bd bd 4f a5 ba
       0.054383233 -0.04902015 -0.03958781 -0.0012612265
000290 a4 07 57 3c ea e8 6f bc 37 99 7c 3d c6 91 e8 3c
       0.01312438 -0.014642933 0.061669555 0.028389823
0002a0 ec a1 94 bc fa 66 35 bd 2c 0c eb 3c 13 55 81 bd
       -0.018143617 -0.04428766 0.028692327 -0.06315055
0002b0 8a 26 71 bd cb 78 8a 3d 42 dd 1b bd d9 df 06 bd
       -0.058874644 0.06761321 -0.038052805 -0.03292832
0002c0 2b ef 87 3d 53 86 f2 bc e3 ad 40 bd 6c c0 a2 bc
       0.066374145 -0.029605066 -0.04704083 -0.019867145
0002d0 fa 44 32 bd 3d 65 64 bc dc 2a 41 3d 9e f6 8f 3d
       -0.043522812 -0.013940153 0.047160015 0.0702946
0002e0 0d 68 2d bd 69 5a 09 bc 28 19 7a bc bf ed 23 bd
       -0.04233556 -0.008383372 -0.015264787 -0.040021654
0002f0 43 f4 db bc 84 2a 98 3d 6a 58 01 bd be 26 ed 3b
       -0.026849872 0.07429984 -0.03157846 0.0072372844
000300 fd d6 7e 3d a4 61 07 3d ce 7c 89 bd 75 11 6f 3c
       0.062216748 0.0330521 -0.06713258 0.014591564
000310 51 c2 c6 3d 59 8f 89 3d 15 29 4b bb b2 fa 22 3c
       0.09705032 0.067167945 -0.0030999829 0.009947466
000320 6d 40 b3 bc cd 3b 06 3d 1e 40 07 3d 1e 35 62 bd
       -0.021881307 0.032771874 0.03302013 -0.055226438
000330 5f e9 4f 3d 22 53 0f 3d 7e 58 8a 3d 86 88 b1 3c
       0.05075967 0.03499139 0.0675516 0.021671545
000340 b9 ea ac bd ad 5f e4 3c e5 16 08 bb 88 a8 83 ba
       -0.08443207 0.027877653 -0.00207656 -0.0010044733
000350 45 31 37 3c fd 7c 12 3d 85 fb 34 3c af 3e 55 bc
       0.01118118 0.03576373 0.011046295 -0.013015433
000360 ea ce 6c bc a9 9f e7 3c 8c 65 e0 3c 4e 2f ae bd
       -0.014453629 0.028274374 0.027392171 -0.085051164
000370 bb 1b 57 3b 12 af 48 3d 96 a4 5a 3c 07 cf ff 3c
       0.0032822925 0.048995085 0.013344904 0.031226648
000380 a9 77 8b bd a2 a0 5c 3d cc 4f 30 bd 94 f7 65 bd
       -0.06809933 0.05386413 -0.04304485 -0.056144312
000390 64 90 32 bd ae a0 ac 3c b9 eb 47 bd 13 de 8c 3d
       -0.043594733 0.021072712 -0.048808787 0.06878295
0003a0 19 48 f3 3c 61 75 77 3d f9 4a c6 bc 64 43 89 3a
       0.029697465 0.060414676 -0.024205672 0.0010472354
0003b0 58 79 ee bc 0c 27 27 3c 6e 9c bb bb 58 a8 5d bd
       -0.029110596 0.010202181 -0.005725435 -0.054115623
0003c0 69 f4 0b bc 9b 64 d4 bc 75 95 4d 3d 23 7e 14 bc
       -0.008542159 -0.025926879 0.05019136 -0.009063276
0003d0 09 77 3e 3d bb 87 f0 bc 00 cb 56 3d f6 f1 8e 3d
       0.04650024 -0.029361596 0.05243969 0.06979744
0003e0 42 25 f7 3c 5e 91 2c bd 5d 88 c8 3b 7c da 08 bd
       0.030169133 -0.04213082 0.0061197714 -0.033411488
0003f0 10 d4 24 bd 76 79 34 39 d3 4e 80 3d 3e 82 81 3d
       -0.0402413 0.00017211385 0.062650345 0.0632367

layer4.bias f4 [128]
000000 a2 2f 73 3d 72 52 cc 3d dd 7f 65 3d 2e 7e da 3c
       0.059371598 0.09976663 0.056030143 0.026671495
000010 8e 5c fb bb 08 7a 17 3c 31 d7 9e 3d 6d d9 b7 3c
       -0.0076709455 0.009245403 0.07755888 0.022442544
000020 da 84 39 bb 74 69 a7 3d 05 a8 89 3d 02 ab f9 3c
       -0.0028307945 0.081744105 0.067215 0.03047705
000030 19 41 e0 bb c9 74 90 3c d8 62 30 bc 7b 32 11 bc
       -0.0068436977 0.017633813 -0.010765754 -0.008862133
000040 e6 9b b1 bc 8e b1 75 bd 43 49 a7 3d e0 02 f9 3c
       -0.021680783 -0.059983782 0.081682704 0.030396879
000050 08 07 15 bd a0 c0 cc 3c 8e cf a3 39 87 15 4b 3d
       -0.03638366 0.024994195 0.00031244423 0.049581077
000060 75 b2 3a bd 0f 2c de 3c e9 1d 81 bd 8e 5e b4 bb
       -0.045580346 0.027120618 -0.06304533 -0.005504436
000070 f1 ca 04 ba 1d 96 82 bd c5 65 08 3d d2 20 46 bd
       -0.0005065641 -0.06376288 0.03330018 -0.048371144
000080 89 23 40 3d 05 65 82 3d b9 5a ef bb b0 24 81 3d
       0.04690889 0.06366924 -0.007304516 0.06305826
000090 c2 e8 de bb d2 ee ae 3c 73 91 80 3d 24 40 9d bb
       -0.0068026492 0.021354113 0.06277742 -0.004798906
0000a0 53 15 1f 3d f8 59 87 bc 94 7d ba bc b4 73 51 bc
       0.038838696 -0.016522393 -0.022764958 -0.012783933
0000b0 4f 12 08 bc b9 98 4a bd 40 54 4d 3d 31 94 eb bc
       -0.008305146 -0.049462054 0.050129175 -0.028757187
0000c0 de 13 d5 3d 56 a5 06 3d 0c 36 3e 3d 6a 06 74 bd
       0.1040418 0.03287252 0.046438262 -0.05957643
0000d0 43 ba ee bc 0b 9c 22 bd 69 98 2a 3d f7 30 23 bd
       -0.02914155 -0.039699595 0.041649256 -0.03984162
0000e0 c8 77 e9 bb 47 86 17 3d d7 d5 15 3d 89 d0 1c bc
       -0.0071248747 0.03699329 0.036580887 -0.009571203
0000f0 b3 d2 be bc ab 55 61 3d 7d bb 86 bc 0a ba d8 bc
       -0.023293829 0.05501334 -0.016446823 -0.026455898
000100 f8 f5 9a bc c9 00 30 3c 71 8b 5c bc bd e1 15 3c
       -0.018916115 0.010742375 -0.01346098 0.0091480585
000110 bb b9 74 3d 66 5a c6 bc 38 fb 8e 3d a5 9b 98 3d
       0.05974744 -0.024213027 0.0698151 0.07451562
000120 46 c6 39 3d f2 4d 34 bc f6 8e 90 3d 8b c0 92 3d
       0.045355104 -0.011004912 0.07058518 0.07165631
000130 c3 b2 99 3d a6 18 8a bd 22 81 9b 3d 0c 07 24 3a
       0.07504799 -0.067429826 0.075929895 0.00062571536
000140 8a c4 10 3d d8 2b 4f bc 44 4e 95 3a fc 15 8c bb
       0.035343684 -0.0126447305 0.0011391123 -0.0042750817
000150 b7 39 e8 3a 7d 47 b0 bc 51 ab 32 bc 98 2e 71 bd
       0.0017717396 -0.021518463 -0.010905103 -0.058882326
000160 62 43 67 3d 19 15 37 3d b2 7a 64 3c 1e 62 34 3c
       0.056460746 0.044697855 0.0139452685 0.011009721
000170 4c b3 36 3c fb 2c 8e 3c 90 71 5e bd 7f 4e ba 3c
       0.011151146 0.017355433 -0.05430752 0.022742508
000180 2e 40 2e 3d 44 68 aa 3b b8 95 01 3d 53 ff 47 3d
       0.042541675 0.0052004177 0.031636924 0.04882748
000190 62 bb 91 bc 03 d7 e2 3c 0a c1 a4 bc 6d b0 b7 bc
       -0.017789546 0.027690416 -0.02011158 -0.022422994
0001a0 dc 1b 6e bc 31 5a 23 bb ab 85 9b bb b8 5e 4b bd
       -0.014533009 -0.0024925584 -0.004746159 -0.049650878
0001b0 65 64 24 3d ba 1f ea 3c 27 ed ad 3d da 2e c5 3d
       0.040134806 0.028579582 0.08492499 0.09628077
0001c0 cc a9 8e bc 03 a7 16 3b 1e 5a b0 3c 2d 4c 0b bd
       -0.01741495 0.002298773 0.021527346 -0.034008194
0001d0 a9 f8 a3 bc b7 62 b4 bc 8b 6d d1 3c 94 3a fd 3a
       -0.020016031 -0.022019727 0.02556493 0.0019319826
0001e0 43 5d 3a 3b db 60 03 3b e4 e4 be 3c 68 8f 39 bc
       0.0028436936 0.0020046744 0.023302503 -0.011325695
0001f0 a3 51 81 3b 4d eb 0e 3d f3 57 1b 3d a1 47 01 bd
       0.0039464994 0.03489237 0.03792567 -0.03156245
