PPO/ppo_actor.pth (torch, 549599 bytes, 10 tensors)

layer1.weight f4 [128, 29]
0.22228967 0.10446773 -0.19890013 -0.2031985 0.08203361 0.45366576 -0.021359582 -0.07812049
-0.23818186 -0.27397412 0.09522527 -0.073120855 0.075330384 -0.25764588 -0.11206133 0.025487965
-0.03442946 -0.07785842 -0.003160729 0.20378242 0.14756864 -0.13266 0.0024080453 0.032823686
0.16302079 -0.14465706 0.07629274 0.113017954 0.072673425 -0.07176696 0.14946753 0.25472698
-0.050956026 0.15836217 0.33356676 0.25084177 0.060368594 0.080176175 0.12578933 -0.20037197
-0.21686059 -0.17325951 -0.12935866 -0.0016244682 -0.10274305 -0.14148046 0.11172826 0.097274266
-0.123387605 0.107238635 0.119488336 0.12818736 0.16914968 0.1465821 -0.12696007 0.037583377
-0.068839245 -0.10634141 0.12055876 -0.089004524 -0.10637425 0.09579815 0.057372402 -0.1808601
-0.5423306 0.034342613 0.04537873 -0.11497112 -0.04535895 0.22437443 -0.15029554 -0.031741004
-0.1518628 0.0115626 -0.109189816 -0.22754087 0.10782294 0.021281885 0.0014346571 -0.04978044
0.086455934 0.010282365 -0.05771483 0.024292521 -0.10731782 0.0098812245 -0.07719992 -0.05935704
0.06922034 0.045278426 -0.19099234 0.07109176 0.000373282 0.153193 0.17872491 -0.25513196
0.25136933 0.046427723 -0.27347782 0.05836269 -0.022566466 0.008506026 -0.14922963 0.05758419
0.09573892 0.029873308 -0.09808455 -0.049312692 -0.02737693 -0.13971108 0.13910638 -0.07498373
-0.19488896 0.027595326 0.09100513 0.122139364 0.14343737 -0.12367226 0.10056613 -0.049050424
0.1931067 -0.16625714 0.17775226 0.012162695 0.09526199 -0.38270208 0.18745755 0.12069774
0.04050703 0.043161623 -0.16082197 -0.114175886 0.15736856 0.1527746 0.01558743 -0.09056924
-0.16865288 -0.036629446 -0.04014259 -0.07163639 -0.14933898 -0.082186684 0.047464862 0.09515351
0.061096966 0.08470707 0.11250519 0.059261803 0.16606027 -0.22841403 0.32600513 -0.226715
-0.023309615 0.09997481 0.39002475 0.09882115 0.056529094 0.02050196 -0.2637965 0.13515085
-0.029670622 0.18796737 0.11042568 -0.055041373 -0.0045949426 -0.11859958 -0.14207892 -0.121916324
0.10549408 0.033578154 0.015355183 0.056201782 0.059585925 -0.11079859 0.08576114 0.10770205
0.11947551 -0.14915778 0.016350353 -0.060563102 -0.05818803 0.3947639 0.14400044 -0.22921272
-0.032550577 0.028658194 0.12560259 0.17346475 -0.07986799 0.14106162 -0.24756305 0.22879995
-0.06786609 0.07477242 -0.15199861 -0.0360179 -0.101028174 -0.024239456 -0.13150696 0.07691701
-0.069965325 -0.05073138 -0.058265463 0.14904515 0.036336895 0.14101873 0.20130819 0.15351482
-0.17662556 0.3164929 0.13265702 -0.051787186 -0.3373379 -0.06015092 0.022372492 0.0083396975
-0.28371125 -0.085372835 -0.08906787 0.03627219 0.21898387 0.0030739652 -0.026716279 -0.08081206
-0.055068217 -0.025519622 -0.00048080497 -0.04413288 -0.096659385 -0.060428184 -0.08273872 -0.0810254
-0.14095575 -0.07592309 -0.060346134 -0.1516068 0.23964462 -0.04870594 0.12336352 0.15302053
-0.05467986 -0.15990995 0.17335485 -0.081593625 0.1569505 0.23011968 -0.100135155 0.09292232
-0.0020668956 -0.1800894 0.2623063 -0.27449748 -0.05418293 0.11908568 -0.011167357 -0.13999234
00000000: e79f 633e 2df3 d53d 7aac 4bbe 4513 50be
00000010: 3d01 a83d e146 e83e 4afa aebc a3fd 9fbd
00000020: f2e5 73be 5646 8cbe 7705 c33d 63c0 95bd
00000030: d146 9a3d 29ea 83be 6980 e5bd 23cc d03c
00000040: e805 0dbd 3c74 9fbd 3c24 4fbb 57ac 503e
00000050: 3c1c 173e 06d8 07be 4cd0 1d3b 2172 063d
00000060: ecee 263e fb20 14be 5e3f 9c3d f575 e73d
00000070: ced5 943d 8efa 92bd 040e 193e 936b 823e
00000080: 44b7 50bd b129 223e 43c9 aa3e 556e 803e
00000090: 0f45 773d 6833 a43d ebce 003e 4f2e 4dbe
000000a0: b410 5ebe f16a 31be 9976 04be 1cec d4ba
000000b0: f36a d2bd 41e0 10be c9d1 e43d bb37 c73d
000000c0: a4b2 fcbd ee9f db3d 4db6 f43d 8c43 033e
000000d0: 9335 2d3e 9e19 163e d201 02be 07f1 193d
000000e0: 97fb 8cbd 86c9 d9bd 83e7 f63d 0148 b6bd
000000f0: beda d9bd d231 c43d 53ff 6a3d 6433 39be
00000100: 2ed6 0abf d7aa 0c3d 0cdf 393d fb75 ebbd
00000110: 4eca 39bd 69c2 653e 13e7 19be db02 02bd
00000120: ec81 1bbe 0f71 3d3c e99e dfbd 7900 69be
00000130: 46d2 dc3d 5957 ae3c 1b0b bc3a 93e6 4bbd
00000140: cf0f b13d 5d77 283c 6366 6cbd 1c01 c73c
00000150: 72c9 dbbd dce4 213c fe1a 9ebd 5e20 73bd
00000160: 65c3 8d3d df75 393d 7f93 43be 8f98 913d
00000170: 10b5 c339 a0de 1c3e aa03 373e a8a0 82be
00000180: 7bb3 803e ff2a 3e3d 4905 8cbe b70d 6f3d
00000190: 4fdd b8bc dc5c 0b3c a7cf 18be 66dd 6b3d
000001a0: c412 c43d deb8 f43c 8de0 c8bd 1bfc 49bd
000001b0: 9545 e0bc 6c10 0fbe e771 0e3e 1291 99bd
000001c0: f990 47be 980f e23c e660 ba3d 3424 fa3d
000001d0: 3fe1 123e e247 fdbd 9df5 cd3d 19e9 48bd
000001e0: c3bd 453e 503f 2abe b004 363e 0a46 473c
000001f0: b818 c33d 87f1 c3be dff4 3f3e 6030 f73d
00000200: b3ea 253d 3eca 303d 84ae 24be 0cd5 e9bd
00000210: 3925 213e f270 1c3e 6c62 7f3c 5e7c b9bd
00000220: 57b3 2cbe c208 16bd 8e6c 24bd 1ab6 92bd
00000230: 51ec 18be 7e51 a8bd 846a 423d d8df c23d
00000240: d040 7a3d e67a ad3d 1f69 e63d 81bc 723d
00000250: b40b 2a3e 5ee5 69be 25ea a63e fa27 68be
00000260: cef3 bebc 98bf cc3d 53b1 c73e be62 ca3d
00000270: 0d8b 673d baf3 a73c 5610 87be fc64 0a3e
00000280: ce0f f3bc 857a 403e dc26 e23d 1073 61bd
00000290: 2c91 96bb 56e4 f2bd 237d 11be 44af f9bd
000002a0: 480d d83d 3f89 093d 4e94 7b3c d733 663d
000002b0: 5f10 743d 5fea e2bd 89a3 af3d e492 dc3d
000002c0: 94af f43d d1bc 18be 2df1 853c 0411 78bd
000002d0: 9256 6ebd 7e1e ca3e da74 133e bdb6 6abe
000002e0: c153 05bd 97c4 ea3c f79d 003e bea0 313e
000002f0: d491 a3bd 7572 103e 2b81 7dbe 894a 6a3e
00000300: 60fd 8abd 4822 993d 86a5 1bbe 8187 13bd
00000310: dce7 cebd d391 c6bc c3a9 06be aa86 9d3d
00000320: fb49 8fbd b5cb 4fbd c4a7 6ebd 4b9f 183e
00000330: ffd5 143d 3767 103e bc23 4e3e fd32 1d3e
00000340: 55dd 34be 5b0b a23e 3ed7 073e cd1e 54bd
00000350: 8eb7 acbe d060 76bd 8446 b73c 3aa3 083c
00000360: 9a42 91be f4d7 aebd 3769 b6bd 2692 143d
00000370: 4f3d 603e 9474 493b 19dc dabc cb80 a5bd
00000380: 368f 61bd 870e d1bc 8d14 fcb9 aec4 34bd
00000390: 5bf5 c5bd 8b83 77bd eb72 a9bd a5f0 a5bd
000003a0: b456 10be 917d 9bbd 822d 77bd d03e 1bbe
000003b0: 6665 753e e17f 47bd 03a6 fc3d 6ab1 1c3e
000003c0: fdf7 5fbd 6fbf 23be ef83 313e 8f1a a7bd
000003d0: a2b7 203e 7ea4 6b3e a913 cdbd 0f4e be3d
000003e0: c174 07bb 5b69 38be 034d 863e ef8a 8cbe
000003f0: ecee 5dbd 31e3 f33d 4af7 36bc 275a 0fbe

layer1.bias f4 [128]
0.15849842 -0.1546866 0.15696943 -0.13741003 0.021086767 0.17597309 -0.06964283 -0.034489065
0.13337919 -0.12413508 -0.03282737 -0.043327894 -0.05883526 -0.083586864 0.16152535 -0.07416969
0.13965482 -0.06802875 0.056762036 0.09903374 0.109615944 -0.045742393 -0.11575092 0.21858738
0.08061333 -0.021979231 0.16129112 -0.08157967 0.026169993 0.1492215 -0.038917247 0.079838604
0.15529226 0.039829988 0.050656695 0.15547417 0.1499852 0.04436288 0.031967122 0.058034018
-0.12849954 0.1720077 -0.08856198 -0.04936153 -0.062482856 -0.015450219 -0.01078682 0.07383993
-0.1510857 -0.0031402933 0.024467332 -0.06496964 -0.018515216 -0.018443786 0.07433686 0.1364036
-0.12156702 -0.11513588 -0.14239919 -0.10325703 -0.13370167 -0.0025429 -0.045822803 0.13362633
-0.020091208 -0.027536906 0.07686087 -0.16536105 0.07926104 -0.039010018 -0.09873239 0.08594723
0.0021493142 -0.20453505 -0.02547435 -0.092251584 -0.04706348 0.050897077 -0.00041791695 0.16342795
0.03493638 -0.10032853 0.08650185 -0.0156604 0.011809072 -0.047789276 -0.058170702 -0.14158764
0.1621657 0.028607978 -0.03384154 -0.07883332 0.053218324 0.1927055 0.17730755 -0.09829403
0.14674294 -0.04807201 0.09520919 0.11376586 0.14974457 -0.11939283 -0.07674418 -0.17293528
-0.14732705 0.18948813 0.013679786 -0.032988846 0.15822032 -0.15312353 0.08664986 0.14261757
0.18694799 -0.13748616 -0.12222572 0.11155413 0.009956317 -0.11434078 -0.1161873 0.0018045744
0.08178355 -0.22315602 -0.069691814 -0.057049215 -0.13724029 -0.04786221 -0.14026345 -0.19030434
00000000: 694d 223e 2a66 1ebe 98bc 203e 37b5 0cbe
00000010: 28be ac3c 4a32 343e e6a0 8ebd 6844 0dbd
00000020: 8e94 083e 883a febd fe75 06bd 9778 31bd
00000030: 3efd 70bd 972f abbd e766 253e 47e6 97bd
00000040: ac01 0f3e a852 8bbd 4f7f 683d 34d2 ca3d
00000050: 537e e03d 605c 3bbd d10e edbd 5fd5 5f3e
00000060: 9a18 a53d ca0d b4bc 8029 253e 3e13 a7bd
00000070: 7462 d63c 85cd 183e b167 1fbd 6c82 a33d
00000080: ef04 1f3e c524 233d 657d 4f3d 9f34 1f3e
00000090: b895 193e dab5 353d f5ef 023d 14b5 6d3d
000000a0: 6295 03be c922 303e fc5f b5bd 512f 4abd
000000b0: 06ee 7fbd ea22 7dbc 34bb 30bc 6439 973d
000000c0: 36b6 1abe 61cd 4dbb b76f c83c cd0e 85bd
000000d0: 39ad 97bc 6c17 97bc ec3d 983d 63ad 0b3e
000000e0: 21f8 f8bd 5ccc ebbd 18d1 11be 6c78 d3bd
000000f0: 17e9 08be c8a6 26bb b1b0 3bbd 57d5 083e
00000100: 5196 a4bc 1495 e1bc 3b69 9d3d 6854 29be
00000110: 9d53 a23d f8c8 1fbd 3534 cabd 1a05 b03d
00000120: 82db 0c3b a371 51be 96af d0bc 66ee bcbd
00000130: a3c5 40bd 7479 503d dd1b dbb9 a859 273e
00000140: 7319 0f3d 0b79 cdbd e227 b13d 3d4a 80bc
00000150: d77a 413c b0be 43bd 6744 6ebd 5afc 10be
00000160: c40e 263e 475b ea3c 6d9d 0abd 5d73 a1bd
00000170: 75fb 593d 9754 453e 1c90 353e 614e c9bd
00000180: c843 163e 28e7 44bd 09fd c23d 13fe e83d
00000190: a456 193e 3a84 f4bd 0d2c 9dbd f215 31be
000001a0: e7dc 16be 2d09 423e 2e21 603c 501f 07bd
000001b0: 8204 223e 6acc 1cbe 7b75 b13d 570a 123e
000001c0: 4b6f 3f3e 2cc9 0cbe 7a51 fabd 7e76 e43d
000001d0: d21f 233c 802b eabd 9bf3 edbd 7887 ec3a
000001e0: 227e a73d 0383 64be 95ba 8ebd 70ac 69bd
000001f0: b888 0cbe 2a0b 44bd 39a1 0fbe 24df 42be

layer2.weight f4 [256, 128]
-0.1122104 -0.053545285 0.04885437 -0.13519786 0.07482104 -0.023675269 0.07401965 -0.024255212
0.081522815 -0.044187084 -0.10736278 -0.107322074 0.043539736 -0.073504046 -0.027337141 -0.07327879
0.10007925 -0.020061359 0.026292695 -0.09492564 0.07573654 -0.016394349 -0.10672179 0.013138796
0.075993694 0.062470432 -0.17798118 -0.09982043 0.02296942 0.021185867 -0.020054186 0.06338268
0.030074324 -0.092501976 0.018384919 -0.0345275 -0.01636735 0.012907872 0.08977653 -0.08125225
0.052865908 -0.027760278 0.002731464 0.03011086 0.0037066021 -3.2299307e-05 0.02003271 -0.031426307
0.017295193 -0.018259572 -0.02358711 -0.0051454525 0.05085795 0.05565971 0.024378384 -0.011641732
0.08789011 -0.03341556 0.02047348 -0.048220467 -0.043310665 0.010201761 0.058570404 -0.0023383384
0.08169865 0.027856663 0.11280038 -0.092329524 0.020088455 -0.0603168 -0.04923212 -0.096415125
0.025389073 0.079732135 -0.028516555 0.08037499 -0.14184575 -0.021417625 0.07337464 0.000747393
0.06518132 -0.0027418572 0.09421299 0.01374863 -0.002203165 -0.028180944 0.0025954251 0.048885074
0.1488487 0.06740578 0.056453083 0.029389258 -0.0017225582 0.0011160445 0.07610575 0.014488869
-0.0071039195 0.06549537 0.01948364 -0.010144571 0.1298241 0.020757364 -0.07626799 0.0016630329
-0.029751306 -0.008143812 0.002522739 0.0541168 -0.033593863 0.06984476 0.030407855 0.044527765
0.04520417 -0.05613307 0.06695066 0.10192098 0.009676934 0.098574914 0.0036667264 -0.06269736
-0.056502208 0.0073088612 -0.01030471 -0.06070463 -0.06565115 0.06576047 0.10405101 0.06686257
-0.020629816 0.008720944 -0.10334771 0.005741872 -0.038777534 0.06204582 0.00873059 -0.05586034
-0.018755889 0.08339964 -0.0009181567 0.056266565 0.12620151 -0.03785754 -0.121754855 0.10267472
-0.026444415 -0.060414076 -0.08303767 0.048649788 -0.104146294 -0.0037316757 0.0202291 -0.0077033723
-0.0097806705 0.009719781 0.07384535 -0.021550313 0.09087611 0.0005942959 0.08231527 0.053465087
0.049321238 0.06423947 -0.05030236 -0.016198149 0.11746407 -0.0022839361 -0.036438026 -0.0041048042
0.00014916767 -0.18284538 0.05117717 0.08388173 0.15737481 0.053040314 -0.08357436 0.08378417
0.081791975 -0.10141427 -0.037165504 -0.009041963 -0.057393562 0.0010890497 -0.019447109 -0.09322301
0.087304905 0.101607256 0.05468461 0.1399993 0.09284931 -0.05832842 -0.0029700398 -0.11142207
-0.0579073 -0.05916233 -0.021375233 -0.025215752 -0.10205045 0.11313041 -0.001296932 0.02185358
-0.11639528 -0.05278886 -0.0987718 -0.14358723 -0.10812391 -0.008437068 -0.009896785 -0.053779412
0.032086954 0.061894707 0.07949821 -0.02319383 -0.029919777 -0.07440993 -0.03157896 0.08977071
-0.09322352 -0.016176341 -0.0398181 0.078769065 0.09352716 0.060138647 -0.05504462 0.024547156
-0.015998749 0.018453935 0.047786497 -0.057385296 -0.091707274 0.051236846 -0.0044941846 0.12651148
-0.056460436 0.06338399 0.043474704 0.10033737 -0.0035082996 0.009632068 0.0035607037 0.02831592
0.0154817775 -0.10845197 -0.09275224 0.00095441216 0.026353464 -0.053936668 0.052029222 0.03115848
-0.1251011 -0.1101124 0.09608976 0.015767738 -0.04352217 0.008806429 -0.03853555 -0.047448684
00000000: 91ce e5bd 4d52 5bbd 851b 483d 4f71 0abe
00000010: c63b 993d a3f2 c1bc 9d97 973d deb2 c6bc
00000020: 6ff5 a63d 84fd 34bd 04e1 dbbd adcb dbbd
00000030: b956 323d 4a89 96bd 24f2 dfbc 3113 96bd
00000040: 5af6 cc3d b857 a4bc c763 d73c 6068 c2bd
00000050: c21b 9b3d 714d 86bc f490 dabd 1b44 573c
00000060: 95a2 9b3d ffe0 7f3d b340 36be a76e ccbd
00000070: 5d2a bc3c fc8d ad3c ad48 a4bc c7ce 813d
00000080: 6e5e f63c ad71 bdbd f89b 963c b56c 0dbd
00000090: d214 86bc 8a7b 533c c2dc b73d 9467 a6bd
000000a0: ec89 583d 8669 e3bc 5d02 333b 0dab f63c
000000b0: 77ea 723b 1e79 07b8 a31b a43c dfb8 00bd
000000c0: a6ae 8d3c 1995 95bc c139 c1bc 2f9b a8bb
000000d0: 6d50 503d 70fb 633d 2db5 c73c f7bc 3ebc
000000e0: bbff b33d c1de 08bd 00b8 a73c d382 45bd
000000f0: 8666 31bd 4925 273c 85e7 6f3d cf3e 19bb
00000100: 9f51 a73d a833 e43c e303 e73d 4317 bdbd
00000110: 8b90 a43c c00e 77bd 9fa7 49bd 4b75 c5bd
00000120: bffc cf3c 9a4a a33d 8d9b e9bc a59b a43d
00000130: 0340 11be 0474 afbc 7145 963d b2ec 433a
00000140: c97d 853d bbb0 33bb bdf2 c03d ef41 613c
00000150: fa62 10bb b9db e6bc 0218 2a3b b73b 483d
00000160: cb6b 183e 0b0c 8a3d 593b 673d bec1 f03c
00000170: 76c7 e1ba 3d48 923a 55dd 9b3d b962 6d3c
00000180: ffc7 e8bb 7022 863d 289c 9f3c 6a35 26bc
00000190: 9cf0 043e 590b aa3c 6432 9cbd 20fa d93a
000001a0: 03b9 f3bc a06d 05bc 8a54 253b 94a9 5d3d
000001b0: b899 09bd c50a 8f3d e519 f93c bf62 363d
000001c0: 0228 393d caeb 65bd 6d1d 893d f2bb d03d
000001d0: 018c 1e3c a5e1 c93d 764d 703b 7967 80bd
000001e0: dc6e 67bd 2c7f ef3b 16d5 28bc 6ba5 78bd
000001f0: 1c74 86bd 6dad 863d b218 d53d 3eef 883d
00000200: dcff a8bc 4ae2 0e3c f7a7 d3bd 5026 bc3b
00000210: 31d5 1ebd c223 7e3d c00a 0f3c d0cd 64bd
00000220: f3a5 99bc 6ecd aa3d 74b0 70ba c577 663d
00000230: f83a 013e 8210 1bbd 9c5a f9bd 2047 d23d
00000240: f5a1 d8bc c074 77bd a70f aabd 0045 473d
00000250: a74a d5bd 218f 74bb 7fb7 a53c 926c fcbb
00000260: 1b3f 20bc b73f 1f3c 3b3c 973d 488a b0bc
00000270: 411d ba3d 86ca 1b3a e994 a83d 35fe 5a3d
00000280: 1105 4a3d fc8f 833d d909 4ebd fbb1 84bc
00000290: 0191 f03d 17ae 15bb 0a40 15bd 9881 86bb
000002a0: e469 1c39 d23b 3bbe 279f 513d 2fca ab3d
000002b0: dd26 213e cd40 593d 0929 abbd 0997 ab3d
000002c0: 8d82 a73d 49b2 cfbd db3a 18bd be24 14bc
000002d0: 8315 6bbd 72be 8e3a 8b4f 9fbc b5eb bebd
000002e0: eacc b23d 7717 d03d f8fc 5f3d fa5b 0f3e
000002f0: c727 be3d c8e9 6ebd 00a5 42bb 4131 e4bd
00000300: 3430 6dbd 3354 72bd 1d1b afbc 4491 cebc
00000310: d4ff d0bd ebb0 e73d d1fd a9ba 4706 b33c
00000320: a660 eebd 2239 58bd df48 cabd 8808 13be
00000330: 1270 ddbd a13b 0abc 2026 22bc cd47 5cbd
00000340: 9c6d 033d 4e85 7d3d f5cf a23d fd00 bebc
00000350: 521a f5bc 3c64 98bd f158 01bd b5d9 b73d
00000360: f9eb bebd 3f84 84bc 4e18 23bd ad51 a13d
00000370: 2b8b bf3d f153 763d 7876 61bd 1e17 c93c
00000380: cf0f 83bc b52c 973c c6bb 433d d80c 6bbd
00000390: 06d1 bbbd badd 513d f443 93bb 3a8c 013e
000003a0: 0f43 67bd 77cf 813d 8812 323d ae7d cd3d
000003b0: 80eb 65bb d2cf 1d3c b25a 693b caf6 e73c
000003c0: 48a7 7d3c 111c debd e3f4 bdbd 8431 7a3a
000003d0: 38e3 d73c b2ec 5cbd 981c 553d 1240 ff3c
000003e0: 811a 00be 9c82 e1bd b5ca c43d 582b 813c
000003f0: 4e44 32bd d748 103c 74d7 1dbd 8d59 42bd

layer2.bias f4 [256]
0.0008688207 -0.026346698 0.07486972 0.045855593 0.04135707 0.097141795 0.13995701 0.091699176
0.122151375 -0.008444733 0.10151236 -0.01520099 -0.028846992 0.063575566 0.101641186 -0.04005358
0.09647136 0.107065395 0.03963694 0.038616613 0.022971343 -0.042996287 -0.050595462 -0.095616005
0.036374275 -0.032396946 -0.046697386 -0.09723272 -0.024673281 0.032902423 0.1107042 -0.031069716
0.03060028 0.089901365 0.054481257 0.017224701 -0.09791296 0.11355947 -0.060498007 0.1156411
-0.04889588 0.014526021 0.091755874 0.11407054 -0.007930994 0.06752947 0.043357853 0.09770934
-0.05481934 0.08781198 -0.0076289824 -0.07861203 0.048583504 -0.10774278 -0.024962181 -0.033215355
0.103882425 0.0020304185 -0.06340363 -0.08586653 0.056198597 0.08683327 0.09601182 0.10347749
0.07533736 -0.022852706 0.103478454 -0.09431424 -0.08337306 -0.047294956 0.020720517 -0.0068494356
0.07470382 0.021400467 -0.114523366 0.030621234 -0.017848702 0.023160763 -0.10530631 -0.046270866
0.05293762 0.076314 -0.049057964 -0.068035945 0.008716879 0.10811928 -0.07581757 -0.030738138
0.009931467 0.003750291 0.070772044 0.008137058 -0.04282797 0.02878549 -0.023969702 0.08355792
0.045306142 -0.025958551 0.062418364 -0.073521934 -0.06894917 -0.06855335 -0.076986894 -0.015521824
-0.07036334 -0.0035899978 0.054695506 0.09681655 -0.026478427 -0.065032445 -0.02776867 -0.13014072
-0.04933482 0.104222745 -0.059534937 -0.091260426 0.026616406 -0.083524086 0.032699477 0.050067004
0.00059288874 0.07599615 0.022031475 -0.120099105 0.05218664 -0.062191937 -0.0322366 0.024438072
0.01620711 -0.0049649314 0.06636999 0.14301875 0.08375868 -0.08968429 0.07774261 0.041915648
0.0313644 0.11595849 0.06620888 0.075165235 0.09496361 -0.033176817 0.004363391 -0.019979032
-0.048971564 -0.004344317 -0.010181126 0.07738727 0.03212483 0.0189057 -0.018489147 0.064000405
-0.022033395 -0.027054586 0.11092269 -0.10328969 -0.050031144 -0.13081121 0.014974757 0.11037941
0.085855834 -0.06854394 -0.025226997 -0.017440483 0.043949507 0.113034904 0.101111546 0.07870269
-0.08743281 -0.0032553917 0.0148920845 0.0012495295 -0.056364775 0.12651901 -0.05974215 0.15111087
-0.10181839 0.005908119 0.037562594 0.09875906 -0.0034388069 0.06771739 -0.034367833 -0.08428449
-0.061018445 -0.052568197 -0.025806654 -0.011817161 -0.065979384 -0.046248384 0.040145125 -0.033735935
0.0735553 0.15930276 -0.08274274 -0.016696345 0.05149896 0.06752213 -0.01606839 -0.060579143
0.1335579 -0.018595986 0.038202543 -0.10598499 0.0047298367 0.045526393 -0.010668602 0.018764133
0.0046370868 -0.042487722 -0.07591112 0.08073045 -0.010086315 -0.04674459 -0.091296576 -0.11986578
0.11611321 -0.051035237 8.333064e-05 0.031276472 -0.047274467 -0.12449572 -0.01124342 0.13285223
-0.015980085 -0.11875906 -0.03135232 0.024864258 -0.044834133 0.1178174 -0.050839424 0.045727327
-0.073646165 0.13316976 -0.0043011517 0.02927058 0.06765286 0.07438161 -0.012127736 -0.10550575
-0.08759997 0.0672098 -0.05973348 0.05926281 0.014661207 0.08855145 0.03596432 0.020919276
-0.07212169 -0.047190007 0.02015768 -0.05498395 -0.023796871 0.066661455 -0.008700889 0.021538708
00000000: 92c1 633a 08d5 d7bc 4c55 993d 13d3 3b3d
00000010: 0866 293d 47f2 c63d e450 0f3e c7cc bb3d
00000020: 802a fa3d c75b 0abc b6e5 cf3d 930d 79bc
00000030: 8750 ecbc e833 823d 4129 d03d 390f 24bd
00000040: c792 c53d 1a45 db3d 585a 223d 742c 1e3d
00000050: 662e bc3c e01c 30bd 303d 4fbd 53d2 c3bd
00000060: 31fd 143d a9b2 04bd c245 3fbd f321 c7bd
00000070: 9f1f cabc b1c4 063d e2b8 e23d eb85 febc
00000080: 70ad fa3c 351e b83d bd27 5f3d d11a 8d3c
00000090: 9786 c8bd de91 e83d c2cc 77bd 3ed5 ec3d
000000a0: 0c47 48bd 8cfe 6d3c 81ea bb3d d19d e93d
000000b0: 00f1 01bc e44c 8a3d 0198 313d d61b c83d
000000c0: 3f8a 60bd c4d6 b33d 8bfc f9bb 58ff a0bd
000000d0: 7fff 463d 3fa8 dcbd 7d7d ccbc d30c 08bd
000000e0: 4fc0 d43d c510 053b c3d9 81bd cbda afbd
000000f0: 8030 663d a4d5 b13d d8a1 c43d 02ec d33d
00000100: 794a 9a3d 9935 bbbc 83ec d33d d327 c1bd
00000110: 7fbf aabd 5bb8 41bd 13be a93c 3b71 e0bb
00000120: 51fe 983d 0850 af3c 3a8b eabd 62d9 fa3c
00000130: 7137 92bc a4bb bd3c d6aa d7bd 8586 3dbd
00000140: 1ed5 583d 844a 9c3d 01f1 48bd 6e56 8bbd
00000150: 3ed1 0e3c a46d dd3d 3e46 9bbd 8cce fbbc
00000160: 97b7 223c 71c7 753b eff0 903d 4b51 053c
00000170: 626c 2fbd 8ccf eb3c 1c5c c4bc 6a20 ab3d
00000180: ef92 393d 07a7 d4bc 66aa 7f3d ab92 96bd
00000190: 3935 8dbd b365 8cbd 4eab 9dbd 404f 7ebc
000001a0: a81a 90bd 2b46 6bbb 6508 603d c147 c63d
000001b0: 49e9 d8bc bb2f 85bd 1f7b e3bc 9c43 05be
000001c0: 4f13 4abd bc72 d53d e8da 73bd bfe6 babd
000001d0: a60a da3c ad0e abbd e3ef 053d 0f13 4d3d
000001e0: 176c 1b3a dfa3 9b3d 5a7b b43c 85f6 f5bd
000001f0: a9c1 553d f9bc 7ebd 860a 04bd 5a32 c83c
00000200: c6c4 843c ddb0 a2bb fdec 873d 8273 123e
00000210: ac89 ab3d 66ac b7bd 8437 9f3d beaf 2b3d
00000220: f577 003d a57b ed3d 8598 873d 3bf0 993d
00000230: 487c c23d 6ae4 07bd c7fa 8e3b 11ab a3bc
00000240: 6896 48bd c65a 8ebb bdce 26bc 387d 9e3d
00000250: 5395 033d 20e0 9a3c 8d76 97bc a512 833d
00000260: 617f b4bc 94a1 ddbc 6f2b e33d 8c89 d3bd
00000270: 75ed 4cbd 60f3 05be af58 753c 9a0e e23d
00000280: 2fd5 af3d c460 8cbd d9a8 cebc 58df 8ebc
00000290: 6604 343d d87e e73d 9213 cf3d e02e a13d
000002a0: f90f b3bd 6958 55bb eefd 733c 41c7 a33a
000002b0: c0de 66bd 338e 013e 2fb4 74bd cfbc 1a3e
000002c0: 2986 d0bd e598 c13b 3cdb 193d 3142 ca3d
000002d0: 9b5d 61bb 6aaf 8a3d 49c5 0cbd 599d acbd
000002e0: 7aee 79bd c051 57bd 7a68 d3bc c49c 41bc
000002f0: 3320 87bd f26e 3dbd 376f 243d b12e 0abd
00000300: 29a4 963d 4320 233e 0775 a9bd c6c6 88bc
00000310: 93f0 523d 0b49 8a3d dba1 83bc d621 78bd
00000320: 67c3 083e 9c56 98bc 457a 1c3d a90e d9bd
00000330: bffc 9a3b e279 3a3d 5ccb 2ebc 3db7 993c
00000340: b4f2 973b 9b07 2ebd 4a77 9bbd 0256 a53d
00000350: 1241 25bc 4177 3fbd b3f9 babd 317c f5bd
00000360: c3cc ed3d 530a 51bd ccc1 ae38 c21b 003d
00000370: dfa2 41bd 9df7 febd 5236 38bc 6a0a 083e
00000380: abe8 82bc f337 f3bd 4a6b 00bd 21b0 cb3c
00000390: ffa3 37bd 404a f13d 003d 50bd 944c 3b3d
000003a0: cdd3 96bd a75d 083e adf0 8cbb dbc8 ef3c
000003b0: 958d 8a3d 6355 983d 69b3 46bc 6613 d8bd
000003c0: 9d67 b3bd 4ba5 893d 18ab 74bd 8fbd 723d
000003d0: 8f35 703c 765a b53d 534f 133d e75e ab3c
000003e0: 89b4 93bd 4f4a 41bd b821 a53c da36 61bd
000003f0: a8f1 c2bc cd85 883d 2c8e 0ebc f271 b03c

layer3.weight f4 [256, 256]
-0.024363436 -0.079430774 -0.006961881 -0.023008289 0.0820143 -0.062728025 -0.036031656 -0.0528281
-0.085297376 0.006488135 -0.03632868 -0.046041597 -0.13228601 -0.0029997914 -0.035305444 0.06629423
0.041118544 -0.027759824 -0.0189053 0.0045501357 0.06429039 0.005204934 0.019150294 0.013558642
-0.026276855 -0.034283765 -0.050619718 0.05699322 -0.026405187 -0.0932559 -0.08665099 0.023353726
-0.020679442 -0.02352439 0.05075387 -0.08165153 -0.13333467 0.025886461 -0.023658963 -0.04320493
0.03797851 -0.002961733 0.065763466 -0.07635149 0.0067949146 -0.013474106 0.023979831 -0.0839994
0.0228226 -0.07211671 -0.02884561 0.011564149 -0.09477664 0.05513135 -0.070039965 0.021763727
0.06998803 0.020817943 0.103749186 -0.047091134 -0.027660647 -0.014360107 0.01681541 -0.08512539
0.07401368 -0.0059233657 0.057975035 0.08663509 -0.15419106 -0.004763981 -0.13485748 0.019408543
-0.0796111 0.11023085 -0.05690434 0.09459563 0.060022313 -0.020819686 0.0057049007 -0.060444463
-0.034586065 -0.015719734 -0.01082303 -0.041440763 -0.058125727 0.08610747 0.019468144 -0.08770797
-0.06770772 -0.023287458 -0.0068642586 0.03336055 0.08339552 0.010551958 -0.068633966 0.041535515
0.0069250455 0.028407896 0.017084172 -0.02777073 0.044803068 -0.01720834 -0.0018041166 0.0028533419
0.0011829237 -0.003053853 -0.057449013 0.0009759528 -0.042308033 -0.09671344 0.07008559 0.05030023
0.061064932 0.0051480355 -0.064331286 0.056141544 -0.053413972 0.0056793424 0.14189656 -0.08106367
-0.04303447 0.039401986 0.054027297 -0.010438627 0.044287834 -0.085235 -0.0033627031 -0.033397797
0.1121971 -0.10758289 -0.038714614 -0.054952953 0.071446575 -0.08694031 0.0864407 0.03260171
0.09941829 0.020580975 0.07049493 0.115244366 0.012281496 0.044768885 0.0046606045 -0.015855042
-0.013698429 0.06437782 0.081582755 0.026316363 0.061657567 0.0025166792 0.020342939 0.07072556
-0.031684823 0.046198133 0.0688965 0.0817391 0.025985787 -0.024496023 -0.026276695 -0.02859723
-0.022190338 0.06325457 -0.0068559614 0.036139913 -0.05139839 0.06300232 -0.074942626 -0.049788866
-0.066143475 -0.036543716 0.05071032 0.041081566 -0.04469068 0.0012384478 -0.021790791 -0.060371414
-0.029434292 -0.032041766 -0.11401499 -0.029487059 0.0171929 -0.04015661 0.004360118 -0.0004800607
0.023537371 -0.055932358 0.083299786 0.02814197 0.057856735 -0.022997553 0.053036224 -0.08454273
0.014830043 -0.101664156 -0.082344085 0.024584878 0.04081691 0.006812598 0.00041859175 0.02693443
0.11391732 0.12738268 0.042255398 0.014995642 0.06494557 0.09348321 -0.02673836 -0.06277178
0.06360405 0.06687015 -0.057215314 -0.016202785 -0.10063651 0.01630072 -0.0032481907 -0.10007456
-0.0024021373 -0.06280087 0.019924546 0.07377075 0.0154954 0.05971947 -0.040555943 0.010999613
0.11508805 0.05092551 -0.04486221 -0.020905718 0.06911433 -0.06001992 -0.03577524 -0.070588194
-0.028185584 -0.061401144 0.038706202 -0.10425978 0.02526769 -0.019683179 -0.05733653 -0.0359269
-0.01185361 0.032466225 -0.0430012 -0.0049162433 0.05924728 -0.10918563 -0.07067417 -0.0038970306
0.08251226 0.071615465 -0.020666394 -0.010027993 -0.050434306 0.014831012 0.006813939 0.031723
00000000: d495 c7bc 9aac a2bd 7e20 e4bb e17b bcbc
00000010: 1df7 a73d 8d77 80bd ee95 13bd 4762 58bd
00000020: 64b0 aebd 6c9a d43b 62cd 14bd 1d96 3cbd
00000030: fc75 07be 2698 44bb 719c 10bd 45c5 873d
00000040: eb6b 283d 9268 e3bc 4adf 9abc 4e19 953b
00000050: aeaa 833d 278e aa3b 14e1 9c3c 1125 5e3c
00000060: 8f42 d7bc 226d 0cbd 9f56 4fbd b971 693d
00000070: b14f d8bc f3fc bebd 1376 b1bd 5050 bf3c
00000080: ef67 a9bc 39b6 c0bc 4ae3 4f3d eb38 a7bd
00000090: e288 08be d80f d43c 71d0 c1bc a7f7 30bd
000000a0: 5b8f 1b3d a219 42bb ffae 863d 2c5e 9cbd
000000b0: e0a7 de3b 7fc2 5cbc 5a71 c43c e107 acbd
000000c0: 76f6 ba3c edb1 93bd a14d ecbc 8e77 3d3c
000000d0: 411a c2bd 69d1 613d 1d71 8fbd d849 b23c
000000e0: e255 8f3d 648a aa3c 747a d43d a2e2 40bd
000000f0: 9598 e2bc a746 6bbc 79c0 893c 3856 aebd
00000100: 7c94 973d cb18 c2bb 3b77 6d3d bd6d b13d
00000110: 43e4 1dbe 2b1b 9cbb 1418 0abe aafe 9e3c
00000120: 250b a3bd b6c0 e13d 8614 69bd 5bbb c13d
00000130: f5d9 753d 0c8e aabc 2df0 ba3b 9d94 77bd
00000140: 1eaa 0dbd acc6 80bc 1453 31bc cabd 29bd
00000150: 3e15 6ebd 1d59 b03d a87b 9f3c 3ca0 b3bd
00000160: 58aa 8abd 57c5 bebc 93ed e0bb 12a5 083d
00000170: 45cb aa3d 1fe2 2c3c f78f 8cbd 2521 2a3d
00000180: 7eeb e23b adb7 e83c 1bf4 8b3c 717f e3bc
00000190: 6c83 373d 81f8 8cbc 1c78 ecba 22ff 3a3b
000001a0: 550c 9b3a 2723 48bb a84f 6bbd 15d7 7f3a
000001b0: 304b 2dbd b211 c6bd 0989 8f3d 9d07 4e3d
000001c0: 391f 7a3d dab0 a83b 1fc0 83bd adf4 653d
000001d0: 9cc8 5abd c719 ba3b 554d 113e b604 a6bd
000001e0: ea44 30bd fa63 213d ba4b 5d3d c606 2bbc
000001f0: 2967 353d b08f aebd cc60 5cbb 21cc 08bd
00000200: 98c7 e53d 6b54 dcbd 3793 1ebd 5916 61bd
00000210: 9552 923d c30d b2bd d207 b13d 5f89 053d
00000220: d19b cb3d 6f99 a83c a55f 903d 3d05 ec3d
00000230: 5438 493c 945f 373d fcb7 983b 6fe2 81bc
00000240: 606f 60bc 85d8 833d dc14 a73d 6a95 d73c
00000250: a58c 7c3d dfee 243b 3ca6 a63c 90d8 903d
00000260: f2c7 01bd 413a 3d3d 9c19 8d3d d466 a73d
00000270: 25e0 d43c e2ab c8bc 3942 d7bc bd44 eabc
00000280: 83c8 b5bc 9d8b 813d f9a7 e0bb 7207 143d
00000290: 1e87 52bd 5c07 813d 857b 99bd 69ef 4bbd
000002a0: 3b76 87bd ddae 15bd a0b5 4f3d 2545 283d
000002b0: 930d 37bd 6a53 a23a 9a82 b2bc 0448 77bd
000002c0: 2f20 f1bc 3a3e 03bd b180 e9bd d88e f1bc
000002d0: 20d8 8c3c 427b 24bd 52df 8e3b a8b0 fbb9
000002e0: 72d1 c03c 5419 65bd 1499 aa3d fd89 e63c
000002f0: 2ffb 6c3d 5d65 bcbc 833c 593d bd24 adbd
00000300: b5f9 723c 4c35 d0bd 04a4 a8bd 3a66 c93c
00000310: a22f 273d 373c df3b 6f76 db39 98a5 dc3c
00000320: 7c4d e93d 9b70 023e ff13 2d3d 48b0 753c
00000330: 2f02 853d 2074 bf3d 680a dbbc 7e8e 80bd
00000340: d742 823d 38f3 883d 9b5a 6abd b4bb 84bc
00000350: 841a cebd 1689 853c 99df 54bb e4f3 ccbd
00000360: 2d6d 1dbb be9d 80bd cd38 a33c 1e15 973d
00000370: 6be0 7d3c 679c 743d fd1d 26bd b937 343c
00000380: 49b3 eb3d 4497 503d 70c1 37bd 7842 abbc
00000390: d08b 8d3d 73d7 75bd 0f89 12bd 8b90 90bd
000003a0: 74e5 e6bc c47f 7bbd 658a 1e3d 2786 d5bd
000003b0: 30fe ce3c 9e3e a1bc b6d9 6abd 1628 13bd
000003c0: a535 42bc 4efb 043d 0722 30bd 7018 a1bb
000003d0: 47ad 723d b79c dfbd 9fbd 90bd 5365 7fbb
000003e0: 30fc a83d 21ab 923d 924c a9bc 734c 24bc
000003f0: 3494 4ebd c6fd 723c 7747 df3b faef 013d

layer3.bias f4 [256]
-0.06389511 0.08303499 0.047154512 0.032279354 0.061226588 0.03794819 0.04070287 0.07761034
-0.03726421 -0.06830914 -0.0378999 0.06463328 -0.021443088 0.039220702 -0.05798971 0.018824037
-0.02886547 0.04070817 -0.0020310753 -0.020649074 -0.03652925 -0.03838194 -0.029314583 0.094125114
-0.045975264 0.04846482 -0.01528542 0.05889314 0.058316853 0.072361074 0.057210088 0.078367986
-0.03654545 0.056851342 0.028573109 -0.040202316 0.027374387 0.1191949 0.018629992 0.08101794
0.078899115 0.10354507 0.023142861 -0.06986354 0.015797893 0.057029646 -0.022419142 0.048706904
0.055562958 0.06244196 0.05870313 -0.02723191 -0.04420494 0.008159015 -0.039188903 0.023985397
-0.023173543 0.070666686 0.023438139 0.07027672 -0.012952541 -0.058971506 -0.014739912 0.030111188
0.00029284315 0.06645105 0.12580585 -0.03241769 -0.033008303 -0.007928198 -0.043931965 0.045048725
-0.057111055 0.017102562 -0.03608501 0.06811153 0.066836044 -0.0052635255 0.044034936 -0.020381574
0.06734043 0.05617117 0.05145742 0.012925432 0.036284443 0.048473995 0.012484292 0.015666911
-0.017785948 0.01441357 -0.042498674 0.06027054 0.08821076 0.045766756 -0.037713267 0.07624904
0.05739142 -0.05114711 -0.017642044 0.04625916 0.10798676 0.06921196 0.014529176 0.007929418
0.115755625 0.070995376 0.0829187 -0.002486558 0.009493005 0.029021053 0.019030051 -0.010621093
-0.061364375 -0.03382873 0.009234043 0.023493879 0.026277563 -0.03570179 0.01765246 0.011387816
0.03970271 -0.07713876 0.07096681 0.109264284 -0.066767246 0.083500914 0.013108625 0.019611277
0.0011818133 0.0049394905 0.01615461 0.022604624 0.0021528832 0.04423061 0.014642285 -0.030753119
0.02168378 0.083457895 0.053483892 0.062308077 0.06721798 0.057461254 0.008173599 0.06815044
0.08942864 0.052188456 0.061642155 0.009677258 -0.011948094 0.051382437 -0.044580758 -0.051208876
0.05486936 -0.0022697179 0.028086362 0.10816621 -0.0061438126 0.08679561 0.035728425 -0.0012651652
0.024033306 -0.041669168 0.002063352 0.04753895 -0.0028782093 0.026492927 -0.02849072 0.07656982
0.052162178 0.028241687 0.026049126 0.008894034 -0.021165976 0.053541932 -0.021003203 0.06674732
-0.002268041 0.07165907 0.053854734 0.03994047 -0.02495893 0.03748545 0.017857892 0.05575185
0.023267828 -0.021736188 -0.06784186 -0.021673974 0.015910516 0.045430683 0.024357397 0.0023699992
0.056629777 -0.0025538565 -0.076444596 0.084558465 0.026930885 0.01911427 -0.016496673 0.0003481317
-0.03977149 -0.02331849 -0.005215325 0.09758304 -0.0036338766 -0.013536999 -0.021567054 0.00728991
-0.035415083 -0.05451268 -0.060769014 -0.07150789 -0.005383893 0.058168616 0.0957717 -0.015873473
0.025031745 -0.035924166 -0.01828335 0.015960108 0.10091084 -0.054527633 0.02621287 -0.0030468116
-0.025876483 -0.0391238 0.05753271 0.070174 -0.09650119 -0.051247504 0.069152355 0.020410301
0.014960534 0.06885059 0.005380441 -0.024466282 0.0006900213 0.035722762 -0.0014254869 -0.015385535
-0.0019983763 0.015315413 -0.01594407 0.09664575 0.041592985 0.07968004 -0.027164226 -0.020763585
0.08085927 0.029240368 -0.030702127 0.066668026 -0.038496558 0.08640109 0.038878296 -0.043999974
00000000: 70db 82bd 400e aa3d 1725 413d 5b37 043d
00000010: bbc8 7a3d 906f 1b3d 0db8 263d 2cf2 9e3d
00000020: 5ba2 18bd aae5 8bbd ed3c 1bbd 745e 843d
00000030: 6aa9 afbc e3a5 203d 9e86 6dbd de34 9a3c
00000040: 4777 ecbc 9cbd 263d ca1b 05bb 3f28 a9bc
00000050: b29f 15bd 6236 1dbd 2325 f0bc abc4 c03d
00000060: 8f50 3cbd 0c83 463d b36f 7abc ef39 713d
00000070: a7dd 6e3d 0b32 943d 2055 6a3d 657f a03d
00000080: afb0 15bd f4dc 683d 2712 ea3c 2fab 24bd
00000090: 4040 e03c 751c f43d ed9d 983c bcec a53d
000000a0: dc95 a13d 700f d43d 1996 bd3c 9e14 8fbd
000000b0: 956a 813c eb97 693d 59a8 b7bc e480 473d
000000c0: fc95 633d 24c3 7f3d b172 703d 7415 dfbc
000000d0: 3d10 35bd 64ad 053c 8b84 20bd 067d c43c
000000e0: 71d6 bdbc b2b9 903d 5701 c03c 3eed 8f3d
000000f0: e536 54bc 1b8c 71bd ac7f 71bc bdab f63c
00000100: be88 9939 7d17 883d 40d3 003e 69c8 04bd
00000110: b733 07bd 46e5 01bc 01f2 33bd 0385 383d
00000120: 48ed 69bd ac1a 8c3c e0cd 13bd 0f7e 8b3d
00000130: 56e1 883d a779 acbb fa5d 343d 42f7 a6bc
00000140: c8e9 893d be13 663d 04c5 523d 31c5 533c
00000150: ff9e 143d ab8c 463d ea8a 4c3c e557 803c
00000160: d6b3 91bc e526 6c3c 1713 2ebd 3ede 763d
00000170: d8a7 b43d ec75 3b3d 3a79 1abd 7528 9c3d
00000180: 4413 6b3d a27f 51bd 0c86 90bc 3f7a 3d3d
00000190: 2a28 dd3d 00bf 8d3d c80b 6e3c 64ea 013c
000001a0: 4911 ed3d 0666 913d 48d1 a93d 85f5 22bb
000001b0: 8d88 1b3c 8fbd ed3c e9e4 9b3c 1804 2ebc
000001c0: 3659 7bbd ff8f 0abd 624a 173c 3c76 c03c
000001d0: 0b44 d73c 0a3c 12bd e49b 903c f693 3a3c
000001e0: 4f9f 223d edfa 9dbd 0c57 913d f4c5 df3d
000001f0: 44bd 88bd 8702 ab3d 8fc5 563c d4a7 a03c
00000200: 13e7 9a3a 73db a13b ac56 843c 552d b93c
00000210: 6317 0d3b 282b 353d 32e6 6f3c f7ed fbbc
00000220: 2fa2 b13c f9eb aa3d ed11 5b3d c136 7f3d
00000230: 95a9 893d 7e5c 6b3d 8fea 053c 7592 8b3d
00000240: 5d26 b73d 90c3 553d 7c7c 7c3d 5d8d 1e3c
00000250: f0c1 43bc 6476 523d 509a 36bd 66c0 51bd
00000260: b2be 603d 8cbf 14bb 5f15 e63c 3f86 dd3d
00000270: 0952 c9bb e6c1 b13d f857 123d e6d3 a5ba
00000280: 7fe1 c43c 4aad 2abd 4d39 073b 34b8 423d
00000290: 57a0 3cbb b207 d93c 5f65 e9bc a3d0 9c3d
000002a0: 02a8 553d 1c5b e73c fa64 d53c 48b8 113c
000002b0: 4564 adbc c94e 5b3d e90e acbc d2b2 883d
000002c0: 6aa3 14bb fec1 923d c896 5c3d 9e98 233d
000002d0: ac76 ccbc 588a 193d b74a 923c 0d5c 643d
000002e0: 2c9c be3c 1710 b2bc acf0 8abd 9e8d b1bc
000002f0: c556 823c 8615 3a3d 2a89 c73c fd51 1b3b
00000300: a0f4 673d 9a5e 27bb fc8e 9cbd fd2c ad3d
00000310: 299e dc3c 8895 9c3c 0824 87bc 7285 b639
00000320: 6ee7 22bd 6b06 bfbc 51e5 aabb 9ed9 c73d
00000330: 5526 6ebb 4aca 5dbc 64ad b0bc 33e0 ee3b
00000340: 680f 11bd b048 5fbd eee8 78bd bb72 92bd
00000350: 5e6b b0bb 3742 6e3d f423 c43d 1609 82bc
00000360: 600f cd3c 3825 13bd f7c6 95bc c6be 823c
00000370: 58aa ce3d 5e58 5fbd 5fbc d63c 04ad 47bb
00000380: ebfa d3bc 4740 20bd 6ba7 6b3d 63b7 8f3d
00000390: 6aa2 c5bd e7e8 51bd c09f 8d3d 8133 a73c
000003a0: 071d 753c 8a01 8d3d 694e b03b 836d c8bc
000003b0: 8ce2 343a 0852 123d 67d7 baba 9c13 7cbc
000003c0: 31f7 02bb 7fed 7a3c 239d 82bc 35ee c53d
000003d0: 685d 2a3d 4a2f a33d 8387 debc 6518 aabc
000003e0: 8c99 a53d 7f89 ef3c 0783 fbbc 3f89 883d
000003f0: 91ae 1dbd 0ef3 b03d d93e 1f3d 5139 34bd

layer4.weight f4 [128, 256]
-0.025924336 -0.067722924 -0.1583905 0.027882425 0.051614672 0.00048237143 -0.12711889 0.002816573
-0.029966054 0.05684433 0.0069075995 -0.040304724 0.06379142 -0.06306435 -0.06029718 -0.019393148
0.03351341 0.011510003 -0.03438419 -0.08792543 -0.07269845 -0.0077585494 0.027984885 -0.023642233
0.08073375 -0.032893874 0.025314208 0.09114564 0.04483306 -0.06063519 -0.015667634 -0.049343716
-0.060285278 -0.000105751984 -0.0463618 -0.040137477 -0.035071123 -0.00062966265 0.115302496 0.124299325
0.016509643 -0.054669112 -0.021736111 -0.05219907 0.03337509 -0.027454255 0.016119676 -0.037725728
0.08778528 0.037076708 -0.055188358 -0.08562596 0.083934695 -0.0066919583 -0.029682763 -0.068891786
0.007672492 -0.0081901755 -0.01370335 -0.019975709 -0.07920391 -0.03099665 -0.0033832525 -0.06256151
0.0493608 -0.010506892 -0.048103884 -0.0026392585 -0.005249006 0.00083797594 0.054188587 0.045871064
0.01684593 -0.0137662925 -0.020876955 6.855077e-05 0.04582826 -0.021579541 -0.008960565 -0.040591206
0.054174 -0.020791031 -0.114199996 -0.001458283 0.017063815 -0.05347249 -0.02020415 0.0041758516
0.107665114 0.036191896 -0.09689952 0.029456586 0.039367735 0.073821515 -0.11866519 0.055818386
-0.0027415017 -0.018858036 0.01226725 0.039556384 0.013073237 0.048548274 0.0017473092 0.07963499
-0.066081434 0.0444154 0.021183643 0.012877684 -0.07544886 -0.027592624 0.09404135 0.050941885
0.010186022 -0.08984734 0.07487614 -0.0040224246 0.052940704 -0.10803751 -0.057371706 -0.03832987
-0.006148079 0.0017012784 -0.020795409 -0.036219187 0.02944892 0.04702706 0.026589893 -0.02899729
-0.066139534 0.058152217 -0.026429748 -0.04428684 -0.024676118 -0.022403859 -0.07356362 -0.010526108
0.009694278 0.09688402 -0.0060580326 0.029061753 0.0540419 0.026039727 -0.0065728794 -0.051008917
-0.0036460066 -0.07056353 0.06865078 0.03578344 0.011387133 0.038519964 0.059753995 0.063649915
-0.040007118 -0.022135314 0.05396405 0.056385346 0.06305544 -0.076273836 -0.038437527 0.07740556
0.097370274 -0.060033143 -0.029318174 0.022126747 0.045442626 0.005559033 0.06064578 0.021327645
0.026805475 -0.030764582 0.052150786 -0.0064407163 -0.080223426 0.11854975 0.019057501 0.00064593874
0.09747795 0.011985109 -0.056954928 -0.0073095895 -0.026183771 0.02614332 0.024180876 0.06577736
-0.07809578 0.051101867 -0.01488308 -0.020857109 -0.01699812 0.10919398 -0.09143639 0.0143409455
0.05053739 0.047349732 -0.06417197 0.06123847 0.17069426 0.11867447 -0.0061567794 -0.023009289
-0.019015187 0.07339754 -0.028790813 -0.10138209 0.074188784 0.04306445 0.07542361 -0.04596335
-0.12944633 -0.016711522 -0.018327089 -0.0064823106 0.03367814 0.018225316 0.021851715 -0.04831539
-0.0018578136 0.0008653581 -0.03249378 -0.10249705 0.016127972 0.055170923 0.023053866 0.0008111409
-0.12968239 0.081999466 -0.083766885 -0.105127566 -0.026523627 0.019891668 0.017239213 0.09286641
0.018746756 0.13942456 -0.06793291 -0.015002536 -0.032282952 0.03832695 -0.08121881 -0.039466072
0.0024375243 -0.020803478 0.030389907 -0.013548488 0.053289298 -0.023461536 0.05683471 0.059118006
0.03624737 -0.050869964 0.02011536 -0.044429816 -0.06833725 0.05250961 0.06793147 0.06309486
00000000: 465f d4bc 51b2 8abd 1f31 22be af69 e43c
00000010: e869 533d cce6 fc39 742b 02be 4196 383b
00000020: 5f7b f5bc 9ad5 683d 2559 e23b 9116 25bd
00000030: 13a5 823d e227 81bd 2dfa 76bd 61de 9ebc
00000040: 5b45 093d 7494 3c3c 70d6 0cbd 3f12 b4bd
00000050: ede2 94bd 6e3b febb 8f40 e53c 5bad c1bc
00000060: bc57 a53d babb 06bd be5f cf3c 91aa ba3d
00000070: dfa2 373d 9b5c 78bd 6959 80bc a31c 4abd
00000080: b2ed 76bd 2ac7 ddb8 dfe5 3dbd 3267 24bd
00000090: bda6 0fbd f20f 25ba b723 ec3d a590 fe3d
000000a0: 3b3f 873c b8ec 5fbd ee0f b2bc b1ce 55bd
000000b0: 52b4 083d bfe7 e0bc 690d 843c 4b86 1abd
000000c0: c5c8 b33d bfdd 173d 300d 62bd aa5c afbd
000000d0: f4e5 ab3d 3748 dbbb 4429 f3bc 2317 8dbd
000000e0: 8769 fb3b 1630 06bc 0484 60bc 19a4 a3bc
000000f0: a935 a2bd b0ec fdbc 8fb9 5dbb 4020 80bd
00000100: 8d2e 4a3d 1925 2cbc 9408 45bd 69f7 2cbb
00000110: dbff abbb 9dab 5b3a daf4 5d3d 4ce3 3b3d
00000120: 7a00 8a3c 048c 61bc 2606 abbc eac2 8f38
00000130: 6ab6 3b3d 94c7 b0bc 55cf 12bc f742 26bd
00000140: 8ee5 5d3d f451 aabc b0e1 e9bd dc23 bfba
00000150: 6ac9 8b3c f805 5bbd 2c83 a5bc 95d5 883b
00000160: 877f dc3d f43d 143d 4173 c6bd f04e f13c
00000170: 1040 213d bc2f 973d bc06 f3bd d2a1 643d
00000180: c4aa 33bb 2b7c 9abc 93fc 483c e005 223d
00000190: 2131 563c 8eda 463d f805 e53a ab17 a33d
000001a0: b455 87bd ecec 353d 5289 ad3c ecfc 523c
000001b0: ef84 9abd ed09 e2bc c098 c03d 70a8 503d
000001c0: 46e3 263c e201 b8bd a958 993d 8bce 83bb
000001d0: 5ad8 583d c542 ddbd 98fe 6abd c8ff 1cbd
000001e0: d375 c9bb 6efd de3a 225b aabc 925a 14bd
000001f0: dd3e f13c 729f 403d 0cd3 d93c ba8b edbc
00000200: 2a74 87bd 0531 6e3d 3383 d8bc 1e66 35bd
00000210: 9225 cabc 4c88 b7bc 86a8 96bd b275 2cbc
00000220: c0d4 1e3c 216b c63d 7682 c6bb ea12 ee3c
00000230: 0a5b 5d3d 4451 d53c 4f61 d7bb baee 50bd
00000240: d7f1 6ebb 9d83 90bd c898 8c3d a891 123d
00000250: 1991 3a3c 1cc7 1d3d 9bc0 743d e35a 823d
00000260: 81de 23bd 1e55 b5bc 6809 5d3d 52f4 663d
00000270: 3623 813d 7535 9cbd ab70 1dbd ce86 9e3d
00000280: 116a c73d 50e5 75bd ab2c f0bc 2743 b53c
00000290: 0c22 3a3d 8c28 b63b b667 783d 50b7 ae3c
000002a0: 2897 db3c 0106 fcbc 109c 553d a50c d3bb
000002b0: 2e4c a4bd 36ca f23d 7a1e 9c3c 3754 293a
000002c0: 85a2 c73d 315d 443c 9249 69bd 4885 efbb
000002d0: 597f d6bc 842a d63c f916 c63c 48b6 863d
000002e0: aef0 9fbd 3150 513d 29d8 73bc 87dc aabc
000002f0: a43f 8bbc 18a1 df3d 0143 bbbd 49f6 6a3c
00000300: 4b00 4f3d cbf1 413d 986c 83bd 31d5 7a3d
00000310: 7aca 2e3e 9a0b f33d cfbe c9bb fa7d bcbc
00000320: bdc5 9bbc 7351 963d b6da ebbc 6aa1 cfbd
00000330: 4af0 973d 5964 303d b277 9a3d 1144 3cbd
00000340: 948d 04be 9ae6 88bc b122 96bc 9069 d4bb
00000350: 17f2 093d 424d 953c 5e02 b33c 5ce6 45bd
00000360: e181 f3ba 33d9 623a 3318 05bd f9e9 d1bd
00000370: cf1e 843c e8fa 613d 76db bc3c bfa2 543a
00000380: 76cb 04be 56ef a73d f98d abbd 1f4d d7bd
00000390: 1448 d9bc daf3 a23c 4039 8d3c bf30 be3d
000003a0: cc92 993c 50c5 0e3e 6920 8bbd 32cd 75bc
000003b0: 213b 04bd b8fc 1c3d 0c56 a6bd 2da7 21bd
000003c0: dfbe 1f3b 0e6c aabc 41f4 f83c 7afa 5dbc
000003d0: e145 5a3d 6832 c0bc 83cb 683d b925 723d
000003e0: 1f78 143d 065d 50bd f8c8 a43c 0afc 35bd
000003f0: 66f4 8bbd 5114 573d a81f 8b3d e137 813d

layer4.bias f4 [128]
0.06939674 0.0648587 0.041604724 0.05204768 0.012160486 -0.0022152732 0.0903754 -0.00026671684
0.02706358 0.07985585 0.061321225 -0.0064677894 0.0129825 0.021282243 -0.009089355 0.027595837
-0.008687731 -0.052056976 0.09278121 0.023759369 -0.03961938 0.039562766 -0.016801072 0.060518872
-0.00012957613 0.018299138 -0.058124166 -0.013768747 0.01932411 -0.05957769 0.048186008 -0.11716929
0.07630302 0.05457895 -0.028918361 0.0418652 -0.0051841885 0.00950225 0.12377913 0.0036325075
0.050085623 -0.029921703 -0.021364529 -0.010518334 -0.01820595 -0.043183293 0.061145645 -0.041527927
0.09841064 0.026056996 0.060934592 -0.08819281 0.010871949 -0.03834126 0.0727147 -0.019718474
0.005981368 0.038060497 0.04317642 0.0057036853 -0.030129973 -0.003576317 -0.07367782 -0.047816135
-0.008460293 -0.00107433 0.021637646 0.05446206 0.06954635 -0.01848147 0.090506144 0.099597506
0.032891512 -0.01799483 0.0498378 0.11936815 0.081843115 -0.03470846 0.10199741 0.026492901
0.013192915 -0.042247925 -0.008209376 0.0044863117 -0.031753294 -0.045036756 -0.013770633 -0.03310075
0.038064938 0.033835307 0.057903357 -0.013347291 0.0053395587 -0.00999587 -0.04069166 0.044085577
0.051675 0.023991095 0.05645611 0.09166765 -0.040561605 0.03682293 -0.030891871 -0.026229225
-0.0110949185 -0.005222227 -0.03176786 -0.06402374 0.048541028 0.0138475485 0.09360605 0.095805675
-0.04467778 -0.01993301 0.070273645 -0.08673716 0.009261303 0.036038347 0.015999943 0.016098792
0.07170573 0.018068202 0.044436205 -0.010502978 -0.01598476 0.025349671 0.008678249 -0.0270333
00000000: e11f 8e3d a3d4 843d b769 2a3d f32f 553d
00000010: c63c 473c 1e2e 11bb bd16 b93d 21d6 8bb9
00000020: 71b4 dd3c 778b a33d f72b 7b3d c0ef d3bb
00000030: 8db4 543c 1958 ae3c 85eb 14bc aa10 e23c
00000040: fc56 0ebc b239 55bd 1304 be3d 02a3 c23c
00000050: ee47 22bd 910c 223d 67a2 89bc a3e2 773d
00000060: d4de 07b9 13e8 953c 9b13 6ebd 5096 61bc
00000070: 994d 9e3c bc07 74bd b15e 453d 74f6 efbd
00000080: c244 9c3d 2d8e 5f3d 33e6 ecbc d87a 2b3d
00000090: 20e0 a9bb 53af 1b3c ea7f fd3d 5d0f 6e3b
000000a0: 9526 4d3d 5c1e f5bc aa04 afbc 1755 2cbc
000000b0: a524 95bc f7e0 30bd db73 7a3d 3019 2abd
000000c0: 858b c93d 7b75 d53c 8d96 793d 6f9e b4bd
000000d0: 4220 323c ba0b 1dbd 72eb 943d a388 a1bc
000000e0: 5aff c33b 53e5 1b3d c2d9 303d fbe5 ba3b
000000f0: 22d3 f6bc a560 6abb 66e4 96bd dada 43bd
00000100: 0a9d 0abc 88d0 8cba 6f41 b13c 9c13 5f3d
00000110: 516e 8e3d 7466 97bc 495b b93d c7f9 cb3d
00000120: 40b9 063d e569 93bc b922 4c3d 4a77 f43d
00000130: 5d9d a73d 752a 0ebd 05e4 d03d a407 d93c
00000140: 1927 583c 290c 2dbd 9e80 06bc e901 933b
00000150: be0f 02bd 7678 38bd 399e 61bc a794 07bd
00000160: fbe9 1b3d e496 0a3d 122c 6d3d 99ae 5abc
00000170: 77f7 ae3b b8c5 23bc 4cac 26bd 1493 343d
00000180: 2aa9 533d f988 c43c 863e 673d 40bc bb3d
00000190: ed23 26bd a4d3 163d f310 fdbc acde d6bc
000001a0: 76c7 35bc 371f abbb 041f 02bd e11e 83bd
000001b0: f5d2 463d d4e0 623c 87b4 bf3d c435 c43d
000001c0: 0c00 37bd 8d4a a3bc a1eb 8f3d 41a3 b1bd
000001d0: b8bc 173c f29c 133d 5012 833c 9de1 833c
000001e0: 74da 923d c403 943c bd02 363d af14 2cbc
000001f0: 79f2 82bc 1daa cf3c 372f 0e3c f074 ddbc
