PPO/ppo_critic.pth (torch, 546027 bytes, 9 tensors)

layer1.weight f4 [128, 29]
000000 2b 09 b4 bb a8 dc 29 3d d8 3d 0e 3e aa 7c 63 3d
       -0.005494257 0.0414702 0.13890779 0.05553881
000010 96 06 fa 3d a6 39 07 be 80 1f c7 3c 5e 38 90 3d
       0.122082874 -0.13205585 0.024307013 0.07042001
000020 27 4c 82 bd 52 64 90 bc b2 a1 4f bd 97 87 1a 3e
       -0.06362181 -0.017625961 -0.050691314 0.15090786
000030 36 bf d2 3d 67 a8 0e 3c 38 84 1b be d6 d0 d8 3d
       0.10290377 0.008707142 -0.15187156 0.10586707
000040 82 0d 14 be cc 74 e8 bd c9 bf 55 3e 8c f9 06 be
       -0.14458278 -0.11350402 0.20873941 -0.13181132
000050 e3 52 25 be 17 33 cc bd 7d af 3a bd af d9 0f be
       -0.161449 -0.09970682 -0.045577515 -0.14047883
000060 4d 4f e7 bc 84 57 9b 3d c5 74 a0 3c 01 a7 12 3e
       -0.028236056 0.07585052 0.01958693 0.1432152
000070 41 bb c0 bd 73 4a a6 bd b0 dd 8c 3d 6a ea db 3c
       -0.09410716 -0.08119669 0.06878221 0.026845176
000080 1a 7d 17 3e 55 1d 9b bd ce 35 f6 3d 18 9a c4 3d
       0.14793816 -0.07573954 0.12021981 0.095997036
000090 e3 f2 78 3e 94 72 08 3e 9c 44 1f 3e b7 75 2e 3e
       0.24311404 0.13324958 0.15553516 0.17037092
0000a0 ee 5a 56 be 1f 7b 30 be f4 52 f7 bd 54 ec 48 be
       -0.20933124 -0.17234467 -0.12076369 -0.19621402
0000b0 a9 51 87 be 27 26 8a bd fa 5e 86 3c 08 e1 e0 bd
       -0.2642949 -0.06745558 0.01640271 -0.10980421
0000c0 e5 0d 92 bd a4 79 b2 3b ad 7a 4d 3d 75 7a e9 3d
       -0.071315564 0.0054466296 0.05016582 0.1140031
0000d0 bb 80 67 3d dc b7 e3 bd 6f 22 48 3d 9d 34 02 3e
       0.05651925 -0.11119053 0.048860963 0.12715383
0000e0 1e 31 59 3a 98 75 b2 3d 35 73 18 3d 9f 00 a7 bc
       0.0008285212 0.087138355 0.037219245 -0.020386038
0000f0 4f ec c4 bc 08 b8 56 3d e3 51 38 be 2f a6 a1 3c
       -0.024038462 0.0524216 -0.17999987 0.019732563
000100 90 71 67 be 74 b2 16 be 1b 7f 56 3d dc 83 d9 3c
       -0.22601914 -0.14716512 0.05236731 0.026552133
000110 5d a8 0e be 12 7c 09 3e 76 74 04 bd 81 32 0d bd
       -0.13931413 0.13426235 -0.03233763 -0.034471992
000120 7f 32 f5 3d 96 c0 33 be 1f 58 c0 bd 4d 1a fd bd
       0.11972522 -0.17553934 -0.09391808 -0.12358532
000130 16 bd 1d 3d c0 c6 50 3e 3a 17 3b be d5 34 28 3c
       0.038510405 0.20388317 -0.18270579 0.010266502
000140 da c1 eb 3c 00 8c d3 3d 96 79 c5 3d f0 14 78 bd
       0.028778959 0.10329437 0.09642331 -0.060566843
000150 2f 1b ad 3a 46 d6 e9 3d e5 4a a7 3c 2f 92 9e 3d
       0.0013206954 0.114178225 0.020421455 0.07742726
000160 4d ef 9e 3d 78 de 17 bd e1 5d b6 3e a1 c4 e4 bd
       0.07760487 -0.037077397 0.356185 -0.111703165
000170 29 64 4f be 32 b8 12 be 7a 60 83 bc a1 24 49 3d
       -0.20253052 -0.14328077 -0.016037215 0.049107198
000180 91 6c e6 bd 27 5f 9e 3d 32 d1 87 3e 96 2b 46 3d
       -0.11251176 0.077329926 0.2652679 0.04838141
000190 cb 86 ef 3d cd 23 a8 3d 05 13 bc bd fd 35 4d be
       0.116956316 0.082099535 -0.09183315 -0.20040126
0001a0 56 e0 90 be f6 1c 33 bd 01 52 4d be a2 47 e2 3d
       -0.28296155 -0.04372879 -0.20050813 0.11048819
0001b0 4b 9d b9 3d e9 3f a7 bd b6 bd b8 3b 31 16 9d 3c
       0.090632044 -0.08166487 0.0056378497 0.01917562
0001c0 8f 66 a8 3d e9 22 cd 3c f4 e4 97 3d 72 0c 70 3c
       0.082226865 0.02504106 0.07416716 0.014651405
0001d0 3e ae 5e 3d 8a e6 d5 bd df 45 8f 3d 88 28 3e 3e
       0.05436539 -0.104443625 0.06995749 0.18570149
0001e0 75 a9 39 3e 34 3c b5 3e c7 7a 81 3d aa 6c 4e 3e
       0.18131049 0.35397494 0.06322246 0.2015864
0001f0 6e f7 d2 3d 92 98 e9 3d 74 0f a5 3c a9 67 10 3e
       0.103011 0.114060536 0.02014897 0.14102043
000200 4b a2 42 3e 0f b5 3c 3e 6c 4a 08 be e6 65 5a bc
       0.19007222 0.18428443 -0.1330964 -0.013329959
000210 f0 a3 1f 3e d0 b1 b9 be 16 38 a2 bd 34 5a 54 3e
       0.15589881 -0.36268473 -0.07920854 0.20737535
000220 2a 9c d2 3d ee 83 3e bd a9 63 04 3d 62 ad 4a bb
       0.10283692 -0.046512537 0.032321606 -0.0030926098
000230 f3 3c 15 3d 10 81 1b bd 3b 5b b7 bb 58 83 88 bd
       0.03643508 -0.03796488 -0.0055955923 -0.06665677
000240 65 fc 80 bb 00 b7 10 be 02 e7 a9 3d 84 f3 3b 3e
       -0.003936338 -0.14132309 0.08296014 0.18354613
000250 9c 00 81 3e d1 e0 e5 bc af 88 2e 3e c8 51 45 bd
       0.25195777 -0.028061302 0.17044328 -0.048173696
000260 7b ed 37 3b d4 d0 97 ba fa fe 4b 3e b0 b7 d1 bd
       0.0028065133 -0.0011582621 0.19921485 -0.10240114
000270 7b 22 66 bd c0 db ef 3c 5e 88 fd 3d 0a 5f 80 3d
       -0.056185227 0.02927959 0.123795256 0.06268127
000280 b7 77 ca 3c 1f d6 2a 3d 76 4d d8 bd ad d9 0c be
       0.024715288 0.041708108 -0.105616495 -0.13754912
000290 55 cc 7f bd 0f 95 8f bd 2b f0 d7 bd 6b 0d e6 3d
       -0.062450726 -0.070108525 -0.10543855 0.11233028
0002a0 76 d4 81 3d 80 9a b0 3d c3 c6 cb 3d dc a9 eb bc
       0.06339352 0.086232185 0.0995002 -0.028767519
0002b0 78 34 55 bd c2 b8 4f bc 0b de c1 3d e1 27 02 bc
       -0.05205199 -0.012678327 0.094661795 -0.007944078
0002c0 d1 3f 1a 3d c5 c6 38 3e 09 08 bc bd d8 9c b6 bd
       0.037658516 0.18044575 -0.0918122 -0.08916634
0002d0 80 1e b2 3c 0e fe 38 be 44 d8 1f be c1 02 61 3e
       0.02174306 -0.18065664 -0.15609843 0.21973707
0002e0 e9 3f d3 bd 4b 6d d1 bd 43 4a f2 bc fb e5 9b bd
       -0.10314924 -0.10225924 -0.029576426 -0.07612225
0002f0 b4 bb e3 bd 92 ed 3f 3e 23 dd be bd 4d 23 10 3e
       -0.11119786 0.1874297 -0.09319522 0.14075966
000300 1b f3 df bd 0d 47 0b 3e 73 fd c9 3d 38 9c 4d bd
       -0.109350406 0.13601322 0.09862795 -0.05019781
000310 1b 0a 3f bd 9e 85 33 bc f9 68 16 be 1c 69 9a bd
       -0.046640497 -0.01095715 -0.14688481 -0.07539579
000320 ed 9c 12 3e d6 46 a6 3d 3a f8 06 3e e2 cb 12 3e
       0.14317675 0.0811898 0.13180628 0.14335588
000330 67 39 b9 bd 53 86 1e be 2b 16 12 bd 88 c5 5a be
       -0.09044152 -0.15480928 -0.035665672 -0.21364415
000340 f4 78 af 3e 55 52 83 bd 6b c8 2d 3e 55 41 8b 3d
       0.34271967 -0.06412188 0.16970985 0.067995705
000350 36 6d 21 3e 38 09 5a be 6b 60 04 3e 68 29 86 bc
       0.15764317 -0.21292579 0.12927406 -0.016377166
000360 05 5c 43 bd 8f 7c 35 3c 4d 46 c7 bd 24 c8 5f 3d
       -0.04769518 0.01107706 -0.09730206 0.05463423
000370 70 ef 87 bd 3c 87 7a bd 4e f0 4d bc f3 3c 9b bd
       -0.06637466 -0.061164126 -0.0125695 -0.075799845
000380 04 29 2a 3d 9f cd 93 bc 77 18 5a 3d d2 d9 dd 3b
       0.04154302 -0.018042384 0.053245988 0.006770351
000390 fc c8 55 bd 6e e3 28 bc ab cb 27 bd db 65 e1 bc
       -0.052193627 -0.01030813 -0.040965717 -0.027514389
0003a0 1d 60 c9 3d 56 04 a5 3d 05 4f 5a 3e 3c 19 81 3e
       0.09832785 0.08057468 0.21319206 0.25214565
0003b0 c9 46 dc 3d b9 13 24 bd d2 c9 c2 bd 4d 5a 6a 3d
       0.10755689 -0.04005787 -0.095111504 0.057215024
0003c0 10 90 c3 3d f7 2e db bd 76 49 08 bd 1d aa 9f bd
       0.09548962 -0.10702317 -0.033273183 -0.077961184
0003d0 98 b8 70 bb fb f1 3e 3d b0 1b f8 bd fb 79 30 3e
       -0.003673112 0.04661749 -0.12114656 0.17234032
0003e0 08 1e e9 bd f0 23 19 3d dd 34 b0 3d 09 2c b7 b9
       -0.11382681 0.03738779 0.08603833 -0.0003493729
0003f0 af 58 c5 bd ae 5c 11 3e d1 62 56 bd 1c 46 28 bd
       -0.09636056 0.1419551 -0.052340332 -0.041082487

layer1.bias f4 [128]
000000 07 a9 7a bd b6 3a 85 3e 25 51 2e 3d d8 21 ee 3c
       -0.061196353 0.26021355 0.042557854 0.029068872
000010 1b cd c2 bb 1c 2b c3 bd 1b a3 e4 bd 2a 65 ac 3e
       -0.0059448606 -0.09529707 -0.111639224 0.33670932
000020 3e de 85 be 22 c6 76 3e cb 47 86 3a 1f ce a2 3e
       -0.2614612 0.24099019 0.0010244785 0.31797883
000030 a8 6b 2e be 69 04 ec bc 0d 5e 72 3c f3 1d 0c bc
       -0.17033255 -0.028810697 0.014792931 -0.008552062
000040 68 20 aa 3e 50 7d 87 3e 20 e4 f8 bd 59 83 8d 3d
       0.3322785 0.26462793 -0.121528864 0.06909818
000050 49 9c 96 bd 34 65 c6 bd 29 62 28 be a3 e6 44 bc
       -0.07354028 -0.09687272 -0.16443695 -0.012017879
000060 3f a6 34 be 4c 4b 8d bc cd ba a3 3e f6 b4 fe 3c
       -0.17641543 -0.017247818 0.31978455 0.031092148
000070 53 a0 68 3e f4 af 32 3e 8d f3 3b bd ab cf a1 3e
       0.22717409 0.17449933 -0.045886565 0.3160375
000080 03 e5 94 3e 7f 76 f1 bd d6 b5 58 be 30 03 0e be
       0.29080972 -0.117901795 -0.21163115 -0.13868403
000090 9f 8a a4 bd f4 d8 5d bd 1d 94 55 3e 63 48 76 3d
       -0.080342524 -0.05416198 0.20857282 0.060127627
0000a0 67 13 32 3d 02 6a 74 3e 44 27 06 be 22 1e 24 3e
       0.043475535 0.23868564 -0.13100916 0.1602712
0000b0 4c 37 53 be ad 63 00 be a9 7e 5b 3e 7c 30 18 be
       -0.20626563 -0.12538023 0.21435036 -0.14862245
0000c0 27 ff da 3d 8e 84 8f 3e a9 60 4c 3e eb 5b 42 3e
       0.10693198 0.2803082 0.19958748 0.18980376
0000d0 06 ea 25 be 2f 6e 36 be 38 25 3e 3e a9 f5 94 3e
       -0.16202554 -0.17815469 0.18568885 0.29093674
0000e0 26 04 2d 3e cd 6a e8 3d 18 09 b9 bd 28 7e 04 3c
       0.16896114 0.11348496 -0.090349376 0.008086719
0000f0 8a 20 cd 3c 74 a1 a3 bd b6 86 3a 3e bb e9 26 3d
       0.02503993 -0.07989779 0.1821545 0.040750246
000100 9d 15 94 bd bd fb 6e 3d b7 d6 32 be 37 40 ce 3c
       -0.07230685 0.058345545 -0.1746472 0.025177104
000110 ad 96 85 3e 8d a2 84 3e eb 77 99 3e 4b d2 0e 3e
       0.2609152 0.25905266 0.29974303 0.13947408
000120 a0 7e ff 3d 85 6e 22 be 3d 62 5e be 06 f9 dc bd
       0.12475324 -0.15862472 -0.21717162 -0.10789685
000130 88 ef a3 3d 0a c9 61 3e 9f 98 ec 3d b2 df 89 3e
       0.08004671 0.22049347 0.11552548 0.26928478
000140 ea 2e e9 bd 93 66 4f bd 73 43 f6 bc 69 38 55 bd
       -0.11385901 -0.05063493 -0.03006146 -0.05205575
000150 b1 b7 9e 3d c6 25 0d 3e 32 1a 69 be fa 60 86 3e
       0.0774988 0.1378394 -0.22763899 0.26245862
000160 ce c1 aa 3d e5 b5 9d 3e d6 4f bf 3e 09 d9 20 be
       0.083377466 0.30802837 0.37365597 -0.15707792
000170 db d0 8c bd 43 f2 9c bd fd 67 96 3e 75 77 25 3e
       -0.068757735 -0.07663395 0.29376212 0.1615885
000180 13 39 fd bd 8f 2a 5d 3e 95 f3 70 3e cc b3 6e 3e
       -0.12364402 0.21598266 0.23530419 0.23310775
000190 5d fe 8d 3d 86 74 c5 bc 10 4f ae 3e 38 94 c4 3d
       0.069332816 -0.024103414 0.34044695 0.09598583
0001a0 61 0e f9 3d 2d 68 c8 bd fb 78 09 3e b4 da 8d 3d
       0.12160946 -0.09785495 0.13425057 0.0692648
0001b0 2a 16 06 3e 2a 83 15 3e e4 6a 4c be 59 96 62 be
       0.13094392 0.14600816 -0.1996265 -0.22127666
0001c0 79 89 8d 3e e7 8b 45 be 9e 3b 3e be b3 7a 84 bc
       0.27643946 -0.1929165 -0.1857743 -0.016171789
0001d0 80 22 17 be e0 f4 99 3e 25 22 42 be 98 8f 89 bc
       -0.14759254 0.30069637 -0.18958338 -0.016792104
0001e0 2f 35 72 3c 4e 90 c2 bd c8 fe 61 3e 9f d7 fc 3d
       0.014783188 -0.0950018 0.22069848 0.12345814
0001f0 db a9 8c 3e 32 1a 18 3b 90 ec 0f 3e f4 ba 4d 3d
       0.2747334 0.0023208973 0.14055085 0.05022712

layer2.weight f4 [256, 128]
000000 1b 52 71 bd f4 67 90 3d 0f d8 6c 3d da d7 e8 bd
       -0.058916193 0.070510775 0.057823237 -0.113692954
000010 29 82 ae 3d 6f c8 93 bd ab 0c cc bd 04 2e 31 3b
       0.0852092 -0.07215964 -0.09963354 0.0027035484
000020 d1 f7 ad bc 39 2f a4 3d f2 fa fe 3c d7 ed 91 3d
       -0.021236332 0.080168195 0.03112552 0.071254425
000030 4e b6 c0 bd 6f ca 7b bd 85 28 d0 bd 99 ed 9f 3d
       -0.09409772 -0.061472353 -0.101639785 0.0780899
000040 4b 25 a9 bc 1d a8 f8 3d b0 3c ab bd ff a0 88 3c
       -0.020647665 0.1214144 -0.083611846 0.016678331
000050 70 14 83 3c cf e8 22 3c 16 19 5c bd 7d bb ef bc
       0.016000956 0.009943201 -0.05373486 -0.029264206
000060 52 d0 80 3c 2c 22 84 bc 12 64 65 3b 3e 47 13 bd
       0.015724335 -0.016129576 0.0035002274 -0.035956614
000070 a6 df ce 3b 2f 47 c7 3c 18 b6 9c 3c af a5 65 bd
       0.006313282 0.024325935 0.019129798 -0.05606621
000080 25 17 4e 3c d7 46 94 bd 58 34 aa bd 42 5a b8 bd
       0.01257876 -0.07240074 -0.08310765 -0.0900159
000090 98 df 09 3d e4 cb 42 bc 18 f9 99 3c fb 09 a8 3d
       0.0336605 -0.011889432 0.018795535 0.082050286
0000a0 b8 de 6b 3c ee 0e a1 3d 08 2f 01 be af 92 59 3c
       0.014396362 0.07864176 -0.12615597 0.013279601
0000b0 cb fb a9 bd 7e e3 b6 bc 82 fe a3 3d da 2c 68 bd
       -0.08299979 -0.022325274 0.08007528 -0.0566834
0000c0 de f3 ba 3c 23 87 1d 3d 00 59 31 3d b4 a4 3a bd
       0.022821363 0.038458955 0.043297768 -0.04556723
0000d0 0c 04 aa 3b ee 37 b3 3c 64 71 d0 3d d4 26 4c bd
       0.0051884707 0.021877255 0.101778775 -0.049841717
0000e0 39 f4 a8 3c 42 50 bf bd 28 bc 12 3d 2a bd b0 3c
       0.020624267 -0.0934148 0.03582397 0.021574575
0000f0 2b b6 d8 bd 86 61 05 3b a3 8c e1 bc 1b c8 5f 3d
       -0.10581621 0.0020352318 -0.027532881 0.054634195
000100 d3 5c fe 3b 33 0e c9 bc 35 aa e6 bc db 61 0c 3c
       0.0077625304 -0.024542904 -0.028157333 0.008568252
000110 07 eb 26 bd bc 16 9f 3b b2 de 95 bc e3 7e 6c 3d
       -0.040751483 0.004855005 -0.018294666 0.057738196
000120 dc b3 c2 3a 8a fe f0 bc cc 60 b0 bc 66 36 b3 bd
       0.0014854628 -0.029418249 -0.021530531 -0.0875061
000130 17 c7 a5 3c c7 ee 12 3d ec f0 8c bd f9 a6 03 3d
       0.020236535 0.035872247 -0.0688189 0.03214166
000140 d4 b0 c8 bd a3 61 b3 bc eb 21 7d 3c 0b fa 60 3d
       -0.09799352 -0.021897143 0.015449981 0.05492596
000150 20 22 70 bc 2d b0 91 3d bf a9 a1 bd f2 6d 85 3d
       -0.0146565735 0.07113681 -0.078937046 0.06515111
000160 9f ff 29 3d f6 40 4a 3d db 73 cf 3c bf ed ce 3c
       0.041503545 0.049378358 0.025323799 0.02525985
000170 53 2b 37 3d b3 0b ad bc 29 ec 09 3d 11 d6 b7 bd
       0.04471905 -0.021123743 0.033672486 -0.08976377
000180 e3 d6 84 bc 61 9c 5d bd c3 10 7c bc fd 3c 2d 3c
       -0.016215747 -0.054104213 -0.015384856 0.010573623
000190 40 b4 1f bd 71 11 5f bd 19 56 6f bd 9d ab 30 3d
       -0.03899026 -0.054459993 -0.05843172 0.043132413
0001a0 2b c3 83 ba 14 af df bc ec d5 d0 3d 71 39 b3 bd
       -0.0010052671 -0.027305163 0.10197052 -0.087511905
0001b0 a1 22 a4 3d 4e 06 05 3d ed ad 0e 38 32 0a 11 3d
       0.080144174 0.032476716 3.401742e-05 0.035410114
0001c0 d9 b2 ca 3d be e7 80 bd 5b e9 a8 bd 7b a7 00 bd
       0.09897394 -0.06294201 -0.08247634 -0.03140972
0001d0 88 df 10 bb 08 c9 62 3d 44 a2 bc bd 18 a8 33 be
       -0.0022105891 0.0553675 -0.09210637 -0.17544591
0001e0 04 44 8d bc 84 9d b0 bd b6 d6 92 3d 38 55 3f bd
       -0.017244346 -0.08623794 0.07169859 -0.04671213
0001f0 33 93 72 3d 91 8a 7a bd 95 c7 17 bd 6d e4 d7 3d
       0.05922241 -0.061167303 -0.03705557 0.10541616
000200 27 28 16 3d 01 9a 85 3c 34 fd 29 bd 73 d0 c6 bd
       0.036659386 0.016308786 -0.04150124 -0.09707727
000210 bd 41 13 bd d8 c5 d6 bd 04 4d 40 bc 4d c6 3d 3c
       -0.035951365 -0.104869545 -0.011737112 0.011582923
000220 3f 62 cf 3c aa 2b 0c bd 73 6b ad 3d 69 ec ac 3d
       0.025315402 -0.03422133 0.0846776 0.08443529
000230 de 04 0c bd b9 cb 2a bd 6a 0d b3 3c da 7e 84 bc
       -0.03418433 -0.04169819 0.021856982 -0.016173769
000240 71 a7 a1 3d a8 60 f1 3d 8d 59 9f bc ce 21 43 bd
       0.07893265 0.11786014 -0.01945188 -0.04763966
000250 2d 29 a3 bd e2 18 a5 bd c1 f5 a1 3c 88 b2 83 3d
       -0.07966838 -0.08061387 0.019770505 0.064305365
000260 b0 2d 3c 3c aa ea 24 bd bb f9 a3 3d 80 55 b6 3c
       0.011485502 -0.040262856 0.08006617 0.022257566
000270 73 c2 80 bd 88 06 3e 3c 1a 4d 1b bd b3 b6 6a 3c
       -0.06287088 0.011598237 -0.037915327 0.014325785
000280 d6 9b bd 3d 78 7a 08 3d c5 1e 3b 3d 33 da 95 3d
       0.09258239 0.03331992 0.04568364 0.07317009
000290 d6 e6 23 bc 12 b8 c6 bc 07 21 44 bd b3 2a ea 3b
       -0.010003766 -0.024257693 -0.04788306 0.0071462034
0002a0 be 3b 8f 3d 82 e2 99 3d 33 8b 87 3c 79 54 1f 3d
       0.06993817 0.07513906 0.016545868 0.03889892
0002b0 3a 35 c0 bd 4b e1 db bd af 7b f8 3d 9d b9 bb bd
       -0.09385152 -0.107363306 0.12132966 -0.09166262
0002c0 a9 07 38 bd 49 51 a0 bd a9 fb 6c 3d 2d 8c 1e 3d
       -0.04492918 -0.07828004 0.05785719 0.0387079
0002d0 2c 4e 90 bc 1d 44 95 bd 09 b8 b8 3d 30 2b 84 bc
       -0.0176154 -0.07288382 0.09019477 -0.016133875
0002e0 2d e5 ac bd b5 85 85 bd 23 3f 2c 3d a4 ca 02 3d
       -0.08442149 -0.06519643 0.0420524 0.031931534
0002f0 51 64 fb 3c f6 49 ad bc ae a9 cf 3c 80 c0 7f 3c
       0.030687483 -0.021153431 0.025349464 0.01560986
000300 6e 76 3c 3d 38 84 e9 3c d5 76 90 3d a5 fd 57 bd
       0.04601138 0.02850543 0.070539154 -0.05273213
000310 78 c4 f1 3d 98 f1 c9 3d 6b ed 86 bd 6d ff b6 bd
       0.118050516 0.098605335 -0.06588253 -0.08935437
000320 74 ec 43 bc b7 9b 61 bc 44 65 bf bd 33 a7 08 bc
       -0.01195823 -0.0137700355 -0.09345487 -0.008340645
000330 03 05 71 3d 18 be 0c bd 96 32 ab bd e3 d5 7c 3d
       0.05884267 -0.034360975 -0.08359258 0.061727416
000340 f9 a7 f8 bb fe 77 0c bd 38 6a 6c bd b8 84 68 bd
       -0.0075883833 -0.03429412 -0.057718486 -0.056767195
000350 86 bf b6 3d ef e8 4c 3d 7e 02 db 3c a1 b1 44 bd
       0.08923249 0.05002683 0.026734587 -0.048020963
000360 ff d6 7b bd 5a 45 72 bd 50 5c 27 3d b1 6c 0a bd
       -0.061484333 -0.05914817 0.04085952 -0.033795062
000370 9e 75 8d 3c 79 40 87 3c 62 a6 31 3d 9b a8 b0 bd
       0.017267998 0.016510235 0.043371566 -0.08625909
000380 e5 58 a1 bb 5b c2 e1 3c f6 0e 6f 3c 2a 98 ae bd
       -0.004923927 0.027558496 0.014590969 -0.08525117
000390 6a 32 55 bc e6 b7 9a bd 05 94 84 3b 16 c4 a0 3d
       -0.013012508 -0.07554607 0.0040459656 0.078499004
0003a0 de 51 8d bd b5 29 82 3d b5 47 f9 3b ae b0 65 3d
       -0.069003806 0.06355611 0.007607425 0.056076698
0003b0 3d 22 72 bc 53 fa 25 bd f8 a3 3e 3d 58 cb f0 bb
       -0.014778671 -0.04052193 0.04654309 -0.007348459
0003c0 7f 33 67 3c be 54 8a 3d 5e ec ce 3c c0 01 f4 bc
       0.014111399 0.067544445 0.025259193 -0.02978599
0003d0 87 e9 8e bd ab 5d 9a 3c 51 b4 53 3d f7 b0 3a 3d
       -0.069781356 0.018843492 0.051685635 0.045578923
0003e0 d4 89 cf bc 53 7c 13 3d 09 cb 86 3d d0 5a bc 39
       -0.025334276 0.036007237 0.06581695 0.00035925815
0003f0 9b 73 c3 bc fd 03 9a 3d 5a 29 81 bd 6e 3c 95 bd
       -0.023858836 0.07520292 -0.06306715 -0.07286917

layer2.bias f4 [256]
000000 be 9d 95 3c 53 0b fe 3d 83 9d c9 3d 47 1b 28 be
       0.018263694 0.12404504 0.09844496 -0.16416655
000010 5d 4e 81 3d 59 97 21 3e 90 7d c7 39 3e 41 48 3e
       0.06313775 0.15780391 0.0003804979 0.19556138
000020 73 02 62 3e b8 11 5b 3e 22 11 27 3e e9 e3 20 be
       0.22071247 0.21393478 0.1631513 -0.15711941
000030 84 f8 02 3d ae 8b 18 3e 86 4f 95 bc 86 45 55 3e
       0.031975284 0.14897034 -0.018226396 0.20827302
000040 5b 1a 3c be 88 e4 83 3d c7 cb 3c be c7 82 22 bc
       -0.18369429 0.06440073 -0.1843711 -0.009918875
000050 b5 82 4e bd db 3c 45 bd 23 bb 02 3e 75 dd 10 be
       -0.05041762 -0.04815374 0.127667 -0.14146979
000060 37 8d e1 3d c0 62 5e 3d fa a7 55 3e c9 9a 1d 3c
       0.11013263 0.054293394 0.20864859 0.009619423
000070 06 8d 95 bd 4a a0 25 3e c5 0d 09 3e 69 80 42 3e
       -0.07302289 0.16174427 0.13384159 0.18994297
000080 44 d9 e5 3d f3 17 1b 3d cb ec 73 3d 02 7a 26 3e
       0.11223081 0.037864637 0.059551995 0.1625748
000090 ae ab 3e 3e c0 f8 88 3d 57 1a be bd 49 ff 2c 3e
       0.18620178 0.0668807 -0.09282368 0.16894259
0000a0 d5 dd 1e 3e a4 71 a3 3c 11 e9 7b 3d 65 8a 66 3d
       0.1551431 0.019951649 0.061501566 0.056284327
0000b0 1f 4f ce bd 34 6d 4b 3e d7 d8 1b 3e 83 be 6d 3e
       -0.10073685 0.19865876 0.15219437 0.23217206
0000c0 e9 5c 45 3e 9b af c1 3d 93 01 08 3e b1 7c 00 3e
       0.19273724 0.09457322 0.1328185 0.12547566
0000d0 2e 4f 50 bd f9 cd e4 3d 09 ac 65 3e 92 f3 2a 3d
       -0.05085676 0.11172099 0.22428907 0.041736193
0000e0 c7 b4 3c 3e 05 cf 45 3d dc 64 37 3e 3a f1 0a bc
       0.18428336 0.048293132 0.17909569 -0.008480364
0000f0 63 f7 2f 3e 59 60 13 bc 6e 4b ef 3d 5a 00 b4 3d
       0.17184214 -0.008995139 0.11684309 0.087891296
000100 9a 8c 27 3e 34 24 9b 3d 80 64 40 3e 98 18 37 3e
       0.16362229 0.075752646 0.18788338 0.17880476
000110 06 b1 14 3e 6c c5 20 3d 4c b4 27 bc bc 5e c0 3c
       0.14520654 0.039250776 -0.010235857 0.023482673
000120 08 fd 6a 3d e0 93 60 3e 44 cd f2 bd 0e cf 39 3e
       0.057370216 0.2193141 -0.118555576 0.18145391
000130 7a 73 1c 3e 51 0d 8d 3d 72 05 61 3e 15 a8 0b 3e
       0.15278426 0.068873055 0.21974733 0.13638337
000140 24 2f 0c 3e 9f b4 fb 3d 16 2e 53 bd c0 aa 68 3e
       0.13689858 0.1229031 -0.051557623 0.22721386
000150 fd d5 5a 3d d4 bf 59 3e 93 9f 9a 3d 4f 1e 2e 3e
       0.05342673 0.21264583 0.075499676 0.1700375
000160 4d 06 fd 3d 1f 96 85 3d db 60 52 3e 20 41 db 3d
       0.123547174 0.06522774 0.2054476 0.10705781
000170 ad 74 4f 3d f1 15 cb bc 0b 83 ee bd 65 a3 2e 3e
       0.05064838 -0.024790736 -0.11646088 0.17054518
000180 d8 81 31 3e 09 07 ad 3c 88 69 8c 3d 31 72 6d 3d
       0.17334688 0.021121519 0.06856066 0.05797023
000190 7d 11 57 3e 2f 03 e2 3d c1 57 1e 3e 6e d2 8b 3d
       0.21002765 0.110357635 0.15463163 0.06827246
0001a0 c2 b4 45 3d 44 bd c7 3d 46 cc 1f 3e 58 27 a1 bc
       0.048268087 0.097528964 0.15605268 -0.01967208
0001b0 f8 da 26 be f4 50 e5 3d 1c ad aa 3d 51 de 5a 3e
       -0.16294467 0.11197081 0.08333799 0.2137387
0001c0 c9 ef 58 3e d2 08 7d bd d1 a7 c7 3d f3 ce 2c 3e
       0.21185221 -0.06177599 0.09748805 0.1687582
0001d0 35 e8 1a 3e 8a 21 b6 bd 25 c5 14 3e b0 02 4c 3e
       0.15127642 -0.08893116 0.1452833 0.199229
0001e0 69 69 41 3e c9 97 37 3e 0b 4a 02 3e 55 b0 12 3e
       0.18887867 0.17928995 0.12723558 0.14325078
0001f0 05 24 5b 3d 28 c7 5b 3e a0 c1 13 3e bf 39 56 3e
       0.053501148 0.21462691 0.14429331 0.20920466
000200 57 be 38 3e 35 01 4c 3e 70 9f 54 3e 86 1f 44 3e
       0.18041359 0.19922335 0.20763946 0.1915265
000210 27 ed 5b 3d 74 e6 f2 bd b9 9b 8f 3d 71 2c f8 bd
       0.053692963 -0.11860362 0.070121236 -0.121178515
000220 f8 67 67 3e 17 2c 53 3e ce f6 3f 3e c4 46 8e bd
       0.22598255 0.20622288 0.18746492 -0.06947091
000230 e1 45 54 3e b0 5d d4 3d 56 a1 16 bd 9d 37 30 3e
       0.20729782 0.10369432 -0.036774956 0.17208715
000240 4a a7 62 3d bf f5 15 3b 0b 10 e0 3d 46 3d 01 be
       0.05533532 0.0022882072 0.1094056 -0.1262103
000250 80 b1 f6 3d 86 62 23 3e 63 6c 4e 3e 91 22 0d 3e
       0.12045574 0.15955552 0.20158534 0.13782717
000260 88 b7 13 3d 2d b3 10 3e 7d 23 f2 3d ff 2a 0a be
       0.0360637 0.1413085 0.11823175 -0.13492964
000270 be b1 60 3e b0 e1 25 3e a9 e7 39 3e f3 73 05 3d
       0.21942803 0.16199374 0.18154778 0.03258128
000280 8e 74 22 3e 8c 70 e0 3d 6d 37 b2 3d 0f 09 53 3e
       0.15864775 0.109589666 0.08701978 0.20608924
000290 c7 3e 43 3e 28 ae 76 bd c8 c9 2c bd 89 86 4d 3d
       0.19066916 -0.060224682 -0.04218462 0.05017713
0002a0 10 42 3a 3e 22 eb 5d 3e 79 d6 2e 3e 29 4b 04 3b
       0.18189263 0.21671727 0.17074002 0.00201864
0002b0 7c 5f 31 3e 0b ed 4e 3e a7 67 51 3d 84 07 5b 3e
       0.1732158 0.20207612 0.05112424 0.21389586
0002c0 ba 03 64 3d d2 55 33 b7 3f 78 56 3e ac 13 16 3d
       0.055667616 -1.0689213e-05 0.20944308 0.036639854
0002d0 86 56 4b 3e 6d 83 5f 3e 6f 62 cc 3d 23 32 a6 3c
       0.19857225 0.21827479 0.09979712 0.020287579
0002e0 5c c2 8a 3d a5 24 56 3e d0 9e 3b 3e 14 04 03 3e
       0.06775352 0.20912416 0.18322301 0.12794524
0002f0 09 86 23 3e d8 a7 99 3c ce 89 20 3e 1a ba 44 3e
       0.15969099 0.018756792 0.15677568 0.19211617
000300 c4 e9 cf bc ac 94 f8 3d f2 3f 83 bd 39 c7 9d bd
       -0.025380023 0.12137732 -0.06408681 -0.07704014
000310 64 bf b1 3d 02 88 84 3d b9 78 1d 3d 32 1f 6b 3e
       0.08679083 0.06471254 0.03844521 0.22961119
000320 f1 b1 33 3e 43 a1 3f 3e 05 d3 d1 bd 13 c1 43 3e
       0.17548348 0.1871386 -0.10245327 0.1911662
000330 70 73 c6 3d a1 e9 53 3e 2c 4c cb 3d b4 03 4b 3e
       0.09689987 0.20694591 0.09926638 0.19825631
000340 e1 a8 51 3e 57 f7 32 3d d4 83 3a 3d f6 a3 cd 3d
       0.20474578 0.043692913 0.045535877 0.10041039
000350 46 75 37 bc a6 e8 f0 bd e3 56 21 3e a9 cc 4e 3e
       -0.011197394 -0.11763124 0.15755801 0.20195259
000360 d2 3b 0c 3e 84 27 82 3d d8 e8 ba 3d a0 68 9d 3d
       0.13694695 0.06355193 0.09126443 0.07685971
000370 55 cb bb 3b 07 ef 16 3e 8d 63 37 3e 56 ed ea 3d
       0.005731026 0.14739619 0.1790907 0.114710495
000380 e3 61 4c 3e 97 a7 3c 3e 87 59 db bd 99 d6 39 3e
       0.19959216 0.18423305 -0.10710435 0.18148269
000390 60 13 84 3d 33 8d 6b 3d 17 6b 49 3e 5b 01 55 3e
       0.06449008 0.057507705 0.19669758 0.20801298
0003a0 21 5b 70 bd 26 e4 f9 3d fa e5 63 3e ea aa 29 be
       -0.058680657 0.12201719 0.22255698 -0.16569105
0003b0 be d4 8c 3d 4e b5 a0 bd 85 bc 1c 3e a5 74 b8 bd
       0.06876515 -0.07847081 0.1530629 -0.09006623
0003c0 61 0f 56 3e 23 ac 19 be f0 17 a9 3d 4b 05 e8 3d
       0.20904304 -0.15007071 0.08256519 0.113291346
0003d0 df 23 17 3e 92 92 43 3e 2b 87 77 3e b4 ad ca 3d
       0.14759777 0.19098881 0.24172656 0.098964125
0003e0 44 e3 07 bd 1b ac 23 3e 75 82 c2 3c b2 21 50 3d
       -0.03317572 0.15983622 0.023743847 0.050813384
0003f0 33 e6 a7 bd a1 94 58 3e da a2 0f 3e 4a 33 dc 3d
       -0.08198204 0.21150447 0.14026967 0.1075197

layer3.weight f4 [256, 256]
000000 89 12 b7 bc 20 89 49 bd 32 2a 4d bd 6e 48 37 3d
       -0.022347705 -0.04920304 -0.05008907 0.04474681
000010 83 53 ed 3c ff c4 f6 bc da a6 e9 bd 35 0b e2 bc
       0.028970486 -0.030123232 -0.114087775 -0.027593235
000020 3d 9f 39 bd 80 f1 c4 bc d4 8b d6 3c 16 8f 64 3d
       -0.045317877 -0.024040937 0.026189722 0.05580052
000030 df f4 5b 3c d2 93 0b bd d8 3e b3 bc 70 20 0a 3c
       0.013425081 -0.03407652 -0.021880552 0.008430585
000040 38 44 95 3b c5 47 78 3c 31 09 cc 3b 80 3c 6e bd
       0.0045552514 0.01515383 0.0062266816 -0.058163166
000050 09 02 54 bd 94 a6 13 be 7a 80 2f bb 90 be fb 3c
       -0.051759753 -0.14419013 -0.002677946 0.030730516
000060 12 57 19 bd f6 5c 2d bd 04 dc 25 3d b2 bb f7 3c
       -0.037436552 -0.042324983 0.040493026 0.030240867
000070 a5 0a 89 3d 60 e1 84 3c 8f 48 08 bd ae 06 0b bd
       0.066914834 0.016220748 -0.033272322 -0.033941917
000080 cb cd 65 bc d9 c2 fb bc 71 1d 23 bd 88 b2 87 bc
       -0.014026116 -0.030732559 -0.039823 -0.016564623
000090 ac 43 42 bd 17 1c ea bc b9 b7 b9 3c 35 2e 50 3c
       -0.04742782 -0.028577847 0.022670614 0.012706329
0000a0 31 c1 4f 3d a7 2a 94 bd 28 7c 29 3d ba c9 07 bd
       0.05072135 -0.07234698 0.04137817 -0.033151366
0000b0 14 d4 ef 3c d9 6e 11 bc 11 6f 5c bd ae a9 08 3d
       0.029275931 -0.008876526 -0.05381686 0.033364944
0000c0 b6 54 3c bd fb 2f 3e bc 9c 15 2a bc 3a c4 f7 3a
       -0.045979224 -0.011608119 -0.010381129 0.0018903085
0000d0 60 f3 01 be d7 e9 23 bd 7b ff da bc 15 29 41 bd
       -0.12690496 -0.04001793 -0.02673315 -0.04715832
0000e0 68 66 fa 3c 68 5e c6 bb 9a 4b 4e 3d 50 07 45 3d
       0.03056641 -0.0060537346 0.050365068 0.048102677
0000f0 0f e5 67 bc 11 f0 c3 bd a6 bd 01 3d da be 98 3c
       -0.014153733 -0.095672734 0.031675003 0.018645693
000100 34 7a e4 ba e6 7a 03 3d 7c a4 cf 3c e5 be 5b 3d
       -0.0017431439 0.032099627 0.025346987 0.053648848
000110 2b fe 0f ba 5f d2 84 3d e7 fd 85 bc 72 1c d9 3c
       -0.0005492891 0.064854376 -0.016356422 0.026502822
000120 ef d8 8e bd 7a 32 10 bd 4d 4f 2a 3d 40 e5 8b b9
       -0.069749705 -0.03520439 0.041579533 -0.0002668295
000130 2a 35 3a 3c 08 f2 c3 3c 6c 42 dd bc bd 9a bf bc
       0.011365214 0.02391912 -0.027009211 -0.023389215
000140 8f b6 44 3d 69 12 2c bd df 24 d7 bd 35 24 3f bc
       0.048025664 -0.042009745 -0.105050795 -0.011666347
000150 b2 c2 da 3c f2 0d 58 bb f6 fb d0 3a c2 aa 89 bd
       0.026704166 -0.0032967296 0.0015944231 -0.067220226
000160 a7 9f 8d 3c 9d 2f 08 3d b4 e7 61 3d 35 6a 47 3d
       0.017288042 0.033248533 0.05515261 0.04868527
000170 8b a2 f3 bc 3d 2d 51 3d 33 0a 97 3d ed 2f b9 3b
       -0.029740592 0.051068533 0.07374992 0.005651465
000180 8d b6 7b 3d cd 65 a1 bd d1 a5 ca 3c df 47 a6 3c
       0.06145339 -0.07880745 0.02473727 0.020297943
000190 05 27 46 3d 81 e8 ea bc 2e d8 a7 bc 78 99 3e bd
       0.048377056 -0.02867532 -0.020488825 -0.046533078
0001a0 d0 d5 a1 3d 5f 9c 2e 3d c8 d2 09 3d ce 16 2a 3c
       0.079021096 0.042629596 0.033648282 0.010381414
0001b0 ac 09 dd 3d 60 22 29 3d 3c ad b2 3c 01 2e d7 bc
       0.107928604 0.04129255 0.02181112 -0.026267054
0001c0 9f cc 08 bd ec 8b be 3d 59 11 b3 bc ec fe 0f 3d
       -0.033398267 0.09304032 -0.021858858 0.03515522
0001d0 32 a4 7c bd fa e9 25 3d ff b4 cd 3b 20 d5 2a 3c
       -0.061680026 0.04050634 0.00627768 0.0104267895
0001e0 25 b9 6f 3d 3e e1 64 ba 11 e4 59 bb 37 53 8f bd
       0.058526177 -0.00087310735 -0.003324751 -0.06998294
0001f0 73 ce 70 bc 73 26 49 bd 7b 68 8c bc 15 dd 5b 3d
       -0.014697659 -0.049108934 -0.017139664 0.053677637
000200 7c 70 bc 3c 46 f0 46 3c 67 6f 8f bd 45 d3 57 bc
       0.023002855 0.012142247 -0.0700367 -0.013172929
000210 8a 86 38 bd e7 7b c0 3d b6 de 6e bd 49 50 24 3c
       -0.04505018 0.093986325 -0.058317862 0.010028907
000220 f8 03 86 3c c7 a5 2f 3d 49 5d 28 bd 5d 5f 8f bd
       0.016359314 0.042882707 -0.04110459 -0.07000611
000230 ba df e4 bc 16 69 a1 ba fc ba ba bd de c0 20 bc
       -0.027938712 -0.0012314643 -0.09117696 -0.009811608
000240 4d 7f 2f 3c 32 20 39 bd 75 5a 22 bc 6d 79 62 3d
       0.010711503 -0.04519672 -0.009909262 0.055291582
000250 0f 78 f5 bc 2c 97 9b 3d 67 ba 1e 3d 84 02 83 bd
       -0.029964475 0.07597193 0.038751986 -0.06396964
000260 71 9a 30 bd 68 8b 03 3d 87 23 22 bd 51 f7 9e 3c
       -0.043116037 0.03211537 -0.039584663 0.019405039
000270 ce e5 83 bd 1c 81 09 bd 16 ee 65 3d 60 25 01 3c
       -0.06440316 -0.033570394 0.05613526 0.007882446
000280 8a 2e 33 3d bc 4e d7 3b f4 f3 9f bd dc a3 3b 3d
       0.043745555 0.006570665 -0.07810202 0.045810565
000290 d4 be 3c 3b e4 47 ed bc e9 89 de bd 64 bd 82 bd
       0.0028800266 -0.028964944 -0.10866148 -0.0638378
0002a0 aa bc dc bc 13 92 3f bc ad 7d 77 3d d4 2f 23 3c
       -0.02694543 -0.011692542 0.06042259 0.009960134
0002b0 4d cc f6 3c 75 c7 0b bd 98 6e 7a bd 61 7b 2d 3b
       0.030126715 -0.034125764 -0.061140627 0.0026471245
0002c0 01 02 a3 3b a2 2c d6 bd 1b bc 2d 3d 04 91 74 3c
       0.004974604 -0.10457732 0.04241572 0.014927153
0002d0 0a 0a 48 bc 2a 4c 0f bd c8 8f 49 bd 15 d6 78 bc
       -0.012209425 -0.034984745 -0.049209386 -0.01518776
0002e0 69 a4 a8 3c 60 11 14 bc cd 46 aa bc 94 49 d7 bc
       0.02058621 -0.009037346 -0.020785714 -0.026280202
0002f0 e8 3f 0d bd 77 49 be bb 47 e6 a4 bd a1 22 58 bc
       -0.034484774 -0.0058070975 -0.080517344 -0.01319185
000300 c2 69 f1 bc 16 5f 52 bc d3 8c a6 bd d2 9c e3 bb
       -0.029469375 -0.012840053 -0.08132329 -0.0069461847
000310 8e 64 b8 bc 16 10 0b bd 97 6c 0d bd a6 f1 ed 3c
       -0.022508886 -0.033950888 -0.034527387 0.029045891
000320 0f 6b 94 3d fd 08 37 3d 18 fc 01 be 41 10 76 bd
       0.07246982 0.044686306 -0.12693822 -0.060074095
000330 02 01 50 bd 3f d3 aa bc 68 75 ab 3c 6d af cd 3c
       -0.05078221 -0.020852683 0.020930007 0.025108064
000340 92 0c 12 bd ed e8 db bd d9 dc 92 3d d9 cf 89 bc
       -0.03565652 -0.107377864 0.071710296 -0.016822742
000350 c2 82 f8 bb d8 09 ad 3d 07 49 1a bd 0b ea c0 bc
       -0.007583947 0.08449143 -0.0376673 -0.0235491
000360 53 d4 cd 3c b8 bc a6 bb 88 27 06 3d e6 29 c3 bc
       0.025125658 -0.005088415 0.032752544 -0.02382369
000370 6d 68 8a bc 6a bb 44 3d 5e f8 12 bc 81 b0 64 bd
       -0.016895497 0.048030294 -0.008970348 -0.05583239
000380 5a 62 42 bd 4f 13 b9 3c 12 30 17 be 48 70 95 bc
       -0.047457077 0.022592215 -0.14764431 -0.018242016
000390 cb 72 a0 3b f3 9b 95 bc 02 7f 48 bd 12 03 ed bc
       0.004896497 -0.018262839 -0.04894925 -0.028932128
0003a0 a5 7e b2 3c 3d 4c 8b bd eb 3d 5b bd 83 ef 7e 3d
       0.021788904 -0.06801651 -0.053525846 0.062240135
0003b0 88 d8 eb bc a9 78 87 bd 58 f1 07 3c b1 f9 23 bc
       -0.028789774 -0.06614811 0.008297287 -0.010008262
0003c0 ed a7 84 3b c8 76 1a 3a a8 fe c1 3c f6 42 f3 bc
       0.0040483386 0.00058923336 0.023681 -0.029695015
0003d0 35 51 9f bc 20 8b a2 3c d3 42 5f bd 70 9c 60 bd
       -0.019447902 0.01984173 -0.054507088 -0.05483669
0003e0 34 03 fa bd 72 60 2e 3d 30 d0 f5 bc 1f ac 91 bd
       -0.12207642 0.042572446 -0.030006498 -0.071129076
0003f0 0d dc 92 3d 92 65 66 bc 45 8d e0 bc 78 b6 8e bc
       0.071708776 -0.014062302 -0.027411113 -0.017420992

layer3.bias f4 [256]
000000 ee 1f 49 3d 91 6a cb 3d dd be 25 3e 9b 13 b1 3d
       0.049102716 0.09932435 0.1618609 0.086463176
000010 c1 85 b7 3d 60 fa 42 3d 8a b1 07 be cc 6a c9 bd
       0.089610584 0.047602057 -0.1325132 -0.09834823
000020 d1 42 e6 3d e1 76 15 3e 71 a6 11 3e 60 7f 35 3e
       0.11243213 0.1459613 0.14223649 0.17724371
000030 0d e2 ff 3d 73 1b 2e 3e 87 e3 f5 bd e1 f2 8e bd
       0.12494288 0.17002659 -0.12006288 -0.06979919
000040 51 a5 a6 bd 6c c0 c3 3d 22 b8 c1 3d 4c 28 13 3e
       -0.08137 0.09558186 0.09458949 0.14370841
000050 1e 69 82 3d fd d5 dd 3d 65 7e c3 bd 57 67 32 3e
       0.06367706 0.10831831 -0.09545592 0.17422234
000060 54 67 f5 bd 2c fc 2c 3e 34 02 04 3e 4f 5b 31 be
       -0.11982599 0.16893071 0.12891465 -0.17319988
000070 83 3c f1 3d f1 aa ae bd 03 e4 c6 3d a7 60 27 3e
       0.1177912 -0.08528698 0.097114585 0.16345464
000080 32 e5 1f bd d5 52 38 3e 25 6c 0b 3e 3f 51 42 3e
       -0.039036937 0.18000348 0.13615473 0.18976305
000090 b6 c6 c2 bc 9d fd ab bd da e6 3f 3e 9c b6 2c 3e
       -0.023776393 -0.08397982 0.18740407 0.16866535
0000a0 96 6c fc bd 8e 07 2f 3e 12 e7 03 3e 38 80 64 3d
       -0.123253986 0.17092726 0.12881115 0.05578634
0000b0 2a f7 40 3e 6d 54 29 3e 8e 1a eb 3d 6e 01 ce 3d
       0.18844286 0.16536112 0.11479674 0.100588664
0000c0 7f 82 18 3e e2 75 01 3e 33 bb 01 3e 62 75 07 3e
       0.1489353 0.12642625 0.12669067 0.13228372
0000d0 ac 32 c9 bd 71 4e 87 3d c0 06 19 3e 79 7a 14 3e
       -0.09824118 0.066067584 0.14943981 0.14499845
0000e0 c2 88 10 3e 85 ff be 3c 40 08 2f 3e 9b 9a 16 3e
       0.14114669 0.0233152 0.17092991 0.14707415
0000f0 27 c9 30 3e 29 e3 da 3d 5d 70 29 3e bc 84 0c be
       0.17264234 0.106878586 0.1654677 -0.13722509
000100 7c b7 ce bd 84 32 d3 3d 8e 70 2b 3e 28 9c 7b bd
       -0.100935906 0.103123695 0.16742155 -0.06142822
000110 3c ae a8 3d f0 95 e3 bd 32 df ee 3d 33 21 2b 3e
       0.082363576 -0.11112583 0.11663665 0.16711883
000120 d1 f7 33 3e e1 07 e5 bd e0 7a 17 3e fe 76 ca 3d
       0.17575003 -0.111831434 0.14792967 0.09885977
000130 63 77 18 3e 24 ff c9 3d 1b 2d e3 bd 49 e6 bd 3d
       0.14889292 0.09863117 -0.110925876 0.09272439
000140 85 51 71 3d f2 e7 8c 3d 1e c5 d6 3d 22 28 07 3e
       0.058915634 0.068801776 0.10486816 0.13198903
000150 98 84 aa 3d 9f 85 99 bc cc d5 fb 3d d5 49 c9 3d
       0.083260715 -0.018740473 0.12296638 0.098285355
000160 85 7b 2c 3e 27 9f 2b 3e e3 91 cd 3d b3 c5 9f 3d
       0.16843994 0.1675993 0.10037591 0.0780138
000170 64 fb fa 3d 8b bd 8a 3d 0a a8 17 be 83 24 04 3e
       0.1225498 0.06774434 -0.14810196 0.12904553
000180 81 2a c4 3d e6 6d fe 3d b8 81 a2 3c f3 d6 46 3e
       0.095784195 0.12423305 0.019837245 0.19417934
000190 8f fa 2e 3e 2e 1e 2e 3e d4 b9 3f bd 9e 16 48 bd
       0.17087768 0.170037 -0.04680808 -0.048849694
0001a0 bd c0 37 3e 88 5d 34 3e f4 75 0a be cb fd 9a 3d
       0.17944618 0.17613804 -0.13521558 0.075679384
0001b0 fb 9b 44 bd c7 f3 24 3e 1a 6e 27 3e 11 c2 3c 3e
       -0.048000317 0.16108619 0.16350594 0.18433405
0001c0 8b 51 f6 3d 4f 16 e8 3d 56 51 e3 3d e9 06 03 be
       0.12027272 0.1133238 0.11099498 -0.12795605
0001d0 ff 48 1f 3e d1 f6 78 3d d1 1a 57 3d 58 bd 59 3d
       0.1555519 0.060782257 0.05251581 0.053159088
0001e0 bc 1a cb bd 2e 07 6a 3d 15 9a ce 3d 94 93 97 3d
       -0.099172086 0.057135753 0.100879826 0.07401195
0001f0 b0 5b 2c 3e e0 70 2b 3e 49 ad 38 3e 39 9b 75 3e
       0.16831851 0.16742277 0.18034853 0.23984994
000200 51 21 08 be de 82 2a 3e 0a 03 93 3d 52 ad 13 3e
       -0.13293959 0.16651484 0.07178314 0.14421585
000210 e0 a5 1e 3e d4 7a af 3d 6c 5d 25 bd 5f 11 39 3e
       0.15492964 0.085683495 -0.040372297 0.18073033
000220 74 af 84 3d 30 dd 39 3e f1 7c d3 3d 8d 57 bf bd
       0.064787775 0.18150783 0.10326565 -0.09342871
000230 88 cf 06 3e 09 bc 19 3e f3 7d 2f 3e 18 66 22 3e
       0.13165104 0.15013136 0.1713789 0.15859258
000240 35 44 75 3d 0c 39 80 bd 91 31 b8 3d 63 33 d3 3d
       0.0598795 -0.06260881 0.08993829 0.103125356
000250 c2 f1 df 3d 6b 4d c4 3d e5 ef 2d 3e ab ac 6a 3d
       0.109347835 0.09585079 0.16986044 0.057293575
000260 74 84 89 3d 40 8c aa 3d 8f 8c dd bc 4c 0d 59 bd
       0.067147166 0.08327532 -0.027044563 -0.052991197
000270 05 2c d8 3d 2a 8a fa 3d cc 8d ff 3d d2 9f c6 3d
       0.10555271 0.12233384 0.124782175 0.09698452
000280 70 1f c9 3d 8a 51 9a 3d 3c 84 fd 3d 67 fa ea bd
       0.09820449 0.075350836 0.12378737 -0.11473542
000290 65 3a 3a 3e 72 2d ad bd 83 91 31 be e8 aa a6 3d
       0.18186338 -0.08455934 -0.17340665 0.081380665
0002a0 00 ed 8d 3d 11 82 d0 3d 7b 73 ea bd ca 8c e4 bd
       0.0692997 0.10181058 -0.114478074 -0.11159666
0002b0 85 39 1b 3e 72 96 20 3e 0b fa 0d 3d ff a5 38 3e
       0.1515866 0.1568239 0.034662288 0.18032072
0002c0 f6 73 83 bc c9 f6 34 3e 6b 3d b5 3d 46 de 86 bd
       -0.016046505 0.17672266 0.08849605 -0.06585364
0002d0 7f 2a e5 3d 2e 3f 34 3e fa 95 30 bd 38 c8 a9 3d
       0.11189746 0.17602226 -0.04311178 0.08290142
0002e0 23 9b 39 3e c4 0b 15 be c3 b7 91 3d ab fb 37 3e
       0.18125586 -0.1455527 0.07115128 0.17967097
0002f0 86 ed b6 3d cf 69 38 3e 2b f4 ac 3d 01 60 f1 3d
       0.08932023 0.18009113 0.08445009 0.117858894
000300 db 7c 36 3e cd 08 29 3e 9e 5b 3f 3e 0f fa 09 3e
       0.17821066 0.16507263 0.18687293 0.13474296
000310 1d 3b b7 3d 3e 11 06 3e 3a de b1 bd b4 53 07 3e
       0.08946822 0.13092515 -0.086849645 0.13215524
000320 17 dd c3 3d 4d 67 e8 3d d2 c9 1b 3e 3f 09 bd bd
       0.09563654 0.11347828 0.15213707 -0.09230279
000330 a8 cd 04 bc 06 d8 e5 bc 40 6a 09 be f9 25 d9 3d
       -0.008105673 -0.02805711 -0.13419437 0.10602946
000340 3a 53 25 3e a8 93 fa 3d be 11 0f 3e d5 a1 1c 3d
       0.1614503 0.122351944 0.13971612 0.038240273
000350 51 5e f9 3d 23 be 39 3e 67 e0 1b 3e 91 8c 2b bd
       0.121761926 0.18138938 0.15222321 -0.0418821
000360 a0 f2 30 3e 75 ad a0 3d 83 b8 5c bd 58 7e 18 3e
       0.17280054 0.07845584 -0.0538869 0.14891946
000370 38 0a 8e 3d 86 db c4 3d f9 4f 25 3c 4b ec 8b 3d
       0.06935543 0.09612183 0.010089868 0.06832179
000380 c6 d5 a7 3d cc f7 de bd 13 46 35 3e 67 fe b6 bd
       0.08195071 -0.10887107 0.17702512 -0.08935242
000390 77 e3 f5 3d 7f 33 95 bd f2 a3 57 bd 96 92 40 3e
       0.12006276 -0.07285213 -0.052646585 0.18805918
0003a0 d3 19 08 3e d5 51 ae bd 3d 46 39 3e 22 90 2d 3e
       0.13291101 -0.08511702 0.180932 0.16949514
0003b0 a9 34 33 bd 2c 3e 09 bd 9d 6b a5 3d 10 1e e8 bd
       -0.043751393 -0.033506557 0.08077166 -0.11333859
0003c0 f8 cf 17 3e ee d4 1f 3e 0e bd 36 3e a4 be 0f be
       0.14825428 0.1560857 0.17845556 -0.14037567
0003d0 18 32 84 3c 4b 35 bb 3d ef 1f c1 bd b1 34 33 3e
       0.016137168 0.09141024 -0.09429919 0.17500569
0003e0 71 37 fc 3d 52 56 7f bd 1f bc ee 3d 15 e5 7d 3d
       0.12315262 -0.06233818 0.11656975 0.061986048
0003f0 02 a5 04 3e 50 52 b4 3d 5b d6 05 3e e0 16 f8 bc
       0.1295357 0.08804762 0.13070051 -0.030284345

layer4.weight f4 [128, 256]
000000 bd 65 a1 3d fb 7a 7c 3d fc 07 42 bd 2f ec 02 bd
       0.07880733 0.06164072 -0.047370896 -0.031963523
000010 b9 7e 17 bd 74 23 4e bc 11 2d 95 ba 84 f3 b4 3c
       -0.036986087 -0.012581695 -0.0011381229 0.022088774
000020 bd 5e 0b 3d 54 9a f0 ba 5e f4 4b bd 17 c6 7a 3c
       0.034025896 -0.001835654 -0.049793594 0.015306017
000030 87 28 fb bc 79 a2 cf 3c 5e e1 82 3d b8 f5 76 3b
       -0.030658973 0.025346028 0.06390642 0.003768308
000040 65 6b e9 3b d8 27 1e bd 76 e7 71 3c a3 75 a9 bb
       0.007123398 -0.038612217 0.014764657 -0.005171494
000050 fc e9 ea 3c 5e 9c 47 bd ef 06 f2 3c 40 43 2d bb
       0.028676026 -0.048733108 0.029544322 -0.002643779
000060 c9 79 e3 3d d9 b4 27 bd 67 52 29 3d e1 d9 2d 3d
       0.11107213 -0.040943954 0.04133835 0.042444114
000070 28 14 83 bd f9 92 53 3e 23 9c 9a bc 28 af e7 bc
       -0.06400329 0.20661534 -0.01887328 -0.028281763
000080 33 05 a0 3d 88 e4 b7 bb 38 67 42 bd ee 30 e8 3c
       0.07813492 -0.00561196 -0.04746172 0.028343644
000090 eb 45 a8 bd 59 4a 64 3d 20 33 39 3b ab 04 3d 3d
       -0.08216461 0.055734966 0.0028259233 0.04614703
0000a0 4f f4 81 3d 53 ac a2 3c 5c 7b 1e bd 74 24 cf bc
       0.06345426 0.019857561 -0.038691863 -0.025285937
0000b0 2f 83 11 bd e8 1c 37 bd 9b db 06 bd 8f 2a 02 3d
       -0.035525497 -0.0447053 -0.032924276 0.03177887
0000c0 23 ca 6c bc 97 d9 eb bc 29 51 65 bb 3f 85 6f bc
       -0.01445249 -0.028790278 -0.0034991002 -0.014619171
0000d0 7b 7b 13 3d 49 7e d7 3c 47 7c 7b bd 5c 74 5c bd
       0.036006432 0.026305335 -0.061397817 -0.053821906
0000e0 2e 48 c2 3c 70 1c a8 bb 23 96 11 bd dc 39 10 bd
       0.023716059 -0.005130343 -0.035543572 -0.03521143
0000f0 bf 43 05 bd 77 17 d4 3b db 10 c9 3a f3 cf ef 3d
       -0.03253531 0.006472524 0.0015340106 0.11709585
000100 b8 7b 20 3e c0 65 50 3d 32 06 6a 3d 5c 34 2a bc
       0.15672195 0.050878286 0.057134815 -0.01038846
000110 14 3a 41 3d 17 c9 6e 3d 76 96 05 3d 42 d3 dc 3c
       0.04717453 0.058297243 0.032614194 0.026956204
000120 de 3e 86 bd 56 fc be 3d f8 93 f9 3c 73 6c 6f 3d
       -0.0655496 0.09325473 0.030466065 0.058453035
000130 35 a6 be 3c 17 ef 94 bc 45 15 b7 3d 52 9b 71 3c
       0.023272613 -0.018180413 0.08939604 0.014746504
000140 5d 95 b7 3d 6e 9a 47 bd 46 e0 07 3d 57 40 32 bd
       0.08964036 -0.04873126 0.03317287 -0.04351839
000150 ca ac f2 bc 93 db 03 be fe 11 1f 3d e1 7d 7c 3d
       -0.029623408 -0.1287673 0.038835518 0.061643485
000160 94 00 ff bc f5 51 b2 bb 70 55 39 3d 27 83 34 3d
       -0.031128205 -0.005441899 0.045247495 0.04407039
000170 64 3e 81 3d d1 8f cb bc be a9 93 3a 70 4e b0 3c
       0.06310728 -0.02484885 0.0011265797 0.021521777
000180 e7 7d b7 bc 88 a0 72 3b 2d 0c 1f 3d e8 c2 52 bd
       -0.022398902 0.0037021954 0.03882997 -0.05145541
000190 e5 35 5b 3d 22 43 fb 3c ac 66 3c 3d 41 09 94 3d
       0.053518195 0.03067166 0.045996353 0.072283275
0001a0 be 2d 35 bc 82 62 05 bd 1b c6 56 3d b6 0e 87 3a
       -0.011058269 -0.032564647 0.05243502 0.0010304067
0001b0 80 91 69 3d 17 14 2d 3d 04 97 71 3d c0 88 ba bc
       0.057023525 0.042255487 0.05898191 -0.022770286
0001c0 e1 ed 1b 3b 33 cd 9a 3c 8f d8 da 3c 55 be 8c 3d
       0.002379291 0.018896675 0.026714591 0.068722405
0001d0 34 0d 33 bd c5 e5 d1 bc 3e bb cd 3c 36 96 a9 bc
       -0.043713763 -0.025622258 0.025113698 -0.020701509
0001e0 f3 7c 85 bc 15 01 ff 3c 81 a3 5f 3d 1b 68 02 bc
       -0.016294932 0.031128446 0.05459929 -0.007959391
0001f0 90 57 c4 3c 17 8c 94 3c 5d 17 59 bb b5 26 1c be
       0.023967534 0.018133206 -0.0033125498 -0.1524914
000200 b9 6b d0 3b de c0 d0 3c 18 49 53 bd 12 3c b6 bc
       0.006360498 0.025482591 -0.05158338 -0.02224544
000210 7d 1e 66 3c 91 47 0a bd 7e 18 e4 3c b6 ec e6 3c
       0.014045355 -0.033759657 0.02784371 0.028189044
000220 a2 db 13 bd c3 95 34 bd c0 0a 03 bd 26 0c d5 3d
       -0.03609813 -0.044088136 -0.031992674 0.10402708
000230 09 88 f6 3c 5c 2a 6e bd a7 42 76 3d 37 fc 4f bd
       0.030094163 -0.058145866 0.06012216 -0.05077764
000240 cf fb 48 bd 15 ff e2 3d c1 55 0c 3d 27 2a 91 bc
       -0.04906827 0.11083809 0.03426147 -0.017720295
000250 8d a2 69 3d 8e a7 0c bd 3d 86 29 3d da ad be bc
       0.057039786 -0.03433948 0.041387785 -0.023276258
000260 6e eb c2 3b a4 83 1a bd 5d 4a 32 3d 5e 35 12 bd
       0.0059484756 -0.0377232 0.04352795 -0.035695426
000270 36 bb 67 bc 41 65 d4 3b 0d 96 8a 3c 91 6b 84 3c
       -0.014143756 0.006481797 0.016917253 0.016164573
000280 d9 d0 ee bc 37 5e 79 bc 97 ec cd 3a d9 85 dc 3d
       -0.02915232 -0.0152202165 0.0015710768 0.10767717
000290 66 8d 26 3a 68 7b 24 3d 3f fa db 3b 3c 06 f3 3b
       0.00063534675 0.040156752 0.0067131813 0.0074165147
0002a0 dc 5d ba 3a 73 9f 4a bc 39 b2 c8 3d 68 9c 43 3d
       0.0014218646 -0.012367117 0.09799618 0.047756582
0002b0 22 db 0f bd 13 09 c4 bc 8a 68 7d 3c ac 20 39 3d
       -0.03512109 -0.023930108 0.015466819 0.045197174
0002c0 71 06 9c bd 37 07 1b 3c 7b de 9c 3d e7 83 ca 3d
       -0.07618416 0.009462169 0.07659622 0.098884396
0002d0 ee 50 ff bb 49 97 74 bd 96 08 42 3d e3 4a b1 3b
       -0.00779163 -0.05971459 0.04737147 0.0054105385
0002e0 c2 98 0c 3d 58 aa 1d bc 8f c6 8e 3c cf 69 5c bd
       0.03432537 -0.009623133 0.017428664 -0.053811844
0002f0 7b 88 61 3d 9e 3c 8a bc e9 fe 40 bc 4e 4e 1d 3d
       0.0550618 -0.016874608 -0.011779525 0.038404755
000300 b4 5d 07 3d 22 44 79 3c 9a ec e0 bc db 1f 09 3d
       0.033048347 0.015213998 -0.02745657 0.033477645
000310 85 0a 2d 3d 8d 71 2e 3d 2a cf c3 3c c9 ad e4 bb
       0.04224636 0.04258876 0.023902494 -0.0069787246
000320 9c 3c fe 3c 7a 0f 24 3c 15 63 10 bd f7 28 f2 3d
       0.03103476 0.0100134555 -0.035250742 0.1182422
000330 2f 96 4a 3a 62 7d c1 3b c9 8c 10 bd 57 db dd 3c
       0.00077280676 0.0059048394 -0.035290513 0.027082128
000340 05 ee ef bc c0 15 e7 b9 20 c5 a5 bc 27 ce ba 3c
       -0.029288301 -0.00044075958 -0.020235598 0.02280338
000350 da 8a 22 3d 91 3e 45 bd bb 95 68 bd d8 67 06 bd
       0.0396832 -0.04815537 -0.05678342 -0.032813877
000360 b6 b7 54 3d 6f 53 43 3d dd e4 79 3d 23 12 80 3d
       0.051933013 0.04768699 0.061009277 0.06253459
000370 5d 93 8f bc f7 e5 fa 3c 95 b6 79 3d a5 fa 60 bd
       -0.017526323 0.030627234 0.06096514 -0.054926533
000380 b1 5f 60 bc 8a 4a 71 3d 24 f6 52 3d 0a ea d0 3c
       -0.01369469 0.058908977 0.05150427 0.025502224
000390 38 71 3b bd 71 13 b3 3d 57 ea 41 3d 50 ce bd bd
       -0.04576227 0.087439425 0.047342625 -0.092678666
0003a0 34 8e 5a 3c f1 32 a6 3d 14 85 2c bd 38 99 1f bd
       0.013339568 0.08115185 -0.0421191 -0.03896448
0003b0 9f 45 7e 3c ba 5e 4c 3c 6c 9f 76 3d af b5 fd 3d
       0.015519529 0.012473756 0.06021063 0.12388169
0003c0 d1 55 ee bb 90 34 18 3d 1f 6a 44 3c 68 d1 3d 3c
       -0.0072734137 0.037159503 0.011988192 0.011585571
0003d0 02 35 c2 bc 3f 4d ab 3c 91 b8 86 bc 98 9f 61 3b
       -0.023706917 0.020910857 -0.01644543 0.00344274
0003e0 13 9b 0b 3d a4 c5 eb 3d 26 43 2d bc 8b 5e ed bc
       0.034083437 0.11512306 -0.0105750915 -0.028975746
0003f0 3a c6 58 bd 47 3b 4b bd e8 51 82 bd b7 a1 d7 3c
       -0.05292342 -0.04961708 -0.063632786 0.026322229

layer4.bias f4 [128]
000000 e3 29 28 bd 46 cd 91 3d 9b 44 88 3d 98 70 83 bd
       -0.04105557 0.07119231 0.066537105 -0.0641796
000010 63 3b d0 3d e3 3a 09 bd d1 9b 83 bd e5 f3 ac bd
       0.10167577 -0.033503424 -0.06426204 -0.08444957
000020 70 c3 22 3e 50 de 13 3e f5 b7 96 3c 87 5a d5 3d
       0.15894866 0.14440274 0.018398264 0.10417657
000030 1e 25 04 be 85 9e a7 bd f0 e9 dd 3d 7d 89 57 bd
       -0.12904784 -0.08184532 0.10835636 -0.052621353
000040 41 a3 da bb 3a 25 1b bd 34 8c 13 3e d3 d5 02 bc
       -0.0066722934 -0.0378773 0.14408952 -0.00798555
000050 65 c0 64 bd 92 7b 82 bd 3a e7 98 3d 49 a0 f1 3d
       -0.055847544 -0.063712254 0.07465978 0.1179815
000060 9b fe af 3d 44 ed a0 bd cb 32 8a 3c ca 51 20 3e
       0.08593484 -0.07857755 0.016869923 0.156562
000070 17 1f 1f 3c 53 5c 1e be ad cf d5 bd c7 bf 9e 3d
       0.009712002 -0.15464906 -0.10440002 0.077514224
000080 9d 11 21 bc 2b 03 74 bc 4b 30 5a bd 0e b3 18 bd
       -0.0098308595 -0.014893333 -0.053268712 -0.037280135
000090 53 ad ae bd 7c 4a 10 3e e6 0d 86 bd 52 82 35 bc
       -0.08529153 0.14090914 -0.0654562 -0.011078434
0000a0 e4 98 95 bc b7 eb 9e 3d 84 9c 16 3e 6b 22 12 3e
       -0.01826138 0.07759803 0.14708143 0.14270942
0000b0 8e a0 15 bc 14 dd b9 bd 87 2a 10 be 3b 92 ee bd
       -0.0091325175 -0.090753704 -0.14078723 -0.11648985
0000c0 30 c4 a4 bd 45 ff 28 bd 1a 9e 14 bc 7d a9 ae bc
       -0.08045232 -0.04125907 -0.0090708975 -0.021321053
0000d0 72 9d b0 bd 34 19 49 bc c4 eb 3f bd f3 5d 3a 3b
       -0.0862378 -0.012274075 -0.046855703 0.0028437346
0000e0 07 50 26 be 31 d0 b6 3d 59 5c 9e 3d 2b ff 39 3e
       -0.16241466 0.08926428 0.07732458 0.18163745
0000f0 ad e0 9a bd a2 4b 73 bd 3c a6 e9 3d 3b ae 2d bd
       -0.07562385 -0.0593983 0.1140866 -0.042402487
000100 68 c5 fc 3d 7b bd 0c 3e 88 34 32 3e 6b 46 29 3e
       0.1234234 0.13744156 0.17402852 0.16530769
000110 af e8 f2 3d 69 7c 2b 3e eb 74 76 bd 66 79 7d bd
       0.11860787 0.16746677 -0.060170095 -0.061883353
000120 d3 86 a9 bb db 9f b8 3d ba 35 94 bd 44 fb 80 bd
       -0.005173543 0.09014865 -0.0723681 -0.06297925
000130 96 0e 4a bd 7e 57 b2 3d 20 cf 22 be ab e1 ca 3d
       -0.049330316 0.08708094 -0.15899324 0.09906324
000140 ed 20 c1 3d 7c 1a 38 3e e1 03 a3 3d 14 85 1d 3d
       0.09430108 0.17978853 0.07959724 0.03845699
000150 92 03 8f 3d 65 92 2c bd a8 91 5e 3d 45 d3 6f bd
       0.06983103 -0.0421318 0.054338127 -0.05855109
000160 25 e9 7e bd b3 49 37 3e 15 02 a8 3c 53 aa 23 bd
       -0.062234063 0.17899208 0.020508805 -0.039957356
000170 14 f8 d7 bc c4 4e 14 3e 06 3f 35 3e 55 67 04 bd
       -0.02636341 0.14483172 0.17699823 -0.032325108
000180 85 8f b7 3d f7 75 95 bc d1 19 09 be 1d d6 1f bc
       0.08962921 -0.018244727 -0.13388754 -0.009755638
000190 e0 7f 2d 3e f2 97 2d 3e e4 9a aa 3d 89 30 8d bd
       0.16943312 0.16952494 0.08330324 -0.06894023
0001a0 f5 3d 0b 3e b1 b7 bd 3c f5 47 25 3e 05 cd 23 3e
       0.13597853 0.02315888 0.1614073 0.15996177
0001b0 2c 69 ae 3d 66 f2 1e bd 9a 14 b8 3d 6e f2 69 bc
       0.08516154 -0.038805388 0.089883044 -0.014278991
0001c0 36 f8 81 bc c9 22 70 bc 2c 79 bc bc a1 27 86 bd
       -0.015865427 -0.014656731 -0.023006998 -0.06550527
0001d0 65 80 a3 bb 85 5b ce 3d bf 68 2f bc ba 79 c5 bb
       -0.004989671 0.1007605 -0.010706126 -0.006026474
0001e0 3a 39 a0 3d 1d 1e 1a 3e 38 fa 06 3e 27 36 2b 3e
       0.07823415 0.1505055 0.13181388 0.16719876
0001f0 30 6a 1f 3e a2 5b 09 3e 07 8f 0b bd ea 45 da 3d
       0.15567851 0.13413861 -0.03407195 0.10657866
