PPO/ppo_critic.pth (torch, 546027 bytes, 9 tensors)

layer1.weight f4 [128, 29]
-0.004661158 0.033903725 0.13931978 0.044957135 0.10058718 -0.16591658 0.039615605 0.05632824
-0.05735421 -0.019201718 -0.05679213 0.14914717 0.09802528 0.014243531 -0.14520654 0.10671937
-0.15688376 -0.10212233 0.20303392 -0.12787074 -0.15676957 -0.10390973 -0.04240476 -0.14422981
-0.018846078 0.08864675 0.021084512 0.15117212 -0.098204225 -0.0695361 0.06254121 0.045612454
0.16559827 -0.074905306 0.13269937 0.097125515 0.23460181 0.13945255 0.16325818 0.16183743
-0.21381815 -0.18001036 -0.11231985 -0.19008426 -0.26370847 -0.056543835 0.010346561 -0.11332343
-0.07386251 0.012101708 0.0569705 0.114044555 0.056121904 -0.114466555 0.065035656 0.13191992
-0.003473039 0.09433212 0.021619856 -0.037685156 0.00053414976 0.05703921 -0.15245639 0.010239163
-0.17822431 -0.15158176 0.056225576 0.011425317 -0.142674 0.16141614 -0.04392156 -0.030122355
0.13234487 -0.17140622 -0.106636584 -0.10753176 0.024361894 0.20445277 -0.20187081 0.004569744
0.02280857 0.11475504 0.09456294 -0.077539355 -0.021831004 0.12150653 0.02414598 0.0722719
0.07593917 -0.035669707 0.3240641 -0.108497016 -0.21298152 -0.13550948 -0.013611191 0.04949921
-0.10802491 0.07540237 0.25303042 0.04512631 0.12460961 0.07787997 -0.083464146 -0.20525812
-0.29379722 -0.035160564 -0.2037278 0.10197401 0.09186862 -0.09035605 0.0037606468 0.025076263
0.08655213 0.028237205 0.07970964 0.015533475 0.043890867 -0.108814776 0.07988094 0.17367199
0.16805314 0.29889515 0.0701927 0.20712884 0.10408052 0.09661812 0.019518586 0.1442002
0.19713993 0.15890817 -0.13602191 -0.028433938 0.15767923 -0.32596385 -0.04248387 0.18707739
0.10947215 -0.057251956 0.046148364 0.0025706384 0.027252508 -0.04185977 -0.019539341 -0.07180281
-0.017250504 -0.1499826 0.08749455 0.18006194 0.22504576 -0.03092939 0.1705569 -0.04611394
-0.006995547 0.00072691374 0.16875489 -0.10281176 -0.044328988 0.030929072 0.11805847 0.060539614
0.027571155 0.043613836 -0.11719793 -0.1331582 -0.061972223 -0.0694532 -0.104984686 0.11977691
0.05965063 0.097805336 0.10794144 -0.02795424 -0.06000816 -0.022453908 0.097294874 -0.004898809
0.015953513 0.15805162 -0.0855674 -0.11013799 0.024340108 -0.1865931 -0.15520838 0.21134989
-0.10216947 -0.095319785 -0.026621697 -0.07076484 -0.109751225 0.19013117 -0.097233795 0.13527119
-0.109201595 0.14093398 0.098423555 -0.050762977 -0.055100042 -0.011853046 -0.15255769 -0.079962656
0.1480867 0.08713166 0.13109395 0.14382093 -0.09550023 -0.1387332 -0.012511713 -0.21105844
0.3399208 -0.064091474 0.18203256 0.06656505 0.15611441 -0.21118957 0.12631878 -0.017491436
-0.041537236 0.011392188 -0.104971886 0.047578465 -0.067002706 -0.06239119 -0.01297825 -0.08486415
0.049196992 -0.02665044 0.05737233 0.025118228 -0.058455218 -0.0037499235 -0.05043071 -0.035800394
0.094937466 0.08266697 0.19836952 0.23220713 0.118404336 -0.05096347 -0.08346551 0.054414842
0.09567924 -0.11003321 -0.032329567 -0.0675787 -0.0014237649 0.046686426 -0.12075195 0.17350285
-0.11290319 0.030796595 0.08978973 -0.0051175067 -0.093663484 0.15267989 -0.058584843 -0.03931115
00000000: a1bc 98bb a2de 0a3d d8a9 0e3e f924 383d
00000010: a700 ce3d 09e6 29be f943 223d 71b8 663d
00000020: 40ec 6abd ec4c 9dbc dd9e 68bd 09ba 183e
00000030: 7ac1 c83d b35d 693c 06b1 14be af8f da3d
00000040: 23a6 20be 8325 d1bd 20e8 4f3e 8cf0 02be
00000050: 3488 20be a0ce d4bd 9db0 2dbd fbb0 13be
00000060: 1763 9abc 6d8c b53d 6db9 ac3c ddcc 1a3e
00000070: 4c1f c9bd f168 8ebd 9b15 803d 20d4 3a3d
00000080: 9892 293e f467 99bd 58e2 073e bee9 c63d
00000090: 753b 703e a6cc 0e3e 272d 273e b6b8 253e
000000a0: 25f3 5abe a354 38be f307 e6bd 73a5 42be
000000b0: cc04 87be 829a 67bd 9f84 293c 1d16 e8bd
000000c0: 3a45 97bd 3e46 463c e659 693d 3190 e93d
000000d0: 15e0 653d 716d eabd 6a31 853d 0416 073e
000000e0: ed9b 63bb 3331 c13d 201c b13c c05b 1abd
000000f0: 2f06 0c3a f2a1 693d 871d 1cbe 2ac2 273c
00000100: 6f80 36be 4038 1bbe ca4c 663d 4131 3b3c
00000110: 2219 12be 464a 253e 18e7 33bd 28c3 f6bc
00000120: 6a85 073e 1d85 2fbe 4864 dabd 9d39 dcbd
00000130: 9892 c73c 115c 513e 39b7 4ebe cbbd 953b
00000140: 0ad9 ba3c b104 eb3d 37aa c13d f4cc 9ebd
00000150: efd6 b2bc 6ad8 f83d cacd c53c 4a03 943d
00000160: ff85 9b3d 661a 12bd bbeb a53e af33 debd
00000170: d417 5abe ffc2 0abe 7901 5fbc afbf 4a3d
00000180: 2a3c ddbd 8f6c 9a3d 348d 813e 5ed6 383d
00000190: 5333 ff3d 897f 9f3d 40ef aabd 2f2f 52be
000001a0: 976c 96be 8604 10bd 059e 50be c0d7 d03d
000001b0: 9d25 bc3d 980c b9bd 2f75 763b bc6c cd3c
000001c0: 3e42 b13d b651 e73c cf3e a33d 1e80 7e3c
000001d0: e9c6 333d 48da debd 9e98 a33d 12d7 313e
000001e0: 1f16 2c3e c908 993e 31c1 8f3d 9519 543e
000001f0: 2b28 d53d b9df c53d 71e5 9f3c 38a9 133e
00000200: 0ddf 493e d3b8 223e 5449 0bbe 4aee e8bc
00000210: aa76 213e bce4 a6be 9103 2ebd 3791 3f3e
00000220: ef32 e03d 0781 6abd 1106 3d3d 2878 283b
00000230: a740 df3c 2675 2bbd f810 a0bc 5a0d 93bd
00000240: ee50 8dbc 0a95 19be 5830 b33d 2862 383e
00000250: 6572 663e a25f fdbc 78a6 2e3e f9e1 3cbd
00000260: e73a e5bb 5b8e 3e3a 15ce 2c3e f98e d2bd
00000270: 5092 35bd f75e fd3c a4c8 f13d 63f8 773d
00000280: e7dc e13c 6ca4 323d 7805 f0bd a05a 08be
00000290: 96d6 7dbd 7b3d 8ebd 3602 d7bd 994d f53d
000002a0: 3854 743d 2a4e c83d 6710 dd3d 4a00 e5bc
000002b0: 1ecb 75bd 42f1 b7bc 8942 c73d 3086 a0bb
000002c0: f1b0 823c 49d8 213e f63d afbd 0790 e1bd
000002d0: e864 c73c 4312 3fbe f2ee 1ebe 1b6c 583e
000002e0: 3a3e d1bd 0537 c3bd bf15 dabc 28ed 90bd
000002f0: 40c5 e0bd bfb1 423e 8322 c7bd 8884 0a3e
00000300: 16a5 dfbd ff50 103e 4a92 c93d d7ec 4fbd
00000310: 95b0 61bd 4733 42bc 1538 1cbe 76c3 a3bd
00000320: 0aa4 173e 1572 b23d 7e3d 063e cb45 133e
00000330: a095 c3bd 1310 0ebe eefd 4cbc b41f 58be
00000340: 190a ae3e 6442 83bd be66 3a3e 4253 883d
00000350: 75dc 1f3e 1442 58be b659 013e 334a 8fbc
00000360: f322 2abd 4da6 3a3c 80fb d6bd a3e1 423d
00000370: b738 89bd e88d 7fbd baa2 54bc 41cd adbd
00000380: c982 493d 0652 dabc 40ff 6a3d bec4 cd3c
00000390: bd6e 6fbd 47c1 75bb 6f90 4ebd 6fa3 12bd
000003a0: 936e c23d 4d4d a93d 6121 4b3e b5c7 6d3e
000003b0: f97d f23d 12bf 50bd f7ef aabd 19e2 5e3d
000003c0: 7af3 c33d 1759 e1bd 026c 04bd b466 8abd
000003d0: 9f9d baba 443a 3f3d cc4c f7bd bbaa 313e
000003e0: ca39 e7bd 2449 fc3c aee3 b73d c2b0 a7bb
000003f0: a4d2 bfbd 1e58 1c3e a9f6 6fbd ba04 21bd

layer1.bias f4 [128]
-0.048010334 0.25901 0.04525782 0.032886826 -0.0034870685 -0.09040137 -0.10512856 0.3285809
-0.25507697 0.23542461 -0.007979046 0.31194103 -0.16503744 -0.028506335 0.017635537 -0.005628898
0.32598966 0.26134303 -0.11243194 0.068881266 -0.0701022 -0.085441835 -0.15916099 -0.0017532586
-0.16742566 -0.007680597 0.31204516 0.03164759 0.21914394 0.16672547 -0.040211428 0.31161898
0.28433973 -0.11508496 -0.19923861 -0.13060251 -0.074174054 -0.051645946 0.2021002 0.051365104
0.052163288 0.2276734 -0.12087756 0.14902778 -0.19302511 -0.1206114 0.20961267 -0.1378806
0.10079489 0.27180585 0.19381851 0.19363289 -0.15871328 -0.17271614 0.18296468 0.28589794
0.16186798 0.101562195 -0.07799052 0.017271468 0.027674003 -0.07368528 0.17560554 0.042510252
-0.066308424 0.06395205 -0.16975123 0.036849253 0.25579053 0.2509274 0.29301262 0.14056872
0.12193613 -0.15345219 -0.21274403 -0.095363595 0.08288438 0.21262759 0.111221954 0.2636536
-0.11032987 -0.04772392 -0.02238036 -0.046179418 0.07134339 0.13659441 -0.21999076 0.25333062
0.084738776 0.30236956 0.36837476 -0.15365976 -0.06699546 -0.07463795 0.28825247 0.14293577
-0.1179935 0.20957142 0.23568012 0.22670758 0.07837359 -0.013924203 0.33486187 0.09383433
0.121479936 -0.08833234 0.12533219 0.071689114 0.15218495 0.14924431 -0.18939875 -0.2177355
0.27033573 -0.1809311 -0.17888829 -0.011671212 -0.14484216 0.29399282 -0.18349086 -0.01628623
0.01246553 -0.091732785 0.21562956 0.11626798 0.2702044 0.003927037 0.12962833 0.06023472
00000000: 7ca6 44bd f59c 843e 4460 393d 56b4 063d
00000010: 4d87 64bb 5a24 b9bd a44d d7bd c13b a83e
00000020: 7399 82be 2613 713e 8bba 02bc bcb6 9f3e
00000030: 93ff 28be 1e86 e9bc 6778 903c 9e72 b8bb
00000040: 1ee8 a63e c1ce 853e b842 e6bd 9f11 8d3d
00000050: be91 8fbd 21fc aebd 19fb 22be 99cd e5ba
00000060: a271 2bbe 84ad fbbb 62c4 9f3e e7a0 013d
00000070: 4567 603e 15ba 2a3e bdb4 24bd 868c 9f3e
00000080: fa94 913e aab1 ebbd 3505 4cbe aabc 05be
00000090: 91e8 97bd b38a 53bd 5bf3 4e3e 3764 523d
000000a0: 2ca9 553d 3723 693e a78e f7bd bd9a 183e
000000b0: 60a8 45be 1c03 f7bd b4a4 563e 9230 0dbe
000000c0: 8d6d ce3d 232a 8b3e 5c78 463e b347 463e
000000d0: bc85 22be 80dc 30be 185b 3b3e 3761 923e
000000e0: b8c0 253e d7ff cf3d 7eb9 9fbd e57c 8d3c
000000f0: 97b4 e23c 4fe8 96bd f0d1 333e 3b1f 2e3d
00000100: b6cc 87bd 4bf9 823d 44d3 2dbe 3eef 163d
00000110: faf6 823e 8e79 803e c005 963e 3ff1 0f3e
00000120: a6b9 f93d 9222 1dbe 92d9 59be fd4d c3bd
00000130: 49bf a93d 0cbb 593e 56c8 e33d 9bfd 863e
00000140: a0f4 e1bd 287a 43bd 0457 b7bc a126 3dbd
00000150: 7c1c 923d 68df 0b3e 4245 61be 8db4 813e
00000160: 868b ad3d 2fd0 9a3e 9e9b bc3e fc58 1dbe
00000170: ea34 89bd c8db 98bd d495 933e c15d 123e
00000180: 93a6 f1bd e499 563e 2156 713e 0826 683e
00000190: 5582 a03d 5722 64bc 0473 ab3e 372c c03d
000001a0: 79ca f83d 96e7 b4bd 1557 003e bed1 923d
000001b0: 5fd6 1b3e 80d3 183e bff1 41be 0ef6 5ebe
000001c0: 7269 8a3e 0146 39be 7e2e 37be 9c38 3fbc
000001d0: 8151 14be 3a86 963e 07e5 3bbe b36a 85bc
000001e0: 393c 4c3c 66de bbbd ffcd 5c3e e81d ee3d
000001f0: 3b58 8a3e 60ae 803b 4abd 043e afb8 763d

layer2.weight f4 [256, 128]
-0.055144683 0.06864531 0.054547664 -0.1130165 0.091611825 -0.067726396 -0.09795976 0.007952854
-0.021669984 0.08232454 0.03633002 0.06969275 -0.08631251 -0.067432955 -0.10749255 0.0737765
-0.01865158 0.11806244 -0.08995294 0.0066101793 0.015806219 0.0048909616 -0.05085439 -0.0246339
0.0155105125 -0.011357093 0.005128511 -0.042093616 0.009420237 0.027057441 0.018041795 -0.05168645
0.007210281 -0.075416096 -0.07074987 -0.09067741 0.03155337 -0.013495434 0.01603537 0.084297106
0.022400077 0.07314831 -0.12255539 0.022277998 -0.07590509 -0.02373723 0.08019699 -0.04759372
0.028759604 0.03845957 0.04051871 -0.04431255 0.006927396 0.026495883 0.10344453 -0.05541835
0.027019769 -0.090901844 0.042065717 0.0212262 -0.10614321 -0.0063600494 -0.024049208 0.05396735
0.009015462 -0.016241103 -0.026786426 0.015771506 -0.039555132 0.0012242619 -0.022998689 0.059742227
0.006291118 -0.031218385 -0.020864159 -0.085980594 0.02400989 0.033260386 -0.07326481 0.036418855
-0.101351015 -0.028133074 0.016003838 0.05807545 -0.010190329 0.07352897 -0.076632276 0.069234096
0.04568869 0.054083668 0.025263844 0.03246352 0.049226806 -0.01669434 0.039024796 -0.076934665
-0.020829923 -0.055264577 -0.011312668 0.021663973 -0.038953636 -0.050047196 -0.050986372 0.045885872
0.0055058342 -0.030720461 0.096231915 -0.08204558 0.07866164 0.02633764 0.00047010233 0.03694991
0.09438047 -0.07106342 -0.078392245 -0.029857052 -0.0010741105 0.0688752 -0.101028144 -0.15659195
-0.014329705 -0.08393694 0.06844649 -0.042562492 0.058922783 -0.06734298 -0.036906365 0.10258011
0.035614863 0.018732164 -0.042349197 -0.09616789 -0.036811907 -0.10058158 -0.012887604 0.011341416
0.027533792 -0.031079818 0.0817711 0.08570024 -0.033565704 -0.040529557 0.013724597 -0.009896818
0.08132285 0.11219287 -0.02398265 -0.055261713 -0.07043092 -0.08712996 0.02662881 0.063342564
0.006484086 -0.040896628 0.08164554 0.018518677 -0.067496665 0.009867771 -0.033365928 0.010888821
0.088734604 0.031542484 0.04919868 0.07242782 -0.015772492 -0.02375979 -0.04441145 0.0042327084
0.073444635 0.05973413 0.012340696 0.03543611 -0.0895426 -0.10544198 0.1173392 -0.084470734
-0.04046987 -0.08139385 0.057170294 0.037447896 -0.01576254 -0.07319222 0.09060783 -0.015460268
-0.08871699 -0.05588141 0.038883656 0.029288827 0.031414513 -0.023279345 0.02175902 0.012548758
0.04794708 0.039882336 0.07153998 -0.05506333 0.11613697 0.095403664 -0.07124714 -0.08912165
-0.0127470475 -0.015988711 -0.09578171 -0.0074400487 0.060643718 -0.03749177 -0.088549666 0.06798935
-0.010656904 -0.034387067 -0.05144852 -0.057536677 0.08057049 0.050344747 0.031548306 -0.047834165
-0.053435605 -0.060287293 0.034565706 -0.03298787 0.02042861 0.017737824 0.04699813 -0.080757566
-0.0012937477 0.024899576 0.016166676 -0.08199007 -0.016022004 -0.07480162 0.0058506234 0.07895435
-0.063301176 0.065413535 0.0035554292 0.05479695 -0.007369683 -0.046398114 0.042172927 -0.008075474
0.016458048 0.0655744 0.02676663 -0.030667068 -0.073318794 0.0148077775 0.04831386 0.047211666
-0.025989654 0.033507466 0.06756244 -0.0026777333 -0.031597313 0.06651202 -0.06844602 -0.0715626
00000000: 64df 61bd ea95 8c3d 5f6d 5f3d 3275 e7bd
00000010: fb9e bb3d 23b4 8abd 209f c8bd b04c 023c
00000020: 4085 b1bc c599 a83d c9ce 143d 13bb 8e3d
00000030: 9dc4 b0bd 4a1a 8abd 0e25 dcbd 2218 973d
00000040: 33cb 98bc b8ca f13d 3f39 b8bd 349a d83b
00000050: 0b7c 813c 5c44 a03b b14c 50bd 08cd c9bc
00000060: ce1f 7e3c 1a13 3abc 120d a83b 5b6a 2cbd
00000070: 5657 1a3c 91a7 dd3c 63cc 933c 2cb5 53bd
00000080: 3944 ec3b c173 9abd 4fe5 90bd 14b5 b9bd
00000090: 1b3e 013d f41b 5dbc 9c5c 833c f6a3 ac3d
000000a0: 5e80 b73c c8ce 953d 52fe fabd 5980 b63c
000000b0: 2174 9bbd 9474 c2bc 523e a43d a2f1 42bd
000000c0: 4399 eb3c c887 1d3d f2f6 253d 1481 35bd
000000d0: 36ff e23b e50d d93c bada d33d 5afe 62bd
000000e0: 9058 dd3c bf2a babd 1a4d 2c3d 91e2 ad3c
000000f0: 9c61 d9bd f667 d0bb d802 c5bc de0c 5d3d
00000100: 97b5 133c 100c 85bc 356f dbbc 3f33 813c
00000110: 9004 22bd 6a77 a03a bf67 bcbc 44b4 743d
00000120: b925 ce3b b3bd ffbc 50eb aabc 9816 b0bd
00000130: 64b0 c43c 0b3c 083d dc0b 96bd f02b 153d
00000140: 1f91 cfbd 5577 e6bc 7b1a 833c 86e0 6d3d
00000150: 56f5 26bc 5b96 963d 62f1 9cbd 9bca 8d3d
00000160: 1024 3b3d d686 5d3d 1ff6 ce3c 78f8 043d
00000170: 0ca2 493d 92c2 88bc 77d8 1f3d ec8f 9dbd
00000180: 84a3 aabc 1c5d 62bd c558 39bc a578 b13c
00000190: d98d 1fbd 4afe 4cbd 16d7 50bd d3f2 3b3d
000001a0: 496a b43b 7aa9 fbbc 3d15 c53d 8307 a8bd
000001b0: 5b19 a13d 09c2 d73c 1178 f639 ca58 173d
000001c0: 8c4a c13d b389 91bd 1d8c a0bd c796 f4bc
000001d0: 2bc9 8cba 710e 8d3d d8e7 cebd a459 20be
000001e0: 24c7 6abc 21e7 abbd ac2d 8c3d 0256 2ebd
000001f0: 0459 713d 1eeb 89bd 212b 17bd 8515 d23d
00000200: e4e0 113d 3274 993c 5a76 2dbd acf3 c4bd
00000210: 15c8 16bd b7fd cdbd 8726 53bc 59d1 393c
00000220: 8c8e e13c 1a9b febc 9b77 a73d 9c83 af3d
00000230: 317c 09bd 5202 26bd 22dd 603c 4326 22bc
00000240: 988c a63d 60c5 e53d 4377 c4bc 1b5a 62bd
00000250: 163e 90bd 3171 b2bd aa24 da3c bfb9 813d
00000260: 7578 d43b 3983 27bd c735 a73d 7bb4 973c
00000270: b13b 8abd 6eac 213c b6aa 08bd 0767 323c
00000280: 7dba b53d b132 013d 8e84 493d 0955 943d
00000290: 5035 81bc e4a3 c2bc c8e8 35bd 88b2 8a3b
000002a0: 246a 963d c6ab 743d a130 4a3c 7425 113d
000002b0: 1c62 b7bd f7f1 d7bd 894f f03d fefe acbd
000002c0: bcc3 25bd d2b1 a6bd 662b 6a3d f762 193d
000002d0: 7120 81bc cde5 95bd 9990 b93d 104d 7dbc
000002e0: 41b1 b5bd e8e3 64bd 7844 1f3d 1fef ef3c
000002f0: 81ac 003d 53b4 bebc f93f b23c 4e99 4d3c
00000300: 2864 443d a95b 233d 8e83 923d 168a 61bd
00000310: 38d9 ed3d ff62 c33d 05ea 91bd 6985 b6bd
00000320: fed8 50bc c2fa 82bc 3429 c4bd a7cb f3bb
00000330: 8c65 783d f890 19bd 8759 b5bd 003e 8b3d
00000340: 4c9a 2ebc 74d9 0cbd afbb 52bd 94ab 6bbd
00000350: 2402 a53d 4b36 4e3d cc38 013d c2ed 43bd
00000360: 4bdf 5abd cfef 76bd c594 0d3d 4a1e 07bd
00000370: e659 a73c ea4e 913c 1c81 403d 3964 a5bd
00000380: f892 a9ba 32fa cb3c fa6f 843c 69ea a7bd
00000390: 9440 83bc 9731 99bd 96b6 bf3b d1b2 a13d
000003a0: 0ca4 81bd 88f7 853d 3402 693b c472 603d
000003b0: 627d f1bb f30b 3ebd 85bd 2c3d fe4e 04bc
000003c0: 07d3 863c df4b 863d b145 db3c 8139 fbbc
000003d0: 2a28 96bd 529c 723c c1e4 453d 0561 413d
000003e0: 41e8 d4bc 203f 093d 2d5e 8a3d e97c 2fbb
000003f0: 2f6c 01bd 7437 883d 6d2d 8cbd 6a8f 92bd

layer2.bias f4 [256]
0.017978504 0.11847297 0.0937842 -0.15657127 0.057837196 0.16077666 0.0044683036 0.18935312
0.21345674 0.20627408 0.15575798 -0.14791384 0.03110492 0.14311324 -0.010799609 0.20102346
-0.17686181 0.061303467 -0.17259124 -0.001965506 -0.051871803 -0.044201966 0.12824044 -0.13562213
0.10234465 0.055993322 0.2016279 0.004573585 -0.07170334 0.15296529 0.13341905 0.1814715
0.105151355 0.026853463 0.067415446 0.15500998 0.17927368 0.06098769 -0.08334437 0.16404025
0.15194799 0.027633378 0.057112772 0.057529934 -0.09698622 0.19001366 0.14420119 0.2240616
0.18629609 0.094017334 0.12866566 0.12006763 -0.04334464 0.10753336 0.21863595 0.045208417
0.17944008 0.044131007 0.17372417 -0.013459415 0.16834432 -0.006631585 0.109789334 0.085016474
0.15481894 0.07473034 0.17898327 0.17132314 0.13977253 0.034332555 -0.0026480246 0.024044536
0.05002568 0.21075453 -0.10903273 0.17231886 0.14840716 0.0667255 0.21143766 0.12902008
0.12851135 0.11505886 -0.044256482 0.21776257 0.051971845 0.20431852 0.07293851 0.16299061
0.12125858 0.0681795 0.196022 0.0959265 0.0535363 -0.027669488 -0.10779677 0.1616607
0.1741022 0.025230788 0.065254815 0.052942626 0.2033701 0.10235188 0.14639291 0.06241969
0.041003294 0.087699115 0.14887321 -0.020711249 -0.15757243 0.10484933 0.083244406 0.20550647
0.20449936 -0.05213342 0.09838941 0.16154474 0.14609174 -0.07948215 0.1375133 0.19111575
0.1817321 0.17070203 0.120576985 0.14126138 0.052595537 0.20797136 0.1391577 0.20066716
0.17338881 0.19013847 0.1991193 0.18730696 0.058799345 -0.11296679 0.07035214 -0.10850169
0.21791296 0.19888547 0.18091993 -0.06286524 0.19938865 0.10255712 -0.030888591 0.16359445
0.049078546 0.001484043 0.11147448 -0.11683201 0.11450891 0.15429924 0.1970982 0.13147733
0.035710942 0.14865926 0.11846204 -0.12860942 0.21194738 0.15623783 0.17306615 0.03227079
0.14977913 0.10452348 0.09180833 0.19755459 0.18119888 -0.05126648 -0.036136657 0.04405046
0.1735667 0.20978402 0.16226257 0.0048590363 0.16520345 0.19481479 0.058302343 0.20502138
0.06337076 -0.0016500651 0.20464724 0.035882536 0.18887927 0.20792776 0.1056471 0.025693016
0.071390934 0.20069091 0.17631008 0.12525235 0.15262794 0.02245293 0.15527652 0.1842131
-0.021033516 0.11738289 -0.05817536 -0.06855134 0.08858854 0.0630161 0.03940309 0.22148223
0.16835111 0.17867689 -0.09300169 0.18366861 0.0906422 0.20063318 0.10591964 0.19008714
0.19640721 0.047159836 0.039607935 0.098100886 -0.010098278 -0.11230138 0.15007702 0.19383438
0.12768343 0.05198529 0.08699131 0.074686386 0.0098034665 0.14434075 0.17366542 0.11111306
0.1954297 0.17548335 -0.09657562 0.17431735 0.06609628 0.05100878 0.1882361 0.20071581
-0.05306389 0.11899031 0.21403754 -0.15643391 0.06516134 -0.065461464 0.14868823 -0.08041898
0.19981706 -0.14327572 0.077782474 0.10756296 0.14139397 0.18301563 0.23179694 0.09731401
-0.030517658 0.1522443 0.02480988 0.060374156 -0.07228737 0.20220418 0.13417687 0.098320246
00000000: a847 933c f5a1 f23d ee11 c03d 3854 20be
00000010: b2e6 6c3d a3a2 243e d96a 923b c9e5 413e
00000020: 6794 5a3e 8339 533e 057f 1f3e ba76 17be
00000030: bfcf fe3c 478c 123e d8f0 30bc 18d9 4d3e
00000040: 431b 35be 5819 7b3d c2bb 30be b8cf 00bb
00000050: 8777 54bd 1f0d 35bd 7651 033e 87e0 0abe
00000060: 129a d13d 4159 653d 8b77 4e3e 03de 953b
00000070: 33d9 92bd efa2 1c3e 019f 083e aad3 393e
00000080: 9859 d73d cbfb db3c 1c11 8a3d f0ba 1e3e
00000090: 8593 373e 3ace 793d 74b0 aabd 2bfa 273e
000000a0: 4198 1b3e 655f e23c 15ef 693d 82a4 6b3d
000000b0: b6a0 c6bd f192 423e 7aa9 133e 6770 653e
000000c0: 67c4 3e3e 298c c03d eec0 033e 05e6 f53d
000000d0: 268a 31bd 733a dc3d 1ae2 5f3e 762c 393d
000000e0: 24bf 373e b7c2 343d c0e4 313e e184 5cbc
000000f0: 7462 2c3e c44d d9bb 3bd9 e03d 1e1d ae3d
00000100: db88 1e3e 380c 993d 6447 373e 556f 2f3e
00000110: 8820 0f3e 4ba0 0c3d 7b8a 2dbb 0cf9 c43c
00000120: bae7 4c3d 09d0 573e 8d4c dfbd 5b74 303e
00000130: 0cf8 173e 61a7 883d 1d83 583e d71d 043e
00000140: 7b98 033e fba3 eb3d 4946 35bd 27fd 5e3e
00000150: 6ee0 543d e038 513e c960 953d 03e7 263e
00000160: 6b56 f83d b2a1 8b3d feb9 483e 1d75 c43d
00000170: e148 5b3d 1fab e2bc 8ec4 dcbd 628a 253e
00000180: d947 323e ccb0 ce3c 51a4 853d 5eda 583d
00000190: 4040 503e dd9d d13d 06e8 153e caab 7f3d
000001a0: 12f3 273d 989b b33d 3872 183e a3aa a9bc
000001b0: ab5a 21be 3fbb d63d 0b7c aa3d 4a70 523e
000001c0: 4868 513e da89 55bd 6380 c93d fc6b 253e
000001d0: 1399 153e 8ac7 a2bd 49d0 0c3e d9b3 433e
000001e0: fb17 3a3e 83cc 2e3e 11f1 f63d d3a6 103e
000001f0: 6b6e 573d 72f6 543e 5b7f 0e3e b17b 4d3e
00000200: d68c 313e a9b3 423e eee5 4b3e 65cd 3f3e
00000210: 95d7 703d 225b e7bd c814 903d 2236 debd
00000220: 9324 5f3e a2a8 4b3e 1343 393e 7ebf 80bd
00000230: 8a2c 4c3e 7809 d23d 120a fdbc 4e85 273e
00000240: 9606 493d 3884 c23a bb4c e43d 9f45 efbd
00000250: a683 ea3d 9f00 1e3e 1cd4 493e fea1 063e
00000260: a345 123d 223a 183e 3a9c f23d 30b2 03be
00000270: bc08 593e cffc 1f3e 4138 313e 602e 043d
00000280: b35f 193e 6810 d63d 0106 bc3d c04b 4a3e
00000290: 338c 393e cdfc 51bd 0804 14bd 416e 343d
000002a0: 78bb 313e 9fd1 563e 2928 263e 8d38 9f3b
000002b0: 182b 293e 877d 473e 70ce 6e3d 20f1 513e
000002c0: 87c8 813d ff46 d8ba 0c8f 513e 91f9 123d
000002d0: 9169 413e 04eb 543e 825d d83d 297a d23c
000002e0: 6935 923d eb81 4d3e a18a 343e 2742 003e
000002f0: 804a 1c3e 35ef b73c cf00 1f3e 5ca2 3c3e
00000300: 7b4e acbc 7166 f03d 4949 6ebd a564 8cbd
00000310: e96d b53d 960e 813d 2265 213d 3dcc 623e
00000320: 3c64 2c3e 13f7 363e ac77 bebd a013 3c3e
00000330: 9ea2 b93d c972 4d3e 65ec d83d 34a6 423e
00000340: f91e 493e ac2a 413d ee3b 223d 1ee9 c83d
00000350: 3f73 25bc 44fe e5bd caad 193e 857c 463e
00000360: 72bf 023e 87ee 543d 8028 b23d 2df5 983d
00000370: b89e 203c 10ce 133e 59d5 313e 3e8f e33d
00000380: b91e 483e e8b1 333e 70c9 c5bd 3f80 323e
00000390: 7d5d 873d 95ee 503d f7c0 403e 7288 4d3e
000003a0: 8659 59bd 31b1 f33d a82c 5b3e 3630 20be
000003b0: 4f73 853d a910 86bd ba41 183e b5b2 a4bd
000003c0: d89c 4c3e dfb6 12be 6b4c 9f3d f849 dc3d
000003d0: 95c9 103e 7368 3b3e 2d5c 6d3e 914c c73d
000003e0: 2b00 fabc eee5 1b3e 173e cb3c e44a 773d
000003f0: 670b 94bd 9d0e 4f3e a965 093e 205c c93d

layer3.weight f4 [256, 256]
-0.015884575 -0.04437544 -0.05142435 0.042793673 0.024732105 -0.034045376 -0.099090226 -0.018970389
-0.045811366 -0.027739339 0.030218726 0.054712366 0.018413221 -0.03466152 -0.027118646 0.0038981836
0.0021296763 0.024171958 0.0039359345 -0.045915358 -0.039987337 -0.13551803 -0.009006317 0.01965018
-0.038005304 -0.028442468 0.033978086 0.046807554 0.06235639 0.0120958 -0.031007325 -0.026948571
-0.019633561 -0.045835555 -0.036064006 -0.016251467 -0.05036382 -0.030090228 0.021189783 0.02190283
0.047942486 -0.06673852 0.034736358 -0.032775566 0.024870204 -0.011721519 -0.05707226 0.032321133
-0.046411715 -0.014316096 -0.012236436 -0.004226553 -0.12106754 -0.031947777 -0.0323026 -0.043008637
0.021806981 -0.0018422543 0.05273443 0.04286893 -0.020812731 -0.08842713 0.028249022 0.016562402
-0.0031296243 0.028715836 0.019277934 0.049801834 -0.0009701738 0.06671906 -0.011649189 0.046879854
-0.06874595 -0.035601154 0.034914676 -0.0018607974 0.015255832 0.037632234 -0.028756743 -0.027148746
0.045893658 -0.042118598 -0.09580415 0.00016780494 0.03151466 -0.0063701617 0.018868184 -0.0653611
0.0102312565 0.046070546 0.04923849 0.044595078 -0.030317001 0.04524353 0.06980462 0.0013315805
0.058976766 -0.07021005 0.037282396 0.018553948 0.04314977 -0.03557198 -0.0254499 -0.047085535
0.07718593 0.037999243 0.03688359 0.004799631 0.09431135 0.036529947 0.023559103 -0.034586407
-0.036465093 0.08812164 -0.026684828 0.030367147 -0.060108826 0.03706974 0.000489906 0.0070760273
0.05497954 -0.0052731247 0.014000893 -0.06811916 -0.008049814 -0.050327584 -0.02077809 0.049191166
0.017020855 0.0063239313 -0.07076313 -0.009778623 -0.045947332 0.08989382 -0.054344214 0.003081981
0.009542545 0.039325777 -0.031868458 -0.0682109 -0.033200152 -0.009812887 -0.08611033 -0.0128435865
0.004890067 -0.037487015 -0.0049663465 0.052958578 -0.035232585 0.072263345 0.03223896 -0.042685438
-0.045134008 0.027910257 -0.033388004 0.012406507 -0.06688999 -0.041245833 0.05103974 0.008719913
0.042164784 0.0033825703 -0.05678153 0.038376734 -0.0012687345 -0.024542352 -0.09803735 -0.055296447
-0.028893054 -0.013264302 0.056342117 0.013044085 0.03028095 -0.03614499 -0.05757936 -0.000586583
0.004626195 -0.09707548 0.039095663 0.031654853 -0.016863339 -0.028279813 -0.045647033 -0.004321931
0.031223262 -0.012181427 -0.01447246 -0.029025119 -0.03709908 0.007989121 -0.07279495 -0.016734026
-0.029273344 -0.009660099 -0.065736584 -0.009916584 -0.01919576 -0.030734248 -0.037543688 0.025176223
0.066717714 0.041829 -0.09681582 -0.0648204 -0.04680467 -0.024095472 0.024254585 0.023961036
-0.028766586 -0.0979259 0.06741819 -0.018042134 -0.0024122524 0.08370509 -0.040573988 -0.026997298
0.019981159 0.009428621 0.029605625 -0.015094867 -0.01581924 0.039303526 -0.0072574317 -0.055597253
-0.04678681 0.022587895 -0.13153009 -0.01906418 0.01055885 -0.014022049 -0.052752104 -0.020071821
0.0037063335 -0.06641022 -0.0568175 0.062479936 -0.020962998 -0.060965437 0.005262243 -0.013108892
-0.00029337936 -0.0011922172 0.022405231 -0.036433928 -0.025136977 0.018072167 -0.05663112 -0.043769695
-0.106044635 0.04067879 -0.021476962 -0.058439694 0.06288037 -0.016817199 -0.020649122 -0.0049957675
00000000: 5e20 82bc 05c3 35bd 57a2 52bd 6b48 2f3d
00000010: fc9a ca3c 2a73 0bbd d1ef cabd ca67 9bbc
00000020: b3a4 3bbd 9c3d e3bc 438d f73c 131a 603d
00000030: 53d7 963c 3df9 0dbd ec27 debc ab78 7f3b
00000040: 0a92 0b3b 4504 c63c 03f9 803b be11 3cbd
00000050: c3c9 23bd 3dc5 0abe 3b8f 13bc 6af9 a03c
00000060: 73ab 1bbd 2e00 e9bc 9b2c 0b3d 47b9 3f3d
00000070: 6a69 7f3d 762d 463c 1303 febc 40c3 dcbc
00000080: 90d6 a0bc 10be 3bbd dab7 13bd cc21 85bc
00000090: 4b4a 4ebd c87f f6bc 3296 ad3c 906d b33c
000000a0: 575f 443d 35ae 88bd b647 0e3d ac3f 06bd
000000b0: 99bc cb3c 9d0b 40bc 9ac4 69bd 2a63 043d
000000c0: 361a 3ebd 0f8e 6abc 557b 48bc e57e 8abb
000000d0: 42f2 f7bd acdb 02bd bb4f 04bd d329 30bd
000000e0: 8ea4 b23c cc77 f1ba 0f00 583d 5597 2f3d
000000f0: 767f aabc 4819 b5bd 7e6a e73c e0ad 873c
00000100: 621a 4dbb 793d eb3c c2ec 9d3c 02fd 4b3d
00000110: 4353 7eba 01a4 883d 3ddc 3ebc 1705 403d
00000120: adca 8cbd 84d2 11bd b102 0f3d 00e6 f3ba
00000130: 99f3 793c 4224 1a3d 4393 ebbc 0c67 debc
00000140: fdfa 3b3d 8d84 2cbd f734 c4bd ccf4 2f39
00000150: 8415 013d cabc d0bb 7391 9a3c 0adc 85bd
00000160: 00a1 273c 78b4 3c3d 4dae 493d 54a9 363d
00000170: 5c5b f8bc 4851 393d baf5 8e3d 6d88 ae3a
00000180: 9f91 713d 49ca 8fbd 6db5 183d 73fe 973c
00000190: d0bd 303d edb3 11bd 4f7c d0bc c3dc 40bd
000001a0: a813 9e3d 18a5 1b3d 3f13 173d 3946 9d3b
000001b0: 4f26 c13d 6da0 153d 05ff c03c 7aaa 0dbd
000001c0: 6c5c 15bd 1e79 b43d 249a dabc 86c4 f83c
000001d0: ac34 76bd 71d6 173d 096d 003a 05de e73b
000001e0: 3a32 613d 2dca acbb 0064 653c 0f82 8bbd
000001f0: 5ee3 03bc 4c24 4ebd d036 aabc ad7c 493d
00000200: 526f 8b3c fb38 cf3b 43ec 90bd 8436 20bc
00000210: 4533 3cbd 401a b83d 0a98 5ebd 10fb 493b
00000220: 5658 1c3c 1114 213d 8088 02bd 28b2 8bbd
00000230: e2fc 07bd 3bc6 20bc 9d5a b0bd e86d 52bc
00000240: db3c a03b fc8b 19bd bcbc a2bb 18eb 583d
00000250: 0b50 10bd cefe 933d 000d 043d edd6 2ebd
00000260: 70de 38bd 0da4 e43c dcc1 08bd a944 4b3c
00000270: 9efd 88bd 64f1 28bd 0c0f 513d f7dd 0e3c
00000280: fbb4 2c3d 1dae 5d3b c093 68bd ec30 1d3d
00000290: aa4b a6ba 0b0d c9bc cec7 c8bd 877e 62bd
000002a0: 20b1 ecbc 8452 59bc fec6 663d dcb6 553c
000002b0: c10f f83c c50c 14bd 56d8 6bbd ebc4 19ba
000002c0: 5697 973b 82cf c6bd c622 203d 85a8 013d
000002d0: fc24 8abc 11ab e7bc 62f8 3abd fc9e 8dbb
000002e0: edc7 ff3c 9c94 47bc e61d 6dbc 16c6 edbc
000002f0: 34f5 17bd cde4 023c 8515 95bd cc15 89bc
00000300: a7ce efbc 6445 1ebc e7a0 86bd 2b79 22bc
00000310: 6d40 9dbc 64c6 fbbc 69c7 19bd 5e3e ce3c
00000320: 4ca3 883d e354 2b3d 5f47 c6bd 8fc0 84bd
00000330: 41b6 3fbd de63 c5bc 8db1 c63c ef49 c43c
00000340: e7a7 ebbc 608d c8bd 8c12 8a3d 19cd 93bc
00000350: e116 1ebb 936d ab3d e930 26bd 7029 ddbc
00000360: 87af a33c 817a 1a3c 7f87 f23c 7650 77bc
00000370: 5a97 81bc bcfc 203d c0cf edbb f2b9 63bd
00000380: 87a3 3fbd 400a b93c d3af 06be 7c2c 9cbc
00000390: 07ff 2c3c bcbc 65bc 9712 58bd a96d a4bc
000003a0: f5e5 723b 1502 88bd 78b9 68bd f6ea 7f3d
000003b0: 98ba abbc e5b6 79bd e56e ac3b aec6 56bc
000003c0: b6d0 99b9 2c44 9cba 2d8b b73c be3b 15bd
000003d0: 10ec cdbc 150c 943c 09f6 67bd da47 33bd
000003e0: ee2d d9bd ce9e 263d 74f0 afbc 765e 6fbd
000003f0: 6cc7 803d 39c4 89bc 5928 a9bc 89b3 a3bb

layer3.bias f4 [256]
0.05206779 0.09050446 0.15152718 0.077552 0.08148988 0.044713423 -0.119099416 -0.085253134
0.1037087 0.13631114 0.1333583 0.16743088 0.1155289 0.16009185 -0.11116503 -0.058582988
-0.07164638 0.08554794 0.08424464 0.13423616 0.056614667 0.0992277 -0.09292055 0.16466771
-0.112267606 0.16043721 0.11960992 -0.16231725 0.10763245 -0.07437725 0.08821864 0.15568805
-0.035819627 0.17113326 0.12641251 0.1809359 -0.021215554 -0.071535334 0.17736654 0.15860364
-0.11322866 0.16062592 0.11896015 0.055611975 0.17882153 0.15549341 0.10603618 0.097445
0.13919117 0.11732876 0.11765567 0.12338063 -0.09053442 0.060610924 0.13878353 0.13620187
0.13156344 0.015468658 0.16258617 0.13745956 0.16271584 0.099231936 0.15587485 -0.12602668
-0.090328306 0.09796581 0.15747051 -0.059118655 0.07596977 -0.10178434 0.10752389 0.15856175
0.16559693 -0.10294835 0.13968897 0.08962468 0.13917883 0.08956528 -0.09800354 0.08304646
0.05758544 0.060587022 0.093824655 0.12241204 0.07361183 -0.018116426 0.114505984 0.090886615
0.15921453 0.15787618 0.093523055 0.06871708 0.11357383 0.059862927 -0.13684636 0.120461896
0.08810005 0.114671506 0.012421333 0.1836388 0.16186276 0.16009405 -0.03925234 -0.040836472
0.16920893 0.16629185 -0.13033858 0.06613073 -0.03934526 0.15179749 0.1553431 0.17451878
0.11121354 0.10668395 0.104523055 -0.12445299 0.14620267 0.052920535 0.048628006 0.049081642
-0.087201536 0.047235675 0.092410855 0.06475565 0.1582008 0.15902077 0.17165294 0.2266532
-0.12606232 0.15740965 0.061590765 0.13532108 0.14498019 0.076889515 -0.033976823 0.17201406
0.057554558 0.17216708 0.09475656 -0.08156732 0.1217831 0.14054699 0.16169032 0.14821711
0.049704917 -0.056559723 0.082432635 0.09368005 0.10041846 0.08579601 0.1603673 0.056068227
0.057347085 0.07324308 -0.019627001 -0.051270843 0.09683752 0.11331598 0.11684344 0.08783202
0.089483276 0.07767005 0.11546076 -0.101519816 0.17321861 -0.07588117 -0.161636 0.07192265
0.06099198 0.0918546 -0.10221872 -0.10157752 0.14287533 0.14734231 0.03911626 0.17018351
-0.011585556 0.16702448 0.083771 -0.05393639 0.10235741 0.16573265 -0.031071894 0.0764507
0.17082307 -0.13392521 0.068319455 0.16945253 0.085087724 0.17128754 0.07604343 0.11088045
0.1692808 0.15576375 0.1769 0.12761939 0.08575024 0.12161742 -0.084624015 0.122520916
0.089914165 0.10442151 0.14351332 -0.08126965 -0.005673968 -0.030500831 -0.12837042 0.09680305
0.15280801 0.11242912 0.13268413 0.04322668 0.112510905 0.17110097 0.14242962 -0.03766448
0.16338818 0.07187839 -0.046654616 0.14080673 0.061573014 0.08654096 0.010880866 0.059565913
0.07289994 -0.096335195 0.16765596 -0.0774896 0.11166996 -0.061894495 -0.041190833 0.1766385
0.12326661 -0.07587245 0.17067589 0.1606367 -0.037092384 -0.025934601 0.070702925 -0.10352475
0.13833275 0.1465049 0.16912147 -0.12909245 0.020046331 0.082534544 -0.0821258 0.16577241
0.11473976 -0.058898274 0.10768848 0.055056043 0.12009832 0.07921731 0.12018374 -0.019490821
00000000: 0945 553d 675a b93d f129 1b3e 95d3 9e3d
00000010: 2be4 a63d 6c25 373d 65ea f3bd 3299 aebd
00000020: 3a65 d43d 2695 0b3e 148f 083e 0073 2b3e
00000030: 6a9a ec3d 1eef 233e 7eaa e3bd b7f4 6fbd
00000040: 56bb 92bd c233 af3d 7488 ac3d 3475 093e
00000050: c8e4 673d e437 cb3d 214d bebd a79e 283e
00000060: 8fec e5bd a749 243e 0cf6 f43d 7e36 26be
00000070: 676e dc3d 1a53 98bd f9ab b43d b06c 1f3e
00000080: 9ab7 12bd 8f3d 2f3e 4872 013e 4347 393e
00000090: 3ecc adbc 1e81 92bd 939f 353e fe68 223e
000000a0: 6de4 e7bd 1f7b 243e 61a1 f33d 62c9 633d
000000b0: fe1c 373e aa39 1f3e 7f29 d93d 3f91 c73d
000000c0: 2188 0e3e 104a f03d 75f5 f03d fcae fc3d
000000d0: 1c6a b9bd 2943 783d 451d 0e3e 8178 0b3e
000000e0: 91b8 063e 4170 7d3c fd7c 263e 33c2 0c3e
000000f0: fb9e 263e 1d3a cb3d a89d 1f3e 230d 01be
00000100: 0cfe b8bd 4ca2 c83d f33f 213e 6726 72bd
00000110: 0a96 9b3d 4f74 d0bd 7c35 dc3d 035e 223e
00000120: 3e92 293e 96d6 d2bd a00a 0f3e 258d b73d
00000130: e584 0e3e 006e b73d 14b6 c8bd 4314 aa3d
00000140: b6de 6b3d 192a 783d 2427 c03d 2ab3 fa3d
00000150: cdc1 963d e668 94bc 1d82 ea3d c322 ba3d
00000160: 2209 233e 4baa 213e 0489 bf3d 8abb 8c3d
00000170: 6599 e83d d432 753d 7421 0cbe bab4 f63d
00000180: cd6d b43d e5d8 ea3d d982 4b3c cf0b 3c3e
00000190: 5abf 253e b2ef 233e 10c7 20bd 2544 27bd
000001a0: 1b45 2d3e 6948 2a3e 7a77 05be 8c6f 873d
000001b0: 7f28 21bd cd70 1b3e 4312 1f3e 0db5 323e
000001c0: edc3 e33d 1d7d da3d 2f10 d63d 36e1 febd
000001d0: 27b6 153e 34c3 583d 292e 473d d509 493d
000001e0: b896 b2bd 327a 413d e741 bd3d 9c9e 843d
000001f0: 64ff 213e 57d6 223e cac5 2f3e c717 683e
00000200: 7b16 01be ff2f 213e 9946 7c3d 9c91 0a3e
00000210: b075 143e 4078 9d3d 482b 0bbd 7424 303e
00000220: 54be 6b3d 914c 303e ba0f c23d c40c a7bd
00000230: 6b69 f93d 8deb 0f3e 2692 253e 3ac6 173e
00000240: 6297 4b3d 2bab 67bd 71d2 a83d 53db bf3d
00000250: 32a8 cd3d d2b5 af3d 5337 243e cca7 653d
00000260: c7e4 6a3d 7800 963d cec8 a0bc 6001 52bd
00000270: c052 c63d 3512 e83d 9d4b ef3d 46e1 b33d
00000280: 0243 b73d 7a11 9f3d b176 ec3d 9fe9 cfbd
00000290: 3860 313e 9667 9bbd e883 25be 2f4c 933d
000002a0: bad2 793d 441e bc3d 0c58 d1bd e007 d0bd
000002b0: e94d 123e e7e0 163e 5f38 203d 9644 2e3e
000002c0: 58d1 3dbc 7708 2b3e 2190 ab3d 67ec 5cbd
000002d0: c3a0 d13d d2b5 293e 7c8a febc 2f92 9c3d
000002e0: 3eec 2e3e b123 09be 12eb 8b3d f784 2d3e
000002f0: 7942 ae3d 0066 2f3e a8bc 9b3d 4a15 e33d
00000300: f257 2d3e 8880 1f3e 4625 353e a8ae 023e
00000310: d29d af3d 8e12 f93d 5b4f adbd 3fec fa3d
00000320: eb24 b83d f2da d53d 28f5 123e b470 a6bd
00000330: b1ec b9bb e1dc f9bc 8973 03be ad40 c63d
00000340: b479 1c3e 3d41 e63d 59de 073e 760e 313d
00000350: 1e6c e63d 1835 2f3e 12d9 113e 1246 1abd
00000360: 3b4f 273e fa34 933d e918 3fbd a42f 103e
00000370: fc33 7c3d 633c b13d a945 323c 63fb 733d
00000380: 904c 953d 634b c5bd 01ae 2b3e deb2 9ebd
00000390: 38b3 e43d 1585 7dbd b8b7 28bd b9e0 343e
000003a0: 3473 fc3d 0463 9bbd a9c5 2e3e f27d 243e
000003b0: 2fee 17bd cd74 d4bc b2cc 903d c904 d4bd
000003c0: 1aa7 0d3e 6105 163e 2e2e 2d3e d030 04be
000003d0: 3438 a43c df07 a93d 9231 a8bd 3ec0 293e
000003e0: aefc ea3d 513f 71bd c78b dc3d 7282 613d
000003f0: 1cf6 f53d af3c a23d e522 f63d 37ab 9fbc

layer4.weight f4 [128, 256]
0.060041532 0.062885016 -0.046116933 -0.031352725 -0.037205443 -0.015880698 -0.005754925 0.021075355
0.035544395 -0.00085728534 -0.049392123 0.017161356 -0.030022701 0.02659181 0.06367859 -0.0031171164
0.0016981364 -0.03764594 0.01703278 -0.0036713036 0.02878501 -0.047233593 0.02699726 -0.0012242295
0.104782715 -0.04042324 0.042821534 0.034169067 -0.061352186 0.20137231 -0.017573887 -0.029238636
0.05227305 -0.0041515706 -0.04570143 0.029399283 -0.053083666 0.05123649 0.0051242374 0.046976555
0.06078849 0.022253852 -0.036623333 -0.025285937 -0.033182964 -0.042987105 -0.031115906 0.027640913
-0.013617124 -0.028799616 -0.002714471 -0.014153244 0.031093076 0.0247652 -0.05881342 -0.053438302
0.025099793 -0.010483824 -0.034796298 -0.033996865 -0.03276564 0.0060891234 0.0034996879 0.10919273
0.15184066 0.048513155 0.057901315 -0.014040136 0.04790741 0.0541919 0.033937994 0.027368667
-0.06364812 0.089510605 0.03092648 0.058854736 0.02343938 -0.017457766 0.088628106 0.016983487
0.086763576 -0.047888886 0.03536097 -0.042815596 -0.029028531 -0.11640047 0.039776728 0.060927603
-0.03016931 -0.004964161 0.046059385 0.04444746 0.063454084 -0.024415346 -0.0022310477 0.022265192
-0.023441203 0.0049964585 0.049116284 -0.04898631 0.05443534 0.031643074 0.045393407 0.06768136
-0.008279345 -0.030303143 0.050546072 0.0024240992 0.05065892 0.043104913 0.058644693 -0.0205948
0.0042095673 0.018588893 0.02451775 0.05745852 -0.043296225 -0.026451433 0.023783715 -0.020863324
-0.021812683 0.023457542 0.053996537 -0.0063101696 0.026061526 0.019645466 -0.0018936753 -0.14116606
-0.0026156607 0.025756871 -0.050343912 -0.02073803 0.015979702 -0.032631043 0.022284077 0.02905484
-0.03543402 -0.042380013 -0.031209042 0.102078706 0.03104214 -0.056855865 0.060918584 -0.04839278
-0.048327547 0.10615826 0.033929348 -0.016133126 0.057748582 -0.031654555 0.043105643 -0.026121018
0.007117534 -0.03681502 0.03997917 0.01632984 -0.013268724 0.007310471 0.017122589 0.016665567
-0.02764697 -0.007965556 0.0015922647 0.09661739 0.0012635393 0.029989317 0.002064187 0.008206989
0.002119087 -0.011405484 0.09096593 0.040846594 -0.03452879 -0.021922609 0.008321326 0.04700791
-0.07430473 0.011804174 0.07490115 0.09313872 -0.0072754542 -0.05628789 0.044568904 0.004727122
0.03496938 -0.013372409 0.015084809 -0.051870912 0.0518846 -0.015466615 -0.01151693 0.037343614
0.033222713 0.017335065 -0.02608134 0.033484407 0.041863706 0.04342105 0.014391685 -0.005515307
0.029532766 0.011585228 -0.033965882 0.112808734 -0.0012086377 0.013776602 -0.042566516 0.028431594
-0.028954087 0.00038275227 -0.020107096 0.011772459 0.039900772 -0.046617255 -0.056327898 -0.04434773
0.054191645 0.047548413 0.052769486 0.063274 -0.01581288 0.03191452 0.05982745 -0.05373805
-0.012626806 0.05713689 0.0535633 0.01776564 -0.04538399 0.080386266 0.04593619 -0.081444696
0.015087452 0.08188507 -0.03993373 -0.037043247 0.008966383 0.008363294 0.06265796 0.117070414
-0.005117294 0.03934998 0.01245492 0.00846142 -0.035573058 0.02213362 -0.021432191 0.0036208695
0.035022188 0.09486666 -0.009954457 -0.029593067 -0.051078368 -0.04789179 -0.062496133 0.017963601
00000000: 1cee 753d dcc9 803d 1ce5 3cbd b76b 00bd
00000010: bc64 18bd 3d18 82bc cf93 bcbb 39a6 ac3c
00000020: 0097 113d 72bb 60ba 654f 4abd f995 8c3c
00000030: 2bf2 f5bc 11d7 d93c ec69 823d 8948 4cbb
00000040: 0194 de3a a132 1abd 5488 8b3c 419a 70bb
00000050: 8bce eb3c 0378 41bd 5c29 dd3c 5376 a0ba
00000060: 5298 d63d d792 25bd a265 2f3d ddf4 0b3d
00000070: 6e4c 7bbd 8b34 4e3e 1df7 8fbc dd85 efbc
00000080: 441c 563d e609 88bb 6c31 3bbd c4d6 f03c
00000090: 426e 59bd 5bdd 513d 38e9 a73b 7d6a 403d
000000a0: 5afd 783d b64d b63c 5902 16bd 7424 cfbc
000000b0: dcea 07bd 3f13 30bd c9e6 febc 326f e23c
000000c0: 5c1a 5fbc 2ced ebbc 44e5 31bb 02e3 67bc
000000d0: e8b6 fe3c 64e0 ca3c 57e6 70bd 1fe2 5abd
000000e0: 159e cd3c 58c4 2bbc 9086 0ebd 4c40 0bbd
000000f0: 4435 06bd 4587 c73b 055b 653b 70a0 df3d
00000100: 1e7c 1b3e bbb5 463d ee29 6d3d 9908 66bc
00000110: 8f3a 443d 53f8 5d3d 9102 0b3d 4134 e03c
00000120: f259 82bd 5651 b73d 8859 fd3c aa11 713d
00000130: f103 c03c 9703 8fbc a782 b53d f420 8b3c
00000140: 1ab1 b13d 2327 44bd aad6 103d 685f 2fbd
00000150: 3ecd edbc 5f63 eebd ecec 223d 398f 793d
00000160: a125 f7bc 67aa a2bb c4a8 3c3d 8a0e 363d
00000170: 37f4 813d b102 c8bc c536 12bb 7e65 b63c
00000180: c407 c0bc 55b9 a33b 282e 493d dea5 48bd
00000190: 97f7 5e3d 2b9c 013d 70ee 393d 869c 8a3d
000001a0: 17a6 07bc 4c3e f8bc 6609 4f3d a3dd 1e3b
000001b0: ba7f 4f3d c78e 303d 6b35 703d 6db6 a8bc
000001c0: 69f0 893b bc47 983c 73d9 c83c a059 6b3d
000001d0: 6257 31bd adb0 d8bc 11d6 c23c 90e9 aabc
000001e0: 83b0 b2bc 082a c03c 792b 5d3d 8ac5 cebb
000001f0: fb7e d53c 87ef a03c 3335 f8ba d68d 10be
00000200: 816b 2bbb 1300 d33c 6b35 4ebd cde2 a9bc
00000210: dde7 823c 21a8 05bd 198d b63c 6a04 ee3c
00000220: 4323 11bd aa96 2dbd 1baa ffbc a40e d13d
00000230: 164c fe3c b2e1 68bd c485 793d 8237 46bd
00000240: 1bf3 45bd 8069 d93d 80f9 0a3d 9e29 84bc
00000250: c789 6c3d 35a8 01bd 8b8f 303d bffb d5bc
00000260: 343a e93b 59cb 16bd 33c1 233d 28c6 853c
00000270: 1065 59bc ad8c ef3b ac44 8c3c 3a86 883c
00000280: e67b e2bc f781 02bc 8ab3 d03a 57df c53d
00000290: 589d a53a 28ac f53c 5047 073b 9b76 063c
000002a0: 61e0 0a3b 11de 3abc 584c ba3d c24e 273d
000002b0: 0f6e 0dbd 0b97 b3bc 2c56 083c 5e8b 403d
000002c0: 142d 98bd 4b66 413c c665 993d 83bf be3d
000002d0: ef66 eebb 218e 66bd e28d 363d f9e5 9a3b
000002e0: 0d3c 0f3d f317 5bbc 4626 773c 9876 54bd
000002f0: f284 543d af67 7dbc 81b1 3cbc 9ef5 183d
00000300: 8a14 083d 4402 8e3c 89a8 d5bc f226 093d
00000310: 4779 2b3d 45da 313d 1acb 6b3c c0b9 b4bb
00000320: b3ee f13c f8cf 3d3c cf1f 0bbd 4408 e73d
00000330: 276b 9eba 42b7 613c 3a5a 2ebd 60e9 e83c
00000340: 1f31 edbc 24ac c839 a3b7 a4bc 46e1 403c
00000350: fe6e 233d bcf1 3ebd 15b8 66bd f7a5 35bd
00000360: 0ff8 5d3d 20c2 423d d124 583d cd95 813d
00000370: 038a 81bc cdb8 023d a10d 753d 6e1c 5cbd
00000380: aae0 4ebc 5f08 6a3d 3165 5b3d 3f89 913c
00000390: 90e4 39bd 8ea1 a43d 9627 3c3d 7acc a6bd
000003a0: 5c31 773c 5cb3 a73d 8d91 23bd a9ba 17bd
000003b0: bce7 123c 3306 093c d152 803d 9dc2 ef3d
000003c0: f9ae a7bb 722d 213d b90f 4c3c c5a1 0a3c
000003d0: 0eb5 11bd 9151 b53c 9092 afbc 1c4c 6d3b
000003e0: 6d73 0f3d 7449 c23d 0518 23bc 296d f2bc
000003f0: 8d37 51bd 2e2a 44bd f2fb 7fbd 6728 933c

layer4.bias f4 [128]
-0.02915725 0.061766017 0.055268064 -0.051736746 0.09150395 -0.02381513 -0.051228058 -0.07420489
0.14763616 0.13289678 0.020231644 0.093026005 -0.11807158 -0.07240862 0.09870402 -0.052621353
-0.0066722934 -0.022796027 0.13295227 0.0009681108 -0.041389443 -0.0497255 0.06301434 0.10637689
0.07591433 -0.064955115 0.01829854 0.1475563 0.011496203 -0.1400385 -0.09503639 0.06821041
0.006470877 -0.0058561284 -0.04658553 -0.034363482 -0.0715258 0.13080531 -0.054912366 -0.00095358625
-0.005792028 0.06603785 0.13734977 0.13124788 -0.00796377 -0.07362315 -0.12908292 -0.1065712
-0.06920355 -0.031740308 -0.0090708975 -0.021321053 -0.070846766 -0.01326667 -0.046855703 0.0028437346
-0.15049104 0.078708835 0.066602334 0.17037894 -0.060312863 -0.04870839 0.10516107 -0.03210749
0.114747636 0.12819356 0.1648678 0.15381184 0.10947685 0.15808454 -0.046694826 -0.051236432
0.00039470664 0.08094786 -0.06021388 -0.06297925 -0.047427494 0.077561945 -0.1456774 0.08760797
0.08309495 0.16872987 0.06798521 0.039342914 0.06043731 -0.045586597 0.05415337 -0.04251811
-0.052492455 0.1700802 0.020033328 -0.029005 -0.033837453 0.13409348 0.16643265 -0.031409435
0.080481656 -0.016984386 -0.12462865 -0.008133509 0.15889536 0.16056374 0.07330044 -0.05566314
0.12465875 0.024695242 0.15267092 0.15075214 0.07352498 -0.024813555 0.07852722 -0.007740935
-0.0055998843 -0.0037239064 -0.03949425 -0.054869384 -0.004989671 0.08950113 -0.010706126 0.0076645776
0.068901464 0.14050612 0.12064116 0.15714513 0.14682952 0.12533548 -0.020184333 0.09532331
00000000: 2fdb eebc 5dfe 7c3d c460 623d e9e9 53bd
00000010: 6c66 bb3d f317 c3bc 83d4 51bd bcf8 97bd
00000020: ef2d 173e 1816 083e d5bc a53c 6b84 be3d
00000030: 83cf f1bd f84a 94bd 5525 ca3d 7d89 57bd
00000040: 41a3 dabb bcbe babc a424 083e d1c8 7d3a
00000050: fa87 29bd f7ac 4bbd aa0d 813d 20dc d93d
00000060: f978 9b3d 3007 85bd d2e6 953c 0019 173e
00000070: 925a 3c3c 4166 0fbe 70a2 c2bd e6b1 8b3d
00000080: a709 d43b c4e4 bfbb 78d0 3ebd b9c0 0cbd
00000090: 1e7c 92bd d4f1 053e caeb 60bd 17fa 79ba
000000a0: 0dcb bdbb da3e 873d 6ba5 0c3e d865 063e
000000b0: 797a 02bc bcc7 96bd 502e 04be 0042 dabd
000000c0: 97ba 8dbd 2002 02bd 1a9e 14bc 7da9 aebc
000000d0: 1c18 91bd 725c 59bc c4eb 3fbd f35d 3a3b
000000e0: 531a 1abe 1932 a13d ce66 883d d177 2e3e
000000f0: 9f0a 77bd 7382 47bd b05e d73d 2583 03bd
00000100: cf00 eb3d 2c45 033e 1bd3 283e da80 1d3e
00000110: 6635 e03d eae0 213e 1343 3fbd 4bdd 51bd
00000120: a1f0 ce39 fec7 a53d d4a2 76bd 44fb 80bd
00000130: 5543 42bd ccd8 9e3d 752c 15be cf6b b33d
00000140: af2d aa3d 86c7 2c3e d43b 8b3d 0926 213d
00000150: 1d8d 773d 03b9 3abd edcf 5d3d 7827 2ebd
00000160: 5402 57bd 8129 2e3e ef1c a43c e59b edbc
00000170: 2499 0abd cd4f 093e 526d 2a3e 2ea7 00bd
00000180: 91d3 a43d d722 8bbc 4e3d ffbd 6942 05bc
00000190: 77b5 223e d26a 243e 8b1e 963d 08ff 63bd
000001a0: 164d ff3d ad4d ca3c c455 1c3e c55e 1a3e
000001b0: 4494 963d cc45 cbbc e1d2 a03d aba7 fdbb
000001c0: 3c7f b7bb c80c 74bb b9c4 21bd b8be 60bd
000001d0: 6580 a3bb 5e4c b73d bf68 2fbc 2327 fb3b
000001e0: 361c 8d3d d6e0 0f3e b612 f73d a7ea 203e
000001f0: 7a5a 163e f257 003e 9d59 a5bc de38 c33d

layer5.weight f4 [1, 128]
0.07225008 -0.05985327 -0.048006434 0.03831622 -0.0626975 0.07181118 0.07940171 0.03353081
-0.10399129 -0.10203888 0.12393519 -0.103653304 0.05362504 0.10813366 -0.089905165 0.02557235
0.06327623 0.082993805 -0.08860099 0.043186795 0.06557021 0.069203734 -0.08960045 -0.1063828
-0.11540985 0.07303201 0.075992964 -0.053109843 0.04525615 0.06758725 0.1100714 -0.08124794
-0.24688837 0.11656445 0.09552239 0.08364141 0.09163174 -0.08310437 0.057579566 0.0542077
0.120345354 -0.115028255 -0.10419182 -0.11447773 0.088506624 0.0037116692 0.056685943 0.011039618
0.016736496 0.09207652 -0.064442575 0.046536494 0.007224205 0.09571369 0.004947514 0.0028496669
0.068617806 -0.032352656 -0.046112325 -0.101032384 0.0035474286 0.021837333 -0.03132878 0.06759558
-0.033410694 -0.06333868 -0.03664502 -0.08102693 -0.086032055 -0.039807677 0.08434846 0.04520469
0.07852726 -0.040260877 0.097615264 0.012560023 -0.07079266 -0.08142242 0.05940282 -0.09399944
-0.07430143 -0.11414965 -0.10674329 0.03813126 -0.05671015 0.004560628 0.097771645 -0.2524388
0.04576028 -0.070424005 0.07995465 0.0054478054 -0.07453674 -0.073889844 -0.081291094 0.09372573
-0.04529255 0.112519436 0.023236815 0.06745808 -0.10525263 -0.08897768 -0.055869505 0.039608218
-0.05133407 0.044247217 -0.035358254 -0.112780996 -0.10736328 0.0469447 -0.114550106 0.09823918
0.05813739 0.060108226 0.036341373 0.058698755 0.03266564 -0.048947603 0.049447693 0.08057887
-0.030644313 -0.055807877 -0.06298791 -0.06309149 -0.02765507 -0.031225357 0.05711173 -0.076027736
00000000: daf7 933d b428 75bd 65a2 44bd 78f1 1c3d
00000010: 8c67 80bd bd11 933d 5d9d a23d 9a57 093d
00000020: 63f9 d4bd c3f9 d0bd bcd1 fd3d 2f48 d4bd
00000030: eea5 5b3d 2e75 dd3d 3320 b8bd 1b7d d13c
00000040: f896 813d a8f8 a93d 7074 b5bd a3e4 303d
00000050: ad49 863d b0ba 8d3d 7180 b7bd 3adf d9bd
00000060: 005c ecbd ce91 953d 33a2 9b3d b589 59bd
00000070: 835e 393d 2f6b 8a3d 1d6d e13d 5265 a6bd
00000080: 4ed0 7cbe 58b9 ee3d 3ea1 c33d 304c ab3d
00000090: 6ca9 bb3d a032 aabd 8dd8 6b3d e508 5e3d
000000a0: a077 f63d ef93 ebbd 8562 d5bd 4d73 eabd
000000b0: f642 b53d 7a3f 733b 852f 683d 84df 343c
000000c0: fa1a 893c 9d92 bc3d 78fa 83bd 0d9d 3e3d
000000d0: 06b9 ec3b 8a05 c43d c11e a23b 7ac1 3a3b
000000e0: 7e87 8c3d 3884 04bd 47e0 3cbd 11ea cebd
000000f0: fa7b 683b 35e4 b23c 9b52 00bd 8d6f 8a3d
00000100: a7d9 08bd b6b7 81bd 1719 16bd 72f1 a5bd
00000110: 9331 b0bd 600d 23bd e3be ac3d 8e28 393d
00000120: e6d2 a03d 97e8 24bd 83ea c73d 8ec8 4d3c
00000130: befb 90bd ccc0 a6bd 5f50 733d c782 c0bd
00000140: 592b 98bd 4bc7 e9bd 3a9c dabd 862f 1c3d
00000150: e748 68bd 5271 953b 803c c83d a93f 81be
00000160: 226f 3b3d 763a 90bd 43bf a33d 8183 b23b
00000170: b8a6 98bd 8f53 97bd f27b a6bd 47f3 bf3d
00000180: ae84 39bd 9770 e63d 225b be3c 7627 8a3d
00000190: b18e d7bd ee39 b6bd 6cd7 64bd 3a3c 223d
000001a0: ac43 52bd 923c 353d d1d3 10bd b9f9 e6bd
000001b0: 48e1 dbbd 1649 403d 3f99 eabd a031 c93d
000001c0: 7921 6e3d 0b34 763d b1da 143d 1b6e 703d
000001d0: 68cc 053d 487d 48bd aa89 4a3d 8906 a53d
000001e0: c809 fbbc cd96 64bd ceff 80bd 1c36 81bd
000001f0: e38c e2bc 52cc ffbc fded 693d 6eb4 9bbd
