PPO/ppo_actor.pth (torch, 549599 bytes, 10 tensors)

layer1.weight f4 [128, 29]
0.24909024 0.14743686 -0.15561712 -0.13962445 0.03445583 0.18272343 -0.09001661 -0.022182345
-0.18200077 -0.24763915 0.04013544 -0.06919088 0.06092596 -0.22859253 -0.08340007 0.06734588
-0.053518426 -0.0027972134 -0.012944978 0.21194668 0.15807866 -0.12021395 0.021100633 0.0056825876
0.16513291 -0.15225181 0.089667335 0.15975694 0.09584195 -0.07870761 0.12195086 0.16501214
-0.03924196 0.13136424 0.23740506 0.19083053 0.0063678096 0.055423383 0.10644672 -0.1526162
-0.16974331 -0.13488771 -0.14747933 -0.022612415 -0.08071922 -0.14938426 0.11542142 0.090180546
-0.044921573 0.11732518 0.11054034 0.1333653 0.17787871 0.14903331 -0.14041737 0.09424394
-0.045717515 -0.15320292 0.11391688 -0.14860298 -0.08574336 0.030204449 0.08562367 -0.19014272
-0.21042979 0.031489458 0.03116529 -0.08415513 -0.07973922 0.17079374 -0.14304745 0.0064643677
-0.121119015 -0.022686142 -0.07152059 -0.21219237 0.13970175 -0.0033675195 -0.006059253 -0.089150585
0.13380575 0.037610758 -0.059205044 0.010301185 -0.11028877 0.036406264 -0.11490036 -0.018766802
0.1367584 0.04030478 -0.10105562 -0.00016284926 0.03845175 0.109218664 0.17582873 -0.2013291
0.13930845 0.01923472 -0.14253148 0.014177766 -0.0031825267 0.028600648 -0.1504469 0.064304054
0.10106542 0.0058941925 -0.027093431 -0.063585825 -0.035250515 -0.12683517 0.09887783 -0.045043215
-0.19288242 0.017081859 0.1583158 0.103693634 0.09710695 -0.079152964 0.122349314 -0.0023730176
0.12071135 -0.10821757 0.12914437 0.04470466 0.09147505 -0.32413116 0.18929139 0.09444304
0.004063232 -0.007612801 -0.14256437 -0.14298974 0.16741496 0.1992175 0.033315517 -0.028801303
-0.19008468 -0.07981636 -0.046138186 -0.11240501 -0.15523586 -0.029194992 0.054570217 0.12833491
0.059114877 0.09038519 0.104594104 0.01619818 0.2041224 -0.20797098 0.18477504 -0.13430056
-0.014001269 0.13967554 0.30236396 0.07887575 0.006673761 0.015605361 -0.15763226 0.13761027
0.045982886 0.131187 0.071723536 -0.043856166 0.038502496 -0.15109627 -0.13149379 -0.11763276
0.112985216 0.04457327 -0.018006423 0.06875993 0.078558534 -0.15001157 0.044927415 0.13891537
0.070735306 -0.058902923 -0.046392933 -0.095580034 -0.007487259 0.3161187 0.101966 -0.25592014
0.00069571234 0.04032711 0.1620502 0.14379674 -0.06660234 0.09705813 -0.13628414 0.22744113
-0.06092068 0.07308393 -0.1567519 -0.01634648 -0.12766124 0.0033259355 -0.1549349 0.12464874
-0.056959912 -0.009670008 -0.018361378 0.1480596 0.06465977 0.13953073 0.19640371 0.10485313
-0.0042862557 0.12991595 0.031123256 -0.07591987 -0.34893638 -0.056932494 0.006603228 -0.017268188
-0.27837086 -0.05253699 -0.13044186 0.08868323 0.1764257 -0.052749574 -0.030103516 -0.10326984
-0.07715607 -0.0507084 0.02839713 -0.07672785 -0.079072125 -0.035153527 -0.11044249 -0.031316344
-0.18689819 -0.086406596 -0.037131976 -0.12661266 0.10795939 0.06865734 0.14260559 0.11805407
-0.0773586 -0.10450906 0.16724919 -0.08473135 0.1683582 0.17718536 -0.0667036 0.110162064
-0.087398306 -0.11967583 0.2615186 -0.21354449 -0.09691168 0.0995838 -0.033175785 -0.13084254
00000000: 8311 7f3e b0f9 163e 185a 1fbe b6f9 0ebe
00000010: 8e21 0d3d da1b 3b3e a15a b8bd c0b7 b5bc
00000020: 695e 3abe 1e95 7dbe 0f65 243d f3b3 8dbd
00000030: 808d 793d 2914 6abe a8cd aabd a3ec 893d
00000040: 2336 5bbd 7451 37bb 2c17 54bc 8d08 593e
00000050: 5fdf 213e bb32 f6bd 3cdb ac3c 0035 ba3b
00000060: 9a18 293e e6e7 1bbe 82a3 b73d 5397 233e
00000070: c948 c43d 7531 a1bd 5fc1 f93d f1f8 283e
00000080: 2dbc 20bd 5984 063e 501a 733e 1469 433e
00000090: 0fa9 d03b a103 633d bd00 da3d 6c47 1cbe
000000a0: 31d1 2dbe 0120 0abe d204 17be ac3d b9bc
000000b0: 1e50 a5bd 30f8 18be 1162 ec3d 94b0 b83d
000000c0: afff 37bd 2f48 f03d f962 e23d ea90 083e
000000d0: d625 363e 309c 183e 92c9 0fbe f802 c13d
000000e0: 4a42 3bbd 3ae1 1cbe 414d e93d 612b 18be
000000f0: 379a afbd 526f f73c 765b af3d c6b4 42be
00000100: e87a 57be 17fb 003d 5a4e ff3c 8659 acbd
00000110: 514e a3bd 8ee4 2e3e 087b 12be 0cd3 d33b
00000120: 3f0d f8bd 4ad8 b9bc 6379 92bd f548 59be
00000130: fa0d 0f3e 9ab1 5cbb b38c c6bb 9594 b6bd
00000140: 6004 093e bd0d 1a3d fd80 72bd 4dc6 283c
00000150: 14df e1bd bc1e 153d e150 ebbd d6bc 99bc
00000160: 650a 0c3e a016 253d 40f6 cebd 84c2 2ab9
00000170: 957f 1d3d 09ae df3d 720c 343e 3729 4ebe
00000180: e0a6 0e3e 2292 9d3c c6f3 11be dc49 683c
00000190: f091 50bb e84b ea3c c10e 1abe d8b1 833d
000001a0: 63fb ce3d 1224 c13b 0bf3 ddbc 4939 82bd
000001b0: d862 10bd 14e1 01be 7680 ca3d 3c7f 38bd
000001c0: f882 45be 41ef 8b3c 891d 223e 545d d43d
000001d0: 02e0 c63d f31a a2bd 4792 fa3d a184 1bbb
000001e0: 8337 f73d 2ca1 ddbd 6c3e 043e 3c1c 373d
000001f0: 4557 bb3d 85f4 a5be 9ad5 413e 5a6b c13d
00000200: dc24 853b ce74 f9bb 65fc 11be e76b 12be
00000210: d46e 2b3e acff 4b3e da75 083d b6f0 ebbc
00000220: 8fa5 42be c276 a3bd 65fb 3cbd 9934 e6bd
00000230: 26f6 1ebe 562a efbc 0585 5f3d 3a6a 033e
00000240: 7122 723d df1b b93d 6f35 d63d 0cb2 843c
00000250: 7605 513e 58f6 54be ab35 3d3e 1686 09be
00000260: 9465 65bc 1b07 0f3e 73cf 9a3e 9c89 a13d
00000270: 91af da3b a1ad 7f3c 5a6a 21be b5e9 0c3e
00000280: 8d58 3c3d e355 063e cae3 923d 86a2 33bd
00000290: cbb4 1d3d fbb8 1abe 4fa6 06be 72e9 f0bd
000002a0: cb64 e73d 7692 363d 3582 93bc 02d2 8c3d
000002b0: 4ce3 a03d a29c 19be cf05 383d d53f 0e3e
000002c0: acdd 903d 3144 71bd 8406 3ebd 77bf c3bd
000002d0: ae57 f5bb 4fda a13e 8dd3 d03d f707 83be
000002e0: 7760 363a 0a2e 253d 7df0 253e 743f 133e
000002f0: cf66 88bd 6ac6 c63d 128e 0bbe 54e6 683e
00000300: f787 79bd 07ad 953d 9283 20be 0ee9 85bc
00000310: a1b9 02be f0f7 593b 41a7 1ebe d747 ff3d
00000320: cc4e 69bd f46e 1ebc 9a6a 96bc f09c 173e
00000330: 576c 843d 25e1 0e3e 0e1e 493e 3dbd d63d
00000340: b873 8cbb b008 053e 33f6 fe3c e07b 9bbd
00000350: caa7 b2be 0c32 69bd e45f d83b 0476 8dbc
00000360: a086 8ebe 0731 57bd 8d92 05be 8e9f b53d
00000370: f0a8 343e f00f 58bd a69b f6bc 237f d3bd
00000380: 0004 9ebd 9cb3 4fbd 19a1 e83c 7e23 9dbd
00000390: 91f0 a1bd 25fd 0fbd ac2f e2bd 9145 00bd
000003a0: 3d62 3fbe f1f5 b0bd b317 18bd c0a6 01be
000003b0: d019 dd3d 389c 8c3d 3307 123e 55c6 f13d
000003c0: 306e 9ebd d908 d6bd 5f43 2b3e a187 adbd
000003d0: 1866 2c3e 1470 353e e69b 88bd a69c e13d
000003e0: e2fd b2bd 9a18 f5bd c4e5 853e 68ab 5abe
000003f0: a279 c6bd 97f2 cb3d 55e3 07bd 96fb 05be

layer1.bias f4 [128]
0.1757485 -0.17692846 0.15597077 -0.08361455 0.03074025 0.19494304 -0.08241302 -0.020788394
0.14691986 -0.11977485 -0.019945927 -0.058885682 -0.09625635 -0.06833845 0.1693234 -0.075281955
0.14960426 -0.05378087 0.046715286 0.10238672 0.08580415 -0.058153376 -0.0737329 0.20118359
0.10637683 -0.0034861097 0.18249057 -0.09750228 -0.013343051 0.15837263 0.0028376179 0.107273586
0.16596328 0.04701131 0.074778974 0.13162562 0.15415454 0.005787741 0.0928824 0.08903699
-0.10750385 0.1611575 -0.102855586 -0.058865216 -0.08659823 -0.010025974 0.022400256 0.07127039
-0.14221491 0.0014389362 -0.0016787911 -0.029428368 0.013526507 -0.030039493 0.11515576 0.120936885
-0.12003515 -0.046629347 -0.1379161 -0.08305147 -0.119817756 0.006568447 -0.038423717 0.1462762
0.027297067 -0.044072405 0.07098458 -0.16519529 0.07599851 -0.062126946 -0.071510926 0.0533184
0.022789065 -0.19030085 0.062767126 -0.09593576 -0.06937927 0.024977105 0.0010812961 0.18509755
0.008817389 -0.051248647 0.1511275 -0.028753366 0.06868244 -0.010294589 -0.0829 -0.17394134
0.13334979 0.027771888 -0.019432314 -0.09235356 0.04527274 0.20857182 0.16100375 -0.08611466
0.19356614 -0.0528436 0.10137576 0.11977577 0.14211814 -0.14369895 -0.039695382 -0.15376207
-0.14751695 0.173715 0.029762704 -0.020201115 0.1260586 -0.13862973 0.0734678 0.1405498
0.17843243 -0.120095626 -0.14152731 0.11740569 0.018995633 -0.060767468 -0.12797454 0.04342204
0.09704744 -0.18268716 -0.036047358 -0.08060772 -0.104687124 -0.03762164 -0.1769814 -0.18993238
00000000: 6af7 333e bc2c 35be cdb6 1f3e 1b3e abbd
00000010: fad2 fb3c 269f 473e 28c8 a8bd 6c4c aabc
00000020: 2972 163e 844c f5bd a465 a3bc 1d32 71bd
00000030: 0d22 c5bd 07f5 8bbd 1d63 2d3e 6d2d 9abd
00000040: dc31 193e 5449 5cbd 8758 3f3d 21b0 d13d
00000050: 16ba af3d 3c32 6ebd 4601 97bd 1203 4e3e
00000060: 18dc d93d 3777 64bb cfde 3a3e 46af c7bd
00000070: d09c 5abc 6f2c 223e 54f7 393b 41b2 db3d
00000080: 47f2 293e ee8e 403d b825 993d dec8 063e
00000090: b0da 1d3e 17a7 bd3b 2139 be3d 0759 b63d
000000a0: fa2a dcbd 7906 253e f3a5 d2bd a71c 71bd
000000b0: 6a5a b1bd fc43 24bc be80 b73c 36f6 913d
000000c0: c9a0 11be b09a bc3a e20a dcba c313 f1bc
000000d0: 489e 5d3c 6215 f6bc c8d6 eb3d c2ad f73d
000000e0: fdd4 f5bd 6afe 3ebd e139 0dbe e416 aabd
000000f0: 0363 f5bd 213c d73b 3062 1dbd 6ec9 153e
00000100: 199e df3c 4485 34bd 5d60 913d f428 29be
00000110: 1ba5 9b3d d378 7ebd 5274 92bd 6564 5a3d
00000120: 22b0 ba3c 3ade 42be 0d8c 803d f879 c4bd
00000130: b816 8ebd c99c cc3c 47ba 8d3a 368a 3d3e
00000140: cf76 103c 1aea 51bd 2bc1 1a3e 2e8c ebbc
00000150: 61a9 8c3d a3aa 28bc 7ac7 a9bd ae1d 32be
00000160: d98c 083e df81 e33c 8430 9fbc dd23 bdbd
00000170: e96f 393d da93 553e 2bde 243e e25c b0bd
00000180: 3436 463e 8872 58bd 189e cf3d 004d f53d
00000190: 6b87 113e d125 13be a097 22bd ce73 1dbe
000001a0: af0e 17be 58e2 313e ead0 f33c cf7c a5bc
000001b0: 8115 013e f4f4 0dbe 4976 963d 49ec 0f3e
000001c0: feb6 363e b2f4 f5bd 89ec 10be 6572 f03d
000001d0: bb9c 9b3c 4fe7 78bd c20b 03be 4fdb 313d
000001e0: cfc0 c63d 5812 3bbe 65a6 13bd a915 a5bd
000001f0: 3466 d6bd 2619 1abd 9d3a 35be a27d 42be

layer2.weight f4 [256, 128]
-0.11489448 -0.05992765 -0.03064735 -0.11435123 0.03979874 -0.0374131 -0.00461949 -0.06981704
0.10087217 -0.061247535 -0.09841859 -0.09027299 0.06645204 -0.053428624 -0.03668731 -0.09266384
0.07473568 -0.0068036267 0.015673043 -0.04305134 0.05791829 -0.028613254 -0.090969875 0.011118609
0.044337608 0.031144606 -0.14463241 -0.10336356 -0.0007115326 0.026121082 -0.03953541 0.04613461
0.057273973 -0.09721057 -0.0003445342 -0.02383428 -0.027763447 0.0277823 0.07995845 -0.05997813
0.039273653 -0.04482795 0.031557713 0.037471514 0.045480587 -0.07943771 0.044731822 -0.027829306
-0.054470602 -0.04618733 -0.022042025 -0.036938366 0.05783627 0.07819517 -0.008105138 -0.0022490723
0.06368286 -0.017017383 -0.01653777 -0.07373964 -0.07291944 -0.029480936 0.04026634 -0.028722562
0.082616635 0.0066851 0.0707341 -0.106340826 0.017819878 -0.07376215 -0.048168346 -0.086616315
-0.0014708 0.06502001 -0.05975759 0.063703045 -0.14302282 -0.022295333 0.07900613 0.010899568
0.077197194 -0.016177462 0.044232853 0.043310415 -0.0545305 -0.04185608 -0.027244609 0.015136781
0.0975216 0.056081966 0.03661166 0.028089143 -0.019457635 0.0019643349 0.06374449 0.016399436
-0.022659967 0.046511732 0.020685023 -0.003759187 0.08174116 0.03509473 -0.045607075 0.002035579
-0.010158853 -0.007558559 0.03693061 0.041083757 -0.043041553 0.049475618 0.028206892 0.0379444
0.0023994753 -0.09466452 0.024604518 0.059445683 0.03517656 0.053052478 0.011422295 -0.081100754
-0.08268413 -0.015086518 -0.0474057 -0.053148538 -0.0874075 0.0832031 0.08796584 0.04399354
-0.03763981 0.013692247 -0.058586624 -0.032485384 -0.03202648 0.04012784 0.0028753253 -0.04987812
-0.025280742 0.07542507 0.0002141748 0.03571538 0.078131385 -0.051112235 -0.07975274 0.065962985
0.019678012 -0.05550239 -0.067766875 0.06658531 -0.078004 0.02839625 0.010568779 0.020880405
0.032982606 0.07541122 0.066343516 -0.0438118 0.09537699 0.04690145 0.06326562 0.033253685
0.032868672 0.036238674 -0.0114980815 -0.0036588924 0.078328356 0.016242541 0.012745625 0.014049336
0.008577036 -0.1260333 0.019795187 0.062180266 0.09990717 0.06752081 -0.07818992 0.08399701
0.08307876 -0.04513856 -0.023636885 -0.032710984 -0.07162039 0.01939011 0.026562002 -0.082420684
0.073507905 0.10184058 0.07848875 0.12242798 0.067712374 -0.036840145 0.037143543 -0.07050032
-0.114834175 -0.029214038 -0.023411166 -0.0021975834 -0.06762153 0.07755095 -0.013444525 0.017893272
-0.1153855 -0.04806932 -0.012537726 -0.10851608 -0.081876904 0.01630873 -0.02121725 -0.016648317
0.021566369 0.05191706 0.10603372 -0.049424715 0.011296674 -0.07735556 -0.0072379163 0.059333995
-0.07618748 -0.018613402 -0.025597556 0.084902145 0.09914638 0.06988612 -0.050965484 0.019080168
0.014596804 0.018405743 0.041821927 -0.040290635 -0.060268827 0.023573568 -0.00534692 0.0829944
-0.047689993 0.025476636 0.05217279 0.057184767 0.056845985 -0.0006363333 -0.019524708 0.062404584
0.040118933 -0.06411828 -0.07005541 -0.0017430427 0.0110329315 -0.089969926 0.040648848 0.0169576
-0.10439938 -0.1204431 0.068725996 0.007597116 -0.038582508 0.023345808 -0.042691775 -0.077856444
00000000: cc4d ebbd b276 75bd 2710 fbbc fa30 eabd
00000010: 0104 233d 7b3e 19bd 175f 97bb 3cfc 8ebd
00000020: 1196 ce3d b2de 7abd b08f c9bd 0ce1 b8bd
00000030: 0218 883d f9d7 5abd 6f45 16bd 8ac6 bdbd
00000040: 050f 993d f5f0 debb c164 803c 9a56 30bd
00000050: bb3b 6d3d 5866 eabc 6a4e babd d42a 363c
00000060: 5a9b 353d f922 ff3c 851a 14be 46b0 d3bd
00000070: 2586 3aba e1fb d53c e2ef 21bd a5f7 3c3d
00000080: 1d98 6a3d 5616 c7bd 99a2 b4b9 1c40 c3bc
00000090: 2b70 e3bc b597 e33c 41c1 a33d a1ab 75bd
000000a0: 69dd 203d 839d 37bd a942 013d bb7b 193d
000000b0: da49 3a3d 3db0 a2bd b738 373d 49fa e3bc
000000c0: 911c 5fbd ed2e 3dbd 7a91 b4bc af4c 17bd
000000d0: bae5 6c3d ca24 a03d 6acb 04bc 2c65 13bb
000000e0: 296c 823d 0a68 8bbc 387a 87bc cf04 97bd
000000f0: ca56 95bd 0182 f1bc 51ee 243d 944b ebbc
00000100: e932 a93d af0e db3b 0add 903d 38c9 d9bd
00000110: fefa 913c 9c10 97bd 2c4c 45bd e563 b1bd
00000120: dcc7 c0ba 3629 853d 60c4 74bd be76 823d
00000130: 9374 12be b4a4 b6bc f7cd a13d 1a94 323c
00000140: 9019 9e3d 9986 84bc 822d 353d 4366 313d
00000150: 605b 5fbd 4871 2bbd 1630 dfbc 4300 783c
00000160: 68b9 c73d 34b6 653d 1cf6 153d 341b e63c
00000170: 9e65 9fbc 12bc 003b 798c 823d 1c58 863c
00000180: 65a1 b9bc 1683 3e3d a373 a93c b15c 76bb
00000190: e967 a73d 7ebf 0f3d 7cce 3abd 5967 053b
000001a0: 5171 26bc caad f7bb 8d44 173d 7147 283d
000001b0: 574c 30bd f2a6 4a3d 2412 e73c 966b 1b3d
000001c0: 8440 1d3b 79df c1bd 6a8f c93c 517d 733d
000001d0: 4c15 103d 8e4d 593d 9424 3b3c 2718 a6bd
000001e0: 4c56 a9bd 712d 77bc 7b2c 42bd 48b2 59bd
000001f0: b402 b3bd 6366 aa3d 6f27 b43d 9232 343d
00000200: 342c 1abd 7255 603c 87f8 6fbd 650f 05bd
00000210: 332e 03bd 175d 243d f46f 3c3b 004d 4cbd
00000220: 8f19 cfbc 7678 9a3d 1c94 6039 4a4a 123d
00000230: 5903 a03d 105b 51bd 6855 a3bd 9a17 873d
00000240: c833 a13c 7956 63bd 5cc9 8abd e15d 883d
00000250: 90c0 9fbd 419f e83c ac28 2d3c 620d ab3c
00000260: c518 073d 3371 9a3d 1cdf 873d 0174 33bd
00000270: 0355 c33d bc1b 403d 6891 813d 0435 083d
00000280: 4da1 063d 016f 143d 7362 3cbc 07ca 6fbb
00000290: 9e6a a03d 140f 853c 07d3 503c 302f 663c
000002a0: b286 0c3c e00e 01be 8429 a23c bcb0 7e3d
000002b0: 219c cc3d 5a48 8a3d 0922 a0bd a006 ac3d
000002c0: 3225 aa3d 36e3 38bd 24a2 c1bc f4fb 05bd
000002d0: b6ad 92bd 02d8 9e3c 8e98 d93c 2dcc a8bd
000002e0: 508b 963d cb91 d03d b6be a03d 85bb fa3d
000002f0: c9ac 8a3d b1e5 16bd d423 183d 7962 90bd
00000300: 2e2e ebbd 4752 efbc c6c8 bfbc 5505 10bb
00000310: 287d 8abd 08d3 9e3d 6d46 5cbc e994 923c
00000320: 3c4f ecbd 56e4 44bd 096b 4dbc ae3d debd
00000330: 14af a7bd e399 853c cccf adbc 0d62 88bc
00000340: f4ab b03c fca6 543d 3528 d93d 9271 4abd
00000350: af15 393c 986c 9ebd 0b2c edbb 3408 733d
00000360: 2e08 9cbd 227b 98bc f7b1 d1bc 2de1 ad3d
00000370: 420d cb3d 7420 8f3d 2fc1 50bd 034e 9c3c
00000380: 6f27 6f3c a4c7 963c 784d 2b3d cb07 25bd
00000390: 72dc 76bd 5b1d c13c 3735 afbb f8f8 a93d
000003a0: 9556 43bd 61b4 d03c 23b3 553d 933a 6a3d
000003b0: 56d7 683d 9bcf 26ba 48f2 9fbc f39b 7f3d
000003c0: c053 243d 7250 83bd 3679 8fbd cf76 e4ba
000003d0: 78c3 343c 2742 b8bd 687f 263d aaea 8a3c
000003e0: 58cf d5bd dfaa f6bd 37c0 8c3d 3af1 f83b
000003f0: b108 1ebd b53f bf3c 92dd 2ebd 3373 9fbd

layer2.bias f4 [256]
-0.03209671 -0.0033228612 0.066082954 0.014014821 0.028638287 0.07116545 0.14914903 0.10144863
0.10635548 -0.013379308 0.062321536 -0.019348638 -0.029654974 0.079382405 0.075762354 -0.02161239
0.073999055 0.09663544 0.026221456 0.071305655 0.061605584 -0.052611675 -0.039161365 -0.07412152
0.04314243 -0.061540417 -0.040723253 -0.079005145 -0.046904687 0.036097378 0.0700369 -0.04147016
0.0296138 0.0725459 0.080612905 0.017038113 -0.08408693 0.07823589 -0.073627025 0.09433829
-0.0865885 0.0060486603 0.05498441 0.094377354 -0.027773213 0.08166634 0.06473194 0.09288775
-0.043611288 0.071757466 -0.006670048 -0.04449021 0.047206964 -0.095036745 -0.0320403 -0.028149238
0.09861112 0.024134703 -0.06803528 -0.083942674 0.03568741 0.07994202 0.10416604 0.094381765
0.06844332 -0.021659348 0.09932462 -0.039091855 -0.057973683 -0.08185452 0.006069947 0.016156744
0.05027968 0.043809798 -0.090861715 0.036683172 -0.023078244 0.054702837 -0.08727951 -0.029438606
0.0716869 0.07822468 -0.06808065 -0.05796983 -0.0019297829 0.09188332 -0.05303325 -0.028274668
-0.0067873914 -0.03165336 0.06501499 0.00469235 -0.045460977 0.047301807 -0.028694252 0.059949737
0.05900012 -0.053250905 0.049964037 -0.04632739 -0.052773498 -0.022371817 -0.05160582 -0.030219652
-0.056239955 -0.0341654 0.04532263 0.09043623 -0.05056614 -0.027670931 -0.023998197 -0.119940676
-0.059744857 0.08151567 -0.041080758 -0.060406003 0.016192785 -0.07808193 0.04577743 0.03985068
-0.010655009 0.08199933 0.038315095 -0.08507084 0.058293026 -0.042149365 -0.04386331 0.0156108625
0.024876243 0.030997012 0.056651123 0.13441327 0.058026507 -0.061059646 0.07009951 0.0038920764
0.01597911 0.100357205 0.05844359 0.09283907 0.08861962 -0.04456822 -0.016272644 -0.015640896
-0.030938294 -0.0057361424 -0.013366655 0.10571771 0.02891863 0.009647457 -0.03891918 0.066942744
-0.0040014004 -0.017653752 0.1051857 -0.08008801 -0.06689142 -0.085876 0.02551312 0.08321779
0.08957243 -0.06779961 -0.036125794 -0.038397677 0.049920116 0.09133841 0.114418425 0.059109006
-0.047824066 0.006559101 -0.017204918 0.017750842 -0.048294764 0.10241675 -0.04335578 0.11165594
-0.08950478 0.013365656 0.029156836 0.1173789 -0.013997539 0.0824988 -0.059150692 -0.06660075
-0.07607897 -0.057075016 -0.043803357 0.012009247 -0.055924587 -0.05184658 0.053531684 -0.040959474
0.070054315 0.1307953 -0.07106202 -0.060959533 0.061924946 0.101430625 -0.03023312 -0.05300155
0.11762752 -0.017023822 0.017213603 -0.08843646 0.033155866 0.037524328 -0.033557788 0.0047035837
0.007792334 -0.040882904 -0.06999243 0.11111726 -0.032489855 -0.024436172 -0.09094599 -0.07960016
0.11038175 -0.05600487 0.0030166127 0.05463992 -0.02072426 -0.10915251 0.008393178 0.08274553
0.0012797995 -0.08735855 -0.015083742 -0.004308086 -0.05926293 0.085791424 -0.05989235 0.056062933
-0.08054679 0.13677374 0.050470132 -0.002341082 0.067199245 0.069241226 -0.0230928 -0.110673964
-0.063311 0.08159794 -0.038407814 0.047560763 -0.0027419794 0.08351648 0.01891067 0.014817017
-0.048624244 -0.025988096 0.021791888 -0.06756883 -0.027711375 0.036380887 -0.017479634 0.051596157
00000000: d777 03bd 5cc4 59bb 8056 873d 6b9e 653c
00000010: d79a ea3c 31bf 913d 86ba 183e 4dc4 cf3d
00000020: e7d0 d93d e334 5bbc de44 7f3d 0981 9ebc
00000030: fdee f2bc 3e93 a23d 4b29 9b3d 780c b1bc
00000040: d18c 973d cde8 c53d 61ce d63c b308 923d
00000050: 2356 7c3d 577f 57bd ab67 20bd 06cd 97bd
00000060: 1eb6 303d ce11 7cbd 6dcd 26bd 73cd a1bd
00000070: 211f 40bd d8da 133d 826f 8f3d 9ddc 29bd
00000080: a498 f23c f292 943d 6118 a53d 8393 8b3c
00000090: c535 acbd 233a a03d c4c9 96bd 6f34 c13d
000000a0: 5055 b1bd d733 c63b 5537 613d ea48 c13d
000000b0: a684 e3bc af40 a73d 2e92 843d ef3b be3d
000000c0: c0a1 32bd 94f5 923d 6b90 dabb 5e3b 36bd
000000d0: 175c 413d a0a2 c2bd b13c 03bd 3b99 e6bc
000000e0: a0f4 c93d 24b6 c53c 1556 8bbd 23ea abbd
000000f0: f62c 123d a4b8 a33d 0155 d53d 3a4b c13d
00000100: 032c 8c3d f26e b1bc b56a cb3d c81e 20bd
00000110: d075 6dbd 58a3 a7bd 68e6 c63b 265b 843c
00000120: 11f2 4d3d e771 333d b515 babd 1841 163d
00000130: 960e bdbc 1510 603d 9abf b2bd 3b29 f1bc
00000140: 95d0 923d 4334 a03d de6d 8bbd c671 6dbd
00000150: c5f0 fcba 522d bc3d 6539 59bd 47a0 e7bc
00000160: c468 debb f4a6 01bd 9426 853d 49c2 993b
00000170: 4a35 3abd 8abf 413d 3510 ebbc db8d 753d
00000180: 1caa 713d 9f1d 5abd 17a7 4c3d cac1 3dbd
00000190: 0629 58bd 1a45 b7bc a060 53bd 348f f7bc
000001a0: de5b 66bd 05f1 0bbd 39a4 393d a136 b93d
000001b0: 711e 4fbd 26ae e2bc de97 c4bc 75a3 f5bd
000001c0: 06b7 74bd b0f1 a63d 4c44 28bd 496c 77bd
000001d0: bba6 843c 6be9 9fbd 1d81 3b3d 773a 233d
000001e0: 5992 2ebc 44ef a73d 4af0 1c3d 9f39 aebd
000001f0: abc4 6e3d d0a4 2cbd 04aa 33bd b4c4 7f3c
00000200: 43c9 cb3c 72ed fd3c 020b 683d a2a3 093e
00000210: 34ad 6d3d ae19 7abd 5590 8f3d 3512 7f3b
00000220: 9fe6 823c 1488 cd3d 8c62 6f3d 6922 be3d
00000230: 347e b53d 2a8d 36bd 354e 85bc 5621 80bc
00000240: 4e72 fdbc 40f6 bbbb d1ff 5abc 8782 d83d
00000250: c3e6 ec3c 5e10 1e3c b869 1fbd 4719 893d
00000260: 2e1e 83bb 9a9e 90bc 9a6b d73d 2f05 a4bd
00000270: 5efe 88bd c2df afbd e400 d13c 176e aa3d
00000280: c071 b73d 86da 8abd a4f8 13bd e246 1dbd
00000290: 0979 4c3d a20f bb3d 3554 ea3d 491c 723d
000002a0: 2be3 43bd baed d63b 54f1 8cbc 376a 913c
000002b0: bbd0 45bd dfbf d13d d595 31bd dfab e43d
000002c0: 484e b7bd a0fb 5a3c 51da ee3c 5964 f03d
000002d0: ef55 65bc 21f5 a83d ff47 72bd f965 88bd
000002e0: 4bcf 9bbd 7ec7 69bd 266b 33bd 6fc2 443c
000002f0: 2e11 65bd 145d 54bd 0a44 5b3d 1fc5 27bd
00000300: a378 8f3d 34ef 053e f788 91bd b4b0 79bd
00000310: 03a5 7d3d dcba cf3d 73ab f7bc 2718 59bd
00000320: b2e6 f03d 8b75 8bbc 8b03 8d3c 2d1e b5bd
00000330: 72ce 073d 1cb3 193d e473 09bd 8520 9a3b
00000340: d656 ff3b d574 27bd 3158 8fbd 7291 e33d
00000350: 1514 05bd 5e2e c8bc e441 babd 6905 a3bd
00000360: d40f e23d 5d65 65bd 5db2 453b 1cce 5f3d
00000370: ecc5 a9bc 5a8b dfbd 8a83 093c 7d76 a93d
00000380: f2be a73a 0ae9 b2bd cd21 77bc d82a 8dbb
00000390: b0bd 72bd 6ab3 af3d ae51 75bd 3fa2 653d
000003a0: b7f5 a4bd 6a0e 0c3e c5b9 4e3d d76c 19bb
000003b0: c29f 893d 58ce 8d3d 1d2d bdbc 08a9 e2bd
000003c0: 33a9 81bd d21c a73d 8351 1dbd 13cf 423d
000003d0: c8b2 33bb b00a ab3d 8dea 9a3c 13c3 723c
000003e0: 372a 47bd fde4 d4bc e784 b23c 8761 8abd
000003f0: f702 e3bc 2004 153d 7331 8fbc 7e56 533d

layer3.weight f4 [256, 256]
-0.022706874 -0.040670343 -0.010246294 -0.03959058 0.073411226 -0.03383248 -0.0024114545 -0.07152271
-0.05175347 0.00020767805 -0.024327295 -0.0042362814 -0.09994543 0.011116163 -0.011095425 0.062178478
0.0466565 -0.05002259 -0.040642567 -0.0376024 0.08116903 0.016252432 -0.0007577178 -0.016155872
-0.03276111 -0.043297794 -0.05131797 0.032719634 0.010623259 -0.023850024 -0.044457436 0.008713147
0.012698932 -0.02492714 0.05897863 -0.049382467 -0.10565872 0.0021699558 0.008312871 -0.044768445
0.020814078 -0.033257823 0.045939215 -0.050918166 0.017632017 0.02507646 0.020064896 -0.051992454
-0.0072716554 -0.047396068 -0.03691788 0.010548889 -0.05967236 0.052704312 -0.0775189 -0.07732221
0.043344963 0.03485908 0.044278316 0.0121152075 -0.05364047 -0.012769995 0.011341284 -0.07395625
0.065436736 0.005674025 0.048059292 0.037162356 -0.10689949 0.0114439195 -0.047756776 0.030937858
-0.027600102 0.06486949 -0.035303168 0.08295966 0.06156964 -0.026636947 -0.026931442 -0.0712389
-0.05070764 -0.0013751693 -0.009922853 -0.03858704 -0.05699801 0.04940135 0.02262581 -0.04599094
-0.034549963 -0.007145115 -0.025763866 0.06302671 0.08278457 -0.01784201 -0.037600107 0.024437318
0.014914091 0.029995525 0.024777217 -0.0015993307 0.019096473 -0.051027056 -0.0015781422 -0.020416351
0.035133664 -0.005857383 -0.019521514 0.002802176 -0.057113238 -0.06455276 0.04713027 0.049390033
0.025499692 0.007272829 -0.0472382 0.054439068 -0.022563793 -0.022169618 0.092609175 -0.037946284
-0.0550389 0.03223637 0.032466948 0.05065532 0.048501097 -0.006053168 -0.00863059 -0.011820513
0.06985491 -0.081166364 -0.052413523 -0.022030264 0.06364918 -0.064999424 0.073188916 0.03219394
0.07114041 0.0073373434 0.06376224 0.071814485 0.042597752 0.010102175 0.040237997 -0.0381962
-0.035591766 0.061219897 0.013881431 0.0352166 0.04511043 -0.017725071 -0.020523196 0.05043369
0.00253261 0.050176356 0.07560408 0.07707825 0.037024792 0.028595276 -0.007490083 -0.06821899
-0.03163931 0.045385752 -0.008619029 0.020890255 -0.010001467 0.05380093 -0.06605796 -0.03433872
-0.05533669 0.010703263 0.042768348 0.0567609 0.0044409907 0.002705675 0.043625683 -0.047056608
-0.0016010108 -0.031778358 -0.07748908 0.037781008 -0.012233259 -0.039054066 -0.004076651 0.01239681
0.010925712 -0.037138548 0.09480455 0.015553977 0.03201008 0.03038125 0.045324445 -0.05761985
0.032426864 -0.043570194 0.00873974 0.04396202 0.03187117 0.0021141148 0.028712666 0.007321476
0.058812443 0.08598667 0.0075036027 -0.014993549 0.06316434 0.09154806 -0.016304808 -0.059457466
0.07864364 -0.027275125 -0.014502532 -0.016056662 -0.058493875 -0.0067571187 -0.0057369717 -0.03860282
-0.0104923025 -0.0044898055 -0.018926611 0.07626762 -0.009968665 0.04682771 -0.070536144 -0.0029252989
0.073955484 0.010426535 0.033176683 0.010779024 0.064153716 -0.020421473 -0.0265815 -0.041156296
-0.030948702 -0.036554046 0.069519475 -0.06752925 0.053594552 -0.028706396 -0.037299726 -0.020177843
-0.0008972252 0.051082864 -0.0001792242 -0.038447216 0.01341704 -0.082018405 -0.0682723 -0.011471182
0.06081748 0.07504228 -0.013216481 -0.033671774 -0.033417754 -0.0032201868 0.0047385604 0.030778024
00000000: c403 babc f295 26bd 12e0 27bc bb29 22bd
00000010: a058 963d ed93 0abd 7e09 1ebb 807a 92bd
00000020: 72fb 53bd 27c4 5939 094a c7bc 81d0 8abb
00000030: 31b0 ccbd 9120 363c 96c9 35bc dcae 7e3d
00000040: e31a 3f3d 7de4 4cbd d278 26bd f904 1abd
00000050: f33b a63d d223 853c 95a1 46ba 5259 84bc
00000060: 8430 06bd 0759 31bd cb32 52bd 0605 063d
00000070: 2d0d 2e3c 2061 c3bc 0019 36bd 96c1 0e3c
00000080: 2e0f 503c 0034 ccbc 9393 713d 4545 4abd
00000090: 9963 d8bd d135 0e3b b532 083c 1e5f 37bd
000000a0: 4982 aa3c 5b39 08bd c22a 3c3d 918f 50bd
000000b0: 0571 903c 266d cd3c 235f a43c 0af6 54bd
000000c0: 1147 eebb 6122 42bd 3437 17bd 3fd5 2c3c
000000d0: 016b 74bd 7ae0 573d 3bc2 9ebd 1b5b 9ebd
000000e0: 7d8a 313d 65c8 0e3d 2e5d 353d dd7e 463c
000000f0: 1cb6 5bbd 3e39 51bc cbd0 393c 6076 97bd
00000100: b203 863d 2ced b93b d2d9 443d 8e37 183d
00000110: 1fee dabd 477f 3b3c 9c9c 43bd 6471 fd3c
00000120: 9c19 e2bc 4cda 843d 0e9a 10bd c1e6 a93d
00000130: 7230 7c3d ba35 dabc 549f dcbc b3e5 91bd
00000140: d0b2 4fbd 063f b4ba 7693 22bc 720d 1ebd
00000150: bf76 69bd 1259 4a3d c359 b93c ff60 3cbd
00000160: 4384 0dbd 9221 eabb be0e d3bc 2614 813d
00000170: f58a a93d 6829 92bc 9202 1abd c530 c83c
00000180: 3b5a 743c 2db9 f53c 97f9 ca3c a2a0 d1ba
00000190: 3570 9c3c bf01 51bd aad9 ceba 3140 a7bc
000001a0: 51e8 0f3d 4aef bfbb 95eb 9fbc b6a4 373b
000001b0: 92ef 69bd 3d34 84bd ac0b 413d 344d 4a3d
000001c0: bbe4 d03c e950 ee3b d87c 41bd 80fb 5e3d
000001d0: b4d7 b8bc 0f9d b5bc e1a9 bd3d 906d 1bbd
000001e0: 7870 61bd 490a 043d 10fc 043d f47b 4f3d
000001f0: 16a9 463d a759 c6bb 5167 0dbc d3aa 41bc
00000200: 1710 8f3d 8d3a a6bd 90af 56bd d078 b4bc
00000210: 805a 823d 6b1e 85bd 12e4 953d cbdd 033d
00000220: 10b2 913d 196e f03b c795 823d 7913 933d
00000230: fb7a 2e3d 9883 253c 99d0 243d 9e73 1cbd
00000240: acc8 11bd b7c1 7a3d f16e 633c 483f 103d
00000250: b7c5 383d 2b34 91bc 4320 a8bc 8f93 4e3d
00000260: 25fa 253b b985 4d3d 50d6 9a3d 34db 9d3d
00000270: 4fa7 173d a440 ea3c 5f6f f5bb 66b6 8bbd
00000280: 3998 01bd 69e6 393d d436 0dbc 0a22 ab3c
00000290: 31dd 23bc 5d5e 5c3d 6549 87bd c2a6 0cbd
000002a0: baa8 62bd bd5c 2f3c dd2d 2f3d 1e7e 683d
000002b0: bb85 913b b251 313b d8b0 323d 6ebe 40bd
000002c0: 02d9 d1ba 062a 02bd 98b2 9ebd 42c0 1a3d
000002d0: 026e 48bc 28f7 1fbd 6d95 85bb fd1b 4b3c
000002e0: c201 333c 971e 18bd e328 c23d 1cd6 7e3c
000002f0: 001d 033d 19e2 f83c 20a6 393d cb02 6cbd
00000300: 08d2 043d a976 32bd 2031 0f3c 8511 343d
00000310: 588b 023d f68c 0a3b d336 eb3c fee8 ef3b
00000320: 51e5 703d c719 b03d c8e0 f53b 81a7 75bc
00000330: 4e5c 813d 8d7d bb3d a991 85bc ac89 73bd
00000340: eb0f a13d 1570 dfbc 079c 6dbc 4389 83bc
00000350: 4697 6fbd d26a ddbb 35fd bbbb fe1d 1ebd
00000360: e8e7 2bbc 381f 93bb fb0b 9bbc 3332 9c3d
00000370: 9d53 23bc 6ace 3f3d 4175 90bd 5fb6 3fbb
00000380: f975 973d 0fd4 2a3c 46e4 073d 819a 303c
00000390: 0663 833d ef4a a7bc 72c1 d9bc 8193 28bd
000003a0: 2288 fdbc b2b9 15bd 3a60 8e3d c74c 8abd
000003b0: f685 5b3d ad29 ebbc 99c7 18bd 014c a5bc
000003c0: c433 6bba 443c 513d 21ee 3bb9 d47a 1dbd
000003d0: 25d3 5b3c 44f9 a7bd 59d2 8bbd a0f1 3bbc
000003e0: c01b 793d c4af 993d f089 58bc 6aeb 09bd
000003f0: 0ee1 08bd c509 53bb ed45 9b3b 3222 fc3c

layer3.bias f4 [256]
-0.034781456 0.07379852 0.004903866 0.009364103 0.03519726 0.014456929 0.034885943 0.083466
-0.06472281 -0.056731258 -0.021051995 0.038561612 -0.008553814 0.052152205 -0.060461033 0.024876403
-0.016138393 0.067576945 -0.016218914 -0.026041629 -0.014689377 -0.03943378 -0.013317929 0.10369951
-0.052315403 0.07128904 -0.040291455 0.02656709 0.044857416 0.032701574 0.046896532 0.053126235
-0.028377008 0.069058955 0.044234104 -0.029519033 0.033539176 0.09340735 -0.01557029 0.077025354
0.0674481 0.10357992 -0.008124345 -0.05360866 0.018681234 0.024674617 -0.011990281 0.044796873
0.021667982 0.047054354 0.043806154 -0.039898165 -0.051740006 -0.009296593 -0.013094095 0.016809579
-0.015446725 0.03774844 -0.013406094 0.06430296 -0.017747445 -0.007655205 -0.00042214434 0.043566074
-0.021906434 0.058024973 0.08321602 0.0009975656 0.0065387436 -0.02727141 -0.016522424 0.033217203
-0.06110879 0.03255867 -0.037256118 0.07752804 0.03956071 -0.008671495 0.038084123 -0.019319603
0.05861138 0.06810196 0.029669402 -0.03355923 0.039992318 0.025809038 0.01568433 0.0014156179
0.012708322 -0.013726116 -0.040268715 0.074314035 0.0755972 0.037166245 -0.025720805 0.056420796
0.03319231 -0.03740255 -0.03934966 0.06250764 0.100637816 0.039803106 0.009310275 0.0060928673
0.098609895 0.022685174 0.09538875 -0.0013336022 0.012752945 -0.0034553853 -0.009999895 -0.023470728
-0.05784975 -0.011104335 0.029430695 0.009051779 0.023692206 -0.026000436 0.006313842 0.027246036
0.032988254 -0.06203957 0.04223182 0.11272035 -0.026071675 0.06404098 -0.002584665 0.029659286
-0.019533424 0.03154302 0.004456156 -0.012595594 0.029858178 0.049077373 -0.00012084937 -0.036670472
0.04572888 0.04536563 0.025150517 0.06274075 0.037212055 0.03421979 -0.032271497 0.031239398
0.044708956 0.031879418 0.018154852 0.03930265 -0.019150343 0.024219478 -0.042330883 -0.028332988
0.009600086 0.0008428672 0.056134675 0.09117196 -0.02843198 0.05250768 0.0633668 -0.026466439
-0.001304537 -0.07227777 0.02338838 0.056664955 0.002961357 0.045923 -0.035538454 0.092800915
0.014445996 0.036356036 0.025149893 0.008939372 -0.039232697 0.029676026 -0.030260563 0.07375094
0.023500463 0.055173673 0.100840315 0.023756903 -0.024661096 0.041129258 -0.011026961 0.050790697
0.016695796 -0.040390544 -0.06883592 -0.040650494 -0.006107315 -0.011683727 0.053002436 0.011887074
0.06889253 -0.016769106 -0.039294437 0.10197206 0.03401984 0.026159614 0.031025404 0.0020346527
-0.057181682 -0.034844913 -0.0061139506 0.07499624 -0.01667203 -0.03215031 -0.013071675 0.009040951
-0.020126808 -0.034145843 -0.0525261 -0.053892884 -0.0022227583 0.047924146 0.07173021 -0.0061996994
0.008464488 -0.059681606 -0.0151508665 0.030692438 0.053956587 -0.041413475 0.0027622003 -0.03398419
-0.018119661 -0.037662208 0.04128342 0.055711444 -0.057278432 -0.0074751447 0.038212102 0.014115344
0.005306604 0.066308 0.0056435238 -0.042632543 0.019732296 0.041308936 0.019748341 -0.02543972
0.018837128 0.048693262 -0.014818383 0.027719941 0.029229322 0.06004668 -0.03716656 -0.014291686
0.04464436 0.006161522 -0.013384531 0.052149966 -0.04399186 0.064978525 0.029177018 -0.048727043
00000000: 0077 0ebd ae23 973d 9cb0 a03b e56b 193c
00000010: 012b 103d c1dc 6c3c 90e4 0e3d 39f0 aa3d
00000020: 658d 84bd 095f 68bd 3c75 acbc c8f2 1d3d
00000030: 4c25 0cbc 8d9d 553d fda5 77bd 99c9 cb3c
00000040: aa34 84bc c865 8a3d 87dd 84bc 4155 d5bc
00000050: b6ab 70bc 5185 21bd 7133 5abc 6960 d43d
00000060: ad48 56bd fdff 913d a708 25bd 3aa3 d93c
00000070: 69bc 373d 16f2 053d 9416 403d e59a 593d
00000080: e676 e8bc c86e 8d3d d22e 353d e6d1 f1bc
00000090: 6060 093d 5a4c bf3d 881a 7fbc 78bf 9d3d
000000a0: 3b22 8a3d b621 d43d f91b 05bc c194 5bbd
000000b0: 6309 993c 6c22 ca3c e272 44bc ed7c 373d
000000c0: 0d81 b13c 11bc 403d 156e 333d 426c 23bd
000000d0: 54ed 53bd bd50 18bc 9d88 56bc 3eb4 893c
000000e0: 4314 7dbc 1c9e 1a3d 3ca5 5bbc 45b1 833d
000000f0: 1763 91bc 84d8 fabb 4153 ddb9 5772 323d
00000100: 1f75 b3bc 98ab 6d3d 296d aa3d bfc0 823a
00000110: f542 d63b 4b68 dfbc 095a 87bc c30e 083d
00000120: 364d 7abd 3d5c 053d df99 18bd 05c7 9e3d
00000130: 690a 223d e312 0ebc 19fe 1b3d 2544 9ebc
00000140: 7d12 703d 0a79 8b3d 3f0d f33c 6775 09bd
00000150: fcce 233d 7a6d d33c 6d7c 803c 418c b93a
00000160: 9136 503c 81e3 60bc cff0 24bd f531 983d
00000170: b4d2 9a3d a23b 183d 70b4 d2bc 7e19 673d
00000180: a9f4 073d 6b33 19bd 1c2d 21bd 0104 803d
00000190: 331b ce3d 9508 233d 208a 183c ada6 c73b
000001a0: fcf3 c93d 42d6 b93c 2d5b c33d 44cc aeba
000001b0: baf1 503c bf73 62bb 99d6 23bc af45 c0bc
000001c0: dcf3 6cbd f5ee 35bc a418 f13c ea4d 143c
000001d0: 2816 c23c defe d4bc 58e4 ce3b 1433 df3c
000001e0: b11e 073d 341d 7ebd 46fb 2c3d edd9 e63d
000001f0: 4494 d5bc eb27 833d 7c63 29bb 08f8 f23c
00000200: 8f04 a0bc 4133 013d f204 923b c05d 4ebc
00000210: 2399 f43c 5b05 493d 8370 fdb8 c733 16bd
00000220: 354e 3b3d 50d1 393d 7508 ce3c 397e 803d
00000230: ab6b 183d 0d2a 0c3d 1e2f 04bd c4e9 ff3c
00000240: bd20 373d fe93 023d 7cb9 943c d1fb 203d
00000250: 2ee1 9cbc ed67 c63c 2663 2dbd 951a e8bc
00000260: ae49 1d3c dcf3 5c3a 79ed 653d 5db8 ba3d
00000270: 2fea e8bc 4b12 573d 74c6 813d 25d0 d8bc
00000280: 00fd aaba 5e06 94bd fd98 bf3c 8319 683d
00000290: 5313 423b c119 3c3d c590 11bd 680e be3d
000002a0: e6ae 6c3c 11ea 143d 2607 ce3c 7276 123c
000002b0: 77b2 20bd 231b f33c 00e5 f7bc bc0a 973d
000002c0: 0b84 c03c cafd 613d 5e85 ce3d d69d c23c
000002d0: 1106 cabc 2777 283d 6daa 34bc e809 503d
000002e0: 9fc5 883c 8e70 25bd d9f9 8cbd 2281 26bd
000002f0: df1f c8bb 1a6d 3fbc 1519 593d 01c2 423c
00000300: 8717 8d3d 5d5f 89bc 34f3 20bd bad6 d03d
00000310: 6358 0b3d b04c d63c fd28 fe3c cf57 053b
00000320: 5737 6abd 8ab9 0ebd 8957 c8bb a197 993d
00000330: c893 88bc 0bb0 03bd 942a 56bc 7f20 143c
00000340: fae0 a4bc 83dc 0bbd 9c25 57bd c9be 5cbd
00000350: b2ab 11bb 1c4c 443d 4ae7 923d d926 cbbb
00000360: a3ae 0a3c b374 74bd 573b 78bc b56e fb3c
00000370: 9501 5d3d 2da1 29bd 0806 353b 0233 0bbd
00000380: af6f 94bc b043 1abd ce18 293d af31 643d
00000390: ca9c 6abd 0ff2 f4bb 4b84 1c3d 0b44 673c
000003a0: 05e3 ad3b 7dcc 873d 4fed b83b 769f 2ebd
000003b0: a0a5 a13c 8f33 293d 46c7 a13c f666 d0bc
000003c0: 5250 9a3c 9672 473d cec8 72bc ee14 e33c
000003d0: 5572 ef3c 82f3 753d f63b 18bd ad27 6abc
000003e0: 01dd 363d 98e6 c93b cb4a 5bbc 349b 553d
000003f0: cf30 34bd 7613 853d a404 ef3c 0296 47bd

layer4.weight f4 [128, 256]
0.024174027 -0.08184219 -0.08067657 0.03234192 -0.00029587484 -0.011529182 -0.063203625 0.011953291
0.012139106 0.047842566 0.0006970079 -0.035750978 0.076388285 -0.026935035 -0.06306496 -0.03614164
0.024047531 -0.000500042 -0.0055608507 -0.05632517 -0.0055807107 -0.025042811 0.08231649 0.010723072
0.10994004 0.025033899 -0.002930788 0.0898557 0.012514351 -0.04785298 -0.0676887 -0.052078508
-0.06811913 -0.0023046266 -0.013878547 -0.04012393 -0.013901608 0.036534157 0.0705676 0.071042776
-0.0354177 -0.022588246 0.0050371666 -0.026194144 0.06370363 -0.009680677 0.029696828 -0.036427043
0.052459203 0.007178746 -0.055396058 -0.04013932 0.057718575 0.026973339 -0.014209077 -0.040196724
-0.04436731 -0.039342828 0.0132780755 -0.0063724522 -0.053373117 -0.0049088965 0.00014478208 -0.05035821
0.037640627 0.0019897271 0.022762632 0.0055530216 0.021705855 0.009688682 0.052648693 0.04331021
0.0069722654 -0.029518224 -0.051657267 0.00071318814 -0.0040710727 -0.016959956 -0.03278636 -0.03453004
0.034191266 0.00032991287 -0.058720484 -0.022358602 0.050143905 -0.07408952 -0.023192663 0.01721405
0.06974728 -0.0034331705 -0.08332724 -0.009512601 0.04465279 0.06793103 -0.053435285 0.056807403
-0.034746747 -0.014881525 -0.0075742854 0.08383141 -0.0029820397 0.009702011 -0.0045730444 0.070710704
-0.009056103 0.051306304 0.02279312 0.04947207 -0.060046706 -0.054030742 0.065188915 0.072472736
0.016862152 -0.033022795 0.08703634 0.018730156 0.06764719 -0.075198494 -0.05437412 -0.024417805
-0.028158113 0.044000156 0.043341327 0.039172262 0.011934188 0.019786324 0.015972216 -0.040359523
-0.0063467496 0.058761343 -0.03942462 -0.03157812 -0.064579904 -0.011827209 -0.09840661 0.004016465
0.011769184 0.058286827 -0.025613608 0.042344645 0.04938194 0.016234776 0.032691665 -0.08970093
-0.034932755 -0.016914954 -0.0057488256 0.035180934 -0.008348075 0.007355633 0.04972021 0.06080463
-0.02470983 -0.021342358 0.022335798 -0.002048015 0.020783028 -0.010980511 -0.0051302444 0.085855566
0.061440136 -0.04805344 -0.039014522 -0.009002625 0.020040162 -0.013607672 0.06544042 0.03316467
-0.0162652 -0.04130358 0.018462451 -0.056703154 -0.06105752 0.072612844 -0.03014272 -0.030771954
0.083016366 -0.0135172745 -0.03144756 -0.0412644 -0.039397653 -4.0651466e-06 0.05389673 0.072222084
-0.04400472 -0.002233771 -0.023335375 -0.025098203 -0.029623834 0.08420555 -0.03015678 0.011384687
0.07103281 0.046760224 -0.07142957 0.044698343 0.09554302 0.081850156 -0.0037916135 0.014824055
-0.01888281 0.03984394 0.03598492 -0.050293516 0.06297553 0.050487872 0.066028684 0.024045529
-0.08914946 0.027907 -0.0217957 0.016442198 0.029332234 0.027234454 0.016258845 -0.014372316
-0.0045832694 0.021154547 -0.0004813592 -0.099947 0.010252974 0.038913243 0.0154912975 0.04610962
-0.086943954 0.066038 -0.04536658 -0.056616865 -0.03990863 0.016163448 -0.04710904 0.07789814
0.03052695 0.07666258 -0.021719541 -0.008070245 -0.02373398 0.025148626 -0.024168959 -0.04391907
-0.01094576 -0.0167028 0.04110337 -0.0097446 0.049107265 -0.015381134 0.06244788 0.07416467
0.037385657 -0.04985175 0.021598475 -0.039283697 -0.04313718 0.017521188 0.06508859 0.052394442
00000000: 9c08 c63c e19c a7bd c239 a5bd f678 043d
00000010: a61f 9bb9 e5e4 3cbc e770 81bd bcd7 433c
00000020: 1ae3 463c 91f6 433d 69b7 363a 9e6f 12bd
00000030: 7671 9c3d dda6 dcbc 3428 81bd 4209 14bd
00000040: 54ff c43c 4015 03ba cc37 b6bb 39b5 66bd
00000050: 65de b6bb 9526 cdbc 8c95 a83d d3af 2f3c
00000060: 3e28 e13d e413 cd3c 7712 40bb 4406 b83d
00000070: fe08 4d3c 7d01 44bd 60a0 8abd 4650 55bd
00000080: 0b82 8bbd 3809 17bb d862 63bc fd58 24bd
00000090: 92c3 63bc d7a4 153d bf85 903d e07e 913d
000000a0: 2612 11bd fc0a b9bc d10e a53b 1a95 d6bc
000000b0: 0c77 823d b49b 1ebc c346 f33c 8634 15bd
000000c0: 76df 563d b03b eb3b fae6 62bd 2169 24bd
000000d0: 506a 6c3d 31f7 dc3c 30cd 68bc 52a5 24bd
000000e0: 7fba 35bd f225 21bd 498c 593c 01d0 d0bb
000000f0: c59d 5abd cfda a0bb a5d0 1739 6944 4ebd
00000100: 0f2d 1a3d 1566 023b b378 ba3c 1ff6 b53b
00000110: 7ad0 b13c 47bd 1e3c 28a6 573d 0c66 313d
00000120: 9a77 e43b 34d0 f1bc 9296 53bd 3ff5 3a3a
00000130: a266 85bb 9bef 8abc fd4a 06bd 5f6f 0dbd
00000140: 240c 0c3d 28f8 ac39 e484 70bd 6329 b7bc
00000150: b263 4d3d 3fbc 97bd 8afe bdbc 7b04 8d3c
00000160: a9d7 8e3d 0bff 60bb 79a7 aabd beda 1bbc
00000170: d8e5 363d 6d1f 8b3d f5de 5abd e1ae 683d
00000180: 9b52 0ebd a4d1 73bc b631 f8bb cdaf ab3d
00000190: 536e 43bb 2ff5 1e3c 7ad9 95bb c6d0 903d
000001a0: 0d60 14bc 8f26 523d a3b8 ba3c 3aa3 4a3d
000001b0: 89f3 75bd 574f 5dbd c481 853d 966c 943d
000001c0: 7f22 8a3c e942 07bd 1c40 b23d fc6f 993c
000001d0: 9c8a 8a3d ab01 9abd 66b7 5ebd d907 c8bc
000001e0: d8ab e6bc 8239 343d ad86 313d 1873 203d
000001f0: 9d87 433c ee16 a23c 2ad8 823c 0750 25bd
00000200: 65f8 cfbb bcaf 703d b67b 21bd 0f58 01bd
00000210: 7842 84bd e9c6 41bc 6889 c9bd 8d9c 833b
00000220: 89d3 403c 2bbe 6e3d a1d3 d1bc 9471 2d3d
00000230: b844 4a3d cbfe 843c b2e7 053d 1fb5 b7bd
00000240: a615 0fbd 3b91 8abc a560 bcbb e219 103d
00000250: 5dc6 08bc 8607 f13b 6ba7 4b3d 470e 793d
00000260: 456c cabc 2bd6 aebc 90f9 b63c fd37 06bb
00000270: 2b41 aa3c 9ae7 33bc 9c1b a8bb 0bd5 af3d
00000280: a7a8 7b3d afd3 44bd b1cd 1fbd bf7f 13bc
00000290: 442b a43c b7f2 5ebc a005 863d add7 073d
000002a0: 993e 85bc f12d 29bd 913e 973c 9141 68bd
000002b0: 7317 7abd 0bb6 943d deed f6bc 7715 fcbc
000002c0: 7c04 aa3d 8f77 5dbc 28cf 00bd dc04 29bd
000002d0: 6f5f 21bd 5867 88b6 d1c2 5c3d 2ce9 933d
000002e0: 4b3e 34bd 7564 12bb d429 bfbc bf9a cdbc
000002f0: afad f2bc f673 ac3d 5a0b f7bc d786 3a3c
00000300: a679 913d a687 3f3d ab49 92bd 9c15 373d
00000310: 0fac c33d 0ea1 a73d b87c 78bb 98e0 723c
00000320: 1fb0 9abc 6633 233d ec64 133d 9300 4ebd
00000330: 51f9 803d 5fcc 4e3d 0c3a 873d 21fb c43c
00000340: fe93 b6bd 399d e43c e58c b2bc cab1 863c
00000350: 274a f03c ca1a df3c 4531 853c dd79 6bbc
00000360: 402f 96bb 4d4c ad3c f05e fcb9 03b1 ccbd
00000370: 17fc 273c 7e63 1f3d 36cf 7d3c 71dd 3c3d
00000380: ac0f b2bd ee3e 873d 4fd2 39bd 16e7 67bd
00000390: 3b77 23bd 3569 843c 69f5 40bd 0f89 9f3d
000003a0: a713 fa3c 4501 9d3d 2eed b1bc 1039 04bc
000003b0: c36d c2bc 7e04 ce3c fbfd c5bc 7ce4 33bd
000003c0: d855 33bc 4fd4 88bc 025c 283d d1a7 1fbc
000003d0: b324 493d 2701 7cbc 59c9 7f3d a6e3 973d
000003e0: b421 193d 5931 4cbd 49ef b03c f1e7 20bd
000003f0: 9db0 30bd 9888 8f3c 2b4d 853d 8e9b 563d

layer4.bias f4 [128]
0.056593858 0.09612745 0.045731336 0.0252445 -0.0066152634 0.0047554225 0.08369684 0.024960145
0.0022366205 0.07917017 0.068242766 0.027290609 -0.0038106036 0.016193535 -0.005036911 -0.014594654
-0.025087412 -0.0495397 0.08412884 0.026883127 -0.0440816 0.028300997 0.0028812739 0.057979718
-0.031544823 0.024750382 -0.06431645 -0.011752753 -0.004054098 -0.07121025 0.03831342 -0.062214892
0.041476198 0.06681689 -0.0181122 0.06451822 -0.012264192 0.010724178 0.064071454 -0.015961464
0.028088769 -0.021899028 -0.018253842 -0.004184776 -0.008954881 -0.046904944 0.04922621 -0.04414147
0.11105543 0.044184078 0.04764101 -0.06239293 -0.023246573 -0.039725695 0.037874065 -0.034839064
7.019062e-05 0.036424916 0.03616298 0.0057760654 -0.030473433 0.050316986 -0.024358321 -0.032814063
-0.023282375 0.013269242 -0.016912825 0.013391177 0.043742012 -0.023346275 0.07084004 0.08238912
0.038353827 -0.0117031215 0.06389797 0.07835893 0.082693174 -0.03840863 0.09102314 0.008681785
0.026916612 -0.0147922095 -0.0018796022 -0.018489925 -0.004408812 -0.028472718 -0.011913286 -0.06723002
0.05094942 0.04702716 0.012358706 0.009363985 0.014121944 0.018787038 -0.057929892 0.01694128
0.0454491 0.015520583 0.036123388 0.055042766 -0.01126229 0.02329895 -0.02532694 -0.017664654
-0.010117258 -0.00824246 -0.0060227695 -0.045806717 0.036120206 0.022794135 0.08774045 0.100196876
-0.028410263 0.012738462 0.023447737 -0.035317615 -0.010865737 -0.021370187 0.037381742 -0.0031026981
0.0069177668 0.008924095 0.024055954 -0.015978035 -0.011153163 0.028856508 0.02983887 -0.028950714
00000000: f6ce 673d 78de c43d c850 3b3d 8ecd ce3c
00000010: dac4 d8bb 60d3 9b3b 4069 ab3d 3879 cc3c
00000020: 4494 123b f823 a23d ddc2 8b3d 8e90 df3c
00000030: 52bb 79bb 4ea8 843c ac0c a5bb 6a1e 6fbc
00000040: 1e84 cdbc 24ea 4abd be4b ac3d 013a dc3c
00000050: e88e 34bd 7ed7 e73c c1d3 3c3b 247c 6d3d
00000060: 2535 01bd 50c1 ca3c 58b8 83bd 9e8e 40bc
00000070: 3dd8 84bb aed6 91bd 88ee 1c3d 0bd5 7ebd
00000080: f2e2 293d 4bd7 883d 0960 94bc 2122 843d
00000090: c0ef 48bc 76b4 2f3c e537 833d 9ec1 82bc
000000a0: 6b1a e63c 9765 b3bc 1589 95bc 7220 89bb
000000b0: 7eb7 12bc 661f 40bd 6ca1 493d b0cd 34bd
000000c0: 0771 e33d 5dfa 343d 3823 433d bb8f 7fbd
000000d0: 996f bebc 69b7 22bd d621 1b3d 68b3 0ebd
000000e0: 4d33 9338 4b32 153d a21f 143d 2645 bd3b
000000f0: 6ca3 f9bc 2f19 4e3d 1a8b c7bc 0a68 06bd
00000100: aeba bebc 3c67 593c c48c 8abc ab66 5b3c
00000110: d32a 333d b040 bfbc 9514 913d a0bb a83d
00000120: e718 1d3d 73be 3fbc f0dc 823d a67a a03d
00000130: 0a5b a93d 5e52 1dbd 576a ba3d 0c3e 0e3c
00000140: 3a80 dc3c 065b 72bc fc5c f6ba 2f78 97bc
00000150: cc77 90bb 9e3f e9bc f12f 43bc e5af 89bd
00000160: 57b0 503d 8d9f 403d 2c7c 4a3c 666b 193c
00000170: ba5f 673c 46e7 993c e547 6dbd 70c8 8a3c
00000180: d628 3a3d 0b4a 7e3c 1ef6 133d 8674 613d
00000190: 7885 38bc 71dd be3c 717a cfbc 77b5 90bc
000001a0: dbc2 25bc 620b 07bc a75a c5bb d39f 3bbd
000001b0: c8f2 133d c4ba ba3c 44b1 b33d 0534 cd3d
000001c0: a4bc e8bc fbb4 503c 7815 c03c 34a9 10bd
000001d0: 3406 32bc 8810 afbc 991d 193d a356 4bbb
000001e0: 6fae e23b 5e36 123c fe10 c53c 5ee4 82bc
000001f0: c2bb 36bc 7c64 ec3c a570 f43c 0c2a edbc
