PPO/ppo_critic.pth (torch, 546027 bytes, 9 tensors)

layer1.weight f4 [128, 29]
000000 9d 71 31 c0 15 63 0e 40 84 05 38 c0 c5 cf c0 bf
       -2.7725594 2.2247975 -2.8753366 -1.5063406
000010 b5 24 f9 3e 7b 79 5d bf f3 7b 8b bf a6 ca 11 c0
       0.48660818 -0.8651349 -1.0897201 -2.2779937
000020 c4 ef a6 bf 8a 76 38 bd 93 91 f2 3f c8 99 80 3e
       -1.3041921 -0.045034923 1.8950676 0.25117326
000030 9e 1a cb 3f 6c f6 85 3f 7b ed 73 bf 9b cc 07 be
       1.5867498 1.0465827 -0.9528424 -0.13261645
000040 51 e5 ed 3e e1 d8 3a 3f 20 a6 86 3e e9 27 fb be
       0.46464017 0.7298718 0.26298618 -0.49053887
000050 5b 2d 8c bf ff 82 af 3e 7a 63 97 3e a2 53 44 bf
       -1.0951341 0.3427963 0.29568082 -0.76690114
000060 51 51 25 be d6 cc 1d 3f 98 10 c1 3e 9e 64 d7 3e
       -0.16144301 0.6164068 0.37707973 0.42068952
000070 78 9e 31 be 9f 2f 73 bf 88 a1 5e bf fe 1a ef bf
       -0.17345607 -0.9499454 -0.8696523 -1.8680112
000080 8b d8 f3 bf 4c a0 90 c0 d5 86 f7 3e 75 89 dc 3d
       -1.9050459 -4.5195675 0.48345056 0.10768405
000090 8e c2 40 3b f2 32 96 bf 37 f5 99 be 1c d5 79 3f
       0.0029412839 -1.1734297 -0.30069897 0.97590804
0000a0 8f 58 c4 3e 16 5d a5 3f 93 1a b7 3c 58 cf b2 bf
       0.38348815 1.2919033 0.022351539 -1.3969526
0000b0 a1 f7 76 3e ae bc 3d bf 14 8f 7e bf dd aa 34 3f
       0.241179 -0.7411603 -0.9943707 0.70573217
0000c0 e3 10 1d be a9 29 2c 3d 86 b3 b7 be 56 b5 3a 3e
       -0.15338473 0.042031918 -0.35879153 0.18233237
0000d0 aa fd 83 3d c2 10 89 3f 87 d2 80 be c1 0b 80 3e
       0.06444867 1.0708239 -0.2516062 0.25008968
0000e0 16 f3 be be 33 da cf be ad 66 ae bf 36 0b 51 3e
       -0.37294835 -0.4059616 -1.3625084 0.20414433
0000f0 f8 4a bb bf 87 bb f0 3f eb 7c 60 3f 09 8e c3 3d
       -1.4632254 1.8807229 0.8769061 0.095485754
000100 ec 30 99 bf 7c 81 d4 bd bc 95 f5 bf 9d a8 92 3f
       -1.1968055 -0.1037626 -1.918632 1.1457707
000110 14 a0 96 3f 4c dd 89 be 60 28 a5 3f 16 ac 5e 3e
       1.1767602 -0.2692665 1.2902946 0.21745333
000120 8d 16 74 bf c2 ce ff 3e 2f 24 07 bf 2c f8 af 3f
       -0.9534691 0.4996243 -0.52789587 1.3747611
000130 41 a2 8a bf 82 a3 6d 3d 11 72 19 3e 2e 33 f6 3e
       -1.0830766 0.05801726 0.14984919 0.48085922
000140 7f 3e 15 3d df b5 ae 3e 45 0b 49 3e b2 3a f3 be
       0.036436554 0.34123132 0.19633205 -0.47505718
000150 96 1c fc be 1c 2e 64 be 5e 18 79 3e 9a 8c 30 bf
       -0.4924056 -0.22283214 0.24325702 -0.6896454
000160 27 29 1c 3f 8e 68 f8 bf bb 12 0b c0 b4 30 08 c0
       0.61000293 -1.9406908 -2.1730182 -2.1279726
000170 d9 f5 b3 be db 15 f4 3f 43 e1 b0 be fc 8e 1e c0
       -0.35148504 1.906917 -0.3454686 -2.477477
000180 94 87 34 3f db 4b 0a 40 91 32 40 be 89 44 14 40
       0.70519376 2.1608799 -0.1876929 2.316683
000190 84 4b 75 3f 4f b9 17 c0 e4 43 08 c0 4b 38 0b 3f
       0.9581835 -2.3706853 -2.1291437 0.5438277
0001a0 87 99 86 bf c4 5b d5 be b4 36 1d bf 1f a9 c6 be
       -1.0515603 -0.41671574 -0.61411595 -0.38800904
0001b0 34 72 bb 3e 0b 60 fa be a4 e1 44 3f ae d5 30 be
       0.36610568 -0.489014 0.769068 -0.17269012
0001c0 d5 3e f7 3d db 79 ba be 11 fd 3a 3e 68 5e f5 3d
       0.12072531 -0.36421093 0.182606 0.11980897
0001d0 f5 d5 c7 bf 42 eb f3 be b1 05 bc bf ef 44 01 3d
       -1.561217 -0.47640425 -1.4689237 0.03155988
0001e0 c4 47 ec bf f7 e0 e8 bf 0d a0 56 3f 34 57 9e 3e
       -1.8459401 -1.8193654 0.8383797 0.30925906
0001f0 ca 95 4d bf b9 d8 ef be a4 c4 10 3f e9 54 3c be
       -0.80306685 -0.46845034 0.5655005 -0.18391766
000200 fa f5 5b 3f 1b 5f 5b bf da d9 52 bf bc 68 80 bf
       0.85922205 -0.85691994 -0.82363665 -1.0031962
000210 06 f6 44 bf 63 da 71 3f 88 70 8b 3f 19 08 45 3f
       -0.769379 0.94473857 1.0893717 0.7696548
000220 78 c7 49 3e 91 2c 56 be cb 39 c1 be 6b ee b7 be
       0.19704998 -0.20915438 -0.37739405 -0.35924086
000230 11 38 64 3e 43 49 0e bd 66 ea 3b 3f 9e ae 81 bc
       0.22287013 -0.034737837 0.7340454 -0.015830334
000240 b9 c7 35 bf be 79 a1 bf 66 54 74 bf 64 93 7e bf
       -0.7100788 -1.2615278 -0.9544128 -0.9944365
000250 be 4b 4b bf 95 bb 9b c0 57 3f 07 bf 2c 21 89 3b
       -0.7941245 -4.866648 -0.52831024 0.0041848626
000260 8e 85 ac 3e b7 e5 99 bf 16 94 7c be a8 e3 8b 3f
       0.33695644 -1.2023228 -0.24665865 1.092885
000270 ef d5 a5 be 4c a4 93 3f 91 58 d7 bf bc ca 83 bf
       -0.3238978 1.1534514 -1.6823903 -1.0296245
000280 b6 c3 90 be bb e4 e4 3d b5 6f ee bf 66 6f 8e bf
       -0.28274316 0.111764394 -1.862784 -1.1127746
000290 c4 1c 8e 3c cd 8e 0d 3f 00 13 69 3e cd 25 f0 3d
       0.0173477 0.5529602 0.22761154 0.1172596
0002a0 40 81 59 3f 43 db da be fb 46 fc be ea 9c 84 bf
       0.84962845 -0.42745408 -0.49272904 -1.0360386
0002b0 52 0d 53 bd 29 bf 02 3d 5a 51 81 40 47 eb ce bf
       -0.051526375 0.031920586 4.0411806 -1.6165551
0002c0 5f 9e e4 bf 3f cf 3b c0 49 17 0e 40 b0 53 8e 3f
       -1.7860831 -2.9345243 2.2201712 1.1119289
0002d0 f1 96 ad bf 37 b4 c2 bf d0 ca 6e 3e 9e dd ee bf
       -1.3561689 -1.5211247 0.23319554 -1.8661382
0002e0 31 41 ed bd ca bf 83 3f b6 bc e2 be 40 e5 61 3f
       -0.115847 1.0292904 -0.442846 0.8824043
0002f0 d8 ce 87 be 68 7f 8b bf 3b 44 37 3f eb 1a cd bf
       -0.26524997 -1.0898256 0.71588486 -1.602384
000300 75 a1 f6 3e 44 cb cc bc 84 f7 2f 3e 79 48 ab be
       0.48170057 -0.024999268 0.17184263 -0.3345373
000310 a4 51 f4 3e 8c f8 04 bf 41 df 27 3f b6 11 69 bf
       0.47718537 -0.5194175 0.65575033 -0.9104265
000320 86 75 05 bd 9e cd 57 3f 35 cd 70 3f 8e 5e 85 bf
       -0.032582782 0.8429812 0.9406312 -1.0419481
000330 4d 29 42 bf 49 9f 4c 3f e5 83 8c 3f a6 b5 88 bf
       -0.7584427 0.7993055 1.0977751 -1.0680435
000340 0f 39 84 3f e9 fc 80 bf 39 e5 53 be a9 a4 98 3e
       1.0329913 -1.0077182 -0.2069291 0.29813126
000350 f8 4c 73 3d 3a ef f8 be 7c db b2 be 5c 53 82 be
       0.059399575 -0.48620015 -0.34933078 -0.25454223
000360 a6 74 a1 be ee 32 0e 3f d1 0b 8b bf e7 b9 12 bf
       -0.31534308 0.5554646 -1.0862981 -0.57314914
000370 4e 6d 25 3e 94 8b b2 bf 71 9e 25 3f 05 c3 a6 bf
       0.16154978 -1.3948846 0.6469489 -1.3028265
000380 53 b9 02 3f ab 0a d9 bc 7d c6 dc 3e f7 94 91 be
       0.5106403 -0.026494345 0.43120185 -0.28433964
000390 86 3f 48 be d3 9e c4 be 36 aa b7 3c 89 29 b0 3e
       -0.19555482 -0.38402423 0.02242003 0.3440669
0003a0 e1 2d 08 40 04 94 34 c0 46 7b d3 be 16 33 e2 bf
       2.1278002 -2.8215342 -0.41304988 -1.767184
0003b0 01 b1 a0 bf 22 9c e6 be 63 79 3a 40 f1 73 de 3f
       -1.2554017 -0.45040995 2.9136589 1.7379133
0003c0 5b 49 62 bf fd 51 04 be 08 b6 c9 3e 02 07 a3 bf
       -0.8839318 -0.12921901 0.3939669 -1.2736514
0003d0 0b ea 38 3f b5 89 b9 bf 1c 02 ec be b3 af 94 3e
       0.7223212 -1.449515 -0.4609536 0.29040298
0003e0 1d 78 3a 3f d8 11 fa bf 7c 3d c0 3f b5 8e 40 bf
       0.7283953 -1.9536695 1.5018764 -0.75217754
0003f0 03 b8 18 bf 1c 2e 11 bd a4 e7 a1 bf 06 30 80 3f
       -0.5965578 -0.035444364 -1.2648816 1.0014656

layer1.bias f4 [128]
000000 6f 2f be bf 8c 6b 87 bf 47 ea be 3f 99 cb 04 c0
       -1.4858226 -1.0579696 1.4915246 -2.0749266
000010 a6 60 1c 3f ba 17 b6 bf 45 d2 07 bc 22 cf 05 40
       0.61084974 -1.4225991 -0.008289878 2.0907674
000020 88 5c b5 bf c7 bc 90 3d f3 8f f6 be 4c 78 d0 3f
       -1.4168863 0.070672564 -0.481567 1.6286712
000030 5a d2 cd 3f fc 0c dd 3f b2 6f 95 bf 89 4f eb be
       1.6079819 1.7269588 -1.1674712 -0.45959118
000040 3e e1 b1 3f 5b 23 07 c0 6d 97 02 bf 03 99 57 3f
       1.3896863 -2.111533 -0.5101231 0.8421785
000050 4f 1e 6e bf 6a e8 7d be c1 de 26 c0 74 a6 b1 bf
       -0.93015 -0.2479569 -2.6073458 -1.3878922
000060 f5 a2 63 3f 9e de b2 3f bc bd 28 3f 07 2c 03 40
       0.8892053 1.3974187 0.6591451 2.0495622
000070 1e c7 d4 bf 1d d1 c6 bf b7 c9 e8 bf 42 cd b8 3e
       -1.6623266 -1.5532566 -1.8186558 0.360941
000080 39 0a eb 3f 2c 8d 00 c0 8e 1b f6 bf 4d 5b e4 bf
       1.8362495 -2.0086164 -1.9227159 -1.7840363
000090 58 d5 20 3f 5d c5 4e bf cf 39 16 40 d8 69 02 3f
       0.62825537 -0.807699 2.3472784 0.50942755
0000a0 0a da f4 be 7e 6d 30 be fd 99 d7 bf 91 db 6d c0
       -0.478226 -0.17229268 -1.6843868 -3.7165263
0000b0 60 55 b0 bf 5d c3 40 3f e2 e3 7c bf 3e 6b ed bf
       -1.3776054 0.752981 -0.9878522 -1.8548353
0000c0 99 67 d5 bf b8 35 81 3f 5c 50 3e bf 04 18 97 be
       -1.667224 1.0094519 -0.7434137 -0.2951051
0000d0 d8 e7 f3 bd f0 3d 02 bf a5 3d 0e 3e d1 9e 12 40
       -0.11909455 -0.5087576 0.13890703 2.2909434
0000e0 ce 60 17 bf 5b 76 a6 bf df cf 95 3e 1a 00 c5 bf
       -0.5913209 -1.3004869 0.29260156 -1.5390656
0000f0 63 af 4f bd 3c b5 fb bd f7 39 11 bf 5e 8c 25 bf
       -0.05070437 -0.12290427 -0.5672907 -0.6466731
000100 ca ec 0f bf 41 ac d5 3e 55 5f e8 3e bf d8 e2 3f
       -0.56220686 0.41732982 0.45385233 1.7722396
000110 b5 f5 c8 3e b6 dc ad bf 71 a4 56 bf 05 44 53 c0
       0.3924996 -1.3582981 -0.8384467 -3.3010266
000120 d8 91 00 40 97 ac 26 3f 57 91 93 bf 29 15 23 bf
       2.0089016 0.651071 -1.1528729 -0.6370416
000130 65 74 b6 3f cd db 59 c0 3b 30 87 3e b9 ca 9e 3f
       1.4254271 -3.4040406 0.26403984 1.2405616
000140 39 08 0c 40 98 42 82 bf 0c ed 7f 3f 60 2b 28 c0
       2.1880019 -1.0176573 0.9997108 -2.6276474
000150 0d 7c cc 3f be a4 5c 3f 6e dd b2 bf a9 15 a8 3c
       1.5975357 0.86188877 -1.3973825 0.02051814
000160 89 5d ab 3f a9 73 f8 bf 5f e5 e9 3f db 33 30 3e
       1.338792 -1.9410297 1.8273124 0.17207281
000170 50 0e 78 3f e6 c4 2c bf d4 80 53 bf d0 8e 95 3e
       0.9689684 -0.67487943 -0.8261845 0.2921052
000180 bb 01 ea bf a1 00 88 bf d9 ce 01 c0 e0 85 eb 3f
       -1.8281778 -1.0625192 -2.02825 1.840023
000190 5b 0a 15 bf 8b 2f 17 bf c5 2c 42 bd 1b 3a 88 be
       -0.58218926 -0.5905692 -0.047405977 -0.2660683
0001a0 5b 12 10 40 1f 4e a2 be ab de 56 bf f6 f9 93 bf
       2.2511203 -0.31700227 -0.83933514 -1.1560657
0001b0 9d 64 ad 3f ff d9 cc bf 18 0e 07 bf 45 04 ef bf
       1.354633 -1.6004027 -0.5275588 -1.8673178
0001c0 fd 7f c2 be ce 83 7f bf 3f 55 d3 be 5f 76 ca 3f
       -0.37988272 -0.99810493 -0.41275975 1.5817374
0001d0 b8 26 15 bc f8 3a 1a c0 08 b1 23 bf 01 ab 16 c0
       -0.00910347 -2.4098492 -0.63942003 -2.3541873
0001e0 ca b6 04 bf 02 b5 a7 3d b6 f4 c6 3e 32 bb c3 bf
       -0.51841414 0.081888214 0.38858575 -1.5291502
0001f0 5e f2 c0 bf 3d 93 06 bf c5 1d 39 3f 97 f3 62 3f
       -1.5073965 -0.5256842 0.7231105 0.8865294

layer2.weight f4 [256, 128]
000000 98 c5 94 bc fe 04 42 bd b2 b1 1a bd 87 2e 20 bc
       -0.018160626 -0.047368042 -0.03776712 -0.009776718
000010 97 39 16 be 7e 5f 17 be 64 32 db bd e8 5d d6 bd
       -0.14670406 -0.14782521 -0.107029706 -0.1046713
000020 46 16 f4 bc de 7d 6b 3b b7 1f d0 bd c3 22 4e bd
       -0.029795777 0.0035933177 -0.10162299 -0.05032612
000030 6b dd 17 be 1e 7e 26 be fb e0 03 bd 04 67 c6 bd
       -0.14830558 -0.16259047 -0.03219698 -0.096876174
000040 6d 18 fb bd 5f 00 4b bd bd 96 71 3c ea cb eb bd
       -0.12260518 -0.0495609 0.014745411 -0.11513503
000050 69 c6 46 3d 82 38 bc bd b9 c4 4e 3d 3b bb 96 bd
       0.048529062 -0.091904655 0.050480578 -0.0735993
000060 9f 1c 61 bd 64 55 99 bd a0 1e a0 bc 6a 59 08 be
       -0.054958936 -0.0748699 -0.019545853 -0.13315359
000070 16 3e b7 bd d6 a9 b3 bd a4 d5 a8 bd c6 37 ae bd
       -0.08947389 -0.08772628 -0.08243874 -0.08506732
000080 bd 67 27 be 6a 3d ac 3c a6 94 71 3c 12 f7 0d be
       -0.16348167 0.021025378 0.014744913 -0.13863781
000090 96 c5 32 bd 32 cd 0b 3c b6 4f 3c 3c 1a e2 ee bd
       -0.043645464 0.008532809 0.011493614 -0.11664219
0000a0 52 d1 7a bc d7 99 97 bd f0 d7 4d bd 36 bf b4 bb
       -0.015308695 -0.074023895 -0.050254762 -0.005515958
0000b0 f4 cf 59 3c 42 5b 09 be 50 05 b0 bd 2f be 33 bd
       0.013294209 -0.13413718 -0.08594763 -0.043882545
0000c0 b2 db 3e be ef e4 eb 3d 1f 55 35 be 9a 10 46 bd
       -0.18638495 0.11518275 -0.17708252 -0.048355676
0000d0 d0 61 8a 3d 8f 39 21 be fc 8d 3d bd c8 04 1b be
       0.067569375 -0.15744613 -0.046277985 -0.15138543
0000e0 84 23 34 bc b7 0c 35 be cb dd 07 be 4c ae c0 bc
       -0.010994796 -0.17680632 -0.13268201 -0.023520611
0000f0 de ff 46 3d b4 a0 d9 bd a4 2e 2a bd ff 66 16 3d
       0.048583858 -0.10626355 -0.041548386 0.03671932
000100 32 7a 36 be 84 82 45 be 12 8d bf bd 4e 28 b4 bd
       -0.17820051 -0.19288069 -0.09353079 -0.0879675
000110 78 6d 1e be 86 8f 01 bd f5 09 9c bd 1f 03 6f bd
       -0.15471447 -0.031631015 -0.07619087 -0.058352586
000120 d1 dc 3a ba 88 f2 16 bd 4c 1a 1c bd 44 34 4c bd
       -0.0007128241 -0.03685239 -0.038111016 -0.049854532
000130 a0 76 00 bd 6e 1e d7 bd 33 ad b6 bd ca 33 be bc
       -0.03136313 -0.10503851 -0.08919754 -0.023218054
000140 df 75 f4 bd 93 5d 3e be e6 8c 5f bd ec 69 e4 bd
       -0.119365446 -0.18590383 -0.05457773 -0.111530155
000150 1d 42 9b bb 2c a7 8b bd 69 00 82 bd 93 81 59 bd
       -0.004738106 -0.06818995 -0.063477345 -0.053102087
000160 9d 2b c4 bd 56 14 0d 3d c6 87 69 bc ef c7 88 3d
       -0.09578631 0.034443222 -0.014253562 0.06678759
000170 5e 4f 4d be 94 3b 21 3d 66 55 d5 bd 33 41 1e bc
       -0.20049807 0.03936346 -0.10416679 -0.009659099
000180 33 88 34 3d a6 d2 83 bd f7 2c 38 3d ee 99 f9 bd
       0.044075202 -0.064366624 0.044964757 -0.12187563
000190 e0 c7 01 3d 67 61 36 bd 25 d1 85 bd c6 a4 aa bd
       0.031684756 -0.044526484 -0.06534032 -0.08332209
0001a0 94 89 78 3c 33 25 18 bd 03 06 c7 bd f7 53 c5 bd
       0.01516952 -0.03714485 -0.097179435 -0.09635156
0001b0 37 3e 32 be 5e ec 45 bb 2e 2b ea bb 8a b1 52 3d
       -0.17406546 -0.00302007 -0.0071462607 0.051438846
0001c0 5e df 93 bd 86 71 fb bd 02 77 c0 bc 2c 0b 62 3d
       -0.07220338 -0.12277512 -0.023494247 0.055186436
0001d0 62 88 cd bb 08 81 c0 bd b1 25 af bd 98 df 72 bc
       -0.0062723616 -0.09399611 -0.08552111 -0.014823817
0001e0 30 6a 22 bc 58 17 37 bd 45 bf fb bb ea 1b 70 bd
       -0.009913012 -0.044699997 -0.007682713 -0.05862037
0001f0 e7 bb 27 bd aa 2d 53 bc 86 3e 4f be a6 d6 87 bd
       -0.040950682 -0.012889305 -0.20238695 -0.06632738
000200 65 c4 25 be 87 47 78 be db 52 9a be ea 9c 66 bd
       -0.161882 -0.24246036 -0.3014134 -0.05630199
000210 d4 1f 38 be a9 24 25 bd 80 c9 ab 3c 1e 77 4e be
       -0.17980891 -0.040318165 0.020970106 -0.20162627
000220 71 62 b1 bd 19 8a 3e bd c7 de 73 bd 5d e4 00 be
       -0.08661354 -0.04651842 -0.05953863 -0.12587114
000230 f6 9b c5 bd ad 83 ad bd eb d2 85 bd 57 fc 2b be
       -0.09648888 -0.08472381 -0.0653437 -0.16795479
000240 2b a6 96 3c cd da 08 be 16 5c 09 be 16 4d 95 bd
       0.018389782 -0.13364716 -0.13414034 -0.072900936
000250 af 20 b1 bd 61 e1 27 be aa 71 1f bf 08 09 c1 be
       -0.08648812 -0.16394569 -0.6228281 -0.37702203
000260 a5 35 13 bc 39 97 2f bd 41 24 13 be 86 85 c7 bd
       -0.008984958 -0.042868827 -0.14369299 -0.097422644
000270 90 83 65 be a1 6e 15 3c 90 b1 9b be b9 cc cf bd
       -0.22413468 0.009120614 -0.30408907 -0.101464696
000280 63 56 26 be cc 6f 84 be a0 30 3c be 33 a6 cf be
       -0.16243891 -0.25866544 -0.18377924 -0.40556487
000290 90 16 1c 3d 1e 4e 42 be 22 22 dc bc 69 8e 4d bd
       0.038107455 -0.18975112 -0.026871745 -0.05018464
0002a0 cf c8 de bd 19 60 4b bd 72 ae 16 be fa 03 1a bf
       -0.10878145 -0.049652193 -0.14714983 -0.6016232
0002b0 a3 2a dc bd fe 44 bf be e8 6d 16 be d4 a7 62 be
       -0.1075032 -0.37357324 -0.14690363 -0.22134334
0002c0 a9 ac b5 be e9 13 1d be 21 b9 5d bd 28 e3 90 be
       -0.35483292 -0.15339626 -0.05413163 -0.28298306
0002d0 b1 3d 25 be 9c bb b5 bd 49 9d bd bd 93 f6 17 be
       -0.16136815 -0.08873674 -0.092585154 -0.14840154
0002e0 d3 14 b4 bd 25 10 40 bd ae 01 43 be c5 a3 7d be
       -0.087930344 -0.046890397 -0.1904361 -0.24769504
0002f0 e9 88 8d be d6 41 22 bd d1 56 28 be 19 61 28 be
       -0.27643517 -0.039613567 -0.16439368 -0.1644329
000300 4b 29 e7 bd 98 a4 43 be 32 7b 01 3c 0c 69 77 be
       -0.11287173 -0.19105756 0.007902907 -0.24161166
000310 ca 67 37 bd 60 a6 2a bd ce 6d 27 bc 98 e7 49 bf
       -0.044776715 -0.041662574 -0.010219051 -0.7886901
000320 fb b9 83 3d 98 01 86 be 5d fb 56 be e5 e5 71 be
       0.06431957 -0.2617309 -0.20994325 -0.23622854
000330 e1 4f e6 bd ab e4 18 bf 35 2d 0a 3c 77 2d 27 be
       -0.112457044 -0.5972392 0.00843363 -0.16325937
000340 26 5b 18 be f7 0d c2 bc 81 1a 0c be d4 9e 3e be
       -0.1487852 -0.0236883 -0.13681985 -0.18615276
000350 1b 9f be bd b5 29 24 be 0e c3 18 be 5d fa 1f be
       -0.09307691 -0.16031535 -0.14918157 -0.1562285
000360 1f 87 c6 bd 49 bb a6 bd b7 e8 53 bd 53 0d df bd
       -0.09693741 -0.081411906 -0.051735606 -0.10891213
000370 2f 7d 68 be e1 25 41 3c 79 63 bf bd 12 c0 ea bd
       -0.22704004 0.011788816 -0.09345145 -0.11462416
000380 0a bc 02 be d8 27 c2 be 98 c3 77 be b4 9b af bd
       -0.12767044 -0.37921023 -0.24195707 -0.0857462
000390 c0 79 c7 bd 19 90 1c be 75 00 51 be 39 a8 17 be
       -0.09740019 -0.15289344 -0.2041033 -0.14810266
0003a0 3e 5d d1 be 6c 69 3f be 73 87 90 bd d7 40 4f 3d
       -0.4089145 -0.18692559 -0.07057085 0.050598945
0003b0 ae ea 9e be 56 06 df bc e4 14 7b bd c1 b8 a3 be
       -0.3103842 -0.0272247 -0.06129922 -0.31976894
0003c0 c1 7b 35 3e f1 b2 1e be 78 ee 82 be 2b 53 92 bd
       0.1772299 -0.15497948 -0.25572562 -0.07144769
0003d0 16 10 f6 bd 6e 95 9a be a8 c7 7a bd 3d 9d 02 be
       -0.12014787 -0.3019213 -0.061225563 -0.12755294
0003e0 11 22 76 be b7 51 6c be 66 c4 06 be 5b fc 32 be
       -0.24036433 -0.23078047 -0.13160858 -0.17479078
0003f0 5b 09 1f be bf 25 83 be 03 58 56 bd 8f 93 01 be
       -0.15530913 -0.25614735 -0.05233003 -0.12653945

layer2.bias f4 [256]
000000 93 38 ef bd 77 f6 01 3f d1 84 6a bf 41 76 c1 3f
       -0.116807126 0.507667 -0.9160891 1.5114213
000010 67 25 de 3e 43 b6 c4 3d 24 ad c6 3c 51 d8 ae 3e
       0.4338791 0.09605076 0.024252482 0.3414941
000020 3f 89 41 40 9d 65 0f 40 8e 35 ee 3f dc 28 c4 3e
       3.0240018 2.240577 1.8610094 0.38312423
000030 23 be fb bf db 12 85 3d 63 d9 35 be ce cf 89 3d
       -1.96674 0.06497737 -0.17758708 0.06729089
000040 15 13 6f 3f bf c3 c3 be d7 70 90 3e 1e 92 eb 3f
       0.9338849 -0.3823528 0.2821109 1.8403966
000050 d1 c3 06 c0 ad 81 9a 3e 8a fd c6 3f c8 f4 c5 be
       -2.1057017 0.3017706 1.5546124 -0.38663316
000060 f7 a6 ad 3f 83 f8 bd 3d c3 5e a3 3f 6c 41 b5 bd
       1.3566579 0.092759155 1.2763294 -0.08850369
000070 30 1c f2 be bd 1b da bd 4d 13 38 be a8 ff ad bd
       -0.4728713 -0.10649822 -0.17976113 -0.08496028
000080 c9 f6 29 3f ce 04 73 3f 19 7a 96 3f 96 68 15 40
       0.6639219 0.94929206 1.1756011 2.3345084
000090 64 cd dd 3f 68 7e ca 3f a6 00 87 bc 98 9b 94 3f
       1.7328305 1.5819826 -0.016479801 1.1609983
0000a0 10 9b cc 3f 99 27 1c be 53 53 cf 3f 1a 15 a5 b9
       1.5984821 -0.1524948 1.6197304 -0.00031486974
0000b0 c7 4f 3c 3f fa c0 18 3c 21 02 31 40 ef f8 ee bc
       0.7355923 0.009323353 2.765755 -0.029171435
0000c0 4e 35 9f 3f 0a ac be bd d4 44 91 be 1f ab 39 bd
       1.2438142 -0.093101576 -0.28372824 -0.04532921
0000d0 41 7f 2f bd 16 9b df 3f 84 86 12 bf 7d ec 96 bf
       -0.04284597 1.7469203 -0.57236505 -1.179092
0000e0 3f 96 9f 3f 25 cd 4f 3f 87 b0 6b bb a2 64 17 be
       1.2467726 0.811724 -0.0035963373 -0.14784482
0000f0 09 b7 8c bf d9 85 20 3f f2 5b 09 3f 15 2e 3a 40
       -1.0993358 0.62704235 0.5365592 2.9090626
000100 36 68 11 40 02 a6 b9 3f fc 9d de 3f 30 17 f5 3d
       2.2719855 1.4503787 1.7391963 0.11967313
000110 fd ab 31 3f 46 7b 6e 3f 8d 2b dd 3d 6a 3c 65 3f
       0.6940306 0.9315685 0.10799322 0.8954531
000120 23 54 77 bd 20 d9 e1 bd 5e d1 0f 3f 2b 3a 84 3e
       -0.060382973 -0.110277414 0.56178844 0.2582563
000130 38 90 25 3e f7 a4 90 3f ad 7a ab 3f 96 6e 0e 3f
       0.16168296 1.1300343 1.3396813 0.5563749
000140 99 7b 6e 3d 2f 97 85 3f 51 b0 39 be 42 12 31 40
       0.05822334 1.0436763 -0.18133666 2.7667394
000150 f1 71 26 be c5 5f e9 bd 94 71 1b 40 13 43 40 40
       -0.16254403 -0.1139522 2.4288073 3.004094
000160 37 b0 b5 3f 6a 1e 30 3f 64 eb 45 3f a8 d9 b2 be
       1.4194402 0.6879641 0.773123 -0.34931684
000170 98 35 33 3f 16 fb 4c 40 5d 70 cc 3f 6c 64 94 3f
       0.7000365 3.202825 1.597179 1.1593146
000180 9f ae f6 3f 9d 28 57 be ed 2c 9f 3f 38 dc 7b bd
       1.927204 -0.21011586 1.2435585 -0.061489314
000190 20 32 b1 3e 19 0c e1 3e a9 a8 0d 40 56 c9 02 3f
       0.34608555 0.43954542 2.2134192 0.51088464
0001a0 d1 9b 20 40 eb af 06 3d 23 32 3a be 08 ba 46 3f
       2.5095103 0.032882612 -0.18183188 0.7762761
0001b0 dc 81 97 3e dd e6 95 3f fd 0f 6c 3f ba aa 6c 40
       0.29591262 1.1711079 0.92211896 3.6979203
0001c0 fd 5a a4 be 38 0a 23 c0 41 fa 95 be d3 71 5c 40
       -0.3210067 -2.5474987 -0.2929249 3.4444473
0001d0 b9 de 0b 3f c9 0b b2 3e e4 ef 2e bd 0e 87 07 bf
       0.5463672 0.34774616 -0.042709246 -0.5294045
0001e0 01 16 18 be ce b3 95 3f 29 14 5d 3b 93 36 a2 3f
       -0.14852144 1.1695497 0.003373394 1.2672905
0001f0 49 99 ba 3d 5c 85 4b be 3c 47 73 3c ab 06 0f bf
       0.09111268 -0.19875091 0.014848527 -0.5586955
000200 b5 8f ab bf e5 ef 79 3f a1 a5 e7 3d ee 89 d4 bc
       -1.3403231 0.97631675 0.11310888 -0.025944676
000210 c3 d2 8f bd 0b bb bf 3e 15 fb 0d be c9 0d 7c be
       -0.070226215 0.3744739 -0.13865311 -0.24614634
000220 dd 7d 19 3f 3e 83 9a 3f c6 a1 e7 3f f0 f7 22 3f
       0.5995768 1.2071302 1.8096244 0.6365957
000230 7c c3 06 40 58 56 6a 3f 59 66 f2 3e 23 13 0a 3d
       2.1056814 0.91538 0.4734371 0.033709656
000240 d0 1e 5c 3e 8c 67 f0 3e 42 c2 5e 40 6e 78 93 3d
       0.21496129 0.46954 3.4806066 0.072007045
000250 e4 24 95 3e 9a 80 ec be 71 6b f7 3e 2e cd a4 bd
       0.29129708 -0.46191865 0.4832416 -0.080469474
000260 e6 bc 04 40 bf 78 cf 3c b7 b4 45 be c4 44 19 be
       2.0740294 0.02532613 -0.19307218 -0.14967638
000270 06 87 4d 3f f3 b5 37 bd 77 64 f0 be 5c 69 67 3f
       0.80284154 -0.044851255 -0.4695165 0.9039514
000280 ad cb 0c 3d fb 4a 6c be 71 b8 ab 3f 5d 64 32 40
       0.034373928 -0.23075478 1.3415662 2.7873757
000290 ff 6b e2 bd a6 f4 0c 40 7c 82 9c 3f 26 3a 13 40
       -0.11055755 2.2024322 1.2227321 2.300424
0002a0 55 a5 c4 3f a3 3b db 3e a6 ad 42 40 42 36 ac 3c
       1.5362955 0.42818937 3.0418487 0.021021966
0002b0 53 62 15 3e 68 b9 40 3e f0 37 83 3f 42 65 53 3f
       0.14588289 0.18820727 1.0251446 0.8257638
0002c0 b0 fd 8e bd 58 0a fb 3e 47 8d 80 3e b9 b5 38 3e
       -0.06981981 0.4903133 0.25107786 0.18038072
0002d0 c0 6b 39 be 6d da 60 be c6 12 49 be 93 c0 ef be
       -0.1810751 -0.21958323 -0.19636068 -0.4682661
0002e0 42 ae 86 3f 77 1a 1b 3f 37 9e d6 bc f4 e6 52 bd
       1.0521929 0.6058726 -0.02619849 -0.051489785
0002f0 dc c8 18 be 01 4b 68 3f 31 0e b4 3f ad b1 f6 3d
       -0.14920372 0.90739447 1.4066831 0.12045608
000300 b0 a9 07 be 35 e2 6c bc 24 ad 37 bf 35 3f 1e 3f
       -0.13248324 -0.014458229 -0.71748567 0.61815196
000310 e4 c1 5f 3f 42 65 3f 3e b7 bc 85 be ea e7 ed bf
       0.8740523 0.1869097 -0.2612054 -1.85864
000320 da 64 d1 be 76 4b 63 3d 88 67 8e 3e b7 e8 4f 3d
       -0.40897256 0.055491887 0.27813363 0.050759044
000330 6e 55 66 3f 45 6d b7 3e 23 d2 2a 3f fd 93 f6 be
       0.89974105 0.35825554 0.66726893 -0.4815978
000340 c8 2e 0b 3e 6b 68 14 be 38 0c 90 3d 0b ac 0f bf
       0.13592064 -0.14492957 0.070335805 -0.5612189
000350 c4 6b db bd 2e 05 b5 bf 53 16 53 3d 7f 70 e5 be
       -0.10713914 -1.4142206 0.051534962 -0.4481239
000360 d5 36 0d 3e c9 d2 bb 3d 43 d5 97 3e 69 c2 8f 3e
       0.13790448 0.091710635 0.29654893 0.2807801
000370 4d dd 4a 3f 61 d6 ee 3e 8c 1a 16 be 13 8a ee 3e
       0.7924393 0.46647933 -0.14658564 0.46589717
000380 e0 b6 a2 3f 83 2f 35 3f 43 24 0f 3d 0b 73 dc 3e
       1.2712059 0.7077562 0.03494669 0.4305652
000390 6c 72 6b bf c0 31 79 be 80 10 d1 3f 75 9c 1b 3c
       -0.9197147 -0.24335384 1.633316 0.0094977515
0003a0 f4 75 5a 3f 26 49 22 40 f3 54 40 3e 16 28 a9 3f
       0.8533623 2.5357146 0.18782406 1.3215358
0003b0 f7 2c 78 3c 41 35 61 3f e3 ac 41 be cd c9 c2 3f
       0.015147439 0.87971884 -0.18913607 1.5217835
0003c0 22 1e 2d 40 1e 95 a0 3e 7d 29 06 3e 70 70 c8 3d
       2.7049642 0.31363767 0.13101764 0.09787071
0003d0 c6 23 13 3f 29 9e 24 3f 63 ba 95 bd 0a bd d0 3d
       0.5747646 0.64303833 -0.07310941 0.10192306
0003e0 16 5a 12 bd 3e c9 02 3f 59 d8 00 bb 9c 95 47 bf
       -0.035730444 0.5108832 -0.0019660203 -0.7796266
0003f0 a3 ab e9 3f 06 ec c4 bc c2 1a 17 c0 e7 36 15 c0
       1.8255504 -0.024038326 -2.3610082 -2.331476

layer3.weight f4 [256, 256]
000000 81 23 a9 bc ca eb ba bd 79 bb a0 bd 1b af a9 be
       -0.020646812 -0.091270044 -0.078482576 -0.33141407
000010 77 3d af be a5 87 1e be 3e 41 1a bf d3 82 e6 be
       -0.3422658 -0.15481432 -0.602558 -0.45021686
000020 7e 5c af bd cf 1a e3 be ee a7 c2 be c8 5c fb 3d
       -0.08562563 -0.4435639 -0.38018745 0.12273556
000030 b4 91 0d be 54 cf 87 be 6d a0 ed bc ba 4f a9 3d
       -0.13825113 -0.26525366 -0.029007161 0.0826716
000040 58 5f f6 be da e9 78 bd 7a f0 40 bd 57 bd 3f be
       -0.48119617 -0.060769893 -0.047104336 -0.18724571
000050 14 55 8f bd 51 fd c8 be 8b 5a bf be 0f 0b cf bd
       -0.06998649 -0.39255765 -0.37373766 -0.10109531
000060 8f ca 5d bb 78 1a 08 3d 13 2c 19 be 60 93 cf be
       -0.0033842658 0.033228368 -0.14958219 -0.40542126
000070 67 51 e7 be b0 d1 90 bd b5 47 b2 bc bf e6 86 bc
       -0.45179293 -0.07071245 -0.021762708 -0.01646745
000080 1e 3f 9c be 54 44 b0 be 18 8c fa be 78 9b e7 bd
       -0.30516905 -0.3442713 -0.48935008 -0.1130895
000090 2e 0d 9d be 54 4c 65 be c3 ac 8f bd 55 8b 70 3e
       -0.30674118 -0.22392398 -0.070153736 0.23490651
0000a0 e3 6e 01 bf 60 77 81 bc 30 b7 90 bf ad 73 ff 39
       -0.50559825 -0.015803993 -1.1305904 0.00048723575
0000b0 0a c2 3a bd 9f 5a e2 bd 82 53 9b bc f9 1b c6 3c
       -0.045595206 -0.11052441 -0.018960718 0.02418326
0000c0 53 f7 30 3e 2d 26 89 bc a8 df 53 3e 16 40 4c 3e
       0.17281847 -0.016741836 0.20690787 0.19946322
0000d0 5c 1a 55 3c c6 39 64 be ad 39 54 be ad 7c fc 3d
       0.013006773 -0.22287664 -0.20725127 0.123284675
0000e0 c0 59 8b be 46 1f 23 3f 51 4f 40 be 8e b1 98 be
       -0.2721691 0.63719594 -0.18780257 -0.29822963
0000f0 a8 e6 0d bf 58 30 65 be 97 4c 15 3f 6d c9 55 be
       -0.5543008 -0.22381723 0.5831999 -0.20877619
000100 f9 20 40 be cb cd e9 be 9b f6 10 be a7 b1 d0 3c
       -0.18762578 -0.4566482 -0.14156573 0.025475336
000110 85 06 39 3d 7f 88 82 be a6 80 5e be 72 a9 54 bf
       0.045172233 -0.25494763 -0.21728763 -0.83071053
000120 e3 a7 08 bd a5 0e 47 be 8f 3a 66 be ae 62 bb be
       -0.033363234 -0.1943918 -0.22483276 -0.36598724
000130 19 05 d6 3b d6 3b 18 be 9a 55 62 be f7 8c 19 bc
       0.0065313694 -0.14866576 -0.22102967 -0.009371988
000140 49 13 54 bd eb 83 e1 bd 30 21 4b 3e fe d7 a4 be
       -0.051776204 -0.110114895 0.19836879 -0.3219604
000150 4c 84 bd bd 87 98 b0 3d 8a 95 98 bd 22 9f 91 be
       -0.09253749 0.08622842 -0.07450397 -0.2844172
000160 88 f1 aa be 21 30 56 be 6f 04 4c 3f bc 2c 22 3d
       -0.333874 -0.20916797 0.79694265 0.039593443
000170 c7 3f ae be 42 8d 79 be a3 61 0b be 01 b8 9e 3e
       -0.34033033 -0.24370292 -0.13611464 0.3099976
000180 1f ec 03 bd 34 92 a2 bd f6 db 4a 3e 33 aa 9e 3c
       -0.032207604 -0.07938042 0.19810471 0.019368267
000190 96 4f 8c bd c5 cd 02 be 66 b2 3b be ff a4 5b be
       -0.06851117 -0.12773807 -0.18329772 -0.2144966
0001a0 f1 ed 5d be a8 7b eb 3c 57 da 88 bd c6 40 90 be
       -0.21672799 0.028745487 -0.0668227 -0.28174418
0001b0 3a 52 95 be c3 c4 82 bf a1 63 b0 be f4 2f 74 be
       -0.29164296 -1.0216297 -0.3445101 -0.23846418
0001c0 00 9e 46 3d eb 45 eb be 51 ac a5 3c 0b 41 51 be
       0.048490524 -0.4595178 0.020223768 -0.20434968
0001d0 57 53 c0 bd 29 dc 6f bd d2 94 72 bd dd ec 88 bd
       -0.09390896 -0.05855957 -0.059223957 -0.06685803
0001e0 7a e3 1a bd 7e b0 a4 be 42 1e 03 3d b9 55 b4 be
       -0.037814595 -0.32165903 0.032011278 -0.3522165
0001f0 f8 3e 21 bf 38 06 30 bd 92 81 e5 3c 9a d7 48 bf
       -0.6298671 -0.04297468 0.028015886 -0.7845398
000200 8d d4 49 bf 13 02 b6 3e ce c6 9a bd 90 16 c4 3b
       -0.7883995 0.35548458 -0.0755745 0.005984135
000210 bb 3f 38 be ca 15 91 3e 61 30 4d bd c8 34 fd 3c
       -0.17993061 0.28336936 -0.050094966 0.030908957
000220 30 f5 09 bd 73 0a f7 be f0 9f 0a bf 3a 43 4d 3e
       -0.033681095 -0.4825016 -0.54150295 0.20045176
000230 8b f5 13 be 52 77 43 bd f5 02 e8 bd ab 46 81 bd
       -0.14449136 -0.047721215 -0.11328689 -0.06312307
000240 b3 70 09 bc f7 af 67 bf 7d 4d 8a be 21 b6 2b 3d
       -0.008388686 -0.90502876 -0.27012244 0.04192174
000250 59 fc e3 bc cb ad 14 be 15 63 60 bd ff 97 a6 3b
       -0.02783029 -0.14519422 -0.054781992 0.0050840373
000260 7c 7f b0 be 0d 4b 07 bf 05 24 6b bc 0a 57 85 bd
       -0.34472263 -0.52848893 -0.014351849 -0.06510742
000270 75 b6 83 be 82 ac d3 3c e8 d9 61 be 51 83 90 3e
       -0.2572514 0.025839094 -0.22055781 0.28225186
000280 ab 19 d7 bc 3b 23 41 3d ee ce 95 be cd ab ca be
       -0.026257357 0.04715274 -0.29259437 -0.395842
000290 fc 10 62 3d 9e 93 0d be 2d b7 88 bf fa f7 5a be
       0.05519198 -0.13825843 -1.0680901 -0.21383658
0002a0 41 f9 7c be ad ab cc bc 1f e4 6c be 41 d9 ed ba
       -0.24704458 -0.024984205 -0.23133896 -0.0018146412
0002b0 81 10 05 3d 92 f2 82 bd 8a da 3a 3e 20 45 0d bf
       0.032486442 -0.06393923 0.18247429 -0.551836
0002c0 2e ef 9e bd 8d 33 88 be 04 4e 8d be 10 32 6a bd
       -0.07760464 -0.2660183 -0.27598584 -0.05717665
0002d0 72 f9 b9 3c aa b0 63 bd f1 a4 32 3d 8e 94 07 bf
       0.022701953 -0.0555884 0.04361433 -0.5296105
0002e0 f6 31 84 3d 67 35 82 be 15 ef 2b bd fb c6 87 3b
       0.06454842 -0.25431368 -0.041976053 0.0041435934
0002f0 67 91 05 3c a0 ed 4f be 82 66 46 bf 3a 8c 7d 3d
       0.008152342 -0.2030549 -0.77500165 0.06190131
000300 46 12 d5 bc 51 58 9e be ad cd be 3d 89 1c fa be
       -0.02600969 -0.30926755 0.09316573 -0.48849896
000310 69 03 e6 be ec 65 19 3e 5b 0f 53 3e b3 b7 dc be
       -0.44924477 0.14980286 0.20611326 -0.431089
000320 46 f5 72 be fa 41 8a be a3 36 ab bc 5d 70 23 bf
       -0.23726377 -0.2700346 -0.020900076 -0.6384333
000330 b4 ed 79 bf ac 41 c5 3e c5 82 be be e6 17 24 3f
       -0.9762833 0.38526666 -0.37209144 0.64098966
000340 f7 9b aa bd a4 78 a5 3e 6f 1b 71 bd 02 b9 e8 3e
       -0.08330529 0.32318604 -0.058864053 0.4545365
000350 e3 37 0d 3d 75 5b 3f 3e ed 0d 15 bd 43 ee e8 3d
       0.034477126 0.18687232 -0.036390234 0.1137357
000360 28 88 2c be f4 b0 28 bc bc c7 d6 be e2 5e 24 be
       -0.16848814 -0.010296095 -0.4194926 -0.1605182
000370 38 c8 79 be ce 87 d3 be 2d 45 b2 bc d0 77 5e bc
       -0.24392784 -0.41314548 -0.021761501 -0.01357837
000380 c8 32 9f 3e fb ed c8 3e eb 79 63 be da 4b 61 3d
       0.3109343 0.39244065 -0.22214477 0.05500398
000390 f9 2e b4 3d 12 6d 41 be a9 62 b1 be 6c 8e d6 be
       0.08798022 -0.18889263 -0.34645584 -0.41905534
0003a0 bd 0d ca bc 40 7c 81 be 3e f9 be be ed 13 2b bf
       -0.024664754 -0.25290108 -0.37299532 -0.6682728
0003b0 56 bf 43 3d 71 25 b5 3e d5 ba 9e bd 7d c5 a2 be
       0.047789894 0.35380128 -0.07750479 -0.31791297
0003c0 39 a5 ce bd 10 ce 25 3c e9 ea 93 3c d8 e1 4a bd
       -0.100901075 0.01011993 0.01805635 -0.049531788
0003d0 a9 ea 83 3d cb e6 e9 bd ae 9d d5 bd 88 cc 75 bf
       0.06441242 -0.114209734 -0.10430466 -0.96015215
0003e0 8d b7 df bc 5f 6a d6 be 8f 04 a1 bc d9 76 12 bf
       -0.027309204 -0.4187803 -0.019655494 -0.572126
0003f0 ef c0 82 be 41 a8 d9 bc ea 9f db be cd 90 5d bf
       -0.25537822 -0.026569488 -0.42895442 -0.86549073

layer3.bias f4 [256]
000000 cb bc 0f bf c0 79 c2 3f bf 41 94 3d ca 71 3d 40
       -0.5614745 1.5193405 0.072391026 2.9600701
000010 f2 f2 88 bd 1c 84 4a 3f cb 27 d5 be f1 0c 64 3e
       -0.06686963 0.7910783 -0.41631922 0.22270562
000020 7d 69 31 3f 2d 0d 7d 3e e8 87 06 3f 22 9e f7 be
       0.6930159 0.24712057 0.52551126 -0.48362833
000030 d9 a4 94 40 11 04 84 40 09 bc b1 be 74 2b ad 3f
       4.645123 4.1254964 -0.34713772 1.3528886
000040 43 94 bd 3f cd cf b5 be d4 85 8d 40 1d d9 0f be
       1.4810871 -0.35510102 4.4225864 -0.14047666
000050 1e cb be 3e b2 9f df 3d 27 24 38 bd b6 a1 2d 3f
       0.3726434 0.10919131 -0.044956353 0.67824876
000060 3a 52 9c 3e 71 11 ac 3f b9 a1 69 3f dc 2e 29 be
       0.30531484 1.3442823 0.91262394 -0.16521782
000070 c8 39 a7 be 56 4e 9b 40 d1 e8 96 3e 9a 2c 2d bd
       -0.3266127 4.8533125 0.294745 -0.042278863
000080 42 76 b5 3e a9 e2 49 be b0 fb 21 3b 25 33 e5 be
       0.35441786 -0.1971537 0.0024716668 -0.44765583
000090 b4 08 a2 bf 3e 7a 4b 3d 96 6d fe bc 22 c9 74 be
       -1.2658906 0.049677126 -0.031058114 -0.23904851
0000a0 ae da 52 3f 28 63 bc 3f ca 68 7a 3f 27 ab 46 40
       0.8236493 1.471776 0.97816145 3.1041963
0000b0 89 3c 37 3f a9 41 e0 bd b9 c9 c3 bd 57 39 9a be
       0.71576744 -0.10950024 -0.0955996 -0.30121872
0000c0 23 7f 32 bf e3 56 e7 bc 8e 34 5b be 08 d9 76 3f
       -0.69725245 -0.028239673 -0.21406767 0.96424913
0000d0 c2 b8 1e 40 c2 42 c8 3f 12 2a 8b 3f ed 42 4e be
       2.4800267 1.5645373 1.0872214 -0.20142718
0000e0 1a 7f f2 3e eb 38 99 be 0a 39 2b 3e 4f 1e 69 be
       0.47362596 -0.29926237 0.16720977 -0.22765468
0000f0 6d a7 a0 bf 08 b5 94 3f c6 fb 62 3f 28 d2 82 3d
       -1.2551094 1.1617746 0.88665426 0.063877404
000100 74 9e e3 3e 56 73 5d 3f e2 95 ba 3f 5f 58 70 bf
       0.44456828 0.86504114 1.4576991 -0.93884844
000110 82 3c 0b 3f 2a 2f 2b 3f ff 87 dd be 32 62 29 be
       0.543892 0.6686884 -0.4326782 -0.16541365
000120 00 09 a5 3e 17 a4 61 bf ed ea 5e 3f 5b 20 a4 3e
       0.3223343 -0.88141006 0.8707722 0.32055935
000130 ff 1a b3 bd 80 1a 42 3f 54 96 0e 3e d4 c3 b3 3f
       -0.087453835 0.75821686 0.13924533 1.4044137
000140 a6 b3 d1 3f 6d 8f dd 3e c4 71 e8 bd fc 7f a4 3f
       1.6382949 0.43273488 -0.11349824 1.2851558
000150 c9 e1 77 40 7a ef 0f 3f a1 27 16 40 24 7a bc 3f
       3.8731558 0.5622479 2.3461688 1.4724774
000160 1b b3 89 40 86 4e b7 3f b9 62 8d 3f cf 86 64 40
       4.3031135 1.4320838 1.1045753 3.570728
000170 b0 cc 90 3e ba 64 83 3e f8 ae e1 3f 27 b6 65 bf
       0.28281164 0.25662786 1.7631521 -0.8973107
000180 b5 0d 4c 40 0a c2 cb 3f dc 07 86 be 03 97 5c 3f
       3.1883366 1.5918591 -0.2617787 0.86167926
000190 dd 41 b6 3f 8d 02 2f be 40 8b eb 3f 35 4c 47 3e
       1.423885 -0.17090817 1.8401871 0.19462664
0001a0 c0 d3 e2 3e 07 93 d4 3f bb 3a 93 3f 5d 97 36 3e
       0.44302177 1.6607369 1.1502298 0.17831178
0001b0 60 c3 82 bf cd f2 91 3e 52 70 a1 be c6 fc 1a 3d
       -1.0215874 0.28505555 -0.31531006 0.03783872
0001c0 bb 8d dd be 3e 8d 8b 3f 3c 31 d8 be b6 c4 80 40
       -0.43272194 1.0902479 -0.42225063 4.0240126
0001d0 52 22 37 be 28 03 42 be 92 0c b7 3f 24 d8 40 3e
       -0.17884186 -0.18946517 1.4300711 0.18832451
0001e0 a1 0e 43 3f 46 ad 6f 3c 5b a6 21 40 37 89 4e 3f
       0.76194197 0.014628714 2.5257785 0.80678123
0001f0 f3 5a fe bc 5c ec 27 3f fd ff e6 3e b8 ea 08 bf
       -0.031049227 0.6559503 0.4511718 -0.5348315
000200 63 a5 b6 be 92 f1 1e be 43 6b 65 3f 18 c9 94 be
       -0.35673055 -0.1552184 0.89616793 -0.29059672
000210 a4 d0 02 be be e1 9a be f1 f3 f6 3e 4a d3 2a 3f
       -0.12774903 -0.30250353 0.48232988 0.6672865
000220 99 53 89 40 1d e3 0e 3f ed d4 15 be 76 cb 0d 3f
       4.291455 0.558153 -0.14632006 0.5538858
000230 59 a8 b3 3f 0f 6a f0 be 96 5c 12 3f 05 e4 19 40
       1.4035751 -0.46955916 0.57172525 2.4045422
000240 f2 07 45 3e d1 1b 35 be fa 20 9d 3f 3c c9 a3 be
       0.19241312 -0.17686392 1.2275689 -0.31989467
000250 fc a1 fb 3f 98 ed e8 3e 3a ee 6d 3f 28 c4 3c 3e
       1.9658809 0.4549377 0.9294163 0.18434203
000260 26 59 a1 be 75 2a 9b 3e 54 ee 2d 3e 06 43 3a 40
       -0.31513327 0.3030583 0.16985446 2.9103408
000270 10 28 76 be c1 67 95 be 4f 51 37 3c b1 02 05 be
       -0.2403872 -0.2918072 0.011188819 -0.12989308
000280 07 42 76 3c 39 7b f5 3e f8 b5 44 be b5 4f 26 3f
       0.015030391 0.47945574 -0.1921004 0.64965373
000290 f7 4a 50 bd de 4f bf 3f 98 3e 29 40 a8 dc 5f 3f
       -0.050852742 1.4946249 2.6444454 0.8744607
0002a0 f4 2a 30 3f c1 49 ae bf 5a 18 9a be 3a 44 05 3f
       0.6881554 -1.3616258 -0.30096704 0.5205723
0002b0 ee c5 91 3f bd 78 96 3f c1 4d 0f 3f 11 ad f2 3e
       1.1388528 1.1755596 0.5597802 0.47397664
0002c0 e4 92 15 3f 80 39 09 40 13 10 39 bf 45 ac 1c be
       0.5842726 2.1441345 -0.7229015 -0.1530009
0002d0 ee b9 2b bf c2 af 2e 3e 6d 13 7e 3d 42 4a ac be
       -0.6708058 0.17059234 0.062030245 -0.33650404
0002e0 ba 71 cf 3e ec 70 7a bf 94 8f 82 3f a9 68 35 3f
       0.40516454 -0.97828555 1.0200067 0.70862824
0002f0 62 71 95 3e 4b b4 cc bd 0f 48 92 3f 81 39 87 be
       0.29188067 -0.09995326 1.142824 -0.2641106
000300 30 f5 27 40 37 e9 80 40 39 c6 e0 3e ca 72 d1 bd
       2.62434 4.0284686 0.43901232 -0.102269724
000310 6d 7e 8e bc 8d 96 24 be 36 14 80 40 26 7e 33 3f
       -0.017394269 -0.16073056 4.002467 0.7011436
000320 f4 0c db 3f 0a 99 a5 3d 38 6a d0 3d 31 a2 5b 3f
       1.7113328 0.080858305 0.101765096 0.8579436
000330 64 d1 43 c0 8b 2e 59 be 09 a5 09 be 13 57 75 3f
       -3.0596552 -0.21209161 -0.13441862 0.9583599
000340 17 8c 52 3f a0 1b 08 40 72 3d 90 3f 22 0e 3b bd
       0.8224501 2.126686 1.1268752 -0.045667775
000350 52 d3 8e be 07 e8 21 3f 96 5c 1e 3e 48 41 d7 bd
       -0.278956 0.6324467 0.15465006 -0.10510498
000360 ee d0 89 40 50 b8 b3 bd 09 16 68 3f 17 61 0b bf
       4.306754 -0.08775389 0.9065862 -0.5444502
000370 88 0e da 3d de ea bb 3e 67 18 bd bd de f8 fd bd
       0.10647303 0.36702627 -0.0923317 -0.12400983
000380 ab af 65 40 c8 79 c0 3f 7c 59 c9 3f 51 bf d3 bc
       3.588847 1.5037165 1.5730433 -0.025848063
000390 b0 64 97 3f 85 ef d2 bd aa 2b f6 3f cd d2 8b 3e
       1.1827602 -0.10299591 1.9232075 0.27309266
0003a0 d9 d0 4a 3f e9 bc c9 3d 89 e6 d3 bc 82 82 5a 3f
       0.79224926 0.09850485 -0.025866764 0.8535539
0003b0 63 0b 76 40 e3 52 49 bd 9f 8b 80 bc d5 4b 29 bd
       3.844445 -0.049151313 -0.015691577 -0.041332085
0003c0 a6 56 c8 3e b2 8f d3 3e 12 8c d7 3e 60 3f ee be
       0.39128608 0.41320568 0.42099053 -0.46532726
0003d0 95 a8 e2 3e 55 63 32 3f f3 fc c2 3e b4 19 0b be
       0.44269243 0.6968282 0.3808361 -0.13584024
0003e0 81 46 08 bf 9f 2c 66 be f2 78 af bd f4 9f 90 3f
       -0.5323258 -0.22477959 -0.0856799 1.1298814
0003f0 71 24 12 be 09 78 ac 3e 53 cc c8 3e ea 85 32 bf
       -0.14271714 0.3368533 0.39218387 -0.69735587

layer4.weight f4 [128, 256]
000000 94 3f c6 bd 4e 9d 24 3c 92 10 af 3d 6c b5 4f be
       -0.09680095 0.01004727 0.085480824 -0.2028405
000010 3d 7f 3d bd 62 70 89 3a 57 80 07 bd 2b 0a 17 be
       -0.046263922 0.0010485763 -0.03308138 -0.14749973
000020 98 c2 4a bd 37 01 92 bb 65 71 ad bd 8c 3d 0e 3d
       -0.049501985 -0.004455711 -0.08468894 0.034726664
000030 23 bd 7e bd 0c a2 b4 bc 1c a5 2c 3d ac 33 76 3d
       -0.062192094 -0.022049926 0.042149648 0.060107872
000040 51 58 91 ba 89 47 02 3d 20 85 ef bc 17 ac 19 3d
       -0.0011088942 0.031806502 -0.029238284 0.037517633
000050 c4 e1 97 bd c2 12 29 be 66 82 2b 3d 7c 5f d6 bc
       -0.07416108 -0.16511062 0.041872405 -0.026168577
000060 1c 39 19 be 0b e7 cd 3c 38 9c 9c be 37 4d 06 bd
       -0.14963192 0.025134584 -0.30587935 -0.03278848
000070 2d aa e8 bd 0c ec 4e bc 02 7f 63 bc 9e 78 97 bd
       -0.113605835 -0.01262952 -0.0138852615 -0.07396053
000080 08 52 16 bd ab 6d 3a 3d c2 e7 07 be a4 9a 8c bc
       -0.036699325 0.045514744 -0.13272002 -0.017163582
000090 ba 66 de bd bf 96 6a bd 4c 5f 66 3d f3 1a c2 bd
       -0.10859437 -0.05727267 0.056243226 -0.094777964
0000a0 23 e3 d7 bc b5 88 87 bd 96 7f 58 bd a4 d0 ba 3d
       -0.026353424 -0.06617872 -0.05285605 0.09121826
0000b0 43 33 b5 bd 43 84 ff bc 94 c9 89 3c 8a 88 15 3d
       -0.08847668 -0.031190997 0.016819753 0.036507167
0000c0 36 fc 83 bd a9 c2 20 bd 03 ed 16 3d 62 33 d4 3c
       -0.0644459 -0.039248142 0.036847126 0.025903407
0000d0 88 fb 21 3e d3 6b b6 3c 3e ee 65 bd 02 66 28 3c
       0.15818608 0.022268211 -0.05613541 0.010278227
0000e0 2e ab 1e 3b fa 45 b6 3b 13 8c b8 bd fc c1 52 bc
       0.0024210918 0.005562541 -0.09011092 -0.012863632
0000f0 05 e6 33 be 7a ab e8 bd 76 a8 a8 bd 3c 71 0d 3d
       -0.17568214 -0.113608316 -0.082352564 0.034531817
000100 2d bf c1 bd ce 08 ae bd 96 d4 8d 3c da 99 c4 bc
       -0.09460292 -0.08497773 0.017313283 -0.023999143
000110 b8 91 04 be 08 3b 92 bd 9d bf 26 be 76 39 79 3d
       -0.12946212 -0.071401656 -0.16284032 0.060845815
000120 fd 4a 1f be 9f cc e9 bd d7 8b 7e bd c7 8a 70 3b
       -0.1555595 -0.114159815 -0.06214508 0.0036703811
000130 e3 1f 30 bd bf a9 91 3c 58 0f 26 3d 89 35 94 bd
       -0.04299916 0.017781137 0.040541977 -0.072367735
000140 22 7f ee bc 7e 7b 88 3c e4 d9 0f 3d cc f5 c1 bc
       -0.029113356 0.016660448 0.035119906 -0.023676775
000150 2d 17 7c be da b4 97 be 2f 03 cf bd 23 3b 15 bc
       -0.24618216 -0.29630166 -0.10108029 -0.009108338
000160 21 b6 3b bd c6 d2 01 3d 3d 35 36 3d 92 5d de 3b
       -0.04582799 0.03169515 0.044484366 0.006786057
000170 c6 93 3f bd d0 e3 9f 3c 26 51 1c bb 24 23 46 bd
       -0.046771787 0.01951781 -0.002385208 -0.048373356
000180 99 cb 3d bd d9 d4 3c bd f1 b3 59 bc 2e 1d 95 bd
       -0.046336744 -0.046101425 -0.01328753 -0.07280956
000190 cb 88 36 be c4 a5 af bd 09 c1 6c 3c a0 23 d1 3b
       -0.1782562 -0.08576539 0.01445032 0.0063824207
0001a0 4b 0e f5 3e d5 6b 68 bb e6 fe 82 bc 1f be e3 bd
       0.47862467 -0.0035464664 -0.015990686 -0.11120247
0001b0 85 02 28 bd b6 3b e0 3c 26 61 d8 bb 18 8d fa bd
       -0.041018028 0.027372222 -0.006603378 -0.12233943
0001c0 d0 93 38 bd 92 01 4d bd d6 05 05 be 6f 8c 88 bd
       -0.04506284 -0.050050326 -0.12990507 -0.066674106
0001d0 8f c4 c7 3c 45 89 e3 bc 7b 27 b7 3c c3 fc 1c bd
       0.024385719 -0.027775416 0.022357693 -0.03832699
0001e0 7d 61 0d be 1f 65 29 be 0b fb 73 bd f1 82 e7 b9
       -0.1380672 -0.16542481 -0.059565585 -0.00044157312
0001f0 19 df 96 bd c0 5e e3 bd 3f 6a 9d bd d0 9c f2 bd
       -0.07366771 -0.111020565 -0.076862805 -0.11846316
000200 0d f8 88 bd e4 2a 07 bd 5e b4 4d 3d a7 75 81 bd
       -0.06687937 -0.032999888 0.05022084 -0.063212685
000210 7b 9d d9 bc 81 84 ec bd 73 28 0b 3d 46 38 bd b8
       -0.02656435 -0.115487106 0.033974122 -9.022704e-05
000220 f5 22 2f bd 9f be 2d bd c1 56 96 bd 73 61 2b 3c
       -0.042757947 -0.04241812 -0.07340766 0.010460245
000230 d0 09 ac bd 13 be 93 bc 4d d7 23 be 19 04 df be
       -0.08400309 -0.01803497 -0.160001 -0.43557814
000240 1b 51 d3 3c 02 3b ac 3c 13 41 c6 bd 9a bc 47 3d
       0.02579551 0.02102423 -0.09680381 0.04876385
000250 e6 c8 31 be 77 f8 de bd a7 8e 6d bc fe 80 a5 bd
       -0.17361793 -0.10887235 -0.014499343 -0.08081244
000260 d4 85 a2 3d 39 92 0e be 08 e0 e3 bd 12 00 6f 3c
       0.07935682 -0.13922967 -0.11126715 0.014587419
000270 82 0a 95 3c d1 45 cd bc dd 83 cc bd 15 2f 3f bd
       0.018193487 -0.025057705 -0.099860884 -0.04667576
000280 08 1c 8d be 2c cb 87 bd 0f 9a ea bd a1 83 01 be
       -0.2756045 -0.06630549 -0.114551656 -0.12647869
000290 93 aa 4c bb 6f 31 de bc 9e 6a c2 bc 01 9a f9 bc
       -0.00312296 -0.027123181 -0.02373248 -0.030468943
0002a0 87 2e 6c 3d 66 8d fb bd 8a e9 da bb d7 26 a4 bd
       0.05766156 -0.12282829 -0.006680672 -0.080152206
0002b0 cc 28 56 bd b3 d9 87 bd e0 d4 b8 bc b2 c4 57 3b
       -0.052285 -0.0663332 -0.022562444 0.0032923636
0002c0 45 76 7c bd bc dd 88 bd f8 61 fa bd 82 a2 a4 bd
       -0.061636228 -0.066829175 -0.12225717 -0.080388084
0002d0 3a 5c 1a be 1e b3 9e bd 2f 9f 2d 39 8b 7d 2b bd
       -0.15074244 -0.07749008 0.00016557866 -0.041867774
0002e0 55 e8 50 3b 78 4a 1c be d3 39 03 3c de 87 1c be
       0.0031876762 -0.15262783 0.008009392 -0.15286204
0002f0 4b 10 c6 bd dd 60 d2 bc 8a cd b3 be aa 27 86 bc
       -0.096710764 -0.025680954 -0.3511775 -0.016376335
000300 14 17 3b bd ee 87 ad bd 61 ce 60 be 9e 84 ce bd
       -0.045676306 -0.08473192 -0.21953727 -0.100838885
000310 ab 44 c4 bc 5c 82 1b 3d 6a 24 b7 bd af cc 98 bd
       -0.023958525 0.037966117 -0.08942492 -0.07460915
000320 bb 27 f3 bc 8e 94 9b bd 7f 00 69 3c 41 f2 86 3c
       -0.02968203 -0.07596694 0.01422131 0.016472938
000330 13 89 c8 bd a7 93 28 bd 14 19 c4 3a 4e c7 32 bc
       -0.0979177 -0.041156437 0.0014961087 -0.010911776
000340 82 6a 14 bd d5 c0 51 bd 62 10 ae bd 16 77 ce 3c
       -0.036234386 -0.05120929 -0.084992185 0.025203269
000350 43 04 bb bd f1 1f 8b bc 13 09 8a 3c d8 dd d0 3c
       -0.09131672 -0.016983004 0.01685003 0.025496408
000360 dd 12 5f bd 24 7b a1 bb 57 80 0e be 05 69 68 bd
       -0.05446135 -0.0049280096 -0.13916145 -0.05674078
000370 31 e9 87 bd c9 1d f8 bc e2 08 0f bd ac a7 20 3d
       -0.066362746 -0.03028764 -0.03492058 0.039222404
000380 2a 38 f2 3b 46 cd 02 3d eb 27 08 bd 22 7d 46 3d
       0.007391949 0.031934045 -0.033241194 0.04845918
000390 41 a7 4e bc d4 d3 7b b9 00 4c 04 3d 25 c7 f5 bc
       -0.012613119 -0.00024016137 0.03229904 -0.030002186
0003a0 a6 66 b1 bc b9 15 c2 bb 64 fd 03 bd d0 f2 fc 3c
       -0.021655392 -0.0059229997 -0.032224074 0.0308775
0003b0 4e a5 0f bd e8 a2 5a 3d 78 75 ce bc 66 10 a8 3d
       -0.035069756 0.053378016 -0.025202498 0.08206253
0003c0 38 ca 40 ba b7 82 d2 3b 84 6e 69 bc bd ed b0 bd
       -0.00073543517 0.006424274 -0.01424754 -0.08639095
0003d0 d0 be b0 bc 0d 60 2c bd 9d 5e fa 3c 17 7d b9 3d
       -0.021575361 -0.04208379 0.030562693 0.09057062
0003e0 f7 8a 84 bb 82 a9 aa bc 5c 55 47 3d 0c 95 6f be
       -0.004044886 -0.02083278 0.04866539 -0.233967
0003f0 1a 2a 1b bd 88 28 af bd cb 19 1b bd ea cc a5 bd
       -0.037881948 -0.085526526 -0.037866395 -0.08095725

layer4.bias f4 [128]
000000 50 4e e4 3d 8c 69 fd 3e e4 ec ad 3f 98 1e cb 3e
       0.111477494 0.49494588 1.3587918 0.3967178
000010 2c 54 a2 be bf 8e 07 be ae 1a 41 3f 80 7a be 3e
       -0.31704843 -0.13238047 0.75431335 0.37202835
000020 f1 bc 85 3f 9b 5c 6a be c3 20 ee 3f e8 37 0a bc
       1.0448285 -0.22886889 1.8603748 -0.008436181
000030 ab 4b 8a be 36 1c 7c bd e1 15 8b 3d 88 c2 53 bd
       -0.27010855 -0.06155034 0.067912824 -0.05169919
000040 d4 26 a9 be aa cd e5 3f a1 dd b1 3f e4 79 27 be
       -0.33037436 1.7953389 1.3895761 -0.16355091
000050 66 2f 65 bd 25 79 34 3d f2 6c 69 bd 23 46 35 40
       -0.055953406 0.044060845 -0.056988664 2.8324058
000060 f1 b1 bd bd 58 2a f8 bd de 9b 28 3f c0 40 c5 3d
       -0.09262455 -0.121174514 0.65862834 0.09631491
000070 38 87 af 3f 60 be 89 bd c4 c1 38 40 a1 60 db 3e
       1.371314 -0.06725764 2.8868265 0.4284716
000080 30 a5 66 40 a8 17 6d 3f e3 d4 cd bd e7 00 95 3f
       3.6038322 0.9261422 -0.100503705 1.16409
000090 58 60 db bd 92 18 24 3c 8d 48 73 3b bc cc 35 3e
       -0.107117355 0.010015624 0.00371221 0.17753881
0000a0 20 77 32 be fa a4 5d 40 b6 61 8d bd ea 2c 98 be
       -0.17428255 3.4631944 -0.069034025 -0.29721767
0000b0 c2 ed 6f 3f 87 f4 99 bd ce 1b 39 3f ea ae a5 be
       0.93722165 -0.07517343 0.7230805 -0.3236001
0000c0 6d 8d ca 3f d2 9f 00 be dc 77 78 bc 9f 3e 7d 3f
       1.582441 -0.12560967 -0.015165295 0.9892368
0000d0 7a fe b7 3d ff 65 aa bc 78 e7 92 3e ab 80 73 bd
       0.089840844 -0.020800589 0.28692222 -0.05944888
0000e0 f5 5b 00 be 16 cc 0a bf 26 c9 95 3e 40 55 9f bd
       -0.12535079 -0.5421766 0.29255027 -0.07779932
0000f0 62 a9 a6 be 65 22 bc 40 b9 9b 4c 3f 1a 4d ed bb
       -0.32551104 5.8791986 0.79925114 -0.0072418572
000100 cb c6 74 bc 6a 48 e4 3e f4 47 80 bd fa 61 00 40
       -0.014939974 0.44586498 -0.06263724 2.00598
000110 fe 78 c0 bd ed ac 8e bd 27 f5 1d 40 b3 37 bf 3e
       -0.093980774 -0.06966577 2.468088 0.37347183
000120 62 a3 25 3e 18 31 1b 40 49 95 d6 bd f0 3c 35 be
       0.16175607 2.4248714 -0.10477693 -0.17699027
000130 c0 48 28 be f5 fe 75 bd c8 51 cb bc e2 83 91 3d
       -0.16434002 -0.0600576 -0.02481927 0.07105233
000140 62 fc cf bb 2d 85 41 be 87 af e9 3e 18 39 86 3c
       -0.006347225 -0.18898459 0.4564173 0.016384646
000150 2f fd f9 3e f9 14 6c be bb c3 87 bc 22 a4 2b 3f
       0.48825976 -0.23054875 -0.016572824 0.6704732
000160 d1 62 ec be 3b f2 87 40 7e 35 52 3f 19 13 f5 3c
       -0.4616914 4.248319 0.8211287 0.029916333
000170 68 ea 20 3f 05 f4 02 3e 86 33 6e 3f 07 d1 18 3f
       0.62857676 0.12788399 0.9304737 0.5969395
000180 89 5f fc bd ff ec 49 3f af 01 ae 40 53 36 0b 40
       -0.123229094 0.7887725 5.4377055 2.1751907
000190 ad 00 d9 bc 8e 61 2b 3e d1 04 33 40 fa 07 ad bd
       -0.02648958 0.16736433 2.797169 -0.08448787
0001a0 1a bc ae bd f6 86 9a bd 30 d6 1d bb 66 96 0f bf
       -0.08531971 -0.07545273 -0.0024083965 -0.56088865
0001b0 91 b5 c4 3e a8 59 1f be 4d 1a 93 bd fa 08 77 be
       0.38419774 -0.15561545 -0.07182751 -0.24124518
0001c0 83 ac 82 3d bc a1 91 be 70 2d 18 bf e9 f2 fb bd
       0.0638056 -0.28443706 -0.5944433 -0.12302191
0001d0 6e 76 b9 bc 41 c6 f3 3f fa 93 02 be be 40 9b bd
       -0.02263948 1.9044877 -0.12751761 -0.07580708
0001e0 23 b2 59 3f 49 f0 42 be 11 0b 8c 40 60 4b c1 be
       0.8503744 -0.19036974 4.376351 -0.3775282
0001f0 92 d8 e3 3e 44 9b 1b be 62 84 15 3f 58 b1 eb bc
       0.44501168 -0.15195948 0.58405125 -0.028771088
