PPO/ppo_actor.pth (torch, 549599 bytes, 10 tensors)

layer1.weight f4 [128, 29]
00000000: 8c7d 6a3e 0809 ec3d c113 28be 2167 46be
00000010: ee61 6e3d 21cb cd3e 28ef dabc b908 9abd
00000020: f6df 5bbe cf3a 91be 6aff a73d d150 3fbd
00000030: be83 7f3d 42aa 85be 6480 cdbd 85b8 3a3d
00000040: 7d88 01bd 6281 cabd d2eb 82bc c988 533e
00000050: 776e 153e d5ad 03be 928d 5cbc b1dd df3c
00000060: 063a 243e 757b 1ebe 93ff a63d 348a e73d
00000070: 3c30 983d 0f8f a6bd f02d 1a3e 0275 723e
00000080: 8379 82bd 19fb 2f3e 0b80 b83e 7a98 7d3e
00000090: d906 883d 7604 8a3d d0ea 073e 98a8 3fbe
000000a0: 9a3e 63be e7ea 24be 04ec 12be 7f63 5abc
000000b0: 0012 e7bd 5aa4 0ebe cb20 ed3d 2e72 b93d
000000c0: d2df febd aa9d e33d e935 df3d 7463 073e
000000d0: a0e9 243e c56c 193e cc6c f9bd 3ab7 2b3d
000000e0: 29ac 5dbd 550f e0bd 7997 fa3d e5bf c6bd
000000f0: d770 d9bd 21bb c43d 0304 423d 2556 48be
00000100: b5b4 01bf cea0 e03c 0179 303d 01a1 c3bd
00000110: 474f 2abd 1c55 623e 5ac0 14be c214 71bd
00000120: 6eaa 13be ebed 3a3c 7779 d7bd c145 62be
00000130: d787 f13d c22f ea3c 33cf 01bb 2cff 5fbd
00000140: 09d2 c53d 319c 603c aa31 14bd 97a3 a53c
00000150: 3921 d2bd fbf0 943b c757 a1bd f105 73bd
00000160: b575 8e3d f00e 4d3d 58b3 36be 5e6c b73d
00000170: 9214 bd3b e86b 123e a9f5 4a3e 60be 7bbe
00000180: 0583 703e d68e 153d f7de 8abe 7de4 3a3d
00000190: c579 9e3b 58bf 8f3c e483 11be 8049 513d
000001a0: 53d9 db3d a8cc f43c c51e afbd 02c8 41bd
000001b0: 1cb1 25bd 41f8 0fbe 0bd9 103e 0ccf 98bd
000001c0: 7074 51be 2cce c33c 65ac b93d 2667 053e
000001d0: f4bc 163e 03ff f6bd 3b56 ca3d 6a56 4bbd
000001e0: e9ab 3b3e cf1d 2cbe fb6d 353e d57b 2e3c
000001f0: 9f8d be3d f79c bcbe eece 3d3e feda 003e
00000200: 9250 103d 3dfc ca3c 26dd 1dbe 4378 efbd
00000210: b3b7 203e c806 133e 1147 303d e4a9 c7bd
00000220: 7a1e 42be d454 ccbc 5da8 f1bc 7eed 83bd
00000230: 6747 0dbe f3c9 80bd 3746 5c3d b69b b43d
00000240: 892c 703d 5391 aa3d ba87 e43d 48ed 483d
00000250: 8e36 283e 608f 5fbe 3613 b03e 138e 5fbe
00000260: 8d5c 59bc cd62 d13d 0a5b c33e 60ee cd3d
00000270: cd26 533d 43d8 c33c 6084 82be 0089 0d3e
00000280: c82e 11bd 8ec1 3b3e 53d0 cf3d f0bb 90bd
00000290: 5dbf 873c 711a f5bd d450 0dbe 88cc 04be
000002a0: 4646 c43d 822f e83c 02a7 e03c ab17 293d
000002b0: 68f5 843d d19d efbd b7a3 a73d a8fe d13d
000002c0: ae4c c23d 846c 1dbe fe69 df3c 6023 f9bc
000002d0: b036 32bd 9536 d03e 8770 063e 8cda 6bbe
000002e0: 5ac0 cfbc 924d b43c 4c94 073e 8254 233e
000002f0: 0b41 99bd b0e2 ff3d be92 7fbe acea 703e
00000300: 77b8 77bd d6a1 953d b0d5 18be bfa5 cebc
00000310: fa07 c4bd 7a8f 9bbc d202 0abe c807 a73d
00000320: c3a1 8fbd be7b 67bd d1b5 30bd e47f 123e
00000330: e956 a03c 3034 ea3d 0d82 3d3e 6956 2a3e
00000340: 8d00 10be 9b45 9b3e f8c7 f83d cae6 93bd
00000350: bcf5 abbe c872 2dbd 7604 623b 2f77 c33c
00000360: 528c 91be 4026 bebd 3723 d2bd 438b 0c3d
00000370: b269 5d3e 78f5 77bb 5bd8 29bd 8480 96bd
00000380: 29fb 4abd ead4 dcbc 8a0e 2c3c 86f3 10bd
00000390: c93d b9bd eec7 24bd c695 bcbd 146e 91bd
000003a0: 5484 22be d337 8ebd ddb7 6bbd 7c86 11be
000003b0: 5222 723e fa99 0cbd f8f7 e93d 6cc8 273e
000003c0: c12e 64bd 3df9 23be d468 283e 549a 97bd
000003d0: 8a1c 173e 942d 6d3e 7159 bfbd 54ac bf3d
000003e0: 4076 813c 7e6a 3fbe 18e0 843e eb31 84be
000003f0: 4eff 81bd 720c f83d 2bb7 c3bc 7e6a 19be
0.22899455 0.1152516 -0.16413786 -0.19375278 0.05819886 0.40194038 -0.026725367 -0.07521195
-0.21472153 -0.2836518 0.08203013 -0.046707932 0.0623815 -0.2610646 -0.10034254 0.045586128
-0.031624306 -0.09887959 -0.015981589 0.20657648 0.1459292 -0.1285928 -0.013461487 0.02732739
0.16037759 -0.15476783 0.08154216 0.11305657 0.07431075 -0.08132755 0.15056586 0.23677447
-0.06370833 0.1718563 0.3603519 0.24765196 0.06641931 0.06739132 0.13273168 -0.18716657
-0.2219185 -0.16105233 -0.14347845 -0.013329386 -0.1128273 -0.13929883 0.115785204 0.09054981
-0.12445034 0.111140564 0.108989544 0.13221532 0.16104746 0.14982899 -0.121789545 0.041922785
-0.054119263 -0.10940424 0.12235922 -0.0970457 -0.106172256 0.096060045 0.047367107 -0.19564112
-0.5066636 0.027420428 0.04308415 -0.095521934 -0.04157951 0.22102779 -0.14526501 -0.058857687
-0.14420483 0.011409263 -0.105212145 -0.22096922 0.117934875 0.028587226 -0.0019807338 -0.05468671
0.09659202 0.013709114 -0.036180176 0.020219607 -0.10260243 0.0045453287 -0.0787807 -0.059331838
0.069560446 0.050063074 -0.17841852 0.08956216 0.0057702744 0.14298975 0.19820274 -0.24584341
0.2348748 0.036513172 -0.27123234 0.04562806 0.0048362934 0.017547294 -0.14210469 0.051095486
0.10734811 0.029882744 -0.08550791 -0.047309883 -0.040452108 -0.14059545 0.14145295 -0.07461366
-0.20454574 0.023902021 0.09066085 0.1302763 0.14720517 -0.120603584 0.098797284 -0.049642958
0.18327297 -0.16808246 0.17717735 0.010649641 0.09304356 -0.36838505 0.18535969 0.12583539
0.035233088 0.02477848 -0.15416393 -0.1169286 0.15695076 0.14358056 0.043036524 -0.09749201
-0.18956938 -0.024942793 -0.029499227 -0.064417824 -0.13796769 -0.06288519 0.0537779 0.08818762
0.058636222 0.083285 0.111587 0.049054414 0.16427061 -0.21832037 0.34389657 -0.21831541
-0.013266695 0.10223923 0.38155395 0.10055232 0.051550675 0.023906833 -0.2549162 0.13821793
-0.035445005 0.18335554 0.101471566 -0.07067096 0.016570741 -0.11967934 -0.13800365 -0.12968647
0.09583716 0.028342966 0.027423386 0.041282337 0.0649212 -0.11700023 0.08185523 0.1025365
0.09487282 -0.15373427 0.02727222 -0.030412376 -0.043509185 0.40666643 0.13128863 -0.23032588
-0.025360275 0.022009645 0.13240165 0.15950206 -0.07483109 0.12494409 -0.24958321 0.2352702
-0.060478654 0.073062584 -0.14925265 -0.025225518 -0.09571834 -0.018989313 -0.13477638 0.08155781
-0.070132755 -0.056514494 -0.043142144 0.14306599 0.019572692 0.11435735 0.18506642 0.16634525
-0.1406271 0.30326542 0.12147516 -0.07221754 -0.33585918 -0.042345792 0.0034487522 0.023860542
-0.28427368 -0.09284639 -0.10260623 0.034312498 0.21622351 -0.003783552 -0.0414661 -0.07348731
-0.04955593 -0.026956994 0.010501513 -0.035388492 -0.09044988 -0.04022973 -0.092082545 -0.07101074
-0.15870792 -0.069442414 -0.057548393 -0.14211458 0.23645905 -0.03432653 0.114242494 0.16385049
-0.05570865 -0.16013046 0.16446239 -0.07402483 0.1475698 0.23161918 -0.093432315 0.09359041
0.015803456 -0.18692967 0.2595222 -0.25819334 -0.06347524 0.12111749 -0.023891052 -0.1498203

layer1.bias f4 [128]
00000000: 19f0 2d3e 2f94 2abe 61fd 1b3e 3000 01be
00000010: bb91 b43c 1741 313e c232 9dbd a1d3 43bd
00000020: 7fce 113e a7b7 d9bd 6c40 fabc 41ee 34bd
00000030: 2c7b 55bd 5537 88bd c39c 233e 10dc 8cbd
00000040: fd82 0e3e 2638 9fbd 3a51 273d a630 c63d
00000050: 0fb4 d53d 596c 2abd b026 e3bd 33c9 583e
00000060: 7551 af3d 4b3e 98bc 6c31 2e3e 6afb b2bd
00000070: 6231 033d b7f1 183e e0ab 2dbd 6dd2 8c3d
00000080: fe41 123e 0a5d 283d ea2d 4e3d 3177 163e
00000090: 6f78 1c3e 3627 133d 09aa 2a3d 6cf9 5e3d
000000a0: 2d71 e8bd 1b6d 303e 552c c1bd cf0f 67bd
000000b0: cfcd 84bd 7252 90bc 3f83 a3bb e4cd 923d
000000c0: 92e8 1cbe a37c 84bc f5cb 053d 9778 92bd
000000d0: 9cd3 63bc b4fc 2bbc d24c 853d 1d46 083e
000000e0: ca26 d7bd 1d77 d9bd ba42 18be 5a6f d6bd
000000f0: 1bb3 01be e840 3abb fc6c 4abd 4fcd f73d
00000100: e59d 3bbc b22d 03bd c5ef 973d 23d6 22be
00000110: 6bc5 a73d ebf1 32bd d6f0 babd ae9d a83d
00000120: 6e06 e63b b993 50be 34ba adbc 1a45 cebd
00000130: 02ac 45bd 631e 373d bdec 613c 0eb3 313e
00000140: 6c08 fa3c c700 c4bd 6389 ce3d 56e9 b2bc
00000150: efb9 453c 4982 2dbd 318c 80bd a9f6 10be
00000160: 337c 273e 9daa c43c e144 f8bc 5da4 adbd
00000170: 0f2f 373d ea5e 543e 7d97 3f3e fa6d d4bd
00000180: 07c9 103e 9356 37bd 0df4 c23d 0708 ef3d
00000190: 8e2a 153e cd47 e9bd e6e9 8ebd a055 2abe
000001a0: c0e0 13be 76d3 433e faf7 403c d6af 15bd
000001b0: 73ee 193e a862 1abe a9d4 ba3d 3662 0d3e
000001c0: 5a18 463e 5d8e 06be 3778 02be 2d61 e03d
000001d0: 586d 6f3b 9c0d d1bd 2c62 febd c1c0 4aba
000001e0: 9b79 c93d 1f17 69be 96c7 56bd f303 84bd
000001f0: a1b2 09be 95bd 2ebd b9c2 17be 7d73 4bbe
0.16986121 -0.1665809 0.15233375 -0.12597728 0.022042146 0.17309986 -0.07675697 -0.047809247
0.14238928 -0.10630732 -0.030548297 -0.04417253 -0.05211942 -0.06651179 0.15977769 -0.06877911
0.13917156 -0.07774381 0.040848948 0.09677248 0.10434734 -0.041607235 -0.110913634 0.21170501
0.085604586 -0.018584391 0.1701104 -0.0873936 0.032029517 0.14935957 -0.04240024 0.06876073
0.14282987 0.041104354 0.050336756 0.14693905 0.15280317 0.035926066 0.041666064 0.054437086
-0.113497116 0.1722912 -0.09432284 -0.05641156 -0.064845674 -0.017617438 -0.004990011 0.07168177
-0.15323094 -0.016172713 0.03266521 -0.07151907 -0.013905432 -0.010497261 0.06508793 0.13307996
-0.10505445 -0.10618422 -0.14869204 -0.104704574 -0.1266598 -0.0028420035 -0.04942034 0.120997064
-0.011451219 -0.032026 0.07418779 -0.15901999 0.08191951 -0.043687742 -0.09127967 0.082332
0.0070198094 -0.20368852 -0.021206953 -0.10071774 -0.048259743 0.044706713 0.013789353 0.1735346
0.030521594 -0.09570461 0.10084798 -0.021839779 0.012068256 -0.042360578 -0.062767394 -0.14156593
0.16355972 0.024007136 -0.030306282 -0.084786154 0.044722613 0.20739332 0.18710132 -0.10372539
0.14139186 -0.044760298 0.09519205 0.11671453 0.14567015 -0.11390648 -0.06978206 -0.16634226
-0.14441204 0.19123635 0.011777872 -0.036544643 0.15032367 -0.15076697 0.09122593 0.13806996
0.19345227 -0.13140245 -0.12741171 0.10956035 0.003653368 -0.10207674 -0.124210685 -0.0007734411
0.098376475 -0.22762726 -0.052436434 -0.06446066 -0.13447048 -0.04266127 -0.14820375 -0.19868274

layer2.weight f4 [256, 128]
00000000: cb98 dfbd 9645 45bd f461 1e3d e72f fdbd
00000010: 4b17 983d 5af7 9bbc d09d 883d fc0c dfbc
00000020: de15 b53d aa3b 52bd 3c04 e1bd 97cc e7bd
00000030: 15b7 6b3d 9a23 6cbd 9fb2 32bd 1d26 9fbd
00000040: e234 af3d e88e f2bb e622 093d cda5 8dbd
00000050: 78a3 9b3d 0971 edbc 2bbf c7bd f57c 813c
00000060: 6f17 b13d fd99 533d 37bd 34be c934 ccbd
00000070: 7532 473c ac5f 003d 0e84 4dbc 18cd 5d3d
00000080: e26e 2a3d fc51 c7bd 273c b43c b70d 45bd
00000090: db0a 94bc 5ea1 163d 848c b13d 61ae 9bbd
000000a0: c6a9 7e3d a9bf b6bc 3a17 b43c fb94 b43c
000000b0: e284 863c ac8d a3bb 8fe5 1a3d 9f78 35bd
000000c0: 1187 283c bd88 9fbc 2aa0 67bc bf18 0e3c
000000d0: 384c 903d 9641 8b3d 738b 6f3c 3de5 b8b9
000000e0: e379 a83d 5998 44bc af23 a23c 0fb3 75bd
000000f0: 7992 5ebd 6563 2e3c 7ffd 4d3d 60c9 a7bb
00000100: c49e b83d 14b6 bd3c ba8c cc3d 9b86 c4bd
00000110: df27 643c 7ff2 81bd 60e5 15bd 7fb2 bebd
00000120: 9883 d13c 594c aa3d d59e febc 8018 a23d
00000130: c4d0 16be 318b 41bc 10ed 8f3d 6686 7abb
00000140: 270b a63d 9e07 f23a c065 bc3d 3bfd cd3c
00000150: 5cff 25bc 74ea 0abd 0546 823a aecd 533d
00000160: 2da3 043e 9ad2 803d 9cfa 693d ff99 e53c
00000170: 7a52 3ebb b4d3 1c3c 6985 983d 5195 bd3c
00000180: 7967 03bc 853b 873d 1f44 c23c 96cf 09bc
00000190: 6066 eb3d 981c ba3c c73a 46bd 360b 4e3c
000001a0: c7e5 44bc 63df b7bb 4df3 9f3c 7040 8e3d
000001b0: 3604 24bd 8780 a33d 8e2c 2b3d a0b6 213d
000001c0: 612a 0c3d f79b 89bd 7edc 523d 0173 d33d
000001d0: 54c8 0e3d efad af3d fe6f 523c da96 48bd
000001e0: a508 5dbd d082 013c fdc7 8abc 120a 83bd
000001f0: 1855 86bd 6b3e 863d a346 de3d c648 713d
00000200: 75a2 aebc 4a99 5b3c f2fe cabd a0b0 b63c
00000210: 82f6 2ebd 40ca 5f3d 8ba7 853c 8f3b 6fbd
00000220: 73bd 5cbc 0b7a ae3d dc87 a73c 5232 723d
00000230: 9aa3 e13d 94fd 17bd b865 e9bd 75d1 d83d
00000240: f0ff a1bc 2da1 5abd 0382 abbd 4c4c 843d
00000250: 3ed4 d1bd 2a94 3bbb 8d00 b83c 023e 0abb
00000260: f233 30bc c02e ed3c a95c 9a3d f166 39bc
00000270: da76 c83d bc80 393c 1ca0 a23d 2a13 513d
00000280: 1004 2b3d 35b7 813d fb32 34bd e74d b8bc
00000290: e6f1 ec3d 425f 203c 22fa 09bd 5ed1 48bc
000002a0: 1455 7a3c 788e 2ebe e2f0 443d 3bf4 a33d
000002b0: b8b1 1b3e 0c2f 763d 687d a9bd 1b4c bd3d
000002c0: 9e3e ab3d b7ee c6bd 573c dcbc 0c3e 4cbc
000002d0: 80c3 89bd 7882 b33a 8a41 be3b cd1c bfbd
000002e0: f95c ba3d f620 c53d 5711 473d 19ac 103e
000002f0: ed8b c13d a685 6dbd 3804 893c 6777 c3bd
00000300: 9d7f 83bd e3d5 67bd 780c 89bc badc c5bc
00000310: 82a5 c7bd e329 f73d a76d d9ba 221c d53c
00000320: c508 e9bd 07d1 20bd 643b 8fbd b014 0bbe
00000330: bcd3 d7bd c184 c7bb e474 cdbb ba5f 08bd
00000340: e0b9 f83c e2fb 7a3d 225a a03d 33aa b3bc
00000350: dfe7 ccbc ff55 8cbd 20c7 d3bc 5ccd a63d
00000360: 003a b0bd 9774 15bc 494e 14bd 4e28 aa3d
00000370: bd7b ad3d 6ea9 823d 9115 3bbd 56b6 113d
00000380: 4256 4abc 12f9 9a3c 40d4 523d 813f 6dbd
00000390: 9288 98bd cbd0 393d 314e 0dbb 94ef 0a3e
000003a0: 198a 85bd b95b 883d 1a20 503d 6e55 ce3d
000003b0: e816 963c 94b6 383c 4778 b33a 7843 f63c
000003c0: 180b 0e3d ffa7 eabd c52a acbd a47d d83b
000003d0: e256 023d de1b 31bd 8a60 4c3d 19f5 223d
000003e0: 1dd2 dabd 8326 d9bd 29a7 c83d 6be6 983c
000003f0: 30bb 30bd 671d 763c 61fb 20bd d897 48bd
-0.10917815 -0.048162065 0.038667634 -0.12362652 0.07426318 -0.019038845 0.06670725 -0.027227871
0.088420615 -0.05132643 -0.10987136 -0.11318319 0.057547648 -0.05765114 -0.043627378 -0.077709414
0.085550085 -0.0074022897 0.033480547 -0.069163896 0.075995386 -0.028984563 -0.09753259 0.015806654
0.08647048 0.051660527 -0.17650305 -0.099710055 0.012158026 0.03134124 -0.012543691 0.05415067
0.041609652 -0.09732434 0.02200134 -0.048108783 -0.018071583 0.036774985 0.08669379 -0.076016195
0.062173627 -0.022308188 0.021983732 0.022043696 0.016420785 -0.004991254 0.03781658 -0.044304486
0.010286109 -0.019474382 -0.014137307 0.008672892 0.070457876 0.06799619 0.01462065 -0.0003526601
0.08226373 -0.011999213 0.019792406 -0.059985217 -0.054338906 0.010643815 0.05029058 -0.0051204413
0.09014657 0.02315811 0.09987779 -0.095959865 0.013925522 -0.063450806 -0.036595702 -0.09311389
0.025575444 0.083153434 -0.031081596 0.07914829 -0.14728075 -0.011812971 0.07027638 -0.003822708
0.08107596 0.0018465405 0.09199095 0.025145164 -0.010131683 -0.033915 0.000993908 0.051709823
0.12952872 0.06290169 0.057123765 0.028027533 -0.002904086 0.009571958 0.07447321 0.023142489
-0.008020275 0.06603149 0.023714123 -0.008411309 0.11494136 0.022718713 -0.0483959 0.012575915
-0.012017674 -0.0056113466 0.019525195 0.06945884 -0.04004308 0.07983499 0.041790538 0.039480805
0.034220103 -0.06719201 0.05147981 0.1032467 0.034859017 0.08578097 0.012844084 -0.04897199
-0.053963322 0.007904723 -0.016941065 -0.06398405 -0.06559199 0.06554874 0.10853317 0.058907293
-0.0213177 0.013403246 -0.09911908 0.022301018 -0.042715557 0.05463624 0.016315242 -0.05840641
-0.013472903 0.085193716 0.020450525 0.05913002 0.11017533 -0.037107065 -0.113963544 0.10586826
-0.01977536 -0.053376365 -0.08374407 0.06459865 -0.1024556 -0.0028622248 0.0224612 -0.0021094088
-0.010754572 0.028952956 0.07537205 -0.011316047 0.09788294 0.011322197 0.07940695 0.051043667
0.04175192 0.06333772 -0.04399393 -0.022498084 0.11569576 0.009788336 -0.03368581 -0.012256948
0.015279073 -0.17046535 0.048081286 0.08005568 0.15204513 0.06010346 -0.082758725 0.092430316
0.08361553 -0.097135 -0.026884241 -0.012465965 -0.06726742 0.0013695499 0.0058061527 -0.09331665
0.090997644 0.096254274 0.04860052 0.1412815 0.09450517 -0.057988785 0.016725644 -0.095442586
-0.06420825 -0.056600463 -0.016729578 -0.024153102 -0.09748365 0.12068536 -0.0016588465 0.026014391
-0.11378626 -0.039261844 -0.0699375 -0.1358211 -0.10538432 -0.0060888235 -0.006270038 -0.033294417
0.03036207 0.06127537 0.078296915 -0.021931743 -0.025012909 -0.0685234 -0.025851786 0.08144638
-0.086048126 -0.0091220355 -0.03620747 0.08308469 0.08470867 0.063799724 -0.045674864 0.03557428
-0.012349667 0.018917594 0.05147195 -0.05792189 -0.07447924 0.045365136 -0.0021561498 0.13567954
-0.06520481 0.0665812 0.050811864 0.10074888 0.01832147 0.011273999 0.0013692462 0.030061468
0.03467855 -0.11457824 -0.08406595 0.0066067744 0.03182114 -0.043239467 0.049896754 0.039784525
-0.10684607 -0.10603049 0.09797508 0.01866456 -0.043147266 0.0150216585 -0.039302234 -0.048972934

layer2.bias f4 [256]
00000000: 443c aabb 919a 9fbc 6154 8b3d 1450 3c3d
00000010: e69c 103d 390d bc3d a362 103e ac62 ab3d
00000020: bdb0 ed3d 64c0 1b3c 8f69 d63d 6cc6 21bc
00000030: b9c6 aebc 7ffd 813d 6611 d03d f2fc 24bd
00000040: f72f c53d 3ef1 c93d 8604 3e3d b2d4 363d
00000050: 662e bc3c 4eff 20bd 1ec0 1bbd 31f9 c4bd
00000060: 51f5 133d b79c 1ebd cf42 8abd 0f37 babd
00000070: c81f 3ebd 1f43 163d da5a d83d 6a41 1fbd
00000080: 77c8 083d 0e1e b13d 9750 493d 0745 1f3c
00000090: 037e babd 78b4 e53d b8ff 77bd 0b7d 033e
000000a0: df1e 5ebd 3dfb 473c b106 ae3d d80e de3d
000000b0: 0b6a 5ebc d52e 6d3d 6508 543d bf74 c43d
000000c0: 9548 74bd d2ad 953d d972 21bc 63d1 78bd
000000d0: 50ac 1b3d 90f9 e2bd 3b23 b5bc 0166 0bbd
000000e0: d8c9 d63d eec4 8fba 28fb 8dbd f1b6 bdbd
000000f0: d80c 823d 85c9 b83d 6206 c83d 3f12 d63d
00000100: 32a5 8a3d be74 d5bc d514 c93d 1088 99bd
00000110: f234 83bd 051b 84bd 3da1 ac3c 2ba1 80bb
00000120: 7f4a 8c3d 1385 d93c 612c edbd 9288 133d
00000130: 0860 c93a f0bc d63c 42a2 dcbd 58ed 1cbd
00000140: 8087 803d 9975 a33d cb44 58bd 7308 8cbd
00000150: b4a8 a23b 515c e03d e8bd 92bd ee64 eebc
00000160: 68ee 843b 423e 0c3b a84b 883d 5bb7 a4bc
00000170: 5f7a 56bd d3cc 283d c179 eabc 57b7 ac3d
00000180: 37fb 353d ab06 0bbd 8c77 3e3d 4060 84bd
00000190: 21f2 61bd c092 81bd 0df1 8fbd b610 91bc
000001a0: 0dc6 83bd 749b 53bc 1f0a 523d 87f5 be3d
000001b0: 2ac4 babc bb2f 85bd 4e79 98bc f1f7 06be
000001c0: 9e9c 58bd 2a37 e63d b322 62bd 2b55 a2bd
000001d0: 60cb cd3c 5480 afbd a099 f63c c50b 383d
000001e0: ce66 a93b 7476 a13d f313 503c fe28 febd
000001f0: f247 663d 270d 98bd 34a6 12bd 8b52 ce3c
00000200: 530c a13c 57be ae3a c3a0 5c3d c678 0d3e
00000210: ee4c aa3d 1767 a8bd dda8 943d 40b9 203d
00000220: 1ac4 0c3d e62f dd3d 8db8 843d ed4a a43d
00000230: 6fe1 a93d f6d1 10bd 2d84 c83b 08de 72bb
00000240: 43b8 34bd a10f 6abc 9ed3 89bb d773 993d
00000250: 2a0c e63c 2c55 7e3c 247c e5bc c34c 683d
00000260: 6848 a5bc 7add 15bd ee7a d73d 8492 d4bd
00000270: d20b 24bd 5934 01be eb39 433c c499 dd3d
00000280: b961 b33d 14e1 a4bd 6324 e1bc 5e73 e6bc
00000290: ff1a 2a3d 70f6 ff3d 6dfe d63d 5d92 953d
000002a0: 140b 9fbd 3c09 1ebc cc44 bf3c 4783 a6bb
000002b0: 6981 49bd 4a99 ff3d d880 64bd 9e98 1e3e
000002c0: 6fb6 c9bd 8c71 f73a 68e8 153d 3476 d13d
000002d0: e144 a43b f392 8a3d c9ab 14bd 3d31 b0bd
000002e0: a4f1 6dbd 6083 60bd 2c5c f9bc 5515 04bc
000002f0: 59f0 63bd c962 18bd d806 3f3d 57a2 d7bc
00000300: 7a7e a03d 4f82 1e3e 5795 acbd e835 d8bc
00000310: 6d3d 503d e7f2 943d 7d20 81bc 24cb 75bd
00000320: 6ff8 023e cdd5 9abc f2cb 093d 0e53 b5bd
00000330: 599d d33b 652c 513d f835 aabc bc23 e83c
00000340: fba5 3a3c 21f2 23bd 465f 89bd b69f b23d
00000350: 406a 5ebc 078f 4fbd 2dbf cabd d201 c8bd
00000360: d469 cc3d 65b2 64bd 707c 47ba 50ae e53c
00000370: 5347 38bd 3059 03be 8ad6 6d3b f879 073e
00000380: 5335 e5bc aa2a c9bd 72aa acbc d00a 7d3c
00000390: 7c23 45bd bdd1 f03d c701 6cbd 4a30 573d
000003a0: cbd3 98bd 62d7 0a3e adf0 8cbb c558 bc3c
000003b0: 805e 9c3d c44b 8e3d a445 71bc c1df dabd
000003c0: 6873 d0bd 6b62 763d 2fe1 79bd 7f52 773d
000003d0: a3e2 563c 6e51 ab3d 0235 d23c b4aa 963c
000003e0: eba5 8cbd a549 6bbd 7960 f43c e075 69bd
000003f0: 4e45 c0bc 022f 843d 33d6 4cbc 7e40 c23c
-0.0051951725 -0.019482883 0.068032034 0.045974806 0.03530588 0.091822095 0.14100127 0.083684295
0.11605976 0.009506319 0.104693525 -0.009873968 -0.021334993 0.06347179 0.101595685 -0.04028029
0.09628289 0.098604664 0.046391033 0.044636436 0.022971343 -0.039305978 -0.038025014 -0.09617842
0.036122624 -0.038723674 -0.06751024 -0.09092533 -0.046417028 0.036685105 0.105642036 -0.038880743
0.033394303 0.086483106 0.049149122 0.009721047 -0.09106066 0.11216062 -0.060546607 0.12840669
-0.05422866 0.012205896 0.0849737 0.10842675 -0.013575087 0.05790599 0.05176582 0.0959258
-0.059639532 0.07308544 -0.009854042 -0.06074656 0.038006127 -0.110827565 -0.022111526 -0.034032825
0.104877174 -0.0010968724 -0.0693267 -0.09263409 0.06350106 0.09022812 0.097668424 0.10452699
0.0676979 -0.026056644 0.098184265 -0.07496655 -0.06406583 -0.06450466 0.021072978 -0.0039254627
0.068501465 0.026552713 -0.1158073 0.036018915 0.0015363703 0.02621314 -0.10773136 -0.038312286
0.062758446 0.07981414 -0.05279998 -0.06837549 0.0049639586 0.10955108 -0.07165128 -0.029100861
0.0040567406 0.0021399413 0.06655055 -0.020106962 -0.052362796 0.04121096 -0.02862251 0.08433407
0.04442903 -0.033941906 0.046500728 -0.06463671 -0.055162553 -0.063268185 -0.07028399 -0.017708164
-0.064342596 -0.012915481 0.051279183 0.093241744 -0.022798616 -0.065032445 -0.01861253 -0.1318052
-0.052883737 0.112409905 -0.055208873 -0.07926401 0.02512139 -0.085693985 0.030102551 0.0449331
0.005169726 0.07883921 0.012700069 -0.124101624 0.056220956 -0.074243836 -0.035803035 0.025185844
0.019659197 0.0013331872 0.05386425 0.13815603 0.083154544 -0.08222788 0.072587706 0.03923917
0.034366705 0.108001515 0.06480513 0.080221035 0.08294951 -0.035356484 0.006119272 -0.003705861
-0.04412104 -0.014285953 -0.004206135 0.07492798 0.028081972 0.015523236 -0.028013296 0.05671383
-0.020176128 -0.03658817 0.10521494 -0.10379508 -0.040050335 -0.12617625 0.011915664 0.10820344
0.087588735 -0.08050743 -0.02748317 -0.028131183 0.04152965 0.12498176 0.104977466 0.07303307
-0.07765785 -0.009645756 0.023348235 -0.0050815674 -0.04919568 0.124804094 -0.055786937 0.15487906
-0.098492496 0.0018878444 0.036598593 0.102276236 0.005013094 0.067663096 -0.03629664 -0.086031415
-0.058091775 -0.05481279 -0.030439459 -0.008061727 -0.055649135 -0.037203584 0.046637386 -0.026322527
0.078366235 0.15479396 -0.08426922 -0.026392892 0.05083983 0.072728924 -0.015762562 -0.060008183
0.12790082 -0.018900776 0.033641763 -0.08853732 0.0064579663 0.05106773 -0.020777687 0.028337352
0.011392112 -0.040025834 -0.06707625 0.08721869 -0.013575137 -0.05067351 -0.09899745 -0.09765972
0.099811226 -0.055834193 -0.000760979 0.02803722 -0.044989895 -0.12826991 0.0036291205 0.13230121
-0.027979529 -0.09822591 -0.021077368 0.015444472 -0.048129544 0.117587544 -0.057618883 0.052536286
-0.07462271 0.13558725 -0.0043011517 0.022991547 0.07635212 0.06948045 -0.014726076 -0.10687209
-0.10178262 0.060152452 -0.061005767 0.06038141 0.013115558 0.08365141 0.025660042 0.018391944
-0.06867584 -0.05744328 0.029831158 -0.05699718 -0.023470547 0.064542785 -0.012502241 0.023712393

layer3.weight f4 [256, 256]
00000000: dd0c a7bc fae4 86bd a41d c6bb f25c abbc
00000010: 8d58 bf3d cee7 4bbd 44b8 1ebd f720 32bd
00000020: 60f6 a5bd 9934 11bc 44a2 26bd 5e21 04bd
00000030: 4a71 03be e8d5 f23a 77a6 b2bc ed3d 863d
00000040: 5c42 583d 4c83 9ebc 9f4b 69bc 7281 d33b
00000050: aeaa 833d 2d73 8d3b f7fe 0e3d 6ea7 633c
00000060: 1406 dbbc 698d 0ebd 7824 70bd 2b26 863d
00000070: 8182 05bd e63a abbd ecda afbd 9ad1 d53c
00000080: 13f6 cdbc ad96 9dbc 6119 5c3d c2c3 c5bd
00000090: 51bb 0dbe 3352 ff3c 820d b5bc 12d4 22bd
000000a0: 23ca 0c3d 0ca8 ecbb 842c 8c3d 51cd a6bd
000000b0: 6428 7b3a f426 16bc 6ccc cd3c 2ea2 9ebd
000000c0: e4c3 f13c 0089 6fbd 8149 12bd 2559 6f3c
000000d0: e12a bebd a926 723d bbdc a8bd 4d3d e0ba
000000e0: 74c7 8b3d c839 c53c 780c d73d 3f2f 1abd
000000f0: 81c0 c0bc 4aae 75bc 645d 8b3c 638c acbd
00000100: dffc 9c3d 6361 7cbb 059a 503d bc92 ba3d
00000110: a33b 2abe 7278 d2b9 f485 e8bd 61ac ac3c
00000120: 5428 94bd 1938 ef3d cb2f 55bd 4682 be3d
00000130: 0285 5f3d f7c4 dabc 582b b03b e8e3 82bd
00000140: ee18 19bd 4718 8fbc df65 71bb cb5f 1abd
00000150: adc4 6abd 0b03 a23d 3ec9 3e3b 2cf1 a7bd
00000160: d54c 84bd fefd d6bc 908e 9bbb 6234 ff3c
00000170: 285c ac3d fea2 1239 4fc4 95bd ee7e 043d
00000180: b75f ddba 05a8 013d b59a 993c d490 9ebc
00000190: 22ee 3f3d 204c 72bc 1d46 043b 561b 373c
000001a0: 1475 113c 0112 063c d6ba 42bd 6cbc 1a3b
000001b0: a3b4 5cbd b211 c6bd edf1 a53d a53f 5c3d
000001c0: 6a99 783d fa2c 273c a493 7dbd 9889 913d
000001d0: 02b0 64bd d572 003c 850b 0f3e ce8c 84bd
000001e0: fd95 26bd 98ad 313d bd23 0e3d 1a76 633b
000001f0: 528d 563d fa09 46bd ba13 05bc 6858 38bd
00000200: 32be e03d 6b54 dcbd 1409 13bd 3506 8ebd
00000210: 72ad 9e3d 9e16 afbd ea94 c13d fef2 f93c
00000220: 1bc5 d03d 9de8 793c 5efd 7a3d 8ef4 e73d
00000230: 2d92 733c 80be 293d 6059 343b f7db bebc
00000240: e71f ccbc 5adf 903d c14e b53d 7368 223d
00000250: 5125 7b3d 58df b13b dac7 ca3b 6a9c 8d3d
00000260: f2ec cbbc b86a 3d3d ec9a 993d fd69 a03d
00000270: a937 e43c 7041 a3bb fca7 b5bc 1ede babc
00000280: 7290 ddbc d2a9 9e3d 4e0f 89ba 1d9a 123d
00000290: 4333 4bbd d7ab 773d bd99 94bd ce8b 4ebd
000002a0: 9c63 92bd e3d5 6ebc 6d9b 533d c1b0 663d
000002b0: 08f2 0ebd 6614 f13b 496e 3ebb 39ac 6dbd
000002c0: 9b9c 1cbc 67a6 1ebd 35cf eabd d5ac 77bc
000002d0: 0946 7a3c 8b38 a9bc a408 f43b c50d 0e3c
000002e0: eacb bc3c c24f 5fbd 7ce2 b13d 9ed2 d73c
000002f0: 8f4c 8a3d d659 f2bb 0fbf 403d 112c d1bd
00000300: 4355 1b3c cdae c5bd 03f0 80bd 57e7 013d
00000310: 9df5 383d 9b8f b63b 3eed f03b fc6b ea3c
00000320: 1265 f63d 892a f03d da60 0b3d d682 b23c
00000330: b08e 943d 4917 d23d 8e87 edbc 95d4 5dbd
00000340: a736 5e3d 0edf 573d d6bb 7abd 2c72 11bd
00000350: 4177 b3bd 501b c73b bd46 783c 972a c5bd
00000360: 5ba4 8b3b 7f6a 2cbd 2d59 063c c3de 963d
00000370: 1862 283c 5311 643d c02a 2dbd b49e 3b3c
00000380: 04c8 d43d 507d 413d 7bfc 28bd 9242 9dbc
00000390: 1067 9c3d eaec 34bd c299 48bd 8b90 90bd
000003a0: 8480 f8bc 6b1c 61bd 658a 1e3d 6612 cabd
000003b0: cd9a f43c 94dc eabc 8c28 5cbd 74b7 fdbc
000003c0: aa4f e3b9 6e90 153d 60ad 3cbd be8b b4ba
000003d0: 4234 6e3d f1d2 c3bd 0d1e 87bd 4e13 a7bb
000003e0: f739 ac3d 5140 ac3d 30d4 57bc e2cb a2bb
000003f0: be80 37bd 5908 b33c 49dc 6f3b 8de4 c13c
-0.020391876 -0.065866426 -0.006046014 -0.020918343 0.093430616 -0.049781613 -0.03874995 -0.04348847
-0.08103633 -0.008862638 -0.040682092 -0.032258384 -0.12836185 0.0018526884 -0.021807892 0.0655478
0.05279766 -0.019349717 -0.014239221 0.00645464 0.06429039 0.0043167085 0.034911122 0.013894899
-0.026736297 -0.034802828 -0.05862853 0.06550249 -0.03259516 -0.08360843 -0.08586678 0.026100922
-0.025141751 -0.019236887 0.05373514 -0.096564785 -0.13840987 0.031167125 -0.022101168 -0.039753027
0.03437246 -0.007222181 0.06844428 -0.0814463 0.0009580909 -0.009164561 0.02512189 -0.07745777
0.029512353 -0.058480263 -0.03571463 0.014608656 -0.09285522 0.0591189 -0.08245226 -0.0017108113
0.06825152 0.024075404 0.10500425 -0.037642714 -0.023529293 -0.014995167 0.017012306 -0.08425214
0.07665419 -0.0038510195 0.050928134 0.091100186 -0.16624312 -0.0004014406 -0.113536745 0.02107829
-0.072342545 0.11680622 -0.052047532 0.093021914 0.054570206 -0.026705248 0.0053762607 -0.06391126
-0.03737729 -0.017467631 -0.0036834402 -0.03768901 -0.05731647 0.07910737 0.002911165 -0.08200297
-0.06459967 -0.02624416 -0.0047472194 0.031152908 0.08416015 0.00013984364 -0.073128335 0.032347612
-0.0016889487 0.031654377 0.018750528 -0.019356169 0.04685796 -0.014788657 0.0020183392 0.011175951
0.008878011 0.008183003 -0.047541462 0.0023610843 -0.053883206 -0.09671344 0.08102784 0.053771634
0.060693182 0.010203594 -0.06190838 0.07106322 -0.055831917 0.007839878 0.13969238 -0.06472169
-0.040670384 0.043378443 0.03470205 0.0034707845 0.052380867 -0.04834936 -0.008122379 -0.045006186
0.10973777 -0.10758289 -0.03589733 -0.06934778 0.07747926 -0.08549236 0.09452231 0.030511376
0.10193845 0.015253213 0.061276786 0.11325942 0.014866394 0.04144144 0.0027519092 -0.023298247
-0.024917556 0.07073851 0.08852912 0.03965039 0.061314885 0.005428236 0.006188375 0.06914599
-0.024893258 0.046244353 0.07500252 0.07832716 0.027858572 -0.004982166 -0.022174828 -0.022810992
-0.027046416 0.077472344 -0.0010456832 0.035791505 -0.049609434 0.060466614 -0.07255886 -0.050426297
-0.07147905 -0.014577362 0.051661897 0.05632091 -0.034898788 0.007357168 -0.0029057434 -0.058025572
-0.009558822 -0.038732912 -0.11465303 -0.01511689 0.015275487 -0.020656845 0.007447319 0.008670275
0.023046453 -0.054519422 0.086857766 0.026345547 0.06752884 -0.007395963 0.047057208 -0.10213483
0.009480777 -0.09652481 -0.062957786 0.031714763 0.04515611 0.0055713183 0.0073525 0.028615944
0.120309964 0.11726863 0.03402791 0.021790903 0.07253778 0.102583475 -0.028995302 -0.054157812
0.05425134 0.052702956 -0.06121429 -0.035509273 -0.0876298 0.006076254 0.015153584 -0.09627264
0.004261536 -0.04209375 0.008199972 0.07366707 0.010277294 0.055680584 -0.042277098 0.011451412
0.103897125 0.047238648 -0.04125641 -0.019196782 0.07636845 -0.04417125 -0.04897476 -0.070588194
-0.030334719 -0.054958742 0.038706202 -0.098667905 0.029858971 -0.028669633 -0.053749606 -0.030971266
-0.00043356168 0.036514692 -0.04606378 -0.0013774557 0.058155306 -0.09561718 -0.065975286 -0.005098737
0.084094934 0.08410705 -0.013173148 -0.0049681524 -0.044800512 0.021854566 0.0036599806 0.023668552

layer3.bias f4 [256]
00000000: fdc9 76bd d11d 933d 6d5e d63c 3c62 0a3d
00000010: 49d2 7d3d 8911 183d 3289 083d 59bf 9f3d
00000020: 27f8 32bd 523d 91bd fb11 16bd 8ded 6b3d
00000030: d9f9 9fbc 431a 163d 4836 6cbd b7e7 803c
00000040: 08f2 25bd 9cbd 263d ee74 8439 d37a bcbc
00000050: 9848 18bd 8e9f 0ebd 51d5 c9bc 4f4d c83d
00000060: 7634 70bd 9e65 713d 1a80 12bd cd93 413d
00000070: 3520 713d 605f 9f3d 8331 543d 03e3 973d
00000080: 8d24 d2bc fe03 2a3d 7638 073d 2fab 24bd
00000090: 20ef e73c 337d e33d 7a30 993c 8142 a93d
000000a0: e361 ae3d 312b d83d 51d5 b43c 3fc2 93bd
000000b0: 3588 a03c 61cc 703d e86a acbc 3c86 4a3d
000000c0: 1024 4b3d db31 773d 0a2f 7c3d 230a e0bc
000000d0: 6860 59bd da12 183a afaa 28bd 37be a93c
000000e0: 2624 51bc 5793 623d 2d75 843c 27f0 903d
000000f0: 8de9 acbc eb6f 42bd f6c7 d1bb cc1b 1d3d
00000100: bbcb 63bc 9545 663d 7325 f13d 4006 0abd
00000110: 5e04 a4bc d581 923a 01f2 33bd 92e8 1c3d
00000120: 8671 80bd 6a7a d53c a756 42bd d89f 7a3d
00000130: 95e8 703d 470c b2bc 18f8 233d 58ef 4ebc
00000140: cdfe 863d 643c 7d3d ad1c 443d e25f 6a3c
00000150: d446 0b3d f747 3e3d ea8a 4c3c f421 943c
00000160: 17c6 23bc e799 833c f768 1abd 18a9 7b3d
00000170: 92c4 a63d 78ab 153d e411 22bd 67d4 943d
00000180: 618b 693d 0da4 63bd 0155 dabc fe3a 353d
00000190: 2314 e23d f490 9b3d 3cfb 433c cde6 393c
000001a0: 6ed1 e13d 6d4d 873d b741 ac3d 2392 283b
000001b0: a662 c83c 806b 983c ab0e af3c 285b 98bc
000001c0: 0653 83bd e853 31bd 2f02 9f3c 3df0 e23c
000001d0: a955 cf3c d455 1dbd afb4 a63c 53c7 d33b
000001e0: bcf9 003d f904 95bd 3a1f 903d 5cde db3d
000001f0: 44bd 88bd 126d 963d 4533 e83a 9387 a33c
00000200: 05cd 5f3c 8dfa f23b b159 883c 3b22 023c
00000210: 9338 823c f1a5 4f3d 7acc 023c 67cd edbc
00000220: 5e5e 9a3c ab36 913d 22e8 5c3d a8ac 8f3d
00000230: ac30 8f3d 03de 5e3d 45b6 053c 5dad 8f3d
00000240: 0acc b13d d27e 373d 77f3 6c3d 59bb b03b
00000250: be34 e1bc b90e 2f3d d47c 48bd 4c32 3bbd
00000260: 68a3 7d3d b4f6 1a3c fbc5 0c3d e4a4 e43d
00000270: f733 c3bc 96b2 8f3d 45a6 f83c 903b a0bb
00000280: 40e0 073d bf7d 17bd b9cf 353b 4585 3c3d
00000290: 5908 bbbb 2137 f33c 2c08 12bd 376c 9a3d
000002a0: 832c 323d aed1 dc3c b343 983c b07f 0b3c
000002b0: 09ea 77bc cc4d 1a3d 0e98 8cbc 47fc 813d
000002c0: 6aa3 14bb d4df 883d a70f 673d 5dbb 223d
000002d0: c12c 38bc 9c81 3f3d 3236 c43c 03b4 733d
000002e0: 61b8 ac3c 339d fabc 6d62 89bd 9718 c7bc
000002f0: 4647 303c c6cb 143d 4685 f83c a699 2d3c
00000300: e858 6b3d 1e0c de3b 4498 91bd 2da8 bd3d
00000310: 294c 043d 70a6 9e3c 080a 96bb 2937 1fba
00000320: 7908 28bd 8405 9cbc 313b a3bb 84b4 aa3d
00000330: 9fbd 523c d96a 3bbc 07ed e2bc 862b 3cba
00000340: ab30 19bd c96e 59bd b650 75bd bb72 92bd
00000350: 7f8d d8bb 9d97 533d 8c25 ba3d 74bf 25bc
00000360: c7be bc3c db4f 2dbd 23bd 3abc 607a 833c
00000370: f4b2 c63d dfce 4abd 45a9 fa3c 1e42 09bc
00000380: e015 21bc 288e d7bc ad77 6f3d fbc1 833d
00000390: 23a2 b1bd 4d6a 23bd aaa0 883d 1126 763c
000003a0: 2f4d 923c f0f3 873d 2451 863c fc63 afbc
000003b0: 2120 c7bb 6943 1b3d accb 0ebb f9ca 84bc
000003c0: 2de7 db3b 6438 be3c 88ff 1f3c ee00 be3d
000003d0: 63d4 3e3d a25e 9e3d e9e7 f3bc 5cf5 86bc
000003e0: 15d3 a13d e005 e03c a21c 40bd ff29 7d3d
000003f0: d76c 3fbd ec50 a53d aacb 1a3d 4399 20bd
-0.060251225 0.071834214 0.026168073 0.03378509 0.06196812 0.037126098 0.033333965 0.078001685
-0.043693688 -0.07091774 -0.03663824 0.057599593 -0.019528316 0.03664614 -0.057668954 0.01573549
-0.040514022 0.04070817 0.0002526412 -0.023007786 -0.037178606 -0.034820132 -0.02463785 0.097803704
-0.05864378 0.0589348 -0.0357667 0.047260094 0.058868606 0.07781863 0.05180503 0.07416346
-0.025652194 0.041507713 0.03301283 -0.040202316 0.028312266 0.11107864 0.018699873 0.08264638
0.08514764 0.10555113 0.022074373 -0.07214784 0.019596199 0.05878866 -0.02104707 0.049444422
0.04959494 0.06035028 0.061568297 -0.027348584 -0.053070456 0.0005801149 -0.0411784 0.020720584
-0.012764966 0.055316295 0.016169155 0.070770554 -0.02110746 -0.047470015 -0.006402011 0.038356587
-0.013903554 0.056218702 0.11774721 -0.033697367 -0.020021614 0.0011177609 -0.043931965 0.038307734
-0.06271653 0.026059348 -0.04744592 0.061187595 0.058815558 -0.02173437 0.040031523 -0.012630306
0.06591568 0.06182517 0.04787891 0.014305087 0.034003094 0.04645535 0.012484292 0.018082596
-0.009995959 0.016064597 -0.03769776 0.061440557 0.081429616 0.03654048 -0.039567843 0.07267075
0.057017688 -0.055576373 -0.026651861 0.044245712 0.11038997 0.07596007 0.011961754 0.011346531
0.11026274 0.06606565 0.084109716 0.002572187 0.024461102 0.018605947 0.021369299 -0.018598154
-0.0641232 -0.04329291 0.01941022 0.027702445 0.0253094 -0.03841193 0.020349829 0.0064629703
0.031488165 -0.07276339 0.07037206 0.10735771 -0.066767246 0.07345022 0.0017715475 0.019962108
0.01365972 0.007415122 0.01664433 0.0079427315 0.015896117 0.050695363 0.007983321 -0.029028608
0.018843826 0.07090505 0.053932317 0.070153534 0.06991705 0.054410946 0.008161132 0.07015488
0.086814955 0.04479868 0.057849374 0.0053934273 -0.02749097 0.04273865 -0.04894717 -0.045702264
0.061923414 0.009458233 0.034368496 0.11164263 -0.02382849 0.070164844 0.030352721 -0.004889913
0.033172846 -0.036985155 0.002774222 0.046025533 -0.005707782 0.029689373 -0.035652325 0.075401716
0.04349948 0.026955452 0.018586969 0.00851433 -0.015131482 0.03767185 -0.01716235 0.06346946
-0.002268041 0.06683317 0.05641141 0.039729465 -0.011241139 0.046754465 0.023951624 0.059497844
0.021084012 -0.030592537 -0.06708226 -0.024303718 0.01075918 0.036327146 0.030336987 0.010595715
0.057457834 0.006776347 -0.071091205 0.092605926 0.032299194 0.019366473 -0.0045788325 -0.0006073588
-0.041023705 -0.019045599 -0.0049814214 0.08335212 0.012862592 -0.011439049 -0.027700914 -0.00071781164
-0.03739993 -0.05308417 -0.059891425 -0.07150789 -0.0066086645 0.05165826 0.09089193 -0.010116447
0.023040188 -0.042312484 -0.011397633 0.016049564 0.09702101 -0.049513694 0.030598292 -0.00837758
-0.009831876 -0.026312903 0.05846374 0.06433483 -0.08673503 -0.0398963 0.06671269 0.015023724
0.01785907 0.06638324 0.016396113 -0.021409981 -0.006076828 0.037906084 -0.0021788878 -0.016210066
0.006710908 0.023220249 0.009765513 0.09277521 0.046589267 0.077328935 -0.02977367 -0.016474418
0.07901589 0.027346551 -0.046902306 0.06180763 -0.046734657 0.08072075 0.037791885 -0.03920866

layer4.weight f4 [128, 256]
00000000: 00d9 b2bc eb9d 99bd 125d 1dbe 3183 3d3c
00000010: 7946 593d cdc7 f8bb 9d3a ddbd 2daa 633b
00000020: bad7 acbc d3b5 2a3d bcea e33a d5cc febc
00000030: 1731 5e3d ca46 66bd f2bb 6ebd 79cf 39bb
00000040: 0e19 323d 7494 3c3c ef07 c7bc 16f4 abbd
00000050: 53a2 48bd e045 30bc 2321 173d 0a93 17bd
00000060: 9f0e 973d b060 19bd 07de 633c f1a4 c73d
00000070: 8d84 293d ef48 49bd 9495 cebc 2e54 50bd
00000080: 1287 27bd 7e5f b5bc dfe5 3dbd 3267 24bd
00000090: ea0d d2bc 9b0d 413c 9b84 f13d 59a0 f63d
000000a0: 3ba0 9e3c 1d46 94bd b795 52bc e919 45bd
000000b0: 5e4f 2a3d 1ade 24bc c3f4 823c 4896 09bd
000000c0: f424 b63d 7690 4c3d 6e52 3dbd 5d37 9fbd
000000d0: c5ec b03d 1ee1 26bc 4b3c fabc bc81 8bbd
000000e0: a01a 7c3c 9057 38bc 29e2 87bb 0868 e1bc
000000f0: 96ba 89bd d155 17bd 40ba 4dbc cc65 63bd
00000100: 50f2 433d aa90 9ebc 1182 0fbd cd92 963b
00000110: 968d 55bc 2993 c6b9 daf4 5d3d 70a3 593d
00000120: 56de 853c 428f 8abc 87e3 89bc 1268 12bc
00000130: 7f86 233d 3bca 0fbb fa3e aabc 556a 51bd
00000140: 89db 563d 9a6e fabb 1a7b febd e944 253c
00000150: 838b 853c 8804 73bd 2c83 a5bc 9f0e d33b
00000160: cdc9 bd3d eba6 333d 585f a2bd fa49 943c
00000170: 2aec 0e3d fa05 7a3d a14e e2bd a9f3 643d
00000180: 14c6 ad3b d425 6bbc 28f4 bb3b f682 6c3d
00000190: 5352 abba 2d7c 633d aeb2 273c 3a2a a63d
000001a0: 1e88 6bbd 9895 423d 5bbb cc3c 63eb 823c
000001b0: 8435 98bd 16c3 14bd 2c28 d43d da29 6e3d
000001c0: 73de 433b 36b0 afbd 79bc 883d eeaf dabc
000001d0: 5ff8 373d 85cf d6bd 52ab 78bd 1a59 41bd
000001e0: 30b4 84bc 65ec d73c 2635 0dbd b5d2 2bbd
000001f0: dd3e f13c f584 d23b 3a9e a93c 43c2 d0bc
00000200: 2c76 87bd 0531 6e3d 56d0 a5bc 4537 2cbd
00000210: e406 5abd 8cb6 ddbc 9d34 abbd 233c a53b
00000220: 5992 903b 3844 ac3d 83d5 cfbb c00b 113d
00000230: 8841 4b3d c8e6 0d3d 286f 22bb 5c39 34bd
00000240: 31bc cabb d3ad a6bd af51 823d ae5d 003d
00000250: 00ee 9c3b 45af 253d e7ae 743d f213 aa3d
00000260: 0a55 0fbd 76f6 eabc 6608 203d 7c22 043d
00000270: 2053 383d b70e a6bd 8b1f 27bd dd2d a63d
00000280: 1037 ae3d 29bc 62bd 94b2 f8bc 71a6 0ebc
00000290: 846d 2b3d 050f 39bc 9d8b 873d d02d ec3c
000002a0: 8afc d23c 9d3a 0cbd 5829 253d 11ba 9cbb
000002b0: 629a b0bd 6f6f b93d 4968 583c ab37 86bc
000002c0: 85a2 c73d 35e6 f13b 9249 69bd 3443 43bc
000002d0: 7105 35bd b409 bc3c a112 e43c f62f 823d
000002e0: 810f 94bd 56aa 3e3d fd99 74bc 0f51 9abc
000002f0: c2b4 0abd c811 e93d c5bb a8bd ed26 7c3c
00000300: 66e6 573d d52e 473d aded 9abd d7ff 5c3d
00000310: 7e3d 333e 2cc2 e93d 6f39 eabc 98c4 fdbc
00000320: 2ef8 8dbc 58b5 973d c462 17bd 5707 a5bd
00000330: 3b81 993d 3a7e 5c3d 4f78 9e3d c036 2dbd
00000340: 7ffe efbd d968 98bc 22ad 07bd 9069 d4bb
00000350: 4fe9 263d 2831 fe3b 90b0 c83c d1cb 23bd
00000360: cccb b9bc 8ea7 78bb cba6 0dbd 334f e9bd
00000370: aa45 823c e8fa 613d 4cf2 013d 8c1d 193c
00000380: e865 06be dbe7 923d 5b2e 99bd 08fe e9bd
00000390: d723 a9bc 7081 b13c 4d0c d73c b6d8 af3d
000003a0: b0dd d43c 1ab3 003e a375 88bd f377 12bc
000003b0: 615a 66bd 470b 1d3d e052 8cbd f766 3cbd
000003c0: bfaa 83bc 184e e1bc 07d4 013d 4f19 6bbb
000003d0: c11a 683d db57 d4bc 8466 733d 4b5a 833d
000003e0: 633e 483d fd05 3abd b64c 4a3a 587e 1cbd
000003f0: 8942 7ebd 4c96 6c3d 0fb4 953d 7d75 873d
-0.02183199 -0.075008236 -0.15367535 0.011566923 0.053045724 -0.0075921775 -0.10802195 0.0034738884
-0.02109896 0.041677307 0.0017388682 -0.03110353 0.054246034 -0.056219853 -0.058284707 -0.0028352423
0.043480925 0.011510003 -0.024295775 -0.08396165 -0.04898293 -0.010758847 0.036896836 -0.03700546
0.073758356 -0.037445724 0.013907916 0.09748257 0.041386176 -0.04914182 -0.025217809 -0.05086153
-0.040900297 -0.02214026 -0.0463618 -0.040137477 -0.0256414 0.011783029 0.117928706 0.12042303
0.019363513 -0.072399355 -0.012853078 -0.048120413 0.041579597 -0.010062719 0.015985852 -0.033590585
0.08893767 0.049942456 -0.04622119 -0.077742316 0.0863891 -0.010185508 -0.030546328 -0.06811854
0.015387207 -0.011251345 -0.0041468334 -0.027515426 -0.067250416 -0.036947075 -0.0125566125 -0.055517003
0.04783851 -0.01935609 -0.03503615 0.0045951367 -0.013034245 -0.00037875146 0.054188587 0.05313438
0.01634137 -0.016914014 -0.016832126 -0.008935945 0.039923187 -0.0021940607 -0.020781983 -0.051126797
0.05245546 -0.0076425793 -0.124258235 0.01008723 0.016301876 -0.059330493 -0.02020415 0.006440952
0.09267006 0.043860357 -0.079283416 0.018101681 0.034893192 0.061040856 -0.110501535 0.055896435
0.005303154 -0.014352281 0.005735893 0.05774208 -0.0013070799 0.055538345 0.010235472 0.08113523
-0.05750286 0.047505945 0.024991682 0.015981382 -0.07432082 -0.03631886 0.10359225 0.05814538
0.0029887229 -0.085785314 0.06676573 -0.026695218 0.0449146 -0.104888 -0.06071026 -0.047204114
-0.016199201 0.026357839 -0.034474514 -0.041948993 0.02944892 0.006424541 0.020705331 -0.025483256
-0.06614336 0.058152217 -0.020240944 -0.042044897 -0.053229228 -0.027064584 -0.083596446 0.0050425692
0.0044119773 0.08411449 -0.0063425913 0.035411596 0.049623042 0.03464392 -0.0024785493 -0.044000015
-0.006186985 -0.08138623 0.06363236 0.03133934 0.004789114 0.040450353 0.059737112 0.083045855
-0.03499321 -0.028681975 0.03907051 0.03225945 0.04500115 -0.081082754 -0.040801566 0.081142165
0.08506596 -0.055355225 -0.03035859 -0.008706675 0.04185249 -0.011295085 0.06618426 0.028830439
0.025755186 -0.034235585 0.04032263 -0.004782923 -0.08623196 0.090544574 0.013208457 -0.016383966
0.09747795 0.007382179 -0.056954928 -0.011917878 -0.044194642 0.022953846 0.027840914 0.06356804
-0.0722952 0.046549164 -0.014929292 -0.01883748 -0.03386379 0.11380345 -0.08238939 0.01539014
0.05270996 0.048628647 -0.07564864 0.053954925 0.17503926 0.114139885 -0.02859184 -0.030977532
-0.017330255 0.074076355 -0.036959425 -0.080580406 0.07495352 0.053831317 0.07737791 -0.04228854
-0.11718463 -0.018604683 -0.033124097 -0.0064823106 0.040749844 0.0077573247 0.024498254 -0.039989296
-0.022680186 -0.0037941667 -0.034582894 -0.11392059 0.015902359 0.055170923 0.031725213 0.009345423
-0.13124812 0.07173129 -0.07479545 -0.11425406 -0.020646973 0.021668166 0.026250983 0.08586256
0.025984615 0.12568322 -0.066630624 -0.008939731 -0.056238536 0.038340833 -0.06851745 -0.045996632
-0.016072629 -0.027503058 0.031696346 -0.003587324 0.05666614 -0.025920799 0.05942394 0.064137064
0.04888762 -0.045415867 0.00077171193 -0.03820643 -0.06207517 0.05776052 0.07309734 0.06614206

layer4.bias f4 [128]
00000000: feb2 903d 78a7 7c3d d6ff 483d 85b1 663d
00000010: e080 593c d281 9abc 8f54 e13d 249e 32bb
00000020: e18a ff3c 78a3 ab3d bbfb 603d 708d acb9
00000030: a93c 363c 0fff 9f3c 7d83 01bd e296 003d
00000040: ef53 2ebc dea2 81bd 1835 a93d 4cb3 c83c
00000050: 0ffc 19bd 7ad8 183d 9c3b 10bc 624e 653d
00000060: eb1d 52bc e5c9 6f3c 2b7d 68bd fb4f 93bb
00000070: 44de 933c 28c9 81bd e625 353d dfb7 dabd
00000080: 6c20 963d 3015 863d 77e6 f1bc 925c 4b3d
00000090: 1e6b 47bb 2dd4 943c 6350 e73d da46 69bb
000000a0: cdc6 223d 814e ddbc 073b a9bc 0ae6 01bc
000000b0: da61 03bc bb18 2ebd 1287 593d b0b8 39bd
000000c0: 6737 c63d 611d e73c acb9 613d 0102 a8bd
000000d0: e838 e93b 248e 2dbd 5148 903d 77d5 e2bc
000000e0: 55df 1c3c 3d1f 183d b948 2c3d e044 833c
000000f0: 029d febc 1921 ecba 582b 84bd 61a0 7dbd
00000100: da4c abbb 11c1 dc3b de23 a63c 0f56 1e3d
00000110: 10b2 923d 5781 9cbc a84b ab3d b1cc c63d
00000120: ad3c 323d 702c d4bc f3f1 583d a9e1 e23d
00000130: ef3f a73d 5332 63bd 1576 bd3d ce27 c33c
00000140: 6be4 1e3c 278a 46bd 9cc0 9cbc 8642 bd38
00000150: 287f 2dbd dc49 1bbd 83d7 a2bc 20d4 3fbd
00000160: 891a 593d 25f8 3f3d e5c7 773d 6c8e 96bb
00000170: 3b86 103c c92d 973b 6a67 33bd ddbc 383d
00000180: ccf9 323d 8860 e03c dfe8 673d 02d8 c73d
00000190: e926 01bd 05c5 6b3d b19f 21bd 8e6b e3bc
000001a0: eec7 74bc 6055 11bc fa97 1bbd afc6 85bd
000001b0: 4eee 4d3d 3871 b33c a82d c43d 7392 c03d
000001c0: c805 52bd 3a1a bebb 6562 963d c9af b7bd
000001d0: d1dd 7b3b b21f ec3c b19f c23c 7c2e 5a3c
000001e0: ca15 8a3d b386 4e3c a384 243d 8031 71bc
000001f0: 0bf9 aabc dd37 063d 8fda 31bc 0833 18bd
0.0706539 0.06168315 0.04907211 0.05632164 0.013275355 -0.018860731 0.110024564 -0.0027254904
0.031194152 0.083807886 0.05492757 -0.00032911776 0.011122861 0.019530801 -0.031619538 0.031393893
-0.0106401285 -0.063298926 0.0826208 0.024499558 -0.037593897 0.037315823 -0.0088032745 0.055982955
-0.012824516 0.014635538 -0.056759994 -0.0044956184 0.01805032 -0.06337196 0.044225596 -0.10679602
0.07330403 0.0654701 -0.02952884 0.04964883 -0.0030428837 0.01816758 0.112946294 -0.003559521
0.039740372 -0.027014973 -0.02065803 -0.007928381 -0.008018935 -0.042504054 0.05310733 -0.045342147
0.09678536 0.028212251 0.05510871 -0.08203507 0.0071173795 -0.042371884 0.07045043 -0.027689679
0.009574731 0.037139166 0.04206154 0.016024053 -0.031080727 -0.0018015235 -0.0645358 -0.061920527
-0.0052276673 0.0067368825 0.020280775 0.03865629 0.07162869 -0.019104643 0.0836404 0.097070105
0.043514896 -0.025900096 0.052965116 0.110781975 0.08166491 -0.055467915 0.09251038 0.023822691
0.009698014 -0.048471596 -0.019134812 9.024613e-05 -0.042357594 -0.037912235 -0.019878155 -0.046833158
0.05300382 0.04686751 0.06049337 -0.0045946147 0.008821066 0.0046136123 -0.043799795 0.04510199
0.043695256 0.02738978 0.056618568 0.09757997 -0.03153125 0.05756094 -0.039458934 -0.027761247
-0.014940245 -0.008870453 -0.037986733 -0.065320365 0.050276093 0.021904573 0.09579021 0.09402933
-0.051275045 -0.0058014663 0.07342986 -0.08969075 0.0038431773 0.028823707 0.023757787 0.013316747
0.06742437 0.012605357 0.040165555 -0.014721274 -0.020870706 0.03276812 -0.010855331 -0.037158042
