PPO/ppo_critic.pth (torch, 546027 bytes, 9 tensors)

layer1.weight f4 [128, 29]
000000 a4 95 86 bc aa b4 e9 3c df d6 30 3e 0a 4c 1f 3e
       -0.016428776 0.02852853 0.17269467 0.1555635
000010 a1 d0 08 3e 24 05 9a be 12 84 e1 bd 9a 34 58 3d
       0.13360836 -0.30082047 -0.110115185 0.05278454
000020 cc b1 88 bd 8d 17 50 bd 81 f3 29 bd 7e 21 2f 3e
       -0.06674537 -0.05080371 -0.04149199 0.1710262
000030 50 a6 bd 3d a1 ed a5 3d 3d 66 1b be b1 86 60 3e
       0.09260237 0.08101965 -0.1517572 0.2192638
000040 c2 58 91 bd fc 6c 01 be 89 66 7c 3e a6 76 66 be
       -0.07097007 -0.1263923 0.24648489 -0.22506198
000050 55 76 b6 bd 93 ad cf bc 42 e4 a4 bd f8 26 39 bd
       -0.08909289 -0.025351321 -0.08051349 -0.04520318
000060 4a ae 2e bc 98 db 9e ba bc b1 40 bd b0 d5 34 3d
       -0.010661671 -0.0012119887 -0.0470445 0.0441491
000070 f6 25 20 bc 62 c6 66 bd e8 6b 50 3d aa b9 02 3d
       -0.009774676 -0.056341536 0.050884157 0.031915344
000080 7d 49 82 3e 5b 5e a0 bb 48 26 2e bc 89 50 dd 3d
       0.25446692 -0.0048940605 -0.010629244 0.108063765
000090 57 1e a2 3e 50 a4 fd 3d 4f 5f 3e 3e 14 2f 3d 3e
       0.31663772 0.12384856 0.18591045 0.1847499
0000a0 47 04 67 be e0 5d 2f be 61 28 22 be 57 a9 38 be
       -0.22560225 -0.17125654 -0.15835716 -0.18033348
0000b0 6d 43 84 be 15 8c 96 bd 79 61 1c bc 15 21 1a be
       -0.25832692 -0.07350937 -0.009544724 -0.15051682
0000c0 8f 7b 9c bc fc 37 c2 bc 8e 06 71 bc d2 25 79 3d
       -0.019101886 -0.023708336 -0.014711035 0.060827084
0000d0 90 fd 8a bb 50 dd 24 bd 9b 64 ea 3c 35 b7 50 3d
       -0.004241653 -0.040250123 0.028612426 0.05095597
0000e0 bf 0a aa bc 59 21 32 3d 05 27 a7 3d 58 ba 6e 3b
       -0.020757077 0.043488834 0.08161739 0.0036426987
0000f0 bb 07 f2 bd 2f 2c 25 3c e0 d0 c8 be 73 72 3b 3e
       -0.11817881 0.010081335 -0.3922186 0.18305378
000100 2a 55 fc be 4c 47 5c be b8 fb ee 3c 02 cb 47 bd
       -0.49283725 -0.21511573 0.029172763 -0.048777588
000110 50 ea 05 be cd 91 c5 3c ec a6 2f 3b 4d 2a 88 3c
       -0.13077664 0.024117375 0.0026802374 0.016621733
000120 d3 74 66 3d da 81 2a be 64 92 41 bd 21 a2 14 be
       0.056263756 -0.16651097 -0.04725875 -0.14514972
000130 c8 08 12 3d f9 f7 d9 3d ae 4a e0 bd 9b 9a 19 bd
       0.035652906 0.10643 -0.10951744 -0.03750096
000140 d0 53 57 3c a1 71 00 3d be a3 19 3d fc 33 fb bc
       0.013142541 0.031358365 0.037509672 -0.030664437
000150 3e ed 25 bc eb f1 b9 bc 9b b5 6d 3c ae 6d 9f 3d
       -0.010127364 -0.022698363 0.01450863 0.077845916
000160 3e 64 7f 3d e0 fb 1d bd c7 7a fc 3e ab 3d 87 bd
       0.062351458 -0.038570285 0.49312422 -0.06603559
000170 86 e9 8c be 8c 21 6e be 1d 70 d5 bc 11 08 2e 3d
       -0.27521914 -0.23254985 -0.026054436 0.04248816
000180 76 75 fc bd 91 ef 9e 3d e1 3e 6f 3e 96 90 1e 3d
       -0.123270914 0.077605374 0.2336383 0.038712107
000190 83 d4 16 3e 60 08 c6 3d 83 57 23 3c 5b 18 4c be
       0.14729504 0.09669566 0.009969595 -0.19931166
0001a0 57 e2 7c be 81 45 70 3b 52 15 f8 bd 4a 29 1a 3e
       -0.24695717 0.0036662521 -0.121134415 0.15054813
0001b0 23 eb 2b 3d 45 9a f9 bc 63 0a f8 38 d3 94 fd bc
       0.04197229 -0.03046907 0.00011827496 -0.030954754
0001c0 de 80 63 3d a1 fa b4 bc d5 d2 71 3d 4d dc 46 3c
       0.05554282 -0.022092165 0.059038956 0.012137485
0001d0 dd 52 4b 3d 72 2a 85 bd 87 8a 05 3d e2 5a 85 3e
       0.04963957 -0.065022364 0.032602813 0.260459
0001e0 cd 88 73 3e 0f 14 11 3f fb 1e ec 3d 82 cf 35 3c
       0.23782654 0.5667123 0.115293466 0.011096837
0001f0 a7 eb 49 3d 0a 14 c3 3c f2 dd 36 3d 6a 1d d8 3d
       0.049297 0.023813266 0.044645257 0.10552485
000200 03 93 3a 3e 5f 85 b1 3e 9b d3 15 be e3 67 bb 3c
       0.18220143 0.34672067 -0.14631502 0.022876685
000210 f2 ca b7 3d 37 e5 db be 73 4f 13 be 64 57 22 3e
       0.089742556 -0.42948315 -0.14385776 0.1585365
000220 26 39 91 ba f8 e4 fe bc fa 63 98 3c 6f ca 83 3c
       -0.0011079654 -0.03111504 0.01860236 0.016087739
000230 c4 19 03 3d 46 91 99 bc 37 84 e0 bb 12 ac 37 bd
       0.032006994 -0.01874603 -0.0068516987 -0.044841833
000240 0c b1 56 3c 45 67 a0 bd d5 c5 9e 3d c9 0a 65 3e
       0.013103735 -0.07832197 0.07752577 0.22367395
000250 32 2f c8 3e 57 30 2e 3d b8 1a 30 3e 4b fc 1f bd
       0.39098507 0.04252657 0.17197692 -0.039058965
000260 50 ce 22 3d e0 3d d0 bb bf 56 87 3e 27 cf f8 bd
       0.039747536 -0.0063550323 0.2643337 -0.12148886
000270 3d 75 d1 bd 2c 63 1c bc e9 dd e8 3d c7 73 b1 3d
       -0.102274396 -0.009545129 0.11370451 0.08664661
000280 db 99 bc 3d b5 d6 da 3c 87 f0 e0 bd 0a f7 7b bd
       0.09209033 0.026713708 -0.10983377 -0.06151489
000290 cd b7 a3 bd f1 9d 57 bd 81 b7 52 bd f6 87 66 3d
       -0.079940416 -0.05264086 -0.051444534 0.056282006
0002a0 43 74 cc 3c 73 a0 c8 3c 4c bf b7 3c 38 df b8 3c
       0.024957782 0.02449057 0.022430085 0.022567376
0002b0 f0 bc 0f bd 12 2c 28 bd 45 dd 79 3d 2a ff b6 bc
       -0.035092294 -0.041057654 0.061002035 -0.022338469
0002c0 0b 43 83 3d 94 f1 77 3e 01 20 f1 bc d2 c6 6c bc
       0.06409272 0.24213248 -0.029434206 -0.014451699
0002d0 04 d2 1a bc e3 4f 17 be f8 0a 47 be 18 a2 9b 3e
       -0.009449486 -0.14776568 -0.19437778 0.30397105
0002e0 86 e2 bc bd 0f 2b 23 be 0a cb 15 bd 01 81 b7 bd
       -0.092228934 -0.15934394 -0.036570586 -0.089601524
0002f0 0e 44 01 be 5c f5 53 3e 7f 38 0a be 0e 21 63 3d
       -0.12623617 0.20699066 -0.13498114 0.055451445
000300 52 2d 82 bd b4 4c ec 3d 14 b2 9b 3d 05 86 8d 3c
       -0.063563004 0.115380675 0.07602325 0.01727582
000310 c4 4b 00 bd 27 2b a9 bc f7 72 8d bd d2 64 3d bd
       -0.031322256 -0.02065046 -0.069066934 -0.046238728
000320 cf 4b ad 3d c9 9a 34 3d 4f d9 1e 3d e4 d7 04 3e
       0.08461725 0.044092927 0.03878146 0.1297298
000330 c0 99 f9 bd a3 c0 9f be 16 d9 08 be 75 7a 8a be
       -0.121875286 -0.31201658 -0.13364062 -0.27046552
000340 c5 a8 e4 3e 31 e4 5e bd d6 d5 f2 3d 09 7b 2a 3c
       0.4466001 -0.05441684 0.11857192 0.01040531
000350 9f 6c 39 3e 78 fe 2b be 31 60 24 3d bb 9e 49 3d
       0.18107842 -0.16796291 0.040130798 0.049223643
000360 70 59 d1 bd 7b 57 38 bd 0f 18 11 be 0c 03 d5 3d
       -0.10222137 -0.045005303 -0.14169334 0.10400972
000370 22 3b f4 bc 6a 6d b7 bc 23 90 0d bd cb a8 26 bd
       -0.029813353 -0.02239104 -0.034561288 -0.040688317
000380 1e 2b 51 bc 9f 1a 26 bd c5 c7 a9 3c da b4 b6 bc
       -0.012766628 -0.04055273 0.02072514 -0.022303034
000390 7c b3 f2 bc 48 6d b0 3a c3 ac 05 bd 2e 72 22 bc
       -0.0296266 0.0013460303 -0.03263546 -0.009914918
0003a0 3e 99 ab 3d c2 55 b4 3d 8a 66 89 3e de 8c af 3e
       0.08378838 0.088054195 0.26836044 0.3428716
0003b0 da 60 c4 3d 06 bb 96 bd a0 7c 4a be a5 87 bf 3d
       0.095887855 -0.07359891 -0.19774103 0.09352044
0003c0 31 9e bf 3d 39 7f 8b bd 30 22 14 bd a1 b8 05 be
       0.093563445 -0.06811375 -0.036165416 -0.13058712
0003d0 3a 8a b1 bc f8 f6 7c 3d 83 0f fa bd 39 dd 56 3e
       -0.021672357 0.061758965 -0.1220999 0.20982827
0003e0 6b 60 fb bd 3c 5a 2b bb 8d 3d c7 3d 91 3a a8 3c
       -0.1227425 -0.0026146313 0.09728537 0.02053574
0003f0 cf 22 44 bd 3d 0e b5 3d 11 57 d6 bc df 06 75 bd
       -0.04788476 0.08840606 -0.026164563 -0.059821006

layer1.bias f4 [128]
000000 e2 77 ae bc ac e1 b6 3e 84 2e a5 bc dc 8d 87 3d
       -0.021297399 0.3571905 -0.020163782 0.066188544
000010 ec 86 6f 3c c0 8f 4d bd 89 57 01 be 4a 77 99 3e
       0.01461957 -0.05018592 -0.12631048 0.29973823
000020 9e 66 80 be b3 77 93 3e 98 d0 15 3d b4 e8 94 3e
       -0.2507829 0.2880226 0.036575884 0.29083788
000030 04 3f 59 be e4 68 c3 3c ae 3b 9c 3d f1 1d c2 3d
       -0.21215445 0.023853727 0.076285705 0.09478367
000040 52 43 a4 3e 00 02 82 3e 33 18 95 bd 59 67 7a 3d
       0.3208261 0.2539215 -0.07280006 0.061133716
000050 e5 d5 a0 bd c0 52 bf bd 6c e1 1b be 22 46 53 bd
       -0.07853297 -0.09341955 -0.1522271 -0.051580556
000060 44 3f 12 be 41 33 c8 bd 43 97 b6 3e 28 63 36 3d
       -0.14281946 -0.09775401 0.3566228 0.044528157
000070 86 1d 6e 3e 1e d4 52 3e e7 8f ad bc c5 da da 3e
       0.2325345 0.20588729 -0.021186782 0.42745033
000080 8e 56 86 3e e5 cb c9 bd ab 8c a3 be b1 87 15 be
       0.2623791 -0.09853343 -0.3194326 -0.14602543
000090 ef 44 39 bd 4d 7b 8d bd 46 24 52 3e fc 05 90 3d
       -0.045231756 -0.069082834 0.2052165 0.070323914
0000a0 33 99 14 3d 56 11 74 3e 07 bb 5f be 02 aa 4a 3e
       0.036278915 0.23834738 -0.21848689 0.19791415
0000b0 a1 53 2d be 98 a2 01 be 50 d7 54 3e 61 31 4a be
       -0.16926433 -0.12659681 0.2078526 -0.19745399
0000c0 d4 d8 47 3e 11 47 ba 3e d0 e5 96 3e 3c ae 30 3e
       0.19516307 0.36382344 0.29472208 0.17253965
0000d0 09 cd 0c be c7 47 14 be 07 5d 4d 3e ac ed bf 3e
       -0.1375009 -0.14480506 0.20055018 0.37486017
0000e0 02 98 1f 3e ad b1 4d 3e 76 13 05 be c0 3a cd bc
       0.1558533 0.20087309 -0.12995705 -0.025052428
0000f0 22 26 84 3c ac 34 a6 bc 9d ef 9b 3e 36 cb fe 3d
       0.016131464 -0.020288788 0.30456248 0.12441103
000100 f3 05 0e be 7c e1 80 3d 96 f8 71 be 1a d1 f3 3c
       -0.13869457 0.06293008 -0.23629984 0.029762793
000110 37 c6 8e 3e ba f2 9b 3e f6 d7 7f 3e 65 30 02 3e
       0.278856 0.30458623 0.24984726 0.12713774
000120 88 bf c9 3d 43 09 5e be 1b bb 49 be 5c 96 d4 bd
       0.09850985 -0.2168322 -0.19700281 -0.10380241
000130 0c 06 ae 3c dc 21 7a 3e cb f0 2d 3e 44 ff a1 3e
       0.021243118 0.24426979 0.16986386 0.31640065
000140 1e e4 49 be 5d af 68 bd 45 b6 92 3c eb 6b 3d be
       -0.19715926 -0.056807864 0.017909179 -0.18498199
000150 d4 d3 eb 3d 05 bf ea 3d b1 4f ab be 5d 72 a6 3e
       0.115150124 0.11462215 -0.33459237 0.32509127
000160 6a dc 28 3e 39 53 d9 3e 6a 4f b0 3e 98 77 0a be
       0.16490331 0.42446306 0.34435588 -0.13522184
000170 d2 64 0a bd 08 6c fc bd 60 fa 8e 3e e7 82 8f 3e
       -0.033787556 -0.12325293 0.27925396 0.28029558
000180 21 da 4a be 53 46 33 3e 82 7f 91 3e 5a 52 9c 3e
       -0.19809772 0.17507295 0.28417593 0.3053158
000190 49 7f 10 3e 91 55 e3 bd f1 aa c2 3e 9b cc 97 3d
       0.14111055 -0.11100305 0.38021043 0.07412072
0001a0 d6 8e 52 3e d6 5d 44 be 8e 9f 2a 3e 18 9e 1a 3e
       0.205623 -0.1917642 0.16662428 0.1509937
0001b0 50 81 e8 3d f1 65 fa 3d 0e ff 85 be aa a2 63 be
       0.113527894 0.12226475 -0.26171154 -0.2223002
0001c0 54 7e 9e 3e 2b cb 70 be ae b7 87 be ed c5 92 3c
       0.30955756 -0.23515002 -0.26507324 0.017916644
0001d0 9f 9b f4 bd 03 93 9c 3e b0 4a 2f be dd f7 90 3d
       -0.11943745 0.3058091 -0.17118335 0.07078526
0001e0 49 4c be 3a 5c 5f 18 bd 6f ad 96 3e 1b db e2 3d
       0.0014518584 -0.037200317 0.29429194 0.11076947
0001f0 b7 e4 c1 3e 91 38 93 3c e7 fd 0d 3e 40 dd b4 3d
       0.37869808 0.017971309 0.13866387 0.088312626

layer2.weight f4 [256, 128]
000000 73 57 8c bc 24 54 7c 3d fb b8 65 3d 2c 4e d2 bd
       -0.017131543 0.06160368 0.056084614 -0.10268816
000010 81 7c 66 3d 69 e2 8b bd 2b 6d 23 bd 17 13 33 bd
       0.05627108 -0.06830294 -0.039899033 -0.043719377
000020 5e 39 6f ba 31 54 4a 3d 81 81 43 3d 40 23 ee 3d
       -0.0009125675 0.049396697 0.047730926 0.11627817
000030 07 d8 e0 bd 1c 5f a9 bd 8c d9 b3 bd 22 9c c2 3d
       -0.10978704 -0.08270094 -0.08781728 0.09502436
000040 f0 ef 95 bc 46 ec 04 3e 1c d1 9e bd 9e 8e 6a 3d
       -0.018302888 0.12980756 -0.07754728 0.057264917
000050 c0 99 19 3d e8 ea b5 3d 2e f3 0f bc 6e 3d 5e bc
       0.037500143 0.088826954 -0.008786006 -0.013564451
000060 0c bd 0e 3d 53 24 de 3b c5 0f 34 3d d2 42 9c 3d
       0.034848258 0.0067792325 0.04396035 0.076299325
000070 b2 b0 97 3c 8b ff 91 3d 5d 13 3a bc 88 e1 fd bc
       0.018516872 0.07128819 -0.011357156 -0.03099133
000080 ea 39 60 3b ac 08 89 bd 36 67 0e be c0 ff e6 bc
       0.0034214207 -0.06691107 -0.1390656 -0.028198123
000090 51 42 36 3d de 1b f0 bc 89 f7 23 3d 9d 43 9b 3d
       0.044496838 -0.029310163 0.04003099 0.075812556
0000a0 96 77 4d bd 23 02 0f 3e ab e1 00 be 8a 7d 80 3c
       -0.050162874 0.13965659 -0.12586085 0.015684862
0000b0 d8 7f d1 bd 74 d3 cf bb 7a 88 eb 3d b4 9c cd bd
       -0.102294624 -0.006342346 0.1150064 -0.100396544
0000c0 07 bd 7b bc 0a eb 5f 3d 69 53 63 3d 33 9a 7c 3c
       -0.015364892 0.05466751 0.055499468 0.015417623
0000d0 31 b1 61 3c 7f 88 4b 3d bb 0e e8 3d 14 41 c1 3c
       0.013775156 0.04969072 0.113309346 0.023590602
0000e0 48 a0 00 3d 0c c0 0e be dd 63 ca 3c a4 66 6f 3d
       0.031402856 -0.13940448 0.024705822 0.058447495
0000f0 c0 98 e2 bd b2 07 f6 3c 19 8a 26 bd f9 e8 56 3d
       -0.11064291 0.030032966 -0.040659044 0.052468274
000100 d3 0d 26 3d cd 04 67 bd 18 1a a9 bc f4 24 50 bb
       0.040540528 -0.056401063 -0.020642325 -0.0031760307
000110 1c de d4 bc 15 86 cd 3d 94 33 d7 3c 56 e2 62 3d
       -0.025984816 0.1003534 0.026269712 0.055391632
000120 89 da c8 bc 20 e7 e1 b9 a3 5e 04 3c 5e 3f 99 bd
       -0.024518268 -0.00043087546 0.008079204 -0.074827895
000130 ba b3 fc 3c 14 b0 b9 3d 20 90 33 bd c2 54 86 bb
       0.030847419 0.09066787 -0.04383862 -0.0040994594
000140 48 d8 90 bd 00 46 fa bc 6a 2d 45 3d a7 eb 64 3d
       -0.070725024 -0.030550957 0.048139013 0.055888798
000150 e6 a1 56 3d 49 8b d0 3d 25 6f 2e bd af 31 88 3d
       0.052400492 0.101828165 -0.042586464 0.066501014
000160 08 8f 91 3c a1 4c 80 3d 1c 2b 4f bd 16 14 b9 3c
       0.017768398 0.06264616 -0.05057822 0.022592586
000170 28 1f 3d 3d 7f e9 0f bd 3d 6c 03 3d 93 13 2d be
       0.04617229 -0.03513479 0.032085646 -0.16901998
000180 45 97 eb 3c 20 7e 12 bc f0 2d 4a bc 1f 32 16 bc
       0.028758654 -0.008941203 -0.012340054 -0.009167223
000190 f7 59 bc 3c 6d 2d 30 bd cc 0d d5 bc db 7b 41 3d
       0.022992117 -0.04301207 -0.026007555 0.04723726
0001a0 98 a8 1f bd a1 a2 18 3d a0 c8 3e 3e e4 95 d6 bd
       -0.038979143 0.03726447 0.1863122 -0.10477808
0001b0 16 0c 12 3e 10 04 85 3d b1 78 af 3b 5a 8e 57 3d
       0.14262423 0.064949155 0.0053549637 0.05262599
0001c0 3b 9c fa 3d 06 b5 21 bd b4 59 14 bd 89 b9 46 bb
       0.1223683 -0.039479278 -0.03621836 -0.003032299
0001d0 f6 62 86 bb f4 ea 6a 3d 8a 11 9f bd 01 e7 3b be
       -0.0041011525 0.057352975 -0.07767017 -0.1834984
0001e0 81 d6 54 bd 35 fa 3b bd 56 90 ad 3d 31 d5 03 bd
       -0.05196238 -0.045892913 0.084747955 -0.032185737
0001f0 bb 0a a6 3d 8e 1a 83 bd 77 87 58 3c cd 82 e7 3d
       0.081075154 -0.06401549 0.013215891 0.11304245
000200 df 7c 9a 3a 78 01 3b 3c f7 88 55 bd e5 c0 f7 bd
       0.0011786482 0.011413924 -0.052132573 -0.120973386
000210 dd b6 fa bc 29 ef c8 bd 4e bb 86 3c 16 40 bc bc
       -0.030604774 -0.09811241 0.016446736 -0.022979777
000220 84 2b 5f bc df 93 22 bd 4c 1e 99 3d f7 ad 8c 3d
       -0.013621215 -0.039691802 0.07476482 0.06869119
000230 9b 33 1d bd 2b 20 3c bd 9a f6 9f 3d 9d 62 52 bc
       -0.038379293 -0.045929115 0.078107074 -0.012840894
000240 2f af 9e 3c 2a d3 0d 3e d7 cb d7 bb 8c f0 1c bd
       0.019370643 0.13850084 -0.006585579 -0.03831534
000250 24 51 ef bd 58 cb 66 bd dd 09 12 bc 04 4c 4b 3d
       -0.11685398 -0.056346267 -0.008913484 0.04963304
000260 39 d2 6b bc 0b dc 01 bd 40 59 9c 3d 59 ac 96 bb
       -0.014393383 -0.03170399 0.076342106 -0.004598182
000270 7b 6d 9b bd 52 62 2c 3c 55 a1 48 bd fc 56 1f 3c
       -0.07589241 0.010521488 -0.048981983 0.009725329
000280 3e 65 3e 3d 0f 69 3b 3d 50 d9 81 bb 1c f2 fe 3d
       0.04648327 0.04575449 -0.0039626732 0.124485224
000290 19 dd 88 3b 83 69 b0 bd 13 d5 96 bd eb fd 9c bc
       0.0041767475 -0.08613875 -0.073648594 -0.019164046
0002a0 1b 00 40 3d 9d 24 ca 3d bf f2 d1 3c 91 3e 93 3d
       0.0468751 0.09870265 0.025628446 0.07189668
0002b0 6d 1c 40 bd d2 8b f7 bd a2 44 18 3e 5a 50 83 bd
       -0.04690211 -0.120872155 0.14869931 -0.0641181
0002c0 32 df 7a bd 86 fa b5 bd 27 7b 86 3d 50 db 2e 3d
       -0.061248012 -0.08885674 0.06566458 0.04268962
0002d0 ca ec 2a bd 95 9f 34 bd 9f ae 95 3d 50 ce c0 ba
       -0.041729726 -0.0440975 0.07308697 -0.0014709923
0002e0 2c 50 c2 bd 5c ae 95 bd 8a 68 5e 3d fb 7d 10 3d
       -0.09487948 -0.07308647 0.054298915 0.035276394
0002f0 7e ad 67 3d cc 64 06 3d 64 10 de 3c 97 b2 9d 3d
       0.05656194 0.03281097 0.027107425 0.07700079
000300 e5 e7 5b 3c 53 1f 6a bd 81 a9 2b 3d c8 7d 94 bd
       0.013421987 -0.05715878 0.0419097 -0.07250553
000310 14 4f 03 3e e2 f5 e9 3d 66 d6 9b bd dc e2 8d bd
       0.12823135 0.114238515 -0.07609253 -0.069280356
000320 70 2d 76 bd 57 4c 57 bd 0d 1d 9b bd 4d f1 11 3a
       -0.060101926 -0.052563038 -0.075739 0.00055672677
000330 d5 76 9b 3d 7c 67 80 bc 1f ac 32 bd 37 b5 9b 3c
       0.07591025 -0.015674345 -0.04362118 0.019007308
000340 1f 71 3b bd 85 ae 4b bd 7f d3 d3 bd 07 dd 74 bd
       -0.045762178 -0.04972698 -0.10343074 -0.0597811
000350 e7 18 23 3e 7b 81 0c 3d e1 6e 38 bc 9e 0f a7 bd
       0.15927468 0.03430317 -0.011256904 -0.081572756
000360 25 f9 33 bd bb cc c3 bd 95 26 8c 3d c9 d0 c4 bd
       -0.043938775 -0.095605336 0.068432964 -0.09610135
000370 72 09 1d 3c 31 33 d1 bc 9f da 77 3d 1a a5 1a be
       0.0095847715 -0.025537105 0.060511228 -0.15102044
000380 b0 c0 20 3c 6d 2f 7b 3a dd 18 fc 3c 9c d1 04 be
       0.009811565 0.0009581957 0.030773574 -0.12970585
000390 ce 71 e6 3c eb d6 0e be 76 95 93 bc e2 47 2e 3d
       0.028130438 -0.13949172 -0.018015604 0.04254902
0003a0 56 e0 3d bd 7d 80 27 3d ad c8 d9 3c a5 d8 d6 3c
       -0.04635652 0.04089402 0.026584947 0.026226351
0003b0 78 01 1e bd 77 70 d5 bb 35 44 e3 3c 8d 77 86 bc
       -0.03857562 -0.006513651 0.027742485 -0.016414428
0003c0 7d 04 e9 3c bc 24 0c 3d 68 66 07 bd 5e 48 2c bd
       0.028444523 0.03421472 -0.033056647 -0.042061202
0003d0 27 69 e2 bd 0f cf c0 3c 40 3a 05 3d 49 7f 76 3c
       -0.110552125 0.023536233 0.032526255 0.015044996
0003e0 b0 73 7d bd bd 2f 7b 3d 39 17 a4 3d 8c d9 22 3d
       -0.061877906 0.061324824 0.08012242 0.03975825
0003f0 db 24 2a bd 0f 76 4e 3d 37 28 b8 bd 6e 17 a7 bd
       -0.041539054 0.05040556 -0.089920454 -0.08158766

layer2.bias f4 [256]
000000 00 72 89 3c e2 76 ed 3d 2e cc 3b 3e 67 eb 11 be
       0.016777992 0.11594941 0.18339607 -0.14249955
000010 06 e4 67 3d e4 13 6f 3e b3 62 ba bb 6a f2 56 3e
       0.056613944 0.23347431 -0.0056880354 0.20990911
000020 22 a0 68 3e 8b bf 93 3e f8 0a 35 3e 8f 3e 0f be
       0.22717336 0.28857073 0.17679965 -0.13988708
000030 54 7e 99 3c 47 d7 11 3e 25 74 5d bd e5 cc 4a 3e
       0.018736996 0.14242278 -0.054065842 0.19804724
000040 74 be 22 be d1 8e 91 3d d0 3f 30 be 12 16 33 bd
       -0.15892965 0.07107318 -0.17211843 -0.04372222
000050 bf 9b 5b bd c4 52 a5 bd 17 68 0b 3e a0 d4 25 be
       -0.053615328 -0.08072427 0.13613926 -0.16194391
000060 81 98 33 3e e7 6f 14 3d 66 87 92 3e 82 51 b2 ba
       0.17538644 0.03623953 0.28618926 -0.0013604613
000070 f2 00 cf bc fd 02 7d 3e a4 e5 13 3e 2b 0b 84 3e
       -0.025269005 0.24708171 0.1444307 0.2578977
000080 7d 32 a1 3d 5c c6 da 3d 62 c7 c4 3c f5 32 3a 3e
       0.07870958 0.10682365 0.024020854 0.18183501
000090 69 ef 54 3e 56 0e 74 3d 74 52 8d bd 16 8a 18 3e
       0.20794453 0.059583984 -0.06900492 0.14896426
0000a0 de 89 5a 3e a5 0a c2 bc 3e 0b 20 3e 5a 9d 9d 3d
       0.21341655 -0.023686716 0.15629289 0.07696028
0000b0 2c 6d 96 bd 19 6d 8d 3e 62 61 77 3e e4 75 86 3e
       -0.07345042 0.27622297 0.24158242 0.26261818
0000c0 a5 88 34 3e 5c be 09 3e e3 81 27 3e 98 5b 06 3e
       0.17630251 0.13451523 0.16358142 0.13120878
0000d0 a8 43 c5 bd 1b 3d c5 3d f8 7b 9e 3e 57 03 b5 3c
       -0.09632045 0.096307956 0.30953956 0.02209632
0000e0 87 f8 8f 3e 88 63 0d 3d 08 c0 38 3e 20 dc 8a 3d
       0.281193 0.03451875 0.18042004 0.06780267
0000f0 10 ce 36 3e 8c 48 ac 3c 1a ae 33 3e 9b 13 aa 3d
       0.17852044 0.021030687 0.17546883 0.08304521
000100 6c 36 69 3e 83 44 23 3d d9 f9 8b 3e 03 b8 82 3e
       0.22774667 0.03986026 0.27339056 0.25531015
000110 ab 75 16 3e 20 da 36 3d a4 79 e4 bc 94 17 24 3c
       0.14693324 0.044641614 -0.027890034 0.010015387
000120 7c f1 3b 3d 42 a4 6c 3e 7a e2 c5 bd e8 17 8a 3e
       0.045884594 0.23109534 -0.096623376 0.26971364
000130 88 e0 18 3e df b7 8f 3d c6 74 8e 3e 7e 9c 44 3e
       0.14929402 0.070174925 0.27823466 0.19200322
000140 c4 68 17 3e 10 9a 02 3e b8 be dc bd 2d d9 99 3e
       0.14786059 0.12754083 -0.10778564 0.30048504
000150 66 2f 02 3e 5f bb 8f 3e 93 20 36 3e 49 85 4f 3e
       0.12713394 0.2807264 0.17785864 0.20265688
000160 b9 29 c3 3d af 2b 59 3d 09 53 94 3e ff 04 49 3e
       0.09529442 0.053020176 0.289696 0.19630812
000170 ae b0 ec 3c e5 a3 73 3d c0 46 c4 bd a9 c7 78 3e
       0.028892841 0.059482474 -0.09583807 0.24294914
000180 87 77 29 3e 7d 7b 46 3c 8b e5 1d 3d 9c f1 33 3d
       0.16549502 0.012114403 0.038548987 0.04393159
000190 ed 9f 89 3e 5d 6a e7 3d 06 a6 6b 3e ec fe 9e 3d
       0.26879826 0.11299584 0.23012552 0.07763466
0001a0 b8 96 ff 3d 3d 89 37 3e 41 f9 0d 3e e1 07 18 3d
       0.12479919 0.17923446 0.13864614 0.03711689
0001b0 62 d4 0d be af 06 e5 3d 37 58 c1 3d eb 04 9c 3e
       -0.13850549 0.111829154 0.09440654 0.30472502
0001c0 b0 35 99 3e 28 7b 09 bd b3 9e f7 3d f4 1f 65 3e
       0.29923773 -0.033564717 0.12090816 0.2237547
0001d0 8f c0 4d 3e f6 79 8c bd 9e a0 5d 3e 78 87 80 3e
       0.20092987 -0.068592 0.21643302 0.25103354
0001e0 76 4a 8e 3e 02 a3 65 3e 51 bf 0f 3e 40 23 01 3e
       0.27791184 0.22425464 0.14037825 0.12611103
0001f0 00 8b 37 3c ed df 66 3e e1 bb 70 3e ed 9e 90 3e
       0.011202574 0.22546358 0.2350917 0.2824625
000200 41 67 53 3e 6f 3d 96 3e 29 2a 83 3e 07 d7 26 3e
       0.20644857 0.29343745 0.25618103 0.16292964
000210 bc e2 af 3c 20 6f b5 bd f7 84 5a 3d 37 60 1d be
       0.02147042 -0.08859086 0.05334946 -0.15368734
000220 e8 78 91 3e 23 70 94 3e b6 f4 64 3e a0 5d f2 bd
       0.28412557 0.28991804 0.22358975 -0.11834264
000230 0d a3 97 3e 52 6a 0c 3e 7f 6f 4b bd 1a ca 2e 3e
       0.29616585 0.13712433 -0.049666878 0.17069283
000240 e6 84 1a 3e 7b 99 70 bc 04 4e be 3d bd 47 e1 bd
       0.15089759 -0.01468503 0.09292224 -0.11000011
000250 5b c9 17 3e 4b 4f 2c 3e 15 e9 83 3e fd 62 6f 3e
       0.14822905 0.16827123 0.25763765 0.23377605
000260 bc 31 9f 3c ad 7b 18 3e 67 dc 14 3e f4 c2 cf bd
       0.019432895 0.14890929 0.14537202 -0.10144606
000270 c8 ba 7f 3e 51 f8 82 3e eb 34 89 3e 93 89 d8 3c
       0.24973595 0.25580075 0.26798186 0.026432788
000280 1b 9e 69 3e 84 31 4a 3e 2b 09 ad 3d 5f e6 99 3e
       0.22814219 0.19745451 0.08449014 0.30058572
000290 a7 c1 90 3e 3a cd b8 bd b7 59 aa bd 9c 49 b2 3c
       0.28272745 -0.09023519 -0.08317893 0.021763615
0002a0 ed 6a 81 3e dd 28 43 3e ab 6f 7b 3e 3b 4e 84 bc
       0.2527689 0.19058557 0.24554317 -0.016150584
0002b0 7e cf 32 3e 05 b2 57 3e 9f 16 be 3c c4 39 90 3e
       0.17461964 0.21064003 0.023204146 0.28169072
0002c0 a2 2a 23 3d 28 c6 12 bd 09 a5 8e 3e d4 25 4e 3c
       0.03983558 -0.035833508 0.27860287 0.012582261
0002d0 82 78 92 3e 00 36 9d 3e 09 04 c2 3c cf c6 98 bc
       0.28607565 0.3070526 0.023683565 -0.018649487
0002e0 e9 96 2d 3d 4f 87 6f 3e c7 84 48 3e 19 35 b7 3d
       0.042380247 0.2339146 0.195819 0.089456744
0002f0 bd 8b 4b 3e 1b 7e 1e 3c 99 6e 06 3e df b8 3f 3e
       0.19877525 0.009673621 0.13128127 0.18722866
000300 3d 6d b2 bd 26 b7 02 3e b9 08 f2 bd ba cf 5e bd
       -0.08712242 0.12765178 -0.1181807 -0.054397322
000310 4a 00 48 3d 75 9e 8c 3c 08 aa 40 3d b5 dc 9b 3e
       0.0488284 0.017165402 0.047037154 0.30441824
000320 58 17 85 3e 87 c3 92 3e f9 41 59 be 43 55 86 3e
       0.25994372 0.286648 -0.21216573 0.26236925
000330 82 62 af 3d 3a 07 5f 3e 87 be 41 3e 29 76 5b 3e
       0.08563711 0.217801 0.18920337 0.21431793
000340 ea 1c 9a 3e 82 fd f4 3c 77 eb 83 3d 39 47 ab 3d
       0.30100185 0.029906038 0.06441396 0.08363194
000350 1c 04 48 bd 6c 25 99 bd b0 3d 39 3e fd a0 80 3e
       -0.048832044 -0.07477841 0.18089938 0.25122824
000360 65 03 6e 3e 75 87 63 3d 97 c7 6e 3d 55 6f aa 3d
       0.23243482 0.055549104 0.058295812 0.08322016
000370 16 e9 14 bd 4e 7d 79 3e 43 f7 54 3e ef 25 f6 3d
       -0.0363551 0.24364206 0.20797448 0.12018954
000380 b9 04 56 3e b3 e9 4e 3e 0e c7 26 be 41 d6 53 3e
       0.20900239 0.20206337 -0.16286871 0.206872
000390 50 2d ac 3d d0 eb 82 3d 2e 2f 86 3e 15 cb 56 3e
       0.0840708 0.06392634 0.2620787 0.20975907
0003a0 f5 f0 a5 bd 40 d6 11 3e 05 50 7e 3e 5b f7 41 be
       -0.081025995 0.14241886 0.24835213 -0.18942015
0003b0 5d 08 3e 3d 7e ee 35 be be 85 73 3e ab ad 99 bd
       0.046394695 -0.17766759 0.23781487 -0.07503828
0003c0 de 8c 91 3e 0c 41 2d be 1a b7 82 3d 6a a4 46 3e
       0.28427786 -0.16919345 0.0638258 0.19398656
0003d0 2e 10 63 3e ca a6 4d 3e 1a c7 ad 3e 29 25 bb 3d
       0.22174141 0.20083156 0.33940965 0.09137947
0003e0 d0 23 24 bd 98 ed 71 3e e8 e7 06 3c 53 96 3b 3d
       -0.040073216 0.23625791 0.008234002 0.045797657
0003f0 f5 a2 54 bd be ee 83 3e 63 65 13 3e d8 e7 e0 3d
       -0.05191322 0.25768083 0.14394145 0.10981721

layer3.weight f4 [256, 256]
000000 8a ae dc bd 8d 61 a8 bd b8 e7 9f 3c c2 18 73 3d
       -0.10775478 -0.08221731 0.019519672 0.059349783
000010 94 a6 2f 3d 81 60 73 3d ee 29 5e be 9f 27 8a bc
       0.04288347 0.059418205 -0.21695682 -0.016864596
000020 73 09 14 be 62 4c 28 3d f2 f5 00 bd 6a 33 96 3d
       -0.1445673 0.04108847 -0.03148455 0.07334025
000030 96 50 91 bd d1 3d 36 bd cc a8 6a bd a4 a2 35 bd
       -0.07095449 -0.044492546 -0.057289883 -0.04434456
000040 10 d8 05 3d d4 54 87 bd 2e 83 03 3d aa d5 3b be
       0.032676756 -0.066079766 0.032107525 -0.18343225
000050 e4 93 34 be 25 44 5a be fa 27 a5 bd 0a ff be bc
       -0.17634541 -0.21315058 -0.080642655 -0.023314971
000060 f1 34 3b 3d a0 99 ba bd fc 7a cf 3d a9 fb 5b bd
       0.045704786 -0.09111333 0.10130879 -0.0537068
000070 da b0 d1 3d fa 65 78 3d 24 7d ec bd bd 9a ae 3d
       0.1023881 0.060644127 -0.11547306 0.08525608
000080 e0 45 fb bb db 48 b8 3c dc f0 8b bd 96 32 2e 3d
       -0.007668242 0.022495678 -0.0683305 0.04252871
000090 5a d7 91 bd 4a 08 a5 bc e5 e5 11 3d 43 c9 16 3d
       -0.07121153 -0.020145554 0.035619635 0.036813032
0000a0 f1 38 fc 3d dd fb 4f be 61 6d 02 3e e6 2a e5 3d
       0.12315548 -0.20310922 0.12737037 0.11189823
0000b0 7b 49 5f 3d 9b cf cc 3d 67 fc 01 3d 29 43 05 bc
       0.054513436 0.10000535 0.03173485 -0.008133688
0000c0 2f fb 32 bd 47 be ab bd c4 f9 6f bd 04 f1 9c bc
       -0.04369658 -0.08385902 -0.058587804 -0.019157894
0000d0 8c 27 2a be 94 0c 93 bd 6e 57 ec 3d 8d 3c 89 bd
       -0.16616648 -0.071801335 0.115401134 -0.06701002
0000e0 40 ff 17 3e db 2c 4f bb a2 df 4f 3d 28 ee af 3d
       0.14843464 -0.003161243 0.050750382 0.085903466
0000f0 60 7e c5 bd ad cb e0 bd 0c 46 b4 3d e6 05 e7 bd
       -0.09643245 -0.10976348 0.08802423 -0.11280422
000100 68 47 35 3d 47 91 6a 3c 51 a3 b7 3d e1 3e b7 3d
       0.04425755 0.014316863 0.08966697 0.0894754
000110 d5 0e 05 3d c7 24 63 3c 7a bf 69 bd 6b 15 24 bd
       0.032484848 0.013863749 -0.057067372 -0.04005949
000120 22 5c 51 be e4 ab 77 bd bf 29 98 3d 2f 2a 3a 3d
       -0.20445302 -0.060466662 0.074298374 0.045450386
000130 81 fa 04 be 9c c7 00 bd af a6 a0 3d ff 0d 43 3c
       -0.12986185 -0.031440362 0.07844292 0.011905192
000140 8a 08 b4 3d 2e 20 df bc 73 53 2e be ed 67 69 3d
       0.08790691 -0.027237024 -0.17024021 0.056983877
000150 1b 50 1c 3d 52 c2 a1 3d 51 f8 0e 3e ca 78 15 be
       0.038162332 0.07898392 0.13961913 -0.14596859
000160 ab ef 55 bd 16 00 2a 3c 79 a1 da 3d 15 9b e4 3d
       -0.05223052 0.010375997 0.1067533 0.11162392
000170 fb c1 bf bd 64 1b ba 3d 93 c9 c2 3d 1a 1c d4 3d
       -0.09363171 0.090872556 0.095111035 0.103569224
000180 60 e1 52 bc d1 b1 03 be 50 85 cf 3a 49 b1 2a 3b
       -0.012871116 -0.128608 0.0015832577 0.0026045612
000190 df f3 fa 3d c3 51 41 bd d5 0e ef 3c 30 cb 57 bd
       0.12253546 -0.047197115 0.029181877 -0.05268401
0001a0 05 66 0c 3e 3a a7 af 3d ec b6 78 bd 21 70 3e 3d
       0.13710792 0.08576818 -0.060721323 0.046493653
0001b0 35 47 49 3e bf 3c 73 bb d0 cd af bd c8 f4 10 3d
       0.1965607 -0.0037115065 -0.085841775 0.03538969
0001c0 c3 bf 1a 3d a4 10 15 3e ec 91 8b bd c3 87 86 3d
       0.037780534 0.14557129 -0.06814942 0.06568863
0001d0 06 e4 42 bd f2 45 9a 3d f5 33 90 3d 43 a8 4e 3d
       -0.04758074 0.07532872 0.0704116 0.050453436
0001e0 3a 04 38 3e f0 b5 44 3c e2 30 ce bd 04 f0 d2 bd
       0.17970362 0.012006268 -0.100679174 -0.102996856
0001f0 3b f1 46 be a7 6a 54 bd 51 29 66 3d 91 34 d1 3d
       -0.1942796 -0.051859524 0.056191746 0.10215104
000200 8b 5a 1d 3e 08 d4 85 3d ad e3 2a bd 23 f0 6e be
       0.1536657 0.065345824 -0.041721035 -0.23333792
000210 cc 9a ac bd 0f f5 fb 3d 7c ad a6 bd 55 6b 0a 3d
       -0.08427963 0.123026006 -0.08138558 0.033793766
000220 c2 36 94 3d 8f 5e f7 3d 0c 8b b7 bb 56 7a a6 bd
       0.07237007 0.120785825 -0.0056012925 -0.081288025
000230 ac 46 0a 3d 5e ba 3d 3e 4b e5 10 be 22 45 26 3b
       0.033758804 0.18528125 -0.14149968 0.0025370796
000240 d5 cf 6d 3d 5e 31 7d bc 5d 9a dc 3d e7 48 a8 3d
       0.058059532 -0.015453665 0.1077163 0.0821703
000250 28 b8 9e 3d 34 24 89 3d 5c fd 44 3e 05 9f a1 3d
       0.07749969 0.06696358 0.19237274 0.07891659
000260 18 5a 3b be 37 b5 8a 3d 09 7c 75 3d 3b 88 95 3d
       -0.18296087 0.06772845 0.059932742 0.073013745
000270 bf 21 d7 bd 89 07 3b 3d 2f ab e5 3d 6a 61 13 bb
       -0.105044834 0.045661483 0.11214291 -0.0022488483
000280 3a d6 ae 3d 8e 1b b0 3d 94 7f 87 be db 4c 06 3e
       0.08536954 0.08599006 -0.26464522 0.13115256
000290 cd b0 5f 3d 4e f7 aa bd 59 f6 30 be 39 7f 40 be
       0.05461197 -0.08347951 -0.17281474 -0.18798532
0002a0 70 75 17 bc a3 0e fe bc 86 c5 e8 3d 94 4c 87 bd
       -0.009244308 -0.031012839 0.113657996 -0.06606403
0002b0 3a 1c 8f 3d a5 55 aa 3d 66 9f 2d be 14 f6 21 3d
       0.06987806 0.08317117 -0.16955337 0.03954132
0002c0 a2 d0 a6 bd 9a 07 47 be f2 62 f6 3d bb e3 84 bc
       -0.08145262 -0.19436494 0.12030591 -0.016221872
0002d0 93 4f 40 3d 34 23 6b 3d 7f 9a 25 be 36 2f d3 bc
       0.046950888 0.05740662 -0.16172217 -0.025779348
0002e0 25 8a 81 bc 87 0f 29 bc 33 ea b7 bd 30 f3 d0 bc
       -0.015812943 -0.010318643 -0.08980217 -0.025506586
0002f0 f7 a5 00 be 4b 4b c8 bd e8 20 3e be 39 c3 e9 3c
       -0.1256331 -0.09779986 -0.1856724 0.028535472
000300 34 2e 4e bd 50 cb a5 3c 6b 03 0a be 47 f7 e5 3c
       -0.05033703 0.020238549 -0.13477866 0.028072013
000310 79 8c 40 bd 0f bc a5 bd b0 98 47 be de b4 ba 3d
       -0.047008965 -0.0809251 -0.1949184 0.09116529
000320 c8 14 35 3e 3a 43 20 3e 05 d5 a3 be aa c7 9e bb
       0.17683709 0.15650645 -0.31998459 -0.004845579
000330 fe 32 ac bd 96 4b 92 bd 09 35 be 3d 0c 19 13 3e
       -0.084081635 -0.07143323 0.092874594 0.14365023
000340 e2 2c 81 3d 1c da 20 be 53 a3 2c 3e c2 ff 67 bd
       0.06307389 -0.15708202 0.16859178 -0.056640394
000350 d7 be 31 bd c5 68 ea 3d 78 0b 0a bd 27 73 dc bd
       -0.04339489 0.114457645 -0.033702344 -0.10764151
000360 91 28 c0 3d 07 38 c6 bc 87 13 8d bc 92 90 bf bd
       0.093827374 -0.024196638 -0.017221225 -0.093537465
000370 e5 7e 49 bd bf 0d c5 3d 6e 5d 4a bc 68 d3 23 3d
       -0.04919328 0.096217625 -0.012351377 0.039996535
000380 eb 72 94 bd 27 03 49 3d 14 54 33 be 23 da 90 bd
       -0.07248481 0.049075272 -0.17512542 -0.07072856
000390 9a 1b 94 bd 47 66 7b bc 1a 4b 1d bb 07 59 2f be
       -0.07231827 -0.015344209 -0.0024001063 -0.17123805
0003a0 39 dc 5b 3d a9 48 0e be 38 75 ac bd 73 d7 36 3d
       0.053676818 -0.13894905 -0.08420795 0.044639062
0003b0 30 76 62 bd 42 22 85 be 24 79 c8 3d 7f 4a aa 3c
       -0.055288494 -0.260027 0.09788731 0.020787476
0003c0 42 6b 74 3d b0 6e b1 bb 1d b2 70 3d 40 3e e9 3c
       0.0596726 -0.0054148063 0.058763612 0.028472066
0003d0 bc 62 22 3d 17 a2 af 3d d8 2d 8a 3d 21 71 91 bd
       0.03964494 0.08575838 0.06747025 -0.07101656
0003e0 f0 03 59 be 99 af d0 3d 42 83 c8 bd 4f ab 38 be
       -0.21192908 0.101897426 -0.097906604 -0.18034099
0003f0 d6 82 e1 3d c7 d2 f0 3b 84 8d 89 bd b8 fd 88 bd
       0.11011283 0.0073493454 -0.06716445 -0.06689018

layer3.bias f4 [256]
000000 b3 a5 c8 3d fe 76 ef 3d 97 47 40 3e 02 47 e2 3d
       0.097972296 0.11692618 0.1877731 0.110487
000010 71 f0 f0 3d e1 15 32 3d 05 e7 04 be aa 27 33 be
       0.117646106 0.043477897 -0.12978752 -0.174956
000020 66 1c fa 3d 24 12 5b 3e 5e 26 62 3e ff 17 4c 3e
       0.12212448 0.21393639 0.22084948 0.19931029
000030 52 84 1e 3e 19 25 85 3e 1b 96 51 be 39 38 fc bd
       0.15480164 0.26004866 -0.20467417 -0.12315411
000040 7e 5b f9 bd 4e 60 47 3e 8b 55 3b 3e 85 28 62 3e
       -0.12175654 0.19470331 0.18294351 0.2208577
000050 9e 76 fa 3c a3 68 15 3e 7a ba 80 bd 5c db 4f 3e
       0.03057414 0.14590697 -0.062855676 0.20298523
000060 47 e5 05 be dd 02 46 3e 67 56 34 3e 2c 1c 5a be
       -0.13075744 0.1933703 0.17611085 -0.21299809
000070 1b e3 4e 3e b4 0f 95 bd 9b 3b 1e 3e 88 c2 28 3e
       0.20203821 -0.07278386 0.15452425 0.16480458
000080 c2 00 3a 3c 1a 1d 47 3e f6 66 24 3e 14 39 81 3e
       0.01135272 0.19444695 0.16054901 0.2523886
000090 7f c9 39 3c cf f9 02 be 33 e1 63 3e b3 1a 44 3e
       0.011339544 -0.12790607 0.22253875 0.1915081
0000a0 76 92 0e be 1e ea 75 3e 37 bc 53 3e 41 5e 38 3d
       -0.13923058 0.2401509 0.20677267 0.045011763
0000b0 4d f2 51 3e 28 c3 3a 3e ea 74 05 3e c6 17 c5 3d
       0.20502587 0.18238509 0.1303288 0.09623675
0000c0 2b b4 38 3e ed 30 51 3e 46 dd 52 3e a4 b7 59 3e
       0.18037479 0.2042882 0.20592222 0.2126146
0000d0 76 17 ab bd 19 aa 64 3d 78 73 66 3e 2b 6a 4a 3e
       -0.08354084 0.05582628 0.22504985 0.19767062
0000e0 30 41 2e 3e 54 c1 b1 3c 47 5b 2a 3e e4 34 28 3e
       0.17017055 0.021698631 0.16636382 0.16426426
0000f0 42 a5 77 3e be 39 b3 3d e7 56 83 3e ce ce ff bd
       0.24184135 0.08751248 0.2565224 -0.12490617
000100 48 77 97 bd 55 5a eb 3d f9 2e 50 3e c3 4d 31 bc
       -0.07395798 0.11491839 0.20330419 -0.0108217625
000110 c8 68 bf 3d 0f 3a e2 bd 8d 85 16 3e 09 c7 7e 3e
       0.09346157 -0.1104623 0.14699383 0.24880613
000120 a0 71 49 3e f8 29 fe bd d2 67 34 3e 89 3b 29 3e
       0.19672251 -0.12410349 0.1761773 0.16526617
000130 cb 7f 5f 3e 9a 23 ed 3d 4c fb 00 be b0 4b 33 3e
       0.21826093 0.11579056 -0.12595862 0.17509341
000140 d0 d3 d5 3d 88 0c ca 3d e7 6c 05 3e 74 d5 62 3e
       0.10440791 0.098656714 0.13029824 0.22151738
000150 b4 f8 2b 3e c6 5c ac bd d6 5b 45 3e f7 d7 cb 3d
       0.16794091 -0.08416133 0.19273314 0.099533014
000160 b7 bf 49 3e a9 3d 43 3e 06 6b 32 3e ef e4 1c 3e
       0.1970204 0.1906649 0.17423639 0.15321706
000170 92 2d 46 3e 1c 5d a3 3d 69 e0 1b be 78 4b 24 3e
       0.19353321 0.079767436 -0.15222324 0.16044414
000180 37 d4 bd 3d 97 22 5c 3e b5 bd 02 3d b4 b1 7b 3e
       0.092689924 0.2149757 0.0319192 0.24579507
000190 24 c5 4d 3e db b9 7f 3e f8 fe 9a bc 4f dd 05 be
       0.20094734 0.24973242 -0.018920407 -0.13072704
0001a0 d3 41 4f 3e 95 a3 66 3e 67 97 b2 bd 08 91 c3 3d
       0.20239954 0.22523339 -0.08720284 0.09549147
0001b0 38 34 e7 bc d9 7b 64 3e ca 7a 64 3e 78 8b 5c 3e
       -0.028223142 0.22312869 0.22312465 0.21537578
0001c0 47 55 4c 3e d1 4b d0 3d 07 5f be 3d 10 75 ad bd
       0.19954406 0.10170711 0.09295469 -0.084695935
0001d0 e9 dc 37 3e 7b 6d 8f 3d e3 09 27 3d 94 a2 0a 3e
       0.17955364 0.070033036 0.040780913 0.13538581
0001e0 b6 3a 47 be 3d f1 9b 3d c2 61 f1 3d 6c 67 cd 3d
       -0.1945599 0.07614372 0.11786224 0.10029492
0001f0 34 bf 41 3e 82 ae 7e 3e 16 8b 56 3e 5d 21 9f 3e
       0.18920594 0.24871257 0.20951495 0.31080142
000200 70 a0 1a be 93 20 51 3e 7d 69 1f 3e eb 6e 33 3e
       -0.15100265 0.20422582 0.15567584 0.1752278
000210 d2 d1 6f 3e a6 19 d2 3d db cd f2 3b 3f f2 5e 3e
       0.23419884 0.10258798 0.007409794 0.21772097
000220 05 82 ca 3d c4 98 4a 3e 65 14 0d 3e 13 41 2f be
       0.098880805 0.19784838 0.13777311 -0.17114668
000230 64 ed 41 3e bd 0c 2b 3e a8 35 64 3e b1 05 35 3e
       0.18938214 0.16704078 0.22286093 0.17677952
000240 8c e2 26 3e e4 54 af bc 0b 19 a4 3d 2e 1c f6 3d
       0.16297358 -0.021402784 0.08012589 0.120170936
000250 85 96 43 3e 91 71 2a 3e b5 12 42 3e 08 40 88 3d
       0.19100387 0.16644885 0.18952449 0.06652838
000260 c5 6b a5 3d 16 b1 11 3e 78 55 ac 3c ee f9 e4 bc
       0.08077196 0.14227709 0.021036848 -0.027951207
000270 61 08 07 3e 25 2e 4f 3e e2 87 4c 3e 36 5e 0c 3e
       0.1318679 0.20232446 0.1997371 0.13707814
000280 b5 58 04 3e a8 c1 80 bc a6 b9 15 3e 78 74 32 be
       0.12924464 -0.015717342 0.146216 -0.17427242
000290 20 7c 8b 3e 95 85 c7 bd 16 d6 74 be ad 3f 0c 3e
       0.27243137 -0.097422756 -0.23909792 0.13696165
0002a0 30 72 a3 3d 3f 10 47 3e 8a 45 da bd 3c 63 29 be
       0.07980764 0.19439791 -0.10657795 -0.16541761
0002b0 68 f6 70 3e 01 d4 2e 3e a1 d1 64 3d 0d 1b 77 3e
       0.23531497 0.1707306 0.05586398 0.24131413
0002c0 a2 48 d6 3c 7d 45 65 3e 94 cb a3 3d e9 75 f7 bd
       0.02615768 0.22389789 0.07997814 -0.120830365
0002d0 67 0f 43 3e e2 a8 46 3e a8 2a df bd 4f 0a d7 3d
       0.19048844 0.19400361 -0.10896808 0.10500013
0002e0 8f 16 52 3e 89 b0 f2 bd d5 dc e4 3d 59 a1 4e 3e
       0.20516418 -0.11850078 0.11174933 0.20178737
0002f0 0b c6 0c 3e 74 56 5d 3e 4a 07 00 3e 22 0a c5 3d
       0.13747422 0.2161501 0.1250278 0.09621073
000300 60 1e 8d 3e 1b de 54 3e 5d 57 5d 3e 67 11 08 3e
       0.27562237 0.20787852 0.21615358 0.13287888
000310 9c 06 a9 3d 1e 14 5d 3e 8f 56 3e bd 88 bd 11 3e
       0.08253214 0.21589705 -0.046469267 0.14232457
000320 03 a0 a2 3d d5 12 45 3e a5 76 32 3e bf 60 1b be
       0.07940676 0.19245465 0.17428072 -0.15173624
000330 8b 1f 66 bc 8b 5c a8 bd 31 b2 ca bd 96 80 ff 3d
       -0.014045606 -0.08220776 -0.098972686 0.12475698
000340 40 6e 53 3e cc d4 55 3e f7 2f 44 3e e7 9f 80 3d
       0.20647526 0.20881957 0.19158922 0.06280499
000350 21 44 18 3e 70 c0 50 3e 04 9f 7d 3e a6 85 d6 39
       0.14869739 0.20385909 0.24767691 0.00040916837
000360 72 0b 47 3e ee eb 9f 3d 8e bc 96 bd f1 05 39 3e
       0.1943796 0.07808672 -0.07360183 0.18068673
000370 76 f4 97 3d 95 a1 f4 3d ad 45 68 3d de ba 9f 3d
       0.07419674 0.11944882 0.056707073 0.07799314
000380 7a aa 16 3e 25 d1 e0 bd 17 34 4a 3e 29 34 c6 bd
       0.14713469 -0.10977391 0.19746433 -0.096779175
000390 6c 99 28 3e 0f 43 e7 bd b3 41 dc bd 45 1f 78 3e
       0.16464776 -0.11292087 -0.10754719 0.24230678
0003a0 f3 d2 1f 3e 19 b7 d8 bd ec 0d 57 3e f5 3f 58 3e
       0.15607814 -0.10581798 0.21001405 0.21118148
0003b0 e0 10 e8 bb 9a e5 ed 3b 74 24 d7 3d 4b 84 cd bd
       -0.00708209 0.0072600367 0.10505 -0.100349985
0003c0 e9 3f 2d 3e 18 68 35 3e 5a 0c 81 3e af fe 0d be
       0.16918911 0.1771549 0.25204736 -0.13866685
0003d0 72 82 48 3d 7a cd e7 3d e4 61 37 be 06 f1 4d 3e
       0.048952527 0.113184884 -0.17908436 0.20111474
0003e0 24 1a de 3d d6 4b b9 bc f9 19 52 3e 72 57 8d 3d
       0.1084483 -0.02261917 0.2051772 0.069014445
0003f0 71 dc 12 3e 9d 64 d3 3d 99 00 20 3e e9 4e a1 bd
       0.14341904 0.10321925 0.15625228 -0.07876379

layer4.weight f4 [128, 256]
000000 d5 20 86 3e c3 e9 3b 3d e1 a3 97 bd e5 d4 24 bd
       0.26196924 0.04587723 -0.07404304 -0.040242095
000010 4d 4d 17 bd e5 8f a0 3c c0 67 1e 3c 5e dc 4b bc
       -0.036938954 0.019599864 0.009668291 -0.012442676
000020 0f 35 fb 3c 8b cc e2 3c 77 72 f6 bc be 44 b4 3b
       0.030664949 0.027685424 -0.030083878 0.005501359
000030 f9 c4 cb bd 3c 0c 81 3d a1 6a 93 3c d6 f9 08 3c
       -0.09949679 0.06301162 0.01799518 0.008360347
000040 30 46 9b 3c c5 61 97 3a 83 10 21 3d 19 75 38 3c
       0.018954366 0.0011549523 0.039322387 0.011258387
000050 0f ce 3e 3d 39 f0 a3 bd 76 ac 03 3e 89 48 8a bb
       0.04658323 -0.08004803 0.12858757 -0.0042200726
000060 92 e4 e5 3d 85 95 47 bd 04 fa 1d 3d 31 64 04 3e
       0.11225237 -0.048726577 0.03856851 0.12928845
000070 76 b6 5c bc 9e f8 62 3e b6 63 1b bc 3d 22 07 3d
       -0.013471236 0.22165152 -0.009484222 0.032991637
000080 63 61 8e 3e 40 3e 02 bd f0 47 86 bd 38 d3 31 3d
       0.27808675 -0.031797647 -0.0655669 0.043414325
000090 13 6f 44 3b 1a 88 70 3d 16 53 40 3d 52 6a 12 3d
       0.0029973432 0.058723547 0.046954237 0.035745926
0000a0 fe 70 8d 3d 20 f8 0c 3d 69 5a 0d bc 74 24 cf bc
       0.06906317 0.034416318 -0.0086275125 -0.025285937
0000b0 02 6c 0e bd 13 80 4b bd 7a ed 5d bd 40 a8 d5 3d
       -0.034770973 -0.049682688 -0.054181553 0.10432482
0000c0 ce a8 61 bc 9a 5a f2 bb 4e 40 c3 3c d0 af 02 bc
       -0.013773156 -0.0073960545 0.023834374 -0.007976487
0000d0 a9 a9 5f 3d 79 a1 b4 3d e6 73 a8 bc bc 78 ed bc
       0.05460516 0.08819861 -0.020563077 -0.028988235
0000e0 ab 84 34 3c f8 2b 08 3d c0 b2 75 3d 87 35 47 bd
       0.011017959 0.033245057 0.059984922 -0.048635032
0000f0 19 a3 b5 bb d2 a6 88 3c c2 c3 db 3c 50 d1 11 3e
       -0.0055431244 0.016681109 0.026826743 0.14240003
000100 9b 5a 22 3e de ef 0e 3e 05 01 86 3d 61 66 f5 3d
       0.15854876 0.1395869 0.06543163 0.11982418
000110 c2 6d 01 3e 27 71 7e 3d 46 d2 86 3c 37 13 df 3d
       0.12639526 0.06211963 0.016457688 0.10892337
000120 9c 04 9e bd 45 a0 e2 3d a3 16 74 bc 32 55 a7 3d
       -0.07715723 0.11065725 -0.014897975 0.081705466
000130 00 5c 37 3d 23 00 89 bd a4 9c ae 3d 67 fe 49 3d
       0.044765472 -0.06689479 0.085259706 0.049314883
000140 07 62 09 3e d3 00 ab bd e6 cf 9f 3c ba 54 f0 bb
       0.134163 -0.083497666 0.019508313 -0.007334319
000150 aa 29 12 bc 4e e1 c7 bd 0a 29 e3 3d 8f b7 94 3d
       -0.008921066 -0.0975977 0.11091812 0.072615735
000160 4b 0a fa bc ec 43 b9 bc ac bc 82 3d 8b ef 82 3d
       -0.030522486 -0.022615395 0.063836426 0.063933454
000170 ae 25 9e 3d c2 d9 22 3d 3e cf f0 3a 8d 54 18 ba
       0.077220306 0.03975845 0.001837231 -0.0005810939
000180 0e b7 48 3b dd 60 0f 3d 52 67 28 bc 66 b8 25 bd
       0.0030626687 0.035004485 -0.01027854 -0.04045906
000190 c4 6e 1c 3d 76 2d d1 3d a4 85 73 3d 03 15 fc 3c
       0.03819157 0.10213749 0.05945362 0.030771738
0001a0 98 58 92 bc 00 6d 80 bb 64 ae cc 3d 29 01 08 3b
       -0.01786451 -0.003919244 0.099942 0.0020752645
0001b0 b6 22 c5 3d 84 e6 6a 3d 61 bf d6 3d 51 d5 b7 bc
       0.09625761 0.057348743 0.104857214 -0.022440584
0001c0 07 11 aa 3c d5 22 a2 3d f8 1e f5 3d b6 79 45 3e
       0.020760072 0.079168 0.119687974 0.1928471
0001d0 78 b9 a5 bd fa 7c ad bc 86 74 af 3d 3d 14 d9 3c
       -0.08092016 -0.021177758 0.08567147 0.026498908
0001e0 51 07 5a bd d6 67 23 3e 32 2d a7 3d 0c d3 9c bc
       -0.053229634 0.15957579 0.08162917 -0.019143604
0001f0 04 03 71 3c 23 1d 5d 3d ed 2e 90 3b 63 97 7c bd
       0.014710192 0.053982865 0.0044001252 -0.06166781
000200 86 06 cd 3a b4 a5 27 bc fd 8e a4 bc 09 a9 37 bd
       0.0015642203 -0.010232378 -0.020087713 -0.04483894
000210 a0 14 3a 3d ab 6f bf bb 2d c9 83 3d cf 1d 3e 3c
       0.045429826 -0.0058421693 0.064348556 0.011603787
000220 8e f9 a2 bd f2 06 47 bd bf c3 0e 3d da 4b 60 3d
       -0.07957755 -0.048590608 0.034854647 0.054759838
000230 8a 73 2b 3d 57 a6 a6 bd e9 93 a6 3d aa a4 b9 bd
       0.041858234 -0.081371956 0.081336804 -0.0906461
000240 f1 95 97 bc 51 15 0c 3e 5a a7 8d 3d 3d ee b8 bc
       -0.018504115 0.13680007 0.069166854 -0.022574538
000250 1d b9 92 3d 95 a4 b3 bb 19 95 16 3d ab 1f 54 3c
       0.07164214 -0.005482266 0.036763284 0.012947003
000260 35 5b 29 bd 3f 96 96 3b 6f 1f a4 3d 61 f4 8f bc
       -0.041346747 0.0045955474 0.08013808 -0.017572584
000270 c2 91 5b bc ff 9d fd 3c 05 73 0d 3d ba 6a 7a 39
       -0.013401451 0.030959127 0.03453352 0.00023881617
000280 4d 3e 4f bd 1f 4e 7a bd 86 3d b4 bc 71 d7 15 3e
       -0.050596524 -0.06110966 -0.022001993 0.14632966
000290 ac ba 75 3d a3 54 4c 3d 72 14 6d bc ee a0 4a 3c
       0.059992477 0.049885403 -0.014470207 0.01236747
0002a0 4d da c6 bc 76 b3 c7 3c a9 12 e5 3d 3f 2c 97 3d
       -0.024274016 0.024377566 0.111852 0.07381486
0002b0 5f b1 15 3d 33 fe f0 bd ca c2 3d 3e 0e 52 81 3d
       0.036546107 -0.11767235 0.18531337 0.06314479
0002c0 9e 42 84 3a 6d 88 20 3c 8f 16 09 3e b7 68 cd 3d
       0.0010090654 0.009798151 0.13387512 0.100297384
0002d0 08 d6 8a 3c 5d 09 1e be c5 fe a2 bd 61 cb 55 3d
       0.016947761 -0.1543326 -0.0795875 0.05219591
0002e0 eb 99 d2 3c be 88 40 3a ec 81 87 3d 37 d1 67 bd
       0.02570816 0.0007344595 0.066165775 -0.056596007
0002f0 31 9c d5 3d 82 10 c9 bc 67 8e cc bb 0f 67 3e 3d
       0.10430182 -0.024544004 -0.0062425616 0.046485003
000300 69 47 a8 3d f1 14 f4 3c 1c 85 1f bd eb d6 93 3d
       0.082167454 0.029795142 -0.038945302 0.07218727
000310 13 73 a9 3d 03 28 92 3d 6f a2 26 3e 39 9b a5 bc
       0.08273902 0.07136538 0.16272901 -0.020215617
000320 94 c5 d8 3d 78 f1 02 3d 52 e9 0b bd 46 4d e1 3d
       0.1058456 0.031968564 -0.03415806 0.11001067
000330 8e ad 02 3b 16 39 ea bd ba 16 02 3b f1 cf ff bc
       0.0019939872 -0.114366695 0.0019849972 -0.031227084
000340 b0 90 aa bb eb 0d 0e 3d ff 6b b0 3b b3 90 45 3e
       -0.0052052364 0.034681242 0.005383968 0.1929348
000350 da 70 08 3d c0 2e 28 bd 54 76 96 bc 40 87 bc 3d
       0.03331075 -0.04106021 -0.01836697 0.092054844
000360 b3 a7 1d 3d fa 60 e9 3d 17 c2 90 3d b9 ef a7 3b
       0.03849001 0.1139545 0.0706827 0.0051250127
000370 7c 58 b1 bc 91 aa 70 3c 22 e9 6f 3e a9 ef 0b be
       -0.021648638 0.014689104 0.23428777 -0.13665642
000380 55 da 92 bc 55 ca 90 3d a6 66 2f 3d 4b d5 8e 3d
       -0.017926374 0.07069842 0.042822503 0.06974276
000390 d3 b1 f7 bc b0 ce 1b 3e 75 0a 03 3d e9 34 3d bd
       -0.03023616 0.15215564 0.031992394 -0.046193037
0003a0 99 12 b3 3c f4 b9 f6 3d 41 a3 29 bd 21 11 41 bc
       0.021859454 0.120471865 -0.041415457 -0.011783869
0003b0 c8 78 3f 3d fe e7 eb 3c 57 52 51 3d 9c f0 14 3e
       0.046746045 0.028797146 0.051103916 0.1454491
0003c0 a2 c2 5c bb 6a 22 bb 3c 04 4c 1a 3d e1 54 49 3c
       -0.0033685346 0.022843558 0.03767015 0.012288303
0003d0 15 81 dc 3d ee 9d f8 3b 4e 6a 2d bd b9 c5 93 3b
       0.10766808 0.007587186 -0.04233771 0.0045096544
0003e0 93 9c 19 3d 5e 7f 9a 3e de ee af 3c 98 c9 3a bc
       0.037502836 0.30175298 0.021476205 -0.011400603
0003f0 9f 11 a6 bd 70 36 d3 bd a9 27 50 bd 15 4e 98 bb
       -0.0810883 -0.103131175 -0.050819073 -0.00464798

layer4.bias f4 [128]
000000 f8 40 8d 38 3c 22 c2 3d a8 5d c5 3d 2f 84 a4 bc
       6.735505e-05 0.09479186 0.09637004 -0.020082561
000010 d6 58 06 3e b9 e0 33 bc 4e 31 dd bc 3b 99 57 bd
       0.13119826 -0.010978871 -0.02700105 -0.052636366
000020 da b1 5b 3e 38 51 52 3e d9 1b 8a 3d ff 2d 10 3e
       0.21454564 0.20538795 0.06743593 0.14080046
000030 7a 92 ac bd 75 f5 66 bd 33 99 08 3e d4 c1 89 bd
       -0.08426376 -0.05638643 0.13339691 -0.06726423
000040 dd f8 78 bc 4f c9 4d bb 45 29 32 3e e0 b7 70 3c
       -0.015196052 -0.0031400507 0.17398556 0.014692277
000050 d1 1b b7 bc ea dc 15 bd d2 f0 05 3e cb 1a 3d 3e
       -0.022352131 -0.036587633 0.13080147 0.18467252
000060 6c fe f8 3d 65 fb 36 bd 41 4d 83 3d b9 fe 38 3e
       0.12157902 -0.044673342 0.064112194 0.18065919
000070 ef f9 56 3d ba 8e fa bd 99 75 91 bd 40 6f dc 3d
       0.05248445 -0.12234254 -0.07102508 0.10763407
000080 2c 2b 9b bd 26 7b 6e 3c 84 3d f4 bc df 96 d4 b8
       -0.07576594 0.014555728 -0.02981449 -0.0001013705
000090 fe 69 5b bd 7e b0 28 3e 4c 52 24 bd bc 57 64 3c
       -0.05356788 0.16473576 -0.040117547 0.013936933
0000a0 bf 4c 06 3c 48 c9 14 3e 31 8b 2a 3e be 42 4e 3e
       0.008197009 0.14529908 0.1665466 0.20142648
0000b0 2c 7b cb 3c 47 b8 30 be 7d 86 cb bd 50 e6 9f bd
       0.024839006 -0.17257796 -0.09937761 -0.078076005
0000c0 63 f5 34 bd 27 08 27 bc e7 a8 f7 bc 7d a9 ae bc
       -0.04417933 -0.010194815 -0.030231906 -0.021321053
0000d0 28 b7 68 bc ed c3 15 3d c4 eb 3f bd f3 5d 3a 3b
       -0.014203824 0.036563803 -0.046855703 0.0028437346
0000e0 55 62 f3 bd 39 2e ea 3d 1c 81 15 3e f6 4c 6a 3e
       -0.1188399 0.114345975 0.14600033 0.22880921
0000f0 7f 75 27 be 5a e7 16 bd 5c 8a 0a 3e dd 15 9d bc
       -0.16353415 -0.036841728 0.13529342 -0.019175464
000100 3f 0e 17 3e 5a 7e 23 3e 2f 00 4d 3e 83 64 48 3e
       0.14751528 0.15966168 0.20019601 0.19569592
000110 62 66 0f 3e 68 93 3f 3e 56 4f be bc ea cb 14 bd
       0.140039 0.18708575 -0.02323119 -0.03632728
000120 72 5c ff 3c a2 0a ed 3d ac 92 33 bd ea aa a3 bd
       0.031172011 0.11574294 -0.04384105 -0.07991584
000130 3e 6d 86 bd 08 cc e1 3d a3 6e f9 bd 33 b8 1f 3e
       -0.06563805 0.11025244 -0.121793054 0.1559761
000140 49 ec 17 3e 0f 4c 5a 3e 08 f2 0a 3e a4 13 ad 3d
       0.1483623 0.21318077 0.1356889 0.08451012
000150 bf 53 c0 3d 5d f7 1c bd 0e 5b ca 3d 8a d7 b1 bd
       0.09390973 -0.03832184 0.098806486 -0.08683689
000160 98 2d 24 bd 98 74 50 3e 2f 1f 8a 3d a4 a8 1c be
       -0.040082544 0.20356977 0.06744229 -0.15298706
000170 e9 f7 96 bb be ff 50 3e 94 18 55 3e 98 37 46 3c
       -0.00460719 0.20410058 0.20810157 0.0120982155
000180 45 bf e2 3d b1 37 ea 3c 2f a9 c3 bd e9 fc 1f 3d
       0.11071638 0.028591009 -0.095537536 0.039059553
000190 f1 51 51 3e fa 3d 48 3e 27 f9 d7 3d c1 58 f9 bc
       0.20441414 0.19554892 0.10545569 -0.030437829
0001a0 f8 61 40 3e eb 39 5b 3d 53 5a 3b 3e 8a 7e 37 3e
       0.18787372 0.05352203 0.18296175 0.17919365
0001b0 6d f7 12 3e 29 52 f4 bb e1 ea 0a 3e 47 7e f9 3b
       0.14352198 -0.0074560833 0.13566162 0.0076139304
0001c0 18 b5 8d 3b cf 1d cd 3d c2 d8 cf 3d c5 8e 0c bd
       0.0043245666 0.10015451 0.10148765 -0.034315843
0001d0 65 80 a3 bb 94 59 20 3e 8c 17 32 3d 37 0f c5 3c
       -0.004989671 0.15659171 0.043479487 0.024055107
0001e0 b4 ba d0 3d 5f 95 36 3e f8 3e 43 3e 37 86 48 3e
       0.10191861 0.17830418 0.1906699 0.19582449
0001f0 e8 55 36 3e ce b6 1f 3e 8b d7 e6 3b 4a 79 08 3e
       0.17806208 0.15597078 0.0070447377 0.13327518
