PPO/ppo_actor.pth (torch, 549599 bytes, 10 tensors)

layer1.weight f4 [128, 29]
0.22118688 0.09650236 -0.2218297 -0.20149048 0.09229738 0.47792277 -0.009177884 -0.09929069
-0.24696591 -0.28424573 0.09662865 -0.077288285 0.075842485 -0.25136364 -0.115435176 0.02902988
-0.038870037 -0.06977421 -0.012343161 0.20043215 0.14345439 -0.12511519 -0.00021165401 0.038037285
0.17271794 -0.14341481 0.08645732 0.10863579 0.081375666 -0.069257565 0.14577223 0.26060265
-0.0518532 0.158012 0.32256344 0.2605462 0.099896595 0.07683191 0.12469104 -0.19892125
-0.21978109 -0.17169978 -0.11992604 -0.00567694 -0.11281645 -0.1485232 0.09524442 0.11185412
-0.11964868 0.10464106 0.12329973 0.13221309 0.1621249 0.15250847 -0.11712825 0.031461358
-0.06023941 -0.109899156 0.11849681 -0.0909236 -0.11342313 0.09587722 0.06770403 -0.19153176
-0.56357324 0.032865364 0.053148303 -0.11111237 -0.04827493 0.22144404 -0.15263517 -0.030498754
-0.15371928 0.017544517 -0.10781948 -0.22885895 0.09263892 0.03351951 0.0068071205 -0.041847087
0.087452464 0.011174882 -0.055268463 0.014053077 -0.104874894 0.012367996 -0.07859304 -0.066253774
0.061229076 0.04561883 -0.1969851 0.027678449 -0.0112784505 0.15314639 0.15662244 -0.26000035
0.26273745 0.052616507 -0.27196237 0.06517137 -0.040887203 0.006137607 -0.15589029 0.044124763
0.09964761 0.03724277 -0.0858959 -0.06431088 -0.012433967 -0.14724834 0.13213228 -0.082856484
-0.18307182 0.012374028 0.10816187 0.11420691 0.14232443 -0.11309346 0.110024884 -0.0501856
0.1760496 -0.16548274 0.16622591 0.01718904 0.105845265 -0.3813289 0.18442503 0.119255334
0.038207684 0.054513853 -0.15464363 -0.11659125 0.16618463 0.18187734 0.01497232 -0.10061377
-0.18435095 -0.04526814 -0.034149423 -0.070498765 -0.14644614 -0.06946893 0.055828147 0.09802839
0.049624834 0.08275508 0.11718463 0.06221566 0.16271794 -0.22618559 0.31025317 -0.2183033
-0.028099416 0.09464073 0.40543061 0.101857685 0.058358196 0.023884479 -0.27897704 0.13097242
-0.035221282 0.18914244 0.10185981 -0.04592424 0.008381004 -0.106513694 -0.14243947 -0.11998983
0.09469113 0.016450435 0.020475075 0.04883877 0.068889655 -0.123475865 0.07793061 0.107983
0.14207599 -0.14700276 0.0027420823 -0.10482261 -0.07361197 0.4179951 0.1540754 -0.22286223
-0.035619944 0.019534806 0.12145231 0.17905003 -0.07946008 0.13611104 -0.25061974 0.23842159
-0.068458535 0.07023444 -0.15919496 -0.037757006 -0.099882536 -0.017565127 -0.13825132 0.06609934
-0.073271334 -0.047729414 -0.062281005 0.14573008 0.029662177 0.15462199 0.20224968 0.15918624
-0.19895291 0.32895276 0.13792105 -0.05940556 -0.33668417 -0.056875035 0.015263684 0.011691145
-0.28255808 -0.08877199 -0.096542574 0.031771056 0.22078924 0.006756661 -0.029850617 -0.06622854
-0.06994287 -0.025756912 -0.0073382286 -0.07390148 -0.09944139 -0.06917802 -0.08605464 -0.08520555
-0.13731726 -0.082305245 -0.06025879 -0.1479523 0.24772577 -0.04349124 0.14736173 0.16569816
-0.04634327 -0.16942057 0.16762902 -0.07281838 0.1515205 0.24284166 -0.09967466 0.09879847
0.012561384 -0.18394038 0.26781568 -0.27763787 -0.05034283 0.13394886 -0.010178706 -0.13739082
00000000: d07e 623e 08a3 c53d 5327 63be 8553 4ebe
00000010: 6906 bd3d 4bb2 f43e d65e 16bc eb58 cbbd
00000020: a2e4 7cbe a888 91be 3ee5 c53d 5249 9ebd
00000030: 4e53 9b3d bcb2 80be 4769 ecbd 12d0 ed3c
00000040: 3036 1fbd c8e5 8ebd f83a 4abc 163e 4d3e
00000050: b5e5 123e 321e 00be 71ef 5db9 fccc 1b3d
00000060: f9dc 303e 55db 12be 8910 b13d 717c de3d
00000070: 49a8 a63d e9d6 8dbd 5145 153e b66d 853e
00000080: 0564 54bd e6cd 213e 0927 a53e 5066 853e
00000090: 9696 cc3d 0c5a 9d3d 045e ff3d 03b2 4bbe
000000a0: 4b0e 61be 11d2 2fbe c99b f5bd a005 babb
000000b0: 500c e7bd 7716 18be 820f c33d c613 e53d
000000c0: 5e0a f5bd 0d4e d63d 9284 fc3d de62 073e
000000d0: 1204 263e 2e2b 1c3e f0e0 efbd a0dd 003d
000000e0: 99bd 76bd cf12 e1bd 75ae f23d 2736 babd
000000f0: 634a e8bd 475b c43d 69a8 8a3d e720 44be
00000100: 5646 10bf d59d 063d 09b2 593d e28e e3bd
00000110: efbb 45bd 3ac2 623e 654c 1cbe 86d8 f9bc
00000120: 9668 1dbe 85b9 8f3c 76d0 dcbd 005a 6abe
00000130: 79b9 bd3d c14b 093d 440e df3b da67 2bbd
00000140: 471a b33d da16 373c 2f61 62bd e13e 663c
00000150: a6c8 d6bd 23a3 4a3c 63f5 a0bd 0fb0 87bd
00000160: 57cb 7a3d cfda 3a3d 76b6 49be eabd e23c
00000170: 40c9 38bc 68d2 1c3e a261 203e c41e 85be
00000180: 8685 863e 6884 573d a73e 8bbe 9178 853d
00000190: 5779 27bd fb1d c93b b4a1 1fbe 2bbc 343d
000001a0: 0c14 cc3d e08b 183d 31ea afbd 6cb5 83bd
000001b0: d6b7 4bbc 45c8 16be af4d 073e a9b0 a9bd
000001c0: 2e77 3bbe 6fbc 4a3c f883 dd3d 50e5 e93d
000001d0: 7fbd 113e 8b9d e7bd ba54 e13d 6a8f 4dbd
000001e0: 5946 343e 4f74 29be 2037 2a3e 08d0 8c3c
000001f0: 67c5 d83d 8b3d c3be ead9 3c3e 243c f43d
00000200: a97f 1c3d eb49 5f3d e65a 1ebe 65c7 eebd
00000210: 4e2c 2a3e 0e3e 3a3e 764e 753c 980e cebd
00000220: 7fc6 3cbe 166b 39bd 44e0 0bbd a861 90bd
00000230: faf5 15be ba45 8ebd 0eac 643d 1cc3 c83d
00000240: 6943 4b3d 7f7b a93d 7ffe ef3d d9d5 7e3d
00000250: 889f 263e 329d 67be 81d9 9e3e e68a 5fbe
00000260: bf30 e6bc 00d3 c13d 9a94 cf3e c39a d03d
00000270: 0109 6f3d 62a9 c33c 14d6 8ebe a21d 063e
00000280: 3144 10bd 8eae 413e e09b d03d 0e1b 3cbd
00000290: 7b50 093c da23 dabd a7db 11be 3abd f5bd
000002a0: 6ced c13d 10c3 863c 58bb a73c 290b 483d
000002b0: 0516 8d3d eae0 fcbd 159a 9f3d 3126 dd3d
000002c0: 5e7c 113e e487 16be 82b4 333b 3dad d6bd
000002d0: dfc1 96bd 7403 d63e f1c5 1d3e ff35 64be
000002e0: 38e6 11bd 7507 a03c fdbb f83d e458 373e
000002f0: f7bb a2bd b160 0b3e 3b51 80be ca24 743e
00000300: fd33 8cbd 13d7 8f3d 0104 23be 17a7 1abd
00000310: 378f ccbd bee4 8fbc c191 0dbe 175f 873d
00000320: 480f 96bd eb7f 43bd 5e1a 7fbd 443a 153e
00000330: 18fe f23c 3a55 1e3e 8a1a 4f3e b801 233e
00000340: 50ba 4bbe 7f6c a83e 2d3b 0d3e 3f53 73bd
00000350: de61 acbe ccf5 68bd 8814 7a3c 378c 3f3c
00000360: 74ab 90be 17ce b5bd 1db8 c5bd 5e22 023d
00000370: 9316 623e fb66 dd3b 4889 f4bc d4a2 87bd
00000380: 353e 8fbd 2900 d3bc 8675 f0bb a959 97bd
00000390: eda7 cbbd 35ad 8dbd 6a3d b0bd 3f80 aebd
000003a0: e59c 0cbe a78f a8bd ecd1 76bd cf80 17be
000003b0: d3ab 7d3e df23 32bd fee5 163e c7ac 293e
000003c0: 71d2 3dbd 967c 2dbe f1a6 2b3e ce21 95bd
000003d0: 3128 1b3e 7cab 783e 3a22 ccbd da56 ca3d
000003e0: 43ce 4d3c de5a 3cbe 231f 893e 8d26 8ebe
000003f0: 4934 4ebd e429 093e 96c4 26bc 2eb0 0cbe

layer1.bias f4 [128]
0.15784878 -0.15657866 0.15853807 -0.14333305 0.021637699 0.17283942 -0.06636633 -0.03453956
0.13543336 -0.118411854 -0.047686145 -0.03815106 -0.054336414 -0.09844104 0.16167879 -0.07816429
0.14756389 -0.068791494 0.053860717 0.102034755 0.11159165 -0.045937806 -0.11739117 0.2192757
0.07547976 -0.020378333 0.15172562 -0.08579409 0.028846405 0.14699693 -0.037597302 0.064569764
0.16098225 0.042912662 0.04348551 0.15497127 0.14501029 0.0395139 0.030124988 0.06641177
-0.1279713 0.17586479 -0.095716916 -0.05594926 -0.06404662 -0.017002381 -0.019544287 0.08523154
-0.14692579 -0.006417396 0.026431907 -0.062410805 -0.02038076 -0.026618779 0.06775853 0.13751073
-0.12548125 -0.12226193 -0.14385925 -0.10690774 -0.13541685 -0.0038949344 -0.049424388 0.1323267
-0.023203833 -0.02275095 0.076425076 -0.15982297 0.06278464 -0.022700716 -0.08304271 0.08141987
0.0017137066 -0.19804583 -0.03846648 -0.101029694 -0.057320822 0.051477235 0.010736295 0.16509421
0.039934106 -0.10108143 0.09175142 -0.026834588 0.013533118 -0.059003655 -0.06161161 -0.1365861
0.16122937 0.024440443 -0.039059773 -0.08088287 0.053072166 0.1987897 0.18604475 -0.10514974
0.14078297 -0.050521493 0.080208026 0.12769069 0.14798728 -0.11120904 -0.07376907 -0.17229538
-0.14868602 0.19796216 0.012291452 -0.032238226 0.15025552 -0.16096321 0.09433871 0.14041354
0.19125086 -0.14064755 -0.13391589 0.104427345 0.02918133 -0.11085715 -0.12395913 0.0069526364
0.061805345 -0.22698328 -0.07506807 -0.05789625 -0.14023823 -0.051128317 -0.13471602 -0.18689422
00000000: 1ca3 213e 2856 20be ce57 223e e6c5 12be
00000010: 8b41 b13c d1fc 303e 12eb 87bd 5b79 0dbd
00000020: 0baf 0a3e ea81 f2bd 8c52 43bd 4944 1cbd
00000030: dc8f 5ebd 759b c9bd 208f 253e 9914 a0bd
00000040: fd1a 173e 8ee2 8cbd 0e9d 5c3d 99f7 d03d
00000050: 2a8a e43d 4829 3cbd c86a f0bd cf89 603e
00000060: 2295 9a3d 76f0 a6bc f65d 1b3e d0b4 afbd
00000070: 4c4f ec3c 5d86 163e a1ff 19bd 273d 843d
00000080: 88d8 243e 30c5 2f3d dd1d 323d cab0 1e3e
00000090: 947d 143e 54d9 213d aec8 f63c e502 883d
000000a0: e90a 03be e615 343e 3b07 c4bd 0d2b 65bd
000000b0: e02a 83bd 9448 8bbc 571b a0bc e08d ae3d
000000c0: b773 16be 0549 d2bb ba87 d83c 79a2 7fbd
000000d0: 8df5 a6bc a00f dabc fcc4 8a3d 9dcf 0c3e
000000e0: 287e 00be 7664 fabd d74f 13be 72f2 dabd
000000f0: b7aa 0abe 2842 7fbb 3a71 4abd a780 073e
00000100: f715 bebc 3360 babc c084 9c3d a2a8 23be
00000110: 3c95 803d daf6 b9bc 4c12 aabd 76bf a63d
00000120: 749e e03a 87cc 4abe 078f 1dbd a8e8 cebd
00000130: 3dc9 6abd cbd9 523d 49e7 2f3c 750e 293e
00000140: f291 233d c803 cfbd 2be8 bb3d 36d4 dbbc
00000150: 03ba 5d3c d1ad 71bd 755c 7cbd 3add 0bbe
00000160: 5019 253e 5337 c83c 24fd 1fbd eba5 a5bd
00000170: 3362 593d 878f 4b3e 8482 3e3e bf58 d7bd
00000180: 6929 103e a0ef 4ebd 1b44 a43d 59c1 023e
00000190: fa89 173e 91c1 e3bd 3d14 97bd 336e 30be
000001a0: 2641 18be 98b6 4a3e 1662 493c 3b0c 04bd
000001b0: 95dc 193e 8ad3 24be a734 c13d 91c8 0f3e
000001c0: 44d7 433e e905 10be 3f21 09be 01de d53d
000001d0: af0d ef3c 1309 e3bd 49de fdbd f1d2 e33b
000001e0: 9a27 7d3d 4e6e 68be 4abd 99bd 9e24 6dbd
000001f0: 9c9a 0fbe ed6b 51bd fff2 09be 3361 3fbe

layer2.weight f4 [256, 128]
-0.10849976 -0.04071476 0.05245411 -0.118214555 0.08191955 -0.013696721 0.08539755 -0.02036371
0.06965823 -0.046449397 -0.11929279 -0.11249492 0.04668358 -0.08242575 -0.019662524 -0.0682513
0.1040982 -0.026325412 0.035665624 -0.09774962 0.081780136 -0.011953071 -0.10280445 0.01725808
0.08069469 0.073957264 -0.16796257 -0.10063439 0.027743826 0.024385432 -0.023372471 0.057251368
0.0087281205 -0.08357123 0.023408163 -0.014158483 -0.010723298 0.021201205 0.09160044 -0.077524535
0.05293004 -0.0236047 0.015141548 0.0291748 0.035521332 0.009127552 0.028951798 -0.021562716
0.022863625 -0.010454321 -0.027816411 -0.013268152 0.054430947 0.051711842 0.02595474 -0.004981832
0.09268613 -0.019666124 0.026723666 -0.0431349 -0.043505747 0.018711163 0.05406713 -0.010204029
0.08494535 0.038091462 0.11342569 -0.08803478 0.023623183 -0.04435659 -0.043143522 -0.11069744
0.040529698 0.084579006 -0.02444459 0.09010824 -0.1312179 -0.0075620306 0.075671256 -0.0028252203
0.0664508 0.00071042526 0.100131966 0.0036664887 0.00019337227 -0.014562974 -0.0027309007 0.05295118
0.14617327 0.07835056 0.054998294 0.03191827 0.00069894036 -0.017180853 0.077279516 0.020929672
-0.023072064 0.07038345 0.029679416 -0.018603371 0.13406843 0.032425597 -0.078150846 -0.0020212077
-0.02382427 -0.0071955672 0.008763881 0.06189874 -0.0404031 0.07424951 0.042209532 0.04604348
0.04639055 -0.05820912 0.066998854 0.10412017 0.020380516 0.10478731 0.01547155 -0.07574178
-0.07056463 0.014489239 -0.0027135476 -0.053377956 -0.06043309 0.05417385 0.10230039 0.065497175
-0.031164126 0.011023271 -0.10498601 0.012110297 -0.045517735 0.059972096 0.0022056557 -0.065848865
-0.021496605 0.09534357 -0.00090633606 0.043723702 0.12850872 -0.043991532 -0.12605615 0.10588627
-0.0349942 -0.04042137 -0.09339446 0.057887584 -0.10956941 -0.010325558 0.023501227 -0.015201527
-0.013349586 0.008430751 0.06784805 -0.0015023241 0.09100827 -0.01014167 0.084408924 0.062236134
0.079064265 0.058698602 -0.058111086 -0.028323727 0.118612625 -0.006824875 -0.035075277 0.0001699882
-0.010282986 -0.19006684 0.053514384 0.07184827 0.15655571 0.05304837 -0.07724787 0.08919366
0.07771385 -0.10963302 -0.029702596 -0.012620471 -0.044043798 -0.0028087841 -0.024924332 -0.104487635
0.08655309 0.099340476 0.057619896 0.134542 0.09366902 -0.06659608 -0.008027716 -0.112715036
-0.043759674 -0.062259864 -0.022465155 -0.034682274 -0.1084814 0.118773684 0.016901089 0.03125757
-0.13025068 -0.051201243 -0.0930796 -0.149026 -0.1117249 -0.014278437 -0.001820567 -0.04963131
0.020411259 0.043643482 0.06968346 -0.03526231 -0.035203982 -0.07873828 -0.018668013 0.09358349
-0.09071279 -0.032603633 -0.05021005 0.07735431 0.09151318 0.06730352 -0.05178573 0.0124355685
-0.02597397 0.019996084 0.038356446 -0.06857244 -0.113613576 0.052401338 0.0071721943 0.14415269
-0.04928431 0.06663 0.044443842 0.09586012 -0.0033241697 0.02037068 0.014746731 0.01708121
0.00076287653 -0.1259452 -0.09340651 0.0039865784 0.019917063 -0.056917056 0.054301273 0.035271883
-0.114811815 -0.124916375 0.09388226 0.0031215707 -0.04383184 0.008199332 -0.022735115 -0.05487237
00000000: 1f35 debd 85c4 26bd 1fda 563d 791a f2bd
00000010: 70c5 a73d 3668 60bc e9e4 ae3d ccd1 a6bc
00000020: f9a8 8e3d b941 3ebd c74f f4bd bd63 e6bd
00000030: 4837 3f3d d5ce a8bd 4d13 a1bc 56c7 8bbd
00000040: 7031 d53d 64a8 d7bc 1e16 123d f430 c8bd
00000050: 587c a73d d0d6 43bc 248b d2bd d160 8d3c
00000060: 4243 a53d e876 973d 61fe 2bbe 6719 cebd
00000070: 0547 e33c f5c3 c73c a077 bfbc 6980 6a3d
00000080: 6400 0f3c 6527 abbd 7ac2 bf3c fbf8 67bc
00000090: c6b0 2fbc 26ae ad3c 0399 bb3d 2fc5 9ebd
000000a0: 2bcd 583d a55e c1bc 4114 783c fdff ee3c
000000b0: d17e 113d ba8b 153c 522c ed3c 4ba4 b0bc
000000c0: 7f4c bb3c 9a48 2bbc 3edf e3bc aa62 59bc
000000d0: fcf2 5e3d cccf 533d 099f d43c a33e a3bb
000000e0: 3ad2 bd3d da1a a1bc 97eb da3c 39ae 30bd
000000f0: 1533 32bd 2748 993c 7f75 5d3d cd2e 27bc
00000100: d4f7 ad3d cb05 1c3d ba4b e83d 944b b4bd
00000110: 6885 c13c 41af 35bd 43b7 30bd 57b5 e2bd
00000120: 7802 263d c237 ad3d 0540 c8bc ab8a b83d
00000130: fc5d 06be e9ca f7bb 88f9 9a3d 5527 39bb
00000140: 5b17 883d d53b 3a3a fd11 cd3d 7949 703b
00000150: f9c3 4a39 8a99 6ebc e9f8 32bb 56e3 583d
00000160: 72ae 153e 4276 a03d e445 613d bbbc 023d
00000170: 1839 373a dcbe 8cbc b944 9e3d b474 ab3c
00000180: a001 bdbc 3325 903d 3f22 f33c 1966 98bc
00000190: 3c49 093e b4d0 043d 8d0d a0bd 3d76 04bb
000001a0: 1e2b c3bc cbc8 ebbb 6296 0f3c 8889 7d3d
000001b0: b97d 25bd 2110 983d e7e3 2c3d 1798 3c3d
000001c0: 0404 3e3d b06c 6ebd b236 893d f53c d53d
000001d0: 0af5 a63c bb9a d63d 627c 7d3c 821e 9bbd
000001e0: 3084 90bd 4664 6d3c c6d5 31bb d8a2 5abd
000001f0: b088 77bd 66e5 5d3d de82 d13d 6223 863d
00000200: e94b ffbc f39a 343c e802 d7bd 446a 463c
00000210: ce70 3abd 4da5 753d c38c 103b c5db 86bd
00000220: a619 b0bc 7d43 c33d 2f97 6dba a017 333d
00000230: ca97 033e 7730 34bd dd14 01be e7da d83d
00000240: 1456 0fbd e190 25bd 9845 bfbd 881b 6d3d
00000250: ed65 e0bd 872c 29bc a585 c03c d30f 79bc
00000260: 39b8 5abc 2221 0a3c ebf3 8a3d a2e9 c4ba
00000270: 8b62 ba3d 3f29 26bc 96de ac3d 51eb 7e3d
00000280: 72ec a13d f26d 703d e405 6ebd 2907 e8bc
00000290: 2deb f23d 33a3 dfbb 18ab 0fbd dc3e 3239
000002a0: f879 28bc e2a0 42be e631 5b3d 3025 933d
000002b0: 2450 203e 3f49 593d 2234 9ebd 2aab b63d
000002c0: 7028 9f3d 4787 e0bd dc52 f3bc 18c6 4ebc
000002d0: 4567 34bd 9413 38bb 1d2e ccbc 9dfd d5bd
000002e0: bf42 b13d 0573 cb3d d702 6c3d 61c5 093e
000002f0: 8bd5 bf3d 8763 88bd ae86 03bc 24d7 e6bd
00000300: 583d 33bd 3304 7fbd d808 b8bc 000f 0ebd
00000310: 7f2b debd 9e3f f33d 2774 8a3c f007 003d
00000320: 6f60 05be 65b8 51bd 84a0 bebd 469a 18be
00000330: 06d0 e4bd 1bf0 69bc 17a0 eeba 334a 4bbd
00000340: 8335 a73c 82c3 323d 34b6 8e3d 366f 10bd
00000350: 0d32 10bd 8941 a1bd a9ed 98bc b3a8 bf3d
00000360: a1c7 b9bd 638b 05bd 0ea9 4dbd f06b 9e3d
00000370: 436b bb3d 6ed6 893d 461d 54bd 8ebe 4b3c
00000380: 5dc7 d4bc d4ce a33c a61b 1d3d b56f 8cbd
00000390: 3cae e8bd c9a2 563d ba04 eb3b c39c 133e
000003a0: 58de 49bd 4f75 883d bf0a 363d 5052 c43d
000003b0: 50da 59bb 6ae0 a63c 469c 713c e5ed 8b3c
000003c0: c7fb 473a c7f7 00be ea4b bfbd d8a1 823b
000003d0: 1c29 a33c dc21 69bd 036b 5e3d 4079 103d
000003e0: 7522 ebbd 28d4 ffbd 5845 c03d 4493 4c3b
000003f0: 0489 33bd 7e56 063c fe3e babc dac1 60bd

layer2.bias f4 [256]
0.0066170804 -0.02891741 0.07837961 0.042343024 0.04213067 0.101888105 0.14300092 0.10637014
0.1066607 -0.028097669 0.09879983 -0.015539887 -0.02659961 0.06416169 0.099458076 -0.037352044
0.09224355 0.107590355 0.040788732 0.022997467 0.022971343 -0.03957962 -0.030150397 -0.09455443
0.040579967 -0.032008156 -0.046899687 -0.099483736 -0.03061071 0.026226345 0.10650172 -0.03731162
0.036279928 0.08695247 0.048002295 0.0140940985 -0.10176472 0.11686616 -0.06300373 0.112746716
-0.044145677 0.0135500105 0.09002169 0.12509847 -0.008549109 0.06676641 0.038540125 0.09710008
-0.051293753 0.09205473 -0.019227928 -0.05262631 0.05065444 -0.11508669 -0.03133316 -0.02160786
0.09674086 0.008981855 -0.07299595 -0.08295923 0.063468225 0.080374755 0.10169855 0.10165874
0.06863458 -0.03192704 0.098016575 -0.08748457 -0.08715219 -0.043026816 0.014038736 -0.008396745
0.07218605 0.02318479 -0.12029753 0.033171095 -0.007959985 0.014183696 -0.10465818 -0.04240947
0.041283965 0.07566371 -0.042056747 -0.07195929 0.008775886 0.10977355 -0.08768576 -0.03660245
0.0077935494 0.012589046 0.062287603 0.016847806 -0.036103617 0.024881424 -0.033462413 0.078319274
0.045481563 -0.033975 0.064274825 -0.06902134 -0.06482591 -0.06614855 -0.06882481 -0.017054018
-0.05820327 -0.013581544 0.064150855 0.08812342 -0.020800378 -0.065032445 -0.027375987 -0.1327619
-0.04890412 0.10945194 -0.06463422 -0.091683105 0.013008981 -0.10249775 0.027412936 0.034885876
0.0076375017 0.07136646 0.02154112 -0.11756825 0.055041846 -0.064352974 -0.037771873 0.025235036
0.02151138 -0.0049649314 0.07023775 0.13653693 0.08032439 -0.09643855 0.08125709 0.04291209
0.02255792 0.12562549 0.06377587 0.07302341 0.08891605 -0.0274664 0.0069793183 -0.0136288935
-0.038211565 0.0031443103 -0.01327876 0.069948055 0.033689216 0.0181783 -0.008310873 0.043775465
-0.022404809 -0.028840385 0.10699311 -0.107828096 -0.054727048 -0.11503405 0.012547898 0.11693695
0.08267951 -0.06486508 -0.03292835 -0.023053553 0.04757236 0.09759563 0.108396746 0.06554897
-0.07850879 0.010610705 0.015302458 0.008229277 -0.065126084 0.12889591 -0.06333332 0.15996581
-0.10010312 0.010530669 0.04008599 0.101125024 -0.00027197183 0.066087075 -0.029233798 -0.089768775
-0.06286077 -0.059388127 -0.021029653 0.0027102018 -0.078370646 -0.037290573 0.039619174 -0.03843269
0.069661856 0.15935525 -0.07745687 -0.020655485 0.061108597 0.05589997 -0.026436916 -0.05461169
0.13927296 -0.0089288205 0.04554751 -0.10106085 0.007107034 0.05479061 -0.011845191 0.031231703
-0.0003269153 -0.03340246 -0.084469646 0.080648035 -0.016117731 -0.06752804 -0.10638179 -0.13148244
0.120059386 -0.054700654 -0.008244348 0.029439053 -0.047274467 -0.13231921 -0.0061801393 0.13356487
0.0003029761 -0.12296028 -0.038004458 0.03438927 -0.04794762 0.12752742 -0.05278957 0.06470645
-0.081786394 0.12653202 -0.0043011517 0.017675737 0.07332214 0.07615818 -0.025182066 -0.10711979
-0.09513332 0.07197836 -0.0661258 0.060337238 0.015944352 0.087495625 0.041405737 0.027634947
-0.07205263 -0.044558797 0.025045887 -0.06192647 -0.0128720775 0.065128244 -0.020047912 0.00852675
00000000: 18d4 d83b 34e4 ecbc 7d85 a03d e16f 2d3d
00000010: 3691 2c3d b6aa d03d d56e 123e 97d8 d93d
00000020: ed70 da3d 152d e6bc 9157 ca3d 039b 7ebc
00000030: 6de7 d9bc 3467 833d adb0 cb3d 75fe 18bd
00000040: 30ea bc3d 5558 dc3d 1612 273d 2f65 bc3c
00000050: 662e bc3c 3d1e 22bd f7fd f6bc c1a5 c1bd
00000060: 2e37 263d fc1a 03bd e319 40bd 21be cbbd
00000070: 50c3 fabc a2d8 d63c 931d da3d 12d4 18bd
00000080: 439a 143d 2314 b23d 0e9e 443d efea 663c
00000090: 066a d0bd 8657 ef3d 1908 81bd c0e7 e63d
000000a0: 19d2 34bd dd00 5e3c 4b5d b83d d019 003e
000000b0: 9011 0cbc d4bc 883d 40dc 1d3d 68dc c63d
000000c0: 6619 52bd 3187 bc3d e383 9dbc b08e 57bd
000000d0: 087b 4f3d 92b2 ebbd 3357 00bd f802 b1bc
000000e0: 1220 c63d a128 133c e77e 95bd 87e6 a9bd
000000f0: a1fb 813d 859b a43d 5447 d03d 7532 d03d
00000100: 4990 8c3d eec5 02bd eabc c83d 1c2b b3bd
00000110: d97c b2bd e33c 30bd ba02 663c 8092 09bc
00000120: 48d6 933d 07ee bd3c 8d5e f6bd 6ade 073d
00000130: 996a 02bc bc62 683c 0757 d6bd 8db5 2dbd
00000140: 6019 293d 93f5 9a3d b243 2cbd 645f 93bd
00000150: bcc8 0f3c f4d0 e03d 9794 b3bd 73ec 15bd
00000160: 0861 ff3b 4942 4e3c 4921 7f3d 6904 8a3c
00000170: 63e1 13bd 21d4 cb3c e20f 09bd db65 a03d
00000180: e04a 3a3d 5f29 0bbd 85a2 833d 0f5b 8dbd
00000190: 72c3 84bd e478 87bd 06f4 8cbd deb4 8bbc
000001a0: 8d66 6ebd 2085 5ebc 8661 833d 0d7a b43d
000001b0: 8e65 aabc bb2f 85bd 9b43 e0bc bcf2 07be
000001c0: b04f 48bd 5728 e03d f25e 84bd 5ac4 bbbd
000001d0: 9f23 553c 57ea d1bd 1891 e03c 7ee4 0e3d
000001e0: 0244 fa3b 9428 923d 0177 b03c 9fc7 f0bd
000001f0: 8f73 613d 7ecb 83bd aeb6 1abd b5b9 ce3c
00000200: a238 b03c ddb0 a2bb cfd8 8f3d 56d0 0b3e
00000210: 1d81 a43d 9381 c5bd 1e6a a63d 96c4 2f3d
00000220: 63cb b83c f8a3 003e ec9c 823d 4c8d 953d
00000230: 9e19 b63d 3701 e1bc c4b2 e43b b94b 5fbc
00000240: bb83 1cbd c610 4e3b 288f 59bc ed40 8f3d
00000250: b4fd 093d a8ea 943c 542a 08bc e74d 333d
00000260: 4a8a b7bc ac42 ecbc 341f db3d fad4 dcbd
00000270: 7829 60bd f996 ebbd b395 4d3c a47c ef3d
00000280: e053 a93d fcd7 84bd e1df 06bd ceda bcbc
00000290: 3cdb 423d 38e0 c73d 1dff dd3d 8a3e 863d
000002a0: 37c9 a0bd 86d8 2d3c 29b7 7a3c 17d4 063c
000002b0: d360 85bd 4afd 033e e6b4 81bd 14ce 233e
000002c0: dd02 cdbd d488 2c3c 3531 243d a31a cf3d
000002d0: 7197 8eb9 a958 873d b87b efbc b1d8 b7bd
000002e0: 26bd 80bd f740 73bd 6146 acbc a49d 313b
000002f0: ca80 a0bd 00be 18bd b747 223d 996b 1dbd
00000300: e0aa 8e3d 062e 233e b5a1 9ebd b135 a9bc
00000310: 024d 7a3d 5ef7 643d 3b92 d8bc 82b0 5fbd
00000320: 929d 0e3e 304a 12bc 0790 3a3d fef8 cebd
00000330: 1fe2 e83b 1e6c 603d 5512 42bc a1d9 ff3c
00000340: d465 abb9 05d1 08bd 6cfe acbd cc2a a53d
00000350: 5509 84bc 244c 8abd b2de d9bd 55a3 06be
00000360: b2e1 f53d cb0d 60bd 4d13 07bc 2b2a f13c
00000370: dfa2 41bd b07e 07be c482 cabb 3bc5 083e
00000380: c4d8 9e39 99d2 fbbd 90aa 1bbd c3db 0c3d
00000390: b964 44bd 8c96 023e e039 58bd d184 843d
000003a0: a07f a7bd 9c91 013e adf0 8cbb b5cc 903c
000003b0: eb29 963d d2f8 9b3d 9f4a cebc 9f61 dbbd
000003c0: 42d5 c2bd 6469 933d f76c 87bd 2e24 773d
000003d0: bb9d 823c e830 b33d 1099 293d af62 e23c
000003e0: 5490 93bd 4983 36bd 082d cd3c 9ca6 7dbd
000003f0: 68e5 52bc f561 853d 853b a4bc c8b3 0b3c

layer3.weight f4 [256, 256]
-0.017542329 -0.09433262 -0.006184814 -0.018617146 0.09683468 -0.04944825 -0.03724418 -0.05398796
-0.08196722 0.011119484 -0.04376813 -0.039312087 -0.12938504 0.0004326547 -0.034638718 0.063818574
0.050215434 -0.020770475 -0.022246087 0.00048407755 0.06429039 -0.0057039945 0.02325344 0.01604038
-0.016616058 -0.028317817 -0.04562588 0.050897926 -0.031715006 -0.09707554 -0.07629696 0.0208556
-0.026189487 -0.01548875 0.048342302 -0.08298152 -0.15360159 0.03155194 -0.019262835 -0.03359763
0.03632935 0.0020864827 0.07232218 -0.06825533 0.0121401865 -0.008620986 0.01716301 -0.09044469
0.022081302 -0.062430833 -0.006735598 0.004431033 -0.08998167 0.056335963 -0.058342785 0.012407024
0.07225421 0.0001796616 0.1091155 -0.041235372 -0.025537353 -0.0070902356 0.022079438 -0.08824798
0.07414538 -0.006449064 0.054182258 0.081843324 -0.16555373 -0.0017246738 -0.13217425 0.020420916
-0.0790616 0.11503074 -0.050972693 0.08892559 0.044410493 -0.0254739 0.0019673414 -0.06835106
-0.031261593 -0.02342759 -0.019655177 -0.01374219 -0.061860826 0.09433556 0.012429329 -0.09125571
-0.06432427 -0.030833403 -0.006180798 0.03889142 0.08273607 0.010030631 -0.07760102 0.066704504
0.01812829 0.02730353 0.021078613 -0.049399298 0.045785073 -0.020331858 -0.014529619 0.009628848
0.0053289915 0.0045423154 -0.06229969 -0.0016674302 -0.047844123 -0.09671344 0.0672291 0.03335936
0.07343854 0.011939819 -0.07277952 0.06278944 -0.05119331 -0.003207862 0.13859776 -0.07989304
-0.052025694 0.041361343 0.05103856 -0.0069397464 0.044386752 -0.07538386 0.004415394 -0.027680796
0.12038083 -0.10758289 -0.03911376 -0.050469913 0.06800821 -0.08818149 0.0914446 0.035486653
0.086811736 0.029012939 0.072794765 0.11452126 0.006691594 0.052228115 -0.007801057 -0.019541293
-0.014810313 0.05852349 0.08896446 0.008690437 0.063353375 -0.0019953162 0.016692031 0.069279954
-0.03573888 0.041288074 0.05864747 0.08365718 0.025793936 -0.027476104 -0.015432019 -0.020460827
-0.027104506 0.06157194 -0.0087892935 0.04383709 -0.041453194 0.061349437 -0.080850385 -0.051136415
-0.061042003 -0.01571603 0.04599196 0.047050595 -0.031549517 0.007962841 -0.018121867 -0.056674395
-0.025550038 -0.029281007 -0.10791249 -0.033103313 0.007888787 -0.04247741 -0.004694702 0.0019125019
0.025568109 -0.058465783 0.07604608 0.034251925 0.0548144 -0.020020775 0.053586062 -0.075321466
0.01725272 -0.10438959 -0.07993617 0.023427771 0.02845653 0.024217783 -0.0016179037 0.028588591
0.11925494 0.12740704 0.053261954 0.021866992 0.055622287 0.113092996 -0.02658168 -0.055192985
0.059126306 0.07276373 -0.04261653 -0.0146285575 -0.0989984 -0.009251947 0.0062410007 -0.08006442
0.0010107328 -0.064410046 0.0017720367 0.07326492 0.0154954 0.060569126 -0.050714668 0.012633578
0.111094214 0.05092551 -0.050610315 -0.014965472 0.07402238 -0.071528226 -0.03243296 -0.065471366
-0.023250138 -0.061353277 0.038706202 -0.109104164 0.016445115 -0.012003253 -0.05696992 -0.034591798
-0.012911791 0.032209676 -0.05581756 -0.005236316 0.06427878 -0.09480193 -0.06615015 0.019041633
0.07434139 0.064081624 -0.0069988146 -0.007784228 -0.050709803 0.021859182 0.015136612 0.028918615
00000000: eeb4 8fbc 7631 c1bd fba9 cabb fc82 98bc
00000010: 4351 c63d 408a 4abd 5a8d 18bd 7b22 5dbd
00000020: 6ede a7bd 7f2e 363c 3646 33bd b605 21bd
00000030: 837d 04be eed5 e239 54e1 0dbd 50b3 823d
00000040: b3ae 4d3d d826 aabc 6d3d b6bc cacb fd39
00000050: aeaa 833d 93e8 babb 007e be3c 1d67 833c
00000060: 661e 88bc c4fa e7bc 34e2 3abd 587a 503d
00000070: 98e7 01bd 8acf c6bd 9541 9cbd 5dd9 aa3c
00000080: 568b d6bc 87c4 7dbc 9402 463d 37f2 a9bd
00000090: bc49 1dbe 9b3c 013d 18cd 9dbc ab9d 09bd
000000a0: 16ce 143d 5fbd 083b a71d 943d 73c9 8bbd
000000b0: a2e7 463c 093f 0dbc 7199 8c3c 113b b9bd
000000c0: d9e3 b43c 79b7 7fbd 4bb6 dcbb 3332 913b
000000d0: 4f48 b8bd 8ac0 663d d8f8 6ebd d546 4b3c
000000e0: 04fa 933d 8b63 3c39 f277 df3d 6ce6 28bd
000000f0: b633 d1bc 3555 e8bb f0df b43c 5bbb b4bd
00000100: 88d9 973d ab52 d3bb 37ee 5d3d 799d a73d
00000110: eb86 29be 730e e2ba b058 07be c449 a73c
00000120: 0ceb a1bd 3d95 eb3d bec8 50bd 9f1e b63d
00000130: c7e7 353d a4ae d0bc 83ee 003b a4fb 8bbd
00000140: 280c 00bd 38eb bfbc e503 a1bc ec26 61bc
00000150: c761 7dbd 0133 c13d 62a4 4b3c 46e4 babd
00000160: 71bc 83bd 5596 fcbc 4b88 cabb 9c4c 1f3d
00000170: 8771 a93d 8457 243c 49ed 9ebd 5f9c 883d
00000180: c881 943c a7ab df3c 0ead ac3c eb56 4abd
00000190: 2189 3b3d ff8e a6bc a40d 6ebc 51c2 1d3c
000001a0: d29e ae3b b4d7 943b f62d 7fbd ac8d daba
000001b0: 33f8 43bd b211 c6bd 69af 893d d3a3 083d
000001c0: f266 963d 3b9f 433c 6e0d 95bd c097 803d
000001d0: 14b0 51bd fe3a 52bb 92ec 0d3e f69e a3bd
000001e0: e518 55bd 836a 293d cf0d 513d d066 e3bb
000001f0: e2ce 353d da62 9abd 02af 903b d6c2 e2bc
00000200: 398a f63d 6b54 dcbd c035 20bd 8ab9 4ebd
00000210: e347 8b3d 7f98 b4bd 4e47 bb3d 745a 113d
00000220: 5aca b13d 8bac ed3c 6c15 953d 1f8a ea3d
00000230: 2945 db3b 26ed 553d 02a0 ffbb 1015 a0bc
00000240: f4a6 72bc 54b6 6f3d 0033 b63d 5662 0e3c
00000250: 6abf 813d dac3 02bb babd 883c a6e2 8d3d
00000260: ef62 12bd af1d 293d 5438 703d 7554 ab3d
00000270: ce4d d33c 9115 e1bc 94d6 7cbc 779d a7bc
00000280: 450a debc dc32 7c3d f800 10bc 858e 333d
00000290: d3ca 29bd 8c49 7b3d e394 a5bd 6b74 51bd
000002a0: 2e07 7abd e7be 80bc 1162 3c3d 20b8 403d
000002b0: 113a 01bd 9376 023c 4f74 94bc 6923 68bd
000002c0: 504e d1bc b9de efbc 3901 ddbd 5797 07bd
000002d0: f93f 013c cbfc 2dbd 04d6 99bb eaac fa3a
000002e0: 3674 d13c d179 6fbd 0cbe 9b3d bf4b 0c3d
000002f0: 1085 603d 9c02 a4bc 0f7d 5b3d 2442 9abd
00000300: 9455 8d3c 36ca d5bd 93b5 a3bd 99eb bf3c
00000310: ab1d e93c 5f64 c63c d70f d4ba 9f32 ea3c
00000320: ef3b f43d fe76 023e 3529 5a3d 6822 b33c
00000330: 32d4 633d 4d9d e73d d3c1 d9bc 0a12 62bd
00000340: 6d2e 723d 2705 953d ac8e 2ebd 9eac 6fbc
00000350: acbf cabd 7a95 17bc 4f81 cc3b d1f8 a3bd
00000360: 917a 843a 6ae9 83bd af43 e83a eb0b 963d
00000370: 6be0 7d3c 5517 783d 2fba 4fbd 11fd 4e3c
00000380: 5d85 e33d 4497 503d c34c 4fbd bd31 75bc
00000390: 0c99 973d 647d 92bd 6cd8 04bd da15 86bd
000003a0: 1377 bebc 934d 7bbd 658a 1e3d 0172 dfbd
000003b0: e8b7 863c 4ba9 44bc 4a59 69bd 21b0 0dbd
000003c0: fa8b 53bc 4bee 033d f4a0 64bd 6795 abbb
000003d0: 98a4 833d 8427 c2bd bb79 87bd 33fd 9b3c
000003e0: 4c40 983d 3a3d 833d 5056 e5bb d612 ffbb
000003f0: 15b5 4fbd 0712 b33c 8dff 773c bbe6 ec3c

layer3.bias f4 [256]
-0.059667636 0.08641942 0.048492763 0.03212439 0.06754318 0.0446375 0.04173027 0.07325107
-0.036058854 -0.07371265 -0.037285876 0.06623718 -0.018114164 0.031062342 -0.06826493 0.020584049
-0.023752235 0.04070817 0.0012247077 -0.029244225 -0.0324949 -0.026845764 -0.042759642 0.093956634
-0.053617716 0.046025433 -0.011575387 0.04378455 0.05106288 0.059835177 0.06333987 0.075791284
-0.021722527 0.0662135 0.028573109 -0.040202316 0.01598788 0.12351098 0.019562421 0.09099873
0.07827975 0.10142144 0.023993818 -0.08167271 0.020135514 0.060805906 -0.012236948 0.047415756
0.067670226 0.048449527 0.056081027 -0.030453688 -0.05667015 0.0016183117 -0.037183553 0.017507546
-0.016455198 0.06957252 0.019328766 0.0897253 -0.008224267 -0.058971506 -0.01710044 0.036165264
0.003158635 0.06912795 0.12854776 -0.03745329 -0.017363977 -0.025170363 -0.043931965 0.045353018
-0.06450271 0.0329954 -0.055526145 0.080289826 0.07133284 -0.0022122774 0.049879145 -0.030020256
0.06910746 0.058473624 0.05534504 0.010917935 0.035620596 0.053122707 0.012484292 0.011151051
-0.024127338 0.023629678 -0.052973207 0.053181756 0.09382221 0.05306454 -0.03067116 0.07632859
0.056534912 -0.054458924 -0.023375181 0.04569255 0.117999315 0.076718025 0.009283006 -0.0009940456
0.10953662 0.06960663 0.08472059 -0.0019550878 0.009493005 0.031674486 0.02512116 -0.014417337
-0.06932262 -0.0406871 0.009234043 0.014767789 0.018623758 -0.030814162 0.012878516 0.0052045356
0.04363786 -0.059572328 0.06463398 0.111008085 -0.066767246 0.09781634 0.0039610825 0.007636749
0.0012148882 0.0049394905 0.020450292 0.021957716 -0.00068096456 0.039366912 0.007224229 -0.0184858
0.03810284 0.088790126 0.044869974 0.050473083 0.07975555 0.062670924 0.008399468 0.06559256
0.080445565 0.04747816 0.056199063 0.013593153 -0.009275748 0.049321268 -0.04463806 -0.045270175
0.049054075 0.018911643 0.014748833 0.11009414 -0.003348742 0.09283077 0.027701618 0.011283919
0.012768387 -0.04013867 0.002634218 0.03626168 0.0058450843 0.021208795 -0.033215806 0.074372776
0.042709623 0.026908753 0.023597684 0.0061329175 -0.017477898 0.04748123 -0.013884553 0.066995844
-0.002268041 0.070376076 0.073265 0.035444923 -0.027606169 0.032032523 0.019342236 0.0582981
0.019127391 -0.016387587 -0.07240202 -0.021375833 0.023134736 0.05046867 0.013631883 0.003772925
0.0635426 -0.00062431296 -0.06277992 0.09818025 0.026930885 0.01811581 -0.01505389 0.017792426
-0.040955655 -0.031612813 -0.013411727 0.09961423 0.002631939 -0.00040649663 -0.018548302 0.0078113656
-0.035886224 -0.04294853 -0.047957752 -0.07150789 -0.014528651 0.043017 0.09228291 -0.012887667
0.02636404 -0.026132697 -0.007946871 0.002691058 0.08925462 -0.04568549 0.032621916 -0.010061349
-0.009735611 -0.034771234 0.06163544 0.0678779 -0.104088865 -0.06711364 0.06733136 0.016520413
-0.0011869136 0.07276338 0.021510398 -0.024100484 0.002209465 0.03540531 -0.009042825 -0.012027354
0.006714888 0.019419527 -0.02293678 0.085639074 0.042059444 0.0808785 -0.035535313 -0.03160836
0.08230246 0.027577579 -0.030498175 0.055754676 -0.042158667 0.08071638 0.024523888 -0.043831084
00000000: 0d66 74bd aafc b03d 59a0 463d dd94 033d
00000010: 1454 8a3d d0d5 363d 5ced 2a3d a804 963d
00000020: 73b2 13bd a8f6 96bd 13b9 18bd 5ca7 873d
00000030: 2864 94bc 7476 fe3c 7cce 8bbd e19f a83c
00000040: 0c94 c2bc 9cbd 263d 5f86 a03a 9691 efbc
00000050: 5f19 05bd a6eb dbbc bc24 2fbd 566c c03d
00000060: 409e 5bbd 2a85 3c3d b1a6 3dbc 6e57 333d
00000070: 4f27 513d bb15 753d 55b8 813d 7638 9b3d
00000080: 71f3 b1bc f29a 873d 2712 ea3c 2fab 24bd
00000090: 04f9 823c 53f3 fc3d 5f41 a03c 8b5d ba3d
000000a0: 2251 a03d 0bb6 cf3d af8e c43c 0644 a7bd
000000b0: 3cf3 a43c 9d0f 793d 7b7d 48bc 0637 423d
000000c0: b096 8a3d 0373 463d 38b5 653d 037a f9bc
000000d0: f61e 68bd 881d d43a c84d 18bd fc6b 8f3c
000000e0: 0dcd 86bc 0a7c 8e3d 5c57 9e3c e6c1 b73d
000000f0: 13bf 06bc 1b8c 71bd 3916 8cbc 0722 143d
00000100: 1a01 4f3b f492 8d3d 06a2 033e 9f68 19bd
00000110: e63e 8ebc 1432 cebc 01f2 33bd 16c4 393d
00000120: ff19 84bd 2f26 073d 626f 63bd fe6e a43d
00000130: f416 923d dbfb 10bb 134e 4c3d 0aed f5bc
00000140: 3688 8d3d 0a82 6f3d 7bb1 623d 23e1 323c
00000150: e7e6 113d 3297 593d ea8a 4c3c e6b2 363c
00000160: b2a6 c5bc 0793 c13c 6ffa 58bd 1dd5 593d
00000170: dc25 c03d 345a 593d 1642 fbbc 2a52 9c3d
00000180: 2791 673d 5210 5fbd 4f7d bfbc 1c28 3b3d
00000190: a0a9 f13d 571e 9d3d c017 183c a34a 82ba
000001a0: bc54 e03d ec8d 8e3d fd81 ad3d ee20 00bb
000001b0: 8d88 1b3c 1bbd 013d e4ca cd3c b236 6cbc
000001c0: 05f9 8dbd 84a7 26bd 624a 173c 99f4 713c
000001d0: da90 983c fb6d fcbc 6900 533c cf8a aa3b
000001e0: 9dbd 323d 1d02 74bd d25e 843d 3558 e33d
000001f0: 44bd 88bd ef53 c83d f8cb 813b b23d fa3b
00000200: e23c 9f3a 73db a13b 5f87 a73c abe0 b33c
00000210: c282 32ba 333f 213d 3ab9 ec3b 886f 97bc
00000220: b911 1c3d 99d7 b53d 94c9 373d ddbc 4e3d
00000230: e156 a33d 9d59 803d ec9d 093c 6455 863d
00000240: a5c0 a43d 7678 423d fd30 663d d1b5 5e3c
00000250: 4ff9 17bc 1905 4a3d 66d6 36bd 386d 39bd
00000260: edec 483d 97ec 9a3c 17a5 713c 0979 e13d
00000270: 9176 5bbb 0f1e be3d 81ee e23c 30e0 383c
00000280: 7f32 513c 7268 24bd d8a2 2c3b 2187 143d
00000290: 1f88 bf3b 11be ad3c 4c0d 08bd c150 983d
000002a0: 49f0 2e3d bf6f dc3c ee4f c13c a4f6 c83b
000002b0: cf2d 8fbc ae7b 423d 097c 63bc 1e35 893d
000002c0: 6aa3 14bb 5521 903d f60b 963d b22e 113d
000002d0: 5526 e2bc 8934 033d 9c73 9e3c fdc9 6e3d
000002e0: 0cb1 9c3c 433f 86bc 8347 94bd 5f1c afbc
000002f0: 0f85 bd3c 3cb8 4e3d 4358 5f3c 2d43 773b
00000300: 9f22 823d efa8 23ba c292 80bd ba12 c93d
00000310: 299e dc3c 9b67 943c 97a4 76bc 6cc1 913c
00000320: 1ec1 27bd 707c 01bd dcbc 5bbc 8c02 cc3d
00000330: 9c7c 2c3b 0e1f d5b9 9cf2 97bc 7cf6 ff3b
00000340: 6ffd 12bd ccea 2fbd 596f 44bd bb72 92bd
00000350: 9409 6ebc 9832 303d d3fe bc3d cb26 53bc
00000360: 66f9 d73c 3d14 d6bc 9833 02bc 765c 303b
00000370: 20cb b63d b520 3bbd 8f9e 053d 5bd8 24bc
00000380: 1d82 1fbc 486c 0ebd 7175 7c3d 9203 8b3d
00000390: 8b2c d5bd e072 89bd 06e5 893d d155 873c
000003a0: 3692 9bba f804 953d 9336 b03c 616e c5bc
000003b0: accc 103b 2905 113d 5b28 14bc 610e 45bc
000003c0: 9008 dc3b b315 9f3c eae5 bbbc 8a63 af3d
000003d0: 8646 2c3d a1a3 a53d 7a8d 11bd c577 01bd
000003e0: 318e a83d 60ea e13c 4fd7 f9bc 045f 643d
000003f0: 91ae 2cbd a14e a53d 52e6 c83c 3988 33bd

layer4.weight f4 [128, 256]
-0.048166867 -0.08520094 -0.14222066 0.023209287 0.04141852 0.007875417 -0.1170131 0.01136338
-0.024523206 0.067570135 0.010562924 -0.03958612 0.07861544 -0.07540216 -0.0612602 -0.023679709
0.039910104 0.011510003 -0.040684428 -0.08084734 -0.06160159 0.012870618 0.028615149 -0.018468738
0.059856024 -0.03694094 0.019570982 0.08938958 0.048968975 -0.067851044 -0.027602768 -0.049127176
-0.057325747 -0.018670255 -0.0463618 -0.040137477 -0.04144564 -0.013358823 0.11333462 0.13985673
0.02582685 -0.06230465 -0.01801901 -0.0452292 0.047564775 -0.03575077 -0.0043991227 -0.037029088
0.08123121 0.048451036 -0.07919409 -0.0780632 0.076572 -0.0018193097 -0.021102771 -0.06512667
0.026873834 -0.022726435 -0.03232966 -0.023023065 -0.09561264 -0.03099665 0.006080027 -0.07052127
0.042649508 -0.006327607 -0.06033321 0.00809798 -0.0092274565 0.0054331063 0.054188587 0.040159155
0.02442259 -0.018322824 -0.029483624 -0.013918816 0.06719282 -0.016344635 0.019566292 -0.042239442
0.057642687 -0.023870695 -0.12574351 0.009481898 0.022256074 -0.04715092 -0.02020415 -0.006760419
0.09977418 0.04403208 -0.08573963 0.024224455 0.035032276 0.084357664 -0.13098416 0.06417723
-0.006394901 -0.015699454 0.011996833 0.029678678 0.016936999 0.051594395 0.0086459275 0.086357825
-0.08865502 0.038479373 0.009544554 0.007763893 -0.07544886 -0.023261191 0.09390736 0.06226266
0.023267664 -0.09245129 0.07487614 -0.0066231857 0.02621391 -0.102615334 -0.045752198 -0.03835538
-0.011220263 0.0016795283 -0.021484906 -0.03457207 0.02944892 0.05423178 0.014714978 -0.023102358
-0.06502014 0.058152217 -0.041426208 -0.06700461 -0.025901016 -0.010256604 -0.07172235 -0.032943215
-0.0013061017 0.11252105 -0.02726051 0.021318309 0.060603216 0.02648525 0.0040897173 -0.05487105
-0.006586355 -0.061126947 0.067895636 0.03676752 0.008978256 0.044087786 0.06577713 0.081817016
-0.052661512 -0.03241469 0.05568631 0.07067341 0.06707048 -0.087284215 -0.03380556 0.08884573
0.10140947 -0.06838366 -0.03276337 0.034400094 0.051732965 0.002333559 0.050601467 0.018001013
0.035178706 -0.05235278 0.07210956 0.00091442495 -0.077412404 0.12262714 0.023160294 -0.00018810155
0.09747795 -0.002905317 -0.08382242 0.00075763627 -0.026379943 0.03033192 0.022991939 0.060581654
-0.07526381 0.05231883 -0.022779081 -0.023278784 -0.011787302 0.11742738 -0.07534439 0.017120212
0.057217743 0.047409866 -0.052256882 0.04371932 0.17069426 0.10707376 -0.020796945 -0.03180773
-0.024326582 0.07560325 -0.028566796 -0.10563213 0.06954696 0.049690507 0.081310466 -0.036778662
-0.13033012 -0.012495302 -0.018001199 -0.0064823106 0.02889884 0.0145433005 0.016687142 -0.05378308
0.009462995 0.014458373 -0.01183424 -0.108830966 0.020918624 0.05615507 0.014933364 0.003965146
-0.14405979 0.059650745 -0.08306964 -0.09623246 -0.024179954 0.01489692 0.027467458 0.094024256
0.034836505 0.13927482 -0.083895706 -0.016315356 -0.05268538 0.032435838 -0.066333026 -0.03206548
0.0074512665 -0.022623343 0.031014046 -0.020527111 0.062851034 -0.012746799 0.051047396 0.070724174
0.043075122 -0.048441872 0.009218527 -0.03531417 -0.068530306 0.05822403 0.0803338 0.074577495
00000000: 9f4a 45bd d57d aebd 4ba2 11be 6721 be3c
00000010: 77a6 293d e507 013c 90a4 efbd 782d 3a3c
00000020: e4e4 c8bc 3662 8a3d 1d10 2d3c 0e25 22bd
00000030: 2201 a13d 736c 9abd faeb 7abd f3fb c1bc
00000040: c778 233d 7494 3c3c b7a4 26bd 4a93 a5bd
00000050: f351 7cbd 49df 523c 516a ea3c c04b 97bc
00000060: 972b 753d 624f 17bd 5353 a03c e211 b73d
00000070: b193 483d 7df5 8abd 331f e2bc 9439 49bd
00000080: 67ce 6abd 5df2 98bc dfe5 3dbd 3267 24bd
00000090: e7c2 29bd f7de 5abc fb1b e83d 9a36 0f3e
000000a0: d592 d33c 2933 7fbd 9a9c 93bc 4142 39bd
000000b0: 48d3 423d 666f 12bd 8426 90bb d0ab 17bd
000000c0: 8c5c a63d 9874 463d 8330 a2bd 99df 9fbd
000000d0: c8d1 9c3d e775 eeba b8df acbc 2261 85bd
000000e0: 8426 dc3c ca2c babc 1b6c 04bd de9a bcbc
000000f0: 8fd0 c3bd b0ec fdbc f73a c73b 756d 90bd
00000100: 40b1 2e3d d157 cfbb f51f 77bd 64ad 043c
00000110: c22e 17bc 3308 b23b daf4 5d3d ed7d 243d
00000120: e211 c83c bf19 96bc a487 f1bc bf0b 64bc
00000130: 649c 893d 2fe5 85bc 7d49 a03c 4403 2dbd
00000140: bd1a 6c3d 7a8c c3bc e8c2 00be f659 1b3c
00000150: 5f52 b63c 5321 41bd 2c83 a5bc 8186 ddbb
00000160: 6856 cc3d fb5a 343d 4298 afbd 5d72 c63c
00000170: 017e 0f3d b6c3 ac3d b620 06be 5a6f 833d
00000180: 518c d1bb 249c 80bc 5d8e 443c b320 f33c
00000190: 76bf 8a3c a554 533d a6a7 0d3c 5fdc b03d
000001a0: c390 b5bd 8c9c 1d3d c360 1c3c 4168 fe3b
000001b0: ef84 9abd 418e bebc 8152 c03d 2207 7f3d
000001c0: d49b be3c 1a57 bdbd a958 993d 4f07 d9bb
000001d0: 8ebe d63c fd27 d2bd a866 3bbd 881a 1dbd
000001e0: 32d5 37bc 9e23 dc3a 1d01 b0bc 719b 0dbd
000001f0: dd3e f13c 2522 5e3d 1717 713c 2841 bdbc
00000200: 4729 85bd 0531 6e3d 87ae 29bd b739 89bd
00000210: 5e2e d4bc 510b 28bc 2be3 92bd 77ef 06bd
00000220: 8031 abba 7071 e63d 6f51 dfbc bca3 ae3c
00000230: 143b 783d 98f7 d83c 0903 863b 77c0 60bd
00000240: 5ad2 d7bb 4060 7abd de0c 8b3d 8a99 163d
00000250: 8919 133c 6595 343d 29b6 863d ae8f a73d
00000260: 99b3 57bd 44c5 04bd 5417 643d 39bd 903d
00000270: 3f5c 893d 11c2 b2bd b377 0abd c0f4 b53d
00000280: c5af cf3d bb0c 8cbd e232 06bd 1de7 0c3d
00000290: f2e5 533d a0ee 183b 7c43 4f3d dc76 933c
000002a0: 8c17 103d de6f 56bd 2dae 933d 05b6 6f3a
000002b0: 658a 9ebd f023 fb3d a8ba bd3c 203d 45b9
000002c0: 85a2 c73d 2167 3ebb 17ab abbd 1c9c 463a
000002d0: c01a d8bc a67a f83c 9759 bc3c 7824 783d
000002e0: ea23 9abd 454c 563d 329b babc 26b3 bebc
000002f0: 871f 41bc c47d f03d 294e 9abd b03f 8c3c
00000300: 275d 6a3d d930 423d 500b 56bd 0813 333d
00000310: 7aca 2e3e 7d49 db3d 5b5e aabc d348 02bd
00000320: 8a48 c7bc e0d5 9a3d ea04 eabc a855 d8bd
00000330: a36e 8e3d 4688 4b3d 1a86 a63d 39a5 16bd
00000340: 4275 05be 18b9 4cbc 4077 93bc 9069 d4bb
00000350: 43bd ec3c 0647 6e3c 79b3 883c a64b 5cbd
00000360: ae0a 1b3c d0e2 6c3c 66e4 41bc c5e2 debd
00000370: 895d ab3c dc02 663d 11ab 743c 0eee 813b
00000380: 6984 13be 5754 743d 6a20 aabd 8615 c5bd
00000390: 0a15 c6bc 3612 743c 6f03 e13c ca8f c03d
000003a0: b9b0 0e3d 0f9e 0e3e 83d1 abbd c8a7 85bc
000003b0: a0cc 57bd 71db 043d 9cd9 87bd 1857 03bd
000003c0: c129 f43b 9754 b9bc 2b11 fe3c 7928 a8bc
000003d0: 0bb8 803d f3d7 50bc 1317 513d d6d7 903d
000003e0: 8a6f 303d fc6a 46bd 4e09 173c 97a5 10bd
000003f0: 9e59 8cbd 527c 6e3d 0c86 a43d 16bc 983d

layer4.bias f4 [128]
0.07866743 0.04909979 0.031891093 0.052212097 0.006011408 -0.0139535675 0.07855255 -0.0021944537
0.03345962 0.07260713 0.0551882 -0.0010123322 0.008119491 0.025844915 -0.0025178208 0.024278969
-0.011121713 -0.05478639 0.08933398 0.012911829 -0.03554742 0.03417545 -0.016214821 0.05650908
-0.0019927933 0.023146419 -0.06436945 -0.010817593 0.028257186 -0.07005948 0.049243025 -0.11673097
0.07344226 0.04470907 -0.02424511 0.050051685 -0.0012718568 0.022018893 0.122488305 0.010248787
0.05266684 -0.02375485 -0.023487937 -0.00084932917 -0.016267877 -0.043786895 0.046768535 -0.035514615
0.09851631 0.03152098 0.062296696 -0.08040954 0.0068526603 -0.031103466 0.077641845 -0.019861542
-0.0015618633 0.02103918 0.031828206 0.0090880925 -0.03796359 -0.003576317 -0.05612018 -0.04651145
-0.005707724 0.006600195 0.021830058 0.061514534 0.0717135 -0.023033774 0.099886045 0.093668
0.03848111 -0.022153966 0.047693826 0.1214368 0.072827734 -0.03701272 0.100129865 0.019397661
0.023934497 -0.032835163 -0.014828689 0.008123899 -0.026950289 -0.040503614 -0.020569643 -0.035785258
0.039313648 0.035339355 0.04807292 0.007407642 0.009015675 -0.0059456606 -0.046781868 0.047855508
0.05291648 0.024187721 0.056095876 0.086442105 -0.05141191 0.05577123 -0.037654534 -0.030953528
-0.013565617 -0.012574157 -0.03430641 -0.050930135 0.05304177 0.014806999 0.09807585 0.10088676
-0.046394415 -0.017107032 0.072127305 -0.091189854 0.0063070613 0.028526984 0.021789689 0.015496644
0.07432397 0.027655924 0.039870687 -0.005130536 -0.012299637 0.02058045 0.0029818458 -0.025650024
00000000: 641c a13d dd1c 493d 3ca0 023d 5adc 553d
00000010: 58fb c43b 819d 64bc 29e0 a03d d3d0 0fbb
00000020: f40c 093d 0cb3 943d 060d 623d 3bb0 84ba
00000030: 9d07 053c b7b8 d33c 0602 25bb b0e4 c63c
00000040: d837 36bc b267 60bd bcf4 b63d 238c 533c
00000050: 2c9a 11bd 8ffb 0b3d f2d4 84bc 1176 673d
00000060: 8699 02bb 8f9d bd3c 21d4 83bd 463c 31bc
00000070: 9d7b e73c 587b 8fbd 0eb3 493d a610 efbd
00000080: e568 963d dc20 373d ae9d c6bc ff02 4d3d
00000090: 6fb4 a6ba f760 b43c 26db fa3d 87ea 273c
000000a0: 2fb9 573d 8899 c2bc c669 c0bc 84a5 5eba
000000b0: 3644 85bc e359 33bd 5d90 3f3d c677 11bd
000000c0: ebc2 c93d 251c 013d d22a 7f3d c2ad a4bd
000000d0: 488c e03b b2cc febc b002 9f3d acb4 a2bc
000000e0: 70b7 ccba 5c5a ac3c 4b5e 023d 39e6 143c
000000f0: b67f 1bbd a560 6abb 46de 65bd ca82 3ebd
00000100: dc07 bbbb 7346 d83b f3d4 b23c aaf6 7b3d
00000110: 87de 923d 53b1 bcbc 0e91 cc3d 02d5 bf3d
00000120: 5e9e 1d3d 3c7c b5bc 9a5a 433d dbb3 f83d
00000130: b526 953d a69a 17bd e310 cd3d d8e7 9e3c
00000140: 4712 c43c 2a7e 06bd 08f4 72bc 1a1a 053c
00000150: dac6 dcbc 1ee7 25bd ab81 a8bc 9093 12bd
00000160: 5907 213d 00c0 103d 1ce8 443d cebb f23b
00000170: 7bb6 133c d1d3 c2bb 589e 3fbd 2304 443d
00000180: f3be 583d 5425 c63c cac4 653d 8f08 b13d
00000190: 4c95 52bd 6070 643d a43b 1abd 4192 fdbc
000001a0: 5242 5ebc d603 4ebc e184 0cbd 1e9c 50bd
000001b0: 5442 593d 0e99 723c fedb c83d b89d ce3d
000001c0: 1208 3ebd 0c24 8cbc 7bb7 933d bfc1 babd
000001d0: 77ab ce3b 6cb1 e93c 4a80 b23c a3e5 7d3c
000001e0: 2a37 983d ad8e e23c 724f 233d 0e1e a8bb
000001f0: 6b84 49bc 5598 a83c 126b 433b 0020 d2bc
