PPO/ppo_critic.pth (torch, 546027 bytes, 9 tensors)

layer1.weight f4 [128, 29]
00000000: a4db 52bc 6956 523d 26ff 063e 70bd 523d
00000010: 9faa 1a3e 4401 c1bd 15e6 3f3c 4dd1 8a3d
00000020: 3326 94bd 5917 87bc 4378 2bbd 5379 1c3e
00000030: 9b49 e23d 7d0f 133c 01e4 22be a9a0 d23d
00000040: 73ee 10be 827f e3bd dfa5 563e b4cd 15be
00000050: 884e 2abe 4350 ccbd 60f6 54bd 8e4b 0abe
00000060: 229e f9bc 5082 8b3d 3b9e 263c 8113 063e
00000070: 19a2 b6bd 4ef1 c1bd c1b0 873d 3392 123c
00000080: 8515 153e 4fb2 94bd 0a91 d43d 3d9f b93d
00000090: 2104 823e 477f 003e 6bc7 233e 96bc 383e
000000a0: 3ba3 59be ffc4 25be f410 01be c6d6 4fbe
000000b0: 13f2 87be 6571 91bd d2c0 643c 8588 e0bd
000000c0: 651b 8bbd 58e2 d63b b136 1e3d ce0e e53d
000000d0: fc75 683d 24d2 d9bd 09dc 3a3d da33 f23d
000000e0: e27c 25ba 0d38 b23d 4e46 0c3d afc5 68bc
000000f0: 79d3 54bd acbc 2e3d 4b1d 4fbe 7ad5 cb3c
00000100: fcb6 87be 4a04 13be fe01 563d e8d6 983c
00000110: 378b 0bbe 299f 063e b8f4 e7bc d694 bdbc
00000120: 3caa e13d e02f 27be da8e a5bd 1683 0abe
00000130: 4c83 5d3d 929d 4f3e c51c 31be 68e2 673c
00000140: 9514 e73c 0df5 cf3d 6822 b73d 1a28 5dbd
00000150: b0fe ed3b 0fb0 cb3d 5871 913c cea7 a83d
00000160: 82da 9e3d e154 25bd b4c4 bd3e 7484 dcbd
00000170: b4b3 22be 520a 0fbe 0368 b2bc 2663 3e3d
00000180: 48f0 efbd a94c a83d d805 863e 9b85 533d
00000190: 2f6e ef3d 9630 a43d 8e5c afbd a573 52be
000001a0: 5032 8fbe 50fc 2ebd 1891 4bbe 2bca f13d
000001b0: 31f9 b03d 6791 a2bd 17ed 4b3c 141a 423c
000001c0: c19b a43d 4532 bd3c ccfb 8c3d 63a8 8f3c
000001d0: 3049 5c3d a125 d0bd 9e7d 773d 707d 4f3e
000001e0: 25db 473e 4dae cd3e bab3 803d 196d 2c3e
000001f0: 8c04 ce3d be09 db3d ce94 9c3c 4924 123e
00000200: 6309 423e df90 4a3e 9e6c 05be ffbc 23bc
00000210: 1e05 1f3e 9445 c4be aad8 b3bd de00 5f3e
00000220: fe2e b73d ecac 0bbd df02 a33c bc5c 7d3a
00000230: 755b fc3c cf01 01bd 670c d2bb 07c7 87bd
00000240: 4933 11bc ee63 0abe f3bb b33d 3c49 3d3e
00000250: d4e4 863e bdfb a3bc 644f 4d3e f6da 31bd
00000260: ba41 8f3a 63d8 3fbb 605e 4d3e 740a ccbd
00000270: 10c0 6dbd 887f e63c 53f9 f23d 7f8f 7f3d
00000280: 2f08 c43c 056b 073d 3999 b5bd e075 08be
00000290: 8751 89bd dd62 94bd 2263 ccbd b359 e53d
000002a0: c3f6 763d c4b6 a43d 3a00 c53d e2e6 cdbc
000002b0: b2dd 22bd 9884 adbc a218 bc3d e2e4 0abc
000002c0: 2891 4f3d b06e 443e 77b7 b2bd b795 60bd
000002d0: 5576 f33c 7088 3fbe 202c 21be e913 633e
000002e0: 649d d1bd b06d c0bd 870f fdbc d892 a7bd
000002f0: 5918 e6bd 11d3 3b3e 4d6c cebd 492c 1b3e
00000300: d34f eabd 1f7f 023e e91a d33d 4419 4bbd
00000310: 4c04 1dbd b309 77bc 4fe5 12be 3db5 8abd
00000320: e48b 103e 9cac 863d 7115 0c3e 8be1 123e
00000330: 9f0e bfbd 2810 2dbe 3e87 35bd 6cb7 62be
00000340: ff10 aa3e d56a 85bd c9fe 2b3e b8c5 8d3d
00000350: 1184 1d3e 0d30 5cbe 30bb 033e cfba 84bc
00000360: dbfd 21bd 58e2 493c 49c2 c0bd bfe1 773d
00000370: 683e 79bd c8de 6bbd e17a 00bc 1842 90bd
00000380: bf7c 1a3d cbaa 2bbc 5d86 433d 1753 853b
00000390: 8dc9 37bd 6e29 0dbc e2e5 14bd 05bf abbc
000003a0: a2a2 c63d a0c5 a93d a114 653e 44bf 853e
000003b0: 65aa e13d 09c1 8bbc 1066 ccbd e625 553d
000003c0: b4f5 c53d 5f74 c8bd c35d 0cbd e29d a8bd
000003d0: 00f8 c9bb 292e 333d 77ca f7bd ac6b 313e
000003e0: 96e1 f1bd 5777 5a3d 49b5 ac3d e4e0 16bc
000003f0: 68ea cebd 9143 0e3e 6570 4cbd d3f8 20bd
-0.012869749 0.05135194 0.13183269 0.051450193 0.1510415 -0.094240695 0.011712571 0.06778202
-0.072338484 -0.016490625 -0.041862737 0.15280657 0.110491954 0.008975861 -0.15907289 0.1028455
-0.14153461 -0.111083046 0.20961712 -0.14629251 -0.1663152 -0.09976246 -0.051992774 -0.13505384
-0.030470911 0.068119645 0.010169561 0.13093378 -0.089176364 -0.09469853 0.0662551 0.008945989
0.1455899 -0.07260572 0.103792265 0.090635754 0.25393775 0.12548552 0.1599404 0.1804069
-0.21253674 -0.1618843 -0.12604123 -0.20296773 -0.26551875 -0.071017064 0.013961988 -0.10963539
-0.067923345 0.006557744 0.038626377 0.111844644 0.056753144 -0.10635784 0.045619998 0.11826296
-0.00063128595 0.08702097 0.034246735 -0.014207288 -0.05195949 0.0426604 -0.20226018 0.024882067
-0.26506793 -0.14357105 0.052247994 0.018657163 -0.13627325 0.13146652 -0.028314933 -0.02314226
0.11018798 -0.16326857 -0.080838874 -0.13526568 0.054080293 0.20274952 -0.17296131 0.014153101
0.028208056 0.101541616 0.08942109 -0.053993322 0.007263027 0.0994569 0.017754242 0.08235131
0.07756521 -0.04036415 0.37064135 -0.10767451 -0.15888864 -0.1396878 -0.021778112 0.046481274
-0.11715752 0.08217747 0.26176333 0.051641088 0.11690938 0.080170795 -0.08562575 -0.20551927
-0.27968073 -0.042721093 -0.19879568 0.118061386 0.086412795 -0.079378895 0.012446663 0.011847038
0.0803752 0.02309526 0.06883964 0.017536348 0.053780735 -0.10163427 0.060422532 0.20262694
0.19517191 0.40172043 0.0628428 0.16838492 0.10059461 0.106952175 0.019113924 0.14271654
0.18948893 0.19781826 -0.13029715 -0.009993791 0.15529296 -0.38334334 -0.0878156 0.21777675
0.0894451 -0.034100458 0.01989883 0.00096650026 0.030805329 -0.031495865 -0.00641017 -0.06629758
-0.008862325 -0.13514683 0.08776083 0.18484968 0.26346457 -0.0200175 0.20049816 -0.043421708
0.0010929622 -0.0029273264 0.20055532 -0.09962931 -0.058044493 0.028136984 0.11863961 0.062392708
0.023929683 0.033061046 -0.088671155 -0.13326216 -0.06705003 -0.07245419 -0.099798456 0.111987494
0.060293924 0.08042672 0.09619184 -0.025134508 -0.039762206 -0.02118139 0.09184386 -0.0084774215
0.05067554 0.19182849 -0.087263994 -0.05483028 0.029719511 -0.1870439 -0.15739489 0.22175564
-0.10235098 -0.09395921 -0.030891193 -0.08182305 -0.11235113 0.18342234 -0.100792505 0.15153612
-0.114410065 0.12743805 0.10307867 -0.049584642 -0.038334176 -0.015077996 -0.14345287 -0.0677285
0.14115864 0.065758914 0.13680054 0.1434385 -0.093289606 -0.16900694 -0.04431843 -0.22140282
0.33216092 -0.06514517 0.16796412 0.069224775 0.1538241 -0.21502705 0.12864375 -0.016202359
-0.039548736 0.012322031 -0.09412057 0.060518023 -0.06085053 -0.057585508 -0.007841797 -0.070438564
0.037716623 -0.010477732 0.04773556 0.004068743 -0.04486995 -0.008615835 -0.036352046 -0.020965109
0.096989885 0.08289647 0.2237115 0.26122487 0.11018828 -0.01705982 -0.099804044 0.052038096
0.09666005 -0.09787821 -0.034269106 -0.08233239 -0.006163597 0.043745194 -0.12099164 0.1732623
-0.11810605 0.053336468 0.08433015 -0.009208892 -0.10103303 0.13892962 -0.049911875 -0.039299797

layer1.bias f4 [128]
00000000: 59a4 9ebd cdd9 853e fe2d f63c 45a1 a93c
00000010: e21a febb a9af d2bd 9aee f4bd f82b b03e
00000020: d815 89be 6881 7c3e 5d22 133c c1b2 a53e
00000030: a9c0 39be 1128 0fbd f447 2939 0a50 99bc
00000040: 319d ac3e 0497 8b3e 0ee4 03be a3b3 983d
00000050: 8d78 9cbd 0453 d4bd ba3a 31be f5ca b8bc
00000060: 1191 39be 1d30 f4bc 223f a73e 0b97 163d
00000070: 6cda 703e 1d1c 383e c970 4cbd 7292 a33e
00000080: 1908 983e af0d 00be e390 60be b1a3 17be
00000090: 2f48 b8bd e64f 79bd e72d 5b3e d80c 883d
000000a0: 4154 d13c 7fab 7b3e acfe 0dbe 73b5 2d3e
000000b0: 62f4 5bbe b208 07be 0af3 623e 1127 1dbe
000000c0: 443f d73d eae4 923e 7c00 533e a22a 423e
000000d0: 8aef 29be 2ec8 3fbe bbbb 443e 1285 983e
000000e0: 91f5 313e 12ae e53d 5b3d cbbd b3ef 333b
000000f0: 10ec 833c 42e2 bdbd fbfd 3e3e 2c44 de3c
00000100: 18fa a5bd 9678 563d 85c2 38be ca6a 843c
00000110: f076 883e 2e70 883e 7043 9c3e 27d9 113e
00000120: 8eca 023e 531a 26be 1552 66be 2aa3 f5bd
00000130: c2f6 a53d 67ff 673e d0b8 f03d 7b3b 8c3e
00000140: 2617 f5bd 843a 44bd 5d41 15bd 1cc6 68bd
00000150: e22d a53d fc9f 0f3e f0a9 71be cca2 893e
00000160: 15f0 a03d 25ec a03e f3ec c33e ce92 28be
00000170: fbf3 97bd 76a3 aabd 48cc 993e 1d0f 313e
00000180: c730 04be 3312 643e 70e0 743e 82bf 753e
00000190: 9a09 793d bf7d 0cbd cc81 b23e 20e4 cb3d
000001a0: 1b2c fa3d e77d d6bd b072 103e d4dc 863d
000001b0: 2262 003e 8afe 143e ab8c 55be f7a4 6abe
000001c0: 4e8c 913e abac 4dbe ec20 46be 4d03 e3bc
000001d0: f2a0 1ebe 3d3f 9c3e 2e17 4abe cecf 81bc
000001e0: d79b 8a3c 7c26 d0bd 10dd 653e c211 063e
000001f0: 8c86 913e 4110 d03b ec24 173e bb25 3e3d
-0.077461906 0.2614273 0.030051228 0.020706782 -0.0077546695 -0.10287411 -0.11959572 0.34408545
-0.26774478 0.2465874 0.008980361 0.3236294 -0.181399 -0.03495032 0.000161439 -0.018714923
0.33713678 0.27263653 -0.12879965 0.07456138 -0.07640181 -0.103673965 -0.17307559 -0.022557715
-0.18121745 -0.029808098 0.32665354 0.03676514 0.23520821 0.17979474 -0.049912248 0.31947666
0.29693678 -0.1250522 -0.2193027 -0.14808537 -0.08998143 -0.060867213 0.21404229 0.06643075
0.02555287 0.2457714 -0.13866681 0.16963749 -0.21479943 -0.13186911 0.22163025 -0.15346934
0.10510114 0.28690273 0.20605654 0.18961576 -0.16595283 -0.18728706 0.19212238 0.29789025
0.17378832 0.11214842 -0.09923812 0.0027456104 0.016103774 -0.09271671 0.18651573 0.027132116
-0.08104342 0.052361093 -0.18042953 0.016164202 0.26653242 0.26648086 0.305202 0.14242993
0.12772581 -0.1622098 -0.2249225 -0.11994012 0.08103706 0.22656022 0.11754 0.2738913
-0.11967306 -0.047907367 -0.03643929 -0.056829557 0.08065392 0.14025873 -0.23599982 0.26882017
0.07858292 0.31430164 0.38266715 -0.16462252 -0.074195825 -0.08331959 0.30038667 0.17290922
-0.12909232 0.22272567 0.23913741 0.23998836 0.060800172 -0.03429961 0.34864652 0.09955621
0.12215444 -0.10473233 0.1410625 0.06585088 0.12537435 0.14550224 -0.20854442 -0.22914492
0.28427356 -0.20085399 -0.19348496 -0.027711535 -0.15491083 0.30516997 -0.19735405 -0.01584616
0.016920013 -0.1016359 0.2244761 0.13092712 0.28422964 0.006349594 0.14760178 0.0464227

layer2.weight f4 [256, 128]
00000000: bf9b 67bd a466 a33d 1718 573d b811 e6bd
00000010: ecdb 9b3d 6ec4 a6bd 9b36 c9bd 665e e5bb
00000020: f4da d9bc 2bd1 8e3d 2217 2b3d d1c8 913d
00000030: 98cb c5bd 5f0e 8bbd e0e8 ccbd df05 a73d
00000040: df42 a5bc 7ff0 f93d 958a aebd db6d 1c3c
00000050: 0a57 3d3c 5ed2 5f3c 78a4 83bd 00ae 0ebd
00000060: 54bf 443c 3c10 16bc cf80 e83b aea3 81bc
00000070: 8761 d53b b40e db3c 5a80 bb3c 10fb 75bd
00000080: 8e03 5e3c 4d96 91bd 07d6 c7bd 3859 b5bd
00000090: 681f 1b3d 91d9 84bc 6daf 453c bcfe b83d
000000a0: 8afd f63b a873 aa3d d56f 06be d376 6c3c
000000b0: cb3e bebd 764c 9cbc 0627 a63d c34f 9cbd
000000c0: a1fd 6f3c bc99 083d 746a 1d3d e18c 4cbd
000000d0: f2d6 8d3a d635 833c e2b2 bc3d 7ea1 33bd
000000e0: f035 853c 92c0 d8bd 23ba fe3c 8615 823c
000000f0: 219a e8bd 9578 823b c522 07bd c67e 6f3d
00000100: 12f6 cf3b bfe7 19bd eee2 06bd 7b06 263a
00000110: 192e 58bd deee ce3c 6917 89bc 45cd 5f3d
00000120: 34dc ddbb 486e e8bc 061c 5ebc da9f b2bd
00000130: 8b16 6e3c 7030 0c3d 9adb 93bd d45c aa3c
00000140: 724c b9bd 83e4 ddbc ffaa af3c 08d4 513d
00000150: 2fbc e8bb 2051 913d fbac a0bd 9fe9 803d
00000160: 734e f73c 54d3 483d 75b5 9d3c 4c92 9a3c
00000170: 0833 263d 2064 e5bc 9dc2 cf3c 4129 dcbd
00000180: f520 b5bc 43b0 67bd 7195 3fbc cf8e 283a
00000190: afc9 32bd 3d26 65bd aa40 69bd 7eb8 303d
000001a0: a0e3 c0bb f3a6 02bd f559 d53d 666f bdbd
000001b0: 75f7 a53d a42d b63c c9cb 4ebb 4761 453d
000001c0: fa14 d03d 5344 51bd 5381 92bd e07a 15bd
000001d0: d2df 95bb 6d6d 553d b78e c1bd 6005 3fbe
000001e0: 0f4b a8bc 04d4 bbbd b511 7e3d ad58 25bd
000001f0: 2f9a 6d3d 5dbd 6cbd 32a0 c8bc a684 d03d
00000200: 8813 073d 23a5 673c 3943 1ebd ab5e ccbd
00000210: 8e1a 1ebd 8ba3 d8bd e35d 30bc b1b4 653c
00000220: 4d79 d43c 818a 1ebd f3ab ab3d 11cc ab3d
00000230: 873c 0fbd cbe4 29bd 4100 d43c ca80 b2bc
00000240: 76e5 9d3d b9cb f03d e7f0 81bc 5af9 3ebd
00000250: 81e3 b1bd 05e9 a0bd b1cc 8b3c b967 863d
00000260: 6b36 423c 31ae 22bd 5ea5 a33d 92bd c73c
00000270: d752 7fbd cc12 253c 4275 2bbd 1bb5 553c
00000280: dd7d bc3d ab20 0e3d 883f 483d feba 963d
00000290: e5d6 0abc 665f debc e494 4fbd 4f28 ed3b
000002a0: 0b84 8a3d 45ef a53d 678b a03c 7431 1f3d
000002b0: 8fa3 bbbd cffe e0bd 16bd fe3d 0992 ccbd
000002c0: 3fc5 39bd 20b1 9dbd f14b 753d 4ddc 113d
000002d0: fbe3 9cbc faab 96bd 7181 b43d 9bb2 6dbc
000002e0: e535 a9bd 051d 8bbd 110a 2b3d 0ab2 0d3d
000002f0: 5121 ee3c 3d33 a8bc 01fc e63c 2550 903c
00000300: 3402 323d 7c7b b93c da4e 893d bd71 54bd
00000310: c75f f33d 7463 cc3d 06aa 80bd 93a7 babd
00000320: af40 79bc 6abd 44bc 9842 bdbd 3bb2 0ebc
00000330: 541f 703d 3232 03bd 2739 a1bd 1aa4 733d
00000340: e571 20bc 7fb6 1ebd 2437 85bd 6372 60bd
00000350: 260c bf3d 97fc 4d3d 01a9 b73c 357d 37bd
00000360: 9e14 83bd 5e6b 79bd 2b98 433d cdca 0abd
00000370: a682 553c 87f0 773c faba 2e3d 474d b8bd
00000380: 49ee c6bb 9cc6 e43c 75ea 533c c5fc b4bd
00000390: dbd5 3fbc ca61 99bd d0b4 4e3a 9e59 9b3d
000003a0: 3053 99bd ad60 813d f79c ea3b 1ecf 633d
000003b0: 5113 a3bc 2f3a 17bd d39c 503d 68f5 1dbc
000003c0: 2bfb 623c 7f7a 8b3d 162d a83c 0f95 fcbc
000003d0: 9f85 8dbd 0c83 9a3c 9b5f 553d 13ce 3a3d
000003e0: 937a dbbc 20d5 0b3d f02a 863d 72ec 8c3b
000003f0: 3d38 bebc 2b07 963d dfc3 82bd 8b0e 97bd
-0.056545015 0.079785615 0.05251321 -0.11233848 0.07610306 -0.08142935 -0.09824868 -0.0069997786
-0.026593663 0.069734894 0.041770108 0.07118381 -0.09657973 -0.067898504 -0.10005355 0.08155417
-0.020173488 0.12204074 -0.08522526 0.009547676 0.011556396 0.013660995 -0.06427854 -0.034833908
0.012008507 -0.009159144 0.0070954333 -0.015825119 0.0065118703 0.02674041 0.022888351 -0.060053885
0.013550652 -0.07108746 -0.09757619 -0.08854908 0.03787175 -0.016217025 0.012065751 0.09032962
0.0075375484 0.08322841 -0.13128598 0.014432627 -0.092893206 -0.019079428 0.08112912 -0.07632401
0.014647872 0.033349738 0.0384316 -0.04993904 0.0010821505 0.016016882 0.09213807 -0.043855183
0.016261071 -0.10583605 0.031094616 0.015879404 -0.11357523 0.0039816597 -0.032992143 0.05847051
0.0063464725 -0.037574526 -0.03293126 0.0006333363 -0.052778337 0.025260385 -0.016734796 0.05463912
-0.006770635 -0.028372899 -0.013556486 -0.087218955 0.014531742 0.03422588 -0.0721962 0.020796217
-0.09047784 -0.027086502 0.021443842 0.0512276 -0.0071025114 0.070955515 -0.078454934 0.0629456
0.030188775 0.049029663 0.019251565 0.018868588 0.04057601 -0.028001845 0.025361354 -0.10750056
-0.022110442 -0.05656458 -0.011693344 0.00064299715 -0.04364937 -0.05594467 -0.056946434 0.043144695
-0.00588651 -0.031897496 0.104175486 -0.09249763 0.08103839 0.02223856 -0.003155457 0.048188474
0.10160251 -0.05109055 -0.07153573 -0.036494136 -0.0045738006 0.05210631 -0.09451049 -0.18654394
-0.020543603 -0.09171298 0.062028605 -0.04036777 0.05800837 -0.05779778 -0.02449045 0.10181551
0.03297761 0.014138493 -0.038638327 -0.09978994 -0.038599543 -0.10578068 -0.010764572 0.014020131
0.025936747 -0.038706306 0.08382406 0.08388532 -0.034969833 -0.04147796 0.025879027 -0.021789927
0.07709782 0.11757607 -0.015861942 -0.04662452 -0.08685971 -0.07856945 0.017065378 0.06562752
0.011853795 -0.039716903 0.07990526 0.024382386 -0.06233486 0.010075282 -0.041859873 0.013043667
0.09203694 0.034699123 0.048888713 0.07359885 -0.008474086 -0.027145099 -0.050679103 0.007237471
0.067634664 0.08102278 0.019597722 0.03886552 -0.09162056 -0.10986101 0.12438409 -0.099887915
-0.045354124 -0.076997995 0.059886876 0.035610486 -0.019151678 -0.07357021 0.088137515 -0.014507915
-0.08262233 -0.067926444 0.041757647 0.03459362 0.02906862 -0.020532245 0.028196337 0.01761634
0.043459132 0.02264189 0.06704493 -0.05186628 0.118835025 0.09979907 -0.062824294 -0.091139935
-0.015213176 -0.01200805 -0.092412174 -0.008709486 0.058623627 -0.03203029 -0.07872229 0.05948267
-0.00979278 -0.03874826 -0.06504658 -0.054796588 0.09328489 0.050289717 0.022419455 -0.04479714
-0.06400417 -0.06089341 0.04775254 -0.033884812 0.013031637 0.01513303 0.042658783 -0.089991145
-0.0060708863 0.027926736 0.012934317 -0.088372745 -0.011708702 -0.07489355 0.00078852195 0.075854525
-0.0748657 0.063172676 0.007159825 0.055617444 -0.019906672 -0.036920723 0.05093081 -0.009641029
0.013853828 0.06810474 0.020529311 -0.030832795 -0.06910252 0.018861316 0.05209313 0.045606684
-0.026791846 0.0341388 0.065511584 0.0043006474 -0.023220176 0.07325586 -0.06385016 -0.07375821

layer2.bias f4 [256]
00000000: 40ba 883c 79c7 043e 53da da3d 181b 30be
00000010: 191e 723d 0a16 2a3e b650 fd39 6b99 4d3e
00000020: 7613 693e b03d 613e 8ccf 2e3e c153 29be
00000030: bb57 123d feba 1e3e b49a dabc e169 5b3e
00000040: 8a24 44be 7346 8b3d bb29 43be 7e4f 21bc
00000050: 8229 49bd b99e 3bbd 838e 033e f88e 14be
00000060: dc3c ee3d 9030 6d3d 9e1a 5c3e 00b3 6e3c
00000070: 4900 a3bd 017a 2b3e 461a 113e 20d6 4b3e
00000080: d43e ee3d b4fc ea3c 4fed 703d 1210 2e3e
00000090: 7619 443e c0e3 963d fc23 ccbd 6de6 323e
000000a0: 7551 263e d612 a83c 77b2 793d 46c2 603d
000000b0: 848c ddbd 1dcf 523e d2ae 223e bfee 743e
000000c0: 218f 4b3e 63db c83d cdd5 123e e41c 063e
000000d0: 4f72 4dbd e8d9 ef3d 4826 6b3e ca27 273d
000000e0: 7373 433e 531a 5b3d b97a 3e3e d279 40bc
000000f0: b8f7 393e 798c 1dbc 01c7 f93d d5b7 bc3d
00000100: 7732 2e3e 1565 8e3d 30f8 463e 62df 3d3e
00000110: 97e5 193e 104d 463d a9e8 25bc d4b9 dd3c
00000120: fbe6 813d b64b 673e 5cc8 01be e9d8 3f3e
00000130: 336b 213e 83b8 983d fca3 673e bea2 113e
00000140: 9c8b 123e c2ab 053e a98f 5cbd 5c38 6f3e
00000150: 32cb 633d 6e39 603e d961 b63d 0849 353e
00000160: 317f fd3d a05a 8d3d eb49 593e 3d97 e23d
00000170: d782 4b3d 315f c4bc 4dcb ffbd 0791 323e
00000180: 4f2f 363e 171a a33c 802b 943d eab7 843d
00000190: 8eef 5d3e 6450 ea3d eea4 243e 2cde 953d
000001a0: e102 3a3d d7e1 d83d 4fa1 243e a2d0 c8bc
000001b0: f957 2fbe 099a f03d 93b8 b23d a71b 613e
000001c0: 0dd9 5e3e c899 91bd 4fcf d33d 41a7 323e
000001d0: df96 213e eb54 c9bd dacc 173e c1ec 523e
000001e0: e9ea 473e 064a 3e3e 877f 0e3e e002 193e
000001f0: 2592 7d3d 2721 623e 1b9f 173e d81c 5c3e
00000200: 92ce 3c3e bb7e 523e 2b88 5b3e ebbb 4c3e
00000210: 74d1 583d 26e4 00be ccc0 8e3d 3eab 04be
00000220: e5d4 6c3e bb61 583e b24e 483e da0f 91bd
00000230: 3020 593e f42f d73d 1617 28bd 5ad0 363e
00000240: eae6 683d 9be8 473b 0809 e33d 7660 09be
00000250: 51d9 023e 584e 283e 191e 513e 60e2 143e
00000260: dd51 1c3d 24f7 0f3e c77e f13d 33c7 11be
00000270: 3286 673e 57e9 2a3e a3a8 3f3e 60af 1b3d
00000280: f2ad 293e 2df2 ea3d 8acc be3d 524c 5a3e
00000290: f6f9 483e f478 71bd 7e67 24bd 43e6 603d
000002a0: 664b 403e 5cc0 643e 351d 353e c807 953b
000002b0: dce1 353e a8ba 533e 1e3d 613d 2b16 623e
000002c0: 29df 513d 798f 5f3b bd86 5b3e 0564 1a3d
000002d0: b6a3 513e cd9b 683e f3b0 be3d 2f87 813c
000002e0: cd12 993d 0d4e 5d3e a372 453e 6483 083e
000002f0: 87a2 293e e3e4 983c 4f7a 233e 4809 4b3e
00000300: 187e cabc b8ce fd3d 5f7f 81bd 5d4d b0bd
00000310: 4a59 aa3d 2143 843d 1e2b 1e3d 1691 713e
00000320: 4c94 393e 86d2 443e e073 dcbd 6467 4a3e
00000330: f77f d13d 667a 5b3e e788 dc3d ded5 513e
00000340: 28b7 5b3e 7760 373d ccc0 513d 8ea4 d13d
00000350: 83d9 debb c42c 00be a2bc 273e 3179 553e
00000360: 0c99 113e e312 8f3d b23f c13d 83d1 a63d
00000370: 0093 903b 4722 213e 2f6f 403e e7e8 ee3d
00000380: 8e6e 513e 05d1 423e 2d92 eabd a0d8 3f3e
00000390: 641b 8c3d 81df 853d 9f4f 503e b6e8 5b3e
000003a0: 33f6 83bd 24a4 073e c826 6b3e 9ef7 30be
000003b0: 42ce 983d eb43 abbd f324 203e 490e c9bd
000003c0: 4050 5c3e ee2b 1fbe 7c21 bb3d 221b f33d
000003d0: cab1 193e 1a1f 493e fa37 7e3e b5f8 d83d
000003e0: 3e11 09bd 7895 2a3e 0b95 d43c 3194 4b3d
000003f0: 509d b4bd 00a7 5f3e e421 173e 3caa e63d
0.016690373 0.12966718 0.10686173 -0.17197835 0.059110735 0.1660997 0.00048316055 0.20078056
0.2276133 0.21996188 0.1707136 -0.16535856 0.035728198 0.1550102 -0.026685096 0.21427108
-0.19154564 0.068005465 -0.19058888 -0.009845613 -0.04911185 -0.045805667 0.12847333 -0.14507663
0.11632702 0.05790764 0.21494529 0.014569044 -0.07959039 0.1674576 0.14170179 0.19905901
0.11633077 0.028684951 0.058820065 0.16998318 0.19150338 0.073676586 -0.09967801 0.17470713
0.16242011 0.020516794 0.060961213 0.054872774 -0.10817817 0.2058682 0.15887001 0.239192
0.19878818 0.0980747 0.14339371 0.13096958 -0.05015784 0.11711484 0.22963822 0.04080943
0.19087009 0.0534919 0.18601502 -0.011747794 0.18160903 -0.009616011 0.1219616 0.09214751
0.17011438 0.069528736 0.19430614 0.18542245 0.15028988 0.048413336 -0.010126271 0.027066149
0.06342884 0.22587475 -0.12674087 0.18735088 0.1576355 0.07457068 0.22621149 0.14222237
0.14311069 0.13053802 -0.053847943 0.23361343 0.055613704 0.21896908 0.08905382 0.1770364
0.123777755 0.06902051 0.21219604 0.11064003 0.049685325 -0.023971172 -0.124899484 0.17438136
0.17791484 0.019909902 0.072348595 0.06480391 0.21673414 0.114411145 0.1607854 0.073177665
0.0454129 0.105899505 0.1607716 -0.024513546 -0.17123403 0.1174813 0.08726611 0.21983205
0.21762486 -0.071094096 0.10342275 0.17446615 0.15780209 -0.0983065 0.14824238 0.20598127
0.19523205 0.18582925 0.13915835 0.14942503 0.061906952 0.22082959 0.14806788 0.21495378
0.18438175 0.20556156 0.21438663 0.1999356 0.052934125 -0.12587032 0.06970367 -0.12955949
0.23128088 0.21131031 0.1956127 -0.070831016 0.21203685 0.10507193 -0.04103764 0.17852917
0.05686084 0.0030503634 0.11085707 -0.13415703 0.12778212 0.16436136 0.20421638 0.1453948
0.03816401 0.1405912 0.11791759 -0.14236145 0.22609785 0.16690575 0.18716674 0.038009048
0.16570261 0.114719726 0.093163565 0.21318176 0.19626603 -0.05895324 -0.04013776 0.054907095
0.18778762 0.22339004 0.17686923 0.0045480467 0.1776194 0.20676672 0.054989927 0.22078769
0.051238213 0.0034112616 0.21438117 0.037693042 0.20472607 0.22715683 0.09311094 0.01581153
0.07474289 0.21611805 0.19282012 0.13331372 0.16565906 0.01866383 0.15964626 0.1982776
-0.02471833 0.12392944 -0.06323122 -0.08608506 0.08317812 0.06458116 0.03861534 0.23590502
0.18122977 0.19220933 -0.10764289 0.19766003 0.102294855 0.2143341 0.107682995 0.2049174
0.21456587 0.04476973 0.051209256 0.102364644 -0.0068008318 -0.12517077 0.16380551 0.20847012
0.14218539 0.06986024 0.09435977 0.0814543 0.004412055 0.15735732 0.18792413 0.11665516
0.2045233 0.19025047 -0.11453662 0.1873498 0.06841162 0.065367706 0.20342873 0.21475491
-0.06443443 0.13246208 0.22964013 -0.17281958 0.074612156 -0.08362564 0.15639095 -0.09817178
0.21514988 -0.15544102 0.09137246 0.118704095 0.15009227 0.1964077 0.24826041 0.10594312
-0.03346371 0.1665858 0.025949975 0.049701873 -0.088190675 0.21841049 0.14759022 0.112629384

layer3.weight f4 [256, 256]
00000000: 4015 cfbc 3fa9 61bd cffc 57bd 9589 2b3d
00000010: 7ba3 f73c 274c 02bd bf7d f3bd 01f3 05bd
00000020: 136a 46bd 60bd dbbc fb82 d93c 6fd8 573d
00000030: f59d 083c ae20 18bd 04a6 b0bc d40c 0d3c
00000040: bc81 773b 826c 2d3c 62ed 933b 2540 96bd
00000050: 3008 6fbd e53d 1bbe 1736 3ebb 4855 ce3c
00000060: 4a6d 07bd ce89 49bd cee9 2d3d ec93 9a3c
00000070: 38e6 863d a6cc 883c c48c 2abd d090 04bd
00000080: c9dc 6dbc 5c9a 1cbd 2f58 3cbd 9606 8ebc
00000090: 463c 42bd 2b8d f6bc 2566 913c 81db 4b3c
000000a0: dc0e 493d 81a9 aebd c7c1 3d3d 9f72 17bd
000000b0: afbd dc3c 7d01 32bc b87b 55bd f7d4 093d
000000c0: fa88 42bd ab71 62bc 04ce 41bc b170 f33a
000000d0: 6ab2 06be 4347 2bbd fc3c c1bc c09f 44bd
000000e0: dea1 153d 4d7c e8bb 9ddb 473d 786a 3d3d
000000f0: 8e9b 9abc d9dd cfbd 0cda 013d 076a 963c
00000100: 772e 7bbb cd29 bb3c 525f cf3c 357c 5b3d
00000110: 1d71 d0bb ad7e 813d 0a0e b5bc 35fa 693c
00000120: b79e 9bbd d36c 14bd 028b 223d 5d14 2cbb
00000130: ab11 0a3c 163a 283c 7e4f e3bc 44a4 b8bc
00000140: 206f 453d 7452 25bd 964a ecbd 9683 c2bc
00000150: c405 ca3c 423d 8fbb bd04 2fbd 7a9d 8fbd
00000160: 0bba 5f3c 6528 e53c a4ec 5f3d 8757 473d
00000170: ac3f 19bd 190d 4f3d 36a8 953d 74b2 b43b
00000180: 66ba 6e3d 4e19 a4bd fa4f 743c 3b6f 9d3c
00000190: 2918 4a3d f689 d8bc b5bc a0bc 5ca2 43bd
000001a0: 776e a53d ffad 373d 0422 083d c676 173c
000001b0: 8324 e43d 2465 2d3d f0b0 8e3c 4ca7 bebc
000001c0: 9046 05bd 0e33 c03d f664 f1bc a066 0f3d
000001d0: 5b1f 7fbd d048 273d 50a5 1b3c 0260 173c
000001e0: 5a40 723d b7ba 01bb 0120 86bc 4f33 9abd
000001f0: 8b63 e1bc d329 4fbd 8f59 87bc 354d 5f3d
00000200: ff8e d03c 6dc6 413c e9b1 94bd 3ac7 86bc
00000210: d9dd 3abd 24b3 be3d e63a 70bd 4144 5f3c
00000220: e76d 5c3c 8223 2a3d 800f 55bd a50a 85bd
00000230: 2543 e8bc 797d 3a3b 49aa cbbd 54b6 1dbc
00000240: 74e4 3e3c 5cf5 42bd 7b30 07bc 6342 573d
00000250: 353c 06bd 7eb5 9e3d bc94 303d 8aab c5bd
00000260: 39f5 33bd e730 043d 0d4e 10bd 29fd 823c
00000270: 675b 85bd 7f5d f8bc 838a 653d 98e7 823b
00000280: 07dd 2f3d 84e9 223c ad3a b2bd 213a 393d
00000290: e489 753b 2de0 1bbd 4877 f6bd 530a 8abd
000002a0: 9a61 e4bc eb7d 6abc 02ff 713d 0c79 5b3b
000002b0: 2106 013d ff79 0abd 07ae 89bd 16aa 243b
000002c0: b95c 463a 6cb0 e2bd 0923 353d e7f7 013b
000002d0: a899 5abc fc72 39bd ae05 7abd 95d0 96bc
000002e0: 92f7 073c a7dd 1bbc f1f1 dabc 18c2 febc
000002f0: 5ffb 0ebd a3aa 08bc 923e b4bd 309e 41bc
00000300: 074c 0bbd f8a3 5fbc 3a0b bcbd 898e c2bb
00000310: f267 00bd 06f6 18bd 98d3 1fbd 82ec da3c
00000320: 75f6 963d 7262 443d b2c7 10be 0d8e 76bd
00000330: 1832 58bd de49 bfbc 09eb c93c fdd0 ce3c
00000340: dda4 11bd 55f3 ddbd f52b 983d 94c3 8ebc
00000350: 7578 62bc 309c ac3d 68bc 1ebd aeb3 d4bc
00000360: a283 d53c 214e 11bc 30bf 023d 259e f7bc
00000370: b245 b4bc 7b68 3c3d 008e a0bb eb00 64bd
00000380: c128 59bd 7919 be3c 5bd6 23be 32b9 97bc
00000390: e389 023a 81be bbbc 62c2 43bd 5c7d 0fbd
000003a0: 5e7f cb3c 04f9 93bd aa83 5ebd 3823 703d
000003b0: 0874 02bd 095c 97bd edf0 193c bc75 38bc
000003c0: 0a01 843b 111d 153a abf9 ac3c 474a d9bc
000003d0: eb5e 88bc 5d8b 963c 9799 65bd 00f2 68bd
000003e0: a59f 07be a54d 2a3d 9952 10bd 54a1 9dbd
000003f0: b2cf 8a3d 29aa 82bc fe80 e3bc c52b 94bc
-0.025278687 -0.055093046 -0.05273133 0.041879255 0.03022932 -0.031810906 -0.118892185 -0.03270245
-0.048441004 -0.0268237 0.026551714 0.05269664 0.008338441 -0.03714054 -0.021563537 0.0086090155
0.0037766537 0.010584952 0.004514382 -0.07336453 -0.058357418 -0.1516033 -0.002902394 0.02518715
-0.03306321 -0.049203686 0.0424593 0.018869363 0.065868795 0.016699146 -0.04163815 -0.032364666
-0.014517971 -0.038233146 -0.045982536 -0.017337125 -0.047420762 -0.030096611 0.017748902 0.0124424705
0.049086437 -0.08528424 0.04632738 -0.036974546 0.026945917 -0.010864613 -0.05211994 0.033650365
-0.047493912 -0.013821046 -0.011828903 0.0018573013 -0.13153997 -0.041816007 -0.02358865 -0.048003912
0.03653132 -0.007094896 0.048793424 0.046244115 -0.018873002 -0.10149736 0.031702086 0.018361105
-0.0038327256 0.02284708 0.025314007 0.05358525 -0.0063611404 0.063229896 -0.02210142 0.014280845
-0.07598632 -0.036236595 0.03968335 -0.0026257255 0.008427064 0.010267755 -0.027747866 -0.022539265
0.04820168 -0.040361837 -0.11537664 -0.023744386 0.024660952 -0.004371316 -0.04272913 -0.07012458
0.013655196 0.027973363 0.054669037 0.048667457 -0.037414238 0.0505496 0.07307474 0.0055144373
0.058283232 -0.08012639 0.014911646 0.019218078 0.049339447 -0.026432972 -0.019621233 -0.04776226
0.0807771 0.04484367 0.033235565 0.009244626 0.111397766 0.042332783 0.017418355 -0.023273133
-0.032537997 0.09384738 -0.029467087 0.03500998 -0.062285762 0.040840924 0.009499863 0.009239199
0.0591434 -0.0019795129 -0.016372683 -0.075293176 -0.027513286 -0.050576996 -0.016522197 0.05451699
0.02545881 0.011827094 -0.07260496 -0.01645242 -0.045621727 0.09311512 -0.05864992 0.013627113
0.013453937 0.04153777 -0.052016735 -0.06496171 -0.02835233 0.0028456135 -0.09944589 -0.00962599
0.011651147 -0.047597274 -0.008251305 0.052553546 -0.03277226 0.07749461 0.043110594 -0.09651859
-0.043935034 0.0322732 -0.035230685 0.015989857 -0.06511574 -0.03031802 0.0560403 0.0039948933
0.042935397 0.00994337 -0.08702598 0.04522145 0.0037466222 -0.038055588 -0.1203447 -0.067402504
-0.027878571 -0.014312248 0.059081085 0.0033488898 0.031499986 -0.03380775 -0.06722646 0.0025125793
0.00075669173 -0.11068806 0.044222865 0.00198316 -0.013342299 -0.045275673 -0.061040573 -0.018410007
0.008298771 -0.009513295 -0.026726695 -0.03109841 -0.034907695 -0.008341464 -0.08800997 -0.0118175
-0.034008052 -0.013649933 -0.09181829 -0.0059374017 -0.03134913 -0.037344 -0.03902015 0.026724104
0.07371227 0.047945447 -0.14138678 -0.060194064 -0.052782148 -0.023350652 0.024648206 0.025246138
-0.035557617 -0.108374275 0.07430259 -0.017427243 -0.0138226645 0.08428228 -0.038753897 -0.025964584
0.026063744 -0.008868725 0.03192061 -0.030226776 -0.02200589 0.045998078 -0.00489974 -0.055664938
-0.05301738 0.023205506 -0.15999739 -0.018520925 0.0004979653 -0.022917988 -0.0477928 -0.03503166
0.024841007 -0.0722523 -0.054324783 0.058627337 -0.031848937 -0.07390601 0.00939582 -0.011258539
0.004028444 0.000568823 0.021115145 -0.026524676 -0.016646823 0.018377 -0.056054678 -0.056871414
-0.13244493 0.041577954 -0.03523502 -0.076967865 0.06777896 -0.01595028 -0.02777147 -0.018087277

layer3.bias f4 [256]
00000000: 8f54 2b3d c1e2 da3d a5fb 2d3e 8352 c03d
00000010: d7ea c53d bea1 4e3d e35f 0cbe b8c7 d1bd
00000020: f983 f43d 5875 1d3e 845d 193e d5d6 3d3e
00000030: 3e89 073e 9d49 363e 5225 01be d586 9bbd
00000040: 5c33 b2bd 7ec9 d33d 7bb4 d23d b026 1b3e
00000050: de45 8c3d 882b ed3d 9adc cebd c135 3a3e
00000060: 7b30 01be 0b71 343e 1ffa 0b3e 5cf7 38be
00000070: 0041 003e 966e babd a5fe d53d 3bc9 2c3e
00000080: 60a6 3abd d704 403e 984f 133e ff01 4a3e
00000090: 7bb2 fabc 05b6 b4bd a1ee 473e 17e5 343e
000000a0: 31d8 05be cd3b 373e ef02 0c3e 47fa 543d
000000b0: 8d24 493e 5363 313e bf50 fa3d 1d90 d33d
000000c0: 6673 203e aa3e 093e e182 093e 21e2 0e3e
000000d0: 0568 d6bd e970 8c3d 702e 213e 583a 1c3e
000000e0: 5a8c 183e acae e03c aa82 353e b1c9 1e3e
000000f0: e1ca 383e 89a1 e63d fe58 313e 45b7 12be
00000100: 8283 dabd 6d8f d93d ef34 333e 6087 8bbd
00000110: c2a1 b33d ad05 f3bd 3917 fe3d da46 323e
00000120: bb17 3c3e 0a38 f1bd 816f 1e3e 1780 da3d
00000130: dfcb 203e b8fe d93d 48b0 ecbd eecf cd3d
00000140: f24a 763d d1f0 9b3d 7ed3 e63d 3b0d 0f3e
00000150: fc36 ba3d d1a1 bfbc 2887 053e b775 d53d
00000160: a790 343e fadd 333e 421c db3d e019 b03d
00000170: 9536 053e cc01 953d bf6f 1cbe f56c 0b3e
00000180: 55d6 d03d 4806 073e 2b1a da3c e262 4f3e
00000190: 63c6 363e 9c1f 363e df7f 58bd f6ba 5dbd
000001a0: 74d7 3f3e 468e 3c3e 5a4b 0fbe 9f2a aa3d
000001b0: 88e8 5cbd e7ff 2c3e 1229 2e3e 48d7 443e
000001c0: 7de5 023e 7f7c f03d 9c86 e83d fa85 09be
000001d0: fb4a 273e 9b37 8a3d dc04 663d 68ff 6b3d
000001e0: 77d5 d4bd 36b3 763d d708 dc3d 76a8 a63d
000001f0: 65a2 343e aefc 323e 764f 403e d676 7f3e
00000200: 2c07 0fbe 625a 323e 9cd3 a23d ad0f 1b3e
00000210: efc4 263e 2e64 be3d 26b4 3abd 437d 403e
00000220: d9b9 923d b4f6 413e 513d e23d 7381 cabd
00000230: 85db 0e3e 8cd8 213e 99b4 373e 7096 2a3e
00000240: 2dff 8a3d 6826 8abd c577 c33d ed7d e33d
00000250: 8b73 ef3d 7b33 d43d 59fc 353e c4ff 733d
00000260: 257e 993d 5cfc ba3d 2af6 05bd 0c22 78bd
00000270: 4c2b e73d ef13 053e 9ab0 063e 8403 d63d
00000280: 9d18 d83d 587f 8d3d f545 053e 1c96 f8bd
00000290: 4160 413e a376 babd f333 37be 9a90 b63d
000002a0: 155d 9c3d 11f5 df3d 20a1 f8bd f1cf efbd
000002b0: ffbd 223e b88a 283e 31f0 e23c cff0 403e
000002c0: 7063 bfbc 48f8 3c3e 4086 bd3d 4d36 8fbd
000002d0: 5618 f53d fb45 3c3e 02dd 49bd d527 b23d
000002e0: 43ef 413e 9ad0 1abe f619 973d 254d 403e
000002f0: f4c2 b93d 66f3 3f3e 77f8 bb3d 4e58 fb3d
00000300: 4e20 3e3e c1f0 303e 98ae 473e 022d 0f3e
00000310: a755 bd3d 3ddc 0d3e 9741 bfbd 196d 0f3e
00000320: 9f6e ca3d a501 f83d 25ee 223e 480a c6bd
00000330: 2729 14bc 5db7 d4bc e2dd 0fbe f2c2 e83d
00000340: 85ae 2c3e 8c7c 053e c6ab 153e 76d9 fc3c
00000350: 99ad 043e d1d8 413e 6cdf 233e 515e 47bd
00000360: 5ae0 383e 6d46 a73d 0abe 78bd 439c 1f3e
00000370: 26f4 9b3d 646f d43d ea9a 2e3b 20ea 9a3d
00000380: 73c5 b63d b33f e8bd 6c20 3d3e beb0 c1bd
00000390: b474 023e 7b0d a2bd 5b11 6cbd 74ea 473e
000003a0: 930e 103e 4e8e b8bd 0c95 413e 4964 353e
000003b0: ae5a 4cbd 2b9a 21bd 074e b53d 33fe f3bd
000003c0: 45ef 1f3e 13d7 273e aaa0 3e3e 9972 14be
000003d0: de28 133c fca7 ca3d 7f1f cabd edd4 3a3e
000003e0: 5ef6 043e 7141 8cbd 4d43 fe3d 2206 893d
000003f0: b176 0c3e 0e20 c43d 4a45 0e3e 8f03 1fbd
0.04182869 0.10687781 0.16990526 0.09390738 0.09663933 0.050447218 -0.13708453 -0.102431715
0.11939234 0.15376794 0.1497708 0.18538983 0.13235947 0.17801519 -0.12611893 -0.075940765
-0.08701202 0.10341166 0.1028833 0.15151477 0.068492636 0.115805686 -0.1010067 0.18184568
-0.1261615 0.17621247 0.13669632 -0.1806311 0.12524796 -0.09103124 0.1044896 0.16873638
-0.045568824 0.18751846 0.14385831 0.19727324 -0.030602684 -0.0882378 0.19524623 0.17665516
-0.13070752 0.17893906 0.13672994 0.051996496 0.1964285 0.17323045 0.12222432 0.10330222
0.15669021 0.1340281 0.13428833 0.13953449 -0.10469059 0.068574734 0.15740371 0.15256631
0.1489729 0.02742704 0.17725626 0.15506627 0.18046142 0.11261279 0.17319104 -0.14327724
-0.106696144 0.106230594 0.17500661 -0.0681293 0.08771087 -0.11866317 0.12406773 0.1740984
0.18368427 -0.11778267 0.15472223 0.106689624 0.1570277 0.10644287 -0.115570605 0.10049425
0.060130067 0.076142915 0.11270808 0.13969891 0.09092519 -0.02339259 0.1303984 0.10422843
0.17633305 0.17565146 0.10698749 0.08598685 0.13009103 0.07275733 -0.15277003 0.13615783
0.101971306 0.1318599 0.026623806 0.20252565 0.17849116 0.17785496 -0.052856322 -0.054133378
0.18734533 0.18413648 -0.13993588 0.083089106 -0.053932697 0.16894494 0.17007855 0.19222748
0.12782855 0.11742496 0.113538 -0.13430014 0.16337197 0.06748887 0.056156978 0.05761662
-0.10392278 0.060229503 0.107438736 0.081376 0.17640074 0.17479202 0.18780312 0.24947676
-0.1396758 0.17417291 0.079505175 0.15142699 0.16286062 0.092964515 -0.04558196 0.18797784
0.07164354 0.18941766 0.110468514 -0.09887972 0.13950928 0.15805262 0.17939986 0.1665895
0.06786952 -0.06745607 0.095443286 0.11108003 0.1169196 0.103613816 0.17772044 0.05957009
0.07494763 0.09130165 -0.032705463 -0.060579345 0.11287555 0.12995885 0.13153306 0.10449889
0.105515696 0.069090545 0.13014968 -0.12138006 0.18884374 -0.091046594 -0.17890911 0.08914299
0.076349415 0.109354146 -0.12140107 -0.117095836 0.1589279 0.16459167 0.027702423 0.18841861
-0.023362845 0.18454087 0.09254122 -0.06992779 0.11967532 0.1838607 -0.049283035 0.086990036
0.18938927 -0.15118638 0.073779985 0.18779428 0.090703875 0.18745193 0.0917825 0.12272702
0.18567011 0.1727934 0.19500196 0.13982013 0.092448525 0.13853545 -0.09338682 0.14006461
0.098843805 0.12109689 0.15911157 -0.0966993 -0.009043015 -0.02596634 -0.14049485 0.11365308
0.16863449 0.13035792 0.14616308 0.030865412 0.12956847 0.18930365 0.16003197 -0.04867393
0.18054333 0.081677295 -0.06072811 0.15586953 0.07614927 0.103728086 0.002664263 0.07564187
0.08924379 -0.11340275 0.18469399 -0.09457539 0.12739831 -0.079127274 -0.05763374 0.1952303
0.1406806 -0.090115175 0.18904513 0.17714037 -0.049891166 -0.039453667 0.08852773 -0.11913719
0.15618618 0.16390638 0.18615976 -0.1449684 0.008981911 0.09895322 -0.09869289 0.18245287
0.12984607 -0.068484195 0.1241518 0.06690623 0.13717152 0.095764264 0.13893619 -0.038821753

layer4.weight f4 [128, 256]
00000000: 37b0 a93d f61e 813d 094a 3fbd a8a7 f8bc
00000010: b1fc 0ebd c505 e2bb ca12 783b 929b d63c
00000020: 2868 103d 13aa 5eba 03ef 44bd 93f0 843c
00000030: f39a ecbc 88cd da3c a4c1 893d a9c7 4f3c
00000040: 8a9e 513c fd59 18bd dcd5 7a3c b604 81bb
00000050: fe6d fd3c f644 44bd 62ec 8e3c 565a b2ba
00000060: 0e9f e83d c2bc 21bd bc3a 2d3d 0ed8 2e3d
00000070: b4b3 81bd 9c21 593e c6d4 8fbc 10fc d0bc
00000080: fc94 b83d cdfb 9fbb 3ef6 3dbd d607 f53c
00000090: fad9 e1bd 31c3 7d3d d056 473b 21c5 433d
000000a0: 58a7 863d ae20 a63c e9cd 1bbd 7424 cfbc
000000b0: 8b8c 0ebd 15ab 33bd 8d37 03bd 065c 1c3d
000000c0: 9272 56bc 91b0 dcbc aafa a3ba 5058 51bc
000000d0: ff3d 133d 879c f43c b727 7abd 89f9 54bd
000000e0: 0441 ca3c d006 9b3b ecd4 07bd bfb8 0bbd
000000f0: 94ae fcbc 9061 153c 2197 0c3b 1cb4 ff3d
00000100: 7004 253e 3359 603d 779a 703d 3679 0abc
00000110: df9e 4b3d f8da 7a3d c134 0a3d 0020 ec3c
00000120: 70bf 84bd b04c c63d 8536 053d 96f2 753d
00000130: a819 ce3c b9b2 89bc 4e6e be3d 4ba7 7a3c
00000140: 0f0b c53d 35de 40bd 83e7 083d 480a 2bbd
00000150: d487 e5bc a8f6 08be 8231 243d 4df1 823d
00000160: 8ba1 f5bc 6ac6 73bb e62b 403d 0fb2 3c3d
00000170: 7985 843d 6655 b5bc 3863 a93b 609a c03c
00000180: ffc5 9dbc aa53 a83b 89d3 0b3d 83e3 50bd
00000190: dd13 613d 8f12 063d a8fa 323d 4364 933d
000001a0: 4415 2ebc 5cd5 02bd d39c 513d 52fb 043b
000001b0: 8e49 783d d82d 343d 2042 7a3d d030 b5bc
000001c0: 1bb6 4c3b 01de af3c 3257 ff3c 3a1b 793d
000001d0: 2f72 2cbd 2c94 bbbc a507 ef3c 35fd 8cbc
000001e0: d54b 29bc d3e6 343d 268d 6a3d 8e01 ecbb
000001f0: b1d2 c73c 75ae 993c 2679 0fbb 956a 1fbe
00000200: 72db be3b c759 df3c 5b1a 50bd ddbb a6bc
00000210: daec 703c 723d 04bd 2dd7 e53c 0304 ef3c
00000220: 9755 0dbd 2971 31bd c6f4 fabc 4d68 d53d
00000230: e73d 003d 8a05 6abd 8898 7c3d 79dc 4dbd
00000240: 6666 44bd 98f5 e23d 89b3 183d 7049 87bc
00000250: 88e6 6e3d 6d4e 0bbd efc4 2d3d 0f18 8dbc
00000260: e227 ea3b b686 14bd afbd 313d 195f 9fbd
00000270: 3056 4dbc 8122 043c cd1b 9e3c b55e 8d3c
00000280: 5d2d e7bc 3989 98bc 836e 773b 8dd2 ff3d
00000290: 8550 0a3b 1a41 303d ba34 453c bf59 083c
000002a0: 0a93 383b a495 30bc 9137 d53d 3b9f 613d
000002b0: 1b1c 09bd 3a5b bebc 6b76 393c 9671 3b3d
000002c0: 0ffe b9bd c9a9 223c f459 a53d b74f d73d
000002d0: 5c98 c2bb b4f0 74bd c7b7 473d 4c92 103c
000002e0: 12c6 123d cd62 8dbb b164 c53c a4cb 58bd
000002f0: 673b 753d 25a1 85bc 1a86 1cbc 9f30 283d
00000300: f47e 0e3d 1e1f 843c 7ca5 d7bc a78b 123d
00000310: 226c 413d 74d6 353d b020 a83c 927b c2bb
00000320: 004a 0e3d 0124 2f3c 30f7 08bd a13e ff3d
00000330: 8ead 023b d880 21bc bdd1 10bd 8e93 e53c
00000340: 3335 ddbc ce7f a23a 9ce8 93bc 0ba0 a83c
00000350: 8601 2a3d db10 42bd 7b7f 61bd f447 16bd
00000360: 58bc 563d 4f4a 4e3d 617d 803d 4f63 843d
00000370: 1b0f 87bc ff4b 023d 0852 7d3d 4d10 5dbd
00000380: e601 51bc 3ae4 813d 5122 563d 7dfd 0a3d
00000390: caad 34bd 79e0 b23d 914c 4e3d 8ea3 c7bd
000003a0: 4096 6a3c c462 ab3d 1f7a 29bd 4d4c 1dbd
000003b0: 7da5 a33c 3c33 133c 9e59 783d 3a57 053e
000003c0: b91e efbb f360 1c3d e2a8 5a3c a6b1 803c
000003d0: dda7 d9bc 50e3 b53c 39d2 26bc 3f66 ab3b
000003e0: 0f9b 133d 39a5 f33d 41ad 0dbc 419d d5bc
000003f0: 28ee 55bd 3416 46bd c500 80bd f3d0 e33c
0.082855634 0.063047335 -0.046701465 -0.030353382 -0.034908954 -0.0068976604 0.0037852996 0.026197229
0.03525558 -0.0008493971 -0.0480795 0.016227996 -0.02888248 0.026709333 0.06726387 0.01268188
0.012794146 -0.037195195 0.015309777 -0.003937329 0.030936237 -0.04791733 0.0174467 -0.0013607244
0.11358462 -0.039486654 0.04229234 0.042686515 -0.06333104 0.21204227 -0.017557513 -0.025510818
0.090127915 -0.004882312 -0.046377413 0.029910963 -0.11027904 0.061953727 0.0030416735 0.04779542
0.06574887 0.020279255 -0.038038168 -0.025285937 -0.034802 -0.04386433 -0.0320354 0.038173698
-0.013088839 -0.026939662 -0.0012510617 -0.012777403 0.035947796 0.029859794 -0.06107303 -0.051995788
0.024689205 0.0047310367 -0.033162042 -0.034111734 -0.030844964 0.009117499 0.0021452385 0.12485525
0.16114974 0.054772567 0.05874106 -0.0084517505 0.04971206 0.06124398 0.033741716 0.028823853
-0.06481826 0.09682596 0.032522697 0.0600458 0.025158718 -0.016808854 0.09298383 0.015298675
0.0962125 -0.047086913 0.03342391 -0.04175785 -0.02801887 -0.13375342 0.040086277 0.06393681
-0.029984256 -0.0037197121 0.046916865 0.046068247 0.064707704 -0.022135448 0.0051692985 0.023511112
-0.019259451 0.0051369267 0.034137283 -0.050998222 0.054950584 0.032732543 0.043696076 0.07196858
-0.010625187 -0.031941757 0.05117495 0.00202914 0.060617022 0.043989033 0.061098218 -0.022118002
0.0031236473 0.021468164 0.031169508 0.06081698 -0.04210108 -0.022897802 0.02917845 -0.017210582
-0.010333021 0.044165444 0.057263516 -0.007202334 0.024392458 0.018759945 -0.0021892278 -0.15568002
0.0058244998 0.027264489 -0.050806385 -0.020353252 0.014704907 -0.03228516 0.028056705 0.029176718
-0.034505453 -0.04332081 -0.030634295 0.104202844 0.031309035 -0.05713419 0.061668903 -0.050259087
-0.047949217 0.110819995 0.037280593 -0.01651451 0.05832532 -0.03401034 0.04242414 -0.017223386
0.0071458677 -0.036261283 0.043393787 -0.0778181 -0.012532756 0.008064867 0.019300366 0.017257074
-0.028219873 -0.01862012 0.003775508 0.12491331 0.0021105122 0.043030836 0.012036497 0.008322178
0.0028163814 -0.010777865 0.10410989 0.055083495 -0.03347407 -0.02323686 0.011319737 0.04576262
-0.09081661 0.009928175 0.08073798 0.10513251 -0.005938573 -0.059799865 0.048759248 0.008823942
0.035833426 -0.0043147565 0.024095865 -0.05292858 0.059871104 -0.016312191 -0.009553457 0.041061994
0.03478904 0.01612812 -0.026324026 0.035777714 0.047222264 0.04439397 0.0205234 -0.005935141
0.03473854 0.010689736 -0.03343886 0.124631174 0.0019939872 -0.009857379 -0.035356272 0.028024461
-0.027002906 0.0012397708 -0.018055253 0.020584127 0.04150536 -0.047379356 -0.055053215 -0.036689714
0.052425712 0.050363835 0.06273914 0.06464254 -0.016486695 0.031810757 0.06184581 -0.053970624
-0.0127568 0.06342359 0.05227882 0.03393315 -0.04411105 0.08734221 0.05036599 -0.097479925
0.014318049 0.083684474 -0.04137623 -0.038402844 0.019976372 0.008984383 0.06063234 0.13021556
-0.0072973636 0.038178395 0.013345929 0.01570971 -0.026569301 0.022203118 -0.010181957 0.0052306945
0.036036547 0.11896748 -0.008647264 -0.026075961 -0.052229077 -0.04836102 -0.06250147 0.027809596

layer4.bias f4 [128]
00000000: 0aa2 43bd d1b9 a13d daff 9a3d 7198 8fbd
00000010: dc74 e13d ce39 2bbd 9a24 91bd 0ca3 bdbd
00000020: d842 2c3e f87d 1d3e 7544 4b3c b001 e83d
00000030: b975 09be f401 b6bd 3f4d ee3d 7d89 57bd
00000040: 41a3 dabb e6f7 37bd c7ee 1c3e cc80 80bc
00000050: c7e0 80bd 2632 92bd c610 ac3d 3e6b 023e
00000060: 4dba c03d d980 aebd c940 373c 5c0a 283e
00000070: d647 313b 7025 25be 700e e4bd baee af3d
00000080: 2056 b6bc 987c bdbc e4b6 81bd 7aec 32bd
00000090: b131 bcbd 1ac5 183e 78e0 95bd adb7 9bbc
000000a0: 06c4 d2bc 4d2b b23d 18b4 1e3e d0bd 1b3e
000000b0: 6510 83bc df78 e3bd 7c37 16be fa1d 01be
000000c0: 2c03 b6bd b2f9 46bd 1a9e 14bc 7da9 aebc
000000d0: 729d b0bd cd96 96bc c4eb 3fbd f35d 3a3b
000000e0: 1f6d 2cbe fd6a c83d 3330 b03d c163 433e
000000f0: d238 cdbd 079b 8cbd 569c f83d 6ac6 50bd
00000100: 369d 053e 6c8d 143e 2b0a 3a3e 9ee8 323e
00000110: 9742 013e 2f74 333e e1ca 88bd f16f 8fbd
00000120: 63cd 43bc fb6d c83d 80fa a3bd 44fb 80bd
00000130: 960e 4abd 1d6f c23d c31e 29be 0edf dd3d
00000140: 2411 d43d 6554 413e 3634 b63d 5ca4 043d
00000150: e0fb 9e3d 1bfe d6bc d2c3 453d 49dc 8ebd
00000160: 5209 91bd 8810 3f3e 8fee 6f3c 4a51 46bd
00000170: e861 71bc d149 1d3e 4226 3e3e fcca 1fbd
00000180: 9060 c73d 3950 c5bc f33d 11be 3125 7cbc
00000190: 9064 363e 863b 353e de4f bb3d f9a2 9abd
000001a0: 269e 143e d82b 783c c1da 2c3e 11b9 2b3e
000001b0: 77a5 c13d 9106 3bbd 903d cb3d d9b8 c5bc
000001c0: 0309 cabc 7519 cabc a687 7bbc a000 95bd
000001d0: 6580 a3bb 5419 e13d bf68 2fbc f6a3 75bc
000001e0: d821 b03d a291 223e e646 103e 18c4 333e
000001f0: 17dc 263e 620e 113e 40c4 30bd 1c36 ed3d
-0.047761954 0.0789677 0.07568331 -0.07011498 0.11008617 -0.041803174 -0.07087059 -0.09259614
0.16822374 0.15380085 0.012406458 0.11328447 -0.13423814 -0.08887091 0.11635827 -0.052621353
-0.0066722934 -0.04491415 0.15325461 -0.015686415 -0.06292873 -0.07138471 0.08401637 0.12736222
0.09410534 -0.085206695 0.01118488 0.16410202 0.0027050874 -0.16127563 -0.11135566 0.08590455
-0.022257864 -0.0231307 -0.06333712 -0.043682553 -0.091891654 0.14918938 -0.07318205 -0.019008482
-0.025728237 0.08699665 0.15498388 0.15209126 -0.015999028 -0.11107039 -0.14669603 -0.12609091
-0.08887324 -0.04857797 -0.0090708975 -0.021321053 -0.0862378 -0.018382454 -0.046855703 0.0028437346
-0.16838501 0.097860314 0.08602943 0.19081022 -0.10020603 -0.068655066 0.12139194 -0.050970472
0.13048252 0.14507073 0.18167941 0.17471549 0.12623058 0.1752479 -0.06679321 -0.07003773
-0.0119508235 0.09786602 -0.080067635 -0.06297925 -0.049330316 0.094938494 -0.16515641 0.1083356
0.10354832 0.1887985 0.08896677 0.032383308 0.07762885 -0.026244214 0.048282452 -0.0697561
-0.07081856 0.1865865 0.014644279 -0.048417367 -0.014732815 0.1536019 0.18569282 -0.03901194
0.09735215 -0.024086105 -0.14183788 -0.0153897265 0.17811799 0.17698488 0.09146093 -0.07550616
0.14513454 0.015147172 0.16880323 0.16769816 0.09455388 -0.04566056 0.099238515 -0.024135994
-0.0246625 -0.024670342 -0.015352165 -0.0727551 -0.004989671 0.10991159 -0.010706126 -0.014992705
0.08600205 0.15875867 0.14089546 0.17555273 0.16294895 0.14165643 -0.04315591 0.11582586

layer5.weight f4 [1, 128]
00000000: 3e1e 9f3d 1ddf 8cbd ed0f 61bd a537 363d
00000010: 2e97 91bd d915 953d 0951 b13d 803a ef3c
00000020: 7428 e3bd 688b dfbd d4fc 073e a8b9 e3bd
00000030: 13d8 773d a07b d93d 0133 ccbd 1b7d d13c
00000040: f896 813d 4e22 b23d 67f4 c4bd 77e3 2e3d
00000050: 754f 8f3d 8c42 983d 0acc c5bd d637 e8bd
00000060: 7567 fdbd a107 a43d 0e48 9f3d 4743 81bd
00000070: a192 4c3d 01af 943d 0ba8 e13d 2445 b0bd
00000080: ca15 c7be 0b12 e63d 330d b83d 5a68 b13d
00000090: 5047 cb3d dbdb bbbd 5068 593d fc6d 513d
000000a0: 0a86 fa3d 8821 fabd 3246 ebbd db2c f9bd
000000b0: 2475 bd3d 211e f1bd fbed 713d 27f0 923b
000000c0: a20a 363c 084b b93d 78fa 83bd 0d9d 3e3d
000000d0: 837e 5c3b c089 da3d c11e a23b 7ac1 3a3b
000000e0: 919b 9c3d 10de 22bd 1487 5abd cc8a ddbd
000000f0: 4edf bbbd 44d6 643c d659 2ebd a543 7e3d
00000100: 7030 38bd 1d04 98bd b7c7 3ebd 1c8b b4bd
00000110: 4a56 c4bd b019 4bbd 2206 b73d a0de 2e3d
00000120: a8f8 943d bb2a 4bbd 4988 d03d 8ec8 4d3c
00000130: 97d5 8dbd 804d b9bd b2db 883d 19a5 cebd
00000140: 5276 a7bd f3f8 f9bd f281 e8bd b3c5 273d
00000150: cc17 88bd abd2 bcbc 7a15 d53d 47f6 c5be
00000160: ee2d 3e3d 8a60 a4bd 0408 af3d a418 fb3a
00000170: 8db2 28be a2fa a6bd 846f b7bd 9c9d c93d
00000180: 3fd8 5fbd 682f f43d ad2f a53c 8167 9a3d
00000190: 52e2 e7bd 12e7 cbbd 1e3f 83bd 7427 3f3d
000001a0: 1c24 6fbd acc9 503d 8347 39bd 57b9 fcbd
000001b0: 3357 eabd 27f1 523d 9f23 f9bd 531e bf3d
000001c0: 030c 5e3d 3e2f 1a3d b134 063e fbb0 5e3d
000001d0: 68cc 053d 478d 64bd aa89 4a3d 86e7 a83d
000001e0: fd85 21bd b427 84bd 77a0 8fbd 0023 93bd
000001f0: 5f39 1fbd 9790 2bbd 549f 6a3d 72b9 aabd
0.0776944 -0.06878493 -0.05494683 0.04448666 -0.07108913 0.07279558 0.08658034 0.0292027
-0.110917 -0.109152615 0.1328004 -0.111193955 0.0605088 0.10619283 -0.09970666 0.02557235
0.06327623 0.08697949 -0.096169285 0.042697396 0.06997577 0.07434568 -0.09658058 -0.11338775
-0.123732485 0.080092676 0.07777415 -0.0631166 0.049944524 0.07259942 0.1101838 -0.086069375
-0.3888381 0.1123391 0.089868926 0.086624816 0.09925711 -0.091727935 0.053077996 0.05113028
0.12232597 -0.12213427 -0.11487998 -0.121667586 0.092508584 -0.11773325 0.059064846 0.004484195
0.0111109335 0.09047514 -0.064442575 0.046536494 0.0033644743 0.10670805 0.004947514 0.0028496669
0.076468594 -0.039762557 -0.053351477 -0.10817489 -0.09173451 0.0139671005 -0.042566143 0.06207623
-0.04496807 -0.074226595 -0.04657718 -0.088155955 -0.09586771 -0.049585044 0.089367166 0.04269278
0.0727399 -0.049601298 0.10182244 0.012560023 -0.06925505 -0.09047985 0.066825286 -0.10090084
-0.08176865 -0.122056864 -0.1135291 0.040960025 -0.06645164 -0.023049673 0.10404487 -0.38664457
0.04643052 -0.08026226 0.08546451 0.0019157124 -0.16474362 -0.08153273 -0.08956817 0.09844515
-0.054649588 0.119231045 0.020164335 0.07539273 -0.11322464 -0.099561825 -0.06408523 0.046668485
-0.058384046 0.05097358 -0.045234215 -0.12340038 -0.11442413 0.051499512 -0.12164997 0.09331956
0.054210674 0.03764271 0.13106038 0.054368 0.03266564 -0.055798795 0.049447693 0.082472846
-0.03943442 -0.06452885 -0.07013028 -0.0718441 -0.038873073 -0.04188594 0.057280853 -0.08336152
