PPO/ppo_critic.pth (torch, 546027 bytes, 9 tensors)

layer1.weight f4 [128, 29]
00000000: ebe9 953d 024e 0d3d 021a 7a3d aacf c6bd
00000010: 4858 663d eedd 84bd 99ee 18bd 11b5 f5bd
00000020: 2f49 633d 2fcf a9bc 3ba2 d2bd 39aa 56bd
00000030: 7134 2d3e 3027 16be efec 893d cc1a c23d
00000040: 2100 83bd 62c7 1c3e 92ea 7b3c 225f acbb
00000050: 9893 37be d983 2e3e 2793 3c3a 84c9 b9bc
00000060: e289 b5bc adac bebd 0729 843d 1d1f 583d
00000070: 1f9b fb3d f159 ad3d a6af 263d ac14 253c
00000080: 768a 3c3e 0705 acbd 0f6e c7ba b097 753c
00000090: a9b9 143e 1d76 f13d f351 2a3e a8fa 4ebd
000000a0: a2f2 733d d39c 763d f958 1bbe 2aff 613d
000000b0: ea82 ecbd 0805 8f3d b4db df3d 0371 d23b
000000c0: 28c8 eebd df8b 2bbe 8fc6 12be 4d69 043e
000000d0: 182e 923b d1df 293d 1819 643d 6c02 06bd
000000e0: 0f7d 2d3d 66df 393e 102d 213e 5ff8 d9bd
000000f0: d6d1 fc3d 8276 9fbd 373f 47bd acf5 203e
00000100: fd28 233e f3a6 f9bb c852 073e 1803 cbbc
00000110: 095b 21bd b4fb 653d 318b c83c 0b29 f5bd
00000120: 026e 033e 49b7 b0bc 172c 32bd 207c 36be
00000130: 305a 84bd 236f 01be 3c8d e73d 7a0f 99bd
00000140: 294f ba3d da86 9a3d 0ba7 0f3e d5b6 1c3e
00000150: 4f5a 833d dab2 bcbd 0533 bd3d c9ef a2bd
00000160: 7b48 eabd ffe5 19be 869d f7bd efc6 a13d
00000170: fee6 323d f2f2 393e 7cec 0f3d 2fea eebd
00000180: b469 803d 8736 133e 54cf 053e 914d 283e
00000190: a460 b3bd 5638 06be 846b 0c3e 5227 3a3e
000001a0: 7d10 323e 22a4 1e3b 1dcd 2b3e eac8 3cbe
000001b0: a391 18bd 3deb c33d 8b0e 54bd 522e 0abe
000001c0: 1a98 283d 01ba b7bd bd7d 123e d52c 34be
000001d0: 5ea0 843d 19d2 06be 8215 1d3e 8055 29be
000001e0: db5e 0bbe fa22 10be 6e82 2dbc 4e9f 1bbe
000001f0: ee15 25be 6654 2ebd 56a5 73bd 6bfe a5bd
00000200: cbe4 643d 9f8d ad3d 0638 83bd 8548 f6bc
00000210: 1b52 a33d a424 d13b b0d4 5bbd 46c9 f73d
00000220: 5c9c 46bd 806a 113e 3e8a 65bd 8bf1 1c3e
00000230: db1b 333e 9d3b 023e f11b b83d e90c 0abe
00000240: 6fc4 01bd 4436 21be a5ad 5bbc 90fb 00be
00000250: c2e4 ca3d 714d 30be f914 af3d cbec 06be
00000260: d748 01be cf9f 02bd d37a 1dbd 9c3e af3d
00000270: 6e4d a2bd facf 113e 3b03 df3c b96a c6bc
00000280: 93ec 8cbc f170 29be c44c 6cbc 788c f0bd
00000290: 3828 5a3d bfb2 45bd da3d 18be 2be1 103d
000002a0: 5d74 34be fb47 10be 8a58 d53d 9775 b1bd
000002b0: e729 263e 6ac5 9fbd 84ee 223e 4cd2 2cbe
000002c0: 95d6 1a3e f3c3 c9bd 6d91 883d 604f 983d
000002d0: 18ad b43d 8be9 54bd bfb4 d0bc 38d7 2dbe
000002e0: 2a4e 3fbd 5ded 7c3d e304 eab9 aada 5abd
000002f0: 218f 1dbe ecc9 09be 57ca df3d d72a 7b3d
00000300: 260a ae3d fc1d 2c3d b0c5 233e 9692 ea3c
00000310: df51 e9bc 4837 96bd baf8 9cbd 83a6 39bd
00000320: 6176 843d ef9d 8dbd fbcb 0b3e cdf1 f2bd
00000330: dd60 04be 4701 e2bd 11a8 13be 2dbc 8e3d
00000340: f153 03be a47d 2a3d ef61 d4bc be52 c53d
00000350: fa14 15bc 3f30 aa3d 9f8b 0f3e d933 1cbd
00000360: a236 b9bd 1688 3b3e 786d e73d a7f2 2ebe
00000370: 21a5 873d 7c31 1ebe b924 f33d cd45 05be
00000380: 39b0 62bc 2d42 12be f1fb 043e 047f 2e3d
00000390: acfa 283e 7128 d1bd 1a74 0ebd d01c 8bbd
000003a0: 24b7 0bbe 9172 2c3e d622 e23d b9fc 823d
000003b0: 2841 a83d 78ad c4bd 9fe3 033e d019 b1bb
000003c0: 448e 81bd 7375 bf3d e9b1 08be 2ae3 5bbb
000003d0: d91c 963d ac37 29be f0f1 b53c 3098 363e
000003e0: f41c 48bb 2291 13be b242 f83d 405b 3bba
000003f0: 576e 75bd 2765 2bbe 8266 fe3d 833f 24bc
0.07320007 0.034498222 0.06105996 -0.097075775 0.056236535 -0.06487642 -0.03733692 -0.11997426
0.055489715 -0.020728676 -0.10284849 -0.05240843 0.16914536 -0.14663386 0.067346446 0.09477767
-0.06396509 0.15310434 0.01537575 -0.005260364 -0.17927396 0.17042483 0.0007193558 -0.022679098
-0.022160474 -0.09310279 0.06453138 0.052764047 0.122854464 0.084644206 0.040694855 0.010075729
0.18412194 -0.083993964 -0.0015215295 0.014989778 0.14523949 0.117901064 0.16632824 -0.050532013
0.059557565 0.060208153 -0.15170659 0.055174984 -0.115484074 0.069833815 0.10930577 0.0064221635
-0.116592705 -0.16752575 -0.14333557 0.12930794 0.004461061 0.041473214 0.055687994 -0.032717153
0.042355593 0.18151626 0.15739846 -0.10643076 0.123447105 -0.077862754 -0.04864427 0.15718716
0.15933605 -0.007618779 0.13215172 -0.024781749 -0.03939346 0.056148246 0.024480434 -0.11970719
0.12834933 -0.021571772 -0.04349908 -0.17820787 -0.064625144 -0.12640052 0.11306235 -0.07473655
0.0909713 0.07545252 0.14028566 0.1530412 0.06413709 -0.09213801 0.09238247 -0.07955892
-0.11439606 -0.15029143 -0.12090592 0.07899272 0.043677323 0.18159083 0.03513764 -0.11665761
0.06270161 0.1437627 0.1306737 0.16435839 -0.08758667 -0.13107428 0.13712889 0.18179062
0.17389102 0.0024206717 0.16777463 -0.18436018 -0.037248265 0.095663525 -0.05177168 -0.13494232
0.04116068 -0.08971024 0.14305778 -0.17595227 0.064759 -0.13166083 0.15340236 -0.16536522
-0.13610403 -0.14075842 -0.010590179 -0.15197489 -0.16121647 -0.042560957 -0.05948385 -0.08105167
0.055882256 0.08474278 -0.0640717 -0.030063877 0.07974645 0.0063825417 -0.05366963 0.12098937
-0.04848896 0.14200783 -0.05604004 0.15326516 0.17491095 0.12718053 0.089897044 -0.13481487
-0.031681474 -0.15743357 -0.013408099 -0.12595963 0.09906913 -0.17217042 0.08548922 -0.13176267
-0.12625442 -0.031890687 -0.038447212 0.08556864 -0.07924925 0.14239493 0.02722322 -0.024220811
-0.017202651 -0.1654699 -0.014422599 -0.11745542 0.05326101 -0.04826617 -0.14867344 0.035370987
-0.17622514 -0.14089958 0.10417278 -0.086650066 0.16226922 -0.078013256 0.15911299 -0.16877097
0.15120919 -0.098518275 0.06668363 0.074370146 0.088220775 -0.051980536 -0.025476811 -0.1697663
-0.046705402 0.061749805 -0.000446356 -0.05343119 -0.1538663 -0.13455933 0.10927265 0.061320152
0.084980294 0.042020783 0.1599338 0.02863435 -0.028481422 -0.07334763 -0.07664628 -0.045324814
0.064678915 -0.06914889 0.13652031 -0.11862526 -0.12927575 -0.110354 -0.14419581 0.069694854
-0.1282499 0.041623726 -0.025925605 0.096349224 -0.0090992395 0.083099835 0.14018105 -0.038135383
-0.090436235 0.18313631 0.113001764 -0.17084752 0.06623293 -0.15448564 0.11872239 -0.13014908
-0.01383596 -0.14283057 0.12986733 0.0426016 0.16501874 -0.10212792 -0.03477869 -0.06792605
-0.13644081 0.16840579 0.11041801 0.06395859 0.082155526 -0.09603399 0.128798 -0.0054046884
-0.06325963 0.093485735 -0.13349117 -0.0033552148 0.07329721 -0.16525143 0.022210091 0.17831492
-0.0030534836 -0.14410833 0.12122096 -0.0007147081 -0.05991968 -0.16737805 0.124218956 -0.010024908

layer1.bias f4 [128]
00000000: 5ae3 33bd 5a23 07be cc73 2e3e 927e 31bc
00000010: df9d 1abd 8f35 223e ad60 01be ffbb 06be
00000020: 3a65 72bd 3d57 363e 61c7 103d 6a64 cb3d
00000030: b6a2 023e 0c35 bfbd 2093 ea3b 2d03 43bd
00000040: ad99 2dbe 6a27 343e 33d4 dcbd a884 fe3d
00000050: 90f7 393d 7f8a cfbd 66e0 a33d 5081 383e
00000060: de80 89bd 40a0 013e 2b6f 383e 2ae4 dabc
00000070: 52cf f6bd 2b4e 1dbe 32a0 8dbc fca3 72bc
00000080: 4b9b 86bc 8c41 23bd d773 083e bb5f 1abd
00000090: 5d95 863d b338 743d ab12 6a3d 0593 8fbd
000000a0: 176f 393e c192 c0bc f074 a6bc ac10 2b3d
000000b0: de7c 903d 4937 89bd 6345 a93b b6d7 473d
000000c0: 1a19 5c3d a3f3 553d 5212 d8bd 6589 cebc
000000d0: b586 0e3e f17c 3abe 37b6 193e ffa5 2abe
000000e0: 2a0e 0bbc f44e 39bd 2323 6c3d 0ec6 2c3e
000000f0: e05c 4e3d 541b 2d3d 152e 9d3c 954e 05be
00000100: 6045 d23d d6af 573d 6856 c8bd 2bdb 5d3d
00000110: 282e 823d 1a06 d7bd 4e4c 113e 5f93 98bd
00000120: 2161 123e fa46 55bd 262c 1bbd 111e debd
00000130: e66a bbbd fe4a 823d be39 b73d 48f8 eb3d
00000140: b220 ebbd 0829 d1bd 3efe b93d 1082 373d
00000150: fe56 3abe dcf4 17be df1b aabd 9eeb 953b
00000160: 27c0 0b3e 1916 f33d 847c a5bd 45a7 403d
00000170: 1c4e 3abd ec33 0e3e 3e91 83bc 8de9 b23d
00000180: 83b5 ca3d 3437 153e 5292 03bd f7e9 0fbe
00000190: 6485 f3bd 8545 20be 4544 173a a7af 693d
000001a0: cd4a 13be b20c 083e 6ae3 343e ded2 22be
000001b0: f4aa a73c ca7e 18be e62e dbbc ec88 edbc
000001c0: 1a00 dbbd caca 12bc 9844 b13c 0d43 b73d
000001d0: a16c a3bd 5932 25bd 698e 9fbd 4470 1c3e
000001e0: 99bd ca3d da29 96bd 9462 3ebe 2afd 043e
000001f0: 7fed 0cbe 3537 9cbd 2aa6 3a3b 8c37 29be
-0.04391799 -0.1319708 0.1703636 -0.010833399 -0.037748214 0.15840743 -0.12634535 -0.13157652
-0.05917857 0.17806716 0.035346393 0.09931262 0.12757382 -0.0933629 0.007158652 -0.04761045
-0.16953154 0.1759316 -0.10782661 0.12427646 0.04540211 -0.10133838 0.08001785 0.18018079
-0.067140326 0.12658787 0.18011157 -0.026720125 -0.12051262 -0.1536185 -0.017288301 -0.014809605
-0.016431471 -0.039857432 0.1332544 -0.037688952 0.065714575 0.059624385 0.05714671 -0.070104636
0.18108784 -0.023507478 -0.020319432 0.041763946 0.070550665 -0.06699998 0.0051657422 0.048789702
0.053734876 0.052234303 -0.10550369 -0.025212 0.13918574 -0.18211724 0.15010916 -0.16664885
-0.008487264 -0.04524131 0.057650696 0.16872427 0.05038154 0.04226239 0.019187013 -0.13018258
0.102671385 0.052657925 -0.09782106 0.054164093 0.0635646 -0.10499211 0.14189264 -0.07449984
0.14294864 -0.05206964 -0.0378839 -0.108455785 -0.09151249 0.0636196 0.0894656 0.11521965
-0.114808455 -0.10212904 0.09081696 0.04480177 -0.18197247 -0.148395 -0.08306097 0.004575207
0.13647519 0.11869449 -0.0808039 0.04703452 -0.045484647 0.13886994 -0.016060468 0.087359525
0.09897902 0.1457184 -0.032121964 -0.14054094 -0.118906766 -0.1565152 0.0005770366 0.05705228
-0.14384003 0.13286093 0.17664877 -0.15900752 0.020467259 -0.14892116 -0.026755761 -0.028995954
-0.10693379 -0.0089594815 0.021639153 0.08948336 -0.07979704 -0.04033122 -0.077908345 0.15277201
0.09899444 -0.07332201 -0.18592292 0.129872 -0.13762473 -0.076277174 0.002848039 -0.16525096

layer2.weight f4 [256, 128]
00000000: 6dbf 8a3d 85a6 863c d8f6 9d3d ca00 a3bd
00000010: 6f14 4ebd a3fc 953d 97b1 f03b 9738 aebd
00000020: 3dd5 9dbd 7e82 963d be75 5abd 2193 d63a
00000030: 23a9 173c 5b72 e53c c070 82bd a49e cebc
00000040: 5b82 683d c845 9fbd a6b0 b03d 3d06 0ebd
00000050: 1539 b63c 5c75 433c b13e c5bc 1ee5 3b3d
00000060: 78b4 b63c 65dc 30bd ace0 25bd 8e1c f43c
00000070: 0d6d 963d ef53 023d 25eb d83c e183 b83b
00000080: e358 1e3d 381c 3cbd 8030 5bbc f397 1ebc
00000090: 145f cd3c ea36 96bd 6dd9 903d d24a 55bd
000000a0: 3c59 6a3d 1076 8a3c 79c7 b0bd d1c8 963d
000000b0: efef 4cbc 9b8d 8b3d 4360 16bd 4a39 a8bd
000000c0: 4007 b43c 009d 77bd 8250 8b3d 8070 aebd
000000d0: 030f 33bd 7be7 9ebd d0c4 6ebc bac1 523c
000000e0: dbdb af3d 0c71 943d dd96 aabd 3db3 b4bc
000000f0: 08dd aa3d d9c2 78bc 34bf 01bd 8c0d e73c
00000100: 64d9 a1bc 722e ae3d d070 9abd 344f 723d
00000110: 7d85 a53d 2226 863d 31b2 81bd 5702 503c
00000120: b2cd c8bb 0d5a 9dbd 4686 afbd a6d4 8abd
00000130: 86e1 233d b92d 6fbc 4d97 ec3c 27f9 6a3d
00000140: 7ece b2bc ffd6 ba3b b4f8 41bd b8ea 113d
00000150: 4136 6c3d 280b a33d d72c 76bc a198 ca3b
00000160: ec11 243d 57ec 143d 8b5a 3e3d 9eff 833d
00000170: 9c70 a03d 4506 a8bd ff7c 6c3d fd92 773d
00000180: 1b0b 6e3d 9db0 b2bd e950 763c f9a4 143d
00000190: fa92 95bd d467 003c 1616 783d 6251 a2bd
000001a0: 5a74 663c ca93 153d 096c eebc f636 153d
000001b0: a9ce 92bd c0da 34bc 6a92 8d3d 4868 35bd
000001c0: 02f0 b1bd 7ab2 a9bd e362 bb3c 98e8 98bd
000001d0: 61c2 54bd 3bc3 86bd 6353 773b 0062 443d
000001e0: fa37 b9bc 80c4 943c f8c3 593d 0c39 21bd
000001f0: 599a 69bd 0c59 07bd 94de 1ebd 819c 933d
00000200: b19a 9f3d c513 963d c784 97bd 9289 85bc
00000210: 4aee 89bd 1cc5 2d3d ed39 933d f582 28bd
00000220: e8cf e43b 8b15 78bd 8d55 83bd f829 8a3d
00000230: 3097 d1bc 7e3f a7bd 3a3a d93a 5f14 5ebd
00000240: 1d58 323d 4e2b a7bd f674 06bd f1bb 46bc
00000250: 8708 a6bd 2588 16bd 43ea 003d 74ba d53c
00000260: 684c b039 8229 92bd d8a1 8b3d c180 a43d
00000270: c136 7d3d 4d75 82bd 1fa1 a7bd 0a05 9dbd
00000280: 1724 46bc 9680 3f3d 6493 ea3c 3e04 a73d
00000290: 2881 25bc 87a3 8c3d 6007 3cbd 8210 04bd
000002a0: feb3 30bc 0c23 9c3c 3fba 643c 155b 9fbb
000002b0: 716a f43c 8687 0abd e46f 6ebd 583d a73d
000002c0: d419 98bd 7a16 48bd b0d0 30bd 4256 0a3d
000002d0: 84f6 cbbc bbe9 70bd 0eb1 78bc 746f debc
000002e0: 0e79 3fbd c46f 9ebd 6016 2e3d 9159 8b3d
000002f0: 6204 57bd 08b5 b3bd 485f f8bc 25a0 98bd
00000300: 8bc1 11bc 37b9 63bd f21d 84bd 5ec2 a9bc
00000310: ed99 b13d d3e1 8bbc dd0a 86bb f13e bfbb
00000320: 602a cabc caca a63d 4a9f 9d3d 012f a8bd
00000330: 4b6a 693d 9ab3 5abd ed33 0c3d db79 71bd
00000340: 5855 713d 0e58 9dbd 665b 1dbd efbe 763d
00000350: f993 4dbd e3bb c73c 062a 663d 8898 68bd
00000360: 8e55 823c 5122 89bd d3f8 b83c a1ad d5bc
00000370: 1d75 24bd d4cc a6bd f0a3 c4bc 8824 ddbc
00000380: 12b3 97bd ee27 ffbb 646f 0ebd 941b 8fbd
00000390: edd0 bebb cbdf 98ba 4353 58bd 5106 aabb
000003a0: b663 f03b 9d4a 1c3c 9105 733d bbc3 62bb
000003b0: b553 8cbc c6ec 53bd 9971 a23c 9d8d 2ebd
000003c0: 6311 1a3c fb5c 39bd dd36 8cbd f9a4 843d
000003d0: fbdf 75bd 8ccf c8bc 1e42 423d b884 92bd
000003e0: 5df4 ac3d 3446 37bd 1e72 a0bb 83da d9bc
000003f0: 62f8 b13d ba0c ddbb b25a 343d d6a5 98bd
0.06774793 0.016436825 0.07713097 -0.07959135 -0.050312456 0.07323577 0.007345389 -0.085068874
-0.077066876 0.07349108 -0.053334944 0.0016370752 0.009256634 0.02800863 -0.063691616 -0.02522213
0.05676494 -0.077769816 0.08627443 -0.034673918 0.022244016 0.011929836 -0.024077745 0.0458728
0.022302851 -0.043178935 -0.040497467 0.029798772 0.073450185 0.031818327 0.026479313 0.0056309556
0.038658988 -0.04592535 -0.0133782625 -0.009679782 0.02506975 -0.07334693 0.07072721 -0.052073307
0.057214007 0.016902 -0.086317964 0.073625214 -0.0125083765 0.068141185 -0.036712896 -0.08214052
0.021976113 -0.06045246 0.06802465 -0.085175514 -0.04371549 -0.07758995 -0.014573291 0.012863571
0.08586856 0.072481245 -0.08329556 -0.022058124 0.083429396 -0.015183174 -0.031676486 0.028204702
-0.01975698 0.085049525 -0.075410485 0.059157565 0.080821015 0.06550242 -0.063328154 0.01269587
-0.0061280364 -0.076831914 -0.085705325 -0.06778841 0.040009998 -0.0145983035 0.02888074 0.057366516
-0.021826979 0.005701899 -0.047356322 0.035624236 0.057668928 0.07961112 -0.015025339 0.0061827456
0.040056154 0.036358204 0.046473067 0.064452395 0.078339785 -0.08204321 0.057736393 0.060442913
0.05811606 -0.087250926 0.015033939 0.036290143 -0.07303424 0.007837255 0.060567938 -0.07925679
0.014065826 0.036517896 -0.02910425 0.036429368 -0.071683235 -0.011038482 0.06912692 -0.044288903
-0.08688356 -0.08285995 0.022874301 -0.07466239 -0.051943187 -0.06580206 0.0037738911 0.047945023
-0.0226097 0.018160105 0.053165406 -0.039361045 -0.057031963 -0.033043906 -0.038786486 0.07207585
0.07793177 0.073279895 -0.07398372 -0.01630095 -0.06734903 0.042424306 0.07188783 -0.041140515
0.006982792 -0.06056742 -0.06412802 0.06746286 -0.025584787 -0.08166407 0.0016573139 -0.054218646
0.043541063 -0.081625566 -0.032826386 -0.01212977 -0.08107095 -0.03675093 0.03147341 0.026089884
0.00033626263 -0.07136823 0.068179786 0.0803237 0.061819796 -0.063700296 -0.08185028 -0.07666977
-0.012093565 0.04675349 0.028634734 0.08155106 -0.010101594 0.06867128 -0.04590547 -0.032242306
-0.010785101 0.01905968 0.01396042 -0.0048631527 0.029835911 -0.03382065 -0.058212176 0.08165997
-0.07426801 -0.04884956 -0.04316777 0.033773668 -0.024897821 -0.058816653 -0.015178932 -0.027152754
-0.046746306 -0.07736161 0.042501807 0.06804193 -0.052494414 -0.08774763 -0.030318871 -0.0745242
-0.008896242 -0.055596557 -0.06451024 -0.020722564 0.08671937 -0.017075455 -0.0040906505 -0.0058363606
-0.02467841 0.08144148 0.076963976 -0.0821209 0.056986134 -0.053393938 0.034229208 -0.0589541
0.05891928 -0.07682811 -0.038417242 0.060240682 -0.050189946 0.024381584 0.05619242 -0.05678609
0.015909936 -0.066959985 0.022579586 -0.02608377 -0.04015075 -0.081445366 -0.024003953 -0.026994959
-0.07407202 -0.0077867424 -0.0347742 -0.06987682 -0.0058232457 -0.0011663375 -0.05281378 -0.0051887413
0.007336105 0.009539274 0.05933148 -0.0034601528 -0.017129758 -0.051739477 0.019829558 -0.04261552
0.009403559 -0.04525469 -0.06846402 0.064767785 -0.060028058 -0.024513029 0.047426336 -0.0715422
0.08445046 -0.044744685 -0.0048964163 -0.026593452 0.086899534 -0.006745902 0.044031806 -0.07453506

layer2.bias f4 [256]
00000000: 4875 64bd ca34 17bd 3900 6ebd e458 94bd
00000010: b4cb 96bd 6463 983d 21b6 b33d 3408 a8bd
00000020: 62b0 12bd 53e4 a7bd fb0c 0b3d afb0 a63c
00000030: d999 3fbd 3618 31bc 78cc 473d 6c38 e63c
00000040: 0eca a1bd 5d83 853d db32 fcbc fb51 1f3d
00000050: 6252 a83d f019 e53c 5562 1f3b 9e78 08bd
00000060: 32b7 00bd 612d d53c 82f2 f23c 005f b53d
00000070: a1df 03bc bbfc b33c 7eaf b43c 7b1f 2bbd
00000080: f56e 1c3d 759f a13d 810f 7e3d f067 1cbd
00000090: 74ab 5d3d 5929 14bd 9a80 41bd 207a 63bb
000000a0: b61b 88bd 0098 a2bd 55c9 bcbc 5670 1abd
000000b0: 2cf3 72ba ac21 95bd 95b9 4bbb 2bc3 7fbc
000000c0: a780 75bd ddb7 893d ca4b 7f3d da22 693d
000000d0: 8bf1 9abd 94c2 f83b e05b 503d 59fb 33bd
000000e0: dc52 513d 289e b5ba ebf1 f7bb 4561 85bd
000000f0: 49d3 ac3d 0b06 c43c 8abc 473a ee69 64bc
00000100: c9d4 e1bc f06c 0fbd 6c50 68bd 25e9 eb3b
00000110: 8b9b 90bd c2ce 213d 3756 043d 818e 293d
00000120: fb9f 44bd 8d8b 9a3d f5e3 a3bd de75 aabd
00000130: e893 0a3c b49d d2bc 719a a73d 701f afbd
00000140: 39ec babc 0f7f af3d 4162 a7bd d231 a2bd
00000150: c9e4 ad3d 8d1f 8bbd 9891 553d 052a 71bd
00000160: 9a89 a9ba 9f30 183d d5cd 04bd 22e5 0abd
00000170: 89d4 883c ffe6 a3bd a93e 1f3d 97f1 b4bc
00000180: 6304 ac3d dd09 dbbc 0bd8 8bbc a255 3fbd
00000190: 392b debc 9d39 a3bd 75f3 843d 18c0 073d
000001a0: 0c34 4fbd e88b 71bd 1457 6dbd d6d2 d1bc
000001b0: e31f 5e3c 4eac 22bd 154e 4d3d cfba 9c3d
000001c0: 29ba 8f3d 31c3 8a3d 3152 8f3d 2bbf b0bb
000001d0: d2e6 2cbd 860d 17bd 3089 2c3c 802f 803d
000001e0: f08b 8c3c 911e 913c 7d6b aabd 44a6 7dbc
000001f0: 4262 5c3d 5b6a b3bc be15 afbd 06b1 7ebd
00000200: 5317 65bc 501a 8c3d a018 98bd 3240 a63d
00000210: 0408 9d3b d6a2 3ebd 1575 b0bd 9b3b 7c3d
00000220: 7bcc a63d 3061 6ebc 9baf 653d 5237 7abd
00000230: 22a3 893c 9bb1 74bd 2a17 a3bc c3a3 1cbd
00000240: ad13 6ebd 697d 013c 3de4 81bd f405 1e3c
00000250: 3b86 27bd e234 863d a2a7 cd3b b01a a43a
00000260: ed1c 153c 0d59 d139 f816 6cbd 3b61 6b3d
00000270: bdfa 813d 63f5 5abc 0a34 c1bc 742f 23bd
00000280: 927a 9b3d 2de3 933d 3566 31bd 8ee9 37bd
00000290: 4723 aa3d 2324 613d 8429 913c cdff 9f3d
000002a0: 98e2 90bd 1cb0 e3bc 627f ac3d e12e 98bc
000002b0: 486d 1fbd 6cfe 33bc 7d1e b53d d0c0 b1bd
000002c0: efcb cdbc 5706 ad3d f093 fdbc 82ee 57bd
000002d0: ee4a 9b3d c330 f73b 1e3d 77bd a2a3 ddbb
000002e0: 1842 48bc cc4f 32bc 3ad4 de3c 9f2e 8fbd
000002f0: 9f2c 2d3d fad2 613d 6187 823d bede 2b3d
00000300: ea44 fdbb cc35 763d 56b8 d63c 3a5b 5bbd
00000310: 85a5 3ebd aa51 a23d db54 94bc 3cf1 64bd
00000320: 6ce1 213d 964c a53d bb88 9e3d b03e 903c
00000330: c0c6 813d 4012 0b3c 5403 0dbd 0ffc 2ebd
00000340: 14da 8d3d b48e 71bc 2b02 25bd 24e1 89bd
00000350: 6cbb 023d 7961 63bd 62e5 52bd c1c1 4a3d
00000360: b883 11bd cd3e bebc 20df 2ebb 6386 833c
00000370: d71f 68bd d4cb 1b3d 418c 58bd 47b0 a83d
00000380: a8f0 563d 1f0c 97bd 53e1 25bd e5a9 f53b
00000390: d694 29bb 0cc6 9dbd 3717 df3a 2e2d 9e3d
000003a0: 1e3d b0bd 97a3 413d 68f5 b23d 333a 0f3d
000003b0: 5215 25bd 12e3 23bd 5afb 44bd b9b0 8d3d
000003c0: 675d a23d ac9f 223c f357 57bd b271 33bd
000003d0: 9990 b4bd 4b87 563d ce4c 9fbd d5bc b3bc
000003e0: 77cd 843d d220 dbbb a666 973c 36ee 603d
000003f0: 7e15 893d 49d4 91bd 266c 6bbd 8955 ebbc
-0.05577591 -0.036915578 -0.05810568 -0.07243517 -0.07363072 0.07440832 0.08774973 -0.082046896
-0.035812743 -0.08197846 0.033947926 0.020347921 -0.04677758 -0.010808995 0.04877898 0.028103076
-0.07899867 0.06519196 -0.030785969 0.038896542 0.08218838 0.02796647 0.0024320085 -0.033318155
-0.03142471 0.026022615 0.029656652 0.088560104 -0.008048923 0.021971097 0.022056337 -0.04177807
0.038191754 0.07891742 0.062026504 -0.03818506 0.05411859 -0.036172245 -0.047241785 -0.0034710243
-0.066459104 -0.07939148 -0.023045221 -0.03770479 -0.0009267803 -0.07281813 -0.0031085957 -0.0156104965
-0.059937146 0.06724522 0.062328137 0.056918003 -0.07565602 0.007591555 0.05086887 -0.043940876
0.05110441 -0.0013856338 -0.0075666807 -0.06512693 0.08438737 0.023928663 0.0007619342 -0.013941271
-0.027567284 -0.035016 -0.05671732 0.007199424 -0.070609175 0.03950382 0.032308783 0.041395668
-0.04800413 0.075461484 -0.08002464 -0.08323263 0.008458115 -0.025709964 0.08183754 -0.08550918
-0.022817718 0.085691564 -0.08173037 -0.07919659 0.08490903 -0.06793127 0.052140802 -0.058877964
-0.0012934685 0.037155744 -0.03242286 -0.033909924 0.016702907 -0.080030434 0.038878117 -0.022087855
0.08399274 -0.026738102 -0.01707079 -0.046712525 -0.02712022 -0.07969973 0.06491748 0.03314218
-0.050586745 -0.058971316 -0.057944372 -0.02561323 0.013557407 -0.039715104 0.050123293 0.076528184
0.07017929 0.06775511 0.06998099 -0.0053938827 -0.042212315 -0.03687813 0.010530755 0.0625906
0.017156571 0.01771477 -0.08321283 -0.015481535 0.053804643 -0.0219013 -0.08549069 -0.06218054
-0.013982612 0.06840956 -0.07426572 0.08117713 0.0047922153 -0.04654201 -0.086160816 0.06158028
0.0814447 -0.0145495385 0.056075674 -0.061087914 0.01680142 -0.05973969 -0.019908506 -0.038242113
-0.058124233 0.007903435 -0.06342361 0.009644974 -0.040899497 0.06553055 0.006276087 0.001252016
0.009101135 0.00039929934 -0.057639092 0.057465773 0.06346653 -0.013364169 -0.023584384 -0.039840177
0.07591738 0.07221065 -0.043310363 -0.04490047 0.0830751 0.054966103 0.017719992 0.07812462
-0.07074469 -0.027793936 0.08422734 -0.018577041 -0.038922578 -0.010985952 0.08843706 -0.08679354
-0.025121657 0.08448475 -0.030954331 -0.052717693 0.07582651 0.0075436546 -0.06036102 -0.0067638913
-0.012222789 -0.010883283 0.027200807 -0.06991314 0.042278882 0.055132844 0.06373478 0.04196047
-0.0077291625 0.0601099 0.026210945 -0.053553797 -0.04654457 0.079257324 -0.018106868 -0.05589412
0.03952162 0.08071248 0.07740923 0.017608017 0.06336737 0.008488238 -0.034427002 -0.04272085
0.06926361 -0.014743496 -0.04028527 -0.06732395 0.03191702 -0.05551288 -0.051488288 0.049501184
-0.035526007 -0.023223305 -0.0026683286 0.016055292 -0.05667099 0.038036183 -0.05286813 0.08236747
0.0524756 -0.07375359 -0.04049809 0.0074970596 -0.0025876067 -0.0770379 0.0017020468 0.07723461
-0.08605407 0.047275152 0.08738214 0.034967612 -0.040303536 -0.040011473 -0.04809127 0.06918473
0.07927971 0.009925764 -0.05257411 -0.0438096 -0.08816642 0.05237512 -0.07778321 -0.021940628
0.06484502 -0.006687262 0.018481564 0.054914676 0.066935524 -0.07120568 -0.057476185 -0.02872731

layer3.weight f4 [256, 256]
00000000: 60d6 823b cf60 363c 3713 4cbd 6457 86bc
00000010: 8342 a33c 362f 51bb 8383 c43c c974 f5bc
00000020: d908 cc3c 6ae1 603c 973d bc3b 1342 0cbc
00000030: d2f3 48bd fe43 7bbd e570 a43c d9c1 6a3c
00000040: 88a4 273d ac2d e73c ff09 1ebd 8a1f d53c
00000050: 43c6 b33c 7c39 533d 1129 8d3c 75f6 7cbc
00000060: 8c7d 62bd 1386 3bbd d3c1 d83c 3b11 34bc
00000070: 9471 70bd b90e 663d a0a4 3b3d 82d1 6a3d
00000080: 4369 513d 2b76 08bd fd78 65bd f2ee 5cbd
00000090: 4a6e c63c 89d2 0d3d a064 29bd ca30 4f3d
000000a0: 4d74 443d da0c bb3c 0808 81bc e957 c8bc
000000b0: a8a1 56bd 0fba 3e3b 1658 093d 54f4 c23b
000000c0: 344f a739 91a6 1dbc ae89 79bd 0192 67bd
000000d0: 3c3a 13bc ad51 e5bc e38b 723d 017b 173d
000000e0: dc34 4dbd 10e2 f33c 217a 7bbc e9cf 493b
000000f0: 0d6b 0fbd b74d 533d 4030 413d a2b0 873c
00000100: 7fe6 b1bc 6167 29ba 2280 8fbc 23ec e9bb
00000110: 3136 a6bc 0e53 37bc fc5e b4bc efa0 1d3d
00000120: 1366 333d c204 7dbd 5474 9abc 25f2 123c
00000130: 60b1 59bd fea1 d33c d30a 7d3d fa28 89bc
00000140: 3bc8 40bc 1407 0f3d 24bb d43c d91a 06ba
00000150: a58c c53c 32f9 30bd 2550 4cbb b634 47bd
00000160: e855 4bbd 798c 11bd cecc acbc 979a b23c
00000170: eedc 7abd abaf 38bd ee7b 41bb 7100 3d3d
00000180: bb31 04bd 1cb7 7cbb 3efa 6abd b4e1 06bc
00000190: 10cd 0abd 705a 353c 36e6 563d c71e b83c
000001a0: ae5e 5d3d cab9 12bc 947d 353d d8a4 19bb
000001b0: 7926 293c b3cd a5bc b9b3 c7bc e921 b43c
000001c0: 1bd4 6ebc dd63 e9bc 81e2 343d 970d 1cbd
000001d0: 6e1f 44bc e4eb 17bd b35a 283d d72b d1bc
000001e0: e932 f53c 9278 453d f23d 213d bb1f 7bbc
000001f0: 86e2 fcbc 45d7 573b c7fb 003d a218 90bc
00000200: e526 0ebd f243 5a3d 9499 21bd 47d8 f0bc
00000210: a8ca 083c 3dd2 abbc 5d26 b83c 91c5 96bc
00000220: ac44 183d fc68 9dbb 2b56 fcbc 4837 87bc
00000230: 1dce 273d ab56 373d 7343 283d 90df 153d
00000240: e8fe 50bd f400 b4bc 7dfc 623d 62f8 283d
00000250: 4420 28bc e6f2 74bd 1f41 f63c 7e90 373d
00000260: ae6f cd3b dafd 4ebd 07e5 223b 0f53 ce3c
00000270: 9622 1c3d 7038 6d3d 405d a83c a6f3 52bc
00000280: a3b2 f63c b03d 663d da08 5a3d 7d16 11bd
00000290: 6cf2 36bd 8c01 393c 0553 a53c 5781 ab3c
000002a0: dde4 47bd 45eb d2bb 10bf 9bbc ae9e 2a3d
000002b0: 833a 12bd 2295 dcbb 24f7 48bd 6c13 8dbc
000002c0: b070 913a c97a bfbb a324 a93b 926b 05bd
000002d0: e801 58bd 5dd4 b1bb ee0e 603d 0b1e 5d3d
000002e0: 62f8 36bd 2efb 02bd 52b2 25bb 419a be3c
000002f0: e396 2bbd 9a8d 983c 73e3 003d 556c 643d
00000300: 3e3b cabb a621 653d 4d57 a03c 6624 7a3d
00000310: ec64 15bc c15e 55bc 1f6a babb 8298 0cbd
00000320: beff de3c e8d1 f23c 80c8 713d 69bd 43bc
00000330: 4a0f 383d 93d2 113c 405e 8e3c 6bdd 5ebc
00000340: 10e2 edbc bbbb 0c3d 15f9 24bd bd39 653c
00000350: fa1a 41bc 123a 723d 8e59 0f3c 2d98 9f3c
00000360: f755 d3bc 40a7 f7bc 048a 7e3d 4952 253d
00000370: 82bd 3a3d c8c8 d4b9 f9d3 01bd 26ca 593d
00000380: 3398 5abd 88ab d23c b0cb 903c 98eb 593d
00000390: 3918 6e3d 0b81 5bbc 5c14 a4bc 1ffb a23a
000003a0: 811e 59bd 0b98 88bc 9252 573d 6fb6 4abb
000003b0: 30c4 883c 575b e23b c821 2cbc b709 2abd
000003c0: 965f 403d 717a 163d 7978 153c 6b3e df3c
000003d0: b18f 30bd 4b91 903c 909b 503d 21d6 293d
000003e0: df02 57bc a7cb 0bbc 2238 fa3c 5462 723d
000003f0: 9c0e 42bd ad04 e93c 3ab5 45bd 8562 6ebc
0.0039928406 0.011131479 -0.049823012 -0.016399093 0.019929176 -0.003191901 0.02398849 -0.029962914
0.024906563 0.013725618 0.005744647 -0.008560675 -0.04906065 -0.06134414 0.020073364 0.014328443
0.040928394 0.02822002 -0.03858375 0.026016016 0.021945124 0.051568493 0.017231496 -0.015439619
-0.055295512 -0.04578216 0.02645961 -0.010990436 -0.058702067 0.056166384 0.045811296 0.05732871
0.051125776 -0.03331582 -0.056023587 -0.053938814 0.024222512 0.03462461 -0.04135573 0.05058364
0.047962476 0.022833277 -0.0157509 -0.024455981 -0.05240026 0.0029102599 0.03353127 0.0059495363
0.00031911733 -0.009622232 -0.060922317 -0.056535725 -0.008986052 -0.027993048 0.059215438 0.03698254
-0.05009924 0.029770881 -0.015348942 0.003079409 -0.0350142 0.051587787 0.047165155 0.016563717
-0.021716354 -0.0006462243 -0.017517153 -0.0071387454 -0.020289512 -0.011189235 -0.022017948 0.038483556
0.043798517 -0.061772116 -0.018854298 0.008968865 -0.053147674 0.02583408 0.0617779 -0.016743172
-0.011766489 0.03491886 0.025968142 -0.0005115695 0.024114916 -0.0432064 -0.00311757 -0.048634253
-0.049642473 -0.035534356 -0.021093752 0.02180223 -0.06124585 -0.045089405 -0.002952333 0.046143
-0.03227399 -0.003856129 -0.057367556 -0.008232523 -0.03388697 0.011068925 0.05246564 0.022475613
0.05404537 -0.008955428 0.044309214 -0.0023444202 0.010324114 -0.020239687 -0.02437769 0.021988826
-0.014576937 -0.028490001 0.044161323 -0.038098898 -0.011970384 -0.037090197 0.041102123 -0.0255336
0.029931502 0.048210688 0.039365716 -0.015327389 -0.030869734 0.0032934707 0.031490114 -0.01758987
-0.03470506 0.053287454 -0.039453104 -0.029400004 0.008349098 -0.020974273 0.02247923 -0.018404754
0.037174866 -0.004803775 -0.030802807 -0.016505852 0.04096805 0.044760387 0.04107995 0.03659016
-0.051024348 -0.02197311 0.055416573 0.0412525 -0.010261599 -0.05980196 0.030060349 0.044815533
0.006269417 -0.05053506 0.002485575 0.02518609 0.03811892 0.05791515 0.020552278 -0.012875473
0.030114478 0.056211174 0.053231098 -0.035421837 -0.044664785 0.011291873 0.020181188 0.020935697
-0.048802245 -0.0064367377 -0.019012004 0.041655235 -0.035700332 -0.006731645 -0.049063817 -0.017221175
0.0011096206 -0.0058434946 0.005161838 -0.03257329 -0.052736193 -0.005426927 0.054701738 0.05398373
-0.04467047 -0.031977825 -0.002528329 0.023266913 -0.041891944 0.018622208 0.031466912 0.055767376
-0.006171613 0.055940293 0.019572878 0.06106987 -0.0091183 -0.013023079 -0.00568892 -0.03432513
0.027221557 0.029641107 0.059029102 -0.011947014 0.044936456 0.008900302 0.017378926 -0.013602595
-0.029038459 0.03435872 -0.040276606 0.013990817 -0.011786217 0.05913741 0.008749379 0.019481743
-0.025797827 -0.030231118 0.06214334 0.040361676 0.045590885 -0.00040585385 -0.031696294 0.0531713
-0.053367805 0.025716558 0.01767525 0.053203195 0.05812857 -0.013397465 -0.02002924 0.0012434459
-0.053007606 -0.016674062 0.05256898 -0.0030931493 0.016695112 0.006907861 -0.010506101 -0.04151317
0.046966158 0.036737863 0.009122961 0.027251443 -0.043105785 0.017647406 0.050929606 0.041463975
-0.013123243 -0.008532441 0.030544344 0.059175804 -0.047377214 0.028444612 -0.048268534 -0.014549856

layer3.bias f4 [256]
00000000: aef0 52bd 09ea e4bc e975 ba3c 3a36 8dbc
00000010: f358 5d3b caca 113d 2024 1ebd 9d1d 6cbd
00000020: f1a0 64bc 969f 4a3d f422 5ebd f130 623d
00000030: d8e3 003d ad6a f33b 0aa9 25bc 5132 edbb
00000040: 0fad 91bb 1de5 d53c e995 283d 21c7 393c
00000050: 013a d6bb 9c76 8c3b 0fbc 803d d593 693d
00000060: f214 643d 8438 64bc c56e 4f3d 5c09 38bd
00000070: 2358 3b3d 1680 5d3d a669 15bd 50ab d73c
00000080: 4c8a 4bbd 1983 e8bc 5865 3abc 48c0 bcbc
00000090: f722 82bc 61e8 8f3c ae4e 553d f7a5 a13c
000000a0: ce52 243d 9780 cd3c 1958 c7bc a2fe b8bc
000000b0: 60db 2b3d fac7 6fbb dcbc 6fbd 7047 babc
000000c0: 1069 293d fb52 38bc 3fc9 76bc 28bb 50bd
000000d0: 907a 0e3d 6eee 073c ae0a 8d3c c40e 6fbd
000000e0: 3ae8 7ebd 5242 44bd 7071 ab3b 541e 813d
000000f0: a348 e03c 4d5c 1ebd b5f3 813d 788e b6bc
00000100: 9192 723d 5382 4ebd f61d 7bbd b8fa c83c
00000110: 7801 efbc 4974 0c3d e44f 783d 31e1 f93c
00000120: c3be 0e3d 1b80 29bc 1e2c 2cbd ee04 12bd
00000130: c347 c33c afad 313d cbce 75bd 4e36 b03c
00000140: 6192 d3bc 3b20 0fbd 3dca 3dbb b838 2a3d
00000150: 2228 a53c 8304 003d 0bdc 11bd 2a33 c33c
00000160: 6b5e 293d 3d3c d63c 0369 573c ed93 61bd
00000170: 8987 113d 973f 3ebd b992 70bc 8be1 1d3b
00000180: c08a 183d 4254 a8bb 8fb5 c8bc f8ae b93b
00000190: c6fc d6bc 940e e8bc 31bc 153d 7aeb 303d
000001a0: 0fc6 68bd 754f e73b 070d c5bc c5c5 d6bc
000001b0: 43b1 623d 455f 6cbd cbbd 183d 6530 d93c
000001c0: f3ee 553d 0c2e 723d 8172 5e3d 3ae2 4abc
000001d0: a3b3 1e3d 0d1b 0fbb 7f5a bcba 85ee 2bbd
000001e0: c9be 35bd d9c0 553d 4ae7 09bd 5f09 28bd
000001f0: a357 23bd b3d3 e4bc 3325 fa3c acee 97bb
00000200: 4299 0dbd d3a1 9c3c e475 823d 24c7 b3bc
00000210: 5504 66bb 3443 c9ba ab4f 05bd edbd 6f3d
00000220: 6409 74bc 2950 43bd e0cc c7bc 2963 253c
00000230: 8156 693c 1d16 f7bc eced 5abc a56b 063d
00000240: 8a14 b6ba d2a5 55bd aa5f 3b3d c7f7 a73c
00000250: b6fb 5e3c 4be8 e3bc 552d d5bc 20e5 c7bc
00000260: de0e 823d 1bf0 6f3d 5c03 3bbd 3e9b 333d
00000270: 49f2 813c f341 223d e59c f3bc 479f a53c
00000280: 8837 8f3c 7068 253d 7650 883c 3eab 63bc
00000290: e0bd 2b3c 678f 0a3d 73fe 0dbd c60b eebc
000002a0: d610 6bbd 98e8 16bb d498 103d a4f0 e03c
000002b0: 0da8 4f3c b7ac 773d aece de3c 159e 97bc
000002c0: 06ca 43bd 2ff3 4a3d d73c 75bd 175e ce3c
000002d0: 9ddd 00bd fe08 31bd c31a f4bc b6e4 383d
000002e0: d3db db3c 2810 67bd ba92 5a3d 0ba1 c33c
000002f0: c4a3 083d 231e 4a3d b739 3fbd c634 113d
00000300: 4d63 af3b e82f 83bc 5e97 f63c 2777 7fbd
00000310: aee0 29bd cb22 8dbc 8409 6b3d 7e49 0dbd
00000320: b2e1 4ebb 620a 09bd 7dfe 1f3d f974 013d
00000330: 544a cabc 5ed3 bc3c bc7b f23c 7ca5 c0bb
00000340: da54 8f3c eb8a d6bc 7afe 34bd 3779 433d
00000350: e5e5 21bd 0fd8 813d 6993 633c 8373 6fbd
00000360: 2cff 133d bdc6 30bd 9669 62bd a054 a6bc
00000370: 8111 25bd 6017 723b ddfe 5dbc f8d6 28bd
00000380: d628 693d 3714 4cbd 7ae7 c73c 90a6 64bd
00000390: 37fe 71bd 75c9 76bc ae2d fe3c 3137 f83c
000003a0: 4057 6bbc 7f5b 463d 62a2 2e3c 308c 29bd
000003b0: 7efc b03c 6d57 64bd 4e10 01bd 647c 8fbc
000003c0: 8b59 44bd 77fc e0bc b56b a03b df04 0bbd
000003d0: c9da 393d 4507 0dbd b942 8ebc 820c 1e3c
000003e0: f19e f83c 268e 44bd f309 593d 8489 39bd
000003f0: 7fe9 23bd 2037 4abd 6b5f a43c ad3f 65bd
-0.05149906 -0.027943628 0.022761302 -0.017237771 0.0033774942 0.035593785 -0.03860867 -0.05764543
-0.013954387 0.0494686 -0.054232553 0.055222455 0.03146729 0.007428488 -0.010111103 -0.007238664
-0.004445679 0.026110226 0.04115859 0.01133898 -0.0065376763 0.0042866003 0.06285869 0.05702575
0.055684038 -0.01392949 0.050642747 -0.0449308 0.04573835 0.05407723 -0.036477707 0.026326805
-0.049692437 -0.028382825 -0.011376701 -0.023040906 -0.015885813 0.017566862 0.052076988 0.019732459
0.04011803 0.02508573 -0.024334 -0.022582356 0.04195726 -0.0036587701 -0.05852972 -0.022739142
0.04135996 -0.011250253 -0.015062629 -0.050959736 0.034784853 0.008296592 0.017217007 -0.05836369
-0.062233187 -0.04791481 0.0052320287 0.06304613 0.027378386 -0.038662244 0.063453116 -0.022284731
0.059221808 -0.050417256 -0.06130787 0.024533615 -0.029175505 0.034290586 0.060623065 0.030502887
0.034849893 -0.010345484 -0.04203426 -0.035649233 0.02383793 0.04337853 -0.060011666 0.02151027
-0.025826635 -0.034942847 -0.0028959655 0.041557997 0.020160738 0.031254303 -0.03561024 0.023828108
0.04134981 0.02615177 0.013147595 -0.055072714 0.035529647 -0.046447363 -0.014683419 0.0024090733
0.037241697 -0.0051369974 -0.024500636 0.00566661 -0.026243579 -0.028327264 0.036556426 0.043193318
-0.05682951 0.0070590326 -0.024054063 -0.02621735 0.05534483 -0.057708044 0.037290376 0.026512334
0.052229833 0.059125945 0.05430842 -0.012383038 0.038745534 -0.0021836192 -0.0014370232 -0.041975517
-0.0443714 0.052185867 -0.03366784 -0.041024562 -0.0398785 -0.027932977 0.030535316 -0.004636606
-0.034569986 0.019120133 0.06370142 -0.021945544 -0.0035097797 -0.0015355111 -0.03254668 0.058530737
-0.014894817 -0.04768387 -0.024389684 0.010094442 0.014241816 -0.030161912 -0.013362389 0.0328175
-0.0013891619 -0.05216009 0.04574553 0.020503892 0.013609817 -0.027820727 -0.026022593 -0.024401248
0.06350492 0.05857859 -0.0456575 0.043849222 0.0158626 0.039613675 -0.0297379 0.02021755
0.017482534 0.040382802 0.01663993 -0.013895808 0.010482281 0.033828165 -0.03466649 -0.029058348
-0.057389103 -0.002302682 0.035302 0.027458496 0.012674344 0.060467448 0.027198162 -0.018507997
-0.047800086 0.049548324 -0.059872475 0.02519135 -0.031461347 -0.043221466 -0.029797917 0.04513999
0.026838219 -0.056411892 0.053362586 0.023880502 0.033359304 0.049345147 -0.0466859 0.03545072
0.0053524137 -0.016014054 0.030101474 -0.062369492 -0.041474037 -0.017228505 0.05738212 -0.034493916
-0.003156763 -0.033457167 0.03906106 0.031605694 -0.024693646 0.023050006 0.029600017 -0.0058791023
0.017496515 -0.026189288 -0.044188 0.04772302 -0.039525885 0.06340038 0.013890126 -0.05845977
0.036132023 -0.04315828 -0.055276476 -0.020304024 -0.040299896 0.0036940202 -0.013549534 -0.041220635
0.05692371 -0.049823966 0.024402369 -0.05582291 -0.05908033 -0.01506268 0.031027641 0.030299755
-0.014364064 0.0484271 0.010658832 -0.04139346 0.021604773 -0.05574744 -0.03150969 -0.017515369
-0.047936957 -0.027464135 0.004895652 -0.033940192 0.045374665 -0.03443076 -0.0173658 0.009646537
0.030349227 -0.047987126 0.052988004 -0.04529716 -0.0400176 -0.049368978 0.02006503 -0.05596893

layer4.weight f4 [128, 256]
00000000: 812f 4a3d e3d7 d739 1d39 4b3c bf07 9dbc
00000010: 7dc5 78bd d438 13bd 56de 693d 2596 38bd
00000020: 830b 753a 3eb3 763c 34f6 05bd be0b e23c
00000030: ae1d 6d3d 901f 493d bd4b 2d3d 200c 433d
00000040: 6f0d 103c f9fb 3fbd 4c40 0f3d c10d 4e3d
00000050: 1f2c dc3a 60b1 a73c 175d 4c3d 30dc 353d
00000060: f40d 1e3d 696f 54bc 9066 f23b 557c 91bc
00000070: 8d9a 30bd 168d 75bd 8741 9b3c b7bd fbbc
00000080: 6a5d ba3c d7e3 633d d4f1 6dbc c516 76bd
00000090: 38ac 5abd fd58 2e3d 3d81 59bd 6898 21bd
000000a0: 1d6a b0bc c357 79bd 099e 81bd 98e4 15bc
000000b0: 1b09 cfbc 34c0 ce3c b3b4 71bd 2808 d13a
000000c0: b786 103d 8c9c 293d 0152 383d e4d6 d83c
000000d0: 66e6 12bd 6cfd 3c3d 6a91 603d 5c32 6e3d
000000e0: 9323 02bc 5af2 073c 9ff1 a93c 70ea 863c
000000f0: c682 cdbc 4b97 213d 9f1c ccbb 3fc9 4a3c
00000100: 0d71 b8bc 4799 64bd 41e6 8abb 188d 763d
00000110: 1caa 703d 6567 6abd 433e 3b3d 678a 483c
00000120: 3445 833b d166 05bc c0cb 49bd 347d 93bb
00000130: fa16 763d 3387 083d 3c5a 3fbd 88c4 22bc
00000140: 077d ba3c b174 1a3d 212c 513d da9e 6cbd
00000150: f79e b6bb 5644 60bd a0f7 80bc 9399 283d
00000160: 103f 29bd bf98 88bc 7126 3fbd 8ddc 093c
00000170: d45f 293d 638d acbb 0751 21bb 2232 6cbb
00000180: 0983 a93c d50a 7d3d 3be2 4a3c 91cc 623c
00000190: 0c04 c7bc 7789 2dbd ee63 34bd dc04 67bd
000001a0: 47e0 6a3c 8d59 e3bc e2a2 38bd 7415 0dbd
000001b0: c67c 1d3d b036 72bd b793 b0bc d12e 36bd
000001c0: e02b cf3c b9eb 293d c73e 6bbc 791b 183d
000001d0: 956d 3a3d b00a 48bd bd70 443d 60c2 4abd
000001e0: 6ea8 65bb 27f8 b23c 0ac2 b8bb 7e87 91bc
000001f0: 8bd9 d2bc 3349 46bc 8f64 513d a0f9 55bd
00000200: 3b1c c03c 08e1 0c3d f6cd 51bd 049c e8bc
00000210: 5f61 5fbd 59af 1cbd af65 473d 6858 5bbd
00000220: bdab 31bd b6de 20bd 24a7 743d f46e 343d
00000230: da9d 453d ffdb ddbb b354 b43c 4828 2bbd
00000240: c8e2 52bd b90b 763d 7f1a f4bc 5b92 a9b9
00000250: 5701 3dbd eca6 39bd 6495 203d 55a3 4cbd
00000260: 760f d03c 6c3b 6d3d 75a9 cebb c94f 273d
00000270: b356 47bc 8420 0b3d f4a1 3b3c b7c8 6ebd
00000280: 6ec9 af3c 5cf4 573d 2e3d 91bc 14d8 4b3d
00000290: 8f6f 2c3d 12e5 433d 8e87 0abd b924 623d
000002a0: 04cb 6f3c bebb eebc 9c2a e83b c6a6 e3bc
000002b0: 8267 d0b9 f9e3 e03c 2620 cc3c e982 343d
000002c0: 7443 49bd 052e 06bd 4779 cfbc 1dec 3e3d
000002d0: a28b 543d b018 ce3a 05b2 3dbd d229 433c
000002e0: 3cf4 2b3d c8df 77bd 6092 adbc ce73 0bbd
000002f0: 468c e5bb d396 dcbc 4350 40bc b7c3 4abd
00000300: 7872 86bc aad3 28bd 7b9f 7f3c c834 033d
00000310: 3fee 513d 1379 4bbd 8584 a6bb ad98 6a3d
00000320: 5833 643d 5fd8 823c 5a99 00bd c20a 2dbb
00000330: 10fc 3dbc 5740 01bd 2664 043d 0784 b0bc
00000340: 883a 09bd 8eea 8a3c c1c5 2abd 81ac 99bb
00000350: df52 77bd d859 683d 940d cebc dac4 34bd
00000360: 9c36 cdb9 e917 683d a0be 123d c434 983a
00000370: 29fc dc3c 926e 2c3d 5ed0 21bd 0dcb bebc
00000380: 9246 fa3c d3a1 7a3d e480 6c3d 0641 5b3c
00000390: c912 583d c0f7 e2bc 3d16 6a3c fd08 b03c
000003a0: 3800 47bd 2e2e 0d3d f3c7 6dbc 3e00 b6bc
000003b0: bc0c b1bc 98be 663d 35e3 d7bb 3401 223d
000003c0: 6c8e 21bd f38d 683d 3a31 3fbd 5909 3b3c
000003d0: c0a6 b23c 7b0e 42bd 15e4 6f3d 60fb 68bd
000003e0: 826f 243c c855 363d 9572 b03c 882d 2d3d
000003f0: 6675 643d a73b 6e3c 7490 673d 0d10 0e3c
0.04936171 0.00041168844 0.012403754 -0.019168733 -0.060735215 -0.035942867 0.0570968 -0.045065064
0.00093477237 0.015057383 -0.0327055 0.02759349 0.057889633 0.049102366 0.042308558 0.047618985
0.008792265 -0.04687116 0.034973428 0.050306085 0.0016797817 0.020470321 0.049893465 0.04439944
0.038587525 -0.012966015 0.0073974803 -0.017759481 -0.04311614 -0.059949003 0.018952144 -0.030730112
0.022749621 0.055637207 -0.014522988 -0.06008031 -0.053386897 0.042565335 -0.053101767 -0.039451987
-0.021534974 -0.06087471 -0.06328971 -0.009148739 -0.025272897 0.025238134 -0.05901022 0.0015947865
0.035284724 0.04140906 0.04500008 0.026469655 -0.035864256 0.04614012 0.054826178 0.058153495
-0.007943052 0.008297527 0.020745097 0.01646921 -0.025086772 0.039450925 -0.006228998 0.012377082
-0.022514844 -0.05581024 -0.004238874 0.06019315 0.05875598 -0.05722751 0.045713674 0.012240029
0.0040060524 -0.008142189 -0.049266577 -0.0045010094 0.060080506 0.03333206 -0.046716914 -0.009934552
0.022764696 0.03770894 0.051067475 -0.05776868 -0.0055731493 -0.05475267 -0.015743077 0.041162085
-0.041319907 -0.016674398 -0.04666752 0.0084144 0.041351154 -0.005265878 -0.0024614946 -0.0036040624
0.020692365 0.06177791 0.012383039 0.013842718 -0.024293922 -0.042367425 -0.044040613 -0.05640112
0.014335698 -0.027752662 -0.045077212 -0.034444287 0.03844907 -0.059134185 -0.02155481 -0.04447824
0.025289476 0.04148457 -0.014358229 0.037135575 0.04551466 -0.048838317 0.047959078 -0.049501777
-0.003504302 0.021846844 -0.0056383656 -0.017764803 -0.025738498 -0.012102413 0.05112129 -0.052240014
0.023450961 0.034394294 -0.05122181 -0.028394707 -0.05453622 -0.038253162 0.048680957 -0.053551108
-0.043376673 -0.039274894 0.05972971 0.044051126 0.048246242 -0.0067706103 0.022013044 -0.041786462
-0.051485807 0.060069773 -0.02979779 -0.00032343235 -0.046143856 -0.045325205 0.03920497 -0.049960453
0.025397997 0.057917997 -0.006306822 0.040847573 -0.012166667 0.033966556 0.011452187 -0.058296885
0.021458354 0.052723274 -0.017729368 0.049766615 0.042098578 0.04782588 -0.03382068 0.055210803
0.014635805 -0.029142257 0.0070851576 -0.027789485 -0.0003974997 0.027452456 0.024917673 0.04407016
-0.049136594 -0.03275873 -0.025326384 0.046611894 0.051890977 0.001572391 -0.04631235 0.011911826
0.041980967 -0.06051615 -0.021187961 -0.034045987 -0.0070052473 -0.026927387 -0.011737886 -0.049503054
-0.016412005 -0.041217484 0.015601988 0.032032758 0.0512526 -0.049676012 -0.0050817155 0.05727451
0.055713028 0.015972314 -0.031396247 -0.0026404117 -0.011595741 -0.0315555 0.03232207 -0.02154733
-0.033503085 0.016957548 -0.0416925 -0.0046897535 -0.060381766 0.056726307 -0.025152959 -0.044133045
-0.00039141334 0.056663428 0.035826325 0.0011612405 0.026975708 0.042097636 -0.039505355 -0.023290182
0.030551229 0.061189484 0.057740107 0.013382202 0.05275229 -0.027706027 0.014287529 0.021488661
-0.048584193 0.03446787 -0.014513004 -0.022216912 -0.021612518 0.056334108 -0.0065883645 0.03955193
-0.039442465 0.056776 -0.046677805 0.011415803 0.021808028 -0.04737709 0.058567125 -0.056880355
0.010036351 0.0445154 0.021539012 0.04227975 0.055776022 0.014540589 0.056534246 0.008670819

layer4.bias f4 [128]
00000000: 5d11 3d3d 5974 7bbd 0a97 14bd 59ab 453d
00000010: 7109 49bd 9a33 12bd 7d9a 243d 24a5 023b
00000020: 4157 053c fe34 ddbc fac4 54bb d931 613d
00000030: d9cf d0bb ee55 11bc 4bf2 e73a 69ba 523c
00000040: 89db 333d 5bd7 343d 7bd5 a03c be26 703d
00000050: a6ee cabc 3845 a1bc 2594 163d cd75 2fbd
00000060: 01d2 c5bc f690 2cbd 1fa9 e43c e81d 55bd
00000070: 0565 693d 3e3b 3f3d 2dd4 303d 2aa5 74bc
00000080: dd5f f4bc 44e6 5f3d ccf6 243d c83b 0ebd
00000090: 72a3 3dbc 45e6 92bc ce02 75bb a4f8 503d
000000a0: dda0 2cbd 4574 783b ef16 4d3c f134 363d
000000b0: e33e 293d 1f37 4f3d 1592 453d b4a6 28bd
000000c0: 0235 61bd 2db8 e73c 29d9 fa3c cf3d 7fbc
000000d0: c2ad d83c 817a c13c 06e4 373c 877d 4dbd
000000e0: 690b 0ebd 4559 673d 606f 52bd 3e90 dfbc
000000f0: ae5e e5bc 60d2 3cbd 43d1 173d 7c43 27bd
00000100: 2c76 34bd ef90 433d 3d01 52bd f765 723d
00000110: ca25 4fbd 68d9 d73b 0020 1ebd 54ad 583d
00000120: ebf3 e33a e0da b6bc e52e 24bd 3c3f 91bc
00000130: 0f9a ed3c f242 08bd 9d26 20bc c55e d63c
00000140: 754d 613c f6ea 68bb 12e1 f8bc 6bf7 bb3c
00000150: 9d82 36bc 3f88 49bc c2d0 eebc 5f58 67bd
00000160: 7f4c 1cba f684 09bd 290a 263d a629 bbbb
00000170: bf8b 133c 28d3 9f39 f24c 1f3d dd5b 6bbd
00000180: 0089 4fba 5a9f f4bb 9d07 bbbc 4a5b 75bb
00000190: deff 933c b6e6 14bc 40d6 8fbc 5156 3d3c
000001a0: 9f5e 163d 39d3 16bc 18f5 46bd 2f71 24bd
000001b0: cc35 743d e452 b6bc 9acc 17bc 3b0f 543d
000001c0: 94dc 173d 4a9e c23c ebc5 a2bc 911a 61bb
000001d0: 2d20 6e3c f07e 01bd 8820 c1bc e5ea 38bd
000001e0: 698f 253d 6050 63bd f7cd 3d3d e4ae 05bd
000001f0: e2e8 b8bb 0392 703d f077 743d bd93 cc3c
0.046159137 -0.061390255 -0.036276855 0.048259113 -0.04908127 -0.035693742 0.040186394 0.0019934857
0.008138479 -0.027002808 -0.003246604 0.05497918 -0.0063724336 -0.008870585 0.001769611 0.012861826
0.043910537 0.04415069 0.019633045 0.058630697 -0.024772 -0.019686326 0.036762375 -0.042836953
-0.02414799 -0.042130433 0.027912674 -0.052030474 0.056981105 0.046687357 0.043171097 -0.014931956
-0.029830867 0.054662958 0.040274426 -0.03472498 -0.011574613 -0.017932067 -0.0037385705 0.051018372
-0.0421456 0.00379111 0.012517675 0.044484083 0.04131974 0.050589677 0.048235018 -0.041174605
-0.054982193 0.028286064 0.030621128 -0.015578701 0.026450042 0.023617985 0.011223799 -0.05016854
-0.03467885 0.05648162 -0.051375747 -0.02729046 -0.027999248 -0.046099067 0.037064802 -0.040835842
-0.04405801 0.04774564 -0.051270712 0.059179273 -0.050573148 0.006587196 -0.038604736 0.052899674
0.0017391419 -0.022321165 -0.040083785 -0.017730348 0.029004125 -0.03326697 -0.009774831 0.026168237
0.013751377 -0.0035540438 -0.03038076 0.022945127 -0.011139539 -0.01230055 -0.029152278 -0.05648076
-0.00059623265 -0.033574067 0.040537033 -0.005711752 0.009005486 0.00030484167 0.03889174 -0.057460655
-0.0007916838 -0.0074652852 -0.022830779 -0.0037438446 0.018066343 -0.009088209 -0.017558217 0.011556224
0.03671133 -0.009205633 -0.048573583 -0.040147003 0.059621617 -0.022256322 -0.009265089 0.051772337
0.037075594 0.023757119 -0.019869765 -0.003434811 0.0145340385 -0.031615198 -0.023575082 -0.045145888
0.04041997 -0.055496573 0.046339 -0.03263749 -0.005642996 0.058732998 0.059684694 0.02497279

layer5.weight f4 [1, 128]
00000000: 395e 83bd ad6f 8a3d 3e56 b43c 9056 18bd
00000010: 8beb 80bd 902a 703d 8375 f53c 6706 013d
00000020: bb3d 19bd 818d 9dbd 368c 7b3d 2aaa 65bd
00000030: 1b50 b83a dc5e 88bd 9d5d 4dbd 16bc d7bc
00000040: 4460 1fbd 15e0 0dbd 4d00 083c 2df6 acbc
00000050: 1047 ddbc 8401 993d fb6c 563d ffe1 bc3c
00000060: 626d c23c b0f9 ffba 508f 843c 55b9 f53c
00000070: ba27 513d 8c58 9bbd b5d1 94bd 9291 08bd
00000080: f106 c33c 3fe8 8dbd 6693 7ebd 81e4 74bd
00000090: cbd5 a1bd c158 603d ea7d a0bc c586 783d
000000a0: 4849 a73d 6430 aa3d dc3b 37bd 5e35 b8bc
000000b0: b033 0cbc 4db8 66bd 74f1 d8bc 64db ad3c
000000c0: e8ed 43bd 2701 54bc 08d1 ff3b a33a 093d
000000d0: b8cb 873c 29f9 573d d7b7 443b 6bc2 29bc
000000e0: afee 943d 9cdb 6bbd f352 af3d f8f0 983d
000000f0: 3a39 61bd e519 a63d bf23 a53d 47ad 8d3d
00000100: d157 67bb 8336 68bd 4f40 9abd 1a1f 2a3c
00000110: 1fc3 83bd 13f4 9abd 76d2 25bc 463e b1bd
00000120: d52a b03c b4aa e8bc 3bd8 b43d 3df7 293d
00000130: 6239 8abd 0028 8f3d 081e cbbc 21f8 a3bd
00000140: a2ac 5b3c 9ffc f13c d527 1c3c cf23 103d
00000150: 6af6 a63d f15f 9e3d e0ed 063d e5b8 4b3d
00000160: edcb 99bd 2634 1e3d ee0d 973d ea39 21bd
00000170: e871 24bc c443 b13c 22b8 8a3d 417a c3bc
00000180: 92f5 94bb 9169 3bbd 18cd 9b3d dda9 b6bc
00000190: 1c0d e73c 1cbb 903d dd75 e1bc 182b 9bbb
000001a0: 7a4f 61bc 2ecf 7abd cfa2 1f3b 585a cebc
000001b0: 3cea 693d 5999 6b3d b7a5 a33d b333 09bd
000001c0: d30f 383c d70f 5abc c85f bbbc 7201 b63d
000001d0: 078f 933d 83cf d33c 312b 383d 0a6f 31bb
000001e0: 312d 01bd 93b9 8a3d 750b ae3d 5df2 833d
000001f0: 7a52 4bbd 5ae5 a8bd bae7 f03c ef75 cfbb
-0.06414456 0.06759582 0.02201378 -0.037191927 -0.06294926 0.05863434 0.02996326 0.031500246
-0.037412386 -0.07693005 0.061413012 -0.056070484 0.0014061959 -0.06658718 -0.050138105 -0.026334804
-0.038910165 -0.03463753 0.008300853 -0.02111348 -0.027011424 0.07470992 0.052350026 0.023056982
0.023733798 -0.0019529369 0.016181618 0.0299956 0.051063277 -0.07585248 -0.07266561 -0.03334195
0.02380702 -0.06929063 -0.06215229 -0.05978823 -0.07902106 0.054772142 -0.01959129 0.0606754
0.08168274 0.08310011 -0.04473482 -0.022486385 -0.008557245 -0.056328107 -0.026482321 0.021222778
-0.047834307 -0.012939728 0.007806901 0.033503186 0.016576633 0.052727852 0.0030016804 -0.010361294
0.07272088 -0.057582483 0.08560743 0.07467836 -0.054986216 0.08110408 0.08063459 0.06917816
-0.0035300145 -0.05669261 -0.07531797 0.010383392 -0.06433701 -0.07566085 -0.010120979 -0.08654456
0.021504799 -0.02840171 0.08830305 0.04149555 -0.06749226 0.06990051 -0.024794593 -0.08006311
0.013407858 0.029539404 0.009530981 0.0351904 0.081524685 0.07733143 0.0329417 0.049736876
-0.07509599 0.03862395 0.07375704 -0.03936187 -0.010036923 0.021638758 0.06773402 -0.023862006
-0.004545876 -0.045754973 0.07607478 -0.022297794 0.028204493 0.07066938 -0.027522022 -0.004735362
-0.013751859 -0.06123274 0.0024358516 -0.025189564 0.05710815 0.05751929 0.07990592 -0.03349657
0.011234242 -0.013309441 -0.02287282 0.088869944 0.07205015 0.025855785 0.044963066 -0.002707424
-0.03153724 0.06773677 0.08498279 0.064427115 -0.049639203 -0.0824687 0.02940737 -0.0063311975
