PPO/ppo_actor.pth (torch, 549599 bytes, 10 tensors)

layer1.weight f4 [128, 29]
0.22557928 0.16407825 -0.17156833 -0.1201888 0.04748457 0.1266748 -0.08352391 -0.035135213
-0.19002365 -0.23309813 0.03800284 -0.06281541 0.06909433 -0.21724927 -0.084833145 0.08245564
-0.051837955 0.026699672 -0.04112066 0.1697302 0.15340336 -0.11460108 0.020324178 0.018258894
0.16526458 -0.16531266 0.104626134 0.18187973 0.10777333 -0.09100333 0.1357368 0.14489901
-0.0310297 0.14201033 0.18428041 0.15879141 -0.022270089 0.056728072 0.073589936 -0.1463897
-0.12437684 -0.13091715 -0.13617006 -0.015240917 -0.057867654 -0.124906376 0.1399771 0.09632644
-0.04795131 0.09867665 0.11290336 0.13061978 0.17743418 0.13109772 -0.13263024 0.11643199
-0.057826232 -0.16281256 0.13376789 -0.14195031 -0.08343334 0.027518073 0.052359063 -0.20176499
-0.17126334 0.0244964 0.047507845 -0.06561243 -0.104382485 0.13114384 -0.16013297 0.0576867
-0.11017932 -0.005581032 -0.0436508 -0.17421082 0.13848625 -0.01736123 0.02303965 -0.10636494
0.14346194 0.05314081 -0.07224564 0.008112342 -0.12081437 0.032012153 -0.11115445 -0.037918143
0.13022217 0.034716815 -0.08391204 -0.017230142 0.013093474 0.11341363 0.19164568 -0.18964225
0.070059136 0.024855433 -0.040904332 0.019461188 -0.022896687 0.042424504 -0.14841586 0.05771632
0.10727673 -0.0018117271 -0.019878205 -0.061000664 -0.021273736 -0.12640588 0.09590535 -0.04318289
-0.17888893 0.03160697 0.14937544 0.106035486 0.09032517 -0.06329085 0.13082808 0.009619643
0.13404462 -0.122513585 0.10218405 0.013753767 0.09697896 -0.2920148 0.171702 0.09707801
-0.0012018672 -0.011898496 -0.12118486 -0.117148206 0.16700523 0.17646274 0.018768417 -0.04055774
-0.1949963 -0.076433636 -0.04444778 -0.11267588 -0.15941456 -0.01321832 0.058840834 0.12427437
0.04979676 0.08208569 0.106406495 -0.019174436 0.19923736 -0.20731738 0.14203316 -0.14043283
-0.044398744 0.15022281 0.25903544 0.07517971 -0.01831712 0.015175907 -0.10588709 0.12973672
0.03198205 0.13580859 0.074707344 -0.069551066 0.022948919 -0.14236802 -0.14688002 -0.13081276
0.10757673 0.08564294 -0.0062984866 0.0814321 0.06840087 -0.14471668 0.023098176 0.15269661
0.053711813 -0.043903388 -0.023600673 -0.10108816 -0.0010315705 0.25703004 0.0911223 -0.24015683
-0.010248159 0.027491428 0.16572659 0.1357291 -0.06270344 0.08192514 -0.13160138 0.17780653
-0.051362637 0.06167066 -0.16472164 -0.009812713 -0.1294598 -0.005196857 -0.13350086 0.13303737
-0.06863234 -0.018822862 -0.013396934 0.14212741 0.096380636 0.14240146 0.2033746 0.10818929
0.0074626026 0.12945576 0.010445527 -0.07108939 -0.3195783 -0.08410793 0.011975003 -0.03158599
-0.24808747 -0.035092607 -0.123135716 0.10197294 0.13762383 -0.04891037 -0.038528226 -0.11464225
-0.076565854 -0.04980215 0.026898323 -0.072506994 -0.07923353 -0.030965442 -0.12714867 -0.033370126
-0.17657244 -0.10382465 -0.014937585 -0.1284159 0.09286963 0.08690925 0.16346861 0.09870211
-0.0743891 -0.0643394 0.15873697 -0.065397084 0.16263486 0.14841278 -0.046699952 0.12793927
-0.12013423 -0.10975794 0.23336573 -0.2166443 -0.10746667 0.10033419 -0.041417487 -0.1156483
00000000: 41fe 663e 2104 283e 9caf 2fbe 8c25 f6bd
00000010: 2e7f 423d 0ab7 013e 950e abbd f1e9 0fbd
00000020: 8f95 42be 47b1 6ebe dea8 1b3d 5ea5 80bd
00000030: 5481 8d3d 9876 5ebe 00bd adbd 81de a83d
00000040: 0954 54bd 45b9 da3c 236e 28bd c1cd 2d3e
00000050: c515 1d3e f9b3 eabd e47e a63c ad93 953c
00000060: 1e3b 293e b947 29be 3a46 d63d ae3e 3a3e
00000070: 43b8 dc3d f45f babd 96fe 0a3e 6860 143e
00000080: ff31 febc 286b 113e 01b4 3c3e 379a 223e
00000090: c36f b6bc b25b 683d 52b6 963d 2ee7 15be
000000a0: 49b9 febd 250f 06be 2a70 0bbe 0ab5 79bc
000000b0: a206 6dbd eace ffbd 2856 0f3e cc46 c53d
000000c0: 9868 44bd fc16 ca3d e039 e73d 31c1 053e
000000d0: 4eb1 353e 7b3e 063e 39d0 07be e573 ee3d
000000e0: 33db 6cbd 56b8 26be 73fa 083e 6c5b 11be
000000f0: 19df aabd 956d e13c 7576 563d 7b9b 4ebe
00000100: a85f 2fbe adac c83c 9697 423d cf5f 86bd
00000110: 7cc6 d5bd 924a 063e e6f9 23be e448 6c3d
00000120: b2a5 e1bd 17e1 b6bb 2ecb 32bd 5264 32be
00000130: 57cf 0d3e 2339 8ebc a6bd bc3c ddd5 d9bd
00000140: b0e7 123e 2eaa 593d 86f5 93bd a1e9 043c
00000150: 866d f7bd 2d1f 033d f2a4 e3bd 0e50 1bbd
00000160: f658 053e 3833 0e3d 13da abbd 3a26 8dbc
00000170: 0386 563c 6845 e83d c43e 443e 9431 42be
00000180: 2a7b 8f3d 9f9d cb3c 4d8b 27bd 126d 9f3c
00000190: d591 bbbc 51c5 2d3d 54fa 17be f367 6c3d
000001a0: e7b3 db3d 7977 edba 9ed7 a2bc d5db 79bd
000001b0: 4246 aebc 8b70 01be 066a c43d 8be0 30bd
000001c0: a92e 37be 4f76 013d e0f5 183e 2229 d93d
000001d0: 67fc b83d a29e 81bd ccf7 053e b59b 1d3c
000001e0: fe42 093e 67e8 fabd df45 d13d 7b57 613c
000001f0: e89c c63d f782 95be a6d2 2f3e d6d0 c63d
00000200: f987 9dba e9f1 42bc c52f f8bd 66eb efbd
00000210: 6b03 2b3e a6b2 343e 39c0 993c df1f 26bd
00000220: 1cad 47be 3d89 9cbd e00e 36bd 9dc2 e6bd
00000230: 923d 23be a791 58bc 1603 713d 9083 fe3d
00000240: b0f7 4b3d 8b1c a83d a6eb d93d b513 9dbc
00000250: e104 4c3e 024b 54be 2471 113e a0cd 0fbe
00000260: 75db 35bd 02d4 193e 4ba0 843e d2f7 993d
00000270: c90d 96bc 5ea4 783c 55db d8bd b4d9 043e
00000280: 9cff 023d 6811 0b3e 2a00 993d ca70 8ebd
00000290: 5fff bb3c ecc8 11be b767 16be c8f3 05be
000002a0: 3051 dc3d 9165 af3d 8963 cebb dfc5 a63d
000002b0: c115 8c3d 9c30 14be 6338 bd3c 805c 1c3e
000002c0: eb00 5c3d 0ad4 33bd 3356 c1bc 4f07 cfbd
000002d0: c335 87ba 7199 833e 549e ba3d aceb 75be
000002e0: e5e7 27bc b435 e13c 3bb4 293e 92fc 0a3e
000002f0: a96a 80bd 5ec8 a73d 83c2 06be ea12 363e
00000300: a161 52bd 609a 7c3d caac 28be 80c5 20bc
00000310: 1c91 04be 654a aabb 73b4 08be f33a 083e
00000320: 1d8f 8cbd 6732 9abc d07e 5bbc d989 113e
00000330: 3663 c53d b0d1 113e 6e41 503e 5992 dd3d
00000340: d988 f43b 0d90 043e b723 2b3c 5097 91bd
00000350: c49f a3be c740 acbd ce32 443c 5060 01bd
00000360: a40a 7ebe 44bd 0fbd 942e fcbd 30d7 d03d
00000370: 43ed 0c3e 3d56 48bd c6cf 1dbd 8ec9 eabd
00000380: 8fce 9cbd 57fd 4bbd df59 dc3c 8c7e 94bd
00000390: 3045 a2bd 3dab fdbc 4333 02be 1daf 08bd
000003a0: 68cf 34be 05a2 d4bd c6bc 74bc 757f 03be
000003b0: 6f32 be3d 7afd b13d 5164 273e 5524 ca3d
000003c0: 5059 98bd 60c4 83bd f28b 223e e8ee 85bd
000003d0: c189 263e 85f9 173e 7348 3fbd 8302 033e
000003e0: ef08 f6bd c5c8 e0bd 6df7 6e3e 01d8 5dbe
000003f0: 7c17 dcbd 037c cd3d 62a5 29bd 04d9 ecbd

layer1.bias f4 [128]
0.17125413 -0.1739154 0.16097936 -0.07290284 0.039034903 0.17520072 -0.08569488 -0.01896616
0.1643194 -0.11721187 -0.005987431 -0.070983805 -0.11008248 -0.054166686 0.1546965 -0.08053107
0.14374343 -0.0627026 0.044744816 0.10461607 0.07656682 -0.07111252 -0.06332668 0.18703245
0.11268078 -0.0070123086 0.1903791 -0.10466467 -0.017510809 0.17537232 0.019156385 0.13139546
0.16847599 0.022575121 0.074256144 0.11979909 0.14519683 0.015477365 0.08915686 0.08967106
-0.102619305 0.14980567 -0.10732616 -0.06549202 -0.0984322 -0.009378706 0.034509867 0.07593513
-0.13938826 0.010260072 0.0067776996 -0.023677114 0.019289698 -0.0037047293 0.13681844 0.11159112
-0.10397401 -0.039580137 -0.15926567 -0.076749444 -0.13095467 0.019021364 -0.031468768 0.13208584
0.04690467 -0.060426503 0.0752367 -0.15675783 0.072798714 -0.071950726 -0.0740062 0.054380205
0.019882923 -0.20056538 0.06424989 -0.09770627 -0.052514218 0.016224263 -0.0055756085 0.18256989
0.03125446 -0.0389279 0.16319124 -0.048190143 0.083410375 -0.0073327906 -0.09487828 -0.17603864
0.15146044 0.033309545 -0.019220613 -0.10266011 0.039597016 0.19664674 0.1489177 -0.07270947
0.19449344 -0.07512519 0.13031118 0.12622902 0.14423053 -0.13874245 -0.033683117 -0.14109991
-0.14102927 0.17074214 0.01610321 -0.007392736 0.11483576 -0.13435122 0.07952475 0.13664016
0.16823348 -0.105560035 -0.14705272 0.14151132 0.023611574 -0.055689357 -0.1345751 0.06195146
0.09641177 -0.17779225 -0.038454723 -0.09479652 -0.112752564 -0.057176266 -0.18180758 -0.19308007
00000000: 3e5d 2f3e e116 32be c6d7 243e 164e 95bd
00000010: 10e3 1f3d d167 333e cc80 afbd ec5e 9bbc
00000020: 5843 283e c70c f0bd 3632 c4bb f55f 91bd
00000030: ec72 e1bd e3dd 5dbd c268 1e3e 79ed a4bd
00000040: 7a31 133e 396a 80bd 5746 373d f340 d63d
00000050: 11cf 9c3d 71a3 91bd 6bb1 81bd 6f85 3f3e
00000060: 2ec5 e63d 82c7 e5bb bdf2 423e 6e5a d6bd
00000070: d472 8fbc cd94 333e daed 9c3c 888c 063e
00000080: f884 2c3e 76ef b83c 9b13 983d 3a59 f53d
00000090: 7aae 143e c694 7d3c df97 b63d 76a5 b73d
000000a0: 122a d2bd a866 193e d1cd dbbd ae20 86bd
000000b0: d296 c9bd 25a9 19bc 385a 0d3d e183 9b3d
000000c0: ccbb 0ebe dc19 283c 7717 de3b 82f6 c1bc
000000d0: 6e05 9e3c 0bcb 72bb 221a 0c3e e389 e43d
000000e0: 53f0 d4bd c81e 22bd 8a16 23be d02e 9dbd
000000f0: fb18 06be b1d2 9b3c 65e5 00bd 8341 073e
00000100: 1c1f 403d c881 77bd b315 9a3d 2085 20be
00000110: 7e17 953d e75a 93bd 9090 97bd c7bd 5e3d
00000120: 83e1 a23c 0361 4dbe 7295 833d 3a1a c8bd
00000130: 2619 57bd bfe8 843c 98b3 b6bb 9af3 3a3e
00000140: ad04 003d dd72 1fbd 9b1b 273e 0763 45bd
00000150: 0fd3 aa3d e847 f0bb 8b4f c2bd 7943 34be
00000160: 7218 1b3e 976f 083d 8c74 9dbc 773f d2bd
00000170: 7b30 223d c35d 493e e27d 183e b4e8 94bd
00000180: 4a29 473e 3cdb 99bd 4b70 053e 2e42 013e
00000190: 2bb1 133e 8012 0ebe 4ff7 09bd 7f7c 10be
000001a0: fa69 10be 07d7 2e3e e1ea 833c c43e f2bb
000001b0: 032f eb3d 5e93 09be dfdd a23d 66eb 0b3e
000001c0: 6645 2c3e dc2f d8bd fd94 16be 58e8 103e
000001d0: 0f6d c13c 861a 64bd 0ece 09be d0c0 7d3d
000001e0: 8973 c53d 2c0f 36be b382 1dbd ae24 c2bd
000001f0: d1ea e6bd a931 6abd c42b 3abe c8b6 45be

layer2.weight f4 [256, 128]
-0.09656976 -0.061529316 -0.022015823 -0.09087977 0.04812832 -0.02527683 -0.0007142784 -0.051084068
0.085360184 -0.04683006 -0.09388406 -0.071087115 0.08567767 -0.06069783 -0.022159167 -0.084502995
0.08184593 -0.008487944 0.022204602 -0.03249559 0.059513286 -0.022963436 -0.09613928 0.023840576
0.059361327 0.05501378 -0.10083411 -0.10185868 -0.009843954 0.04438962 -0.03672646 0.043242767
0.06207324 -0.06893138 0.008733449 -0.011384778 -0.017251274 0.043382674 0.085054785 -0.037123475
0.033714797 -0.045566678 0.056099642 0.04667477 0.05397237 -0.06439568 0.07243648 -0.013776035
-0.017587202 -0.04491764 -0.015939053 -0.034308206 0.05496715 0.08421898 0.008734381 0.003240925
0.069723316 -0.003221944 -0.015690792 -0.059575662 -0.058707155 -0.024039397 0.031385653 -0.029676542
0.09360708 0.00034246102 0.06165357 -0.09665064 0.019844294 -0.0728545 -0.047938924 -0.08254534
0.0006134557 0.060819462 -0.048015736 0.06514394 -0.1270309 -0.020660708 0.07632503 0.026772438
0.09714898 -0.0019634075 0.061174735 0.04718657 -0.031088475 -0.042027652 -0.0061376193 0.041713495
0.0897309 0.05314459 0.05288276 0.03425874 0.008030532 0.022010602 0.066312395 0.032422006
-0.025793169 0.04910678 0.025931416 -0.0075737997 0.072672546 0.033951264 -0.041646745 0.018972993
0.0036319583 -0.012871289 0.04895082 0.056149106 -0.025069036 0.055174578 0.03554892 0.058707986
0.016306005 -0.07973428 0.009030132 0.060481053 0.03550911 0.04852361 0.012307916 -0.07064445
-0.078712896 0.0019837506 -0.036985345 -0.05074249 -0.08097582 0.0804097 0.08834842 0.036864802
-0.042626984 -0.0016465671 -0.05445725 -0.03895758 -0.0480623 0.033839528 -0.019979537 -0.05281077
-0.02161641 0.048029415 -0.013616061 0.034692626 0.07553914 -0.067540616 -0.07524326 0.07153457
0.033717323 -0.050505254 -0.066420384 0.057576288 -0.07840232 0.031500686 -0.01069337 0.03379547
0.033543356 0.063179836 0.072240576 -0.055604476 0.09261698 0.042813383 0.04585091 0.03308268
0.030007219 0.026484767 -0.018060893 0.0036317713 0.05153335 0.014615162 0.010034894 0.016977541
-0.004342338 -0.12004747 0.006022959 0.046494205 0.0967764 0.06143057 -0.07380626 0.07473507
0.075397566 -0.019442115 -0.03686343 -0.04345318 -0.08709774 0.01657223 0.048592336 -0.07769553
0.07683377 0.10207895 0.08169335 0.10292862 0.04602568 -0.037112456 0.015999777 -0.06442143
-0.10242012 -0.034272593 -0.029634846 -0.0110743195 -0.06262402 0.062140398 -0.014882775 -0.021962551
-0.08853345 -0.066618696 -0.02658252 -0.07636146 -0.07700473 0.013903588 -0.02500377 -0.02734301
0.015386003 0.058464695 0.089662686 -0.05369133 -0.008210385 -0.05171972 -0.01276714 0.04870539
-0.0959393 -0.029639786 -0.031166475 0.05664895 0.09569848 0.062342603 -0.0708612 0.016918473
-0.0041139107 -0.006818792 0.05024119 -0.043295197 -0.05676856 -0.0036918097 -0.0016394123 0.0639757
-0.04717252 0.0076564047 0.04991134 0.04938554 0.06410087 -0.006979062 -0.025279585 0.054728903
0.028922379 -0.07675839 -0.089853846 -0.029778425 0.0015825996 -0.10420806 0.029446345 0.01175116
-0.10915336 -0.12667364 0.038799345 -0.008342444 -0.027837763 0.016974032 -0.043552686 -0.062119283
00000000: 5ec6 c5bd 2a06 7cbd 875a b4bc 2c1f babd
00000010: 3422 453d 5b11 cfbc 693e 3bba 873d 51bd
00000020: 52d1 ae3d e1d0 3fbd 4946 c0bd 1f96 91bd
00000030: c677 af3d 4a9e 78bd 2487 b5bc e80f adbd
00000040: d79e a73d 0411 0bbc 6de6 b53c 191a 05bd
00000050: 34c4 733d d11d bcbc ace4 c4bd 504d c33c
00000060: dd24 733d 2156 613d 1d82 cebd 499b d0bd
00000070: 8948 21bc e4d1 353d 7c6e 16bd 541f 313d
00000080: 8240 7e3d e52b 8dbd bd16 0f3c 3887 3abc
00000090: 8b52 8dbc 08b2 313d 3431 ae3d c90e 18bd
000000a0: 8718 0a3d 20a4 3abd bdc8 653d 0b2e 3f3d
000000b0: 2212 5d3d e2e1 83bd 9459 943d e1b4 61bc
000000c0: 0913 90bc 8ffb 37bd 9e92 82bc c386 0cbd
000000d0: 3c25 613d 007b ac3d a61a 0f3c b365 543b
000000e0: 19cb 8e3d 4027 53bb fa89 80bc 9c05 74bd
000000f0: ea76 70bd 45ee c4bc 3e8e 003d 381c f3bc
00000100: 12b5 bf3d 578c b339 7488 7c3d c5f0 c5bd
00000110: 8090 a23c bd34 95bd 9b5b 44bd 880d a9bd
00000120: 51d0 203a d41d 793d 26ac 44bd 306a 853d
00000130: 6314 02be a540 a9bc 4c50 9c3d df51 db3c
00000140: 0bf6 c63d 83ac 00bb 5c92 7a3d b446 413d
00000150: 42ad febc 3025 2cbd 151e c9bb c5db 2a3d
00000160: d6c4 b73d 24ae 593d 989b 583d e452 0c3d
00000170: 7e92 033c 944f b43c cbce 873d f0cc 043d
00000180: 324c d3bc 3124 493d 1f6e d43c a32d f8bb
00000190: 58d5 943d 7b10 0b3d c795 2abd 406d 9b3c
000001a0: 2606 6e3b 19e2 52bc a880 483d 9bfc 653d
000001b0: 945d cdbc bdfe 613d bf9b 113d c977 703d
000001c0: 2c94 853c ba4b a3bd 1ef3 133c fbba 773d
000001d0: 0072 113d b1c0 463d 24a7 493c 0aae 90bd
000001e0: 3a34 a1bd d001 023b f27d 17bd 5bd7 4fbd
000001f0: a7d6 a5bd d7ad a43d 04f0 b43d 8cff 163d
00000200: a299 2ebd a0d1 d7ba 910e 5fbd fc91 1fbd
00000210: f9dc 44bd 519b 0a3d 20ac a3bc 1b50 58bd
00000220: e614 b1bc 7eba 443d e615 5fbc db19 0e3d
00000230: 44b4 9a3d bc52 8abd 2319 9abd b780 923d
00000240: 2d1b 0a3d 99de 4ebd 6907 88bd 1dd5 6b3d
00000250: 6591 a0bd dd06 013d 3f33 2fbc 1e6d 0a3d
00000260: c264 093d 6e64 813d def2 933d 85c1 63bd
00000270: f9ad bd3d 165d 2f3d 2ace 3b3d b481 073d
00000280: b3d1 f53c 95f6 d83c 70f4 93bc 0303 6e3b
00000290: a214 533d 6f74 6f3c 6569 243c 7c14 8b3c
000002a0: 2c4a 8ebb 73db f5bd 3e5c c53b b570 3e3d
000002b0: b532 c63d 9f9e 7b3d bd27 97bd b30e 993d
000002c0: 0a6a 9a3d 1245 9fbc 1cfe 16bd f6fb 31bd
000002d0: 4d60 b2bd 7cc2 873c c208 473d d61e 9fbd
000002e0: 065b 9d3d c50e d13d d84e a73d 3ecc d23d
000002f0: 6c85 3c3d 3b03 18bd f711 833c 62ef 83bd
00000300: a4c1 d1bd 6b61 0cbd c7c4 f2bc 1071 35bc
00000310: 0641 80bd ee86 7e3d e2d6 73bc cfea b3bc
00000320: 0751 b5bd 626f 88bd 96c3 d9bc 6663 9cbd
00000330: a8b4 9dbd e0cb 633c b5d4 ccbc 73fe dfbc
00000340: 9315 7c3c ad78 6f3d 12a1 b73d 71eb 5bbd
00000350: da84 06bc 0fd8 53bd 442d 51bc 4e7f 473d
00000360: d37b c4bd 23cf f2bc d650 ffbc bb08 683d
00000370: 91fd c33d f55a 7f3d ad1f 91bd 9c98 8a3c
00000380: fccd 86bb 2c70 dfbb b5c9 4d3d 4e56 31bd
00000390: 2686 68bd 4af2 71bb 8ce1 d6ba b105 833d
000003a0: f937 41bd 94e2 fa3b d56f 4c3d 7e48 4a3d
000003b0: 5147 833d 9eb0 e4bb 2217 cfbc 6a2b 603d
000003c0: a0ee ec3c 8133 9dbd 4b05 b8bd e2f1 f3bc
000003d0: 3b6f cf3a 096b d5bd 7639 f13c f087 403c
000003e0: cc8b dfbd bcb6 01be 10ec 1e3d bfae 08bc
000003f0: 050c e4bc 200d 8b3c 4d64 32bd ca70 7ebd

layer2.bias f4 [256]
-0.022359649 -0.007122584 0.069544986 0.012184321 0.034652427 0.059731808 0.13715857 0.08857129
0.09576138 -0.018880388 0.06724974 -0.031718433 -0.038387515 0.07139778 0.066289105 -0.027477803
0.06668758 0.10289168 0.0047902167 0.0887398 0.072732694 -0.061748378 -0.031998422 -0.068788715
0.048892528 -0.06888809 -0.0300945 -0.071587645 -0.05698087 0.032179706 0.054521862 -0.035638973
0.04899559 0.08072485 0.083940886 0.006537948 -0.068777956 0.07306651 -0.068494946 0.08834422
-0.07631661 -0.013626628 0.06066533 0.07964304 -0.00819957 0.073553205 0.07153965 0.08466104
-0.06690946 0.069720715 -0.007861857 -0.06312223 0.042028636 -0.089434214 -0.03144301 -0.019862667
0.08633473 0.03872454 -0.075050905 -0.07319347 0.011796912 0.05806865 0.10436403 0.08063379
0.0733945 -0.017179169 0.09419466 -0.023948109 -0.056400422 -0.08411078 -0.0017573024 0.00883602
0.055411115 0.057573304 -0.09148522 0.041828968 -0.033849206 0.072261624 -0.08438948 -0.020043349
0.068513215 0.074819416 -0.063816436 -0.06115227 0.009373747 0.087991185 -0.051261086 -0.033837505
-0.0016253425 -0.02427431 0.061094817 -0.005708769 -0.029318001 0.049471904 -0.033513643 0.07213148
0.05338785 -0.052631494 0.03807572 -0.033219513 -0.040817324 -0.015208972 -0.047055796 -0.03966975
-0.067117825 -0.042754974 0.054166872 0.08446021 -0.047798686 -0.0120954765 -0.032361966 -0.11943097
-0.07427578 0.07640223 -0.040884934 -0.058826286 0.0029601813 -0.074463755 0.052006718 0.039897744
-0.004989422 0.08568537 0.035966054 -0.08476701 0.05939259 -0.033140827 -0.037177715 0.027948521
0.031178072 0.029733066 0.060132273 0.13555454 0.046334587 -0.04977582 0.057259656 0.0077390107
0.030977791 0.094845004 0.06106205 0.10713514 0.082043454 -0.052921165 -0.011044274 -0.02838038
-0.0072941137 -0.008072937 -0.024061646 0.11007341 0.022322884 0.002900556 -0.03446373 0.056434207
-0.0010479717 -0.015828399 0.10566539 -0.07313402 -0.06281358 -0.08040492 0.022323802 0.060390167
0.079328254 -0.06438161 -0.04679751 -0.029643796 0.027696636 0.0771819 0.08993522 0.05318461
-0.049165215 0.008144579 -0.022704208 0.0041895765 -0.042807315 0.09994715 -0.04755309 0.10924763
-0.08695263 0.020182842 0.018094873 0.11225022 -0.013418488 0.064029954 -0.06905261 -0.06095881
-0.07267258 -0.06901219 -0.0457574 0.01669478 -0.0380355 -0.054579742 0.049522407 -0.04131168
0.055019714 0.12549858 -0.077058874 -0.061923347 0.061471965 0.08313707 -0.01518306 -0.051355556
0.09095036 -0.012015927 0.005257426 -0.07216006 0.044029728 0.037226614 -0.03286519 -0.0068282187
-0.004864327 -0.01768081 -0.07416047 0.100385725 -0.04237324 -0.027752085 -0.096534714 -0.07607419
0.09721575 -0.045978356 -0.0038189166 0.048353493 -0.025484556 -0.092124745 0.012385797 0.065563925
0.0042863023 -0.07888775 -0.0037970224 0.010855324 -0.041521072 0.079097316 -0.051389612 0.03339251
-0.071369916 0.12300629 0.05744252 -0.011612718 0.07928793 0.04446386 -0.013357075 -0.09441798
-0.046456635 0.087671906 -0.03196747 0.051412314 0.00077734713 0.07300431 0.0033305292 0.023540037
-0.044003185 -0.026259534 0.030866882 -0.07521335 -0.028775195 0.041231573 -0.019312598 0.06764558
00000000: 952b b7bc 9164 e9bb 9a6d 8e3d bfa0 473c
00000010: b4ef 0d3d 57a9 743d 4c73 0c3e dd64 b53d
00000020: 8b1e c43d 0bab 9abc 3bba 893d 30eb 01bd
00000030: 3a3c 1dbd 0039 923d 95c2 873d 2119 e1bc
00000040: 7f93 883d e0b8 d23d 40f7 9c3b 36bd b53d
00000050: e1f4 943d deeb 7cbd c710 03bd 19e1 8cbd
00000060: 8843 483d 3315 8dbd be88 f6bc 8b9c 92bd
00000070: c664 69bd dece 033d 5152 5f3d 2cfa 11bd
00000080: 9aaf 483d 1253 a53d 33e9 ab3d 483c d63b
00000090: 75db 8cbd e5a3 953d 1447 8cbd d0ed b43d
000000a0: e24b 9cbd 3842 5fbc 367c 783d e41b a33d
000000b0: 7d57 06bc 10a3 963d 6183 923d c462 ad3d
000000c0: d407 89bd bcc9 8e3d 05cf 00bc 3a46 81bd
000000d0: 3826 2c3d 4929 b7bd 63ca 00bd 08b7 a2bc
000000e0: 43d0 b03d a09d 1e3d 4ab4 99bd 75e6 95bd
000000f0: d647 413c 65d9 6d3d cfbc d53d 5423 a53d
00000100: db4f 963d 54bb 8cbc 21e9 c03d d32e c4bc
00000110: 2104 67bd 4642 acbd 4955 e6ba f4c4 103c
00000120: c4f6 623d fcd1 6b3d 9a5c bbbd da54 2b3d
00000130: 77a5 0abd e7fd 933d 64d4 acbd f331 a4bc
00000140: a850 8c3d ec3a 993d 31b2 82bd cd7a 7abd
00000150: 5894 193c b934 b43d 25f7 51bd 3299 0abd
00000160: 7209 d5ba ebda c6bc 8f3e 7a3d a010 bbbb
00000170: 4e2c f0bc 0da3 4a3d 9a45 09bd abb9 933d
00000180: 38ad 5a3d 1f94 57bd 49f5 1b3d 2f11 08bd
00000190: 1130 27bd 0d2f 79bc 94bd 40bd bf7c 22bd
000001a0: 1275 89bd d71f 2fbd 15de 5d3d 79f9 ac3d
000001b0: 8ec8 43bd 1b2c 46bc fb8d 04bd 3998 f4bd
000001c0: e61d 98bd c678 9c3d f676 27bd d5f3 70bd
000001d0: 9aff 413b 7480 98bd ff04 553d d16b 233d
000001e0: 4e7e a3bb d07b af3d 2451 133d 539a adbd
000001f0: a545 733d adbe 07bd a947 18bd 4cf4 e43c
00000200: 2869 ff3c c292 f33c 424d 763d cfce 0a3e
00000210: 56c9 3d3d bbe1 4bbd 1a89 6a3d 8797 fd3b
00000220: 23c5 fd3c 193e c23d 331c 7a3d ab69 db3d
00000230: 6606 a83d ddc3 58bd 0bf3 34bc f87d e8bc
00000240: 7603 efbb 5a44 04bc ee1c c5bc 2b6e e13d
00000250: 7bde b63c 4117 3e3b d729 0dbd 8e27 673d
00000260: 185c 89ba 8faa 81bc 1967 d83d 4ac7 95bd
00000270: 68a4 80bd 56ab a4bd 68e0 b63c ae5b 773d
00000280: da76 a23d 81da 83bd bfae 3fbd 8cd7 f2bc
00000290: 0ee4 e23c 8b11 9e3d f52f b83d 1bd8 593d
000002a0: 7761 49bd d770 053c 2dfe b9bc b748 893b
000002b0: b956 2fbd 17b1 cc3d 07c7 42bd 39bd df3d
000002c0: 3814 b2bd 7d56 a53c b33b 943c 71e3 e53d
000002d0: 38d9 5bbc 2322 833d 746b 8dbd f2af 79bd
000002e0: 5dd5 94bd 4356 8dbd 1d6c 3bbd 7ec3 883c
000002f0: 1dcb 1bbd 028f 5fbd 02d8 4a3d 7036 29bd
00000300: 5a5c 613d b382 003e 0bd1 9dbd 56a3 7dbd
00000310: 07ca 7b3d c543 aa3d 5fc2 78bc 345a 52bd
00000320: 2f44 ba3d 73de 44bc 7c46 ac3b a7c8 93bd
00000330: 8458 343d ef7a 183d a69d 06bd 40bf dfbb
00000340: ef64 9fbb 59d7 90bc 72e1 97bd 0897 cd3d
00000350: 908f 2dbd 5758 e3bc feb3 c5bd c9cc 9bbd
00000360: 0d19 c73d cd53 3cbd ca46 7abb 500e 463d
00000370: fdc4 d0bc e6ab bcbd cced 4a3c 6146 863d
00000380: 1c74 8c3b e78f a1bd 77d7 78bb 87da 313c
00000390: 0012 2abd c6fd a13d ea7d 52bd 96c6 083d
000003a0: 642a 92bd b9ea fb3d d948 6b3d 4543 3ebc
000003b0: b661 a23d bd1f 363d a2d7 5abc 375e c1bd
000003c0: 5049 3ebd 548d b33d 52f0 02bd b895 523d
000003d0: e2c6 4b3a 4983 953d 0245 5a3b 09d7 c03c
000003e0: af3c 34bd 3c1e d7bc 8bdc fc3c 7509 9abd
000003f0: f5b9 ebbc 70e2 283d 7435 9ebc c489 8a3d

layer3.weight f4 [256, 256]
-0.01927846 -0.027557667 -0.0057076383 -0.041811395 0.069529556 -0.03575438 -0.0066988664 -0.06871002
-0.049936045 0.008550004 -0.015588971 -0.006925353 -0.09154256 -0.0062671383 -0.007633967 0.05996086
0.033167537 -0.044763133 -0.044770148 -0.033913337 0.081148095 0.013521236 0.0024128705 -0.023501383
-0.03469652 -0.036672316 -0.045704626 0.03834335 0.016625613 -0.030932425 -0.01662311 0.0059629264
0.008114008 -0.028415697 0.05336713 -0.053675514 -0.09022663 0.0030907318 0.020016938 -0.054356817
0.0037410255 -0.019518336 0.042670917 -0.039353795 0.031016922 0.022507109 0.028668074 -0.049212568
-0.008461125 -0.05039681 -0.022954164 0.0039891037 -0.04900308 0.056163542 -0.067858785 -0.07957395
0.04399397 0.030514948 0.031578947 0.014983871 -0.04115655 0.0061306697 0.022799876 -0.07023324
0.07226609 -0.018094568 0.05352244 0.040991277 -0.09055957 0.024610706 -0.03195724 0.043836046
-0.014775299 0.06674597 -0.02887224 0.063649476 0.056051902 -0.012967425 -0.016630393 -0.060315687
-0.055881336 0.0030859697 0.0019170466 -0.034120213 -0.055859897 0.03827744 0.018941835 -0.045599394
-0.030959815 0.016178533 -0.016164906 0.060098212 0.07842939 -0.01952705 -0.03085326 0.01039824
0.008509352 0.033997227 0.03396431 -0.0006344915 0.0075020795 -0.043152098 -0.0014377395 -0.04340644
0.05189948 0.00075377297 -0.017854415 0.0004660341 -0.04645556 -0.057577793 0.04546038 0.05362275
0.023786942 0.003942135 -0.049820412 0.045908447 -0.015615065 -0.04034996 0.077886276 -0.027965168
-0.048929553 0.034028627 0.03285939 0.05111552 0.04789302 -0.010321628 0.0033881871 -0.010496736
0.05615272 -0.04399118 -0.055067096 -0.012453087 0.05727019 -0.05760373 0.05318498 0.04076467
0.071126536 0.020806873 0.076089285 0.07728374 0.03199157 0.0014419481 0.032139644 -0.035260048
-0.029220195 0.04242093 0.0039541763 0.037169006 0.051893163 -0.023147047 -0.011150548 0.054059226
0.008141861 0.04538678 0.07226968 0.06711743 0.03336257 0.041512266 -0.0018999438 -0.056457464
-0.036737412 0.046558872 -0.012402007 0.040140018 -0.002687836 0.046268146 -0.060234133 -0.037373014
-0.04343736 -0.006181275 0.03180494 0.03831901 0.010405715 0.00581698 0.05819281 -0.054256644
-0.0066085076 -0.0218612 -0.09139748 0.036788754 -0.0009302817 -0.03736943 -0.011591304 0.0046237204
0.02562658 -0.047389273 0.07446879 0.017610189 0.025699582 0.033173986 0.047220666 -0.064490564
0.032240517 -0.048466913 0.00054704107 0.051180456 0.03446163 0.008344428 0.046294473 -0.0062420596
0.06506534 0.08479205 0.0030595018 -0.018972283 0.04958035 0.08344826 -0.025729572 -0.060512397
0.07495341 -0.015259788 -0.010384635 -0.016533423 -0.060383894 -0.0024399057 -0.01731441 -0.018136157
-0.019222638 0.006475679 -0.01324064 0.071097426 -0.015812585 0.06109178 -0.066077985 0.001264051
0.077510945 0.01860027 0.03981904 -0.0030132965 0.08159486 -0.021417113 -0.028179623 -0.041422687
-0.017654927 -0.027611269 0.06113727 -0.055475093 0.027187921 -0.018869864 -0.056444153 -0.006387692
-0.0071469587 0.04382384 0.0012139836 -0.037487905 0.007864459 -0.069477476 -0.03951803 -0.008560553
0.054445878 0.06256013 0.0007586623 -0.037851755 -0.04620981 0.0061207768 0.01060618 0.022595635
00000000: dced 9dbc 9ec0 e1bc 2407 bbbb 6d42 2bbd
00000010: 8365 8e3d 2f73 12bd 2a82 dbbb d7b7 8cbd
00000020: bd89 4cbd 5115 0c3c e268 7fbc 12ee e2bb
00000030: aa7a bbbd 915c cdbb 5b26 fabb 8599 753d
00000040: afda 073d 8c59 37bd e760 37bd b6e8 0abd
00000050: f930 a63d 2d88 5d3c 4021 1e3b f985 c0bc
00000060: f01d 0ebd b635 16bd c634 3bbd eb0d 1d3d
00000070: 7032 883c ff65 fdbc 302d 88bc a764 c33b
00000080: 9ef0 043c 09c8 e8bc 7e97 5a3d dbda 5bbd
00000090: bdc8 b8bd e08d 4a3b 90fa a33c 41a5 5ebd
000000a0: fe2b 753b ebe4 9fbc b3c7 2e3d 7231 21bd
000000b0: 3317 fe3c d460 b83c 4fd9 ea3c 1e93 49bd
000000c0: 88a0 0abc e36c 4ebd 5f0a bcbc 07b7 823b
000000d0: 74b7 48bd be0b 663d 8cf9 8abd abf7 a2bd
000000e0: 0533 343d 7cfa f93c ed58 013d e97e 753c
000000f0: c593 28bd c9e3 c83b cec6 ba3c 72d6 8fbd
00000100: 3e00 943d 0f3b 94bc 593a 5b3d 78e6 273d
00000110: 4c77 b9bd 649c c93c 98e5 02bd 6d8d 333d
00000120: 1814 72bc 1cb2 883d 7a85 ecbc a85a 823d
00000130: ae96 653d 5375 54bc 763c 88bc 950d 77bd
00000140: d4e3 64bd fb3d 4a3b 6945 fb3a a3c1 0bbd
00000150: 59cd 64bd cec8 1c3d e82b 9b3c 6ec6 3abd
00000160: 709f fdbc d888 843c 446c 84bc 8b29 763d
00000170: 979f a03d 31f7 9fbc fabf fcbc 615d 2a3c
00000180: cf6a 0b3c ad40 0b3d 291e 0b3d 0154 26ba
00000190: 01d4 f53b 41c0 30bd 8872 bcba f4ca 31bd
000001a0: 8d94 543d d998 453a 6c43 92bc 0a56 f439
000001b0: 2f48 3ebd b1d6 6bbd aa34 3a3d 87a3 5b3d
000001c0: d5dc c23c 062d 813b 7d10 4cbd 7f0a 3c3d
000001d0: 54d6 7fbc 0046 25bd d782 9f3d 3517 e5bc
000001e0: 5b6a 48bd 9a61 0b3d 9197 063d 825e 513d
000001f0: 792b 443d 0c1c 29bc 590c 5e3b 80fa 2bbc
00000200: 6500 663d 1830 34bd 098e 61bd 0808 4cbc
00000210: 2694 6a3d e4f1 6bbd 7ed8 593d dbf8 263d
00000220: caaa 913d 2d73 aa3c b3d4 9b3d f046 9e3d
00000230: 9809 033d c0ff bc3a dca4 033d d76c 10bd
00000240: 315f efbc 92c1 2d3d 0992 813b 873e 183d
00000250: ed8d 543d e09e bdbc cab0 36bc 356d 5d3d
00000260: 7165 053c 7de7 393d 2002 943d dd74 893d
00000270: 31a7 083d c408 2a3d 8907 f9ba f13f 67bd
00000280: f879 16bd 84b4 3e3d ca31 4bbc dc69 243d
00000290: 6826 30bb ab83 3d3d 11b8 76bd 7214 19bd
000002a0: 60eb 31bd 4b8c cabb e645 023d 65f4 1c3d
000002b0: bb7c 2a3c 5d9c be3b 955b 6e3d 373c 5ebd
000002c0: 2e8c d8bb 4216 b3bc 9a2e bbbd ceaf 163d
000002d0: 26de 73ba b010 19bd 74e9 3dbc 9482 973b
000002e0: d5ee d13c 411b 42bd 1883 983d 3e43 903c
000002f0: ee87 d23c 72e1 073d 756a 413d a113 84bd
00000300: a20e 043d 3e85 46bd 4e67 0f3a 99a2 513d
00000310: a327 0d3d 11b7 083c 469f 3d3d 318a ccbb
00000320: fa40 853d 74a7 ad3d ec81 483b c36b 9bbc
00000330: c414 4b3d ece6 aa3d d3c6 d2bc d9db 77bd
00000340: 2c81 993d 3104 7abc 5124 2abc 1a71 87bc
00000350: 1a55 77bd d3e6 1fbb f3d6 8dbc 4792 94bc
00000360: cb78 9dbc ef31 d43b 45ef 58bc 879b 913d
00000370: 6589 81bc 603b 7a3d e553 87bd 83ae a53a
00000380: 0fbe 9e3d 985f 983c 4a19 233d ba7a 45bb
00000390: 351b a73d f172 afbc f4d8 e6bc d6aa 29bd
000003a0: 11a1 90bc 0731 e2bc 136b 7a3d da39 63bd
000003b0: 34b9 de3c f994 9abc fc31 67bd d84f d1bb
000003c0: 0931 eabb a080 333d 881e 9f3a eb8c 19bd
000003d0: efd9 003c 354a 8ebd a8dd 21bd 9041 0cbc
000003e0: a402 5f3d 871f 803d f7e0 463a 710a 1bbd
000003f0: 7f46 3dbd cc90 c83b 8bc5 2d3c 7b1a b93c

layer3.bias f4 [256]
-0.035370104 0.07076212 0.009938212 0.0160637 0.033112843 0.0070548337 0.028216556 0.07723645
-0.05749051 -0.06327703 -0.01683382 0.03592253 -0.006635819 0.059288245 -0.0606371 0.021679383
-0.010420017 0.062554315 -0.021142576 -0.038119845 -0.022976076 -0.034381986 -0.01329119 0.08175639
-0.05172535 0.07280128 -0.03784066 0.03095975 0.046598345 0.031072292 0.044852722 0.057948936
-0.052451525 0.06272295 0.03249931 -0.026276857 0.01948237 0.073522486 -0.022017546 0.07371663
0.06697593 0.08829295 -0.024356754 -0.076001935 0.015994823 0.02212221 -0.025439296 0.044828355
0.0153370155 0.04637861 0.032233477 -0.052974068 -0.053581085 -0.011624375 -0.006986709 0.00739737
-0.00633599 0.037441798 -0.00922792 0.0680285 -0.038092677 -0.009965934 0.007534654 0.03606222
-0.02768701 0.04933029 0.07177024 0.004187367 -0.0016046644 -0.028372323 -0.016034082 0.026657483
-0.055819012 0.03328188 -0.037513882 0.06887651 0.039640848 -0.0052012126 0.034029156 -0.015364251
0.04747253 0.064316824 0.027163167 -0.039586097 0.024740456 0.023987394 0.01695532 0.012129153
0.0174055 -0.010945627 -0.037786685 0.06267735 0.07102638 0.029149462 -0.008683187 0.042654425
0.030107552 -0.042434726 -0.03819108 0.06393914 0.08525172 0.0315781 0.01410136 -0.0010671434
0.09550143 0.009717353 0.08766043 -0.01634189 0.016702218 -0.0032018905 -0.022527752 -0.016826177
-0.06269777 -0.0188225 0.026602741 0.015308969 0.03033274 -0.018562255 -0.0039687133 0.05371203
0.038258433 -0.0587039 0.03433864 0.10543142 -0.023767937 0.06241 0.0024810606 0.027714837
-0.03001193 0.028940756 0.002086276 -0.018044118 0.02152173 0.029885177 0.018483093 -0.037368737
0.04618077 0.04115294 0.01458425 0.05716177 0.035209566 0.034922976 -0.034833603 0.015554542
0.040935446 0.030693648 0.006402378 0.042269114 -0.03576205 0.013616669 -0.03711242 -0.02629742
0.01662352 -0.010780545 0.06255671 0.08094596 -0.036494862 0.04165385 0.055979926 -0.02642638
-0.008359086 -0.05110813 0.027922165 0.03936595 0.0050914446 0.04898893 -0.031799357 0.10411657
0.013350896 0.03164767 0.027488053 0.021950606 -0.037113678 0.023471352 -0.037571054 0.06507429
0.014488931 0.049289793 0.09604277 0.024501404 -0.036048584 0.033345625 -0.017847648 0.056293238
0.019744525 -0.033979986 -0.052161556 -0.03350111 -0.009231078 0.004575787 0.06098585 0.022014044
0.0644455 -0.019785494 -0.036489103 0.10192458 0.04431158 0.024483074 0.0516709 -0.018507788
-0.05026457 -0.047040246 -0.022333888 0.061745018 -0.013569462 -0.03859113 -0.016021546 0.011485066
-0.03852524 -0.026840542 -0.04008174 -0.049680956 -0.0023320566 0.046926793 0.07320604 0.0042883647
-0.001627367 -0.0676683 -0.013745137 0.020962385 0.04671725 -0.05213008 0.00047364883 -0.042188387
-0.027338408 -0.03328656 0.02666662 0.05081759 -0.056243908 -0.019088015 0.03928872 0.012339259
0.00033023607 0.05716452 0.003969334 -0.0317626 0.02713563 0.015893685 0.028366316 -0.03283005
0.028978787 0.046579342 -0.0073985807 0.029299852 0.023036223 0.060679343 -0.052429277 -0.003195727
0.03506403 0.0028647592 -0.012614394 0.044370804 -0.03314728 0.05093583 0.03190757 -0.06407659
00000000: 3ee0 10bd bbeb 903d e2d3 223c 0598 833c
00000010: 55a1 073d 3c2c e73b 6826 e73c 252e 9e3d
00000020: 2b7b 6bbd 6397 81bd 14e7 89bc 8123 133d
00000030: 4971 d9bb 3bd8 723d 9c5e 78bd f698 b13c
00000040: b8b8 2abc 7a1c 803d 3233 adbc 8e23 1cbd
00000050: 5338 bcbc 20d4 0cbd 4bc3 59bc e56f a73d
00000060: f6dd 53bd d618 953d cffe 1abd 4d9f fd3c
00000070: e8dd 3e3d 528b fe3c 7db7 373d dd5b 6d3d
00000080: 69d7 56bd e474 803d ff1d 053d 9042 d7bc
00000090: 7e99 9f3c f592 963d 245e b4bc bff8 963d
000000a0: ad2a 893d efd2 b43d d187 c7bc e7a6 9bbd
000000b0: 9307 833c a339 b53c 1266 d0bc f09d 373d
000000c0: 1b48 7b3c 7ff7 3d3d 4007 043d 56fb 58bd
000000d0: d777 5bbd 2a74 3ebc c3f0 e4bb a365 f23b
000000e0: 239e cfbb 925c 193d b430 17bc 8752 8b3d
000000f0: 1107 1cbd 2848 23bc 42e5 f63b fab5 133d
00000100: decf e2bc 8f0e 4a3d 47fc 923d 2e36 893b
00000110: 9a53 d2ba 136d e8bc e859 83bc cb60 da3c
00000120: 7aa2 64bd 9552 083d 28a8 19bd 210f 8d3d
00000130: 715e 223d ef6e aabb 2862 0b3d 57ba 7bbc
00000140: 8e72 423d 8ab8 833d 4a85 de3c 0825 22bd
00000150: 7fac ca3c 3681 c43c e2e5 8a3c 5bb9 463c
00000160: fb95 8e3c 4955 33bc 36c6 1abd fc5c 803d
00000170: 4776 913d daca ee3c ed43 0ebc 68b6 2e3d
00000180: 1da4 f63c 09d0 2dbd 406e 1cbd 86f2 823d
00000190: 7498 ae3d 0a58 013d 6409 673c 64df 8bba
000001a0: 4196 c33d 8835 1f3c 5087 b33d 6ddf 85bc
000001b0: 17d3 883c cfd6 51bb 1f8c b8bc 0dd7 89bc
000001c0: b067 80bd a531 9abc feed d93c 78d2 7a3c
000001d0: 5e7c f83c df0f 98bc fb0b 82bb 2501 5c3d
000001e0: e0b4 1c3d 8073 70bd aca6 0c3d 6eec d73d
000001f0: fab4 c2bc a1a1 7f3d 4a99 223b 3a0a e33c
00000200: 94db f5bc 2a15 ed3c e7b9 083b 42d1 93bc
00000210: 574e b03c c2d1 f43c db69 973c f60f 19bd
00000220: 0c28 3d3d fc8f 283d c7f2 6e3c 7622 6a3d
00000230: e837 103d 650b 0f3d aead 0ebd 7ad8 7e3c
00000240: edab 273d 3f71 fb3c 0acb d13b 6122 2d3d
00000250: 3a7b 12bd 7318 5f3c 3103 18bd b06d d7bc
00000260: 0c2e 883c e2a0 30bc bb1d 803d ffc6 a53d
00000270: a37b 15bd 3a9d 2a3d 354b 653d 237c d8bc
00000280: 8cf4 08bc c256 51bd 06bd e43c 313e 213d
00000290: 22d6 a63b 9ea8 483d 0b40 02bd 113b d53d
000002a0: b7bd 5a3c fda0 013d a02e e13c c2d1 b33c
000002b0: 8304 18bd fe46 c03c 1be4 19bd ab45 853d
000002c0: fb62 6d3c 18e4 493d 12b2 c43d 2bb7 c83c
000002d0: aea7 13bd 6c95 083d 3b35 92bc bd93 663d
000002e0: 45bf a13c 992e 0bbd 5ba7 55bd 7638 09bd
000002f0: f33d 17bc 7cf0 953b 4ccc 793d cc56 b43c
00000300: 01fc 833d 3015 a2bc 9975 15bd d6bd d03d
00000310: 0f80 353d ba90 c83c dea4 533d a59d 97bc
00000320: 39e2 4dbd 46ad 40bd 8ff5 b6bc 58e8 7c3d
00000330: 7352 5ebc bc11 1ebd 9e3f 83bc dc2b 3c3c
00000340: a4cc 1dbd b2e0 dbbc c02c 24bd 427e 4bbd
00000350: 6bd5 18bb 4f36 403d 0ced 953d 6985 8c3b
00000360: 604d d5ba ad95 8abd 4833 61bc 4fb9 ab3c
00000370: 965a 3f3d 5a86 55bd 1254 f839 bbcd 2cbd
00000380: ccf4 dfbc 7d57 08bd f573 da3c 1b26 503d
00000390: 0360 66bd 785e 9cbc 35ed 203d 9a2a 4a3c
000003a0: 8923 ad39 5825 6a3d 3011 823b 8019 02bd
000003b0: 8a4b de3c 7933 823c 7a60 e83c cd78 06bd
000003c0: ec64 ed3c fbc9 3e3d cb6f f2bb 3e06 f03c
000003d0: 76b6 bc3c e78a 783d 15c0 56bd 676f 51bb
000003e0: 4d9f 0f3d afbe 3b3b 9aac 4ebc 29be 353d
000003f0: 71c5 07bd 17a2 503d 83b1 023d 963a 83bd

layer4.weight f4 [128, 256]
0.035689455 -0.07970178 -0.07708409 0.03368857 -0.010603979 -0.010177643 -0.036321625 -0.009386613
0.019135721 0.036500826 -0.013979984 -0.022938304 0.07160268 -0.03478822 -0.057482146 -0.018769028
0.03301591 -0.019554926 -0.016568996 -0.05865091 0.00012039065 -0.033874065 0.07324855 0.016212724
0.09251421 0.043169145 0.0013616203 0.087985694 0.002335661 -0.05008597 -0.0675197 -0.06045836
-0.040726077 -0.01706422 -0.03579442 -0.03733674 -0.024290895 0.040668435 0.06172029 0.058314223
-0.039559517 -0.044071544 -0.003474706 -0.020915978 0.051995885 0.025609786 0.020282336 -0.029923154
0.044157352 0.005341773 -0.03832828 -0.035842918 0.058961492 0.031942207 -0.0012717465 -0.039126515
-0.045351915 -0.03821909 0.010943813 -0.006672701 -0.044154394 -0.00926828 0.015983423 -0.0448742
0.03405218 -0.0118465 0.019081026 0.020540457 0.0077234823 0.009081926 0.038743448 0.03797714
0.04169317 -0.039155893 -0.049584594 0.0026671472 -0.005638742 -0.0062365835 -0.04895907 -0.034866504
0.01808092 0.00023123084 -0.068116695 -0.048592042 0.0542792 -0.06934278 -0.004015783 0.008312684
0.064633444 -0.01256933 -0.06509242 -0.010267961 0.037905984 0.051773377 -0.050458692 0.04918439
-0.03446417 -0.004440122 -0.014976369 0.0780324 -0.010820585 0.0049771685 0.007835774 0.06996605
-0.018415282 0.043421045 0.013280115 0.021481717 -0.052386492 -0.034732196 0.06907034 0.06811111
0.014417578 -0.04031724 0.07044971 0.03396883 0.07081901 -0.053316407 -0.06250358 0.007097545
-0.035740208 0.053354044 0.03935305 0.022457352 0.001049079 0.014455603 0.014391745 -0.042919513
0.012877191 0.057095546 -0.0335889 -0.023119725 -0.069069564 -0.052032687 -0.096832655 0.0016688037
-0.001336684 0.057221286 -0.03431551 0.02773654 0.04361195 0.011221252 0.035488203 -0.08257365
-0.0363448 -0.017334228 -0.026386732 0.02440916 0.006843163 0.010340289 0.040330995 0.070946395
-0.034677967 -0.025051326 0.0111634405 -0.01649692 0.015784668 -0.0021744303 -0.002593138 0.0811815
0.06269348 -0.04171602 -0.038520668 -0.0015513139 0.0140306605 -0.0053220107 0.06533067 0.03090407
-0.009707436 -0.051436707 0.030542986 -0.056681436 -0.051607635 0.06281823 -0.034814257 -0.037011463
0.061460108 -0.019236403 -0.047069576 -0.01439473 -0.045422148 -0.016139293 0.04695278 0.06938321
-0.04655168 -0.0073149144 -0.007050814 -0.041683547 -0.028399412 0.07233696 -0.028564293 0.013476457
0.06092247 0.036317416 -0.061465226 0.016701685 0.09582113 0.053850476 -0.001054298 0.008072055
-0.024464138 0.033034686 0.04104134 -0.056113277 0.04807651 0.03143674 0.0633224 0.023291169
-0.07957986 0.03148409 0.0049174605 0.004966973 0.016389593 0.040526945 0.0131830415 -0.019271465
-0.015182727 0.03811225 0.02718931 -0.07697112 0.0017382335 0.029428234 0.0053557036 0.03657328
-0.07359839 0.047178175 -0.03169513 -0.057909388 -0.031835802 0.034177408 -0.050450824 0.072068475
0.027402237 0.054829676 -0.029745812 0.0018411847 -0.03531472 0.0058296183 -0.011272362 -0.054267783
-0.013288345 -0.024327008 0.038710743 -0.008206812 0.04523264 -0.02223866 0.050677 0.0687305
0.039328918 -0.040863164 0.0015889838 -0.03478721 -0.037625004 0.002886636 0.060803156 0.06501482
00000000: 1b2f 123d b03a a3bd 43de 9dbd 07fd 093d
00000010: 50bc 2dbc 21c0 26bc fcc5 14bd 4fca 19bc
00000020: 84c2 9c3c e481 153d 4e0c 65bc 1ce9 bbbc
00000030: 6da4 923d 187e 0ebd 6672 6bbd 81c1 99bc
00000040: b13b 073d a731 a0bc b4bb 87bc f03b 70bd
00000050: 3d7a fc38 88bf 0abd 5603 963d 8cd0 843c
00000060: 1778 bd3d 21d2 303d 6578 b23a d831 b43d
00000070: e411 193b f226 4dbd c547 8abd 2fa3 77bd
00000080: 63d0 26bd 43ca 8bbc 2b9d 12bd 69ee 18bd
00000090: b3fd c6bc f293 263d 6ace 7c3d e5da 6e3d
000000a0: 2909 22bd 5d84 34bd e5b7 63bb fc57 abbc
000000b0: a3f9 543d 9dcb d13c 2427 a63c 6721 f5bc
000000c0: 57de 343d 0a0a af3b 1dfe 1cbd 06d0 12bd
000000d0: 9b81 713d d5d5 023d bbb0 a6ba 2043 20bd
000000e0: eec2 39bd 9f8b 1cbd ae4d 333c aca6 dabb
000000f0: 3ddb 34bd fcd9 17bc abef 823c 02ce 37bd
00000100: 4c7a 0b3d d317 42bc d04f 9c3c 7644 a83c
00000110: 4415 fd3b 5ccc 143c 73b1 1e3d eb8d 1b3d
00000120: 75c6 2a3d ee61 20bd 3719 4bbd 4ecb 2e3b
00000130: 32c5 b8bb 415c ccbb 4e89 48bd 2ed0 0ebd
00000140: 701e 943c 8e76 7239 c480 8bbd 7308 47bd
00000150: de53 5e3d 9603 8ebd d496 83bb ec31 083c
00000160: 8a5e 843d 97ef 4dbc 2d4f 85bd f33a 28bc
00000170: 4e43 1b3d 5210 543d c6ad 4ebd 9275 493d
00000180: 4d2a 0dbd 717e 91bb 725f 75bc 73cf 9f3d
00000190: d348 31bc 8417 a33b 9e61 003c 5c4a 8f3d
000001a0: a5db 96bc 44da 313d d794 593c 6dfa af3c
000001b0: 3893 56bd 5943 0ebd c074 8d3d d67d 8b3d
000001c0: b437 6c3c b123 25bd f047 903d e622 0b3d
000001d0: 8f09 913d 4e62 5abd e001 80bd 8692 e83b
000001e0: 5364 12bd c589 5a3d aa30 213d 7bf8 b73c
000001f0: 4081 893a 32d7 6c3c 5bcb 6b3c 5fcc 2fbd
00000200: dbfa 523c 05dd 693d 8494 09bd 9465 bdbc
00000210: 5874 8dbd 3a20 55bd 3350 c6bd c3bb da3a
00000220: ac33 afba de60 6a3d 6c8e 0cbd be37 e33c
00000230: 72a2 323d 58d9 373c 145c 113d 601c a9bd
00000240: 49de 14bd 8300 8ebc fd28 d8bc b8f5 c73c
00000250: 9d3c e03b 516a 293c 1d32 253d 584c 913d
00000260: 7c0a 0ebd 7038 cdbc dde6 363c 8c24 87bc
00000270: d94e 813c e380 0ebb a3f1 29bb 7c42 a63d
00000280: 7065 803d 6bde 2abd d9c7 1dbd 7555 cbba
00000290: dbe0 653c 4364 aebb 16cc 853d 882a fd3c
000002a0: f00b 1fbc 4caf 52bd 4935 fa3c cb2a 68bd
000002b0: 8762 53bd d8a6 803d 6599 0ebd 5599 17bd
000002c0: 98bd 7b3d a995 9dbc 07cc 40bd e0d7 6bbc
000002d0: 930c 3abd 8d36 84bc 8f51 403d c918 8e3d
000002e0: f9ac 3ebd f3b1 efbb 840a e7bb 5ebc 2abd
000002f0: e2a5 e8bc 6625 943d aaff e9bc 5ccc 5c3c
00000300: d789 793d 92c1 143d f6c2 7bbd f9d1 883c
00000310: de3d c43d 5192 5c3d 5f30 8aba a740 043c
00000320: 0469 c8bc 614f 073d f71a 283d 09d7 65bd
00000330: e0eb 443d d0c3 003d 2daf 813d 1fcd be3c
00000340: c4fa a2bd 76f5 003d a622 a13b fdc1 a23b
00000350: 7843 863c 95ff 253d affd 573c 31df 9dbc
00000360: f9c0 78bc 971b 1c3d 1ebc de3c 09a3 9dbd
00000370: 70d5 e33a 7b13 f13c e67e af3b ddcd 153d
00000380: c1ba 96bd e73d 413d c1d2 01bd 6532 6dbd
00000390: 4266 02bd 9cfd 0b3d 86a5 4ebd a398 933d
000003a0: a87a e03c 1595 603d 7dad f3bc e853 f13a
000003b0: 2ba6 10bd 6206 bf3b b7af 38bc e547 5ebd
000003c0: 5cb7 59bc 6f49 c7bc 288f 1e3d dd75 06bc
000003d0: dc45 393d da2d b6bc b092 4f3d 94c2 8c3d
000003e0: 5c17 213d 2260 27bd 7345 d03a 097d 0ebd
000003f0: ad1c 1abd b72d 3d3b bb0c 793d 7d26 853d

layer4.bias f4 [128]
0.058125146 0.09177623 0.056982726 0.022438638 -0.0043824334 0.00046386837 0.07823158 0.014602472
-0.006706905 0.071637176 0.06389915 0.032320045 -0.0106813125 0.02286946 -0.020034319 -0.013904629
-0.028965652 -0.053033635 0.07216163 0.027022965 -0.03549602 0.0051566823 -0.0022228123 0.04512597
-0.041721616 0.027562348 -0.052249614 -0.011670545 -0.00096191454 -0.065911114 0.038545985 -0.047598783
0.04178606 0.062431138 -0.011646763 0.06847473 -0.010797512 0.026720632 0.065110825 -0.0051704124
0.02837764 -0.015150308 -0.021265702 -0.019982507 -0.0058484385 -0.049064804 0.0458431 -0.03217032
0.10737572 0.03121786 0.05095787 -0.05522934 -0.021358002 -0.039094042 0.045998525 -0.042928353
-0.014093731 0.04584259 0.025968943 -0.0066704117 -0.019999662 0.05687211 -0.012660725 -0.023840632
-0.016512174 0.0057428223 -0.0073032733 0.01024134 0.062115125 -0.022407921 0.07248617 0.072887376
0.041811947 -0.018325899 0.05995939 0.071786046 0.07890661 -0.05491639 0.08470207 -0.0017098153
0.03828127 -0.01005762 -0.00087210466 -0.0121126985 0.0021755907 -0.025536506 -0.021261523 -0.06657517
0.06070229 0.039982487 0.017998071 0.006398191 0.014298057 0.014706659 -0.050076775 0.03136845
0.041386787 0.008417791 0.030980948 0.045054253 -0.023799442 0.025847824 -0.02063082 -0.038120903
-0.017084008 0.00070666394 -0.004192663 -0.048127767 0.029913144 0.021005599 0.0806942 0.09518529
-0.014403365 0.0056914915 0.019409893 -0.02773667 -0.017470328 -0.018199697 0.023552647 0.0050059
0.00034486823 -0.004595744 0.014714882 -0.003719463 0.004743605 0.0300553 0.035808448 -0.031994972
00000000: a214 6e3d 2df5 bb3d b866 693d 3cd1 b73c
00000010: 849a 8fbb 5c33 f339 e137 a03d 353f 6f3c
00000020: 99c5 dbbb 83b6 923d 8fdd 823d 0662 043d
00000030: ac00 2fbc bc58 bb3c 031f a4bc 3ed0 63bc
00000040: 6049 edbc cc39 59bd 7ac9 933d 445f dd3c
00000050: 4664 11bd 63f9 a83b 9aac 11bb 02d6 383d
00000060: 49e4 2abd 6fca e13c b103 56bd d035 3fbc
00000070: fe28 7cba 68fc 86bd 65e2 1d3d f1f6 42bd
00000080: dc27 2b3d cbb7 7f3d 11d2 3ebc 7b3c 8c3d
00000090: 0ce8 30bc 3ae5 da3c d358 853d 906c a9bb
000000a0: 3978 e83c ff38 78bc 6935 aebc 5bb2 a3bc
000000b0: 42a4 bfbb 2df8 48bd f9c5 3b3d 07c5 03bd
000000c0: cde7 db3d 99bc ff3c 33b9 503d 2938 62bd
000000d0: faf6 aebc 1321 20bd f368 3c3d a4d5 2fbd
000000e0: 64e9 66bc 71c5 3b3d d2bc d43c 7893 dabb
000000f0: 55d6 a3bc bbf2 683d ee6e 4fbc 6e4d c3bc
00000100: 8a44 87bc 492e bc3b 4c50 efbb 4bcb 273c
00000110: 6e6c 7e3d d190 b7bc a173 943d fa45 953d
00000120: 0143 2b3d 3220 96bc fa97 753d 9004 933d
00000130: ca99 a13d 02f0 60bd 4778 ad3d e21b e0ba
00000140: d2cc 1c3d b7c8 24bc f49d 64ba 5774 46bc
00000150: 5b94 0e3b ef31 d1bc a52c aebc 9058 88bd
00000160: f7a2 783d adc4 233d b170 933c eba7 d13b
00000170: 6642 6a3c 33f4 703c 4e1d 4dbd 347c 003d
00000180: 3185 293d c6ea 093c c2cb fd3c cf8a 383d
00000190: 0cf7 c2bc d1be d33c f701 a9bc aa24 1cbd
000001a0: c3f3 8bbc 6a3f 393a 9b62 89bb 9f21 45bd
000001b0: 690c f53c ef13 ac3c 0043 a53d 81f0 c23d
000001c0: 17fc 6bbc b17f ba3b 7f01 9f3c 0338 e3bc
000001d0: ef1d 8fbc 8817 95bc 7bf1 c03c 8808 a43b
000001e0: 6ecf b439 e597 96bb b016 713c 3cc2 73bb
000001f0: 3e70 9b3b 8836 f63c e1ab 123d 290d 03bd
