PPO/ppo_critic.pth (torch, 546027 bytes, 9 tensors)

layer1.weight f4 [128, 29]
-2.7624795 2.2334995 -2.8677166 -1.4948611 0.48736548 -0.8184583 -1.1242398 -2.2430265
-1.2970296 -0.059696157 1.890524 0.25392014 1.5929205 0.9818547 -0.9427022 -0.13666652
0.46873897 0.7465091 0.32325438 -0.42037675 -1.1012697 0.36723346 0.2812173 -0.71091837
-0.1885801 0.59917253 0.34042817 0.39745373 -0.15866354 -0.8660997 -0.87003493 -1.9075139
-1.9337459 -4.4138494 0.6491276 0.041683484 -0.0994814 -1.227285 -0.256723 1.0232575
0.37735137 1.3367795 0.07659611 -1.4475896 0.22909603 -0.7516305 -0.9343033 0.6689051
-0.12375001 -0.10834523 -0.25689545 0.13832207 0.057961352 1.0350928 -0.20155539 0.31618017
-0.30362186 -0.33877832 -1.1573212 0.24995069 -1.6741244 1.6739124 0.9023839 0.25386214
-1.118946 -0.11980805 -2.0839863 1.311662 1.3293389 -0.3948481 1.4423041 0.24099728
-1.1218401 0.46843138 -0.36862493 1.365708 -1.019237 0.09254048 0.15328358 0.3425247
0.0686775 0.2909226 0.20907946 -0.35640106 -0.47033232 -0.1363952 0.14739373 -0.70597476
0.576717 -1.9241503 -2.1518378 -2.1236525 -0.4748639 1.9169639 -0.3084722 -2.4606335
0.7041914 2.1467621 -0.18502909 2.304951 0.9271066 -2.352797 -2.1576297 0.54380774
-1.0548371 -0.3806716 -0.6000433 -0.39310443 0.38078618 -0.4949616 0.7685132 -0.31470495
0.18198466 -0.36716694 0.17811747 0.055559766 -1.4865854 -0.46217775 -1.5234149 -0.0034280063
-1.8399498 -1.6522164 0.7945102 0.28052843 -0.84858066 -0.45046493 0.6127717 -0.2221935
0.9061004 -0.81674016 -0.87184805 -0.9975145 -0.7155077 0.9086495 0.96932554 0.7788906
0.12886469 -0.25844976 -0.37272954 -0.28075263 0.16945554 -0.019875813 0.72508883 0.04613067
-0.66342163 -1.1643736 -0.8590996 -1.1111845 -0.8840882 -4.6990213 -0.42528024 0.0175384
0.32277358 -1.3299724 -0.15882145 1.2193367 -0.3713192 1.2698404 -1.619367 -1.1482985
-0.18928637 0.14611134 -1.7548116 -1.0450071 0.074851975 0.5904691 0.16573612 0.073589176
0.6650661 -0.35922974 -0.4443264 -1.0013862 -0.107942544 -0.009446955 3.9766672 -1.7645148
-1.592948 -2.7551954 2.174903 1.0805936 -1.4540911 -1.4871707 0.41668218 -2.020053
-0.31401798 1.1000445 -0.6279804 0.83854914 -0.05914872 -1.168711 0.62974876 -1.5673934
0.44396576 -0.09241678 0.16048999 -0.33266053 0.5225291 -0.59842974 0.7865505 -0.9616937
-0.013937362 0.9534078 1.0113161 -0.93930817 -0.64323944 0.7065705 1.0064564 -1.0311731
1.1260118 -0.9529704 -0.3228644 0.18589133 0.18320397 -0.37628418 -0.3677513 -0.14842021
-0.18477978 0.43882632 -1.0328987 -0.5080831 0.12588876 -1.3015635 0.60649574 -1.2179393
0.40961826 -0.06500277 0.36138096 -0.30600858 -0.14197311 -0.40314707 -0.0042181467 0.3131584
2.043731 -2.9610617 -0.27327144 -1.6201054 -1.2871246 -0.47809863 2.889457 1.7727071
-0.73286587 -0.2729834 0.25299934 -1.2723802 0.5670603 -1.49148 -0.30914947 0.21597064
0.66664946 -2.037331 1.5224471 -0.8041946 -0.6896871 -0.029213581 -1.3135606 1.0781505
00000000: 77cc 30c0 a8f1 0e40 ab88 37c0 9c57 bfbf
00000010: f887 f93e 7c86 51bf 17e7 8fbf bf8d 0fc0
00000020: 1105 a6bf f583 74bd b1fc f13f d201 823e
00000030: d2e4 cb3f d45a 7b3f ee54 71bf 4ff2 0bbe
00000040: 8efe ef3e 381b 3f3f 9981 a53e 9f3b d7be
00000050: 68f6 8cbf 0606 bc3e b7fb 8f3e bffe 35bf
00000060: 241b 41be 5f63 193f 9a4c ae3e 0e7f cb3e
00000070: b278 22be b6b8 5dbf 9cba 5ebf 6a29 f4bf
00000080: fc84 f7bf 413e 8dc0 3a2d 263f 4dbc 2a3d
00000090: e7bc cbbd ad17 9dbf 3271 83be 1afa 823f
000000a0: 3334 c13e 971b ab3f 6cde 9c3d 9e4a b9bf
000000b0: 2698 6a3e db6a 40bf 802e 6fbf 5d3d 2b3f
000000c0: a570 fdbd 1be4 ddbd cd87 83be 4da4 0d3e
000000d0: e268 6d3d ec7d 843f 8964 4ebe 5ee2 a13e
000000e0: 5374 9bbe 5a74 adbe 1a23 94bf 13f3 7f3e
000000f0: b549 d6bf c342 d63f a202 673f 38fa 813e
00000100: 9f39 8fbf ec5d f5bd 0860 05c0 8ae4 a73f
00000110: c727 aa3f 8829 cabe 6c9d b83f fec7 763e
00000120: 7598 8fbf 3dd6 ef3e 68bc bcbe 85cf ae3f
00000130: 5c76 82bf dd85 bd3d 5ff6 1c3e 665f af3e
00000140: caa6 8c3d cff3 943e ed18 563e 337a b6be
00000150: 66cf f0be 2fab 0bbe 62ee 163e c3ba 34bf
00000160: baa3 133f 8f4a f6bf b6b7 09c0 ece9 07c0
00000170: 5c21 f3be 135f f53f 11f0 9dbe 057b 1dc0
00000180: e345 343f 8d64 0940 4478 3dbe 5184 1340
00000190: dc56 6d3f 3a94 16c0 9b16 0ac0 fc36 0b3f
000001a0: e704 87bf 63e7 c2be 709c 19bf fc44 c9be
000001b0: 68f6 c23e 9b6b fdbe 48bd 443f 0221 a1be
000001c0: 305a 3a3e 4efd bbbe 6d64 363e a392 633d
000001d0: 6e48 bebf 90a2 ecbe 42ff c2bf 67a8 60bb
000001e0: 7a83 ebbf d47b d3bf 0565 4b3f 6ca1 8f3e
000001f0: 953c 59bf 57a3 e6be 9bde 1c3f b186 63be
00000200: 32f6 673f e215 51bf 6f31 5fbf 1c5d 7fbf
00000210: 832b 37bf 419d 683f b825 783f 6065 473f
00000220: 1bf5 033e 8753 84be 68d6 bebe cfbe 8fbe
00000230: c185 2d3e 9ad2 a2bc 6c9f 393f 83f3 3c3d
00000240: 00d6 29bf 320a 95bf f4ed 5bbf 4b3b 8ebf
00000250: 9b53 62bf 625e 96c0 55be d9be b1ac 8f3c
00000260: 9442 a53e 893c aabf 17a2 22be 3a13 9c3f
00000270: 8d1d bebe 218a a23f 6b47 cfbf 72fb 92bf
00000280: 49d4 41be 369e 153e ab9d e0bf cbc2 85bf
00000290: fe4b 993d fc28 173f bbb6 293e ecb5 963d
000002a0: c641 2a3f f6ec b7be c07e e3be 6c2d 80bf
000002b0: fb10 ddbd 67c7 1abc b781 7e40 9fdb e1bf
000002c0: b8e5 cbbf 1f55 30c0 9c31 0b40 e450 8a3f
000002d0: a81f babf 9c5b bebf 5e57 d53e 8c48 01c0
000002e0: f7c6 a0be 42ce 8c3f 53c3 20bf 28ab 563f
000002f0: ee45 72bd 5298 95bf 3737 213f 59a0 c8bf
00000300: 7b4f e33e 0245 bdbd 7d57 243e 7b52 aabe
00000310: 78c4 053f b132 19bf 605b 493f 8f31 76bf
00000320: 8859 64bc 8912 743f ce72 813f 8076 70bf
00000330: 57ab 24bf cee1 343f 90d3 803f 7bfd 83bf
00000340: 2821 903f def5 73bf 7c4e a5be 4c5a 3e3e
00000350: d299 3b3e 52a8 c0be e649 bcbe 78fb 17be
00000360: e936 3dbe d8ad e03e 0636 84bf bc11 02bf
00000370: fce8 003e a299 a6bf 4e43 1b3f 6fe5 9bbf
00000380: 7cb9 d13e 2c20 85bd ed06 b93e 28ad 9cbe
00000390: 6661 11be 4b69 cebe 6138 8abb 4c56 a03e
000003a0: 7dcc 0240 0982 3dc0 3cea 8bbe 9d5f cfbf
000003b0: 80c0 a4bf 58c9 f4be ddec 3840 11e8 e23f
000003c0: 199d 3bbf 7bc4 8bbe 2189 813e 5bdd a2bf
000003d0: dd2a 113f d1e8 bebf d748 9ebe 6827 5d3e
000003e0: 8aa9 2a3f a263 02c0 8cdf c23f b3df 4dbf
000003f0: 558f 30bf 5251 efbc c122 a8bf d600 8a3f

layer1.bias f4 [128]
-1.4912171 -1.1034898 1.2815182 -2.063488 0.5583905 -1.5504012 0.17999662 1.9983398
-1.2619998 0.093486965 -0.4393079 1.4496475 1.5776598 1.6221437 -1.1541407 -0.46929723
1.2802148 -2.1642156 -0.60976833 0.77961564 -0.98899513 -0.17746879 -2.578937 -1.4691565
0.83023983 1.4437498 0.62290883 1.9404688 -1.5620893 -1.5885087 -1.8795257 0.30865777
1.6573846 -2.0059364 -1.9205271 -1.9396836 0.7322013 -0.861034 2.2879474 0.522734
-0.6333027 -0.248576 -1.683301 -3.797114 -1.3700166 0.5951586 -0.9875309 -1.790278
-1.8855338 0.96638703 -0.770099 -0.16531695 -0.16661817 -0.579806 0.07768689 2.0254834
-0.5630354 -1.2653347 0.4908491 -1.5776966 0.036827266 -0.13077314 -0.5294545 -0.5939325
-0.6107644 0.3890359 0.5260252 1.5860662 0.3732393 -1.4163784 -0.80406344 -3.263575
1.8214922 0.71768415 -1.1643153 -0.7741494 1.5505842 -3.4260182 0.4173686 1.2126267
1.990932 -0.92188936 0.99882543 -2.7213345 1.6443001 0.927799 -1.3029302 0.18597251
1.3035219 -1.8958051 1.6398871 0.2573612 1.0945628 -0.655673 -0.8157993 0.2109241
-1.8650559 -1.1290559 -2.0449266 1.8569592 -0.6086665 -0.5322584 0.04637857 -0.1461036
2.1677706 -0.35864586 -0.882582 -1.2137035 1.2607163 -1.566402 -0.34400064 -1.9390566
-0.28150344 -1.0875627 -0.31348842 1.4601356 0.06726186 -2.3747652 -0.67208713 -2.3414726
-0.5988263 -0.06142993 0.399314 -1.552959 -1.5016881 -0.5855194 0.8257027 1.0046977
00000000: 34e0 bebf 273f 8dbf ca08 a43f 3010 04c0
00000010: aef2 0e3f 8c73 c6bf 0951 383e 99c9 ff3f
00000020: 3689 a1bf 1876 bf3d f7ec e0be 0d8e b93f
00000030: c2f0 c93f 68a2 cf3f e2ba 93bf ba47 f0be
00000040: 14de a33f 8282 0ac0 c719 1cbf e494 473f
00000050: c92e 7dbf 61ba 35be 4e0d 25c0 520d bcbf
00000060: 998a 543f cbcc b83f f476 1f3f 4861 f83f
00000070: 8bf2 c7bf 4154 cbbf 4c94 f0bf 6408 9e3e
00000080: 2e25 d43f 4361 00c0 d5d3 f5bf 8d47 f8bf
00000090: 8b71 3b3f b96c 5cbf bb6d 1240 e5d1 053f
000000a0: 2020 22bf b58a 7ebe 6876 d7bf ea03 73c0
000000b0: b45c afbf 505c 183f d3ce 7cbf d427 e5bf
000000c0: 2c59 f1bf 2465 773f 3525 45bf d948 29be
000000d0: f49d 2abe 2b6e 14bf 4e1a 9f3d 85a1 0140
000000e0: 1723 10bf 7df6 a1bf 9350 fb3e f6f1 c9bf
000000f0: 30d8 163d 65e9 05be 558a 07bf f60b 18bf
00000100: 0e5b 1cbf b72f c73e 96a9 063f 3804 cb3f
00000110: 3919 bf3e e34b b5bf 1ad7 4dbf 6ade 50c0
00000120: a826 e93f 26ba 373f 4908 95bf a82e 46bf
00000130: 8b79 c63f e243 5bc0 56b1 d53e 5a37 9b3f
00000140: dcd6 fe3f f100 6cbf 06b3 7f3f 582a 2ec0
00000150: 6d78 d23f 3c84 6d3f 6bc6 a6bf 946f 3e3e
00000160: ced9 a63f bea9 f2bf d2e7 d13f d9c4 833e
00000170: a21a 8c3f 30da 27bf 39d8 50bf 7dfc 573e
00000180: 27ba eebf e784 90bf 14e0 02c0 d7b0 ed3f
00000190: 91d1 1bbf 1642 08bf 75f7 3d3d 2f9c 15be
000001a0: c1bc 0a40 6ea0 b7be e5f0 61bf a35a 9bbf
000001b0: 275f a13f dc7f c8bf da20 b0be 0233 f8bf
000001c0: 3821 90be 4135 8bbf 8e81 a0be b9e5 ba3f
000001d0: 96c0 893d 27fc 17c0 e70d 2cbf b0da 15c0
000001e0: ae4c 19bf f39d 7bbd e272 cc3e 5cc7 c6bf
000001f0: 5137 c0bf 99e4 15bf 4161 533f ef99 803f

layer2.weight f4 [256, 128]
-0.018160626 -0.047368042 -0.03776712 -0.009776718 -0.14670406 -0.14782521 -0.107029706 -0.1046713
-0.029795777 0.0035933177 -0.10162299 -0.05032612 -0.14830558 -0.16259047 -0.03219698 -0.096876174
-0.12260518 -0.0495609 0.014745411 -0.11513503 0.048529062 -0.091904655 0.050480578 -0.0735993
-0.054958936 -0.0748699 -0.019545853 -0.13315359 -0.08947389 -0.08772628 -0.08243874 -0.08506732
-0.16348167 0.021025378 0.014744913 -0.13863781 -0.043645464 0.008532809 0.011493614 -0.11664219
-0.015308695 -0.074023895 -0.050254762 -0.005515958 0.013294209 -0.13413718 -0.08594763 -0.043882545
-0.18638495 0.11518275 -0.17708252 -0.048355676 0.067569375 -0.15744613 -0.046277985 -0.15138543
-0.010994796 -0.17680632 -0.13268201 -0.023520611 0.048583858 -0.10626355 -0.041548386 0.03671932
-0.17820051 -0.19288069 -0.09353079 -0.0879675 -0.15471447 -0.031631015 -0.07619087 -0.058352586
-0.0007128241 -0.03685239 -0.038111016 -0.049854532 -0.03136313 -0.10503851 -0.08919754 -0.023218054
-0.119365446 -0.18590383 -0.05457773 -0.111530155 -0.004738106 -0.06818995 -0.063477345 -0.053102087
-0.09578631 0.034443222 -0.014253562 0.06678759 -0.20049807 0.03936346 -0.10416679 -0.009659099
0.044075202 -0.064366624 0.044964757 -0.12187563 0.031684756 -0.044526484 -0.06534032 -0.08332209
0.01516952 -0.03714485 -0.097179435 -0.09635156 -0.17406546 -0.00302007 -0.0071462607 0.051438846
-0.07220338 -0.12277512 -0.023494247 0.055186436 -0.0062723616 -0.09399611 -0.08552111 -0.014823817
-0.009913012 -0.044699997 -0.007682713 -0.05862037 -0.040950682 -0.012889305 -0.20238695 -0.06632738
-0.161882 -0.24246036 -0.3014134 -0.05630199 -0.17980891 -0.040318165 0.020970106 -0.20162627
-0.08661354 -0.04651842 -0.05953863 -0.12587114 -0.09648888 -0.08472381 -0.0653437 -0.16795479
0.018389782 -0.13364716 -0.13414034 -0.072900936 -0.08648812 -0.16394569 -0.6228281 -0.37702203
-0.008984958 -0.042868827 -0.14369299 -0.097422644 -0.22413468 0.009120614 -0.30408907 -0.101464696
-0.16243891 -0.25866544 -0.18377924 -0.40556487 0.038107455 -0.18975112 -0.026871745 -0.05018464
-0.10878145 -0.049652193 -0.14714983 -0.6016232 -0.1075032 -0.37357324 -0.14690363 -0.22134334
-0.35483292 -0.15339626 -0.05413163 -0.28298306 -0.16136815 -0.08873674 -0.092585154 -0.14840154
-0.087930344 -0.046890397 -0.1904361 -0.24769504 -0.27643517 -0.039613567 -0.16439368 -0.1644329
-0.11287173 -0.19105756 0.007902907 -0.24161166 -0.044776715 -0.041662574 -0.010219051 -0.7886901
0.06431957 -0.2617309 -0.20994325 -0.23622854 -0.112457044 -0.5972392 0.00843363 -0.16325937
-0.1487852 -0.0236883 -0.13681985 -0.18615276 -0.09307691 -0.16031535 -0.14918157 -0.1562285
-0.09693741 -0.081411906 -0.051735606 -0.10891213 -0.22704004 0.011788816 -0.09345145 -0.11462416
-0.12767044 -0.37921023 -0.24195707 -0.0857462 -0.09740019 -0.15289344 -0.2041033 -0.14810266
-0.4089145 -0.18692559 -0.07057085 0.050598945 -0.3103842 -0.0272247 -0.06129922 -0.31976894
0.1772299 -0.15497948 -0.25572562 -0.07144769 -0.12014787 -0.3019213 -0.061225563 -0.12755294
-0.24036433 -0.23078047 -0.13160858 -0.17479078 -0.15530913 -0.25614735 -0.05233003 -0.12653945
00000000: 98c5 94bc fe04 42bd b2b1 1abd 872e 20bc
00000010: 9739 16be 7e5f 17be 6432 dbbd e85d d6bd
00000020: 4616 f4bc de7d 6b3b b71f d0bd c322 4ebd
00000030: 6bdd 17be 1e7e 26be fbe0 03bd 0467 c6bd
00000040: 6d18 fbbd 5f00 4bbd bd96 713c eacb ebbd
00000050: 69c6 463d 8238 bcbd b9c4 4e3d 3bbb 96bd
00000060: 9f1c 61bd 6455 99bd a01e a0bc 6a59 08be
00000070: 163e b7bd d6a9 b3bd a4d5 a8bd c637 aebd
00000080: bd67 27be 6a3d ac3c a694 713c 12f7 0dbe
00000090: 96c5 32bd 32cd 0b3c b64f 3c3c 1ae2 eebd
000000a0: 52d1 7abc d799 97bd f0d7 4dbd 36bf b4bb
000000b0: f4cf 593c 425b 09be 5005 b0bd 2fbe 33bd
000000c0: b2db 3ebe efe4 eb3d 1f55 35be 9a10 46bd
000000d0: d061 8a3d 8f39 21be fc8d 3dbd c804 1bbe
000000e0: 8423 34bc b70c 35be cbdd 07be 4cae c0bc
000000f0: deff 463d b4a0 d9bd a42e 2abd ff66 163d
00000100: 327a 36be 8482 45be 128d bfbd 4e28 b4bd
00000110: 786d 1ebe 868f 01bd f509 9cbd 1f03 6fbd
00000120: d1dc 3aba 88f2 16bd 4c1a 1cbd 4434 4cbd
00000130: a076 00bd 6e1e d7bd 33ad b6bd ca33 bebc
00000140: df75 f4bd 935d 3ebe e68c 5fbd ec69 e4bd
00000150: 1d42 9bbb 2ca7 8bbd 6900 82bd 9381 59bd
00000160: 9d2b c4bd 5614 0d3d c687 69bc efc7 883d
00000170: 5e4f 4dbe 943b 213d 6655 d5bd 3341 1ebc
00000180: 3388 343d a6d2 83bd f72c 383d ee99 f9bd
00000190: e0c7 013d 6761 36bd 25d1 85bd c6a4 aabd
000001a0: 9489 783c 3325 18bd 0306 c7bd f753 c5bd
000001b0: 373e 32be 5eec 45bb 2e2b eabb 8ab1 523d
000001c0: 5edf 93bd 8671 fbbd 0277 c0bc 2c0b 623d
000001d0: 6288 cdbb 0881 c0bd b125 afbd 98df 72bc
000001e0: 306a 22bc 5817 37bd 45bf fbbb ea1b 70bd
000001f0: e7bb 27bd aa2d 53bc 863e 4fbe a6d6 87bd
00000200: 65c4 25be 8747 78be db52 9abe ea9c 66bd
00000210: d41f 38be a924 25bd 80c9 ab3c 1e77 4ebe
00000220: 7162 b1bd 198a 3ebd c7de 73bd 5de4 00be
00000230: f69b c5bd ad83 adbd ebd2 85bd 57fc 2bbe
00000240: 2ba6 963c cdda 08be 165c 09be 164d 95bd
00000250: af20 b1bd 61e1 27be aa71 1fbf 0809 c1be
00000260: a535 13bc 3997 2fbd 4124 13be 8685 c7bd
00000270: 9083 65be a16e 153c 90b1 9bbe b9cc cfbd
00000280: 6356 26be cc6f 84be a030 3cbe 33a6 cfbe
00000290: 9016 1c3d 1e4e 42be 2222 dcbc 698e 4dbd
000002a0: cfc8 debd 1960 4bbd 72ae 16be fa03 1abf
000002b0: a32a dcbd fe44 bfbe e86d 16be d4a7 62be
000002c0: a9ac b5be e913 1dbe 21b9 5dbd 28e3 90be
000002d0: b13d 25be 9cbb b5bd 499d bdbd 93f6 17be
000002e0: d314 b4bd 2510 40bd ae01 43be c5a3 7dbe
000002f0: e988 8dbe d641 22bd d156 28be 1961 28be
00000300: 4b29 e7bd 98a4 43be 327b 013c 0c69 77be
00000310: ca67 37bd 60a6 2abd ce6d 27bc 98e7 49bf
00000320: fbb9 833d 9801 86be 5dfb 56be e5e5 71be
00000330: e14f e6bd abe4 18bf 352d 0a3c 772d 27be
00000340: 265b 18be f70d c2bc 811a 0cbe d49e 3ebe
00000350: 1b9f bebd b529 24be 0ec3 18be 5dfa 1fbe
00000360: 1f87 c6bd 49bb a6bd b7e8 53bd 530d dfbd
00000370: 2f7d 68be e125 413c 7963 bfbd 12c0 eabd
00000380: 0abc 02be d827 c2be 98c3 77be b49b afbd
00000390: c079 c7bd 1990 1cbe 7500 51be 39a8 17be
000003a0: 3e5d d1be 6c69 3fbe 7387 90bd d740 4f3d
000003b0: aeea 9ebe 5606 dfbc e414 7bbd c1b8 a3be
000003c0: c17b 353e f1b2 1ebe 78ee 82be 2b53 92bd
000003d0: 1610 f6bd 6e95 9abe a8c7 7abd 3d9d 02be
000003e0: 1122 76be b751 6cbe 66c4 06be 5bfc 32be
000003f0: 5b09 1fbe bf25 83be 0358 56bd 8f93 01be

layer2.bias f4 [256]
-0.116807126 0.507667 -0.9369233 1.5114213 0.43730342 0.108350396 0.024252482 0.3414941
2.9938104 2.1879437 1.8566483 0.38312423 -1.9510751 0.1231688 -0.17758708 0.038314115
0.87816995 -0.3823528 0.2821109 1.8483242 -2.2977142 0.29923916 1.5483743 -0.31420887
1.3326364 0.092759155 1.2229942 -0.098544486 -0.493594 -0.10649822 -0.17925745 -0.097622976
0.660703 0.89201266 1.1786246 2.3007627 1.7413127 1.495487 -0.016479801 1.1240867
1.5591847 -0.1524948 1.6171132 0.008185858 0.73628885 0.066994995 2.763325 -0.029171435
1.1996951 -0.093101576 -0.28372824 -0.044246342 -0.04284597 1.7044914 -0.57236505 -1.0905093
1.2376608 0.7469537 -0.0035963373 -0.09548237 -1.2342567 0.6131724 0.52737176 2.8405035
2.1258016 1.4378057 1.59513 0.11967313 0.61870134 0.938432 0.10799322 0.8954531
-0.060382973 -0.11314744 0.56178844 0.24700493 0.16168296 1.1097479 1.2329847 0.5563749
0.05822334 1.0039601 -0.18095651 2.6310813 -0.2509452 -0.1139522 2.3172169 2.9961953
1.3281279 0.6994412 0.7888453 -0.34931684 0.69388133 3.1658626 1.6294209 1.1608758
1.9139974 -0.21011586 1.192398 -0.061489314 0.34608555 0.42758128 2.0397143 0.4853238
2.4996705 0.032882612 -0.18183188 0.7762761 0.29591262 1.106584 0.9090585 3.6921654
-0.3210067 -2.5772212 -0.2929249 3.427709 0.53147644 0.34774616 -0.042709246 -0.5294045
-0.16873401 1.1711684 0.003373394 1.2458963 0.087436974 -0.19875091 0.014848527 -0.5619563
-1.3939288 0.97631675 0.11310888 -0.025944676 -0.07704518 0.3691464 -0.13865311 -0.24614634
0.5995768 1.1708449 1.6047647 0.6396025 2.0028493 0.91538 0.4734371 0.033709656
0.21496129 0.46668532 3.4620495 0.075461335 0.28317708 -0.46191865 0.4832416 -0.080469474
1.992799 0.02532613 -0.19307218 -0.14967638 0.8020159 -0.044851255 -0.4695165 0.88174826
0.034373928 -0.36204314 1.3415662 2.7234712 -0.11055755 2.2475948 1.2449855 2.2100265
1.541837 0.45025378 3.0189562 0.021021966 0.14588289 0.18820727 0.9746722 0.8257638
-0.06981981 0.4903133 0.25107786 0.18038072 -0.1810751 -0.21958323 -0.19636068 -0.4682661
1.0521929 0.6058726 -0.02619849 -0.051489785 -0.14920372 0.955719 1.345727 0.12045608
-0.13548277 6.3855196e-06 -0.71748567 0.62183994 0.8740523 0.1869097 -0.2612054 -1.8778409
-0.40897256 0.0544049 0.27813363 0.057050735 0.89824295 0.35488835 0.66726893 -0.47556514
0.13592064 -0.14492957 0.070335805 -0.57131916 -0.10713914 -1.4858476 0.051534962 -0.4302839
0.13790448 0.091710635 0.29654893 0.2807801 0.7924393 0.459632 -0.14658564 0.46351892
1.2678922 0.7187249 0.03639294 0.45670167 -0.9197147 -0.24335384 1.633316 0.014202215
0.84827536 2.508178 0.18782406 1.1652704 0.015147439 0.8386794 -0.10859569 1.4812781
2.6290786 0.31363767 0.13101764 0.13676104 0.5747646 0.64303833 -0.07310941 0.09779659
-0.035730444 0.4776141 -0.0019660203 -0.74987274 1.67074 -0.024038326 -2.5740652 -2.3388155
00000000: 9338 efbd 77f6 013f 35da 6fbf 4176 c13f
00000010: 3ce6 df3e d0e6 dd3d 24ad c63c 51d8 ae3e
00000020: 979a 3f40 4507 0c40 a7a6 ed3f dc28 c43e
00000030: d4bc f9bf ec3f fc3d 63d9 35be 43ef 1c3d
00000040: bfcf 603f bfc3 c3be d770 903e e395 ec3f
00000050: c00d 13c0 e035 993e 2131 c63f fcdf a0be
00000060: d493 aa3f 83f8 bd3d 138b 9c3f b1d1 c9bd
00000070: 5ab8 fcbe bd1b dabd 448f 37be 8eee c7bd
00000080: d523 293f f15a 643f 2cdd 963f b23f 1340
00000090: 56e3 de3f 1e6c bf3f a600 87bc 13e2 8f3f
000000a0: 5d93 c73f 9927 1cbe 91fd ce3f fa1d 063c
000000b0: 6d7d 3c3f ac34 893d 51da 3040 eff8 eebc
000000c0: 9c8f 993f 0aac bebd d444 91be a73b 35bd
000000d0: 417f 2fbd c62c da3f 8486 12bf cf95 8bbf
000000e0: ab6b 9e3f 5c38 3f3f 87b0 6bbb 438c c3bd
000000f0: 20fc 9dbf def8 1c3f d601 073f cfca 3540
00000100: 220d 0840 040a b83f 382d cc3f 3017 f53d
00000110: 3663 1e3f 143d 703f 8d2b dd3d 6a3c 653f
00000120: 2354 77bd d8b9 e7bd 5ed1 0f3f dcee 7c3e
00000130: 3890 253e 380c 8e3f 71d2 9d3f 966e 0e3f
00000140: 997b 6e3d c481 803f aa4c 39be a363 2840
00000150: e47b 80be c55f e9bd 484d 1440 aac1 3f40
00000160: 1800 aa3f 940e 333f c4f1 493f a8d9 b2be
00000170: 35a2 313f 7e9d 4a40 dd90 d03f 9497 943f
00000180: defd f43f 9d28 57be 7fa0 983f 38dc 7bbd
00000190: 2032 b13e efeb da3e ae8a 0240 5c7c f83e
000001a0: 9afa 1f40 ebaf 063d 2332 3abe 08ba 463f
000001b0: dc81 973e 8ba4 8d3f 0fb8 683f 704c 6c40
000001c0: fd5a a4be 31f1 24c0 41fa 95be 965f 5b40
000001d0: d70e 083f c90b b23e e4ef 2ebd 0e87 07bf
000001e0: 9cc8 2cbe d9e8 953f 2914 5d3b 8879 9f3f
000001f0: 2812 b33d 5c85 4bbe 3c47 733c 5edc 0fbf
00000200: 426c b2bf e5ef 793f a1a5 e73d ee89 d4bc
00000210: ddc9 9dbd c200 bd3e 15fb 0dbe c90d 7cbe
00000220: dd7d 193f 3fde 953f ee68 cd3f fdbc 233f
00000230: af2e 0040 5856 6a3f 5966 f23e 2313 0a3d
00000240: d01e 5c3e 61f1 ee3e 3892 5d40 798b 9a3d
00000250: 96fc 903e 9a80 ecbe 716b f73e 2ecd a4bd
00000260: 0a14 ff3f bf78 cf3c b7b4 45be c444 19be
00000270: ea50 4d3f f3b5 37bd 7764 f0be 41ba 613f
00000280: adcb 0c3d b85d b9be 71b8 ab3f 5a4d 2e40
00000290: ff6b e2bd 98d8 0f40 af5b 9f3f 1371 0d40
000002a0: ea5a c53f aa87 e63e 9436 4140 4236 ac3c
000002b0: 5362 153e 68b9 403e 1e84 793f 4265 533f
000002c0: b0fd 8ebd 580a fb3e 478d 803e b9b5 383e
000002d0: c06b 39be 6dda 60be c612 49be 93c0 efbe
000002e0: 42ae 863f 771a 1b3f 379e d6bc f4e6 52bd
000002f0: dcc8 18be 00aa 743f c840 ac3f adb1 f63d
00000300: ffbb 0abe 3243 d636 24ad 37bf e730 1f3f
00000310: e4c1 5f3f 4265 3f3e b7bc 85be 175d f0bf
00000320: da64 d1be acd7 5e3d 8867 8e3e 08ae 693d
00000330: 40f3 653f edb3 b53e 23d2 2a3f 467d f3be
00000340: c82e 0b3e 6b68 14be 380c 903d f941 12bf
00000350: c46b dbbd 4130 bebf 5316 533d 2c4e dcbe
00000360: d536 0d3e c9d2 bb3d 43d5 973e 69c2 8f3e
00000370: 4ddd 4a3f e354 eb3e 8c1a 16be 5a52 ed3e
00000380: 4b4a a23f 5bfe 373f c310 153d cdd4 e93e
00000390: 6c72 6bbf c031 79be 8010 d13f 68b0 683c
000003a0: 9328 593f fd85 2040 f354 403e 9527 953f
000003b0: f72c 783c b1b3 563f 6b67 debd 859a bd3f
000003c0: d342 2840 1e95 a03e 7d29 063e 160b 0c3e
000003d0: c623 133f 299e 243f 63ba 95bd 9449 c83d
000003e0: 165a 12bd d689 f43e 59d8 00bb a9f7 3fbf
000003f0: cfda d53f 06ec c4bc 7cbd 24c0 27af 15c0

layer3.weight f4 [256, 256]
-0.020646812 -0.091270044 -0.078482576 -0.33141407 -0.3422658 -0.15481432 -0.602558 -0.45021686
-0.08562563 -0.4435639 -0.38018745 0.12273556 -0.13825113 -0.26525366 -0.029007161 0.0826716
-0.48119617 -0.060769893 -0.047104336 -0.18724571 -0.06998649 -0.39255765 -0.37373766 -0.10109531
-0.0033842658 0.033228368 -0.14958219 -0.40542126 -0.45179293 -0.07071245 -0.021762708 -0.01646745
-0.30516905 -0.3442713 -0.48935008 -0.1130895 -0.30674118 -0.22392398 -0.070153736 0.23490651
-0.50559825 -0.015803993 -1.1305904 0.00048723575 -0.045595206 -0.11052441 -0.018960718 0.02418326
0.17281847 -0.016741836 0.20690787 0.19946322 0.013006773 -0.22287664 -0.20725127 0.123284675
-0.2721691 0.63719594 -0.18780257 -0.29822963 -0.5543008 -0.22381723 0.5831999 -0.20877619
-0.18762578 -0.4566482 -0.14156573 0.025475336 0.045172233 -0.25494763 -0.21728763 -0.83071053
-0.033363234 -0.1943918 -0.22483276 -0.36598724 0.0065313694 -0.14866576 -0.22102967 -0.009371988
-0.051776204 -0.110114895 0.19836879 -0.3219604 -0.09253749 0.08622842 -0.07450397 -0.2844172
-0.333874 -0.20916797 0.79694265 0.039593443 -0.34033033 -0.24370292 -0.13611464 0.3099976
-0.032207604 -0.07938042 0.19810471 0.019368267 -0.06851117 -0.12773807 -0.18329772 -0.2144966
-0.21672799 0.028745487 -0.0668227 -0.28174418 -0.29164296 -1.0216297 -0.3445101 -0.23846418
0.048490524 -0.4595178 0.020223768 -0.20434968 -0.09390896 -0.05855957 -0.059223957 -0.06685803
-0.037814595 -0.32165903 0.032011278 -0.3522165 -0.6298671 -0.04297468 0.028015886 -0.7845398
-0.7883995 0.35548458 -0.0755745 0.005984135 -0.17993061 0.28336936 -0.050094966 0.030908957
-0.033681095 -0.4825016 -0.54150295 0.20045176 -0.14449136 -0.047721215 -0.11328689 -0.06312307
-0.008388686 -0.90502876 -0.27012244 0.04192174 -0.02783029 -0.14519422 -0.054781992 0.0050840373
-0.34472263 -0.52848893 -0.014351849 -0.06510742 -0.2572514 0.025839094 -0.22055781 0.28225186
-0.026257357 0.04715274 -0.29259437 -0.395842 0.05519198 -0.13825843 -1.0680901 -0.21383658
-0.24704458 -0.024984205 -0.23133896 -0.0018146412 0.032486442 -0.06393923 0.18247429 -0.551836
-0.07760464 -0.2660183 -0.27598584 -0.05717665 0.022701953 -0.0555884 0.04361433 -0.5296105
0.06454842 -0.25431368 -0.041976053 0.0041435934 0.008152342 -0.2030549 -0.77500165 0.06190131
-0.02600969 -0.30926755 0.09316573 -0.48849896 -0.44924477 0.14980286 0.20611326 -0.431089
-0.23726377 -0.2700346 -0.020900076 -0.6384333 -0.9762833 0.38526666 -0.37209144 0.64098966
-0.08330529 0.32318604 -0.058864053 0.4545365 0.034477126 0.18687232 -0.036390234 0.1137357
-0.16848814 -0.010296095 -0.4194926 -0.1605182 -0.24392784 -0.41314548 -0.021761501 -0.01357837
0.3109343 0.39244065 -0.22214477 0.05500398 0.08798022 -0.18889263 -0.34645584 -0.41905534
-0.024664754 -0.25290108 -0.37299532 -0.6682728 0.047789894 0.35380128 -0.07750479 -0.31791297
-0.100901075 0.01011993 0.01805635 -0.049531788 0.06441242 -0.114209734 -0.10430466 -0.96015215
-0.027309204 -0.4187803 -0.019655494 -0.572126 -0.25537822 -0.026569488 -0.42895442 -0.86549073
00000000: 8123 a9bc caeb babd 79bb a0bd 1baf a9be
00000010: 773d afbe a587 1ebe 3e41 1abf d382 e6be
00000020: 7e5c afbd cf1a e3be eea7 c2be c85c fb3d
00000030: b491 0dbe 54cf 87be 6da0 edbc ba4f a93d
00000040: 585f f6be dae9 78bd 7af0 40bd 57bd 3fbe
00000050: 1455 8fbd 51fd c8be 8b5a bfbe 0f0b cfbd
00000060: 8fca 5dbb 781a 083d 132c 19be 6093 cfbe
00000070: 6751 e7be b0d1 90bd b547 b2bc bfe6 86bc
00000080: 1e3f 9cbe 5444 b0be 188c fabe 789b e7bd
00000090: 2e0d 9dbe 544c 65be c3ac 8fbd 558b 703e
000000a0: e36e 01bf 6077 81bc 30b7 90bf ad73 ff39
000000b0: 0ac2 3abd 9f5a e2bd 8253 9bbc f91b c63c
000000c0: 53f7 303e 2d26 89bc a8df 533e 1640 4c3e
000000d0: 5c1a 553c c639 64be ad39 54be ad7c fc3d
000000e0: c059 8bbe 461f 233f 514f 40be 8eb1 98be
000000f0: a8e6 0dbf 5830 65be 974c 153f 6dc9 55be
00000100: f920 40be cbcd e9be 9bf6 10be a7b1 d03c
00000110: 8506 393d 7f88 82be a680 5ebe 72a9 54bf
00000120: e3a7 08bd a50e 47be 8f3a 66be ae62 bbbe
00000130: 1905 d63b d63b 18be 9a55 62be f78c 19bc
00000140: 4913 54bd eb83 e1bd 3021 4b3e fed7 a4be
00000150: 4c84 bdbd 8798 b03d 8a95 98bd 229f 91be
00000160: 88f1 aabe 2130 56be 6f04 4c3f bc2c 223d
00000170: c73f aebe 428d 79be a361 0bbe 01b8 9e3e
00000180: 1fec 03bd 3492 a2bd f6db 4a3e 33aa 9e3c
00000190: 964f 8cbd c5cd 02be 66b2 3bbe ffa4 5bbe
000001a0: f1ed 5dbe a87b eb3c 57da 88bd c640 90be
000001b0: 3a52 95be c3c4 82bf a163 b0be f42f 74be
000001c0: 009e 463d eb45 ebbe 51ac a53c 0b41 51be
000001d0: 5753 c0bd 29dc 6fbd d294 72bd ddec 88bd
000001e0: 7ae3 1abd 7eb0 a4be 421e 033d b955 b4be
000001f0: f83e 21bf 3806 30bd 9281 e53c 9ad7 48bf
00000200: 8dd4 49bf 1302 b63e cec6 9abd 9016 c43b
00000210: bb3f 38be ca15 913e 6130 4dbd c834 fd3c
00000220: 30f5 09bd 730a f7be f09f 0abf 3a43 4d3e
00000230: 8bf5 13be 5277 43bd f502 e8bd ab46 81bd
00000240: b370 09bc f7af 67bf 7d4d 8abe 21b6 2b3d
00000250: 59fc e3bc cbad 14be 1563 60bd ff97 a63b
00000260: 7c7f b0be 0d4b 07bf 0524 6bbc 0a57 85bd
00000270: 75b6 83be 82ac d33c e8d9 61be 5183 903e
00000280: ab19 d7bc 3b23 413d eece 95be cdab cabe
00000290: fc10 623d 9e93 0dbe 2db7 88bf faf7 5abe
000002a0: 41f9 7cbe adab ccbc 1fe4 6cbe 41d9 edba
000002b0: 8110 053d 92f2 82bd 8ada 3a3e 2045 0dbf
000002c0: 2eef 9ebd 8d33 88be 044e 8dbe 1032 6abd
000002d0: 72f9 b93c aab0 63bd f1a4 323d 8e94 07bf
000002e0: f631 843d 6735 82be 15ef 2bbd fbc6 873b
000002f0: 6791 053c a0ed 4fbe 8266 46bf 3a8c 7d3d
00000300: 4612 d5bc 5158 9ebe adcd be3d 891c fabe
00000310: 6903 e6be ec65 193e 5b0f 533e b3b7 dcbe
00000320: 46f5 72be fa41 8abe a336 abbc 5d70 23bf
00000330: b4ed 79bf ac41 c53e c582 bebe e617 243f
00000340: f79b aabd a478 a53e 6f1b 71bd 02b9 e83e
00000350: e337 0d3d 755b 3f3e ed0d 15bd 43ee e83d
00000360: 2888 2cbe f4b0 28bc bcc7 d6be e25e 24be
00000370: 38c8 79be ce87 d3be 2d45 b2bc d077 5ebc
00000380: c832 9f3e fbed c83e eb79 63be da4b 613d
00000390: f92e b43d 126d 41be a962 b1be 6c8e d6be
000003a0: bd0d cabc 407c 81be 3ef9 bebe ed13 2bbf
000003b0: 56bf 433d 7125 b53e d5ba 9ebd 7dc5 a2be
000003c0: 39a5 cebd 10ce 253c e9ea 933c d8e1 4abd
000003d0: a9ea 833d cbe6 e9bd ae9d d5bd 88cc 75bf
000003e0: 8db7 dfbc 5f6a d6be 8f04 a1bc d976 12bf
000003f0: efc0 82be 41a8 d9bc ea9f dbbe cd90 5dbf

layer3.bias f4 [256]
-0.5614745 1.4868858 0.072391026 2.9690192 -0.06686963 0.79137254 -0.41631922 0.22663602
0.6930159 0.24712057 0.5598538 -0.48362833 4.626095 4.102284 -0.34713772 1.3298506
1.4486061 -0.35510102 4.4036994 -0.14047666 0.3726434 0.10919131 -0.044956353 0.67824876
0.30270752 1.3442823 0.91262394 -0.16518994 -0.3266127 4.8504715 0.30278248 -0.042278863
0.35441786 -0.1971537 0.0024716668 -0.44765583 -1.2674067 0.049677126 -0.031058114 -0.22541401
0.80085313 1.4622949 0.97816145 3.1041963 0.71576744 -0.10950024 -0.0955996 -0.30121872
-0.69725245 -0.028239673 -0.21406767 0.9448915 2.4427412 1.5567609 1.0872214 -0.20142718
0.47362596 -0.2812603 0.1691417 -0.22765468 -1.2166369 1.1001685 0.88665426 0.063877404
0.44456828 0.8433391 1.4429898 -0.93884844 0.5385232 0.6436361 -0.44685093 -0.16541365
0.26072395 -0.8877061 0.8707722 0.32055935 -0.087453835 0.74721205 0.13924533 1.3665036
1.6551131 0.4053304 -0.11349824 1.2851558 3.8731558 0.5634391 2.3461688 1.4034623
4.3031135 1.3915726 1.1045753 3.570728 0.28281164 0.25662786 1.7631521 -0.8973107
3.1883366 1.5918591 -0.2617787 0.89488894 1.4466174 -0.17090817 1.8401871 0.19462664
0.44302177 1.6607369 1.1502298 0.17373262 -1.0781431 0.28505555 -0.31531006 0.03783872
-0.43272194 1.0840002 -0.42225063 4.0129137 -0.17884186 -0.18946517 1.4300711 0.18832451
0.76194197 0.014628714 2.5388143 0.80678123 -0.031049227 0.7102218 0.4511718 -0.5348315
-0.35673055 -0.1552184 0.89217937 -0.29059672 -0.12774903 -0.30364433 0.48232988 0.666834
4.291455 0.558153 -0.14632006 0.5538858 1.4014508 -0.49044865 0.5775552 2.4045422
0.19241312 -0.17686392 1.2241036 -0.31989467 1.9658809 0.45369676 0.9294163 0.17194964
-0.123941466 0.29021752 0.16985446 2.8862 -0.2403872 -0.2918072 0.011188819 -0.12989308
0.015030391 0.47945574 -0.19955176 0.6773571 -0.050852742 1.4946249 2.651821 0.867001
0.6879728 -1.3942612 -0.30096704 0.5205723 1.1388528 1.171502 0.5685488 0.47397664
0.5842726 2.1441345 -0.7546846 -0.1530009 -0.6558072 0.1602691 0.062030245 -0.33650404
0.3951783 -0.98138076 1.0104773 0.72992605 0.29188067 -0.09995326 1.142824 -0.2641106
2.6014137 4.0047665 0.43901232 -0.102269724 -0.017394269 -0.16073056 4.002467 0.7011436
1.7113328 0.080858305 0.101765096 0.8579436 -3.0631385 -0.21209161 -0.13441862 0.9583599
0.82271934 2.126686 1.1268752 -0.045667775 -0.278956 0.6324467 0.15465006 -0.10510498
4.306754 -0.08775389 0.9065862 -0.5444502 0.111088194 0.36702627 -0.0923317 -0.12400983
3.588847 1.4980513 1.5697181 -0.025848063 1.1826233 -0.10299591 1.9137827 0.2696993
0.79224926 0.09850485 -0.025866764 0.8535539 3.8004935 -0.049151313 -0.015691577 -0.041332085
0.3854612 0.41320568 0.42099053 -0.46532726 0.4402641 0.6968282 0.3808361 -0.13584024
-0.5370659 -0.22477959 -0.0856799 1.1298814 -0.14271714 0.3368533 0.39218387 -0.79849625
00000000: cbbc 0fbf 4652 be3f bf41 943d 6904 3e40
00000010: f2f2 88bd 6497 4a3f cb27 d5be 4613 683e
00000020: 7d69 313f 2d0d 7d3e 9452 0f3f 229e f7be
00000030: f808 9440 e945 8340 09bc b1be 8b38 aa3f
00000040: ed6b b93f cdcf b5be 1beb 8c40 1dd9 0fbe
00000050: 1ecb be3e b29f df3d 2724 38bd b6a1 2d3f
00000060: 7bfc 9a3e 7111 ac3f b9a1 693f 8d27 29be
00000070: c839 a7be 1037 9b40 4e06 9b3e 9a2c 2dbd
00000080: 4276 b53e a9e2 49be b0fb 213b 2533 e5be
00000090: 623a a2bf 3e7a 4b3d 966d febc eed2 66be
000000a0: b604 4d3f 7b2c bb3f ca68 7a3f 27ab 4640
000000b0: 893c 373f a941 e0bd b9c9 c3bd 5739 9abe
000000c0: 237f 32bf e356 e7bc 8e34 5bbe 69e4 713f
000000d0: df55 1c40 f143 c73f 122a 8b3f ed42 4ebe
000000e0: 1a7f f23e 5a01 90be 7b33 2d3e 4f1e 69be
000000f0: c2ba 9bbf 52d2 8c3f c6fb 623f 28d2 823d
00000100: 749e e33e 12e5 573f e4b3 b83f 5f58 70bf
00000110: a8dc 093f 56c5 243f a5c9 e4be 3262 29be
00000120: 9c7d 853e b540 63bf edea 5e3f 5b20 a43e
00000130: ff1a b3bd 4a49 3f3f 5496 0e3e 97e9 ae3f
00000140: bfda d33f 7787 cf3e c471 e8bd fc7f a43f
00000150: c9e1 7740 8b3d 103f a127 1640 a7a4 b33f
00000160: 1bb3 8940 0d1f b23f b962 8d3f cf86 6440
00000170: b0cc 903e ba64 833e f8ae e13f 27b6 65bf
00000180: b50d 4c40 0ac2 cb3f dc07 86be 7117 653f
00000190: c22a b93f 8d02 2fbe 408b eb3f 354c 473e
000001a0: c0d3 e23e 0793 d43f bb3a 933f f7e6 313e
000001b0: 9800 8abf cdf2 913e 5270 a1be c6fc 1a3d
000001c0: bb8d ddbe 85c0 8a3f 3c31 d8be ca69 8040
000001d0: 5222 37be 2803 42be 920c b73f 24d8 403e
000001e0: a10e 433f 46ad 6f3c ef7b 2240 3789 4e3f
000001f0: f35a febc 19d1 353f fdff e63e b8ea 08bf
00000200: 63a5 b6be 92f1 1ebe de65 643f 18c9 94be
00000210: a4d0 02be 4577 9bbe f1f3 f63e a2b5 2a3f
00000220: 9953 8940 1de3 0e3f edd4 15be 76cb 0d3f
00000230: bd62 b33f 161c fbbe a8da 133f 05e4 1940
00000240: f207 453e d11b 35be 6daf 9c3f 3cc9 a3be
00000250: fca1 fb3f f14a e83e 3aee 6d3f 9113 303e
00000260: 06d5 fdbd 6497 943e 54ee 2d3e 80b7 3840
00000270: 1028 76be c167 95be 4f51 373c b102 05be
00000280: 0742 763c 397b f53e 4c57 4cbe 4667 2d3f
00000290: f74a 50bd de4f bf3f 6fb7 2940 c7f3 5d3f
000002a0: fc1e 303f 2777 b2bf 5a18 9abe 3a44 053f
000002b0: eec5 913f c7f3 953f 6a8c 113f 11ad f23e
000002c0: e492 153f 8039 0940 0333 41bf 45ac 1cbe
000002d0: fbe2 27bf 951d 243e 6d13 7e3d 424a acbe
000002e0: cf54 ca3e c53b 7bbf 5257 813f 6fdc 3a3f
000002f0: 6271 953e 4bb4 ccbd 0f48 923f 8139 87be
00000300: 907d 2640 0c27 8040 39c6 e03e ca72 d1bd
00000310: 6d7e 8ebc 8d96 24be 3614 8040 267e 333f
00000320: f40c db3f 0a99 a53d 386a d03d 31a2 5b3f
00000330: 760a 44c0 8b2e 59be 09a5 09be 1357 753f
00000340: bc9d 523f a01b 0840 723d 903f 220e 3bbd
00000350: 52d3 8ebe 07e8 213f 965c 1e3e 4841 d7bd
00000360: eed0 8940 50b8 b3bd 0916 683f 1761 0bbf
00000370: 3582 e33d deea bb3e 6718 bdbd def8 fdbd
00000380: abaf 6540 25c0 bf3f 86ec c83f 51bf d3bc
00000390: 3360 973f 85ef d2bd d5f6 f43f 0716 8a3e
000003a0: d9d0 4a3f e9bc c93d 89e6 d3bc 8282 5a3f
000003b0: 493b 7340 e352 49bd 9f8b 80bc d54b 29bd
000003c0: 2c5b c53e b28f d33e 128c d73e 603f eebe
000003d0: 4c6a e13e 5563 323f f3fc c23e b419 0bbe
000003e0: 277d 09bf 9f2c 66be f278 afbd f49f 903f
000003f0: 7124 12be 0978 ac3e 53cc c83e 406a 4cbf

layer4.weight f4 [128, 256]
-0.09680095 0.01004727 0.085480824 -0.2028405 -0.046263922 0.0010485763 -0.03308138 -0.14749973
-0.049501985 -0.004455711 -0.08468894 0.034726664 -0.062192094 -0.022049926 0.042149648 0.060107872
-0.0011088942 0.031806502 -0.029238284 0.037517633 -0.07416108 -0.16511062 0.041872405 -0.026168577
-0.14963192 0.025134584 -0.30587935 -0.03278848 -0.113605835 -0.01262952 -0.0138852615 -0.07396053
-0.036699325 0.045514744 -0.13272002 -0.017163582 -0.10859437 -0.05727267 0.056243226 -0.094777964
-0.026353424 -0.06617872 -0.05285605 0.09121826 -0.08847668 -0.031190997 0.016819753 0.036507167
-0.0644459 -0.039248142 0.036847126 0.025903407 0.15818608 0.022268211 -0.05613541 0.010278227
0.0024210918 0.005562541 -0.09011092 -0.012863632 -0.17568214 -0.113608316 -0.082352564 0.034531817
-0.09460292 -0.08497773 0.017313283 -0.023999143 -0.12946212 -0.071401656 -0.16284032 0.060845815
-0.1555595 -0.114159815 -0.06214508 0.0036703811 -0.04299916 0.017781137 0.040541977 -0.072367735
-0.029113356 0.016660448 0.035119906 -0.023676775 -0.24618216 -0.29630166 -0.10108029 -0.009108338
-0.04582799 0.03169515 0.044484366 0.006786057 -0.046771787 0.01951781 -0.002385208 -0.048373356
-0.046336744 -0.046101425 -0.01328753 -0.07280956 -0.1782562 -0.08576539 0.01445032 0.0063824207
0.47862467 -0.0035464664 -0.015990686 -0.11120247 -0.041018028 0.027372222 -0.006603378 -0.12233943
-0.04506284 -0.050050326 -0.12990507 -0.066674106 0.024385719 -0.027775416 0.022357693 -0.03832699
-0.1380672 -0.16542481 -0.059565585 -0.00044157312 -0.07366771 -0.111020565 -0.076862805 -0.11846316
-0.06687937 -0.032999888 0.05022084 -0.063212685 -0.02656435 -0.115487106 0.033974122 -9.022704e-05
-0.042757947 -0.04241812 -0.07340766 0.010460245 -0.08400309 -0.01803497 -0.160001 -0.43557814
0.02579551 0.02102423 -0.09680381 0.04876385 -0.17361793 -0.10887235 -0.014499343 -0.08081244
0.07935682 -0.13922967 -0.11126715 0.014587419 0.018193487 -0.025057705 -0.099860884 -0.04667576
-0.2756045 -0.06630549 -0.114551656 -0.12647869 -0.00312296 -0.027123181 -0.02373248 -0.030468943
0.05766156 -0.12282829 -0.006680672 -0.080152206 -0.052285 -0.0663332 -0.022562444 0.0032923636
-0.061636228 -0.066829175 -0.12225717 -0.080388084 -0.15074244 -0.07749008 0.00016557866 -0.041867774
0.0031876762 -0.15262783 0.008009392 -0.15286204 -0.096710764 -0.025680954 -0.3511775 -0.016376335
-0.045676306 -0.08473192 -0.21953727 -0.100838885 -0.023958525 0.037966117 -0.08942492 -0.07460915
-0.02968203 -0.07596694 0.01422131 0.016472938 -0.0979177 -0.041156437 0.0014961087 -0.010911776
-0.036234386 -0.05120929 -0.084992185 0.025203269 -0.09131672 -0.016983004 0.01685003 0.025496408
-0.05446135 -0.0049280096 -0.13916145 -0.05674078 -0.066362746 -0.03028764 -0.03492058 0.039222404
0.007391949 0.031934045 -0.033241194 0.04845918 -0.012613119 -0.00024016137 0.03229904 -0.030002186
-0.021655392 -0.0059229997 -0.032224074 0.0308775 -0.035069756 0.053378016 -0.025202498 0.08206253
-0.00073543517 0.006424274 -0.01424754 -0.08639095 -0.021575361 -0.04208379 0.030562693 0.09057062
-0.004044886 -0.02083278 0.04866539 -0.233967 -0.037881948 -0.085526526 -0.037866395 -0.08095725
00000000: 943f c6bd 4e9d 243c 9210 af3d 6cb5 4fbe
00000010: 3d7f 3dbd 6270 893a 5780 07bd 2b0a 17be
00000020: 98c2 4abd 3701 92bb 6571 adbd 8c3d 0e3d
00000030: 23bd 7ebd 0ca2 b4bc 1ca5 2c3d ac33 763d
00000040: 5158 91ba 8947 023d 2085 efbc 17ac 193d
00000050: c4e1 97bd c212 29be 6682 2b3d 7c5f d6bc
00000060: 1c39 19be 0be7 cd3c 389c 9cbe 374d 06bd
00000070: 2daa e8bd 0cec 4ebc 027f 63bc 9e78 97bd
00000080: 0852 16bd ab6d 3a3d c2e7 07be a49a 8cbc
00000090: ba66 debd bf96 6abd 4c5f 663d f31a c2bd
000000a0: 23e3 d7bc b588 87bd 967f 58bd a4d0 ba3d
000000b0: 4333 b5bd 4384 ffbc 94c9 893c 8a88 153d
000000c0: 36fc 83bd a9c2 20bd 03ed 163d 6233 d43c
000000d0: 88fb 213e d36b b63c 3eee 65bd 0266 283c
000000e0: 2eab 1e3b fa45 b63b 138c b8bd fcc1 52bc
000000f0: 05e6 33be 7aab e8bd 76a8 a8bd 3c71 0d3d
00000100: 2dbf c1bd ce08 aebd 96d4 8d3c da99 c4bc
00000110: b891 04be 083b 92bd 9dbf 26be 7639 793d
00000120: fd4a 1fbe 9fcc e9bd d78b 7ebd c78a 703b
00000130: e31f 30bd bfa9 913c 580f 263d 8935 94bd
00000140: 227f eebc 7e7b 883c e4d9 0f3d ccf5 c1bc
00000150: 2d17 7cbe dab4 97be 2f03 cfbd 233b 15bc
00000160: 21b6 3bbd c6d2 013d 3d35 363d 925d de3b
00000170: c693 3fbd d0e3 9f3c 2651 1cbb 2423 46bd
00000180: 99cb 3dbd d9d4 3cbd f1b3 59bc 2e1d 95bd
00000190: cb88 36be c4a5 afbd 09c1 6c3c a023 d13b
000001a0: 4b0e f53e d56b 68bb e6fe 82bc 1fbe e3bd
000001b0: 8502 28bd b63b e03c 2661 d8bb 188d fabd
000001c0: d093 38bd 9201 4dbd d605 05be 6f8c 88bd
000001d0: 8fc4 c73c 4589 e3bc 7b27 b73c c3fc 1cbd
000001e0: 7d61 0dbe 1f65 29be 0bfb 73bd f182 e7b9
000001f0: 19df 96bd c05e e3bd 3f6a 9dbd d09c f2bd
00000200: 0df8 88bd e42a 07bd 5eb4 4d3d a775 81bd
00000210: 7b9d d9bc 8184 ecbd 7328 0b3d 4638 bdb8
00000220: f522 2fbd 9fbe 2dbd c156 96bd 7361 2b3c
00000230: d009 acbd 13be 93bc 4dd7 23be 1904 dfbe
00000240: 1b51 d33c 023b ac3c 1341 c6bd 9abc 473d
00000250: e6c8 31be 77f8 debd a78e 6dbc fe80 a5bd
00000260: d485 a23d 3992 0ebe 08e0 e3bd 1200 6f3c
00000270: 820a 953c d145 cdbc dd83 ccbd 152f 3fbd
00000280: 081c 8dbe 2ccb 87bd 0f9a eabd a183 01be
00000290: 93aa 4cbb 6f31 debc 9e6a c2bc 019a f9bc
000002a0: 872e 6c3d 668d fbbd 8ae9 dabb d726 a4bd
000002b0: cc28 56bd b3d9 87bd e0d4 b8bc b2c4 573b
000002c0: 4576 7cbd bcdd 88bd f861 fabd 82a2 a4bd
000002d0: 3a5c 1abe 1eb3 9ebd 2f9f 2d39 8b7d 2bbd
000002e0: 55e8 503b 784a 1cbe d339 033c de87 1cbe
000002f0: 4b10 c6bd dd60 d2bc 8acd b3be aa27 86bc
00000300: 1417 3bbd ee87 adbd 61ce 60be 9e84 cebd
00000310: ab44 c4bc 5c82 1b3d 6a24 b7bd afcc 98bd
00000320: bb27 f3bc 8e94 9bbd 7f00 693c 41f2 863c
00000330: 1389 c8bd a793 28bd 1419 c43a 4ec7 32bc
00000340: 826a 14bd d5c0 51bd 6210 aebd 1677 ce3c
00000350: 4304 bbbd f11f 8bbc 1309 8a3c d8dd d03c
00000360: dd12 5fbd 247b a1bb 5780 0ebe 0569 68bd
00000370: 31e9 87bd c91d f8bc e208 0fbd aca7 203d
00000380: 2a38 f23b 46cd 023d eb27 08bd 227d 463d
00000390: 41a7 4ebc d4d3 7bb9 004c 043d 25c7 f5bc
000003a0: a666 b1bc b915 c2bb 64fd 03bd d0f2 fc3c
000003b0: 4ea5 0fbd e8a2 5a3d 7875 cebc 6610 a83d
000003c0: 38ca 40ba b782 d23b 846e 69bc bded b0bd
000003d0: d0be b0bc 0d60 2cbd 9d5e fa3c 177d b93d
000003e0: f78a 84bb 82a9 aabc 5c55 473d 0c95 6fbe
000003f0: 1a2a 1bbd 8828 afbd cb19 1bbd eacc a5bd

layer4.bias f4 [128]
0.111477494 0.49494588 1.3587918 0.3967178 -0.31704843 -0.13238047 0.75431335 0.37202835
1.0448285 -0.22886889 1.8603748 -0.008436181 -0.27010855 -0.06155034 0.067912824 -0.05169919
-0.33037436 1.797936 1.3827184 -0.16355091 -0.055953406 0.044060845 -0.056988664 2.8324058
-0.09262455 -0.121174514 0.65862834 0.09631491 1.369109 -0.06725764 2.8868265 0.4284716
3.6038322 0.9261422 -0.100503705 1.16409 -0.107117355 0.010015624 0.00371221 0.17753881
-0.17428255 3.4631944 -0.069034025 -0.29721767 0.93722165 -0.07517343 0.7230805 -0.3236001
1.582441 -0.12560967 -0.015165295 0.9892368 0.089840844 -0.020800589 0.28692222 -0.05944888
-0.12535079 -0.5417453 0.29255027 -0.07779932 -0.32551104 5.8791986 0.79925114 -0.0072418572
-0.014939974 0.44586498 -0.06263724 2.028924 -0.093980774 -0.06966577 2.468088 0.37347183
0.16175607 2.4248714 -0.10477693 -0.17699027 -0.16434002 -0.0600576 -0.02481927 0.07105233
-0.006347225 -0.18898459 0.4564173 0.016384646 0.48825976 -0.23054875 -0.016572824 0.6704732
-0.46102226 4.2493815 0.8211287 0.029916333 0.62857676 0.12788399 0.9304737 0.5969395
-0.123229094 0.7887725 5.4377055 2.1683586 -0.02648958 0.16736433 2.797169 -0.08448787
-0.08531971 -0.07545273 -0.0024083965 -0.56088865 0.38419774 -0.15561545 -0.07182751 -0.24124518
0.0638056 -0.28443706 -0.5944433 -0.12302191 -0.02263948 1.9044877 -0.129933 -0.07580708
0.8503744 -0.19036974 4.376351 -0.3775282 0.44501168 -0.15195948 0.58405125 -0.028771088
00000000: 504e e43d 8c69 fd3e e4ec ad3f 981e cb3e
00000010: 2c54 a2be bf8e 07be ae1a 413f 807a be3e
00000020: f1bc 853f 9b5c 6abe c320 ee3f e837 0abc
00000030: ab4b 8abe 361c 7cbd e115 8b3d 88c2 53bd
00000040: d426 a9be c422 e63f ebfc b03f e479 27be
00000050: 662f 65bd 2579 343d f26c 69bd 2346 3540
00000060: f1b1 bdbd 582a f8bd de9b 283f c040 c53d
00000070: f73e af3f 60be 89bd c4c1 3840 a160 db3e
00000080: 30a5 6640 a817 6d3f e3d4 cdbd e700 953f
00000090: 5860 dbbd 9218 243c 8d48 733b bccc 353e
000000a0: 2077 32be faa4 5d40 b661 8dbd ea2c 98be
000000b0: c2ed 6f3f 87f4 99bd ce1b 393f eaae a5be
000000c0: 6d8d ca3f d29f 00be dc77 78bc 9f3e 7d3f
000000d0: 7afe b73d ff65 aabc 78e7 923e ab80 73bd
000000e0: f55b 00be d2af 0abf 26c9 953e 4055 9fbd
000000f0: 62a9 a6be 6522 bc40 b99b 4c3f 1a4d edbb
00000100: cbc6 74bc 6a48 e43e f447 80bd e4d9 0140
00000110: fe78 c0bd edac 8ebd 27f5 1d40 b337 bf3e
00000120: 62a3 253e 1831 1b40 4995 d6bd f03c 35be
00000130: c048 28be f5fe 75bd c851 cbbc e283 913d
00000140: 62fc cfbb 2d85 41be 87af e93e 1839 863c
00000150: 2ffd f93e f914 6cbe bbc3 87bc 22a4 2b3f
00000160: 1c0b ecbe effa 8740 7e35 523f 1913 f53c
00000170: 68ea 203f 05f4 023e 8633 6e3f 07d1 183f
00000180: 895f fcbd ffec 493f af01 ae40 63c6 0a40
00000190: ad00 d9bc 8e61 2b3e d104 3340 fa07 adbd
000001a0: 1abc aebd f686 9abd 30d6 1dbb 6696 0fbf
000001b0: 91b5 c43e a859 1fbe 4d1a 93bd fa08 77be
000001c0: 83ac 823d bca1 91be 702d 18bf e9f2 fbbd
000001d0: 6e76 b9bc 41c6 f33f 280d 05be be40 9bbd
000001e0: 23b2 593f 49f0 42be 110b 8c40 604b c1be
000001f0: 92d8 e33e 449b 1bbe 6284 153f 58b1 ebbc

layer5.weight f4 [1, 128]
0.022863967 -0.07130896 -0.060833745 0.013626324 -0.051150706 -0.006489591 -0.011668572 0.0005999193
0.011296224 0.014878817 -0.14561142 -0.08127111 0.18889412 0.0053278236 0.06896653 -0.037475433
-0.079193406 -0.5067501 -0.07126585 -0.028482217 -0.030309694 0.02882681 0.13718756 -0.11256277
-0.06827657 0.08356533 -0.10784157 -0.07388197 -0.7787279 -0.08069579 -0.43743983 -0.01822661
0.016526362 -0.58896005 0.1344268 0.11154959 0.0032164126 0.009181978 -0.018228143 0.052565176
0.06882924 0.015126372 0.015760545 0.20439377 0.00077195186 -0.060396034 0.011330638 0.12868024
-0.06691102 0.005926778 -0.014306627 -0.010367701 -0.005536911 0.016308052 0.07868394 -0.07484308
-0.04610333 -0.605542 -0.108164236 0.02806434 -0.0054307645 -0.46795836 -0.110214606 -0.0029971225
0.06454766 -0.053468604 0.017901124 -0.64846283 -0.05689263 0.05192703 -0.008673481 -0.07886897
-0.18249883 0.14654198 0.07719039 0.07404808 -0.082566485 0.08611792 0.032640558 0.05851407
-0.00229461 0.029937567 -0.16876915 -0.016710067 -0.18567538 -0.065193884 -0.087142035 -0.26572144
0.4969687 -0.45260927 -0.15487723 0.082440495 -0.03375912 0.12406799 0.036155332 0.0796402
0.025608918 -0.02364019 -0.37367922 -0.3496165 -0.031827584 -0.041470926 -0.37820327 -0.059433773
-0.059551608 -0.01541913 0.045537565 0.086161055 -0.090809435 -0.025376908 -0.036853038 0.054141227
-0.09220463 -0.08552175 0.014657027 0.022940256 0.122055665 0.0013834172 0.59545624 0.015216075
-0.024741922 -0.10577 -0.18956365 -0.1270314 -0.1279663 0.078250356 -0.10670969 0.014617849
00000000: 374d bb3c 6f0a 92bd ce2c 79bd f240 5f3c
00000010: 6783 51bd a3a6 d4bb 8a2d 3fbc e743 1d3a
00000020: cc13 393c 48c6 733c 291b 15be 7871 a6bd
00000030: 766d 413e 0695 ae3b 533e 8d3d d77f 19bd
00000040: 2730 a2bd 60ba 01bf d4f3 91bd 8a53 e9bc
00000050: 094c f8bc 3426 ec3c e57a 0c3e 4f87 e6bd
00000060: 96d4 8bbd 4d24 ab3d 0bdc dcbd 6e4f 97bd
00000070: b65a 47bf d643 a5bd 1df8 dfbe f94f 95bc
00000080: 4b62 873c 16c6 16bf 2ea7 093e 1d74 e43d
00000090: 73ca 523b 0270 163c 3053 95bc 954e 573d
000000a0: 58f6 8c3d 9ad4 773c 421c 813c 9a4c 513e
000000b0: d05c 4a3a d561 77bd 24a4 393c c1c4 033e
000000c0: a508 89bd 6b35 c23b 5866 6abc 4add 29bc
000000d0: fa6e b5bb 7798 853c 0c25 a13d 5447 99bd
000000e0: d8d6 3cbd cd04 1bbf 3685 ddbd 30e7 e53c
000000f0: 8ef4 b1bb 3d98 efbe 32b8 e1bd 5f6b 44bb
00000100: 9031 843d e501 5bbd 61a5 923c a901 26bf
00000110: 3f08 69bd 70b1 543d 371b 0ebc 0e86 a1bd
00000120: f9e0 3abe 1a0f 163e ff15 9e3d 85a6 973d
00000130: 9e18 a9bd 985e b03d 1bb2 053d 73ac 6f3d
00000140: 2b61 16bb a13f f53c d2d1 2cbe 8de3 88bc
00000150: b021 3ebe 5f84 85bd 8677 b2bd a40c 88be
00000160: ae72 fe3e 67bc e7be 2398 1ebe 90d6 a83d
00000170: 0147 0abd 5c17 fe3d 9d17 143d 671a a33d
00000180: cbc9 d13c 12a9 c1bc e252 bfbe ef00 b3be
00000190: a45d 02bd 6bdd 29bd dca3 c1be d470 73bd
000001a0: 63ec 73bd 85a0 7cbc 9985 3a3d 3575 b03d
000001b0: 4cfa b9bd 3ce3 cfbc 36f3 16bd 31c3 5d3d
000001c0: c8d5 bcbd 0726 afbd 0724 703c 34ed bb3c
000001d0: 52f8 f93d c753 b53a d26f 183f d84c 793c
000001e0: 92af cabc f19d d8bd f91c 42be 8514 02be
000001f0: 9909 03be b941 a03d 9c8a dabd b47f 6f3c
