PPO/ppo_actor.pth (torch, 549599 bytes, 10 tensors)

layer1.weight f4 [128, 29]
0	0x3da5f304	0.08102992
1	0x3e04aa4b	0.12955587
2	0xbee57fa8	-0.44823956
3	0xbea68c70	-0.3252902
4	0xbe83c3a7	-0.25735208
5	0xbf530fea	-0.8244616
6	0x3e5b0a94	0.21390754
7	0x3f84509e	1.0337102
8	0xbef5aa68	-0.47981572
9	0xbe787a99	-0.24265517
10	0xbd8173ad	-0.063208915
11	0x3f395459	0.7239433
12	0x3ee79eac	0.45238245
13	0x3f1aedb7	0.60518974
14	0xbf3d56ef	-0.73960775
15	0xbc7bb31f	-0.01536253
16	0xbe2f3ec9	-0.17113794
17	0xbdbfe5c3	-0.093699954
18	0xbeac7e94	-0.3369032
19	0x3dc1ab9e	0.094565615
20	0x3f0b537e	0.54424274
21	0xbe62fccb	-0.22166745
22	0x3cf19734	0.029491045
23	0xbe466fd4	-0.19378597
24	0x3e972be0	0.2952566
25	0x3e668bd6	0.2251428
26	0x3d1ee37a	0.038791157
27	0xbdd6f3e0	-0.10495734
28	0xbdffaa2b	-0.12483629
29	0x3ede5a10	0.43428087
30	0x3e5f8061	0.21826316
31	0xbf3377ea	-0.7010485
32	0xbf8d0561	-1.1017267
33	0x3ed4dd17	0.41574928
34	0x3dd26f27	0.10275107
35	0x3de2239b	0.110419475
36	0x3dcb090b	0.09913834
37	0xbf8bfb3e	-1.0936048
38	0x3edd1cde	0.43186086
39	0x3f9b7855	1.2146097
40	0xbe12e9ab	-0.1434695
41	0x3e4a42e0	0.19752073
42	0x3e163c47	0.14671431
43	0xbef31484	-0.4747659
44	0xbcc51318	-0.024056956
45	0x3eb39f8a	0.35082656
46	0x3f97031c	1.1797824
47	0xbe94e642	-0.29081923
48	0xbef54c71	-0.47909883
49	0x3dd71344	0.105017215
50	0xbd5e9cba	-0.054348685
51	0x3e6e1892	0.2325156
52	0xbf38af8b	-0.7214286
53	0xbf15152a	-0.5823542
54	0x3e30d29f	0.17267846
55	0xbebab9cf	-0.36469886
56	0xbe5758d1	-0.21029975
57	0x3f4bcbde	0.7960795
58	0xbef329b6	-0.4749276
59	0x3e6c9ccd	0.2310669
60	0xbfb3425a	-1.4004624
61	0x3d5a01a3	0.053224217
62	0xbce0558b	-0.02738454
63	0x3eca2a6c	0.3948549
64	0x3ed8ce3b	0.4234484
65	0xbf92506d	-1.1430794
66	0xbf8378ef	-1.0271281
67	0xbe4487d6	-0.19192442
68	0x3f2f06a7	0.68369526
69	0xbe83a88b	-0.25714526
70	0x3f40c112	0.752946
71	0xbee2e371	-0.4431415
72	0xbf28256a	-0.6568209
73	0x3ec63240	0.38710213
74	0xbe41f980	-0.18942833
75	0xbfa3ac78	-1.2787008
76	0xbf2967dc	-0.661741
77	0xbf2a2666	-0.6646484
78	0x3e446acd	0.19181366
79	0xbe92cee9	-0.28673485
80	0xbe1416fd	-0.14461894
81	0xbe1f9762	-0.15585092
82	0x3e7f4382	0.24928096
83	0xbd94c5f8	-0.07264322
84	0x3e214900	0.15750504
85	0xbefbb720	-0.4916315
86	0x3e1ff2ef	0.15620016
87	0xbbfdadeb	-0.00774168
88	0x3ed96179	0.42457178
89	0xbecf45f5	-0.4048306
90	0x3e022ccd	0.12712403
91	0x3eeaf17e	0.4588737
92	0x3fbe30d9	1.4858657
93	0x3f42a2f2	0.76029885
94	0xbf535194	-0.82546353
95	0xbf6ca172	-0.92433846
96	0x3e37bd7b	0.17943375
97	0x3ec981e9	0.39356926
98	0xbd5428c4	-0.05179669
99	0x3ef269ce	0.47346348
100	0xbd23821e	-0.03991901
101	0xbe95ca1f	-0.2925577
102	0x3eaeea86	0.34163302
103	0x3f1e2da6	0.61788404
104	0x3fa6ee96	1.3041561
105	0x3c8c70ea	0.017143685
106	0xbf98a609	-1.192567
107	0x3eb5b04d	0.3548607
108	0x3e5bb8e5	0.2145725
109	0xbe471d08	-0.19444668
110	0xbcdf8cc5	-0.027288804
111	0xbdba0af1	-0.09084118
112	0x3ed09ba0	0.40743732
113	0x3f0aeb43	0.5426523
114	0xbe5d5026	-0.21612605
115	0x3f7fdd46	0.9994701
116	0xbde56224	-0.112003595
117	0x3e910ce9	0.28330162
118	0x3e5c5f4a	0.21520725
119	0x3e5e686e	0.21719524
120	0x3f9a3efe	1.2050474
121	0xbf0ad646	-0.54233205
122	0xbf4b5f4b	-0.7944228
123	0xbf2d7190	-0.6775141
124	0x3e781594	0.24226981
125	0x3f40a77b	0.75255555
126	0x3f241e50	0.64108753
127	0xbef654bc	-0.48111522
128	0x3f03620a	0.5132147
129	0x3f19db00	0.6009979
130	0xbe934ca5	-0.28769413
131	0xbef8df55	-0.4860789
132	0x3d5727d7	0.05252823
133	0xbf026e94	-0.5094998
134	0x3f0913bd	0.53545743
135	0xbe9d37ad	-0.3070654
136	0xbeaae767	-0.3337967
137	0xbd51b367	-0.051196482
138	0x3edaefae	0.42760986
139	0xbeb10e7b	-0.3458136
140	0x3f0ccae0	0.5499706
141	0xbe15c98b	-0.14627664
142	0x3eab716e	0.33484977
143	0x3e9ddc0e	0.3083195
144	0x3f54dfbc	0.8315389
145	0xbf9a42cc	-1.2051635
146	0xbda208b3	-0.079118155
147	0xbd506b5d	-0.05088364
148	0xbddf472b	-0.10902246
149	0xbe0bc3b5	-0.13648875
150	0x3dba9db3	0.0911211
151	0xbeebd93c	-0.46064174
152	0xbff00462	-1.8751338
153	0xbd9dbdc0	-0.077022076
154	0xbe40d7d0	-0.18832326
155	0xbeab29cb	-0.33430323
156	0x3fe9a609	1.8253795
157	0xbcd1931e	-0.025582846
158	0x3ecc1966	0.39863127
159	0x3c8e05fa	0.017336834
160	0xbe2d13c3	-0.1690207
161	0xbdd51132	-0.1040367
162	0x3f200984	0.6251452
163	0xbecd664f	-0.40117118
164	0x3f3c228f	0.7349023
165	0x3d243fb1	0.040099803
166	0x3e6c4fd4	0.23077327
167	0xbd27fbb0	-0.041011512
168	0xbddd01e4	-0.10791376
169	0x3dc2ad3b	0.09505697
170	0xbee65e71	-0.44993928
171	0x3ef92e49	0.48668125
172	0xbf1fca34	-0.6241791
173	0xbdce0944	-0.10060361
174	0xbe6a66db	-0.22890799
175	0x3e7937c3	0.24337678
176	0x3f1d6d13	0.6149456
177	0x3e82b224	0.25526536
178	0xbdf103c6	-0.11768298
179	0x3faf687b	1.370376
180	0xbf291a6a	-0.6605593
181	0xbd802169	-0.062563725
182	0x3df3256a	0.118723705
183	0x3f999405	1.1998297
184	0x3e86ecb4	0.26352465
185	0xbf1185fe	-0.5684508
186	0xbdbdfa4f	-0.09276258
187	0xbf01e865	-0.5074523
188	0xbf311618	-0.6917434
189	0xbf6ea3ef	-0.9321889
190	0xbf012a31	-0.50455004
191	0x3e85d342	0.2613774
192	0xbec9afb2	-0.39391857
193	0x3d727970	0.059197843
194	0x3f381753	0.7191059
195	0x3dcd9269	0.10037691
196	0x3f5df611	0.8670359
197	0xbf9e9433	-1.2388977
198	0x3da102d3	0.07861867
199	0xbe717d7f	-0.23583029
200	0x3eb3011b	0.3496178
201	0xbb8ca911	-0.004292615
202	0x3da0291e	0.078203425
203	0x3f231a3b	0.637119
204	0xbf1f1806	-0.6214603
205	0x3e035e06	0.12828836
206	0x3e60536a	0.2190682
207	0xbfcb1651	-1.5866185
208	0xbe84ec2b	-0.25961432
209	0xbf8737b9	-1.056388
210	0x3e16e74c	0.1473667
211	0x3d1d6566	0.03842678
212	0x3e12b15b	0.14325468
213	0x3eb5d53d	0.3551425
214	0xbf398a7f	-0.72476953
215	0x3e181c25	0.14854486
216	0xbe2b5aa4	-0.16733795
217	0xbef39ecb	-0.47582087
218	0x3f2ae8f9	0.6676174
219	0xbd07ccd9	-0.033154342
220	0x3f95748c	1.1676192
221	0xbf29e269	-0.663611
222	0x3f3a0bf9	0.7267452
223	0xbec3957a	-0.3819998
224	0xbe5810cc	-0.21100157
225	0x3d99e317	0.07514017
226	0x3f1c1ad3	0.6097843
227	0x3e4046f9	0.18777074
228	0x3e92b81e	0.28656095
229	0xbeaf0ee8	-0.3419106
230	0x3f91e1fe	1.1397092
231	0xbf2816c5	-0.65659744
232	0xbdaf7ea4	-0.08569077
233	0xbe3fd773	-0.18734531
234	0xbe8a5850	-0.27020502
235	0xbe80669d	-0.25078288
236	0x3fcd930e	1.6060503
237	0xbdba5ce7	-0.09099751
238	0x3f3b18d5	0.73084766
239	0xbfe21875	-1.7663714
240	0x3e594575	0.21217902
241	0x3d8d2458	0.06891698
242	0xbeba9312	-0.3644033
243	0x3e23942a	0.15974489
244	0xbd628a71	-0.05530781
245	0xbe82c3ba	-0.25539953
246	0x3ec78c63	0.38974294
247	0xbe4d4c9b	-0.20048754
248	0x3f8c4c04	1.0960698
249	0xbe885ed2	-0.26634842
250	0x3fb41aee	1.4070718
251	0x3d33fa95	0.043940146
252	0xbf2de28d	-0.67923814
253	0xbe918cab	-0.28427634
254	0xbf3612e7	-0.7112259
255	0x3e9148b2	0.28375775

layer1.bias f4 [128]
0	0xbf119679	-0.5687023
1	0xbf86d39f	-1.0533332
2	0xbf38fd57	-0.72261566
3	0xbe4dac8d	-0.20085354
4	0x3ea650b1	0.32483438
5	0x3e857198	0.26063228
6	0x3ec543a6	0.38528174
7	0xbbde3d19	-0.0067821858
8	0xbe1e5b71	-0.1546457
9	0xbf5cb5dc	-0.86214995
10	0xbe56b316	-0.20966753
11	0xbf165114	-0.58717465
12	0xbedc0c69	-0.42978218
13	0xbf21c58a	-0.63192046
14	0xbeb81aaf	-0.35957858
15	0xbea261b8	-0.31715178
16	0xbd5e87c1	-0.054328684
17	0xbf847d61	-1.0350763
18	0xbee01c8a	-0.43771774
19	0xbf86b1f8	-1.0523062
20	0xbf2d19e1	-0.67617613
21	0xbf9d9688	-1.2311563
22	0xbe04c1b5	-0.12964518
23	0x3e4a026a	0.19727483
24	0x3efc3daf	0.4926581
25	0xbe3cc186	-0.18433198
26	0xbf98c60f	-1.1935443
27	0xbfba351d	-1.4547459
28	0xbc7e6fa1	-0.015529544
29	0x3e079a87	0.13242541
30	0xbf596ce4	-0.8493178
31	0xbe8bdf87	-0.27318975
32	0xbef4fed1	-0.4785066
33	0xbeeeb07f	-0.4661903
34	0xbf4e8595	-0.8067258
35	0xbe5a8598	-0.21340024
36	0xbfaaac57	-1.3333844
37	0xbee0d2fc	-0.43910968
38	0xbec0b752	-0.37639862
39	0xbf053bcd	-0.52044374
40	0xbe5b386d	-0.21408243
41	0x3b925169	0.0044652713
42	0xbece4b15	-0.40291658
43	0x3ed62c5b	0.41830716
44	0xbf12e32c	-0.57377887
45	0xbeb1380e	-0.3461308
46	0xbe8581b9	-0.26075533
47	0xbf2da572	-0.67830575
48	0xbf828d2e	-1.0199335
49	0x3ecd4eac	0.40099084
50	0xbe8b4b3c	-0.27205837
51	0xbe35aeca	-0.17742458
52	0xbd28b7db	-0.041190963
53	0xbe3b647f	-0.18300055
54	0x3e21ef54	0.15813953
55	0x3ea80d24	0.32822526
56	0x3dcada2c	0.09904894
57	0xbd82944c	-0.06375942
58	0xbf57c0e1	-0.84278685
59	0xbf99a4a0	-1.2003365
60	0xbec004d2	-0.37503678
61	0x3e187a3f	0.14890383
62	0x3e284bad	0.16435118
63	0xbf8c70bf	-1.0971907
64	0x3d998a45	0.07497076
65	0x3d9bf042	0.07614185
66	0xbda0e34d	-0.07855854
67	0xbef28633	-0.4736801
68	0xbed169e3	-0.40901098
69	0xbf0c3fae	-0.5478467
70	0xbe965a13	-0.29365596
71	0xbe073c1d	-0.13206525
72	0xbf708619	-0.93954617
73	0xbe94157e	-0.28922647
74	0xbf7cb83c	-0.9871862
75	0xbefeb4d2	-0.4974733
76	0x3dc3a2ec	0.09552559
77	0x3c246d44	0.010035817
78	0xbf2a835b	-0.6660668
79	0x3eaf9d01	0.34299472
80	0xbe9755a5	-0.2955753
81	0xbe5d7f70	-0.21630645
82	0x3df1d782	0.11808683
83	0x3d1fb004	0.03898622
84	0xbf70dc24	-0.9408591
85	0x3e4e1409	0.2012483
86	0xbeb6ccfd	-0.3570327
87	0x3e772e68	0.24138796
88	0xbf37dff4	-0.718261
89	0xbf70f556	-0.9412435
90	0xbebe7137	-0.3719575
91	0xbcf2af42	-0.029624585
92	0xbf5766b5	-0.84141093
93	0xbf13f57f	-0.5779647
94	0x3e722a9e	0.2364907
95	0xbf25c02d	-0.6474636
96	0xbda8f356	-0.08249538
97	0xbf25fa55	-0.648351
98	0xbeaa41c3	-0.33253297
99	0xbe08aa6d	-0.13346262
100	0xbf5b884d	-0.85754853
101	0x3d8841b8	0.0665316
102	0xbf20880f	-0.6270761
103	0x3eac8e83	0.33702478
104	0xbf8fba7c	-1.1228786
105	0x3dac3aed	0.08409677
106	0xbed3d64b	-0.4137443
107	0xbbc0b65e	-0.005881115
108	0xbf66e323	-0.90190333
109	0x3d2d72d8	0.04234585
110	0xbe883e58	-0.26610065
111	0xba5e35f2	-0.00084766664
112	0xbf009e58	-0.50241613
113	0xbf6c1c70	-0.9223089
114	0x3e281609	0.16414656
115	0x3f0c002c	0.5468776
116	0xbe2265ef	-0.15859197
117	0xbf34e9d5	-0.706693
118	0xbf048740	-0.51768875
119	0x3ee28483	0.44241723
120	0xbdf29615	-0.11845032
121	0xbd652c28	-0.055950314
122	0xbe96b61a	-0.29435807
123	0xbf012302	-0.5044404
124	0xbf67fad8	-0.9061713
125	0x3f1cd930	0.612689
126	0xbf56d8bc	-0.8392446
127	0xbe4cf19a	-0.20014039

layer2.weight f4 [256, 128]
0	0xbe5bb9c2	-0.2145758
1	0x3de6c6fb	0.11268421
2	0xbe0a2396	-0.13490137
3	0xbeca3f32	-0.3950134
4	0xbe3e05f1	-0.18556954
5	0xbd90f7f0	-0.0707854
6	0xbf1e1120	-0.6174488
7	0xbeb6ddc4	-0.3571607
8	0xbe9625a8	-0.29325604
9	0xbdcbf65e	-0.099591
10	0xbf49bc4f	-0.7880296
11	0xbf1de00c	-0.61669993
12	0x3e86ccb7	0.2632806
13	0x3ec22126	0.37915915
14	0x3e6c9112	0.23102215
15	0xbf0ea242	-0.55716336
16	0x3c9a5524	0.018839426
17	0x3e4b3e82	0.19848064
18	0x3eccc20a	0.3999179
19	0xbed55937	-0.41669628
20	0x3ea2c9cf	0.31794593
21	0xbe84ec70	-0.25961637
22	0xbea3fbdd	-0.32028094
23	0x3ee8f249	0.4549735
24	0xbee11486	-0.4396097
25	0x3c1a8cf4	0.00943302
26	0x3deadbbf	0.114676945
27	0xbe6f808e	-0.23388883
28	0xbd924979	-0.0714292
29	0xbea757c2	-0.3268414
30	0xbf201122	-0.6252614
31	0xbece3300	-0.40273285
32	0xbed3e29b	-0.41383824
33	0xbe6d689d	-0.23184438
34	0x3e1c0b9d	0.15238805
35	0xbe74320c	-0.23847216
36	0xbe994b3b	-0.2994021
37	0x3ea3575d	0.3190259
38	0xbecf4ebc	-0.40489757
39	0xbf2c8392	-0.6738826
40	0xbfb1ec98	-1.3900328
41	0xbf33b5c9	-0.7019926
42	0x3da1600c	0.078796476
43	0x3eb1c408	0.34719872
44	0xbf998bc8	-1.1995783
45	0xbe49d293	-0.19709234
46	0x3eb42056	0.3518092
47	0xbd3610ed	-0.044449735
48	0xbec843ad	-0.39114133
49	0xbef0c40e	-0.47024578
50	0xbcd32e0e	-0.025778797
51	0x3e951d4e	0.2912392
52	0x3e365552	0.17805985
53	0xbe569944	-0.20956904
54	0xbeb49d50	-0.3527627
55	0xbc9759e9	-0.01847549
56	0xbea46c2e	-0.32113785
57	0xbe68226e	-0.22669384
58	0xbebd998f	-0.37031218
59	0x3e33cc8c	0.17558497
60	0x3eb2fb4e	0.34957355
61	0xbfa7a7be	-1.3098066
62	0xbeacb385	-0.33730713
63	0xbea07617	-0.31340095
64	0xbd89f6ae	-0.067365035
65	0x3e8a62e4	0.27028573
66	0x3f128502	0.57234204
67	0xbe72467b	-0.23659699
68	0xbf29f191	-0.66384226
69	0x3e4fc047	0.20288192
70	0x3e945fd9	0.28979376
71	0xbb48de06	-0.0030649914
72	0xbe6f54ec	-0.23372239
73	0xbed7cb2a	-0.4214719
74	0xbd34935c	-0.044085845
75	0xbe2e9ad4	-0.1705125
76	0x3e92d1f5	0.2867581
77	0xbf30deaa	-0.6908976
78	0x3de888ae	0.113541946
79	0xbd5098bd	-0.050926913
80	0x3c7ada6a	0.015310863
81	0xbef1e95a	-0.47248346
82	0xbe11948a	-0.1421682
83	0xbdff1b0a	-0.12456329
84	0xbec22b4d	-0.3792366
85	0xbe8e73b2	-0.27822644
86	0xbe9a7ab5	-0.30171743
87	0xbfbec149	-1.4902736
88	0x3e0d4109	0.1379434
89	0xbe5276f3	-0.20553188
90	0x3ccf28fc	0.025288098
91	0x3f038a81	0.51383215
92	0xbe613308	-0.21992123
93	0xbeb90e50	-0.36143732
94	0xbeacb596	-0.3373229
95	0xbeb329ad	-0.34992734
96	0x3f26f897	0.6522307
97	0xbc131af7	-0.008978597
98	0xbeaea760	-0.34112072
99	0xbf160512	-0.58601487
100	0xbf4c59df	-0.7982463
101	0x3f00b166	0.5027069
102	0xbd8317da	-0.06401034
103	0xbea7cddb	-0.32774243
104	0xbcd4cea1	-0.025977435
105	0xbe83aab3	-0.2571617
106	0x3f09c8cb	0.5382201
107	0x3d97b630	0.074077964
108	0x3e5f08ce	0.21780702
109	0x3e84541f	0.2584543
110	0xbf60b580	-0.8777695
111	0x3e113ba2	0.14182904
112	0x3f0becf1	0.5465842
113	0x3e42fa26	0.19040737
114	0x3cedd221	0.029030861
115	0xbf3ceeb4	-0.7380173
116	0x3e0bd89f	0.13656853
117	0xbf788624	-0.9707968
118	0xbefcd2fc	-0.49379718
119	0xbe578285	-0.21045883
120	0xbce4b3f7	-0.027917845
121	0xbc6f6ac3	-0.014612856
122	0xbdd933d7	-0.10605591
123	0x3dd90fb0	0.10598695
124	0x3e596a0b	0.21231858
125	0x3e4e146d	0.2012498
126	0xbf4ea551	-0.80721
127	0x3e0d0fcf	0.13775562
128	0xbc05b5af	-0.0081609925
129	0xbd84a5c4	-0.0647693
130	0xbc9687f8	-0.018375382
131	0xbdb0ff03	-0.086423896
132	0xbe0993a6	-0.1343523
133	0xbe7d3e24	-0.24730736
134	0xbe39b3b8	-0.18134964
135	0xbdc84b33	-0.09779968
136	0xbde39c3c	-0.11113784
137	0xbd91d9b4	-0.07121602
138	0xbe768600	-0.24074554
139	0xbdc6a7a3	-0.09699943
140	0xbd6f79b8	-0.05846569
141	0x3e7850ba	0.24249545
142	0xbd735cba	-0.059414603
143	0xbe1c42f7	-0.1525992
144	0xbe00be7d	-0.12572666
145	0xbc1f29e5	-0.009714578
146	0xbd41795d	-0.04723488
147	0xbe328667	-0.17434083
148	0x3dcd7092	0.10031237
149	0xbe3a0ee6	-0.18169746
150	0xbd813853	-0.06309571
151	0x3e064f1b	0.13116114
152	0xbd374003	-0.04473878
153	0xbe04f407	-0.12983714
154	0xbdbd363f	-0.09238862
155	0x3d8e8aa1	0.06960035
156	0xbdb097b1	-0.08622683
157	0xbd4e59f3	-0.05037875
158	0xbe0c17df	-0.13680981
159	0xbe843b1f	-0.25826356
160	0xbb023aab	-0.0019871395
161	0x3dd6970b	0.10478028
162	0xbd278abb	-0.040903788
163	0xbdc04103	-0.093874
164	0x3e70d984	0.23520476
165	0x3c9dee0c	0.019278549
166	0xbd206af2	-0.03916449
167	0xbcee2577	-0.029070599
168	0xbd19b90f	-0.03753
169	0x3a29bf61	0.0006475356
170	0xbe18bd13	-0.14915876
171	0x3de98915	0.114030994
172	0xbd8676a7	-0.065656
173	0x3c359f92	0.011085408
174	0xbe358240	-0.17725468
175	0x3cb7e045	0.022445807
176	0xbc072c44	-0.0082503
177	0x3cedd287	0.029031051
178	0xbe03fc31	-0.12889172
179	0xbe587439	-0.21138085
180	0x3d1aa04f	0.03775054
181	0xbc98da0e	-0.018658664
182	0x3ca23218	0.019799277
183	0xbd366b70	-0.044536054
184	0xbd7793ac	-0.060443565
185	0xbe4526e4	-0.19253117
186	0xbdff3c36	-0.12462656
187	0xbe0e53f9	-0.1389922
188	0xbd6ef99b	-0.05834351
189	0xbd9311d2	-0.07181133
190	0xbdffd17e	-0.12491129
191	0x3e1fefc7	0.15618812
192	0x3d9124c0	0.07087088
193	0xbeb38254	-0.3506037
194	0x3b229eab	0.0024813812
195	0xbd57d8d5	-0.05269702
196	0xbe168e0f	-0.14702629
197	0xbdfc46df	-0.12318205
198	0xbd8d30f3	-0.06894102
199	0xbe2ae843	-0.16690163
200	0xbe79be23	-0.24388938
201	0xbd754565	-0.059880633
202	0xbe726e72	-0.23674944
203	0xbe185e98	-0.14879835
204	0xbdd7509e	-0.105134234
205	0xbe18d732	-0.1492584
206	0xbdf3ba37	-0.11900752
207	0xbe6de4fc	-0.23231882
208	0xbe10be30	-0.14135051
209	0xbd73a851	-0.05948669
210	0xbe849b89	-0.25899914
211	0xbd3bf83a	-0.045891024
212	0x3d8bdc3c	0.06829116
213	0xbe1c4f73	-0.15264682
214	0xbe66a2dd	-0.22523065
215	0xbe12f4c3	-0.14351182
216	0xbd3d0787	-0.046149757
217	0xbeaba1c3	-0.33521852
218	0xbd28f3aa	-0.041248
219	0x3dea94cd	0.11454163
220	0xbb3b1020	-0.0028543547
221	0xbe44f711	-0.19234873
222	0xbd822e9f	-0.063565485
223	0xbd016406	-0.03158953
224	0xbe1d516a	-0.15363088
225	0xbdecea7d	-0.115681626
226	0xbe2e601b	-0.17028849
227	0xbd553e98	-0.052061647
228	0xbe3491f1	-0.17633797
229	0xbe1fb51b	-0.1559643
230	0xbcd75c4f	-0.026289133
231	0xbdabdec8	-0.083921015
232	0xbdf9fc49	-0.12206323
233	0xbd0d65d0	-0.034520924
234	0xbe1b00fe	-0.15137097
235	0xbd2148d0	-0.03937608
236	0xbea4ebdf	-0.32211205
237	0xbdc828c9	-0.09773404
238	0xbe82e8ad	-0.25568143
239	0xbb48464a	-0.0030559474
240	0xbe3e5940	-0.18588734
241	0xbe089544	-0.1333819
242	0xbd8fe868	-0.0702675
243	0xbdae367f	-0.08506488
244	0xbe41d6a0	-0.18929529
245	0xbe6edfe0	-0.23327589
246	0xbdbde177	-0.0927152
247	0x3d596ea1	0.05308402
248	0xbea04814	-0.3130499
249	0x3d3de1cf	0.046357926
250	0xbce350b4	-0.027748443
251	0xbe4e78d9	-0.20163287
252	0xbebcd2ed	-0.36879674
253	0xbe3ecdcb	-0.18633191
254	0xbd66a400	-0.056308746
255	0xbe5caed1	-0.21551062

layer2.bias f4 [256]
0	0x3dcfdedb	0.10149928
1	0xbd1f4f44	-0.038893953
2	0x3ecdb67f	0.40178296
3	0xbe742f94	-0.23846275
4	0xbde32f2a	-0.1109298
5	0xbe877ec9	-0.26463917
6	0xbea96d53	-0.3309122
7	0xbe3b0f59	-0.18267573
8	0xbeaa3b62	-0.3324843
9	0x3e673acb	0.22581021
10	0xbe51f1fb	-0.20502464
11	0xbdff7180	-0.1247282
12	0xbe56093b	-0.20901959
13	0xbe7d9311	-0.24763133
14	0xbf0bc331	-0.54594713
15	0xbe89cacf	-0.26912543
16	0xbeaa3b34	-0.33248293
17	0xbdd1d814	-0.10246292
18	0x3e61421e	0.21997878
19	0x3ebdec6e	0.37094444
20	0xbe832481	-0.25613788
21	0xbe02b6cc	-0.12765044
22	0xbf254470	-0.6455755
23	0xbde7ad3f	-0.11312341
24	0xbe28d72c	-0.16488332
25	0x3e04a1ae	0.12952301
26	0xbe41348e	-0.18867704
27	0xbe4e9394	-0.20173484
28	0xbe38eeaf	-0.180598
29	0xbe0afc70	-0.1357286
30	0xbe04a239	-0.12952508
31	0xbe6566af	-0.22402452
32	0xbeb4eb65	-0.35335842
33	0xbe66e75c	-0.22549194
34	0xbf0f8fdb	-0.5607888
35	0xbddbccaa	-0.10732396
36	0x3ed147e9	0.40875176
37	0xbd441f1e	-0.04788124
38	0xbecf75a2	-0.40519434
39	0x3ee10ab8	0.4395349
40	0xba03b9f2	-0.00050249614
41	0xbe3ddc04	-0.1854096
42	0xbe8a9e47	-0.2707388
43	0xbed7dba7	-0.4215977
44	0x3dbd9cd9	0.09258432
45	0xbe6e1d9e	-0.23253486
46	0xbe81002a	-0.25195438
47	0xbe975e26	-0.29564017
48	0xbd00cc3a	-0.031444766
49	0x3d6ba995	0.057534773
50	0xbd815cb5	-0.063165106
51	0x3c8dbd6e	0.017302241
52	0xbe1c2614	-0.152489
53	0x3e6c63e5	0.23084982
54	0xbe66a405	-0.22523506
55	0x3cf33392	0.029687677
56	0xbed2229d	-0.41042033
57	0x3eb04237	0.34425518
58	0xbe64a646	-0.22329053
59	0xbdfb24a0	-0.12262845
60	0x3c1e3ff1	0.0096587995
61	0xbcc3c4cb	-0.02389755
62	0xbe581da7	-0.21105061
63	0xbea0def5	-0.31420103
64	0xbea1061f	-0.31449983
65	0xbec1c88b	-0.37848315
66	0xbe4f8c8c	-0.20268458
67	0xbdbb25cd	-0.09138069
68	0xbec215af	-0.37907168
69	0x3d60ec14	0.05491264
70	0xbee368d4	-0.44415915
71	0xbf095838	-0.53650236
72	0xbddbfc78	-0.10741514
73	0x3e15e07b	0.14636414
74	0xbdfed201	-0.12442399
75	0xbe7bd386	-0.24592409
76	0xbd725178	-0.059159726
77	0xbd922c9b	-0.07137414
78	0x3e46afd1	0.19403006
79	0xbe281023	-0.16412406
80	0xbe43a083	-0.19104199
81	0x3e255e7a	0.16149321
82	0xbdf4e14b	-0.11957034
83	0xbdb0cfac	-0.0863336
84	0x3eb7d315	0.3590323
85	0xbeee84ab	-0.46585593
86	0x3e4d7a03	0.20066075
87	0x3dac2f5e	0.08407472
88	0xbe8f6032	-0.2800308
89	0xbe294a69	-0.16532291
90	0xbdad201b	-0.08453389
91	0x3ee4012c	0.44532144
92	0xbde7d72c	-0.11320338
93	0xbdf01925	-0.11723546
94	0xbe14b693	-0.14522772
95	0xbe18e447	-0.14930831
96	0xbd1aabd3	-0.03776152
97	0x3e3a2669	0.18178715
98	0xbe6b5834	-0.22982866
99	0xbe0e4c0c	-0.13896197
100	0xbe0c08af	-0.13675188
101	0xbe59f12c	-0.21283406
102	0x3e3824c9	0.17982782
103	0xbd8d0b4c	-0.0688692
104	0x3d1b123e	0.037859194
105	0xbe02a6a2	-0.12758878
106	0xbe384d57	-0.17998253
107	0xbc2e66c0	-0.010644615
108	0xbe331bb7	-0.17491041
109	0xbe22771d	-0.1586575
110	0x3eccb8a2	0.39984614
111	0xbc894a63	-0.016759103
112	0x3e5fc418	0.21852148
113	0xbe5441aa	-0.20728174
114	0xbe560df5	-0.20903762
115	0x3d621a1a	0.055200674
116	0xbe7401b4	-0.23828775
117	0xbd6ee008	-0.05831912
118	0xbe75267e	-0.23940465
119	0xbee57a93	-0.4482008
120	0xbe0444e9	-0.12916912
121	0x3f0951c4	0.5364039
122	0xbe3be7a5	-0.18350084
123	0xbe01dbf2	-0.12681559
124	0xbe09e05d	-0.13464494
125	0x3e8ec7be	0.27886766
126	0xbe78591a	-0.2425274
127	0x3e166d1f	0.14690064
128	0xbea1a102	-0.31568152
129	0xbddbf845	-0.10740713
130	0xbdcc2895	-0.09968678
131	0xbe9958af	-0.29950473
132	0xbd9eeee6	-0.0776041
133	0x3bd87704	0.0066059846
134	0xbd6bf22e	-0.057604007
135	0x3daf1d53	0.08550515
136	0xbe0eceea	-0.13946119
137	0xbd31084a	-0.043220796
138	0xbdd56156	-0.10418956
139	0x3f046c73	0.5172798
140	0xbe380b69	-0.17973103
141	0x3e726041	0.2366953
142	0xbec7582a	-0.3893445
143	0xbe5c0318	-0.21485555
144	0xbe786cbc	-0.24260229
145	0xbf24209e	-0.6411227
146	0xbe4def07	-0.20110713
147	0xbe3e1c5e	-0.18565509
148	0xbdc907eb	-0.09815963
149	0x3d9f1ec0	0.07769537
150	0x3eb2397e	0.34809488
151	0xbdaf5c76	-0.085625574
152	0xbe8608b9	-0.2617853
153	0x3e5aa224	0.21350914
154	0xbe020f46	-0.12701139
155	0xbc47423a	-0.012161786
156	0xbf060c51	-0.52362543
157	0x3dac2f3b	0.08407446
158	0x3da40dc5	0.08010439
159	0xbd8d3e4c	-0.06896648
160	0xbf29e9cd	-0.66372377
161	0xbebbbff6	-0.36669892
162	0xbef95197	-0.4869506
163	0x3c979e87	0.018508209
164	0x3e760fb4	0.24029428
165	0xbe60ee57	-0.2196592
166	0xbe85839a	-0.26076967
167	0xbdd974bf	-0.10617971
168	0xbe92e5cf	-0.28690955
169	0x3f01b493	0.5066616
170	0xbe9add8e	-0.30247158
171	0xbd6a2dee	-0.05717271
172	0xbe7e35e0	-0.24825239
173	0xbee8e22a	-0.4548505
174	0xbe7953ee	-0.24348423
175	0xbd3729bc	-0.044717535
176	0x3e07eef6	0.1327475
177	0xbe2f5a86	-0.17124376
178	0xbe51773f	-0.20455645
179	0xbe39960a	-0.18123642
180	0xbe9325b7	-0.28739712
181	0x3e0aee27	0.1356741
182	0xbd26dee9	-0.040739927
183	0xbe6e248a	-0.23256126
184	0x3dc50430	0.09619939
185	0xbe880c78	-0.26572013
186	0xbea8b857	-0.3295314
187	0xbe9cb2c2	-0.3060513
188	0xbe635a5a	-0.22202435
189	0x3bf6690b	0.0075198463
190	0xbecb275e	-0.39678472
191	0x3df7f6fc	0.121076554
192	0xbe1e1402	-0.1543732
193	0xbd21a760	-0.039466262
194	0xbdfb4d7e	-0.1227064
195	0xbe0d14f1	-0.1377752
196	0xbe13caa2	-0.14432767
197	0xbe11ae0f	-0.14226554
198	0xbd1e8999	-0.038705442
199	0xb9f813ba	-0.00047316944
200	0xbd554a5f	-0.05207288
201	0xbe178172	-0.14795473
202	0xbebc1cbc	-0.36740673
203	0xbdf5ccd3	-0.12001958
204	0xbe5b336a	-0.21406332
205	0x3d569a68	0.052393347
206	0xbea1d4fd	-0.3160781
207	0xbe6c7752	-0.23092392
208	0xbc9f1fe0	-0.019424379
209	0xbe3783fa	-0.17921439
210	0xbd29d652	-0.041464157
211	0xbe3bf0ef	-0.18353628
212	0xbe1b31f0	-0.15155768
213	0xbf01798f	-0.5057611
214	0xbe432139	-0.19055642
215	0xbd55b9a9	-0.052179012
216	0xbe3cb65a	-0.18428937
217	0xbebfb384	-0.37441647
218	0xbcee97e7	-0.029125167
219	0x3ee71e08	0.451401
220	0xbdca1ed9	-0.09869165
221	0xbe8ba1dc	-0.27271926
222	0xbec52474	-0.38504374
223	0xbeb73421	-0.3578196
224	0xbf7ec886	-0.99524724
225	0x3ddbf889	0.10740764
226	0xbdb1b2ee	-0.08676706
227	0xbd128b6c	-0.035777494
228	0xbe8ce09f	-0.27515122
229	0x3de3aca1	0.11116911
230	0xbd282bca	-0.041057386
231	0xbece7217	-0.4032142
232	0xbd91a93b	-0.07112356
233	0x3f1eaa9c	0.6197908
234	0xbeba0bf8	-0.36337256
235	0xbde0e6ae	-0.10981499
236	0xbe547440	-0.20747471
237	0x3e9d097b	0.30671296
238	0x3eb35723	0.35027418
239	0xbe94906b	-0.29016432
240	0xbe095f51	-0.13415267
241	0x3d975526	0.07389288
242	0x3c596be7	0.013270355
243	0xbdcf62d1	-0.101262696
244	0xbe3f825c	-0.18702072
245	0xbd633238	-0.055467814
246	0xbebfed49	-0.37485722
247	0xbe02b804	-0.12765509
248	0x3d76a471	0.060215417
249	0xbdc96dd2	-0.098354
250	0xbdf1e856	-0.11811893
251	0xbe2a2cbe	-0.1661863
252	0xbd98879c	-0.074477404
253	0xbe3f8f23	-0.18706946
254	0xbe96923e	-0.2940845
255	0xbe833d05	-0.25632492

layer3.weight f4 [256, 256]
0	0xbd210c21	-0.039318208
1	0x3cc035e1	0.023463191
2	0xbd27542c	-0.040851757
3	0xbda93bd7	-0.08263367
4	0xbda5c05f	-0.080933325
5	0xbe059838	-0.13046348
6	0xbdd4c693	-0.103894375
7	0x396c203d	0.00022518724
8	0xbdd4a7b2	-0.10383548
9	0xbdd1b662	-0.10239865
10	0xbd9f817b	-0.07788368
11	0xbbc460a1	-0.0059929644
12	0xbd8c1d2e	-0.06841503
13	0xbd26cd78	-0.040723294
14	0xbce2a3ec	-0.027666055
15	0xbd772ad3	-0.060343575
16	0xbd5befb7	-0.053695407
17	0xbd6a5dbc	-0.0572183
18	0xbd3e3578	-0.04643771
19	0xbd95cd3c	-0.07314536
20	0xbd4acba8	-0.049510628
21	0xbd142bf0	-0.036174715
22	0xbe87ba09	-0.2650912
23	0xbd16c9ec	-0.03681366
24	0xbccbff08	-0.024901882
25	0x3bf320f0	0.007419698
26	0xbdb0e1b8	-0.086368024
27	0xbdf81d5b	-0.12114974
28	0x3b8311db	0.0039999313
29	0xbd905162	-0.070467725
30	0xbd9d1fc4	-0.076720744
31	0x3ca3ee39	0.020011054
32	0xbd821edf	-0.063535444
33	0xbdaf9dc0	-0.0857501
34	0xbd9ac5a8	-0.07557231
35	0xbba773b8	-0.0051102303
36	0xbda8f0df	-0.082490675
37	0xbdc9a37a	-0.09845634
38	0x3d667967	0.056268122
39	0xbd733be7	-0.0593833
40	0x3c8c29b0	0.017109722
41	0xbddcfea9	-0.1079076
42	0x3ca43913	0.020046746
43	0xbc825093	-0.015907561
44	0xbdc50f0e	-0.09622012
45	0x3addf15c	0.0016932893
46	0xbd07609f	-0.03305113
47	0xbe0fa4a7	-0.14027654
48	0xbc64b24c	-0.013958525
49	0xbdb83f91	-0.08996499
50	0xbd816d42	-0.063196674
51	0xbd4f9f5a	-0.05068908
52	0xbe7c4e9a	-0.24639359
53	0xbc5a78b5	-0.013334443
54	0xbd0ff454	-0.03514512
55	0xbe0acdef	-0.1355512
56	0x3d574d83	0.052564155
57	0xbc801a07	-0.01563741
58	0xbd343452	-0.04399521
59	0xbd73857e	-0.05945348
60	0xbd2fbba9	-0.042903576
61	0xbdc071c6	-0.093967006
62	0xbdbd1076	-0.09231655
63	0xbb59d362	-0.0033237566
64	0xbddea106	-0.108705565
65	0x3ceaa98f	0.028645305
66	0xbd91a008	-0.07110602
67	0xbdad7202	-0.08469011
68	0xbce6ff6f	-0.028197972
69	0x3cef0144	0.029175408
70	0x3bab2e28	0.005224008
71	0x3d5bf544	0.0537007
72	0xbdd41948	-0.103563845
73	0xbdb9b8e6	-0.0906847
74	0x3c9eeafa	0.019399155
75	0xbc5ca368	-0.013466693
76	0xbd8bf07d	-0.06832979
77	0xbd90bf51	-0.07067741
78	0x3c5ba94d	0.013407064
79	0xbb945b0b	-0.0045274547
80	0xbd22a6c0	-0.039709806
81	0xbccbd1b0	-0.02488026
82	0xbd35b5c9	-0.044362817
83	0xbd4705cf	-0.048589524
84	0x3b0c46a0	0.00214044
85	0x3d617569	0.05504361
86	0x3c9349cf	0.01797953
87	0xbd5b90e5	-0.05360498
88	0x3c683c98	0.014174603
89	0xbd2c8930	-0.04212302
90	0xbd648afc	-0.05579661
91	0x3c31e8fd	0.010858771
92	0xbdb1fb84	-0.08690551
93	0x3da07aa2	0.0783589
94	0x3a87cc32	0.0010360538
95	0xbdb6d0ac	-0.0892652
96	0x3d6d62fe	0.057955734
97	0xbd81f7bd	-0.063460805
98	0xbdeab514	-0.11460319
99	0xbb1d44b8	-0.0023997258
100	0xbe0459ad	-0.12924834
101	0xba7e5304	-0.00097017013
102	0xbd0484c0	-0.032353163
103	0xbde7041c	-0.11280081
104	0x3cdb6acb	0.026784321
105	0xbd509a00	-0.050928116
106	0xbc49728a	-0.012295375
107	0xbdadfb4e	-0.08495198
108	0xbdcab641	-0.098980434
109	0xbd1960bd	-0.037445772
110	0xbe1041da	-0.1408762
111	0xbe35708f	-0.17718719
112	0xbb891fe2	-0.004184709
113	0xbc447a8e	-0.01199211
114	0xbe17c5ab	-0.14821498
115	0xbe1cdce4	-0.15318638
116	0x3bb1e883	0.005429329
117	0xbde595e3	-0.11210229
118	0xbdbf0785	-0.09327606
119	0xbd936969	-0.0719784
120	0x3d7a6920	0.06113541
121	0x3b0626b3	0.0020469844
122	0xbdba7c16	-0.09105699
123	0x3d21bfc3	0.03948952
124	0xbdbb6b08	-0.09151274
125	0xbdc12391	-0.09430612
126	0xbe2c09a0	-0.16800547
127	0xbdbe4849	-0.09291131
128	0xbdd0a330	-0.101873755
129	0x3d114438	0.03546545
130	0xbe02bd13	-0.12767439
131	0xbb960951	-0.0045787473
132	0x3b494b8c	0.0030715195
133	0xbccb70fa	-0.024834145
134	0xbc78a6e8	-0.015176512
135	0xbd7cc28e	-0.06170898
136	0xbe0649af	-0.13114046
137	0xbdb587cb	-0.08863791
138	0xbcad34b6	-0.021143299
139	0xbe2e0410	-0.16993737
140	0x3cf20798	0.029544637
141	0xbd87936b	-0.066199146
142	0xbe0ae5db	-0.13564245
143	0xbc9eee6c	-0.019400798
144	0xbc40a46d	-0.011757952
145	0xbd72df4b	-0.05929498
146	0xbd6fb41e	-0.058521383
147	0xbdc7752e	-0.09739147
148	0x3c359d13	0.011084813
149	0xbd0af8fc	-0.033928856
150	0x3d0655d1	0.032796685
151	0xbde8af7e	-0.113615975
152	0xbd7ef275	-0.062242944
153	0xbda4105a	-0.08010931
154	0xbd4c6631	-0.049902145
155	0xbd3ca730	-0.04605788
156	0xbc7e5fff	-0.015525817
157	0x3d996faa	0.07492001
158	0xbd98b9e4	-0.07457331
159	0xbca68c94	-0.020330705
160	0xbe0825a2	-0.13295606
161	0xbd110b39	-0.035411093
162	0xbdbf0a16	-0.093280956
163	0xbd1d33bb	-0.038379412
164	0xbde4d858	-0.11174077
165	0x3c083c4e	0.008315159
166	0x3cbaac94	0.02278737
167	0xbdbcb133	-0.092134856
168	0xbd4123ce	-0.047153287
169	0x3d86166d	0.06547246
170	0xbd8f4d2c	-0.06997141
171	0xbd1a6b61	-0.03770006
172	0xbd8e3b56	-0.06944911
173	0xbdcd8e17	-0.10036867
174	0xbe0e37fe	-0.13888547
175	0x3d1994b4	0.03749533
176	0xbd0c2228	-0.03421226
177	0x3c718357	0.0147407865
178	0xbcca1f2f	-0.024673073
179	0xbd8a3331	-0.06748045
180	0x3d72800b	0.059204143
181	0xbd28d06d	-0.041214395
182	0xbe01d4e4	-0.12678868
183	0xbd332821	-0.04373944
184	0xbdc576d0	-0.09641802
185	0xbdb73944	-0.089464694
186	0x3d075101	0.033036236
187	0xbd0caf9e	-0.03434717
188	0xbe2a2d75	-0.16618903
189	0x3d0fe86d	0.035133768
190	0xbd50b5b7	-0.050954547
191	0xbdfcabde	-0.123374686
192	0xbb88c2f1	-0.0041736295
193	0xbc88245f	-0.016618906
194	0xbd392f93	-0.045211386
195	0xba445e65	-0.00074908725
196	0x3c530896	0.012880465
197	0xbd59ff7b	-0.05322216
198	0xbd2f26d3	-0.042761635
199	0x3d2070fc	0.03917025
200	0x3d5cdb36	0.053919993
201	0xbd7f671b	-0.06235419
202	0x3cd2f021	0.025749268
203	0xbd9d5e21	-0.07683969
204	0x3c69957a	0.014256829
205	0xbd6173a2	-0.055041917
206	0xbe286249	-0.16443743
207	0x3d60aeef	0.05485433
208	0x3d653dba	0.05596707
209	0x3c85d14f	0.016335158
210	0xbd8bdfcc	-0.06829795
211	0x3bcc122b	0.0062277517
212	0xbcd79c8e	-0.026319768
213	0xbdcd21df	-0.10016226
214	0xbd60159c	-0.05470811
215	0xbdc8d918	-0.09807032
216	0xbd428c28	-0.047496945
217	0xbc662d51	-0.01404889
218	0xbe597c42	-0.21238807
219	0xbd3a3793	-0.045463156
220	0x3cbe7f74	0.023254134
221	0xbe2cfa16	-0.16892275
222	0xbd2ce675	-0.04221197
223	0xbe01e23c	-0.12683958
224	0xbe7757b2	-0.24154547
225	0xbd48f7aa	-0.049064316
226	0xbc9fe018	-0.019516036
227	0xbcf10bb6	-0.02942453
228	0x3cfb6c59	0.030691313
229	0x3d468610	0.048467696
230	0xbdc0fe63	-0.094235204
231	0xbdee1f39	-0.11627049
232	0xbdf421f2	-0.11920537
233	0xbd0766d8	-0.033057064
234	0xbc94e417	-0.018175168
235	0xbd30bbd5	-0.04314788
236	0x3c456bba	0.01204961
237	0xbe0bf8d3	-0.13669138
238	0xbd39c3b4	-0.045352653
239	0xbddb7ced	-0.10717187
240	0x3da7d965	0.081957616
241	0xbc8e88e7	-0.017399264
242	0xbc609957	-0.013708434
243	0xbdaf8a13	-0.085712574
244	0xbcf7495a	-0.030186344
245	0xbde6bcd2	-0.11266483
246	0xbdbadaaf	-0.09123742
247	0x3cb9b27f	0.022668121
248	0xbd4cc2b0	-0.049990356
249	0xbdc09b7f	-0.094046585
250	0xbcfc6fc7	-0.030815018
251	0xbd8daf2c	-0.06918177
252	0xbe25ff33	-0.16210632
253	0x3d4eb69c	0.05046712
254	0xbcc1e1a0	-0.023667157
255	0xbd019623	-0.031637322

layer3.bias f4 [256]
0	0xbe874f44	-0.26427662
1	0xbe3f44ec	-0.18678635
2	0x3dacc827	0.084366135
3	0x3e7a8230	0.24463725
4	0xbf75eb66	-0.96062315
5	0xbf3d31d3	-0.7390415
6	0xbeccc1ea	-0.39991695
7	0xbf5db182	-0.8659898
8	0xbf9bda86	-1.2176063
9	0xbefa677e	-0.48907083
10	0x3d0d1f41	0.034453634
11	0xbe3c6a45	-0.18399914
12	0xbe737e09	-0.23778547
13	0x3d07e385	0.033175964
14	0xbe60a6c4	-0.21938616
15	0xbecea269	-0.40358284
16	0xbe81cea7	-0.25352976
17	0xbf3fc396	-0.74907815
18	0xbf2841a8	-0.65725183
19	0xbecb53a2	-0.39712244
20	0xbb70dfd1	-0.0036754499
21	0xbd9f1dd5	-0.07769362
22	0xbf843274	-1.0327897
23	0xbe4a3ff9	-0.19750966
24	0xbe29141b	-0.16511576
25	0x3b61e65e	0.0034469585
26	0xbe9f85c0	-0.3115673
27	0xbd41aac8	-0.04728201
28	0x3efbe792	0.49200112
29	0xbd122102	-0.03567601
30	0xbe4f1211	-0.20221736
31	0xbda4673f	-0.08027505
32	0x3d9ec25e	0.07751916
33	0xbd2b6fef	-0.041854795
34	0xbed2bc93	-0.41159496
35	0xbf59005f	-0.8476619
36	0x3dc753a7	0.09732752
37	0xbe98c69b	-0.29839024
38	0xbf16de29	-0.5893274
39	0xbe6c1a7a	-0.23056975
40	0xbf0058ac	-0.501353
41	0x3dd1c374	0.10242358
42	0x3eed582c	0.46356332
43	0xbe5e2c2f	-0.21696542
44	0xbec4c7c9	-0.38433674
45	0x3f983399	1.1890746
46	0xbf5df0c3	-0.866955
47	0xbe6a9780	-0.22909355
48	0x3df9c08b	0.12194928
49	0xbee7b4ff	-0.45255277
50	0xbdcc23c5	-0.0996776
51	0xbea70897	-0.3262374
52	0xbe774a05	-0.2414933
53	0xbe4de778	-0.2010783
54	0xbf057a1d	-0.52139455
55	0xbe3689cd	-0.17826004
56	0xbe7987c4	-0.24368197
57	0xbe8b5def	-0.27220103
58	0xbf640883	-0.8907549
59	0xbf59094d	-0.84779817
60	0xbf80fe9d	-1.0077702
61	0x3d865892	0.06559862
62	0xbf16af8c	-0.58861613
63	0x3fdb04d0	1.7110844
64	0xbe878b82	-0.26473624
65	0x3f13592a	0.5755793
66	0xbe28f8c4	-0.16501147
67	0x3ea21a30	0.31660604
68	0xbde1ee79	-0.11031813
69	0xbdfb0b1d	-0.12257979
70	0x3e9aebfb	0.30258164
71	0xbf111d26	-0.566851
72	0xbd7f9b9a	-0.062404253
73	0xbf11eea2	-0.5700475
74	0x3de200de	0.11035322
75	0x3e6e5ddf	0.23277996
76	0xbf3a55ca	-0.72787154
77	0xbe300145	-0.17187984
78	0x3fc92eeb	1.5717443
79	0xbea4746b	-0.3212007
80	0xbdf0bcd0	-0.11754763
81	0xbe562e53	-0.20916109
82	0x3df28899	0.1184246
83	0xbec3ff19	-0.38280562
84	0x3c2ee2b1	0.010674165
85	0xbde96382	-0.11395933
86	0xbeb7618f	-0.3581662
87	0x3ef28186	0.47364444
88	0xbe227164	-0.15863568
89	0xbe1822b7	-0.14856993
90	0xbeb50b83	-0.35360345
91	0x3ee400b0	0.44531775
92	0xbdc3bdc4	-0.09557679
93	0xbf3cb1d3	-0.7370884
94	0xbf392c65	-0.72333366
95	0xbf821abe	-1.0164411
96	0xbe700ad8	-0.23441637
97	0xbfbcafc0	-1.4741135
98	0xbf0ccfd9	-0.5500465
99	0x3e91c9de	0.28474325
100	0x3f0b398e	0.54384696
101	0x3fa1b82e	1.2634332
102	0xbf2c8bdb	-0.674009
103	0xbe244daf	-0.16045259
104	0xbf0ad4fc	-0.5423124
105	0xbe5b397f	-0.21408652
106	0x3e756b5e	0.23966739
107	0xbe990c39	-0.29892138
108	0xbf234158	-0.6377158
109	0xbca6178c	-0.0202749
110	0xbefcbd64	-0.49363244
111	0x3e827cf1	0.25485948
112	0x3f01c345	0.5068858
113	0xbf1dca40	-0.61636734
114	0x3d8c27d5	0.06843535
115	0x3e49c765	0.19704969
116	0xbe40e718	-0.18838155
117	0x3e449e7f	0.19201086
118	0xbeb017a6	-0.34393042
119	0xbe185a59	-0.14878215
120	0xbee7de67	-0.45286867
121	0xbd88e7bd	-0.066848256
122	0xbe5410e1	-0.20709564
123	0xbe55a59a	-0.20863953
124	0xbe998ce3	-0.299903
125	0x3f67c39b	0.90532845
126	0xbedd3109	-0.43201473
127	0x3f3e42cc	0.74320674
128	0xbef4d1cf	-0.4781632
129	0xbe1c84d3	-0.15285043
130	0xbe831428	-0.25601315
131	0x3df9fe9b	0.12206765
132	0x3da95fd1	0.08270229
133	0xbea04d3e	-0.3130893
134	0x3e6bb338	0.23017585
135	0x3bd8ba0c	0.0066139754
136	0xbec08a17	-0.37605354
137	0xbeb0718e	-0.34461635
138	0xbdc1aaba	-0.09456392
139	0xbe20fdce	-0.15721819
140	0x3f120f3b	0.5705449
141	0x3e867375	0.26259962
142	0xbe809cba	-0.25119573
143	0x3eac6b43	0.33675584
144	0xbf723d6e	-0.94624984
145	0x3de93013	0.113861226
146	0xbf29bddb	-0.6630532
147	0xbe64bc9c	-0.22337574
148	0xbef455ae	-0.47721618
149	0xbeba3d5f	-0.36374947
150	0xbf0b4a54	-0.5441029
151	0xbf0f95c7	-0.5608792
152	0xbcad8ba6	-0.021184754
153	0xbeb03ff2	-0.34423786
154	0xbe2dd6aa	-0.16976419
155	0x3e6359b1	0.22202183
156	0xbe477368	-0.19477618
157	0xbe6f4970	-0.23367858
158	0xbe9e7d44	-0.30954945
159	0xbe83a414	-0.2571112
160	0x3ef69e8b	0.48167834
161	0x3f195651	0.59897333
162	0x3e4e3103	0.20135884
163	0xbf11cb45	-0.5695079
164	0xbf3ed9b3	-0.7455093
165	0xbef88941	-0.48542216
166	0xbf27170a	-0.6526953
167	0x3f13fdff	0.5780944
168	0xbeaffd3d	-0.34372893
169	0xbe9976a4	-0.29973328
170	0x3e88c56d	0.26713124
171	0xbd42a141	-0.047517065
172	0xbe3aa9d8	-0.18228853
173	0xbea5ea1b	-0.3240517
174	0x3f0ae21e	0.5425128
175	0x3f849f43	1.0361103
176	0x3e8955bd	0.26823226
177	0xbf224415	-0.63385135
178	0xbea688ac	-0.32526147
179	0xbe587d72	-0.21141604
180	0xbd144303	-0.03619672
181	0xbdb357cf	-0.087569825
182	0x3e29667e	0.16543004
183	0xbf1514a9	-0.5823465
184	0xbe75f327	-0.24018537
185	0xbe2a2968	-0.16617358
186	0xbee8f61e	-0.45500273
187	0xbe1baf1d	-0.15203519
188	0xbf4ea74c	-0.80724025
189	0xbec9057d	-0.39262
190	0x3d40eb5c	0.047099456
191	0xbeb76acf	-0.35823676
192	0xbe364aee	-0.17802021
193	0x3f9ea5f1	1.2394391
194	0xbdc68a61	-0.096943624
195	0xbc888014	-0.016662635
196	0xbf2b6cf5	-0.6696313
197	0x3dcaa02b	0.09893831
198	0xbed0704b	-0.40710673
199	0xbed6160c	-0.41813695
200	0xbe07ec61	-0.13273765
201	0xbdda5142	-0.1066003
202	0x3f1ee7c3	0.6207239
203	0xbf38af7c	-0.7214277
204	0x3d90dd17	0.070734195
205	0xbee14178	-0.4399526
206	0xbf2b4812	-0.66906846
207	0x3ea1817c	0.315441
208	0x3e38a1e8	0.18030512
209	0x3ece8bc2	0.40341002
210	0xbf3bdca5	-0.7338355
211	0x3ea162d8	0.31520724
212	0xbe20eac0	-0.1571455
213	0xbe4acb6e	-0.19804165
214	0xbfa2c12c	-1.2715201
215	0xbebc04a6	-0.36722296
216	0xbeba17d2	-0.36346298
217	0xbef070b7	-0.46960995
218	0xbf08679e	-0.5328311
219	0x3e40417c	0.1877498
220	0xbeed99cc	-0.464064
221	0x3eff0c93	0.4981428
222	0xbe3f57fe	-0.1868591
223	0x3dd5c0d1	0.104371674
224	0xbe681bbb	-0.22666828
225	0xbe31d14f	-0.17365001
226	0xbe7110b0	-0.23541522
227	0x3d0cb380	0.034350872
228	0xbd25f7c7	-0.040519502
229	0x3d5209f8	0.05127904
230	0xbe42d294	-0.19025642
231	0x3e5a46c7	0.21316062
232	0xbeabc607	-0.3354952
233	0xbeeab2b0	-0.45839453
234	0x3d422381	0.04739714
235	0xbefcc8b8	-0.49371886
236	0xbef68913	-0.48151454
237	0x3f4ca74d	0.7994278
238	0x3e2c3fef	0.16821264
239	0xbd87c1a2	-0.066287294
240	0xbf8b372b	-1.0876211
241	0xbe8def57	-0.27721664
242	0xbdcb86b8	-0.09937805
243	0xbefded35	-0.49595037
244	0xbee81de6	-0.4533531
245	0x3ee360b5	0.4440972
246	0xbe7d32c2	-0.24726394
247	0xbe8997bb	-0.26873574
248	0xbeafa99b	-0.34309086
249	0xbe830b03	-0.2559434
250	0x3ed5c234	0.41749728
251	0xbd221c7f	-0.039577957
252	0x3f772088	0.96534014
253	0xbfa2f571	-1.2731153
254	0xbe5d0626	-0.21584377
255	0x3ea3da9e	0.3200273

layer4.weight f4 [128, 256]
0	0x3dc73d41	0.0972848
1	0x3c72a22b	0.014809172
2	0xbe088fc0	-0.13336086
3	0x3d3d3664	0.04619445
4	0xbf259388	-0.6467824
5	0x3ebb1d97	0.36546013
6	0x3beeffc3	0.0072936728
7	0xbec4aae5	-0.38411632
8	0x3ca38af8	0.019963726
9	0xbe117805	-0.1420594
10	0x3d60af58	0.05485472
11	0x3e7a1153	0.24420671
12	0x3d30099d	0.042977918
13	0xbdb6ad80	-0.08919811
14	0x3ce62926	0.028095793
15	0x3ce7ad13	0.02828077
16	0xbea6ee88	-0.3260386
17	0x3baac973	0.005212003
18	0x3c0c0a56	0.008547386
19	0xbde30f5d	-0.11086915
20	0x3cc9c01c	0.024627738
21	0xbd8ba5f3	-0.06818762
22	0xbd95ce80	-0.073147774
23	0xbde89d95	-0.113581814
24	0x3d787d76	0.060666524
25	0xbd65ca13	-0.056100916
26	0xbda11c05	-0.078666724
27	0x3cce686f	0.025196282
28	0xbf0c1249	-0.547154
29	0xbd898b7d	-0.067160584
30	0xbf097888	-0.5369954
31	0x3e12934a	0.14313999
32	0xbd318423	-0.043338906
33	0xbe6bb144	-0.2301684
34	0x3d6c8797	0.057746496
35	0xbd9d921b	-0.07693883
36	0xbe14c2c9	-0.1452743
37	0xbe997963	-0.29975423
38	0xbe076056	-0.13220343
39	0xbdb2c9c8	-0.08729893
40	0xbf1995fa	-0.5999447
41	0x3efc73ac	0.49307
42	0xbdf9f4b6	-0.12204878
43	0x3d29f446	0.041492723
44	0xbe83e695	-0.25761858
45	0x3d805458	0.06266087
46	0xbdb941fc	-0.09045789
47	0xbd61fe3d	-0.0551741
48	0x3cf8c7c4	0.030368693
49	0xbf4f3a09	-0.8094793
50	0x3c593f12	0.013259666
51	0xbe44290b	-0.19156282
52	0xbc8f1cf2	-0.017469857
53	0x3e80e5cf	0.2517533
54	0xbe042195	-0.12903436
55	0xbd2ee00c	-0.042694137
56	0xbd99c1b3	-0.07507648
57	0xbd67bc44	-0.05657603
58	0xbe702844	-0.2345286
59	0xbe41e143	-0.18933587
60	0xbe946041	-0.28979686
61	0xbd907a72	-0.070546046
62	0xbdff9567	-0.12479668
63	0xbe07bad4	-0.13254863
64	0x3d22b1a7	0.039720204
65	0x3e479b5f	0.19492863
66	0xbf1848c6	-0.59486043
67	0xbe836f21	-0.25670722
68	0x3bd3d34a	0.0064643966
69	0xbeb1c51b	-0.34720692
70	0xbec146de	-0.3774938
71	0xbd836edc	-0.06417629
72	0xbd6f0f52	-0.05836422
73	0xbe8a6be6	-0.27035445
74	0xbe885317	-0.26625893
75	0x3db676c1	0.08909369
76	0xbe673a08	-0.22580731
77	0x3de8cfbc	0.11367747
78	0x3d0fb5c9	0.035085473
79	0xbf0c2973	-0.54750746
80	0x3dca8fb5	0.09890691
81	0xbd76331d	-0.06010734
82	0xbc20888b	-0.009798179
83	0xbebea6e2	-0.37236696
84	0xbe9bcf4d	-0.30431595
85	0x3d4ab4cc	0.049488828
86	0x3e17aa6d	0.14811106
87	0xbcf3945b	-0.029733827
88	0x3d943f6c	0.07238659
89	0xbdf24c0f	-0.11830913
90	0xbdf0dd78	-0.11760992
91	0xbf2a1729	-0.6644159
92	0xbe37d7ca	-0.1795341
93	0x3e0a5f09	0.13512816
94	0x3d99898b	0.07496937
95	0xbe92ef3c	-0.28698146
96	0xbd9c9117	-0.07644861
97	0xbd5e56da	-0.054282047
98	0xbdef9194	-0.11697689
99	0xbbde48bb	-0.0067835725
100	0xbcf6c5c7	-0.030123604
101	0xbe1a97d7	-0.15096985
102	0x3df112c2	0.11771156
103	0x3e119458	0.14216745
104	0xbc70c8fd	-0.014696357
105	0xbb8c034d	-0.0042728544
106	0xbcb596a4	-0.022166558
107	0x3dc9683a	0.09834333
108	0xbe626a2a	-0.22110811
109	0xbd041599	-0.03224716
110	0xbdcf1585	-0.101115264
111	0x3cbd335f	0.023095785
112	0xbeef18bb	-0.46698555
113	0xbe1012eb	-0.14069717
114	0xbe8b55b2	-0.27213818
115	0xbe665348	-0.22492707
116	0x3e111b50	0.14170575
117	0xbe8a420d	-0.27003518
118	0x3d5cc152	0.053895302
119	0x3d0c26d3	0.034216713
120	0xbcd6d8f7	-0.026226504
121	0x3d7f435e	0.062320106
122	0xbe6bf835	-0.23043902
123	0x3d6d7ef4	0.0579824
124	0xbdaecb0d	-0.085348226
125	0x3cf56da3	0.029959505
126	0xbecdc04c	-0.40185773
127	0xbc8622e4	-0.016374059
128	0xbe9196ff	-0.28435513
129	0xbdf1d4e5	-0.118081845
130	0x3d8fae1c	0.070156306
131	0x3a38e129	0.00070525944
132	0x3d19c79c	0.037543878
133	0xbe0e5981	-0.1390133
134	0x3d823061	0.06356884
135	0x3d8433a0	0.06455159
136	0x3ca3ae38	0.019980535
137	0x3e2ace4f	0.16680263
138	0x3d6a099d	0.057138074
139	0x3d5ad84a	0.053428926
140	0x3e651a8e	0.22373411
141	0xbf100e3b	-0.56271714
142	0xbdafdd54	-0.08587137
143	0xbebdef87	-0.37096807
144	0xbf45a835	-0.7720979
145	0xbe3a65ca	-0.18202892
146	0x3ddc315f	0.10751604
147	0xbd526b05	-0.051371593
148	0x3c73de89	0.0148845995
149	0xbe7f2d65	-0.2491966
150	0xbe2a7978	-0.16647899
151	0xbe181470	-0.14851546
152	0xbe7ff60d	-0.24996205
153	0xbd859ecd	-0.065244295
154	0x3dc80703	0.097669624
155	0xbea0d5c2	-0.31413084
156	0xbebd5a54	-0.36982977
157	0xbd5dbdd4	-0.054136112
158	0xbd3a690e	-0.045510344
159	0xbe12fda4	-0.14354569
160	0xbe0e4dc3	-0.13896851
161	0x3b8617e8	0.0040922053
162	0x3e232203	0.15930943
163	0xbed7c249	-0.42140415
164	0x3dcbcfee	0.09951769
165	0xbedfb135	-0.43689886
166	0x3eaa2bd7	0.33236572
167	0xbea84767	-0.32866976
168	0xbe659c97	-0.22423016
169	0xbe239c7b	-0.15977661
170	0xbef0ee40	-0.4705677
171	0x3d63b968	0.05559674
172	0xb985fd6c	-0.0002555655
173	0xbe800919	-0.2500694
174	0x3deab96b	0.11461147
175	0x3d28a2be	0.041170828
176	0xbf569421	-0.83819777
177	0xbd974ed2	-0.07388081
178	0xbca6fd4e	-0.020384457
179	0xbef94c38	-0.48690963
180	0xbe180dcc	-0.14849013
181	0xbee3a99c	-0.4446534
182	0xbe8e19c1	-0.27754024
183	0xbe09f364	-0.13471752
184	0xbd3bef72	-0.04588265
185	0x3e674413	0.22584562
186	0xbe50c237	-0.20386587
187	0xbe1dc98c	-0.15408915
188	0xbe1396c4	-0.14412981
189	0xbd109e66	-0.03530731
190	0xbcb4ff4a	-0.022094388
191	0x3eb937ee	0.36175483
192	0xbd0389be	-0.032113783
193	0xbf048dc1	-0.517788
194	0x3dad3004	0.08456424
195	0xbecad020	-0.39611912
196	0xbf0253eb	-0.509093
197	0xbe3c7198	-0.18402708
198	0xbe601bda	-0.21885625
199	0x3e698f9e	0.22808692
200	0xbdb49d3b	-0.08819052
201	0xbe506bd5	-0.20353635
202	0x3e2316b3	0.15926628
203	0xbe3c31a3	-0.1837831
204	0x3e17d57e	0.14827535
205	0xbd3472c2	-0.044054754
206	0xbe6bc67d	-0.23024936
207	0xbe03548e	-0.12825224
208	0xbef8ad71	-0.48569825
209	0xbe5ba602	-0.21450046
210	0x3ec70b4c	0.38875806
211	0xbedf27e4	-0.43585122
212	0x3d7ca296	0.06167849
213	0x3ee50423	0.4472972
214	0xbe9a5820	-0.3014536
215	0xbd80ce60	-0.06289363
216	0xbe21dc36	-0.1580666
217	0xbd37337e	-0.04472684
218	0x3e4caf81	0.19988824
219	0x3d33bec8	0.043883115
220	0x3ec01345	0.375147
221	0xbe73119a	-0.23737183
222	0xbd3e486a	-0.04645578
223	0xbd8e1a6f	-0.069386356
224	0x3d7b9c4e	0.06142836
225	0xbe58b170	-0.21161437
226	0xbe8c796b	-0.27436385
227	0x3e5c0f9c	0.2149033
228	0x3dc0c6e5	0.09412936
229	0xbd53f87c	-0.051750645
230	0xbe4f90a1	-0.20270015
231	0xbe7c4a19	-0.24637641
232	0xbe3a79c8	-0.18210518
233	0xbf11a2b8	-0.56888914
234	0x3e142d3e	0.14470384
235	0xbe8715df	-0.26383874
236	0x3d860e0d	0.06545649
237	0x3db948b2	0.09047069
238	0x3e42f133	0.19037323
239	0xbe7f90ed	-0.24957629
240	0xbd9f00a6	-0.077637956
241	0xbd7f3235	-0.06230374
242	0xbc7c2ede	-0.015392033
243	0xbf0908f1	-0.5352927
244	0x3d7a9a92	0.061182566
245	0xbefe960c	-0.49723852
246	0xba6d11ac	-0.0009043466
247	0xbd80d5cb	-0.06290778
248	0xbe2eb688	-0.17061818
249	0x3dfceb43	0.1234956
250	0xbddab86a	-0.106797054
251	0xbe08b7bc	-0.13351339
252	0xbdacc1b8	-0.084353864
253	0xbdd71cae	-0.10503517
254	0xbda9df7f	-0.082945816
255	0xbe927ee6	-0.2861244

layer4.bias f4 [128]
0	0xbda18c6d	-0.07888112
1	0xbbbdb9d0	-0.005789973
2	0x3e620957	0.22073875
3	0xbdc4b870	-0.09605491
4	0x3e1ed04c	0.15509146
5	0xbdbae11b	-0.09124967
6	0x3cfa2c5e	0.030538734
7	0xbdcb12ff	-0.099157326
8	0x3f0c2205	0.5473941
9	0xbcd7e865	-0.026355932
10	0xbd5980c1	-0.053101305
11	0xbd470037	-0.04858419
12	0xbe239477	-0.15974604
13	0xbe1e0dd3	-0.15434961
14	0x3cf72b52	0.030172024
15	0xbe601f7c	-0.2188701
16	0xbe00c8e9	-0.12576641
17	0xbf07ec35	-0.530948
18	0x3e3ffd6c	0.18749017
19	0xbd5c5840	-0.0537951
20	0xbdc1f079	-0.09469695
21	0xbdd54b00	-0.10414696
22	0xbe08f1d7	-0.13373505
23	0xbd973a39	-0.07384152
24	0xbc985230	-0.018593878
25	0xbddb1f9b	-0.10699388
26	0xbda33c95	-0.079705395
27	0xbc4c2f9c	-0.012462523
28	0xbcb3c42e	-0.021944132
29	0xbc202f91	-0.009776966
30	0xbc429b0a	-0.0118777845
31	0x3d6285ff	0.05530357
32	0xbdfc71cb	-0.12326392
33	0x3f752b08	0.95768785
34	0x3da25f7e	0.0792837
35	0xbe825ad6	-0.25459927
36	0xbd7a5a30	-0.061121166
37	0xbe0251bd	-0.12726493
38	0xbdc5415d	-0.09631608
39	0x4000bf69	2.0116827
40	0xbdea086e	-0.11427389
41	0xbe8e094d	-0.2774147
42	0xbda36440	-0.079781055
43	0xbe8c8d19	-0.274514
44	0x3ddc41b8	0.10754722
45	0xbd86e804	-0.06587222
46	0x3de3a82a	0.11116059
47	0xbeb124fc	-0.3459853
48	0x3b968ba7	0.0045942846
49	0xbb2a88c0	-0.002602145
50	0xbdaa5b0a	-0.083181456
51	0xbe69c3bc	-0.22828573
52	0xbea52d85	-0.3226129
53	0xbe3ceb5a	-0.18449154
54	0x3caea0c5	0.021316895
55	0xbe72cad3	-0.23710184
56	0x3e49d8fc	0.19711679
57	0x38a39c58	7.801567e-05
58	0xbd03293f	-0.032021757
59	0xbdee97a6	-0.116500184
60	0xbeb69340	-0.35659218
61	0xbe206b1b	-0.15665857
62	0xbe162dbb	-0.14665882
63	0x3dec964a	0.11552103
64	0xbe06579d	-0.1311936
65	0xbdf07a1a	-0.11742039
66	0xbdbfdd25	-0.09368352
67	0x3caf4878	0.02139686
68	0xbe2b16cc	-0.16707915
69	0xbdd554f4	-0.10416594
70	0x3e87e998	0.26545405
71	0xbd81c953	-0.06337228
72	0xbdc785ce	-0.09742318
73	0xbe5c4a1f	-0.2151265
74	0x3b945f79	0.004527983
75	0xbda8ea35	-0.082477964
76	0xbe932e2d	-0.28746167
77	0x3e687077	0.22699152
78	0xbd3ef95a	-0.04662452
79	0xbe22bb52	-0.1589177
80	0xbe654b95	-0.22392114
81	0xbebb2f63	-0.3655959
82	0xbe39ca3d	-0.18143554
83	0xbde04fbe	-0.109527096
84	0x3df80257	0.12109821
85	0xbe347b46	-0.1762515
86	0xbdaeb00c	-0.08529672
87	0xbe38b63d	-0.18038268
88	0x3d4817d7	0.04885086
89	0xbe636cf5	-0.22209533
90	0xbddcacac	-0.10775122
91	0xbe7767bf	-0.2416067
92	0xbe226896	-0.15860209
93	0xbdbec17a	-0.093142465
94	0xbd913d9c	-0.07091829
95	0x3c2fb388	0.010723956
96	0x3db2df67	0.08734017
97	0xbedd88df	-0.43268487
98	0xbe6e19c1	-0.23252012
99	0xbe2c2677	-0.16811548
100	0xbd3ad011	-0.045608584
101	0xbe5bb387	-0.21455203
102	0xbe255ff0	-0.16149879
103	0xbd1ad7d0	-0.03780347
104	0xbe86b52f	-0.26310107
105	0x3bb5d5c3	0.005549164
106	0xbdd1a38a	-0.10236271
107	0xbe0e842b	-0.13917606
108	0x3e47a561	0.19496681
109	0xbe0d5d15	-0.13805039
110	0x3e55310e	0.20819494
111	0xbd6f3df9	-0.05840871
112	0x3cde829c	0.027161889
113	0xbd17d367	-0.037066843
114	0xbec49fb4	-0.38403094
115	0xbde51a1a	-0.11186619
116	0xbee47026	-0.44616812
117	0x3dc820d7	0.09771889
118	0xbe83bc42	-0.25729567
119	0xbd323c33	-0.04351444
120	0xbe8839e1	-0.26606658
121	0xbe424163	-0.18970256
122	0xbe7026d5	-0.23452313
123	0xbe53c94f	-0.20682262
124	0xbe00eb10	-0.12589669
125	0xbe4a7a99	-0.1977333
126	0xbe821d55	-0.25413004
127	0xbe6aeec7	-0.22942649
