PPO/ppo_critic.pth (torch, 546027 bytes, 9 tensors)

layer1.weight f4 [128, 29]
0	0xbbfc668a	-0.0077026533
1	0x3cda2cec	0.026632749
2	0x3e07c7d4	0.13259822
3	0x3d090878	0.033455342
4	0x3dab6160	0.08368182
5	0xbe24c8c3	-0.1609221
6	0x3d2a1cee	0.041531496
7	0x3d147bda	0.036250927
8	0xbd59a911	-0.05313975
9	0xbc747257	-0.014919839
10	0xbd6d380c	-0.05791478
11	0x3e11a981	0.14224817
12	0x3dc187ae	0.09449707
13	0x3cb4fd9d	0.022093588
14	0xbe12e9a8	-0.14346945
15	0x3db8f954	0.090319306
16	0xbe2deab4	-0.16984063
17	0xbda7264a	-0.081616
18	0x3e4cb546	0.19991025
19	0xbdfa1107	-0.12210279
20	0xbe1bd26c	-0.15216988
21	0xbdd97587	-0.1061812
22	0xbd258091	-0.040405814
23	0xbe1cc226	-0.15308437
24	0xbc30a7f4	-0.010782231
25	0x3dd6236e	0.104559764
26	0x3cc710c8	0.024299994
27	0x3e1cf847	0.15329085
28	0xbde04e29	-0.10952408
29	0xbd769dc7	-0.060209062
30	0x3d845ee2	0.0646341
31	0x3d66dd01	0.05636311
32	0x3e3199dc	0.17343849
33	0xbd911631	-0.07084311
34	0x3e035a83	0.12827496
35	0x3dc7f924	0.09764317
36	0x3e632cf8	0.22185123
37	0x3e15177c	0.1455974
38	0x3e2f2781	0.17104913
39	0x3e1e6ab2	0.15470389
40	0xbe650f40	-0.22369099
41	0xbe3e8ab8	-0.18607605
42	0xbdf2fb07	-0.11864286
43	0xbe39f9e0	-0.18161726
44	0xbe80db6f	-0.25167415
45	0xbd2dcd0c	-0.042431876
46	0xbc0698e4	-0.008215163
47	0xbdf9e9d4	-0.12202802
48	0xbd9696eb	-0.07353004
49	0x3c7ae37e	0.015313027
50	0x3d8691c8	0.06570774
51	0x3dec4fa1	0.115386255
52	0x3d6fd2cc	0.05855064
53	0xbdf7e80c	-0.12104806
54	0x3d96f78d	0.07371435
55	0x3e12cb38	0.14335334
56	0xbbd4da3b	-0.0064957417
57	0x3dc3870f	0.09547245
58	0x3c252a8b	0.010080944
59	0xbd2f3b87	-0.04278138
60	0x3c4e1a56	0.012579521
61	0x3d6d1731	0.057883445
62	0xbdf7ed8e	-0.12105857
63	0x39cee366	0.00039460807
64	0xbe000898	-0.12503278
65	0xbe0b24cf	-0.1358826
66	0x3d5d8932	0.054085918
67	0x3b214998	0.0024610516
68	0xbe0e0654	-0.13869601
69	0x3e17f1f7	0.14838396
70	0xbd47a1d6	-0.048738323
71	0xbcfcaf25	-0.030845234
72	0x3e0aab73	0.13541965
73	0xbe3001a7	-0.1718813
74	0xbdea16ea	-0.11430152
75	0xbdbdd915	-0.09269921
76	0x3cd1ec4f	0.025625376
77	0x3e491525	0.19636972
78	0xbe54f23a	-0.20795527
79	0xbbbff48e	-0.0058580106
80	0x3cd0c140	0.025482774
81	0x3df8702a	0.121307686
82	0x3da27bb7	0.07933753
83	0xbda71e87	-0.081601195
84	0xbd1dd809	-0.038536105
85	0x3e071fba	0.13195696
86	0x3d277c2f	0.040889915
87	0x3d943e09	0.07238395
88	0x3d9764ce	0.07392274
89	0xbcd989f0	-0.026555032
90	0x3e998191	0.29981664
91	0xbde21b3d	-0.110403515
92	0xbe3bad7f	-0.18327902
93	0xbe0d17ae	-0.13778564
94	0xbbc667bf	-0.006054848
95	0x3d4ce237	0.050020423
96	0xbdbb6193	-0.0914947
97	0x3d94ac8c	0.07259473
98	0x3e7331ff	0.23749541
99	0x3d1dda7c	0.03853844
100	0x3e16d0e2	0.1472812
101	0x3d962e60	0.07333064
102	0xbd966bcb	-0.073447786
103	0xbe591a3c	-0.21201414
104	0xbe9f460b	-0.31108126
105	0xbcba875f	-0.022769628
106	0xbe555f9c	-0.20837253
107	0x3dbb15f9	0.0913505
108	0x3dbfcea1	0.09365583
109	0xbdb57ff0	-0.08862293
110	0x3b95e606	0.00457454
111	0x3d0150fb	0.03157137
112	0x3db46e07	0.088100486
113	0x3ce99972	0.028515551
114	0x3dbc638c	0.091986746
115	0x3c22971b	0.009923722
116	0x3d485251	0.048906628
117	0xbdf4340a	-0.11923988
118	0x3dd7c0ab	0.105347954
119	0x3e2ff22a	0.17182222
120	0x3e223c5c	0.15843338
121	0x3e8dcdfd	0.2769622
122	0x3d23f7b7	0.04003116
123	0x3e54d9c0	0.2078619
124	0x3ded9720	0.116010904
125	0x3dbb53d1	0.09146846
126	0x3c29b249	0.010357448
127	0x3df9ffbe	0.12206982
128	0x3e43e629	0.19130768
129	0x3e05e41e	0.13075301
130	0xbe0565f0	-0.13027167
131	0xbd22d5c8	-0.03975466
132	0x3e16a5ed	0.14711733
133	0xbe99dd86	-0.3005182
134	0xbc605c17	-0.013693831
135	0x3e2f4519	0.17116202
136	0x3de8ef82	0.113738075
137	0xbd8ea9a9	-0.06965954
138	0x3d777092	0.06041009
139	0x3b9b3afb	0.0047372556
140	0x3ca602be	0.02026498
141	0xbd672fd6	-0.056442104
142	0xbd029815	-0.031883318
143	0xbdb1013b	-0.08642813
144	0xbc8c7210	-0.017144233
145	0xbe1e637c	-0.15467638
146	0x3dba96fb	0.091108285
147	0x3e3daac4	0.18522173
148	0x3e558765	0.2085243
149	0xbd19acce	-0.037518315
150	0x3e4b5b9f	0.1985917
151	0xbd77ede0	-0.06052959
152	0xbbf261b3	-0.0073969006
153	0x3b721a48	0.0036941934
154	0x3e206b9b	0.15666048
155	0xbdd3eb3e	-0.10347603
156	0xbd12b458	-0.03581652
157	0x3ce9be02	0.028532986
158	0x3de13e81	0.1099825
159	0x3d6d6e5e	0.057966582
160	0x3cb5d497	0.022196097
161	0x3d500a45	0.050791044
162	0xbe046d1d	-0.12932248
163	0xbe07c798	-0.13259733
164	0xbd6cd7d6	-0.057823025
165	0xbd92124b	-0.07132395
166	0xbde3b538	-0.11118549
167	0x3dee815f	0.11645769
168	0x3d5ba03d	0.053619612
169	0x3dd553ef	0.104164
170	0x3dec665b	0.1154296
171	0xbcc5e09e	-0.024154957
172	0xbd75d64a	-0.060018815
173	0xbd184dba	-0.0371835
174	0x3dd05fd3	0.10174527
175	0xbc0b90ed	-0.00851844
176	0x3ac932ab	0.0015350183
177	0x3e1b07db	0.15139715
178	0xbdb939a9	-0.09044201
179	0xbddcaaac	-0.107747406
180	0x3c9cc899	0.019138621
181	0xbe482797	-0.19546352
182	0xbe1d88dd	-0.1538424
183	0x3e4bf230	0.19916606
184	0xbdd012fa	-0.101598695
185	0xbdb018d9	-0.08598489
186	0xbcca31da	-0.024681974
187	0xbd8171e9	-0.06320555
188	0xbddc78ed	-0.10765252
189	0x3e3f17b4	0.18661386
190	0xbdd49082	-0.10379125
191	0x3e113998	0.14182127
192	0xbdde6f41	-0.10861064
193	0x3e14932b	0.14509265
194	0x3dcb5b81	0.09929562
195	0xbd5f38ea	-0.054497637
196	0xbd5a58e5	-0.053307433
197	0xbb8adca3	-0.0042377277
198	0xbe2034f1	-0.15645196
199	0xbdabbaf2	-0.08385266
200	0x3e1701c7	0.14746772
201	0x3db5567d	0.08854387
202	0x3e0b8388	0.13624394
203	0x3e1332ab	0.14374797
204	0xbdbeb14d	-0.09311161
205	0xbe04e0f3	-0.12976436
206	0x39e7b3f3	0.00044193826
207	0xbe4a2c38	-0.1974343
208	0x3ea4c709	0.32183102
209	0xbd5af96f	-0.053460535
210	0x3e413fa0	0.18871927
211	0x3d89c911	0.067278035
212	0x3e154ded	0.14580508
213	0xbe58b51b	-0.21162836
214	0x3dec4338	0.115362585
215	0xbc97e636	-0.01854239
216	0xbd314371	-0.043277208
217	0x3c6b1a08	0.014349468
218	0xbddd6af3	-0.108114146
219	0x3d32cd34	0.04365273
220	0xbd483d1d	-0.048886407
221	0xbd789847	-0.060692098
222	0xbc1f9f61	-0.009742589
223	0xbdb03cc6	-0.086053416
224	0x3d6394b6	0.055561744
225	0xbd0014c3	-0.0312698
226	0x3d81d4b5	0.06339399
227	0x3d1461f7	0.03622624
228	0xbd868aa3	-0.065694116
229	0xbb75fa35	-0.0037533168
230	0xbd5be560	-0.053685546
231	0xbd1a1c99	-0.03762493
232	0x3dbb7ca2	0.09154631
233	0x3d977d65	0.07396964
234	0x3e40dc29	0.18833984
235	0x3e6284f0	0.22121024
236	0x3df03435	0.11728708
237	0xbd2aadb4	-0.041669562
238	0xbda8e1fe	-0.082462296
239	0x3d35adcb	0.044355195
240	0x3dc1767c	0.09446427
241	0xbde481f6	-0.111576006
242	0xbcfdda5f	-0.030987917
243	0xbd79d2da	-0.0609921
244	0xba1bbdb7	-0.00059410505
245	0x3d4da914	0.050210074
246	0xbdfa27b5	-0.12214605
247	0x3e2bdd64	0.16783673
248	0xbdf78a62	-0.12086941
249	0x3c7402db	0.014893259
250	0x3da3b450	0.07993376
251	0xbc1710ae	-0.009220285
252	0xbdbc11f2	-0.0918311
253	0x3e21ecda	0.15813008
254	0xbd733dc9	-0.059385095
255	0xbd0d656b	-0.034520548

layer1.bias f4 [128]
0	0xbd1de0fb	-0.038544636
1	0x3e83790e	0.25678295
2	0x3d0afe43	0.03393389
3	0x3d1fd7cc	0.03902416
4	0x3c3b0f34	0.011417199
5	0xbda8db6a	-0.08244975
6	0xbdc47bc3	-0.09593918
7	0x3ea4a8e5	0.32160106
8	0xbe7ee23a	-0.24890986
9	0x3e6bfcde	0.2304568
10	0xbc82763f	-0.015925525
11	0x3e9dc3e4	0.30813515
12	0xbe255507	-0.16145717
13	0xbd064995	-0.032785017
14	0x3cca8639	0.024722205
15	0x3b575045	0.003285424
16	0x3ea40679	0.32036188
17	0x3e82fb26	0.25582236
18	0xbdd6ec6e	-0.10494314
19	0x3d8665af	0.06562363
20	0xbd85c7ec	-0.06532273
21	0xbd953e10	-0.07287228
22	0xbe1a4e6f	-0.15068983
23	0x3c083c17	0.008315108
24	0xbe230f3a	-0.15923777
25	0x3c16c616	0.009202501
26	0x3e9cb8c4	0.30609715
27	0x3d0de894	0.034645632
28	0x3e5ae202	0.21375278
29	0x3e2433bf	0.16035365
30	0xbd141ad6	-0.036158405
31	0x3e9c88c1	0.30573085
32	0x3e8d88f3	0.27643546
33	0xbde634bf	-0.11240529
34	0xbe3e3223	-0.18573813
35	0xbdfa5a57	-0.12224262
36	0xbd8ddbfb	-0.069267236
37	0xbd558b34	-0.052134708
38	0x3e4b1af4	0.198345
39	0x3d35e0f2	0.044403978
40	0x3d7a8d83	0.061170112
41	0x3e615a22	0.22007039
42	0xbde58c9b	-0.11208459
43	0x3e0f4612	0.13991573
44	0xbe32e057	-0.17468391
45	0xbdef0d15	-0.11672417
46	0x3e5166cc	0.2044937
47	0xbe00ea94	-0.12589484
48	0x3dcc034c	0.09961566
49	0x3e8837f2	0.26605183
50	0x3e413ad0	0.18870091
51	0x3e48a6e2	0.1959491
52	0xbe1dc6ab	-0.15407817
53	0xbe2d3df7	-0.16918169
54	0x3e348f55	0.17632802
55	0x3e8f98c2	0.28046232
56	0x3e209c3f	0.15684603
57	0x3dbdfd8c	0.09276876
58	0xbd8ab29a	-0.06772347
59	0x3cf56916	0.029957335
60	0x3d07b084	0.033127323
61	0xbd871ece	-0.065976724
62	0x3e2a11ab	0.16608302
63	0x3d3cf414	0.04613121
64	0xbd7b8518	-0.061406225
65	0x3d903127	0.07040625
66	0xbe27d75f	-0.16390751
67	0x3d45423d	0.048158873
68	0x3e80111e	0.2501306
69	0x3e7b35e9	0.24532284
70	0x3e926232	0.28590542
71	0x3e149f11	0.14513804
72	0x3ded9ded	0.116023876
73	0xbe14f164	-0.14545208
74	0xbe554c9d	-0.20830007
75	0xbdaa8b34	-0.08327332
76	0x3db19cfe	0.08672522
77	0x3e52d56d	0.20589228
78	0x3dd6d20c	0.10489282
79	0x3e836a80	0.2566719
80	0xbdd690ee	-0.10476862
81	0xbd2fce8a	-0.04292158
82	0xbc80c801	-0.01572037
83	0xbd1697cf	-0.03676587
84	0x3d938520	0.07203126
85	0x3e0d029e	0.1377053
86	0xbe5ba63f	-0.21450137
87	0x3e7b4e6b	0.24541633
88	0x3db9d187	0.09073167
89	0x3e97f1c3	0.29676637
90	0x3eb8b1c2	0.36073118
91	0xbe17bda9	-0.14818443
92	0xbd83bf91	-0.06433023
93	0xbd8b8296	-0.06812017
94	0x3e91e814	0.28497374
95	0x3e03ef08	0.12884152
96	0xbddee457	-0.10883396
97	0x3e5700d5	0.20996411
98	0x3e70ed6b	0.23528068
99	0x3e627765	0.22115858
100	0x3dacd5ef	0.08439242
101	0xbb958521	-0.0045629893
102	0x3ea88e02	0.32920843
103	0x3db80066	0.08984451
104	0x3df5eccf	0.12008058
105	0xbd9e9e7c	-0.07745072
106	0x3df42926	0.11921911
107	0x3da0669b	0.078320704
108	0x3e2e3b70	0.17014861
109	0x3e198ddd	0.14995523
110	0xbe35da0a	-0.17758957
111	0xbe590dce	-0.21196672
112	0x3e89953a	0.26871663
113	0xbe2c3fba	-0.16821185
114	0xbe2f7047	-0.17132674
115	0xbb78c843	-0.0037961162
116	0xbe11a3f1	-0.14222695
117	0x3e94d12f	0.29065844
118	0xbe348c34	-0.17631608
119	0xbc5174bb	-0.012784178
120	0x3be98177	0.007126029
121	0xbdb80c32	-0.08986701
122	0x3e56cb77	0.20976053
123	0x3dea365f	0.11436152
124	0x3e886905	0.26642624
125	0x3c31c3d9	0.010849916
126	0x3dfa4841	0.122208126
127	0x3d93c533	0.07215347

layer2.weight f4 [256, 128]
0	0xbd5b22ec	-0.0535001
1	0x3d846729	0.06464989
2	0x3d86e9b8	0.06587547
3	0xbde2aaef	-0.11067759
4	0x3dbf831d	0.0935118
5	0xbd8dd2c9	-0.0692497
6	0xbdb4e571	-0.08832825
7	0x3c777d0c	0.015105497
8	0xbc9c9d76	-0.019118052
9	0x3d9a4699	0.07532997
10	0x3d1d5745	0.038413305
11	0x3d94061c	0.07227728
12	0xbdb15ec6	-0.08660655
13	0xbd77d9de	-0.06051051
14	0xbddc1e30	-0.10747945
15	0x3da3c0da	0.07995768
16	0xbc739d97	-0.014869115
17	0x3de6718f	0.11252128
18	0xbdb1a551	-0.0867411
19	0xbbb0b55d	-0.005392714
20	0x3c2f6bbb	0.010706837
21	0x3b87b54d	0.004141486
22	0xbd166168	-0.036713988
23	0xbcb08694	-0.021548547
24	0x3c95b91e	0.018276747
25	0x3b6250bc	0.0034532985
26	0x3c8b67b3	0.017017221
27	0xbd081c76	-0.033230267
28	0x3c0d19f1	0.008612142
29	0x3ce91a2d	0.028454864
30	0x3c46d5ce	0.012135936
31	0xbd5bae9c	-0.053633317
32	0x3ca5b85e	0.020229515
33	0xbd9d25ef	-0.07673251
34	0xbd4d59ae	-0.050134353
35	0xbdc11fa2	-0.094298616
36	0x3ce1485e	0.027500328
37	0xbc68fca7	-0.014220393
38	0x3c1ba805	0.009500508
39	0x3db7e494	0.08979145
40	0x3ce36aff	0.02776098
41	0x3d909e28	0.07061416
42	0xbdd8b83c	-0.10582015
43	0x3cdc1648	0.026866093
44	0xbd7b5212	-0.061357565
45	0xbc993937	-0.01870404
46	0x3d9e930e	0.07742892
47	0xbd79cf7d	-0.060988892
48	0x3cf13e30	0.029448599
49	0x3d2b9f22	0.041899808
50	0x3d2fa726	0.042884015
51	0xbd43e3e8	-0.04782477
52	0x3bc19928	0.00590815
53	0x3cf9d9cf	0.030499367
54	0x3dc74d0d	0.09731493
55	0xbd531860	-0.051536918
56	0x3ce82c21	0.028341355
57	0xbdaea897	-0.0852825
58	0x3d29e335	0.041476447
59	0x3cc439c7	0.023953332
60	0xbdd6ff8d	-0.10497961
61	0xbbe39333	-0.0069450377
62	0xbcaa4a68	-0.020787433
63	0x3d504600	0.050848007
64	0x3c47c3cf	0.0121926805
65	0xbc0a59ab	-0.00844423
66	0xbd042a6c	-0.03226702
67	0x3c80a411	0.015703233
68	0xbd1530a0	-0.036423326
69	0x3c2d4121	0.01057461
70	0xbc846af5	-0.016164282
71	0x3d82212f	0.063539855
72	0x3c284dd8	0.010272466
73	0xbce4419d	-0.027863318
74	0xbc8a2bdc	-0.016866617
75	0xbda2fc8b	-0.07958325
76	0x3ca88985	0.020573387
77	0x3d062fd6	0.032760464
78	0xbd93935c	-0.07205841
79	0x3d38d912	0.04512889
80	0xbdc625bf	-0.09675168
81	0xbd3867ad	-0.045020748
82	0x3a2ea3b7	0.00066619687
83	0x3d470cb9	0.048596118
84	0xbc915564	-0.017740913
85	0x3d8e79d6	0.06956832
86	0xbda82dd1	-0.08211864
87	0x3d943dae	0.07238327
88	0x3d480188	0.048829585
89	0x3d62fa8a	0.055414714
90	0x3c8132c2	0.015771274
91	0x3cf9c7a8	0.030490711
92	0x3d53a5ea	0.0516719
93	0xbc7653ea	-0.015034655
94	0x3d33e262	0.043917067
95	0xbd7208ec	-0.05909054
96	0xbccc0ff9	-0.02490996
97	0xbd6b3cb1	-0.057430927
98	0xbc3e2732	-0.011606025
99	0x3cd3bd82	0.0258472
100	0xbd140fa9	-0.036147747
101	0xbd2f32e9	-0.04277316
102	0xbd45cc6b	-0.04829065
103	0x3d5117a8	0.05104795
104	0x3c234509	0.00996519
105	0xbd14df06	-0.036345504
106	0x3dbff5fc	0.0937309
107	0xbda2be7b	-0.079464875
108	0x3dadf933	0.084947966
109	0x3d007735	0.031363685
110	0x3c57ffd3	0.013183552
111	0x3d0004d9	0.031254623
112	0x3dc07d99	0.09398956
113	0xbd8ca139	-0.06866688
114	0xbda3cdfc	-0.07998273
115	0xbcf6343b	-0.030054202
116	0x3b6bed89	0.0035999736
117	0x3d8f1dcd	0.06988106
118	0xbdcec5cd	-0.10096321
119	0xbe177b29	-0.14793076
120	0xbc50837a	-0.012726659
121	0xbdab0165	-0.08349875
122	0x3d964f82	0.07339384
123	0xbce9b080	-0.028526545
124	0x3d6792ce	0.05653649
125	0xbd88f713	-0.06687751
126	0xbd031516	-0.03200253
127	0x3dc78dbd	0.09743831
128	0x3d1610e4	0.036637202
129	0x3ca0843b	0.019594302
130	0xbd2fa1c2	-0.042878874
131	0xbdcb7005	-0.099334754
132	0xbd2748e0	-0.040840983
133	0xbdc6528a	-0.09683712
134	0xbc685adb	-0.014181818
135	0x3bed3209	0.0072386307
136	0x3cd6f67b	0.026240578
137	0xbcea565b	-0.02860563
138	0x3dae454a	0.085093096
139	0x3db3e7d9	0.08784456
140	0xbce8035f	-0.02832192
141	0xbd221de9	-0.039579306
142	0x3c3f88f5	0.011690368
143	0xbc5d5ff4	-0.013511647
144	0x3dae05a8	0.084971726
145	0x3dd2195b	0.102587424
146	0xbcf20d5b	-0.029547384
147	0xbd754aca	-0.059885778
148	0xbd85435b	-0.06506988
149	0xbdbbc80e	-0.09169017
150	0x3d061391	0.032733504
151	0x3d8cb731	0.068708785
152	0x3be60bf3	0.0070204674
153	0xbd23a8ec	-0.03995602
154	0x3dad03f1	0.084480174
155	0x3cad9749	0.021190302
156	0xbd8a6474	-0.06757441
157	0x3c2b5d08	0.010459192
158	0xbd0e08fb	-0.034676533
159	0x3c290663	0.010316464
160	0x3db5074c	0.088392824
161	0x3cf5c894	0.03000287
162	0x3d4a8531	0.049443427
163	0x3d8b96eb	0.06815895
164	0xbc8d531b	-0.017251542
165	0xbcc44c45	-0.02396215
166	0xbd26760c	-0.040639922
167	0x3bbf4795	0.0058373907
168	0x3d9b8646	0.0759397
169	0x3d520821	0.051277284
170	0x3c297fcb	0.01034541
171	0x3d1dcea2	0.03852714
172	0xbdb43d97	-0.0880081
173	0xbdd52923	-0.10408237
174	0x3de5f378	0.112280786
175	0xbda19b57	-0.07890957
176	0xbd2323d2	-0.039829083
177	0xbda6be22	-0.08141734
178	0x3d674bad	0.056468654
179	0x3d0a745b	0.03380237
180	0xbc4a317c	-0.0123409
181	0xbd9f063c	-0.07764861
182	0x3dbc0b8f	0.09181892
183	0xbc6d82ff	-0.014496564
184	0xbdb36945	-0.08760313
185	0xbd4e6876	-0.05039259
186	0x3d1f1ab9	0.038843844
187	0x3cdad6a2	0.026713673
188	0x3d00083c	0.031257853
189	0xbcee68cd	-0.029102707
190	0x3c7f44dd	0.015580383
191	0x3c27e1f5	0.010246743
192	0x3d4afb50	0.049556077
193	0x3d47b206	0.04875376
194	0x3d9a3a16	0.0753061
195	0xbd76430d	-0.06012254
196	0x3dead6bb	0.11466738
197	0x3dc10376	0.09424488
198	0xbd94afd0	-0.07260096
199	0xbdad8168	-0.08471948
200	0xbc668f4d	-0.0140722515
201	0xbc815f4a	-0.015792508
202	0xbdcb6e99	-0.09933204
203	0xbc001733	-0.007818031
204	0x3d5c3318	0.053759664
205	0xbd154c47	-0.036449697
206	0xbdb78512	-0.08960928
207	0x3d891fe0	0.06695533
208	0xbc0f82d9	-0.008759224
209	0xbd4f9226	-0.050676487
210	0xbd439ec5	-0.047758836
211	0xbd62d9e9	-0.055383597
212	0x3d9ded4a	0.07711275
213	0x3d64c845	0.055855054
214	0x3d22c020	0.039734006
215	0xbd328ab4	-0.04358931
216	0xbd53d7ee	-0.0517196
217	0xbd69cfff	-0.057083126
218	0x3cee2929	0.029072361
219	0xbcded900	-0.027203083
220	0x3cb1ef6e	0.021720614
221	0x3c92193e	0.017834302
222	0x3d4ce1b1	0.050019924
223	0xbd9eaeb7	-0.07748168
224	0xbabfa53d	-0.0014621388
225	0x3ccf72ef	0.02532336
226	0x3c7a1616	0.015264055
227	0xbd99b670	-0.075055
228	0xbc9abcf2	-0.018888924
229	0xbd99fc34	-0.07518807
230	0x3bf69bbc	0.007525889
231	0x3da54629	0.080700226
232	0xbd83968e	-0.064252004
233	0x3d8a2399	0.06745071
234	0xbb0be01f	-0.0021343303
235	0x3d640ce7	0.055676367
236	0xbaedcf0a	-0.0018143367
237	0xbd52d306	-0.05147078
238	0x3d332679	0.043737862
239	0xbbea3b33	-0.0071481704
240	0x3c8c81b0	0.017151684
241	0x3d89a9dc	0.06721851
242	0x3cebf5c1	0.028803708
243	0xbce6a7e6	-0.028156232
244	0xbdaaa6c2	-0.08332588
245	0x3c2a6850	0.010400847
246	0x3d4ea408	0.0504494
247	0x3d513a53	0.051081013
248	0xbccae10b	-0.024765512
249	0x3cdf834b	0.027284285
250	0x3d898ae6	0.06715946
251	0xba0cb4ba	-0.00053675065
252	0xbd0b4a5a	-0.034006454
253	0x3d83ea85	0.064412154
254	0xbd88aa33	-0.06673088
255	0xbd90a735	-0.07063142

layer2.bias f4 [256]
0	0x3ca501af	0.020142404
1	0x3de87664	0.11350706
2	0x3db70ff2	0.08938588
3	0xbe18a063	-0.14904933
4	0x3d5a3489	0.053272758
5	0x3e24b473	0.16084461
6	0x3c5d0cd6	0.01349183
7	0x3e3b2a25	0.18277796
8	0x3e53ce69	0.20684208
9	0x3e4c3fa9	0.1994616
10	0x3e18dbc2	0.14927581
11	0xbe0ecb9c	-0.13944858
12	0x3d0182d7	0.03161892
13	0x3e0d6a4a	0.13810077
14	0xbb94138d	-0.004518932
15	0x3e480c3b	0.19535916
16	0xbe2d98c3	-0.16952805
17	0x3d6ab34f	0.05729991
18	0xbe25b60b	-0.16182725
19	0x3bb1e2b7	0.005428638
20	0xbd3c3eda	-0.045958377
21	0xbd0f6e3e	-0.035017245
22	0x3e000834	0.12503129
23	0xbe008de0	-0.12554121
24	0x3dc55b2e	0.09636532
25	0x3d7a7958	0.06115088
26	0x3e46d7c9	0.19418253
27	0xba0b0f5e	-0.0005304719
28	0xbd923eea	-0.07140906
29	0x3e148b4d	0.14506264
30	0x3e0a936f	0.13532804
31	0x3e349428	0.17634642
32	0x3dcc636e	0.09979902
33	0x3d072b54	0.033000305
34	0x3d986cd3	0.074426316
35	0x3e1859ee	0.14878055
36	0x3e30ef67	0.17278825
37	0x3d67b605	0.05657007
38	0xbd996310	-0.07489598
39	0x3e287e5a	0.1645445
40	0x3e19c540	0.15016651
41	0x3d16d150	0.03682071
42	0x3d51654b	0.05112199
43	0x3d6cbdc0	0.057798147
44	0xbdba8d47	-0.09108978
45	0x3e3bb3c9	0.18330301
46	0x3e0c0082	0.13672069
47	0x3e5dd557	0.21663414
48	0x3e387acb	0.18015592
49	0x3dbae746	0.09126143
50	0x3dfe1ce5	0.12407855
51	0x3de9dce2	0.11419083
52	0xbd0f8c1d	-0.03504573
53	0x3dd5d867	0.10441666
54	0x3e58909c	0.21148914
55	0x3d588993	0.052865576
56	0x3e2f8172	0.17139223
57	0x3d2f20c9	0.042755876
58	0x3e2d1580	0.16902733
59	0xbc91206b	-0.017715653
60	0x3e273e0e	0.16332266
61	0xbbaae9b1	-0.0052158465
62	0x3dd410c2	0.10354759
63	0x3daa254c	0.08307895
64	0x3e170109	0.14746489
65	0x3d98b349	0.07456071
66	0x3e2ebde7	0.1706463
67	0x3e27e771	0.16396882
68	0x3e0a459b	0.13503115
69	0x3d06fbb4	0.032954887
70	0x3aba46fb	0.0014211828
71	0x3ca860dc	0.020553999
72	0x3d492c26	0.04911437
73	0x3e4ecb17	0.2019466
74	0xbdcb6d69	-0.09932978
75	0x3e299d40	0.16563892
76	0x3e12da8b	0.1434118
77	0x3d7b4f02	0.061354645
78	0x3e51bdf1	0.20482613
79	0x3df9ef56	0.12203853
80	0x3dfb2e26	0.122646615
81	0x3dd72a82	0.105061546
82	0xbd11e988	-0.035623103
83	0x3e574ca1	0.21025325
84	0x3d470d61	0.048596743
85	0x3e4a8221	0.19776203
86	0x3d9250ae	0.07144295
87	0x3e20923d	0.15680785
88	0x3dee972d	0.11649928
89	0x3d93fc51	0.0722586
90	0x3e3fb245	0.18720348
91	0x3db18e49	0.08669717
92	0x3d648dfb	0.055799466
93	0xbd06e71b	-0.032935243
94	0xbdc6290e	-0.09675799
95	0x3e1f9157	0.15582787
96	0x3e2dcea9	0.16973366
97	0x3ce675e4	0.028132387
98	0x3d84032b	0.06445917
99	0x3d52ba85	0.05144741
100	0x3e49b145	0.19696529
101	0x3dc2d225	0.09512738
102	0x3e0f63a4	0.14002854
103	0x3d65f16e	0.05613845
104	0x3cf9de20	0.030501425
105	0x3da3c5db	0.07996722
106	0x3e10deb6	0.14147457
107	0xbc98d402	-0.01865578
108	0xbe1b8c7a	-0.15190306
109	0x3dcaf520	0.09910035
110	0x3da983c5	0.08277086
111	0x3e4920ba	0.1964139
112	0x3e4a2328	0.19739974
113	0xbd349873	-0.0440907
114	0x3dc3229c	0.095280856
115	0x3e1eb8bd	0.1550016
116	0x3e1314c7	0.14363395
117	0xbd910481	-0.07080937
118	0x3e059d71	0.1304834
119	0x3e3c172c	0.18368214
120	0x3e327f65	0.1743141
121	0x3e272cce	0.16325685
122	0x3dfba732	0.12287749
123	0x3e0fb710	0.14034677
124	0x3d677f90	0.056518137
125	0x3e4d9090	0.20074677
126	0x3e0820b6	0.13293728
127	0x3e44bb7a	0.19212142
128	0x3e2973a2	0.16548017
129	0x3e3a266d	0.18178721
130	0x3e43f94b	0.19138066
131	0x3e40c8a6	0.18826541
132	0x3d62d71c	0.055380926
133	0xbdda9a3c	-0.10673949
134	0x3d95b8b3	0.07310619
135	0xbdc85a9a	-0.09782906
136	0x3e58ddf1	0.21178414
137	0x3e445133	0.191716
138	0x3e32202e	0.17395088
139	0xbd754151	-0.059876744
140	0x3e440bea	0.1914517
141	0x3dc9f47a	0.09861083
142	0xbcca31db	-0.024681976
143	0x3e24f920	0.16110659
144	0x3d315845	0.04329707
145	0x3bd2a5f7	0.006428476
146	0x3df40c8b	0.11916455
147	0xbddd78b2	-0.108140364
148	0x3ddb06b2	0.106946364
149	0x3e17f9b1	0.14841343
150	0x3e42c664	0.19020993
151	0x3dfa5627	0.122234635
152	0x3d170c13	0.03687675
153	0x3e1b2aad	0.15152998
154	0x3df77529	0.120828934
155	0xbdfa5db4	-0.12224904
156	0x3e51f451	0.20503356
157	0x3e17a1ba	0.14807788
158	0x3e289d5f	0.16466282
159	0x3cf64c08	0.030065551
160	0x3e10c883	0.14138989
161	0x3dc9a7f2	0.09846486
162	0x3dc0d595	0.094157375
163	0x3e447cc6	0.19188222
164	0x3e2fee0e	0.17180654
165	0xbd328d03	-0.04359151
166	0xbcdece82	-0.02719808
167	0x3d2b4b91	0.041820113
168	0x3e2a073d	0.16604324
169	0x3e51faae	0.20505783
170	0x3e1e89a2	0.1548219
171	0x3c1b3018	0.009471916
172	0x3e2cd62c	0.16878575
173	0x3e41b2b1	0.18915822
174	0x3d807b3b	0.06273504
175	0x3e49a39d	0.1969132
176	0x3d93d289	0.07217891
177	0x3a0a14c5	0.0005267377
178	0x3e4bf3ac	0.19917172
179	0x3d0b2251	0.033968274
180	0x3e38d95c	0.18051666
181	0x3e4cb26a	0.19989935
182	0x3dd314d1	0.10306705
183	0x3d0d4533	0.03448982
184	0x3d7df9ec	0.062005922
185	0x3e4638fa	0.19357672
186	0x3e312c24	0.17301995
187	0x3dfe9e18	0.12432498
188	0x3e1522a4	0.14563996
189	0x3d04a306	0.032382034
190	0x3e21b8e6	0.1579319
191	0x3e351c26	0.17686519
192	0xbc43f5e7	-0.011960483
193	0x3def99f0	0.11699283
194	0xbd517302	-0.05113507
195	0xbd71e55a	-0.059056617
196	0x3db12a5f	0.0865066
197	0x3d7510b3	0.05983038
198	0x3d1389ce	0.036020093
199	0x3e5bd461	0.21467735
200	0x3e251f34	0.16125184
201	0x3e34480f	0.17605613
202	0xbd9da332	-0.07697143
203	0x3e34da04	0.17661291
204	0x3db4dae5	0.08830813
205	0x3e468728	0.19387496
206	0x3deb1971	0.11479462
207	0x3e3ae777	0.1825236
208	0x3e498a79	0.1968173
209	0x3d5d5482	0.05403567
210	0x3d1dcaa5	0.038523335
211	0x3dc292ff	0.095006935
212	0xbbf89a3e	-0.0075867465
213	0xbddb4133	-0.10705795
214	0x3e122cea	0.14274946
215	0x3e3ef972	0.18649843
216	0x3df00a8d	0.117207624
217	0x3d5904a3	0.052982938
218	0x3da91bec	0.08257279
219	0x3d9e78bc	0.07737872
220	0x3c9b9c50	0.018995434
221	0x3e127b87	0.14304934
222	0x3e2b659f	0.16737984
223	0x3de207e4	0.11036661
224	0x3e4207e0	0.18948317
225	0x3e2efde8	0.17089045
226	0xbdbc1db1	-0.09185351
227	0x3e2ce731	0.16885068
228	0x3d8c663a	0.06855436
229	0x3d507e9a	0.050901987
230	0x3e3941b5	0.18091471
231	0x3e48b69d	0.19600911
232	0xbd46056d	-0.04834502
233	0x3df1f1f3	0.11813726
234	0x3e541863	0.20712428
235	0xbe160582	-0.14650539
236	0x3d71b753	0.059012722
237	0xbd55dc95	-0.052212317
238	0x3e11c099	0.14233626
239	0xbd90c0bd	-0.07068012
240	0x3e45a758	0.19302118
241	0xbe0b0779	-0.1357707
242	0x3d9c6737	0.07636874
243	0x3dd0bc1d	0.1019213
244	0x3e096595	0.13417657
245	0x3e33f338	0.1757325
246	0x3e64200f	0.22277854
247	0x3dc36833	0.09541359
248	0xbcb6a201	-0.022294046
249	0x3e149368	0.14509356
250	0x3cfbb45c	0.03072565
251	0x3d7aca3d	0.061228026
252	0xbd82281d	-0.06355307
253	0x3e475115	0.19464524
254	0x3e037418	0.12837255
255	0x3dcb1006	0.099151656

layer3.weight f4 [256, 256]
0	0xbbe42ba1	-0.006963209
1	0xbd2a1e8d	-0.04153304
2	0xbd24b4b4	-0.040211394
3	0x3d1a0745	0.03760459
4	0x3cb54d00	0.022131443
5	0xbd02e748	-0.03195885
6	0xbda5f103	-0.0810261
7	0xbc8276df	-0.015925823
8	0xbd3da3ce	-0.046298794
9	0xbcfee9bf	-0.031117318
10	0x3d2d48d5	0.042305786
11	0x3d4e42b3	0.050356578
12	0x3cdf94ab	0.02729257
13	0xbd19e07a	-0.037567593
14	0xbcebe8b7	-0.02879749
15	0xbb0556ac	-0.002034585
16	0xbb5729ee	-0.0032831389
17	0x3cc9bf73	0.024627423
18	0x3901d861	0.00012383006
19	0xbd0515fe	-0.032491677
20	0xbd0dcf56	-0.03462156
21	0xbdf53e89	-0.11974818
22	0xbc2c8683	-0.010530117
23	0x3c26697b	0.010156984
24	0xbd2c4d71	-0.04206604
25	0xbc821d40	-0.015883088
26	0x3cf3bbfa	0.02975272
27	0x3d724e60	0.059156775
28	0x3d574edc	0.05256544
29	0x3c044f3b	0.008075531
30	0xbcdd0077	-0.02697776
31	0xbcc83d6d	-0.024443353
32	0xbcccb7d4	-0.02499
33	0xbd214c64	-0.039379492
34	0xbc7eb509	-0.015546092
35	0xbc80f647	-0.015742434
36	0xbd5a0e23	-0.053236138
37	0xbcfd51db	-0.03092282
38	0x3c81610f	0.015793351
39	0x3c660147	0.0140383905
40	0x3d3ab07f	0.045578476
41	0xbd473ccd	-0.04864197
42	0x3cfc4fdf	0.030799804
43	0xbcaba91b	-0.02095466
44	0x3c727717	0.014798901
45	0xbc53a5d3	-0.012917954
46	0xbd771c2f	-0.060329612
47	0x3d049f61	0.032378558
48	0xbd30d88c	-0.043175265
49	0xbc83d418	-0.016092345
50	0xbc865668	-0.016398624
51	0xbbd6eb66	-0.0065588234
52	0xbdccf9a8	-0.10008556
53	0xbce4d01a	-0.027931262
54	0xbd1123f6	-0.035434686
55	0xbd0feebe	-0.03513979
56	0x3c9d449a	0.01919775
57	0xbb9129c4	-0.0044300277
58	0x3d5440ae	0.051819496
59	0x3d0cf4f7	0.034413304
60	0xbcd129e0	-0.025532663
61	0xbd8c48f8	-0.06849855
62	0x3cd9e5e3	0.026598876
63	0x3cd1ff0a	0.025634307
64	0xbb4f0bac	-0.003159265
65	0x3ca96ef9	0.020682799
66	0x3c62b883	0.013837936
67	0x3d3a9792	0.045554705
68	0x3bc6de06	0.0060689477
69	0x3d8a983d	0.067673184
70	0x3c16f08f	0.009212627
71	0x3d458820	0.048225522
72	0xbd8a13a9	-0.06742031
73	0xbd0d3a83	-0.03447963
74	0x3ce1c963	0.027561849
75	0xbbe210b8	-0.0068989657
76	0x3c98adef	0.018637626
77	0x3d179220	0.03700459
78	0xbd04ea36	-0.032449923
79	0xbcf99956	-0.030468624
80	0x3d336a5c	0.043802604
81	0xbd058c25	-0.032604355
82	0xbd900be4	-0.07033518
83	0x3b318275	0.0027085815
84	0x3d02b099	0.031906698
85	0xbc24330c	-0.010021936
86	0x3c92187f	0.017833946
87	0xbd7aaeae	-0.061201744
88	0x3c26ea05	0.010187631
89	0x3d41c124	0.047303334
90	0x3d38a424	0.04507841
91	0x3d18e8f2	0.03733153
92	0xbc73c789	-0.014879116
93	0x3d18619c	0.037202463
94	0x3d86c0de	0.06579755
95	0xbb6d2a72	-0.003618863
96	0x3d69c405	0.057071704
97	0xbd4f36e9	-0.050589476
98	0x3d06a92c	0.03287618
99	0x3c620628	0.013795413
100	0x3d22b00e	0.03971868
101	0xbd2a0c62	-0.041515715
102	0xbcf745d5	-0.030184666
103	0xbd413e83	-0.047178756
104	0x3d84bb07	0.06480985
105	0x3d007cc3	0.031368982
106	0x3d277b9d	0.04088937
107	0xbb85f8e9	-0.0040885103
108	0x3da0941a	0.07840748
109	0x3d06926c	0.032854483
110	0x3cc6b9b3	0.02425847
111	0xbd1f0447	-0.03882244
112	0xbd206e19	-0.039167497
113	0x3da3bf66	0.07995491
114	0xbced3980	-0.028958082
115	0x3ccb0785	0.024783859
116	0xbd805545	-0.06266264
117	0x3d033fb3	0.03204317
118	0xbbfb851e	-0.007675781
119	0x3ba580b6	0.005050744
120	0x3d491bfd	0.049098957
121	0xbbc1d5ed	-0.0059153945
122	0x3c65f78b	0.01403607
123	0xbd8a6f83	-0.067595504
124	0x3aaad01d	0.0013031993
125	0xbd4b15ef	-0.049581464
126	0xbcdabf66	-0.026702594
127	0x3d43e83f	0.04782891
128	0x3c7115f1	0.014714704
129	0x3a18e94c	0.0005833104
130	0xbd91dc36	-0.0712208
131	0xbca6e59e	-0.020373162
132	0xbd26ded9	-0.040739868
133	0x3dabb8f5	0.08384887
134	0xbd21f073	-0.03953595
135	0x3c5933f5	0.013257016
136	0x3c03a779	0.008035534
137	0x3d137f2e	0.03600996
138	0xbcae5271	-0.021279546
139	0xbd895c84	-0.06707099
140	0xbd2785cd	-0.040899087
141	0xbc995181	-0.018715622
142	0xbd96a278	-0.07355207
143	0xbccdaafb	-0.025105944
144	0xbb8eee8f	-0.0043619345
145	0xbcc67903	-0.024227625
146	0xbaa55972	-0.0012615158
147	0x3d475948	0.04866913
148	0xbd140bbe	-0.03614401
149	0x3d8a56cb	0.06754836
150	0x3cdcd28c	0.026955865
151	0xbd01ff79	-0.03173778
152	0xbd2fe3b8	-0.04294178
153	0x3ce4698a	0.027882356
154	0xbd1bdec3	-0.03805424
155	0x3b00f22c	0.0019675596
156	0xbd918c09	-0.07106788
157	0xbd3c887e	-0.046028607
158	0x3d3b512b	0.045731705
159	0x3c075ffe	0.008262632
160	0x3d283146	0.041062616
161	0x3b2630c3	0.0025358654
162	0xbd3fd201	-0.046831135
163	0x3cf3fcfc	0.029783718
164	0xbc11eb62	-0.008906217
165	0xbc854509	-0.01626827
166	0xbd97cafd	-0.07411764
167	0xbd599e3f	-0.05312943
168	0xbd07a3a4	-0.033115044
169	0xbc9cf053	-0.019157564
170	0x3d5f4db3	0.05451746
171	0x3c64f3d8	0.0139741525
172	0x3cdbc7ca	0.026828665
173	0xbd20a6f1	-0.039221708
174	0xbd355b02	-0.044276245
175	0xbb5fa7d1	-0.0034127126
176	0x3c74bcf4	0.014937628
177	0xbdb40b80	-0.08791256
178	0x3d09d402	0.033649452
179	0x3d027107	0.031846073
180	0xbcc4652f	-0.02397403
181	0xbca89979	-0.020580994
182	0xbd0669e3	-0.032815825
183	0x3c7e3eb7	0.015517882
184	0x3cf42495	0.0298026
185	0xbc6bd5aa	-0.014394203
186	0xbc8013a9	-0.015634375
187	0xbcbc89b7	-0.023014886
188	0xbd1eb65f	-0.03874814
189	0x3cc64f5c	0.024207763
190	0xbd8329d4	-0.064044625
191	0xbca6d019	-0.0203629
192	0xbce10702	-0.027469162
193	0xbc8d5154	-0.017250694
194	0xbd25777f	-0.040397163
195	0xbc896e25	-0.016776154
196	0xbc320156	-0.010864576
197	0xbce46348	-0.027879372
198	0xbd22ef12	-0.039778776
199	0x3c9b82ea	0.018983323
200	0x3d8012b3	0.062535666
201	0x3d1c505d	0.038162578
202	0xbd9b5c6c	-0.075859874
203	0xbd8318e0	-0.06401229
204	0xbd3ff904	-0.04686834
205	0xbcd8bf23	-0.026458329
206	0x3ca8335f	0.020532308
207	0x3cbed14a	0.023293156
208	0xbd056391	-0.032565657
209	0xbd9f3940	-0.077745914
210	0x3d802178	0.06256384
211	0xbc9faad3	-0.019490635
212	0x3c2fce05	0.010730271
213	0x3d9f757f	0.077860825
214	0xbd2b2760	-0.041785598
215	0xbcfe3824	-0.03103263
216	0x3c43da64	0.011953924
217	0x3c2b233e	0.010445414
218	0x3ce27c22	0.027647082
219	0xbc06a1ff	-0.008217334
220	0xbc40c3c2	-0.011765422
221	0x3d18d01a	0.037307836
222	0xbbaa396b	-0.005194833
223	0xbd41b174	-0.047288373
224	0xbd2df693	-0.04247148
225	0x3cc8c773	0.024509167
226	0xbdd49c13	-0.10381331
227	0xbca037c6	-0.019557845
228	0x3c10a9e2	0.008829566
229	0xbc952cda	-0.018209863
230	0xbd5bac41	-0.05363107
231	0xbc924938	-0.017857179
232	0xbc883e11	-0.016631158
233	0xbd6aa408	-0.05728534
234	0xbd79d1a0	-0.06099093
235	0x3d6ea707	0.05826476
236	0xbcb9dad8	-0.02268736
237	0xbd8d99fe	-0.06914137
238	0x3b4f5140	0.0031634122
239	0xbc9beaa1	-0.019032778
240	0xbbd387d1	-0.0064553996
241	0xbbd99bb0	-0.006640874
242	0x3ce939f8	0.028470024
243	0xbd205ed5	-0.03915294
244	0xbd10464d	-0.035223294
245	0x3c8a7d1d	0.016905362
246	0xbd57547d	-0.05257081
247	0xbd246005	-0.040130634
248	0xbdb7bf2b	-0.08972009
249	0x3d2757ed	0.040855337
250	0xbc094257	-0.008377633
251	0xbd7940c9	-0.0608528
252	0x3d4e1115	0.05030926
253	0xbc99642c	-0.018724523
254	0xbbc3e3d1	-0.0059780856
255	0x3c280713	0.010255593

layer3.bias f4 [256]
0	0x3d50925e	0.050920837
1	0x3dab296d	0.08357511
2	0x3e1268f4	0.14297849
3	0x3d8fde53	0.07024827
4	0x3d997b9b	0.07494279
5	0x3d264fd4	0.040603474
6	0xbddf2600	-0.1089592
7	0xbd98dab3	-0.074635886
8	0x3dc6307c	0.096772164
9	0x3e0388d1	0.1284516
10	0x3e013a88	0.12619984
11	0x3e236738	0.15957344
12	0x3ddc8cdf	0.107690565
13	0x3e1becd8	0.15227067
14	0xbdca7751	-0.09886039
15	0xbd40d897	-0.047081556
16	0xbd79a7b2	-0.060950942
17	0x3d9e9f70	0.07745254
18	0x3d9b67b8	0.07588142
19	0x3e018c35	0.12651141
20	0x3d4c7d8e	0.049924426
21	0x3dbbed7f	0.09176158
22	0xbdbd1a8d	-0.0923358
23	0x3e20944d	0.15681572
24	0xbdd3d0c0	-0.1034255
25	0x3e1d01a6	0.1533266
26	0x3de58aa3	0.112080835
27	0xbe1b0d91	-0.15141894
28	0x3dcb6203	0.099308036
29	0xbd8074ed	-0.06272302
30	0x3da6071b	0.08106824
31	0x3e17e549	0.14833559
32	0xbd121276	-0.035662137
33	0x3e27e2fd	0.16395183
34	0x3df2d505	0.118570365
35	0x3e31bee3	0.17357974
36	0xbca2805d	-0.019836599
37	0xbd786dd0	-0.0606516
38	0x3e2d3bae	0.16917297
39	0x3e1a7a56	0.1508573
40	0xbdd119c9	-0.10209996
41	0x3e1c18c1	0.15243818
42	0x3de41fb3	0.11138859
43	0x3d6c0a20	0.057626843
44	0x3e2f2352	0.17103317
45	0x3e16fa9d	0.14744039
46	0x3dca63cc	0.09882316
47	0x3dba3649	0.09092385
48	0x3e062c7d	0.13102908
49	0x3de0c14d	0.10974369
50	0x3de1be32	0.11022605
51	0x3dec8871	0.11549462
52	0xbda85a2e	-0.082203254
53	0x3d5c8137	0.053834166
54	0x3e0531b2	0.13007239
55	0x3e041e5f	0.1290221
56	0x3dfd6200	0.12372208
57	0x3bf674ab	0.007521232
58	0x3e1f2afe	0.15543744
59	0x3e04c4e8	0.12965739
60	0x3e1e5272	0.15461138
61	0x3dbca512	0.09211172
62	0x3e17cfae	0.14825317
63	0xbdec963d	-0.11552093
64	0xbda31e93	-0.07964816
65	0x3dba6224	0.0910075
66	0x3e18d5ab	0.14925258
67	0xbd7a5911	-0.061120097
68	0x3d8ef279	0.06979842
69	0xbdb903ff	-0.09033965
70	0x3dcd5365	0.10025672
71	0x3e1ae052	0.15124634
72	0x3e21299c	0.15738529
73	0xbdbba792	-0.09162821
74	0x3e06f97b	0.13181107
75	0x3da825cd	0.08210335
76	0x3e0655e6	0.13118705
77	0x3da8c1df	0.08240103
78	0xbdb1923f	-0.08670472
79	0x3d9aa278	0.0755052
80	0x3d57dfcc	0.052703664
81	0x3d5c9ead	0.053862263
82	0x3dae8491	0.08521379
83	0x3deacf80	0.11465359
84	0x3d870bf8	0.0659408
85	0xbc7e8fcf	-0.015537216
86	0x3ddc622e	0.10760914
87	0x3dace3dd	0.08441899
88	0x3e1b828b	0.15186517
89	0x3e19b375	0.15009864
90	0x3db37bba	0.08763833
91	0x3d7b8a24	0.061411038
92	0x3dd93dae	0.106074676
93	0x3d5904d5	0.052983124
94	0xbe026d78	-0.12737072
95	0x3de84ee4	0.11343172
96	0x3da6843b	0.0813069
97	0x3dda68d1	0.106645234
98	0x3be7b0fb	0.0070706583
99	0x3e336267	0.17518006
100	0x3e1e66ec	0.15468949
101	0x3e1bdff0	0.15222144
102	0xbcf8f54f	-0.03039041
103	0xbcebc269	-0.028779225
104	0x3e24e24a	0.16101947
105	0x3e224151	0.15845229
106	0xbe023c0d	-0.1271822
107	0x3d7046bc	0.058661208
108	0xbd017abd	-0.031611193
109	0x3e13dfd3	0.14440851
110	0x3e17d886	0.14828691
111	0x3e2a8b1a	0.16654626
112	0x3dd48fc5	0.10378984
113	0x3dcd7123	0.10031345
114	0x3dc873ab	0.09787687
115	0xbdfcef15	-0.12350289
116	0x3e0e31be	0.13886163
117	0x3d3d1c57	0.046169605
118	0x3d34395f	0.044000026
119	0x3d27a213	0.04092605
120	0xbd9b7791	-0.07591165
121	0x3d1e9ee6	0.038725756
122	0x3dae3030	0.08505285
123	0x3d6a9e00	0.057279587
124	0x3e19ca52	0.15018585
125	0x3e1bb8a2	0.1520715
126	0x3e289130	0.16461635
127	0x3e5960f3	0.2122839
128	0xbdeac37b	-0.11463066
129	0x3e1989ac	0.14993924
130	0x3d5ab696	0.053396784
131	0x3e02c20d	0.12769337
132	0x3e0c48d1	0.13699652
133	0x3d8f3cc8	0.06994015
134	0xbcd6943b	-0.026193729
135	0x3e28b289	0.16474356
136	0x3d5313a4	0.051532403
137	0x3e28ad67	0.16472398
138	0x3db407ad	0.087905265
139	0xbd8b7f1b	-0.06811353
140	0x3de8c61a	0.1136591
141	0x3e08291b	0.1329693
142	0x3e1d81d5	0.15381558
143	0x3e0f4edd	0.13994928
144	0x3d2983e7	0.041385558
145	0xbd4a9193	-0.049455237
146	0x3d9a77a9	0.075423546
147	0x3db056ce	0.08610307
148	0x3dbed4ff	0.093179695
149	0x3d9f80f3	0.07788267
150	0x3e1c7c5a	0.15281811
151	0x3d513323	0.05107416
152	0x3d4a01bd	0.049318064
153	0x3d85284f	0.06501829
154	0xbc3a9a2b	-0.011389296
155	0xbd59435e	-0.053042762
156	0x3db7898d	0.089617826
157	0x3dd95c83	0.10613348
158	0x3de18f52	0.11013664
159	0x3da47e26	0.080318734
160	0x3da838f1	0.08213986
161	0x3da17778	0.07884115
162	0x3dddf1d0	0.10837138
163	0xbdbad0cb	-0.09121855
164	0x3e29cd3b	0.16582195
165	0xbd884e8f	-0.06655609
166	0xbe19b781	-0.15011407
167	0x3d83f415	0.06443039
168	0x3d5ddde0	0.054166675
169	0x3dab5d66	0.08367424
170	0xbdba0906	-0.09083752
171	0xbdbbd768	-0.09171945
172	0x3e0afaf6	0.13572297
173	0x3e0f5698	0.13997877
174	0x3d2406ea	0.040045656
175	0x3e260a8a	0.16214958
176	0xbc91f93b	-0.017819038
177	0x3e22e61d	0.15908094
178	0x3d9f73c5	0.07785753
179	0xbd27f87c	-0.041008458
180	0x3dc1f197	0.09469908
181	0x3e216f99	0.15765227
182	0xbca550b1	-0.020180078
183	0x3d8f5204	0.06998065
184	0x3e268a36	0.16263661
185	0xbdfc7d0a	-0.12328537
186	0x3d80dd86	0.06292252
187	0x3e251729	0.16122116
188	0x3da52601	0.08063889
189	0x3e2803bc	0.16407675
190	0x3d8d0a61	0.06886745
191	0x3dd6fccd	0.10497437
192	0x3e254c14	0.16142303
193	0x3e17c022	0.14819387
194	0x3e2ce5f6	0.16884598
195	0x3df8e5f2	0.121532336
196	0x3da448a4	0.080216676
197	0x3de985b1	0.11402453
198	0xbdac5e11	-0.08416379
199	0x3deacb52	0.114645615
200	0x3daa1ea0	0.083066225
201	0x3dc6f105	0.097139396
202	0x3e0b84ad	0.1362483
203	0xbd8f060e	-0.06983577
204	0xbbc49168	-0.005998779
205	0xbcf20f39	-0.029548274
206	0xbdf8ec69	-0.12154467
207	0x3db74b6f	0.08949935
208	0x3e153af8	0.14573276
209	0x3dd5d215	0.104404606
210	0x3e01925c	0.12653488
211	0x3d3167d7	0.04331192
212	0x3dd711b0	0.105014205
213	0x3e26a318	0.16273153
214	0x3e09c414	0.13453704
215	0xbd10eb47	-0.035380628
216	0x3e1faafe	0.15592572
217	0x3d8699da	0.065723136
218	0xbd16f549	-0.036855016
219	0x3e08f59e	0.13374946
220	0x3d631b94	0.055446222
221	0x3da13348	0.07871109
222	0x3c339cb1	0.010962651
223	0x3d57d31e	0.05269157
224	0x3d861abf	0.0654807
225	0xbdb05059	-0.08609075
226	0x3e241b53	0.16026048
227	0xbd88af88	-0.06674105
228	0x3dd64283	0.10461905
229	0xbd52f8b3	-0.05150671
230	0xbcfe4c54	-0.031042255
231	0x3e2b0b92	0.16703632
232	0x3deca826	0.11555509
233	0xbd838bb2	-0.06423129
234	0x3e265479	0.16243161
235	0x3e1d4355	0.15357716
236	0xbcf41592	-0.029795442
237	0xbc88d2d2	-0.01670209
238	0x3d8098d7	0.06279152
239	0xbdbfcaf4	-0.09364882
240	0x3e0598b6	0.13046536
241	0x3e0e43c3	0.13893037
242	0x3e257b6b	0.16160361
243	0xbdf205af	-0.1181749
244	0x3caf1daa	0.02137645
245	0x3d9a393c	0.07530448
246	0xbd8fd502	-0.0702305
247	0x3e21f8e5	0.15817602
248	0x3ddc0ef9	0.10745043
249	0xbd72e59b	-0.059301
250	0x3dcdb42d	0.100441314
251	0x3d46bea6	0.04852166
252	0x3de5f3df	0.11228155
253	0x3d9397bf	0.07206678
254	0x3de4c38c	0.1117011
255	0xbbf0e05f	-0.007350966

layer4.weight f4 [128, 256]
0	0x3cc7e1ac	0.0243996
1	0x3d812a29	0.063068695
2	0xbd3b0d3d	-0.045666922
3	0xbd022529	-0.03177372
4	0xbd1f811e	-0.038941495
5	0xbcb23098	-0.021751687
6	0xbc148e02	-0.00906706
7	0x3cbde5b9	0.02318083
8	0x3d105232	0.035234638
9	0xba34ca66	-0.0006896615
10	0xbd4bf548	-0.049794465
11	0x3c91fc6d	0.017820561
12	0xbcfa73a3	-0.030572718
13	0x3cd7fa92	0.026364598
14	0x3d88d434	0.066810995
15	0xbc18cf21	-0.009326727
16	0xbb98e616	-0.0046661003
17	0xbd1b2d17	-0.037884798
18	0x3c9334e0	0.017969549
19	0xbb4d7c7a	-0.0031354711
20	0x3ce31b78	0.027723059
21	0xbd403284	-0.046923175
22	0x3c32bbb6	0.010909012
23	0xba3136f8	-0.0006760205
24	0x3dcf4f0a	0.101224974
25	0xbd244d11	-0.04011256
26	0x3d315e2d	0.043302704
27	0x3cbd67bf	0.023120759
28	0xbd788ac9	-0.06067923
29	0x3e44d7b5	0.1922291
30	0xbc97818f	-0.018494396
31	0xbcfe8e3c	-0.031073682
32	0x3ba77049	0.005109821
33	0xbb55ea1b	-0.0032640758
34	0xbd396bea	-0.04526893
35	0x3ceba285	0.028764019
36	0xbd3b20a2	-0.045685418
37	0x3d48361f	0.04887974
38	0x3bc66243	0.006054194
39	0x3d405746	0.04695823
40	0x3d71c231	0.059023086
41	0x3cbbd607	0.022929205
42	0xbd138f9d	-0.036025632
43	0xbccf2474	-0.025285937
44	0xbd067843	-0.032829534
45	0xbd2ccc59	-0.04218707
46	0xbcfc3895	-0.0307887
47	0x3cbcd41f	0.023050366
48	0xbc56e1c6	-0.013115352
49	0xbcf106be	-0.02942216
50	0xbb6b1560	-0.0035870895
51	0xbc7af5dd	-0.015317407
52	0x3cc36fff	0.023857115
53	0x3cb78ec0	0.022406936
54	0xbd6cd583	-0.05782081
55	0xbd5d0b40	-0.053965807
56	0x3cc88ea5	0.02448208
57	0xbc0a42c4	-0.00843877
58	0xbd133ef5	-0.035948712
59	0xbd095129	-0.033524666
60	0xbd091a41	-0.033472303
61	0x3b878477	0.004135664
62	0x3b8969e1	0.00419353
63	0x3dcef9d4	0.10106245
64	0x3e122460	0.14271688
65	0x3d3b0a02	0.04566384
66	0x3d6d1fbb	0.05789159
67	0xbc8c4ea4	-0.017127343
68	0x3d3faafa	0.046793915
69	0x3d50a30c	0.050936744
70	0x3d093500	0.03349781
71	0x3cd4c01c	0.025970511
72	0xbd8197fc	-0.06327817
73	0x3db3b0f1	0.08773983
74	0x3cf66e2e	0.030081835
75	0x3d712aa4	0.058878556
76	0x3cbaa6e8	0.022784665
77	0xbc90fd91	-0.017699035
78	0x3dbac4bb	0.091195546
79	0x3c9190b3	0.017769193
80	0x3da7ea06	0.08198933
81	0xbd468252	-0.048464127
82	0x3d12b482	0.035816677
83	0xbd2e09b9	-0.04248974
84	0xbcf2edb3	-0.02965436
85	0xbde47a45	-0.111561336
86	0x3d210f0b	0.039320987
87	0x3d750fb8	0.059829444
88	0xbcf15b51	-0.029462488
89	0xbbb2aaea	-0.0054525035
90	0x3d3b6725	0.045752663
91	0x3d355963	0.0442747
92	0x3d80701b	0.062713824
93	0xbcdc7e4d	-0.026915694
94	0xbb634d6e	-0.0034683603
95	0x3cad7675	0.021174649
96	0xbcd43d40	-0.025908113
97	0x3b9f0119	0.004852426
98	0x3d741db6	0.059598647
99	0xbd47b1c4	-0.048753515
100	0x3d5fb5ae	0.054616623
101	0x3d00d625	0.031454224
102	0x3d41b348	0.047290117
103	0x3d8a96fb	0.067670785
104	0xbbf22ad7	-0.007390361
105	0xbcf3209c	-0.029678635
106	0x3d389749	0.04506615
107	0x3afdf01b	0.0019373925
108	0x3d30eba3	0.04319347
109	0x3d30a0dd	0.04312216
110	0x3d6d50cb	0.05793838
111	0xbca31dd5	-0.019911686
112	0x3b8a5756	0.004221837
113	0x3c8cbd09	0.017179983
114	0x3cb21c8d	0.02174213
115	0x3d2828e9	0.04105464
116	0xbd334c94	-0.043774202
117	0xbce37a79	-0.02776836
118	0x3cad4209	0.021149652
119	0xbc96ebc0	-0.018422961
120	0xbcc2fadd	-0.023801262
121	0x3c9eba91	0.019376071
122	0x3d59cc24	0.0531732
123	0xbbba4e2f	-0.0056855897
124	0x3cde4cbf	0.027136205
125	0x3ca96735	0.020679096
126	0xbaf29490	-0.001850741
127	0xbe024c06	-0.12724313
128	0xbc53457b	-0.012894983
129	0x3cce30d6	0.025169771
130	0xbd4e5373	-0.050372552
131	0xbcb2aee2	-0.021811906
132	0x3c881487	0.01661135
133	0xbd06c195	-0.032899458
134	0x3c7532c7	0.01496572
135	0x3ceaba0c	0.028653167
136	0xbd12ed0a	-0.03587059
137	0xbd2af971	-0.041741792
138	0xbcff5886	-0.031170141
139	0x3dc881f8	0.097904146
140	0x3cfb16e2	0.03065056
141	0xbd656f68	-0.05601445
142	0x3d76f9c9	0.060296807
143	0xbd3fd124	-0.04683031
144	0xbd442ca5	-0.04789414
145	0x3dce19eb	0.10063537
146	0x3d028914	0.03186901
147	0xbc849a39	-0.01618682
148	0x3d6aaea2	0.05729545
149	0xbcfa698b	-0.030567905
150	0x3d34277f	0.04398298
151	0xbcf77072	-0.030204985
152	0x3bd599ee	0.006518594
153	0xbd1772b1	-0.036974613
154	0x3d09c302	0.03363324
155	0x3d4cc2c1	0.04999042
156	0xbc5d286f	-0.01349841
157	0x3bf3d092	0.007440635
158	0x3c867efe	0.016417976
159	0x3c872a7d	0.016499752
160	0xbce011e3	-0.027352279
161	0xbbb8a527	-0.005634922
162	0x39ed44a3	0.000452553
163	0x3db30a3a	0.08742185
164	0x3aacfb99	0.001319754
165	0x3c992359	0.018693613
166	0xbab1f3f2	-0.001357673
167	0x3c0251c4	0.007954065
168	0x3afb582e	0.001917606
169	0xbc4828d8	-0.012216769
170	0x3da81f93	0.08209147
171	0x3d10ec22	0.035381444
172	0xbd0ed717	-0.034873094
173	0xbcaf0469	-0.021364408
174	0xbcb574b4	-0.022150375
175	0x3d45b38e	0.04826694
176	0xbd72586b	-0.059166353
177	0x3c5a2ef9	0.013316863
178	0x3d928ef5	0.07156173
179	0x3db6905c	0.08914253
180	0xbc05775c	-0.008146133
181	0xbd608c2b	-0.054821175
182	0x3d310681	0.043219093
183	0x3b2d54d6	0.0026448271
184	0x3d0dd9c7	0.034631517
185	0xbc95a8c0	-0.018268943
186	0x3c306185	0.010765438
187	0xbd55b6b3	-0.05217619
188	0x3d45e454	0.048313454
189	0xbc7043c0	-0.01466459
190	0xbc531fb4	-0.012885977
191	0x3d12aa94	0.035807207
192	0x3d05cb75	0.032664735
193	0x3c91b64b	0.01778712
194	0xbcce45a8	-0.025179699
195	0x3d05deaf	0.03268307
196	0x3d1c0df6	0.03809925
197	0x3d3274c5	0.04356839
198	0xbc837ff4	-0.016052224
199	0xbbaaaf0e	-0.0052088564
200	0x3ce28ced	0.02765509
201	0x3c4b5141	0.012409509
202	0xbd0c60db	-0.034272056
203	0x3dd6c437	0.10486644
204	0x3b1e9141	0.0024195465
205	0x3c61b742	0.013776602
206	0xbd667181	-0.05626059
207	0x3ce93e8e	0.028472211
208	0xbcf39fa1	-0.029739203
209	0x390a27d6	0.00013175546
210	0xbcad84dc	-0.021181516
211	0xbccbb4f8	-0.024866566
212	0x3d2221b8	0.039582938
213	0xbd3cc939	-0.04609034
214	0xbd6873bd	-0.056751
215	0xbd6f8595	-0.058477003
216	0x3d63180a	0.055442847
217	0x3d3e638d	0.046481658
218	0x3d39dda9	0.045377407
219	0x3d7fcec2	0.06245304
220	0xbc7974b3	-0.015225577
221	0x3d02d304	0.03193952
222	0x3cef4795	0.029208938
223	0xbd5b9fdf	-0.05361926
224	0xbc5261ea	-0.012840727
225	0x3d670bed	0.056407858
226	0x3d5cb19e	0.053880326
227	0x3c7f449b	0.015580322
228	0xbd3bfb57	-0.045893993
229	0x3d9b02c2	0.075688854
230	0x3d3dc448	0.046329767
231	0xbd8ce43f	-0.06879472
232	0x3c7ca34f	0.015419795
233	0x3dab70fc	0.083711594
234	0xbd1f69c0	-0.03891921
235	0xbd135b3c	-0.03597568
236	0x3a6be45d	0.00089985674
237	0x3af6fc10	0.0018843431
238	0x3d832f47	0.06405502
239	0x3dd7f4c4	0.10544732
240	0xbb874e83	-0.0041292324
241	0x3d242992	0.040078707
242	0x3c4459ca	0.011984298
243	0x3c04c875	0.008104433
244	0xbd61ba36	-0.055109225
245	0x3cb24cce	0.021765139
246	0xbcbdb8e8	-0.02315946
247	0x3b6ce7e4	0.003614896
248	0x3d0d9065	0.034561533
249	0x3d8158bd	0.063157536
250	0xbc2feedb	-0.0107381
251	0xbd02995c	-0.031884536
252	0xbd4dbf6b	-0.05023138
253	0xbd42c55e	-0.047551505
254	0xbd7c76a5	-0.061636586
255	0x3c28e7c2	0.010309162

layer4.bias f4 [128]
0	0xbc81a0d0	-0.015823752
1	0x3d5c82c9	0.053835664
2	0x3d3c62cd	0.04599266
3	0xbd1ea5dd	-0.0387324
4	0x3daa23ea	0.08307631
5	0xbc86eca9	-0.01647027
6	0xbd1acfee	-0.037795953
7	0xbd8a45dd	-0.067516066
8	0x3e0d79d8	0.13816011
9	0x3dfcbf78	0.12341207
10	0x3c90e440	0.017686963
11	0x3dabf392	0.08396067
12	0xbdd7f1a5	-0.10544137
13	0xbd86b5e4	-0.06577662
14	0x3db9369d	0.0904362
15	0xbd57897d	-0.052621353
16	0xbba98bbe	-0.0051741293
17	0xbc2a990d	-0.010412467
18	0x3dfd846c	0.12378773
19	0x3c08b36c	0.008343559
20	0xbce37a3c	-0.027768247
21	0xbd1b7698	-0.037954897
22	0x3d5ab352	0.05339367
23	0x3dc625c7	0.09675174
24	0x3d8a1b6c	0.067435116
25	0xbd556e79	-0.052107308
26	0x3c72947a	0.014805907
27	0x3e0effaf	0.13964723
28	0x3bf6415a	0.0075151147
29	0xbe021485	-0.1270314
30	0xbdb5153a	-0.08841939
31	0x3d765976	0.06014391
32	0x3c4e9f91	0.012611286
33	0xbae84b4e	-0.0017722638
34	0xbd306750	-0.043067276
35	0xbd254f67	-0.040358927
36	0xbd6e73bd	-0.058215845
37	0x3dfabd95	0.12243191
38	0xbd44ff53	-0.04809506
39	0x3bba4590	0.005684562
40	0x3b51c080	0.0032005608
41	0x3d671707	0.056418445
42	0x3e03dac5	0.12876423
43	0x3df97fea	0.12182601
44	0xbc53ec7b	-0.012934799
45	0xbd8e7c2e	-0.06957279
46	0xbdef22b6	-0.116765425
47	0xbdcb1ad8	-0.099172294
48	0xbd82bfa1	-0.063842066
49	0xbcd4d2f5	-0.025979498
50	0xbc149e1a	-0.0090708975
51	0xbcaea97d	-0.021321053
52	0xbd6c8101	-0.057740215
53	0xbcb6796c	-0.022274695
54	0xbd3febc4	-0.046855703
55	0x3b3a5df3	0.0028437346
56	0xbe0dfbd0	-0.1386559
57	0x3d8f91dc	0.07010242
58	0x3d6d16bf	0.05788302
59	0x3e24dbac	0.16099423
60	0xbd626db0	-0.055280387
61	0xbd273970	-0.04082626
62	0x3dc67cd1	0.096917756
63	0xbccd0663	-0.02502746
64	0x3ddaa01a	0.10675068
65	0x3df580da	0.11987467
66	0x3e2102b2	0.15723684
67	0x3e13cca1	0.14433528
68	0x3dcf90a7	0.10135012
69	0x3e1a0a7c	0.15043062
70	0xbd088b5e	-0.033336036
71	0xbd399069	-0.045303736
72	0x39be8918	0.00036341767
73	0x3d9602ef	0.07324778
74	0xbd52ef1e	-0.05149757
75	0xbd80fb44	-0.06297925
76	0xbd424355	-0.047427494
77	0x3d8e555d	0.069498755
78	0xbe081cd1	-0.13292243
79	0x3d9ffd05	0.078119315
80	0x3d974e24	0.07387951
81	0x3e23a00a	0.15979019
82	0x3d6f2f85	0.058394928
83	0x3d0c91cc	0.03431873
84	0x3d57756a	0.05260221
85	0xbd20cc34	-0.039257243
86	0x3d6bbef5	0.057555158
87	0xbd118f2b	-0.035536926
88	0xbd373cf8	-0.04473588
89	0x3e25f671	0.16207291
90	0x3c4d26f5	0.012521495
91	0xbcbe1f50	-0.02320829
92	0xbce80209	-0.028321283
93	0x3e005253	0.12531404
94	0x3e21997f	0.1578121
95	0xbd1a4a90	-0.037668765
96	0x3d94c32d	0.07263789
97	0xbc9ee1aa	-0.019394714
98	0xbdf4d012	-0.11953749
99	0xbc348d0d	-0.011019957
100	0x3e19d774	0.15023595
101	0x3e1c2258	0.15247476
102	0x3d84f722	0.06492449
103	0xbd31bea5	-0.043394703
104	0x3dec4ef0	0.11538494
105	0x3cc65ecc	0.024215125
106	0x3e149123	0.1450849
107	0x3e120d4d	0.14262886
108	0x3d82dad7	0.06389397
109	0xbc39ffca	-0.011352489
110	0x3d8da02c	0.06915316
111	0xbb4586e0	-0.0030140206
112	0x3a29fd7c	0.00064846105
113	0x3baa0364	0.0051883925
114	0xbd2d121c	-0.0422536
115	0xbd455760	-0.04817903
116	0xbba38065	-0.004989671
117	0x3da45d3b	0.08025595
118	0xbc2f68bf	-0.010706126
119	0x3c816042	0.01579297
120	0x3d7ac2f4	0.061221078
121	0x3e079c70	0.1324327
122	0x3de46a7f	0.11153125
123	0x3e18a16c	0.14905328
124	0x3e0dc037	0.13842855
125	0x3df0db4c	0.117605776
126	0xbc3647f9	-0.011125558
127	0x3db00abc	0.085957974
