PPO/ppo_critic.pth (torch, 26799 bytes, 5 tensors)

layer1.weight f4 [64, 29]
00000000: fe99 63bd 2043 dfbd 28fc 1c3d ed25 eabd
00000010: dbc7 e6bd abba 053e f73e db3c e317 a9bc
00000020: 59bf 923e 0938 18be 2f16 42be 7e22 ccbd
00000030: d080 81bb e1c5 283d fb2b a63e 8728 51be
00000040: 17cd 74be 9a78 45be bc3d db3c 811a edbd
00000050: ead0 f1bd 5e39 45be 2a71 39be 7571 09be
00000060: 25a5 57be a4c3 27be b094 1ebe da2e cf3d
00000070: 637a 5fbe 9abb 4dbe efe8 d53d 96d0 443e
00000080: 2127 36bc 112b 8dbb 3425 243d 0d3e 2e3e
00000090: 5a34 82bc dde6 973e ae74 453e 61f8 80be
000000a0: c5e4 19be ef3d 45be 118a d43b da4b 813e
000000b0: 6f50 79be 17da 393e 18cd 59be 57f6 41be
000000c0: 1689 5a3c 06e0 683d 79cc 313e fc24 37be
000000d0: 8162 69be 28d4 4ebe 3c29 72bd 7904 1abe
000000e0: f332 2dbe 3f0d 213d ed17 183e 47dd 893d
000000f0: 9aa7 733e 97d1 123e 38ff 393e 51f2 b1bd
00000100: 24c9 71bd 1a40 dcbd 06a1 433e ce93 73be
00000110: c10a 27bd 36e1 4dbe c4f8 933c c947 7dbe
00000120: dc2c e73d a2d7 96be e24a 81bc f6a0 33be
00000130: 5631 02be aeb0 1a3e 3c50 f83d 201e d4bd
00000140: 6100 383e 8412 313e 4b05 9b3e 93d3 093e
00000150: ec2a e5bd b81d bcbd 694a 213e bffe 293e
00000160: 7296 c3bd 9910 153d c231 683d 9a7a 833d
00000170: af6b 05be 0c83 8e3d b89e c7bd c7e4 763d
00000180: bd7f 6c3e 9608 c6bd 664d 2cbe bcae 51be
00000190: 2133 21be 6c39 393e 59a8 efbd 6b6e 2dbd
000001a0: 6d1f b0bc 0d38 10bc f3b7 0fbe b6d8 0c3e
000001b0: df9b a2bd e252 143e fa02 3ebe 0956 1f3c
000001c0: f393 dcbd 4aba c03b 3027 a1bd b5ff 563d
000001d0: 6b75 0dbe aba0 b83d 6d83 db3d 5fe2 533e
000001e0: 7e39 763e ec04 84bd 421f 81bd df3c 69bd
000001f0: 76c6 883b e889 b13c d86b 94be 4cc9 46be
00000200: 5955 a43c 53d7 bcbd e118 683e 432a babe
00000210: db8f 2a3e 7681 95be 6e9a 6f3b 788d 443e
00000220: 4a8b 143e 3b65 c1bd 7dc6 49be a139 68be
00000230: 1b94 bcbd f9ee 243e effe 67be 799d 2a3e
00000240: b3f0 18be cdb9 51be 0295 39bd bb61 753e
00000250: b51b 033c 50c3 d7bd 8f97 62be 2f1f ebbd
00000260: 1bc1 ec3d 474d 893e 6070 70be f151 82bd
00000270: 7fba 0dbc 886c 9fbd 6fa2 d93d 986c f83d
00000280: 2441 cabe 5778 ef3d 082f d1be 5554 99bd
00000290: f00a 70be 8673 f03d 0b75 0cbe aeb7 e43d
000002a0: 07b2 ecbc bb3e 8fbd 66c8 a8bd a4be 1fbd
000002b0: 591d 093e a4e0 623e 667e bbbd 931f 20be
000002c0: 9f0d 423e 1a6f 1c3e 58e6 46bd f977 893a
000002d0: ef0f ab3d fbc4 7ebd ae3a 953e cd49 923d
000002e0: 4068 14be 204a 1fbe 3e5a bdbd 3fa2 3abd
000002f0: 721f 03bd b441 9fbe 0d36 2d3e 6784 bfbd
00000300: e4cb cc3c 5190 69bd 6faf 673e e330 78be
00000310: efed 8c3d 85cc 34be 57d2 8b3e 0c30 15bd
00000320: 497f 34be 7426 64be b9a8 9e3d dc62 013c
00000330: 04de eabd 776e 8f3e 1047 773e c5f4 10bd
00000340: afcf 81bd 6769 ed3d a299 e83b 5bca 263e
00000350: b254 543c da52 d8bc 92c6 88be 9169 75be
00000360: a40a 073e 3998 263e edda febd 4657 6a39
00000370: 5822 8abd a147 3dbe d1c7 dfbd 440d cb3d
00000380: f2fb bbbd 9436 373e 398a 11be 9647 20be
00000390: 44c9 723e dda7 1abe 183a fabd e18e 583e
000003a0: 9efe 8a3d c42f 043d f2bb 8b3e 2393 dabd
000003b0: e811 31be 0920 923d 5c28 343e d482 3e3d
000003c0: 6e13 603e a583 6cbe 08d4 59be 2079 2bbe
000003d0: 955f 8a3c 9fbd 4ebe 6d09 ac3e a320 d3be
000003e0: 300f 413e 6e6c 17be c2c0 273e 9a8b d93d
000003f0: a365 063e 0f89 48be 5afd 353e 3c48 523e
-0.05556678 -0.10901475 0.038326412 -0.11433015 -0.11268588 0.1305949 0.026763422 -0.020641273
0.28661612 -0.14865126 -0.18953775 -0.09967516 -0.003952123 0.041204337 0.3245543 -0.20425616
-0.2390636 -0.19284287 0.026762836 -0.11577321 -0.11807425 -0.19260165 -0.18109575 -0.13422187
-0.21059091 -0.16383225 -0.15486407 0.10116358 -0.2182403 -0.20091096 0.10444819 0.19220194
-0.0111177275 -0.0043081124 0.040074542 0.17015858 -0.015894104 0.29668322 0.19282791 -0.25189498
-0.15028675 -0.19261907 0.0064861854 0.25253183 -0.24347089 0.18149601 -0.21269643 -0.18941627
0.013338348 0.05685427 0.17363156 -0.17885202 -0.22791483 -0.20198119 -0.059121355 -0.15040769
-0.16913967 0.039319273 0.14852877 0.067316584 0.23794404 0.14337765 0.18163764 -0.08688796
-0.059029713 -0.10754414 0.19104394 -0.23786852 -0.04078174 -0.20105442 0.018062957 -0.24734415
0.11287853 -0.2946139 -0.015782777 -0.1754187 -0.12714133 0.1510646 0.121246785 -0.103573084
0.17968895 0.1729222 0.30277476 0.13459615 -0.11189827 -0.09185356 0.15751041 0.16601084
-0.095501795 0.036392782 0.056688078 0.06419869 -0.1302936 0.06958589 -0.0974707 0.060276773
0.23095603 -0.096696064 -0.168264 -0.20476812 -0.1574216 0.18088311 -0.11702032 -0.04234163
-0.02149936 -0.008802426 -0.14035015 0.13754544 -0.07939886 0.14484742 -0.18555823 0.009725102
-0.107704066 0.0058815824 -0.078688025 0.052489955 -0.13814323 0.0901502 0.10718427 0.20691822
0.24045369 -0.06446251 -0.0630479 -0.056942817 0.004174049 0.021672204 -0.28988528 -0.19412726
0.020060228 -0.09220757 0.2266574 -0.36360368 0.16656439 -0.29200333 0.0036560553 0.19194591
0.1450626 -0.09443136 -0.19704624 -0.22678234 -0.092079364 0.16106786 -0.22655843 0.16661634
-0.1493557 -0.20481034 -0.04530812 0.23963062 0.008002211 -0.105353 -0.22128128 -0.11480557
0.115602694 0.2681677 -0.23480368 -0.06363285 -0.008650421 -0.077843726 0.10626685 0.121300876
-0.39502823 0.11692875 -0.40856194 -0.07486788 -0.23441672 0.11740784 -0.13716523 0.111678466
-0.028893484 -0.06994387 -0.08241348 -0.03900017 0.13390101 0.22156006 -0.09154968 -0.15637045
0.18950509 0.15276757 -0.048559517 0.0010488025 0.083526485 -0.062199574 0.29146332 0.07142983
-0.14492893 -0.1555562 -0.09245728 -0.045564886 -0.03201241 -0.31104815 0.1691515 -0.093514256
0.024999566 -0.057022396 0.22625516 -0.24237399 0.0688132 -0.17656143 0.27308914 -0.036422774
-0.1762668 -0.22280294 0.07747025 0.007897105 -0.11468127 0.28013965 0.24148202 -0.03538968
-0.063384406 0.115923695 0.0070983926 0.1628813 0.012959646 -0.026406694 -0.26713997 -0.23966052
0.13187653 0.16269006 -0.124441005 0.00022348491 -0.06744832 -0.18484356 -0.10926784 0.099146396
-0.09178914 0.17891914 -0.14212884 -0.15652308 0.23709589 -0.15103097 -0.12218112 0.21148254
0.067868456 0.032272115 0.27291828 -0.10672595 -0.17291987 0.071350165 0.17593521 0.046511486
0.21882412 -0.23097093 -0.2127229 -0.16745424 0.01689128 -0.20189522 0.3360094 -0.41235837
0.1885345 -0.14787456 0.16382125 0.1062233 0.13124709 -0.19583534 0.17772427 0.20535368

layer1.bias f4 [64]
00000000: e11f 823a f776 8b3e 626f 8aba 03eb b13e
00000010: 96a9 933e f7f4 833e ec4e 443c c284 c83d
00000020: 2d3c 523e 5ffd 203e 68ec 373e c6a4 5c3e
00000030: 07d4 273e 6fec 1c3e bf62 b43e 024e 4b3d
00000040: ab6d 523d efcf 143e 5a8d bd3e e947 31bd
00000050: b2e5 873e 1a9b 0d3d 6719 67bb c486 6c3e
00000060: 4a90 1f3e d5b7 543c d5f6 1b3e 1597 843e
00000070: c42e a53d ab0b 6f3d 8515 323e c688 a53e
00000080: 5856 903e f330 843e 5571 753e 0bda c13c
00000090: 2050 cc3d c0a3 ff3c f7c8 8d3d cab2 0c3e
000000a0: d15f 4c3d d08a 24bc abd6 243d d3d6 b13e
000000b0: 3cfe d53d f12a 993e a2ed 913e bcb5 823e
000000c0: 360e af3e 3f01 0f3e 71cb a33d 9e02 e63d
000000d0: ad36 aa3d 4e89 2a3e e116 423e a736 6b3e
000000e0: 78d8 863e 5c62 79bc 89c0 ac3e 5fd7 573e
000000f0: 312d 603e 8b84 903e 0b70 983e a25f 8f3e
0.0009927714 0.272392 -0.0010561759 0.34749612 0.2884032 0.2577283 0.011981707 0.097909465
0.20530768 0.15721653 0.17961276 0.21547231 0.16389476 0.15324567 0.35231587 0.04963494
0.05137412 0.14532445 0.37021905 -0.04328147 0.2654243 0.034571745 -0.0035262944 0.23098284
0.15582386 0.012983282 0.15230878 0.25896516 0.080655605 0.058360737 0.17391022 0.32330912
0.28190875 0.25818595 0.23969014 0.023663541 0.0997622 0.031206012 0.069230966 0.13740078
0.049896065 -0.010042861 0.040243786 0.3473421 0.10448882 0.29915574 0.28501612 0.25529277
0.3419053 0.13965319 0.07997788 0.11230968 0.0831121 0.1665394 0.1895404 0.22970067
0.26337028 -0.015221205 0.33740643 0.21078251 0.21892239 0.28226122 0.29772982 0.2800265

layer2.weight f4 [64, 64]
00000000: e34b 163d 237b 8b3d c516 2f3c db22 24be
00000010: e084 e93a 3f16 7e3d 8d0b a1bd 7603 cf3c
00000020: a383 a8bd 8ea5 f63d 2c4a f2bd e341 a2bc
00000030: ae0f 643c c9ae ccbd 5799 973d 0634 bb3a
00000040: 7bfa 80bd bf3d 2b3d cf36 893d f22d 17bc
00000050: 41de 03be aa93 0ebd fc51 0e3d a430 cbbd
00000060: c0c0 3fbc b232 a53d e2af 3bbd 9d11 62bd
00000070: a7fa cbbd 4129 07be f6af 92bb b04e fbbc
00000080: 61ae 69bd fa28 55bd 5d20 983d 577e 20bd
00000090: ec27 cebd 242a b8bd 875b c9bc 99b2 ec3d
000000a0: 3a36 89bd dffd a7bd 83cc 3ebc 2d2d f9bd
000000b0: bdb2 fa3c c8aa 11be bfde b13c 84fa c9bd
000000c0: 91f8 3c3d 3ab5 e53d ad7f cebc 7e7b 0dbe
000000d0: a5c8 d83d 641e e3bd ef63 78bd 1f91 73bd
000000e0: 8cd2 b0bd c527 023e ffef 9e3d 9468 0fbd
000000f0: a8e2 bc3d cf03 15bd e09f 0abd 0646 bdbc
00000100: f73c 533e 0a52 783c 5645 343d c6d5 553e
00000110: 8e01 143e 7850 eb3d 2372 413e 4213 07bd
00000120: 17f7 333e e7fa 663d bced dcbc 85cc 323e
00000130: e35b debc a4e3 c53d ff49 a43d 7ec8 153d
00000140: d742 713d 6416 3f3e d8eb f83b a209 f43d
00000150: cb50 623d 69e0 223d 8d88 2f3b 3feb a63d
00000160: f099 3b3e b540 2b3e 4c2d 153e f216 da3d
00000170: cb35 4c3e cd8c f83d 8cbf 033e c39e 3d3e
00000180: 93b6 1a3e d081 3b3c 46cf 07bc 4aa5 4e3e
00000190: 0b2f 5b3d d77e 89bc d803 213d 3897 92bc
000001a0: 910f 083e c299 853d 676b 923c de33 d53d
000001b0: 0521 263e 6f2e 2c3e be16 613e 7bef 573e
000001c0: 11c7 133e 008d a93d 007d 353d 7283 8e3d
000001d0: d290 433e e8e3 823d 64a3 aa3d 4cf8 4e3e
000001e0: ad80 933d 548a b33d 1758 5d3e 1b6f fc3d
000001f0: 4759 283d 5f02 3d3d 5c01 bbbc 0efd 693c
00000200: d098 f83b f1b3 323e 5027 243d 6676 c43d
00000210: 5c06 443e 0f02 a73d 7596 b13c e80f a53d
00000220: cc10 803d 33cf 0a3e 8033 353d 2a1a 033c
00000230: 302c 41bc d036 9c3d 7657 f93d 6eaa 243e
00000240: e92f d13d b0df 493d 00fc 0e3e 4926 3d3e
00000250: 8764 8e3d 7125 1d3e 7fc8 d43d 586b 563d
00000260: afdd 1d3e 4be8 ed3d af9c 4b3e eaed 4d3e
00000270: 728b e43d bc47 c1bb 286f 1b3d e81c 133e
00000280: cd9d 2a3e ffac 893d 4482 853d 9869 e93d
00000290: 5240 0c3e 340f 403e 74cb b93d 050f 11bd
000002a0: 2f5b 2a3d 4d49 253e 6ee6 c53d 05c2 14bc
000002b0: a53c c03d bfec 653e c2a6 e13d b79b 853d
000002c0: a52b da3d aae5 323e b91d aa3b 9b12 f13d
000002d0: 084c 2a3e 93f4 9e3d abfb 053e 5479 903d
000002e0: 8b46 f63c ebbc de3d d96b e43b 7074 373e
000002f0: eba0 583c a15b 1d3e 454f 463e 6cce 643c
00000300: db4d 663d e7a3 e8bd 3d4e 01bd 41ae 5ebd
00000310: 3aa6 90bc 5ea4 d3bc 0627 aa3c 67a4 b2bd
00000320: 7410 b9bc 69f0 a13c cb20 b83d d598 e4bd
00000330: 1212 c5bd 5a76 c5bd 2356 f0bd d56b debd
00000340: cc14 cbbd d48d ef3c e72d 773c c379 b23d
00000350: 5afc 833d 7c9e 91bd 3a11 17bc 6e2a 1f3d
00000360: 4d87 aebd e6c1 103c 6569 13bd f587 eabd
00000370: ccfe 073d 9cce 81bd d32e e5bd 6b8a e1b8
00000380: 3376 cfbc b222 75bd d5eb acbd 6f50 69bd
00000390: 4d1a 463d 3821 d03d d199 debd 968d 9a3d
000003a0: 2187 82bd 5584 29bc 304d 02be 141f 94bd
000003b0: 291f 85bd 84e1 aabd f780 543d 480b f2bd
000003c0: 87dd 80bc 2eb9 14bb cde6 993d 1598 c0bd
000003d0: b143 933d a864 11bd 4f5e 82bd 885a c3bc
000003e0: 30ae 8fba 9e5e e0bd 1373 07be 0ef3 463d
000003f0: 7b7a 973d 4be6 263d 4f0f dabd ec8e 01bd
0.036693465 0.06810596 0.010686581 -0.16028921 0.0017816089 0.062032934 -0.07863531 0.025270205
-0.08228233 0.12043296 -0.118305534 -0.019806808 0.013919754 -0.09994275 0.07402294 0.0014282472
-0.06297775 0.041806933 0.06699907 -0.009227263 -0.12877752 -0.034808792 0.034746155 -0.09921387
-0.01170367 0.0806631 -0.04582203 -0.05519258 -0.099599175 -0.13199331 -0.0044765426 -0.03067717
-0.057051066 -0.05204103 0.07428048 -0.039182987 -0.10066208 -0.08992413 -0.024579776 0.11557502
-0.06699796 -0.08202719 -0.011645439 -0.1216682 0.030602807 -0.14225304 0.021712659 -0.09862235
0.04613549 0.11216207 -0.025207365 -0.1381664 0.10585145 -0.11089781 -0.06064218 -0.05946457
-0.08633909 0.12710483 0.07760619 -0.035011843 0.09222919 -0.036380585 -0.033843875 -0.023104679
0.20628725 0.015156278 0.044011436 0.2088233 0.14453718 0.114899576 0.18891196 -0.03297735
0.17574726 0.056391623 -0.02696883 0.1746083 -0.027143424 0.0966256 0.08021926 0.036568157
0.058901634 0.18660885 0.007596474 0.119159 0.05525283 0.039764795 0.0026784271 0.081503384
0.18320441 0.16723903 0.1456806 0.10648908 0.19942395 0.121362306 0.12866038 0.18517594
0.15108709 0.011444524 -0.008289164 0.2018024 0.05351166 -0.016784115 0.039310306 -0.017894372
0.13287188 0.065234676 0.017873479 0.104102835 0.16223533 0.16814588 0.21981332 0.21087448
0.14431407 0.08278847 0.044308662 0.06958665 0.19098213 0.06391126 0.083319455 0.20211905
0.07202277 0.08766618 0.21615635 0.12325879 0.041100767 0.04614484 -0.022827797 0.014281524
0.007586576 0.17451455 0.040076554 0.09592895 0.19143051 0.081546895 0.021678189 0.080596745
0.06253204 0.13555603 0.044238567 0.0080018435 -0.01179032 0.07627642 0.12174885 0.16080639
0.10214216 0.04928559 0.13963318 0.18471636 0.06952768 0.15346314 0.10389804 0.052348465
0.15416597 0.11616572 0.19883989 0.20110288 0.111594096 -0.005898444 0.037947804 0.14366496
0.16661759 0.067224495 0.06518987 0.113970935 0.13696411 0.187558 0.09072009 -0.035414714
0.041590866 0.16141243 0.096630916 -0.009079461 0.09386567 0.22453593 0.11018135 0.06523841
0.10652856 0.17470422 0.0051915315 0.11771127 0.16630566 0.077614926 0.13084285 0.070543915
0.030062934 0.10875877 0.0069708643 0.17915511 0.01322196 0.15366985 0.19366176 0.01396523
0.056226593 -0.11359387 -0.031568754 -0.0543654 -0.017657388 -0.025835212 0.020770561 -0.087227635
-0.022590853 0.019767957 0.0899063 -0.11161963 -0.09622587 -0.096417144 -0.11735179 -0.10860411
-0.09916076 0.029242434 0.015086628 0.087146305 0.064446166 -0.071103066 -0.009220416 0.038858823
-0.085219 0.0088352915 -0.035989184 -0.11451713 0.033201978 -0.06338236 -0.11190572 -0.000107546184
-0.025324916 -0.05984754 -0.08443419 -0.056961473 0.048364926 0.10162586 -0.10869182 0.075465366
-0.0637343 -0.010346492 -0.12724757 -0.0723249 -0.06500084 -0.08343795 0.051880803 -0.11818558
-0.015730632 -0.0022693384 0.07514725 -0.09404007 0.071906455 -0.035496384 -0.06365644 -0.02384688
-0.0010961946 -0.10955547 -0.13227491 0.04857164 0.07396408 0.04074697 -0.10647451 -0.03163044

layer2.bias f4 [64]
00000000: 2a80 833d 1fc8 253e fa7b 953c e50a f6bd
00000010: b2f4 153e f024 8cbc 198b 2b3e 2f6e 903d
00000020: 45f0 8e3c c9eb 513e e11e af3d 4141 5a3e
00000030: 991c b13d 6f9c 513d 67ab d73d 5ada 92bd
00000040: 7172 ffbd ecc8 813e c87e 413e 65b9 423e
00000050: c1b5 6c3d 9c30 013e 0518 783e c770 e53c
00000060: 865a 12be d677 673e 0935 aa3c fcb8 b53d
00000070: 5b58 523e d68a aabd 2342 d13d 465f 433c
00000080: 6dc6 063e 680a 8b3d 0660 92bd 50ad 4f3e
00000090: a0fb 273d 66b5 febd eb11 943d 0b1e f7bb
000000a0: 21ad 503e c45b da3d 839c d4bd c66e e23d
000000b0: 494e 233e f913 d33d 9e75 053e fab0 90bc
000000c0: e9b2 473e ad44 3c3e 1888 d73d 10b0 693e
000000d0: 7772 9f3d f3d6 5d3d 156e 713e 763a d33c
000000e0: 27f5 893d ae75 4a3c f0d6 593e 2e00 923d
000000f0: 555c 393c 133f 69bd cda9 10be b1f5 9dbd
0.0642093 0.16189621 0.018247593 -0.12013797 0.14644125 -0.017107457 0.1675228 0.07052266
0.017448554 0.20500101 0.085508116 0.21313955 0.08648033 0.051174577 0.10530739 -0.071705535
-0.12473 0.25348604 0.1889602 0.19016035 0.05779052 0.126162 0.24227913 0.028007878
-0.14292344 0.22604308 0.020777242 0.088731736 0.20541517 -0.08327262 0.10217693 0.01192457
0.13161631 0.06789094 -0.07147221 0.20280957 0.041011453 -0.12436943 0.0722998 -0.007541423
0.20378543 0.10662034 -0.10381415 0.110562846 0.15947832 0.10306544 0.13033149 -0.017662514
0.19501843 0.18385573 0.10524005 0.22821069 0.07785504 0.05416007 0.23577149 0.025784712
0.06736212 0.012357159 0.21273398 0.071289405 0.011313518 -0.056944918 -0.14127274 -0.077128775

layer3.weight f4 [1, 64]
00000000: d5dd ca3d bed2 19be 13b8 27be 9383 cc3d
00000010: 8dee 0ebe 1b45 433d 9517 0bbe 6b94 25be
00000020: 73ea e13d 2f08 c2bd 43b9 b03d aeae f9bd
00000030: d9f7 683d c214 4c3d e655 103e 214e c63d
00000040: a68f 0d3e c997 bebd 4b65 58be f91b eabd
00000050: 87bb f73d 283e 5fbe 621b ebbd 2794 fe3d
00000060: 4212 0c3e 8b63 10be eeb9 4abe 9507 2fbe
00000070: 2471 41be e578 b33d 71b4 41be 4e17 1bbe
00000080: 71ef 46be 89f8 993d 92cb 063e 3812 47be
00000090: 07d6 9c3c 136a e73d 796d 9d3d 30b1 9b3d
000000a0: 0078 10be 15e9 0abe 6055 193e 2787 58be
000000b0: e856 00be f0e9 0bbe 5f42 1ebe ad11 ed3d
000000c0: 756f 34be 6b17 62be b3c4 18be 3879 00be
000000d0: f9c1 103e 156c 2a3d e7e8 acbd 4a01 3cbe
000000e0: faa2 213d 8896 19be 1a83 47be 55d1 b23d
000000f0: 8ec0 8b3d 9573 903d 5137 973d a880 a23c
0.09905592 -0.15021798 -0.16378812 0.09986033 -0.13958187 0.047673326 -0.13583215 -0.16169898
0.11031046 -0.09474217 0.08629086 -0.12191521 0.05687699 0.049824484 0.14095268 0.09682871
0.13824329 -0.093062945 -0.2113239 -0.114311166 0.12096315 -0.21801054 -0.11479832 0.124306016
0.1367884 -0.14100473 -0.19797489 -0.17092736 -0.18890816 0.08763293 -0.18916489 -0.15145609
-0.19427277 0.075181074 0.13163593 -0.19440544 0.019145025 0.11299529 0.07686896 0.07602155
-0.14108276 -0.13565476 0.14973974 -0.21145307 -0.12533152 -0.13663459 -0.15455006 0.11575637
-0.17620642 -0.22079246 -0.14918785 -0.12546241 0.14136495 0.04160698 -0.0844286 -0.18359867
0.039462067 -0.1499883 -0.19483605 0.08731333 0.06823836 0.070532955 0.07383598 0.019836739
