PPO/ppo_critic.pth (torch, 546027 bytes, 9 tensors)

layer1.weight f4 [128, 29]
000000 5d 55 c5 bc e2 22 10 3d 9a 6e 3c 3e 66 46 2f 3e
       -0.024088556 0.035189517 0.18401566 0.17116699
000010 a3 7c 38 3e ac 28 dc be 66 7e 03 be f7 d3 4b 3d
       0.18016295 -0.4299978 -0.12841186 0.049762692
000020 45 a8 94 bd 47 34 8c bc 33 19 39 bd 9b 1f 29 3e
       -0.07258657 -0.017114772 -0.045190047 0.16515963
000030 e2 e1 a9 3d 55 25 ad 3d f3 bc 10 be db 2b 59 3e
       0.08295037 0.08454386 -0.14134578 0.21208136
000040 26 b8 4a bd 71 4d 9b bd d7 91 ba 3e a7 1c 89 be
       -0.049492024 -0.0758313 0.36439392 -0.26779673
000050 8a 0e c1 bd a7 2f 48 bc 6d 5e 80 bd f4 23 e3 bb
       -0.09426601 -0.012218392 -0.0626801 -0.006931776
000060 19 62 d4 bc b9 23 2e bb b8 6d 60 bd 7e 77 8b 3c
       -0.025925683 -0.0026571585 -0.054792136 0.017024752
000070 e3 22 93 bc 2e 62 a4 bd 70 61 1e 3d 79 a2 4f 3d
       -0.017960971 -0.08026539 0.038667142 0.050692055
000080 eb 9c 8f 3e 13 04 37 3d 31 79 b5 3c f4 26 fa 3d
       0.28049406 0.04468162 0.022152515 0.12214461
000090 d5 98 9d 3e ea e1 fc 3d 83 f5 46 3e 9f 6d 38 3e
       0.30780664 0.12347777 0.19429593 0.18010567
0000a0 1b 2c 6a be 2a 79 35 be c6 99 35 be 6a 4c 38 be
       -0.22868387 -0.17722002 -0.17734441 -0.179979
0000b0 24 c0 65 be 51 2c 7f bd a4 5a d3 3b b3 d1 b9 bd
       -0.22436577 -0.062298123 0.006450014 -0.090732
0000c0 7b 8b 1e bd ad 1e 2d 3c 52 08 40 bc 8b 83 31 3d
       -0.038707238 0.010566396 -0.011720734 0.04333834
0000d0 a7 26 ac ba c6 35 15 bd b1 4b b3 3c 54 89 72 3d
       -0.0013134078 -0.036428235 0.021886678 0.059212998
0000e0 b7 4f 8f bc e4 52 09 3d f4 c2 8d 3d 9e 7e 9f 39
       -0.017494066 0.033526316 0.0692195 0.0003042118
0000f0 03 3e 1c be 47 f5 eb bc b4 c4 05 bf 92 56 21 3d
       -0.1525803 -0.02880348 -0.5225327 0.0393892
000100 7a bf 0b bf 5a 6c 86 be e4 66 ff b9 e0 82 1d be
       -0.54589045 -0.2625454 -0.0004871405 -0.15381956
000110 c6 c4 eb bd 84 35 1d bd 98 c6 c7 3c 79 22 6e 3b
       -0.11512141 -0.038381115 0.024386689 0.0036336465
000120 77 ed 03 3d 2f b1 3d be fb 02 25 bd c0 5d fc bd
       0.032208886 -0.18524621 -0.040286046 -0.12322569
000130 10 e2 ab 3d 8b b9 09 3e f4 68 f6 bd c5 52 0b bd
       0.083927274 0.13449685 -0.12031737 -0.034014482
000140 c3 ba 6d bb 52 9c 9d 3c e4 7f 52 3d 26 28 f6 bb
       -0.0036274649 0.019239578 0.051391497 -0.0075121103
000150 14 28 c1 bc 17 36 d4 bc 3d 5a 03 bd 09 12 9d 3d
       -0.023578681 -0.025904698 -0.03206848 0.076694556
000160 3e c6 94 3d bc 30 f3 bc 71 6b 03 3f 36 ce 9a bd
       0.07264374 -0.029686324 0.5133582 -0.07558863
000170 71 9e 81 be 31 44 83 be 60 2f 89 bc 4b 25 2a 3d
       -0.25316194 -0.25637963 -0.016746223 0.04153947
000180 1b 87 e7 bd b1 3e 8c 3d 56 65 76 3e b8 a9 c9 3c
       -0.11305066 0.06847895 0.24062094 0.024617061
000190 fc 42 1a 3e d9 a6 e0 3d c7 39 80 3c 9a 04 44 be
       0.15064615 0.10969324 0.01565255 -0.1914238
0001a0 ca 08 6c be d9 e3 cd bc e1 1f 08 be 70 d0 03 3e
       -0.23050228 -0.02513306 -0.13293411 0.12872481
0001b0 5b ba a4 3c 84 c2 c0 bc 2a 86 a0 ba 75 2b 17 bd
       0.020108392 -0.023530252 -0.0012247015 -0.03690668
0001c0 ce 98 69 3d 5e 99 be bc d0 ab 29 3d 9e fd d9 3b
       0.05703049 -0.02326649 0.04142362 0.006652548
0001d0 af f8 b1 3c a1 15 b2 bd 60 74 bb 3c 49 77 8b 3e
       0.021725027 -0.08695532 0.02288264 0.27239445
0001e0 be f0 7d 3e 7d 05 62 3f 6b 7c 09 3e f6 52 74 3c
       0.24798867 0.88289624 0.13426368 0.014912358
0001f0 0b 60 31 3d e8 f4 40 bb 62 81 51 3d 9e f4 aa 3d
       0.043304484 -0.002944285 0.05114878 0.08347438
000200 cc 9f 3c 3e c3 9a d0 3e f8 24 1d be fd 3c ce bb
       0.18420333 0.40743074 -0.15346134 -0.0062938915
000210 10 ba 59 3d 58 5a d6 be 10 ac 75 be da ed 0a 3e
       0.05315596 -0.41865802 -0.23991418 0.13567296
000220 ef 58 a0 bd 79 fc 39 bd b0 b8 2a 3d cc 19 07 3c
       -0.07829463 -0.045406792 0.041680038 0.008245897
000230 3c 69 b5 3b 4e 61 c7 bc 7c 31 e9 3c 26 96 fc bc
       0.0055362266 -0.02433839 0.028465979 -0.030833315
000240 3a c6 13 3d 37 d8 67 bd a4 03 9f 3d 8d 98 6f 3e
       0.036077715 -0.056602683 0.07764366 0.23398037
000250 6b d8 d5 3e ea 27 c9 3d c8 3a 4e 3e 76 34 7e bd
       0.41766676 0.09822066 0.20139611 -0.06206175
000260 d1 b6 71 3d fb 0c c3 38 60 3a 68 3e 20 8c 0c be
       0.059012238 9.3007424e-05 0.22678518 -0.13725328
000270 21 43 ab bd 6c cf ec bc 2a f7 27 3e fd 8a d6 3d
       -0.08362413 -0.0289075 0.1640288 0.10475729
000280 4d 0c d1 3d e6 59 cc 3c f2 9f 19 be 28 d5 97 bd
       0.10207424 0.02494521 -0.1500242 -0.07413703
000290 1f da d7 bd a0 2d ea bc 3f ba fa bb 29 e8 b4 3c
       -0.1053965 -0.028586209 -0.007651597 0.022083359
0002a0 f7 92 54 3c be ed 16 3d 21 47 36 3d 88 d4 8d 3c
       0.012974492 0.036847822 0.044501428 0.017313257
0002b0 d0 f8 26 bd 21 89 ae bc 77 7b 35 3d b0 55 46 bc
       -0.04076463 -0.021305623 0.0443072 -0.01210539
0002c0 d9 24 5b 3d 5b 46 7d 3e 68 68 91 3d 27 4c 39 3d
       0.053501938 0.2473387 0.07099992 0.04523864
0002d0 86 8b ad bc 34 8a 18 be ee f8 56 be fa 74 a4 3e
       -0.021184694 -0.1489647 -0.20993397 0.32120496
0002e0 84 5c b0 bd 48 24 29 be 11 e3 11 bd 36 1d d2 bd
       -0.08611396 -0.16517746 -0.035616938 -0.10259478
0002f0 f7 00 05 be a5 d4 4c 3e 70 24 0e be c2 36 19 3d
       -0.1298865 0.20002992 -0.13881087 0.037405737
000300 d3 3f 28 bd 3a cf fd 3d 65 f6 ef 3d c2 26 b5 3c
       -0.041076493 0.12393041 0.11716918 0.022113208
000310 d6 25 16 bd 24 78 68 bc 6a b9 1d bd 56 49 0e bd
       -0.036657177 -0.0141888 -0.038506903 -0.034737907
000320 67 e6 5d 3d 7a 00 3e 3d 6c cd 40 3d 0e 48 c1 3d
       0.054174807 0.046387173 0.047070906 0.094375715
000330 30 34 20 be eb ba ce be 75 6e 35 be 7d 83 d1 be
       -0.15644908 -0.40376982 -0.17717917 -0.4092063
000340 9b 3a fe 3e ab fa 46 bd 38 a8 be 3d 75 c3 87 bd
       0.49654087 -0.0485789 0.09309429 -0.06629077
000350 9a 1e df 3d 61 0b 02 be fd bd 07 bc 69 6f b6 3d
       0.10894509 -0.12699653 -0.008285043 0.089079686
000360 53 20 05 be 8f 04 c9 bd 5e a2 22 be b3 06 e1 3d
       -0.13000612 -0.098153226 -0.1588225 0.10987606
000370 59 5c 09 bd f9 eb 13 bd a8 96 a6 bc 6f 79 bd bb
       -0.033535335 -0.036113713 -0.02033551 -0.0057822983
000380 90 dc 08 bd f9 79 2f bd 7b 54 f5 3c 4e 32 bb ba
       -0.03341347 -0.04284093 0.02994751 -0.001428196
000390 37 5b 50 bd 42 fe f0 3b 11 11 18 bd 4b a7 a8 bc
       -0.05086824 0.0073545286 -0.03712565 -0.020587584
0003a0 83 23 93 3d a9 17 c4 3d e6 73 90 3e 6c d9 b5 3e
       0.07184508 0.09574825 0.28213423 0.35517442
0003b0 8d 60 03 3e 24 24 cd 3c 62 c3 56 be 78 05 cb 3d
       0.128298 0.025041647 -0.2097297 0.099131525
0003c0 ea 91 c2 3d b3 01 10 bd f4 03 0c bd 29 24 06 be
       0.09500487 -0.03515787 -0.034183457 -0.13099732
0003d0 56 10 d7 bc 76 a9 d4 3d 4c 05 f7 bd 94 31 4e 3e
       -0.026252907 0.103838846 -0.12061557 0.201361
0003e0 3a b6 e4 bd 36 0b be bb ab 59 d6 3d a5 53 0c 3d
       -0.111675695 -0.0057996763 0.104663216 0.034259457
0003f0 c2 c5 62 bd 18 31 a4 3d 25 49 0b bd 1b de 2f bd
       -0.055364378 0.080171764 -0.034005303 -0.042936426

layer1.bias f4 [128]
000000 dc ee 9a bb 50 bc c2 3e 59 0a 3a bd b0 09 b2 3d
       -0.0047281813 0.38034296 -0.045420025 0.08693254
000010 7e e5 9b 3c 4f c3 c3 bc 7d 85 f6 bd 8c 2b 87 3e
       0.019030329 -0.023896841 -0.120371796 0.2640041
000020 7a 25 76 be 97 0f a7 3e a3 0c dc 3c 8e ea 88 3e
       -0.24037734 0.32629082 0.026861494 0.2674145
000030 1b e3 45 be 6f 90 31 3d be c8 e7 3d c3 2e 05 3e
       -0.19324915 0.043350633 0.113175854 0.1300612
000040 4e 23 ad 3e 47 64 94 3e 74 5c 62 bd df 42 54 3d
       0.33815998 0.28982756 -0.05526395 0.051821586
000050 46 a4 a5 bd 5e ec b0 bd 35 9d 0d be 97 08 ae bd
       -0.08087973 -0.086388335 -0.13829501 -0.08497732
000060 a3 76 06 be b5 54 fd bd 8d c4 c3 3e c4 0a c6 3c
       -0.13131194 -0.12369672 0.38235894 0.024175055
000070 b1 0b 70 3e d4 1a 5f 3e 49 cb 4a 3c 54 45 e7 3e
       0.2344196 0.21787578 0.0123775685 0.4517008
000080 d8 5d 72 3e 8c d6 ac bd 51 38 b1 be 0d db 19 be
       0.23668611 -0.08439359 -0.34613279 -0.15024967
000090 76 2c ce bc 07 44 e3 bd 68 1f 5d 3e 49 ce 8f 3d
       -0.025167685 -0.110969596 0.21594012 0.07021768
0000a0 3e d3 4d 3d 1e 3e 60 3e 62 9f 78 be 36 96 58 3e
       0.050250284 0.21898696 -0.2427955 0.21151051
0000b0 c0 90 1d be 36 f3 1a be ff e8 53 3e f8 50 37 be
       -0.15387249 -0.1513184 0.2069435 -0.17901981
0000c0 37 db 5f 3e 77 be c4 3e 01 c7 a3 3e 40 20 2f 3e
       0.21860968 0.38426563 0.31987765 0.17102146
0000d0 bb 23 f9 bd 6c a5 04 be 01 77 71 3e 5f e8 cb 3e
       -0.12165018 -0.12953728 0.23580553 0.39825723
0000e0 c6 b5 29 3e ca a4 6e 3e 49 2f f0 bd 07 db 04 bc
       0.16573247 0.2330505 -0.11727769 -0.008108861
0000f0 22 83 2f 3d c4 6b a1 3c 95 30 a6 3e 64 1c 07 3e
       0.042849667 0.019704707 0.3245894 0.13194424
000100 22 7c 26 be 11 d3 a4 3d d9 bb 62 be 12 3d 0e 3d
       -0.1625829 0.0804807 -0.2214197 0.03472621
000110 30 46 8f 3e 45 35 a4 3e bd 35 74 3e 38 88 1b 3e
       0.27983236 0.3207189 0.23848625 0.15188682
000120 dc ce 92 3d b8 2e 76 be 50 49 46 be 5e 4f 59 bd
       0.071683615 -0.2404126 -0.19363904 -0.053054206
000130 4d cd b8 3c 74 3d 96 3e 90 b6 45 3e bc 01 b1 3e
       0.022558833 0.2934376 0.19307923 0.34571636
000140 d5 7b 7d be f6 15 d9 bc 57 f9 f3 3c 52 6a 35 be
       -0.2475427 -0.02649973 0.02978198 -0.17716339
000150 03 3c d5 3d ef 79 d9 3d 9c b6 b9 be 12 4a b0 3e
       0.10411837 0.1061896 -0.36272132 0.3443151
000160 f6 bb 3f 3e fa 0c e3 3e b5 1f bd 3e 01 ca f6 bd
       0.18724045 0.44345838 0.36938253 -0.12050248
000170 7c d6 a7 bb d6 65 06 be b4 8f 9c 3e 53 a7 99 3e
       -0.005122004 -0.13124785 0.30578387 0.3001047
000180 5b cd 52 be 46 da 21 3e e7 69 a5 3e ab 16 a9 3e
       -0.2058615 0.15805921 0.3230736 0.33025107
000190 85 9c 2a 3e 2a b5 12 be fd 35 d6 3e 71 ea b8 3d
       0.1666127 -0.14326921 0.41838065 0.09029091
0001a0 c3 86 76 3e e6 3f 3d be 00 c0 2d 3e c9 76 2f 3e
       0.24074845 -0.18481407 0.16967773 0.17135157
0001b0 0f f0 f2 3d 1e b3 d5 3d 45 27 96 be f5 44 47 be
       0.11862194 0.104345545 -0.29326835 -0.19459899
0001c0 1f 21 b0 3e cf 86 61 be 0d a0 97 be 48 7a e6 3c
       0.3440027 -0.22024082 -0.29614297 0.02813448
0001d0 f7 d3 d8 bd 98 52 9f 3e b4 04 2a be c9 18 b9 3d
       -0.10587304 0.31117702 -0.16603357 0.090379305
0001e0 2d c8 d0 bc 4a ba 96 bc 8b 72 a3 3e f1 74 b3 3d
       -0.025486076 -0.018399376 0.31923327 0.08762539
0001f0 2f e1 d0 3e 13 bb 27 3d 03 4f e8 3d 9d 77 ec 3d
       0.407968 0.040949892 0.11343195 0.11546252

layer2.weight f4 [256, 128]
000000 e1 66 1d bc 0e 90 4b 3d 3d 68 82 3d da fb c8 bd
       -0.009607048 0.049697928 0.06367538 -0.09813662
000010 d5 db 92 3d 4e d2 86 bd 02 8c fd bc ee fa 06 bd
       0.07170836 -0.06583081 -0.03095055 -0.03295415
000020 86 2e 05 3c c5 f3 10 3d 84 59 2c 3d 31 d2 01 3e
       0.008128768 0.035388727 0.042077556 0.12677838
000030 14 d0 15 be 27 2e 9c bd 00 5c f2 bd 9a 45 bf 3d
       -0.14630157 -0.0762599 -0.11833954 0.09339447
000040 f1 fc af ba cb bc f5 3d 2d 8b 89 bd 18 fb 60 3d
       -0.0013426823 0.119989 -0.06715999 0.05492696
000050 ec 67 42 3d 8a 44 d4 3d be 02 5e bc cc 0d 25 bc
       0.04746239 0.10364635 -0.0135504585 -0.01007409
000060 3c 4a 37 3d 3c 76 8d 3b 2a 2f 2d 3d 53 be ac 3d
       0.04474853 0.004317073 0.042281307 0.08434739
000070 b6 2f 85 3b 2b 4e 8e 3d 60 54 2c bd 84 bc db bc
       0.0040645255 0.06948503 -0.042072654 -0.02682329
000080 4f b3 1b 3d fc 50 6c bd 83 f5 10 be 57 72 5b bd
       0.0380128 -0.05769442 -0.14156155 -0.05357584
000090 36 23 51 3d fe 5f c9 bc 69 a3 16 bc 2c a6 74 3d
       0.05105897 -0.024581905 -0.009194233 0.059728786
0000a0 4f 94 8d bd 12 10 1c 3e e4 43 e0 bd d4 66 91 3b
       -0.06913053 0.15240505 -0.10950449 0.004437307
0000b0 98 72 e4 bd 98 02 96 3b c0 dc f6 3d 82 2f d3 bd
       -0.111546695 0.004577946 0.120538235 -0.10311796
0000c0 f0 2a 6a bc 4b 76 5e 3d 32 f4 60 3d 50 7e ca 3c
       -0.014292464 0.05431203 0.054920383 0.024718434
0000d0 c6 99 c1 3c 0a 4f 3c 3d 4f 6f de 3d 11 ae d5 3c
       0.023632895 0.045973815 0.10861074 0.026083978
0000e0 4e 7c 1d 3c 3e d9 10 be 36 5a ac 3c a2 9a a1 3d
       0.009612156 -0.14145371 0.02103911 0.07890822
0000f0 cc ce 02 be ce 8e 1f 3d cf 1e 28 bd 61 46 14 3d
       -0.12774199 0.03895455 -0.041045006 0.03619993
000100 1c 6d 3d 3d 4b fb 44 bd 2b ee a5 bc e4 80 2d 3b
       0.046246633 -0.048091214 -0.020255169 0.002647453
000110 90 52 6e bd 87 ab c9 3d 40 c5 93 3d 3d 04 43 3d
       -0.058184206 0.09847169 0.07215357 0.047611464
000120 1c fe 82 ba 07 f7 6f 3c a3 93 a1 3c 99 94 84 bd
       -0.0009993943 0.014646298 0.019723719 -0.06473655
000130 dc b5 69 3c dc 98 ea 3d 3e 23 9a bd 15 76 5a ba
       0.01426455 0.11454937 -0.07526253 -0.00083336356
000140 4f 74 8b bd 41 8a 0f bd 8c 16 81 3d 4e 72 52 3d
       -0.068092935 -0.03504396 0.063031286 0.05137854
000150 30 58 66 3d a8 31 db 3d 8e 6b 38 bd 22 51 94 3d
       0.056236446 0.107028306 -0.045024447 0.07242037
000160 0c c2 37 3c 2f 55 88 3d 3d 0e 9a bd 2d 45 ba 3c
       0.011215698 0.066568725 -0.07522247 0.022738064
000170 b0 bd 47 3d 18 31 90 bd e7 e8 5d 3c a9 66 27 be
       0.048764884 -0.07040614 0.013544298 -0.16347755
000180 d9 32 c6 3c b6 f7 76 3c 44 53 23 bd b3 7c 1c bc
       0.024194168 0.015073707 -0.03987433 -0.009551215
000190 64 14 ca 3c b5 67 e1 bc fb ff 26 bd 66 ec ed 3c
       0.024667926 -0.027515272 -0.040771466 0.029043388
0001a0 0b a0 6e bd ff 6a ae 3c 99 06 4a 3e 6c 11 da bd
       -0.058258098 0.021291254 0.1972908 -0.10647854
0001b0 62 9b 19 3e ea cb c0 3d 00 f4 ed 3c 0d 23 28 3d
       0.1500068 0.094138935 0.029047012 0.041049052
0001c0 30 f7 08 3e 89 75 5e bd df 5c 2e bd 78 02 da bc
       0.13375545 -0.05431131 -0.042569038 -0.026612505
0001d0 20 b5 3c 3b f0 fe 81 3d c8 32 a5 bd 2c 4c 36 be
       0.0028794482 0.063474536 -0.080663264 -0.17802495
0001e0 27 c5 ab bd f6 ed 32 bd 06 ee 9f 3d 43 5d 37 bd
       -0.08387213 -0.04368397 0.07809071 -0.044766676
0001f0 89 4f bf 3d e3 2d 08 bd fe 4e 8e 3c 51 c1 ef 3d
       0.09341342 -0.033246886 0.01737165 0.11706794
000200 43 1b 0d 3c 30 7c 4c 3c 0b dc b7 3b 90 82 f6 bd
       0.008612457 0.0124807805 0.005610948 -0.120366216
000210 20 bb a7 bc 8a 56 c2 bd 06 85 dd 3c ac e7 8a bc
       -0.02047497 -0.09489162 0.02704097 -0.016956173
000220 5a ec dc bc 4a 68 3a bd 8b aa dd 3d 80 62 a9 3d
       -0.02696817 -0.045509614 0.10823544 0.082707405
000230 32 3b fd bc 44 97 5b bd 9a ed 87 3d df b7 fd bb
       -0.030912016 -0.053611055 0.06637116 -0.0077428664
000240 14 78 33 3c 46 1e 0e 3e 1c 73 a0 bd 21 68 d6 3c
       0.010953922 0.13878736 -0.07834455 0.0261727
000250 49 17 ee bd 87 23 ef bd ad fb 90 bc 71 ac df 3d
       -0.11625535 -0.11676698 -0.017698133 0.109215625
000260 9d a6 92 bc 15 28 ea bc e2 fc b1 3d b7 04 5a 3d
       -0.017901713 -0.028583566 0.08690812 0.053227153
000270 7d e4 a4 bd 24 41 97 3c b6 69 18 bd 02 23 3c 3c
       -0.08051393 0.018463679 -0.03721019 0.011482956
000280 ad 32 a4 3d a7 c9 4d 3d cc c9 8f 3b cf 96 05 3e
       0.08017478 0.05024114 0.0043880697 0.1304581
000290 03 61 3d 3c 8a 98 a8 bd 8b cd 92 bd 40 ca 2c bc
       0.011558774 -0.082322195 -0.071681105 -0.010546267
0002a0 77 d7 3d 3d 14 26 dc 3d 48 bb 12 3d 2a f0 98 3d
       0.04634806 0.1074945 0.035823137 0.07467683
0002b0 10 98 4a bd 92 cb d9 bd cc 5c 23 3e de a6 40 bd
       -0.049461424 -0.10634531 0.15953368 -0.047034137
0002c0 03 82 69 bd a3 da c0 bd 42 de 64 3d ad 52 06 3d
       -0.057008754 -0.09416702 0.055876024 0.03279369
0002d0 e1 c7 25 bd ca 39 6a bd a8 21 c4 3d 27 bf e4 bb
       -0.040473823 -0.05718402 0.09576732 -0.006980795
0002e0 5a 1e fc bd 09 2f 9e bd 70 d8 8b 3c 9f 1b 98 3c
       -0.123104766 -0.07723815 0.017070979 0.018567858
0002f0 e4 8c 89 3d 35 9b db 3c 7e 20 e2 3c 01 5e 97 3d
       0.06716326 0.026807407 0.027603384 0.07390977
000300 b9 d6 e2 3c 10 16 50 bd ca 84 4d bb 96 b3 d3 bd
       0.027690278 -0.05080229 -0.0031359666 -0.10336988
000310 28 d6 06 3e 00 97 01 3e 79 dd 5a bd b4 95 94 bd
       0.13167632 0.12655258 -0.05343387 -0.07255116
000320 49 98 20 bd e3 1e f3 bc 42 47 ba bd 57 62 ed 39
       -0.03920773 -0.029677814 -0.090956226 0.00045277431
000330 5a dd 2c 3d bc e1 4d bc 34 79 1a bd 9e 29 bd 3c
       0.042203285 -0.012566026 -0.037713245 0.023091134
000340 df f4 ce bc ff 56 d6 bd 6c 03 01 be e7 13 a4 3c
       -0.025263248 -0.10465812 -0.12598962 0.020029021
000350 85 0d 39 3e 8c 87 15 3d 23 37 48 3d 8f 1d af bd
       0.18071564 0.03650622 0.048880707 -0.0855056
000360 e0 ad 68 bd 73 4d 9a bd b7 48 be 3d f7 d5 eb bd
       -0.056806445 -0.075343035 0.09291213 -0.1151542
000370 54 40 c9 3b db a9 41 bc f7 f4 a7 3d 9f 69 14 be
       0.0061417017 -0.011820282 0.0820102 -0.14493416
000380 c4 7b b2 3c 18 ce 67 3c 5d dd 1a 3d b1 a0 e8 bd
       0.021787532 0.014148258 0.037808765 -0.113587745
000390 fb ba 37 3c eb b6 22 be 36 7f 6d bc 70 f4 dc 3c
       0.011214013 -0.1589009 -0.0144956615 0.026972026
0003a0 87 a4 6b bd 78 55 65 bc 96 e3 a3 3c 27 da df 3c
       -0.057529952 -0.013997428 0.020005982 0.027325703
0003b0 1d c7 a2 bc 90 0b 97 3c 81 fc 5c 3d b8 ca aa bc
       -0.019870335 0.01843813 0.053951744 -0.020848617
0003c0 8f 6a 7e 3c 0c b5 1a 3d d6 b9 01 bd 41 85 ee bc
       0.015528335 0.037770316 -0.031671368 -0.029116275
0003d0 69 ff 01 be e1 fa 3b 3d cb 35 87 bb 88 f2 4d 3d
       -0.12695087 0.045893554 -0.0041262857 0.050280124
0003e0 22 e8 59 bd 76 bf 76 3d a0 2e a5 3d 91 de 1d 3d
       -0.053199895 0.060241185 0.08065534 0.038542334
0003f0 9d a8 9a bd a3 4b e2 3c 17 ac 88 bd 3a 65 c4 bd
       -0.07551692 0.027623957 -0.066734485 -0.0958962

layer2.bias f4 [256]
000000 2c 26 7d 3c ca b6 ec 3d aa 78 4f 3e d0 9e ff bd
       0.015450995 0.11558302 0.20260873 -0.12481463
000010 74 76 52 3d ca b0 80 3e 3d 43 9e bc a9 d6 76 3e
       0.051382497 0.2513488 -0.019319171 0.24105324
000020 a6 69 6a 3e 72 7a 9f 3e c9 40 32 3e f3 30 f9 bd
       0.22891864 0.31148106 0.17407526 -0.121675394
000030 13 37 5a 3c 19 37 0a 3e f9 d6 80 bd 55 e0 3d 3e
       0.013318795 0.1349758 -0.06291003 0.18542607
000040 eb 1b 0e be 75 58 32 3d d8 2b 25 be 3e eb 6e bd
       -0.13877837 0.04354139 -0.16130006 -0.058329813
000050 88 4e 88 bd 79 6c d0 bd 8f b0 0c 3e 14 e5 34 be
       -0.06655604 -0.101769395 0.13739227 -0.17665511
000060 a1 b3 47 3e 35 59 7c 3c a0 53 9e 3e 01 51 b7 bb
       0.19502117 0.015402128 0.30923176 -0.005594373
000070 40 c4 44 bb 7a 38 8a 3e 8c 16 14 3e 26 17 90 3e
       -0.00300242 0.26996213 0.14461726 0.2814266
000080 68 7a 92 3d b8 c0 03 3e 3c 99 90 3a d7 0d 3f 3e
       0.071522534 0.12866485 0.0011031996 0.18657623
000090 20 eb 5e 3e 4f 0d a9 3d 2b 35 4a bd 44 d1 38 3e
       0.2176938 0.082544915 -0.04936711 0.18048579
0000a0 67 8a 70 3e 06 d0 de bc 6d 13 36 3e cc 82 cd 3d
       0.23490296 -0.027198803 0.17780848 0.10034713
0000b0 05 c5 5a bd 8d 0f 96 3e 7f 87 87 3e b6 ff 92 3e
       -0.05341055 0.2930874 0.26470563 0.28710717
0000c0 cb a9 42 3e be 39 28 3e a6 d0 2d 3e ce 8a 06 3e
       0.19010083 0.16428277 0.16974124 0.13138887
0000d0 97 a4 e0 bd 5c f6 9c 3d a0 30 aa 3e b6 92 09 3c
       -0.10968893 0.07664177 0.33240223 0.008396795
0000e0 9e 1c 9c 3e ec 50 04 3d e2 88 39 3e a0 5b b8 3d
       0.30490583 0.032303736 0.18118623 0.09001851
0000f0 43 a2 37 3e 10 b7 35 3d 4f 2d 49 3e 11 42 a0 3d
       0.17932992 0.044364035 0.1964619 0.07825101
000100 a1 7f 80 3e 89 f4 06 3d 4e ac 97 3e 73 e3 8a 3e
       0.25097373 0.03294805 0.29623646 0.27126655
000110 84 2a 39 3e f9 90 27 3d 7c c5 2b bd cf 56 88 bc
       0.18082625 0.04090974 -0.041936383 -0.016642956
000120 31 45 04 3d ba c0 58 3e 8b a5 9d bd 30 95 95 3e
       0.03229255 0.2116727 -0.076975904 0.29215384
000130 0b 8b 02 3e d7 99 3f 3d 49 57 93 3e 0c be 5a 3e
       0.12748353 0.046777572 0.2877753 0.2136156
000140 c5 43 1c 3e db f5 ff 3d 68 77 04 be 9b b6 a6 3e
       0.15260227 0.12498065 -0.12936175 0.32561192
000150 2c 40 0e 3e a5 c2 9a 3e 76 d7 4e 3e 63 a0 5d 3e
       0.13891667 0.30226627 0.2019938 0.21643214
000160 33 31 a9 3d 0f 19 33 3d 16 c5 9f 3e 80 eb 5f 3e
       0.08261337 0.04372507 0.31205052 0.2186718
000170 56 ca a5 3c c5 e0 a3 3d e0 34 9c bd 53 ee 87 3e
       0.020238083 0.08001856 -0.076272726 0.26549014
000180 74 dc 18 3e 2a e2 41 3b cf 68 81 3c 26 b1 7e 3c
       0.14927846 0.0029584267 0.015797047 0.015545165
000190 b9 17 8f 3e 43 85 da 3d f0 f2 81 3e e7 e9 8c 3d
       0.27947786 0.10669949 0.2538066 0.06880551
0001a0 87 15 17 3e 4d 36 4e 3e 55 12 0e 3e 17 63 71 3d
       0.14754306 0.20137902 0.1387418 0.05893239
0001b0 21 63 f5 bd 87 aa fe 3d 9f c8 bb 3d 27 a5 a7 3e
       -0.11981798 0.12434869 0.09169125 0.3274319
0001c0 51 88 a5 3e cb 5c 37 bc 05 26 fc 3d 6d de 77 3e
       0.32330564 -0.011191557 0.12311939 0.24205942
0001d0 68 9f 5b 3e 7e 9f 4d bd bc e5 74 3e 48 31 8a 3e
       0.21447527 -0.05020093 0.23915762 0.26990724
0001e0 61 48 9b 3e 89 d5 7e 3e ad 70 11 3e d8 bf fa 3d
       0.30328658 0.24886145 0.14203139 0.122436225
0001f0 04 f9 5d 3b 3e 32 77 3e 71 b2 83 3e 43 31 9b 3e
       0.0033870349 0.2414026 0.25722077 0.3031102
000200 b6 07 69 3e 04 cf a3 3e e3 c9 91 3e 9c 64 1f 3e
       0.22756848 0.31993878 0.2847434 0.15565723
000210 f9 76 fa bb be 78 89 bd 4f c7 17 3d 86 f9 04 be
       -0.007643577 -0.06712483 0.03705531 -0.1298581
000220 51 7a 9c 3e 9f 4a a0 3e 3d bb 77 3e 21 5c 0c be
       0.3056207 0.3130693 0.2419252 -0.1370702
000230 9f 0f a3 3e 10 df 23 3e 7a 31 65 bd e3 14 29 3e
       0.31847855 0.1600306 -0.055955388 0.16511874
000240 51 69 31 3e 06 4c 0b bd 82 0b ec 3d da 37 b7 bd
       0.17325331 -0.03400805 0.115256324 -0.089462
000250 0e 69 2c 3e ad 14 30 3e ab e1 89 3e 36 c7 83 3e
       0.1683695 0.17195387 0.26929983 0.25737923
000260 a2 35 33 3c c3 07 20 3e 6c f9 1b 3e d6 c7 a1 bd
       0.01093808 0.15627961 0.15231866 -0.07899444
000270 7e a1 7c 3e c7 4b 90 3e b3 3e 95 3e 8e 0c 00 3d
       0.2467098 0.28182814 0.29149398 0.031261973
000280 13 eb 81 3e df 09 60 3e 1e 56 95 3d 2e e4 a5 3e
       0.2537466 0.21878766 0.07291816 0.3240065
000290 26 76 9c 3e 64 27 e1 bd f0 af cb bd 7a 99 92 3c
       0.3055889 -0.10993841 -0.09945667 0.017895449
0002a0 48 bd 8a 3e bf 74 41 3e 92 28 89 3e 5e 03 ec bc
       0.27097535 0.18892191 0.26788765 -0.0288102
0002b0 7e cf 32 3e 9f 59 67 3e dd a2 90 3c dd 89 9b 3e
       0.17461964 0.22592781 0.017655784 0.3037862
0002c0 d2 2d 09 3d 03 a1 61 bd 15 5c 99 3e c2 c4 10 bc
       0.033490963 -0.055085193 0.29953066 -0.008835973
0002d0 f3 d4 9f 3e 20 07 a9 3e 1f d6 1b 3c 89 d9 3b bd
       0.31217155 0.33013248 0.0095115 -0.045861755
0002e0 a3 9b a1 3c 35 80 80 3e d6 7b 45 3e 19 35 b7 3d
       0.019727534 0.25097814 0.19285521 0.089456744
0002f0 ee 78 5b 3e 5f 72 ea 3b 1c d2 fa 3d 14 b4 3c 3e
       0.2143285 0.0071547474 0.122471064 0.1842807
000300 42 d6 e0 bd cf 4a fb 3d 59 6e 0b be d3 d3 0b bd
       -0.109783664 0.12270128 -0.13616313 -0.03413756
000310 f0 c4 47 3c ff 78 68 3c 02 65 2e 3d 19 45 a8 3e
       0.01219295 0.014189004 0.042576797 0.32865217
000320 36 7d 90 3e 29 5d 9e 3e 20 17 5f be eb d3 90 3e
       0.28220528 0.3093045 -0.21786165 0.2828668
000330 0c 60 9d 3d ca 69 5d 3e 18 ab 57 3e 1c 0e 70 3e
       0.07684335 0.21622387 0.21061361 0.23442882
000340 20 f0 a5 3e aa f5 ad 3c 90 9f ab 3d 6b 57 9d 3d
       0.32409763 0.021235306 0.083800435 0.07682689
000350 99 49 8b bd 4a 99 5d bd 3e 28 4b 3e a8 a5 8b 3e
       -0.06801147 -0.054101266 0.1983957 0.27274823
000360 11 87 82 3e 75 87 63 3d 25 20 ef 3c 38 01 a0 3d
       0.25493672 0.055549104 0.029190132 0.078127325
000370 2a 37 77 bd b4 fd 88 3e 6b 3b 5a 3e 69 3e 0f 3e
       -0.060355343 0.2675606 0.21311729 0.13988651
000380 09 f3 56 3e 4d 9e 63 3e 0e c7 26 be 35 83 52 3e
       0.20991148 0.22228356 -0.16286871 0.20557864
000390 d3 1d b9 3d a8 cf 63 3d 79 22 8f 3e a3 bc 56 3e
       0.09038892 0.05561796 0.27955988 0.20970397
0003a0 8e 1d e5 bd 7f 5b 13 3e d5 b4 87 3e 64 c0 5f be
       -0.11187278 0.14390372 0.2650515 -0.21850735
0003b0 1f a4 e4 3c 65 8b 42 be 2d f5 84 3e cd b2 69 bd
       0.02791029 -0.18998487 0.25968304 -0.057055283
0003c0 4a 12 9d 3e ce e8 30 be d2 25 79 3d 4f 14 58 3e
       0.30678016 -0.17276308 0.060827084 0.21101497
0003d0 f3 e9 79 3e 25 fb 55 3e b3 5a b9 3e 46 37 92 3d
       0.24405651 0.20896585 0.3620201 0.07139449
0003e0 18 4a 48 bd 47 6e 82 3e d4 04 97 bb 9c 9b 59 3d
       -0.048898786 0.2547476 -0.00460873 0.053126916
0003f0 3a 14 f4 bc c4 16 8d 3e c4 93 06 3e 93 03 cc 3d
       -0.029794801 0.2755643 0.13142306 0.09961619

layer3.weight f4 [256, 256]
000000 b3 c7 f0 bd 0e 84 e8 bd 27 38 cc 3c 3c c4 81 3d
       -0.117568396 -0.113533124 0.02492912 0.06336257
000010 ef 63 c2 3c fa 9b a0 3d ab 67 79 be f8 9a f2 3c
       0.023729293 0.0784225 -0.24355952 0.02961491
000020 48 57 6d be 7d 36 5c 3d e6 62 a7 bd 44 e3 9a 3d
       -0.23177826 0.0537629 -0.0817316 0.07562879
000030 cb ce d7 bd f0 c8 a5 bd 83 1d 32 bd d7 1a c8 bd
       -0.105374895 -0.080949664 -0.043485176 -0.09770744
000040 ad 91 12 3d 2c ef a6 bd bc 43 08 3d 82 42 41 be
       0.03578346 -0.08151087 0.03326772 -0.18873027
000050 63 58 2d be c8 60 5e be f4 46 e9 bd 8c ac 84 bd
       -0.16928248 -0.21716607 -0.11390486 -0.06478223
000060 ed 52 46 3d ec 51 ad bd 14 d5 ec 3d a8 16 9e bd
       0.048418928 -0.08462891 0.11564079 -0.07719165
000070 58 c3 e6 3d 49 28 91 3d a4 f9 11 be 5d f2 e6 3d
       0.112677276 0.07087762 -0.14255387 0.11276696
000080 04 e2 02 bd 6a 43 ed 3c 5c 45 93 bd 7b 66 3c 3d
       -0.031953827 0.02896281 -0.071909636 0.04599617
000090 2b a2 02 be 52 57 47 bd b9 36 18 3d 34 ea e2 3d
       -0.12757175 -0.04866726 0.037161563 0.11079827
0000a0 71 3c 06 3e 1a 6a 5d be d6 99 11 3e fc f5 1e 3e
       0.13108994 -0.21622506 0.1421884 0.15523523
0000b0 c4 8c 84 3d eb d4 df 3d 0c 58 37 3d 39 ed 48 bc
       0.064721614 0.10929283 0.044761702 -0.01226359
0000c0 33 5a 37 bc fd 5b 96 bd ff 4c 13 be 2e b5 a1 bd
       -0.011190939 -0.07341764 -0.1438484 -0.078958854
0000d0 b9 61 2f be 2e ce cc bd 7c 27 05 3e 58 1c fc bd
       -0.17127122 -0.10000263 0.13003343 -0.12310094
0000e0 a7 55 20 3e 3b b9 74 3c df 60 52 bc 1c d2 c2 3d
       0.15657674 0.0149367405 -0.012840479 0.095127314
0000f0 14 4d fe bd 1d 5d cf bd f0 a8 c5 3d 99 56 18 be
       -0.12417045 -0.10125182 0.09651363 -0.14876784
000100 81 cb 68 3d 14 99 8d 3a 2c 6e d8 3d 33 8f ba 3d
       0.0568347 0.0010803067 0.105678886 0.09109344
000110 cd c0 16 3d c4 14 7b bc 91 82 6f bd 2d 44 42 bd
       0.036804963 -0.015324775 -0.058474127 -0.0474283
000120 d5 6d 71 be 2b 04 9c bd d4 62 9d 3d 80 51 5d 3d
       -0.23577054 -0.076179825 0.076848656 0.054032803
000130 07 ee 0c be 89 e5 0f bd d2 08 ec 3d 36 37 09 3d
       -0.13762675 -0.03513101 0.1152512 0.03349992
000140 39 0a 95 3d e7 20 f9 bc 89 ed 2e be 7b 78 8d 3d
       0.072773404 -0.030411197 -0.170828 0.069077455
000150 38 d4 3e 3d d2 74 b6 3d 6a ea 1f 3e f2 33 51 be
       0.046589106 0.089090005 0.15616766 -0.20429972
000160 ec 34 97 bd 31 b7 0b bd fa c1 f2 3d 30 ab fc 3d
       -0.07383141 -0.03411025 0.11853404 0.12337339
000170 76 33 d4 bd 17 0d d0 3d 26 4e cc 3d 84 a4 e1 3d
       -0.10361378 0.10158747 0.09975843 0.11017707
000180 9a 7b 33 bd 45 d8 1f be 39 db 53 bc 5b 86 88 bb
       -0.043819048 -0.15609844 -0.012930685 -0.004166407
000190 54 8c 05 3e c0 53 90 bd 21 e8 3a 3d 3a 48 93 bd
       0.13041812 -0.07047224 0.04563153 -0.071915105
0001a0 4d 89 14 3e b9 3f c6 3d 2f 3d ca bd cc d4 6d 3d
       0.14505501 0.09680123 -0.09874951 0.058064267
0001b0 30 d6 4e 3e 19 20 c4 bc 54 f2 0c be a9 18 60 3d
       0.20198894 -0.023941087 -0.13764316 0.054711018
0001c0 ca 94 55 3d 8b 5c 19 3e 80 20 bc bd 7b b0 99 3d
       0.05214385 0.14976709 -0.091858864 0.07504364
0001d0 d7 66 ab bc 93 70 a0 3d 0e 62 9f 3d bf 53 a4 3d
       -0.020923061 0.07833972 0.07782374 0.08023786
0001e0 b3 a3 48 3e 5b 57 16 3d 6a 38 32 be de 72 43 be
       0.19593696 0.036704402 -0.17404333 -0.19086787
0001f0 61 a8 71 be 8d e6 9c bd 7b f5 8c 3d 0e e7 ec 3d
       -0.23599388 -0.076611616 0.06882759 0.11567508
000200 0a 15 25 3e 5c d9 a3 3d 10 6c b5 bc f5 ff 9d be
       0.16121307 0.080004424 -0.022146255 -0.30859342
000210 5b 9e b6 bd 65 20 03 3e 3c 0d a1 bd fb c9 21 3d
       -0.08916923 0.12805326 -0.078638524 0.039499264
000220 c1 41 b0 3d d7 a8 0b 3e 65 e9 8c 3a ed 7d 9a bd
       0.086062916 0.13638626 0.0010750709 -0.0754355
000230 35 a5 39 3d 79 b3 65 3e 48 ae 35 be ca 72 fe bc
       0.04532357 0.22431745 -0.17742264 -0.031060595
000240 57 2e 8c 3d aa 0e 9b bc 45 09 e0 3d a7 83 af 3d
       0.06844776 -0.01892789 0.10939268 0.085700326
000250 4e 49 0b 3e d0 03 09 3d 2d da 8d 3e b7 c9 bd 3d
       0.13602182 0.0334509 0.27705517 0.0926699
000260 fe 0f 86 be 90 59 0a 3e 18 26 fb 3d a5 28 a1 3d
       -0.26184076 0.13510728 0.12263125 0.078690805
000270 d7 41 05 be e9 17 6f 3d 97 70 02 3e 83 b3 8a 3c
       -0.13013397 0.058372412 0.12738262 0.016931301
000280 88 a7 cb 3d 73 fd c4 3d 93 dc 94 be 89 f1 19 3e
       0.099440634 0.09618654 -0.29074535 0.15033545
000290 5e 35 87 3d 2d 22 b3 bd a4 d5 37 be 3b 4b 8a be
       0.06601976 -0.08746753 -0.17952591 -0.2701052
0002a0 8e 2d 05 3b 94 19 34 bd d7 74 f7 3d 73 bd e2 bd
       0.0020321342 -0.043969706 0.12082832 -0.11071291
0002b0 3a 1c 8f 3d ad e7 24 3e b8 2b 63 be 24 66 3e 3d
       0.06987806 0.16104002 -0.22184646 0.046484128
0002c0 8e eb 01 be 8d be 46 be ae 5b 0a 3e d2 69 a5 bc
       -0.12687513 -0.19408627 0.13511536 -0.02019206
0002d0 70 9a 82 3d 7f 8c 90 3d da 00 34 be 2b 93 f4 bc
       0.06377113 0.070580475 -0.1757845 -0.029855331
0002e0 1d 15 de bc 31 44 57 bd ac ef 12 be 30 f3 d0 bc
       -0.027109677 -0.052555267 -0.1434924 -0.025506586
0002f0 16 d1 47 be cf 60 14 be 9c 97 44 be 7c 18 82 3c
       -0.19513354 -0.14490055 -0.1919846 0.015880816
000300 43 16 5f bd ec c9 ce bc 42 ff 0e be 9c cd 03 3d
       -0.05446459 -0.025242768 -0.1396456 0.032178506
000310 32 43 7f bd 0f bc a5 bd cd d7 31 be 8c ad da 3d
       -0.06231994 -0.0809251 -0.17367478 0.10677633
000320 6d 14 3c 3e 60 73 29 3e c5 70 a8 be f1 2a 87 3b
       0.18367167 0.16547918 -0.32898536 0.004124992
000330 ff fa df bd 18 3e b6 bd 4a d4 c6 3d 52 df 23 3e
       -0.109365456 -0.08898562 0.0970846 0.16003159
000340 28 ee 9b 3d b8 5b 24 be e5 b1 86 3e ec 46 92 bd
       0.07613784 -0.16050613 0.26307598 -0.071424335
000350 9c 03 36 bd fc 78 f4 3d 8d 76 9f bc de 0e 40 be
       -0.044437036 0.119371384 -0.01946571 -0.18755671
000360 92 1f d8 3d 07 38 c6 bc b3 05 dc bc 25 8f 12 be
       0.105528966 -0.024196638 -0.026858186 -0.14312418
000370 1d 3c 60 bd 2e 99 e4 3d 49 66 cb bd 4f 60 86 3d
       -0.05474483 0.11162029 -0.09931619 0.06561338
000380 2b 47 d1 bd e7 f5 79 3d 14 54 33 be 0b 32 d6 bd
       -0.10218652 0.061025526 -0.17512542 -0.10458764
000390 96 7b e4 bd 82 e0 0b bd 72 4f 27 3b 0e 60 77 be
       -0.11156385 -0.034149654 0.002552953 -0.24157736
0003a0 93 fc 57 3d 0d 5d 47 be e9 5b 08 be 50 ea 49 3d
       0.052731108 -0.1946909 -0.13316311 0.049295723
0003b0 97 d8 89 bd f1 aa 9e be d7 b1 e0 3d 8b c8 ca 3c
       -0.06730764 -0.30989793 0.1097142 0.02475383
0003c0 d8 48 89 3d 53 48 33 bc 62 68 80 3d 50 5e 33 3d
       0.06703347 -0.010942536 0.062699094 0.043791115
0003d0 eb 19 3f 3d ab 25 c8 3d 7e 38 a1 3d 49 30 ae bd
       0.046655577 0.097728096 0.07872103 -0.085053034
0003e0 d5 16 79 be 9c 2f 02 3e fe e2 f5 bd 15 bd 59 be
       -0.24325116 0.12713474 -0.12006186 -0.21263535
0003f0 90 cc e8 3d c9 e4 e6 3d 3f 69 0a be 15 b1 03 be
       0.11367142 0.11274106 -0.1351671 -0.1286052

layer3.bias f4 [256]
000000 e6 68 fd 3d dc d4 f5 3d 56 ba 3e 3e cb 91 f3 3d
       0.123735234 0.1200349 0.18625769 0.11893042
000010 71 f0 f0 3d 5d 54 4f 3d 3b 84 e2 bd ed a3 4e be
       0.117646106 0.050617564 -0.11060377 -0.2017972
000020 66 1c fa 3d 40 f3 5d 3e 47 f9 7a 3e 75 f1 49 3e
       0.12212448 0.21674824 0.24509154 0.19721015
000030 9b 1f 1e 3e 0d 39 91 3e de 2c 67 be 3b 68 0a be
       0.15441744 0.2836384 -0.22575709 -0.13516323
000040 0c 4a 17 be e5 87 61 3e 11 4a 54 3e ae 54 7a 3e
       -0.1477434 0.22024496 0.20731379 0.24446365
000050 9e 76 fa 3c 22 9b 14 3e 16 e0 21 bd b2 75 5e 3e
       0.03057414 0.14512303 -0.039520346 0.21724585
000060 c3 38 f2 bd 05 f6 3e 3e 7e 9c 5a 3e ff 9b 2d be
       -0.11827233 0.18648537 0.2134876 -0.16954039
000070 98 bf 67 3e 3d b9 47 bd f6 28 3d 3e 55 1d 41 3e
       0.22631681 -0.04876064 0.18472657 0.18858846
000080 87 6e 14 3d ef 04 46 3e c5 8c 2e 3e 6a f4 90 3e
       0.03623822 0.1933782 0.17045887 0.28311473
000090 b3 00 0f 3d 89 bf 1b be d2 53 7d 3e 25 23 44 3e
       0.034912776 -0.15209784 0.24739006 0.19154032
0000a0 cc 78 1b be e0 11 89 3e 61 a9 6b 3e 41 5e 38 3d
       -0.15182799 0.2677145 0.23013832 0.045011763
0000b0 61 ed 62 3e 72 31 4a 3e b8 6a 05 3e 06 c5 de 3d
       0.22160865 0.19745424 0.13028991 0.10877423
0000c0 d6 51 47 3e 5c 60 64 3e 72 1c 6b 3e 07 a2 76 3e
       0.19464812 0.22302383 0.2296007 0.24085246
0000d0 38 a4 90 bd f1 cf 8b 3d 62 6a 80 3e 58 b9 6d 3e
       -0.07062572 0.06826771 0.25081164 0.23215234
0000e0 01 e7 34 3e 54 c1 b1 3c d2 80 2e 3e d8 0d 25 3e
       0.17666246 0.021698631 0.17041329 0.16118562
0000f0 8a ef 82 3e be 39 b3 3d f8 ff 8f 3e c0 17 da bd
       0.2557338 0.08751248 0.28124976 -0.10649061
000100 5e ea 6d bd e9 d0 06 3e 1b 29 6d 3e 92 c6 62 3c
       -0.058084838 0.1316563 0.23160212 0.013841288
000110 26 c9 d2 3d 95 81 d5 bd d6 25 22 3e f4 67 8c 3e
       0.10292272 -0.104251064 0.15834746 0.2742306
000120 48 1d 5c 3e ca 1e e6 bd 97 41 27 3e f8 e5 3e 3e
       0.21495545 -0.11236341 0.16333614 0.18642414
000130 d0 1f 76 3e 76 1a f2 3d 9a 3f 08 be f2 1d 4c 3e
       0.24035573 0.11821453 -0.13305512 0.19933298
000140 a9 47 03 3e be 90 d9 3d e2 35 14 3e bb 95 7b 3e
       0.12820305 0.106233105 0.1447368 0.24568836
000150 a3 82 44 3e 32 38 dd bd 3d 66 56 3e f4 7a fc 3d
       0.19190459 -0.10801734 0.20937438 0.12328139
000160 4a 0b 5c 3e 47 d2 42 3e 67 a8 4f 3e 00 74 34 3e
       0.21488681 0.19025527 0.20279084 0.17622375
000170 36 d9 65 3e 18 c4 c6 3d d9 b9 00 be da 35 2c 3e
       0.2244614 0.09705371 -0.12570895 0.16817418
000180 84 dc f2 3d a6 3e 74 3e b5 bd 02 3d 02 79 86 3e
       0.11858466 0.23852023 0.0319192 0.26264197
000190 c0 3e 48 3e b2 ad 8b 3e 43 19 a1 3b 70 cd 1e be
       0.19555187 0.27280957 0.0049163415 -0.15508056
0001a0 4e 64 53 3e 30 7c 7d 3e 08 f0 7c bd 83 31 e4 3d
       0.20643732 0.24754405 -0.06175235 0.11142256
0001b0 b1 df 56 bb 00 3d 82 3e db 39 7c 3e 0a 25 64 3e
       -0.003278714 0.25437164 0.24631445 0.22279754
0001c0 62 0d 65 3e 5a 4e b4 3d 55 9d d6 3d a2 b7 77 bd
       0.22368386 0.08804007 0.104792275 -0.06047786
0001d0 36 c4 36 3e 7b 6d 8f 3d a9 81 6c 3d 1b ae 22 3e
       0.17848286 0.070033036 0.05774084 0.15886728
0001e0 c5 3e 60 be 97 be c6 3d d9 8e 0a 3e a4 32 e5 3d
       -0.21898945 0.09704321 0.13531055 0.111912996
0001f0 51 5d 48 3e af 21 8e 3e b7 9f 77 3e 4f d9 ab 3e
       0.19566847 0.27760074 0.2418202 0.3356423
000200 3c e1 11 be d8 d4 5c 3e a8 7e 36 3e f9 c7 2e 3e
       -0.14246076 0.21565568 0.17821753 0.17068471
000210 52 f8 83 3e ad ab 04 3e 58 1b 08 3d d1 d2 71 3e
       0.2577539 0.12956114 0.033229202 0.23615576
000220 ee 63 c1 3d da 12 53 3e 91 bb 23 3e cc bb 45 be
       0.09442888 0.2061266 0.1598952 -0.1930992
000230 71 12 56 3e f9 3a 28 3e 2e 2b 81 3e de 23 2a 3e
       0.20905472 0.16428746 0.25228256 0.16615245
000240 29 0b 41 3e 17 dc 8c 3b e9 9a 93 3d 68 47 07 3e
       0.18851914 0.0042986977 0.07207281 0.13210833
000250 8e 42 5b 3e 0a 93 41 3e dd 91 4a 3e dc 74 7f 3d
       0.21412107 0.18903747 0.19782205 0.062367305
000260 05 bc a7 3d 5e 24 2e 3e cd 3b 40 3d a6 77 a7 bb
       0.08190159 0.1700606 0.04693203 -0.0051106988
000270 17 e3 0b 3e a6 34 66 3e 6d 9b 69 3e e6 ca 19 3e
       0.13660847 0.22481021 0.22813196 0.15018806
000280 3e 51 19 3e 98 32 0d bd 6f ed fa 3d 15 ba 32 be
       0.14972398 -0.034472078 0.12252318 -0.17453797
000290 19 d7 97 3e c0 5d ab bd 64 e0 83 be e0 a9 18 3e
       0.29656294 -0.08367491 -0.25757134 0.14908552
0002a0 c2 cd 9f 3d 23 b6 5f 3e 9a f4 c8 bd 18 da 44 be
       0.07802917 0.21846823 -0.09812279 -0.19223821
0002b0 b2 7d 82 3e 06 ed 31 3e 9f 57 a4 3d 92 29 89 3e
       0.25486523 0.17375574 0.08024525 0.26789528
0002c0 3d b4 4f 3d d8 bb 62 3e d0 19 bc 3d ce ef 13 be
       0.050708998 0.22141969 0.09184611 -0.14446947
0002d0 09 f2 58 3e 15 4b 49 3e 9f a4 e5 bd d3 50 fa 3d
       0.21186079 0.19657548 -0.112130396 0.12222447
0002e0 23 3b 59 3e e6 2a cc bd 1c 6c 12 3e 3e 9a 59 3e
       0.21213965 -0.0996912 0.14299053 0.21250245
0002f0 9a 65 23 3e 9f 64 6b 3e 8f 14 12 3e 22 0a c5 3d
       0.15956727 0.22987603 0.14265655 0.09621073
000300 e5 a0 99 3e eb ed 7b 3e 4f d4 5e 3e 6d d6 20 3e
       0.30005565 0.24602477 0.21760677 0.15706797
000310 1b fe ca 3d 84 96 74 3e f9 fe c7 bc a1 e1 0e 3e
       0.09911748 0.23885542 -0.024413573 0.13953258
000320 5a 62 b7 3d 61 43 5e 3e a5 76 32 3e e6 3b 2d be
       0.08954306 0.2170539 0.17428072 -0.1691738
000330 8b 1f 66 bc c6 1d cf bd 07 8b 97 bd c3 d1 03 3e
       -0.014045606 -0.10113101 -0.07399564 0.12872986
000340 88 4f 70 3e ee 4d 6f 3e 3b f5 5c 3e c5 3f b4 3d
       0.23467839 0.23369572 0.21577923 0.088012256
000350 5e 92 29 3e 28 07 65 3e 8e f1 8b 3e ff 0e d1 3c
       0.16559741 0.22366011 0.2733273 0.025519846
000360 a7 ad 58 3e e0 79 b4 3d f7 c1 10 bd ff 41 41 3e
       0.21159993 0.08812308 -0.03534123 0.18872832
000370 76 f4 97 3d ad 5a f5 3d 99 6b a9 3d 60 0c a7 3d
       0.07419674 0.11980186 0.08272476 0.08156657
000380 57 9a 2a 3e 64 88 b6 bd e0 5c 59 3e 94 63 a8 bd
       0.16660438 -0.08912733 0.21226835 -0.08222118
000390 8c 50 4c 3e 40 73 b1 bd 94 51 04 be 41 cb 84 3e
       0.19952601 -0.0866456 -0.12921745 0.2593632
0003a0 76 39 43 3e 50 b3 8c bd f4 fe 5f 3e 54 c0 74 3e
       0.19064888 -0.06870139 0.218746 0.23901492
0003b0 b8 d5 93 3c 20 65 06 3d c9 f6 d5 3d ad a5 a5 bd
       0.018046245 0.032811284 0.10447461 -0.08088241
0003c0 87 ef 38 3e 30 fd 3c 3e dd 7b 8c 3e ce 78 e9 bd
       0.18060122 0.18455958 0.2743825 -0.11399995
0003d0 66 e9 95 3d 17 21 df 3d 5d 02 57 be 06 f1 4d 3e
       0.07319908 0.10894983 -0.20996995 0.20111474
0003e0 24 1a de 3d 3b 1a 96 3a 16 f8 6b 3e f4 57 88 3d
       0.1084483 0.0011451909 0.23043856 0.06657401
0003f0 c0 8d 11 3e 47 88 db 3d 36 b9 45 3e 06 0c c1 bd
       0.1421423 0.10719352 0.19308934 -0.094261214

layer4.weight f4 [128, 256]
000000 5e 7a 8c 3e 05 46 ae bc 38 87 24 be 06 8e a3 bd
       0.2743711 -0.021273622 -0.16067207 -0.07986073
000010 4d 4d 17 bd 1c 26 fa 3c 36 fb 34 3d 62 43 42 bd
       -0.036938954 0.03053575 0.044184886 -0.047427543
000020 0f 35 fb 3c 23 33 d4 3d d1 9f 91 bc 14 24 f3 bc
       0.030664949 0.10361316 -0.017776402 -0.02968029
000030 18 e1 38 be 5c f8 9f 3d 03 a1 3d bb d4 8b 27 bd
       -0.18054616 0.07811043 -0.0028935082 -0.040904835
000040 c0 54 6c 3c 4e 3c 64 3c 19 29 52 3d 03 c5 d6 3c
       0.014424503 0.013930393 0.051308725 0.02621699
000050 0f ce 3e 3d 46 ee e9 bd 2a 82 13 3e 20 31 3b bd
       0.04658323 -0.114224 0.14405122 -0.045701146
000060 97 00 d3 3d 08 96 45 bd 85 09 22 3d 75 97 8d 3e
       0.10302847 -0.048238784 0.03955986 0.27654615
000070 94 a1 17 3b d4 c9 7f 3e 63 50 43 3d 5a 44 df 3d
       0.002313708 0.24979335 0.047684085 0.10901709
000080 b3 c8 94 3e 51 4e 06 be f1 4f cb bd 8e c3 cf 3d
       0.2905937 -0.13115813 -0.09927357 0.10144721
000090 c8 3d 9b 3c 1f b0 52 3d 78 cc 9b 3d 93 6f 2d bc
       0.018950358 0.051437493 0.07607359 -0.010585683
0000a0 fb d1 99 3d a7 d2 bf 3d 55 b3 c5 3b 74 24 cf bc
       0.07510754 0.093663506 0.006033341 -0.025285937
0000b0 21 35 7c bd fb cb 94 bd 9e 2c 17 be 57 52 00 3e
       -0.061574105 -0.07265469 -0.14763114 0.1253141
0000c0 23 00 17 bd 2b 1e 92 b9 53 d6 17 3d 0c c9 3d 3d
       -0.036865365 -0.00027869767 0.03706963 0.04633431
0000d0 f3 e9 76 3d dd 8d 02 3e 82 c4 8b bb bf fb 15 3d
       0.060281705 0.12749429 -0.004265369 0.036617037
0000e0 fd e6 d2 bc f8 2b 08 3d cb 0d be 3d ff 6a 08 be
       -0.02574491 0.033245057 0.092799746 -0.13322066
0000f0 43 3a a7 3b d2 a6 88 3c df b8 1f 3d 11 7a 24 3e
       0.005103381 0.016681109 0.038994666 0.1606219
000100 0f 5b 23 3e 88 86 1d 3e c9 82 24 3e 8b 04 0b 3e
       0.15952705 0.15383351 0.16065516 0.13575952
000110 ea 19 42 3e 2c 17 69 3d 8b a1 66 bc 9c 84 01 3e
       0.18955198 0.056906864 -0.014076601 0.12648243
000120 eb 24 ee bd 34 fe dc 3d 0f 6d fa bc a0 8e c7 3d
       -0.11628135 0.10790673 -0.030569581 0.097440004
000130 ba 9e 72 3d 66 5d 4b be 10 d9 93 3d 4c fe 82 3d
       0.059233405 -0.19859847 0.07219136 0.063961595
000140 48 93 06 3e 06 1c 1e be 47 34 f5 bc 40 6a ea 3b
       0.13142121 -0.15440378 -0.029932154 0.0071537793
000150 08 4f a0 3b 81 41 c0 bd 83 b6 48 3e 1d b9 18 3e
       0.0048922338 -0.09387494 0.19600873 0.14914365
000160 5f 3a 54 bd a8 65 87 bd 3c 53 de 3d 45 7d 9d 3d
       -0.05181348 -0.06611186 0.108557194 0.07689909
000170 1e e0 f1 3d a6 49 e2 3d ea 20 15 3d d5 ab f9 bc
       0.11810325 0.110492036 0.036408342 -0.030477444
000180 59 dd 19 3d ef 15 48 3d 52 67 28 bc 1e 0b dc bc
       0.03756461 0.048849043 -0.01027854 -0.02686077
000190 78 0e 72 bb 90 7a f6 3d fa cf 80 3d 94 44 75 3c
       -0.0036934894 0.12035096 0.062896684 0.014969964
0001a0 4f d8 7b bd 53 91 50 3d 8e 09 de 3d e5 12 30 bd
       -0.061485585 0.050919842 0.10841666 -0.04298677
0001b0 f4 f3 c6 3d 13 7e fb 3d da 81 fb 3d 75 20 83 bd
       0.09714499 0.12279906 0.122806266 -0.06402675
0001c0 fa 0f 12 3d 80 00 96 3d c7 08 31 3e 3d a6 52 3e
       0.035659768 0.07324314 0.17288505 0.20571227
0001d0 9e 31 35 be fa 7c ad bc b0 98 f4 3d e4 63 27 3d
       -0.17694709 -0.021177758 0.11943185 0.040866747
0001e0 0a 50 ed bd 2e 0e 80 3e 83 09 b4 3d fa 93 84 bd
       -0.11587532 0.25010818 0.08790877 -0.06473537
0001f0 87 ec fa bc d3 47 fc 3d c4 6f e0 3c f0 55 2c bd
       -0.030630363 0.12318387 0.027397044 -0.042074144
000200 6a 7c 57 bc 5e b6 37 bd c3 eb d6 bb 8c f9 26 bd
       -0.013152221 -0.044851653 -0.0065588667 -0.04076533
000210 96 a0 77 3d 96 13 e7 3c 84 c0 91 3d 69 6b 5a bc
       0.06045588 0.028207581 0.071167976 -0.013331273
000220 8b 4a dc bd ba 91 c1 bd 20 cb 7b 3d 32 a0 10 3d
       -0.107564054 -0.09451623 0.061473012 0.035309024
000230 ef b5 bb 3d f0 5d 2f be ec 3e 12 3e 7f 20 bf bd
       0.091655605 -0.17125678 0.14281815 -0.0933237
000240 1b 04 f1 bb 80 d6 10 3e 2a 52 7c 3d 37 6c 69 bd
       -0.0073552257 0.14144325 0.061601795 -0.056987967
000250 7f c2 b3 3d 4f b9 12 3c 80 49 31 bc 73 14 5e 3c
       0.087773316 0.008955314 -0.010820746 0.01355468
000260 71 1e 0e be c3 e9 72 3d 4d 6e b0 3d 93 fa 98 bb
       -0.138788 0.059304964 0.08614788 -0.0046685426
000270 44 9a ad bd e3 46 2f 3d 44 c0 98 3d bd 1a 50 bb
       -0.084766895 0.042792212 0.07458547 -0.0031754219
000280 09 a6 b0 bd 8f e8 a8 bd a5 e8 14 be f7 2f 1e 3e
       -0.08625419 -0.08247482 -0.14541872 0.15447985
000290 94 62 96 3d dc e1 7c 3d 5b d8 ea bc 64 a6 1d 3d
       0.07343021 0.061738834 -0.02866762 0.03848876
0002a0 fe 6b fc bd aa 27 22 3d 53 44 0b 3e aa a1 8f 3d
       -0.123252854 0.039588608 0.13600282 0.07013257
0002b0 18 93 74 3d d1 74 82 be 5b 90 4f 3e fa b3 f9 3d
       0.059710592 -0.2547975 0.20269911 0.12192531
0002c0 01 b4 85 3c 9c 42 83 3c 41 f4 47 3e 9f 58 c0 3d
       0.016321184 0.016022973 0.19526769 0.09391903
0002d0 ea 5a 06 3d 54 19 8c be 24 e0 45 be db 58 85 3d
       0.032801546 -0.27363074 -0.19323784 0.065110885
0002e0 63 e3 31 bc ff d5 c4 3b 56 ca 90 3d ed fb b4 bd
       -0.010857436 0.0060069556 0.070698425 -0.088371135
0002f0 e1 04 e9 3d 3b 45 c3 bc 6a d8 27 bd 0f 67 3e 3d
       0.11377884 -0.023836723 -0.040977873 0.046485003
000300 47 5f bc 3d 83 5b af 3d 56 f9 3b bd 57 00 1d 3e
       0.0919786 0.08562376 -0.045892082 0.15332161
000310 3a 2a db 3d 15 ab af 3d 95 68 35 3e fc 80 a4 bd
       0.107014135 0.08577553 0.17715676 -0.08032414
000320 70 d7 09 3e 7e 43 34 3d 52 e9 0b bd 2b 78 80 3d
       0.13461089 0.044009678 -0.03415806 0.0627292
000330 8e ad 02 3b 28 bc 04 be b5 39 01 3c c2 24 06 be
       0.0019939872 -0.12962401 0.007887294 -0.1309996
000340 09 cd 63 3d 11 d7 40 3d 3e 9e ad 3c 78 6b 57 3e
       0.05561546 0.047080103 0.02119362 0.2103709
000350 e1 9c 06 bb a9 37 86 bd a1 d3 ad bb 5e b9 d6 3d
       -0.0020540284 -0.06553585 -0.005304769 0.10484575
000360 95 80 dd 3c d9 28 27 3e 2c 9a 63 3e 36 6a 00 bd
       0.027038852 0.16324176 0.2222678 -0.03135129
000370 7c 58 b1 bc ee 73 b2 bd 96 89 7c 3e 57 bb 83 be
       -0.021648638 -0.08713518 0.2466186 -0.25728866
000380 f2 46 23 bc 77 0c cc 3d fb a1 68 3b f9 a6 d6 3d
       -0.009965645 0.09963315 0.0035496939 0.10481066
000390 f5 42 26 3d 7c 61 b0 3e f2 e0 b9 3c b6 4c 10 bd
       0.0405912 0.34449375 0.02269027 -0.035229407
0003a0 8d 0e a9 3d 65 f5 4f 3e e7 15 9a bd c2 8f 33 3d
       0.082547285 0.20308454 -0.07523709 0.04383827
0003b0 e2 e4 48 3d 04 93 0f 3d b7 37 67 3c d2 2c 2f 3e
       0.049046405 0.035052314 0.014112405 0.17106941
0003c0 96 70 b7 bc 9c 1a e2 bc 20 82 59 3d 58 23 35 3d
       -0.022392552 -0.027600579 0.053102612 0.04422316
0003d0 c6 e4 fc 3d 7b 00 97 bd 02 96 be bd b9 c5 93 3b
       0.123483226 -0.073731385 -0.093059555 0.0045096544
0003e0 93 9c 19 3d 04 3b a2 3e ce 9c 0d 3d e0 b3 08 3c
       0.037502836 0.3168565 0.03457337 0.008343667
0003f0 27 20 19 be cc 51 73 be 50 e0 a9 3c d5 0b 8e bc
       -0.14953671 -0.23761672 0.020736843 -0.017339626

layer4.bias f4 [128]
000000 5d a5 e0 3c 3c 22 c2 3d 1f c5 b7 3d fa 5a e8 3b
       0.027422601 0.09479186 0.08973145 0.0070909234
000010 d6 58 06 3e 7e fa 84 3c 62 d7 ce 39 2d 78 d3 bc
       0.13119826 0.016232725 0.00039451855 -0.02581414
000020 aa f1 78 3e f4 45 6d 3e 3e 24 c1 3d 71 5a 1b 3e
       0.24310938 0.23171216 0.09430741 0.1517122
000030 d8 8b 69 bd 47 d4 ed bc 33 99 08 3e d4 c1 89 bd
       -0.05701813 -0.029031886 0.13339691 -0.06726423
000040 dd f8 78 bc 98 5f c6 3c 7d d9 2e 3e 5c 3d 2a 3d
       -0.015196052 0.024215505 0.17075153 0.041562423
000050 1f 7a 9a 3b 9b 4f 19 bc 72 d3 13 3e 5c 61 5f 3e
       0.004714265 -0.009357358 0.14436129 0.21814483
000060 5c 3c eb 3d d8 94 8e bc 42 93 ba 3d b9 fe 38 3e
       0.11486122 -0.017404959 0.091101184 0.18065919
000070 fa b6 a2 3d 7a e5 c2 bd f9 59 32 bd 40 6f dc 3d
       0.07945056 -0.095164254 -0.043542836 0.10763407
000080 46 e9 c0 bd ac 29 2c 3d c0 7b 21 bb 76 b0 e0 3c
       -0.094194934 0.04203193 -0.002464041 0.027427893
000090 5f 2c d7 bc 7e b0 28 3e 96 01 57 bc 9f c2 27 3d
       -0.026266275 0.16473576 -0.013122937 0.04095709
0000a0 87 1a 12 3d 7f 8f 22 3e 31 8b 2a 3e 20 5a 6d 3e
       0.03566983 0.15875052 0.1665466 0.23178911
0000b0 04 b0 57 3d f8 52 4c be 70 d6 93 bd 70 54 53 bd
       0.052658096 -0.19953525 -0.07218635 -0.051594198
0000c0 88 82 90 bc f0 94 8c 3c fa ff 3c bd 7d a9 ae bc
       -0.017640367 0.017160863 -0.046142556 -0.021321053
0000d0 c3 bc 7d 3c 6f c9 81 3d c4 eb 3f bd b8 ec ed 3b
       0.015486899 0.063372485 -0.046855703 0.007260885
0000e0 51 5d bb bd 39 2e ea 3d 19 b8 2f 3e a1 d7 81 3e
       -0.09148658 0.114345975 0.17160071 0.25359824
0000f0 63 ef 42 be 2a 98 2d bc 5c 8a 0a 3e 71 16 00 3c
       -0.19036631 -0.010595361 0.13529342 0.00781785
000100 3f 0e 17 3e 5a 7e 23 3e 2f 00 4d 3e 7a 58 54 3e
       0.14751528 0.15966168 0.20019601 0.20736876
000110 62 66 0f 3e 68 93 3f 3e 17 1f 88 3b df 4e 1b bc
       0.140039 0.18708575 0.004154097 -0.009479254
000120 97 8c 6f 3d a2 0a ed 3d 67 70 86 bc ea aa a3 bd
       0.058483686 0.11574294 -0.01641102 -0.07991584
000130 21 b5 ad bd 08 cc e1 3d ce 95 c1 bd 8c 24 39 3e
       -0.08481813 0.11025244 -0.09452401 0.18080348
000140 f3 29 14 3e 86 b4 65 3e a2 d8 21 3e 91 53 e1 3d
       0.14469127 0.22432145 0.15805295 0.11002267
000150 bf 53 c0 3d 05 42 5d bd 19 fd 00 3e a9 de d1 bd
       0.09390973 -0.05401804 0.12596549 -0.10247547
000160 37 79 56 bc 98 74 50 3e bd 6e c0 3d 49 28 36 be
       -0.013090423 0.20356977 0.09396122 -0.17788805
000170 e9 f7 96 bb 18 87 4e 3e b8 a6 52 3e 85 22 20 3d
       -0.00460719 0.20168722 0.2057141 0.03909542
000180 45 bf e2 3d 6a 61 64 3d ea c8 8c bd a6 16 87 3d
       0.11071638 0.055756964 -0.06874259 0.06596117
000190 04 18 5e 3e fa 3d 48 3e 27 f9 d7 3d 51 d6 5b bb
       0.21688849 0.19554892 0.10545569 -0.003354449
0001a0 3a c7 5b 3e a7 03 a6 3d 53 5a 3b 3e 8a 7e 37 3e
       0.21462718 0.081061654 0.18296175 0.17919365
0001b0 6c fc 19 3e eb 37 a0 3c c8 9a 14 3e e3 3d 0f 3d
       0.15037698 0.019557914 0.1451217 0.03497113
0001c0 e4 64 00 3d c9 cd 03 3e 1e 1d 03 3e 34 68 ed bb
       0.031346217 0.1287147 0.12804076 -0.007245088
0001d0 65 80 a3 bb 38 86 3e 3e 38 3e 96 3d c8 8a 52 3d
       -0.004989671 0.18605888 0.07336086 0.051401883
0001e0 b4 ba d0 3d 5f 95 36 3e a3 0f 3b 3e 29 72 47 3e
       0.10191861 0.17830418 0.18267684 0.19477142
0001f0 e8 55 36 3e ce b6 1f 3e 9d 59 0c 3d fc 43 05 3e
       0.17806208 0.15597078 0.03426515 0.13014215
