PPO/ppo_critic.pth (torch, 546027 bytes, 9 tensors)

layer1.weight f4 [128, 29]
0	0xc030d39b	-2.7629154
1	0x400efe68	2.2342777
2	0xc0375ec6	-2.8651595
3	0xbfbefb5c	-1.4920459
4	0x3ef9c615	0.48783937
5	0xbf51922c	-0.81863666
6	0xbf8fe49e	-1.1241643
7	0xc00f911a	-2.2432313
8	0xbfa5b9eb	-1.2947363
9	0xbd7a1e57	-0.06106409
10	0x3ff1aceb	1.8880895
11	0x3e82b105	0.2552568
12	0x3fcbaad8	1.5911512
13	0x3f7b07b7	0.98058647
14	0xbf70c34f	-0.9404802
15	0xbe0bbf7d	-0.13647266
16	0x3ef08088	0.46973062
17	0x3f3fb30a	0.74882567
18	0x3ea73faf	0.32665774
19	0xbed78c2d	-0.42099133
20	0xbf8d0919	-1.1018401
21	0x3ebe81b8	0.37208343
22	0x3e902c29	0.28158692
23	0xbf35a77c	-0.70958686
24	0xbe41bb27	-0.18919049
25	0x3f19e053	0.60107917
26	0x3eaeabf8	0.34115577
27	0x3ecaede5	0.39634624
28	0xbe24484d	-0.16043206
29	0xbf5d1a9b	-0.8636872
30	0xbf5e4673	-0.86826247
31	0xbff4635a	-1.909282
32	0xbff7b0cf	-1.9350833
33	0xc08d27c1	-4.411103
34	0x3f26eefc	0.6520841
35	0x3d181483	0.037128936
36	0xbdd12c85	-0.102135696
37	0xbf9d42db	-1.2286028
38	0xbe82a504	-0.25516522
39	0x3f832920	1.0246925
40	0x3ec1620f	0.37770125
41	0x3fab4b45	1.3382345
42	0x3d9d86c2	0.07691719
43	0xbfb985c6	-1.449395
44	0x3e699c7d	0.22813602
45	0xbf3ff9b7	-0.7499041
46	0xbf6f2785	-0.93419677
47	0x3f2bdc14	0.6713269
48	0xbdfccaa7	-0.1234334
49	0xbde2137f	-0.11038875
50	0xbe840c51	-0.25790647
51	0x3e0c461f	0.13698624
52	0x3d6ef349	0.058337484
53	0x3f844726	1.0334213
54	0xbe4d5a76	-0.2005404
55	0x3ea2740f	0.3172917
56	0xbe9a31b8	-0.30116057
57	0xbeabef36	-0.3358094
58	0xbf933349	-1.1500026
59	0x3e81740b	0.25283846
60	0xbfd72997	-1.6809567
61	0x3fd5674c	1.6672149
62	0x3f6815c8	0.90658236
63	0x3e844943	0.25837144
64	0xbf8f02bc	-1.117271
65	0xbdf8cb28	-0.12148124
66	0xc005bcb0	-2.0896416
67	0x3fa8488c	1.314714
68	0x3faac828	1.3342333
69	0xbeca8a3b	-0.39558586
70	0x3fb92e13	1.4467186
71	0x3e748b56	0.23881277
72	0xbf9026f3	-1.1261886
73	0x3eedcf39	0.4644716
74	0xbeb9551d	-0.3619775
75	0x3faea5ff	1.3644408
76	0xbf8234eb	-1.0172399
77	0x3dbfab87	0.09358888
78	0x3e1c4be1	0.1526332
79	0x3eac9dd7	0.33714172
80	0x3d9119bb	0.07084986
81	0x3e929cc4	0.28635228
82	0x3e58d0e3	0.21173434
83	0xbeb4312e	-0.3519377
84	0xbeefc6c7	-0.46831343
85	0xbe063364	-0.13105541
86	0x3e131a9d	0.14365621
87	0xbf36564a	-0.71225417
88	0x3f127ead	0.5722454
89	0xbff65b88	-1.9246683
90	0xc009b855	-2.1518757
91	0xc007ba99	-2.120764
92	0xbef2fa8f	-0.47456786
93	0x3ff5ac5d	1.9193226
94	0xbe9d5f34	-0.30736697
95	0xc01d8d72	-2.4617581
96	0x3f33573a	0.7005497
97	0x40097819	2.1479552
98	0xbe3d8a65	-0.18509825
99	0x4013938c	2.3058805
100	0x3f6dabe3	0.92840403
101	0xc016991d	-2.3530953
102	0xc00a323f	-2.1593168
103	0x3f0b3649	0.5437971
104	0xbf86e4e2	-1.05386
105	0xbec32cdf	-0.3812017
106	0xbf191768	-0.5980134
107	0xbec86b98	-0.39144588
108	0x3ec2818a	0.37989455
109	0xbefd42d7	-0.49465057
110	0x3f44339e	0.7664126
111	0xbea316cf	-0.3185334
112	0x3e3e4e4f	0.1858456
113	0xbebb8508	-0.36624932
114	0x3e3663f3	0.17811565
115	0x3d5e560e	0.054281287
116	0xbfbe0314	-1.4844689
117	0xbeea8939	-0.45807818
118	0xbfc33dbb	-1.5253214
119	0xbbae363d	-0.0053165243
120	0xbfeb5988	-1.8386698
121	0xbfd3c1cf	-1.6543521
122	0x3f4b394b	0.793843
123	0x3e8f5587	0.2799494
124	0xbf597dd5	-0.8495763
125	0xbee41638	-0.44548202
126	0x3f1d568e	0.61460197
127	0xbe667ccb	-0.22508542
128	0x3f6836ac	0.9070842
129	0xbf5125bc	-0.81698203
130	0xbf5fcf04	-0.87425256
131	0xbf7f5e49	-0.9975324
132	0xbf368b8e	-0.71306694
133	0x3f67a15a	0.9048058
134	0x3f772ed7	0.96555847
135	0x3f479a79	0.7797008
136	0x3e024906	0.12723169
137	0xbe86a4d4	-0.2629763
138	0xbebe2a5e	-0.371417
139	0xbe8f2bd2	-0.2796312
140	0x3e2d9cba	0.16954318
141	0xbca8200f	-0.0205231
142	0x3f38f471	0.7224799
143	0x3d3dd482	0.04634524
144	0xbf29cb3e	-0.6632575
145	0xbf94bb42	-1.1619647
146	0xbf5af807	-0.8553471
147	0xbf8ee4a4	-1.1163526
148	0xbf635d81	-0.8881455
149	0xc09649a7	-4.696491
150	0xbed92b6b	-0.42415938
151	0x3c79f854	0.01525696
152	0x3ea64d26	0.32480735
153	0xbfaaf3e4	-1.335568
154	0xbe1e5be2	-0.15464738
155	0x3f9cb3ae	1.2242334
156	0xbebe580d	-0.37176552
157	0x3fa338b0	1.2751675
158	0xbfcf3232	-1.6187193
159	0xbf93be3a	-1.1542428
160	0xbe403aca	-0.18772426
161	0x3e175f87	0.14782535
162	0xbfe0695c	-1.7532153
163	0xbf84da85	-1.0379187
164	0x3d996daa	0.0749162
165	0x3f175186	0.5910877
166	0x3e254b49	0.16142
167	0x3d944ae8	0.0724085
168	0x3f2969e4	0.661772
169	0xbeb7d965	-0.35908046
170	0xbee1828c	-0.44044912
171	0xbf7f3c50	-0.99701405
172	0xbddf01a8	-0.10888988
173	0xbc0c5789	-0.008565792
174	0x407e6fd4	3.9755754
175	0xbfe2946c	-1.7701545
176	0xbfcb4443	-1.5880207
177	0xc03001f3	-2.750119
178	0x400b051b	2.1721866
179	0x3f8a596d	1.080854
180	0xbfba13ea	-1.4537327
181	0xbfbe8b79	-1.4886314
182	0x3ed7d534	0.4215485
183	0xc001ae8d	-2.0262787
184	0xbea36fd0	-0.31921244
185	0x3f8d3243	1.1030964
186	0xbf21f8a7	-0.6327004
187	0x3f56b120	0.8386402
188	0xbd5c794c	-0.053826615
189	0xbf95f7a1	-1.1716195
190	0x3f1f9d9c	0.6234987
191	0xbfc8b6d2	-1.5680792
192	0x3ee26649	0.44218662
193	0xbdba882f	-0.09108006
194	0x3e24c508	0.16090786
195	0xbea8383c	-0.32855403
196	0x3f070975	0.52748805
197	0xbf1a5ac2	-0.60294735
198	0x3f499ccd	0.78754884
199	0xbf76fc49	-0.96478707
200	0xbc707d5d	-0.014678326
201	0x3f746ec7	0.9548153
202	0x3f81a7db	1.012935
203	0xbf6fbb9b	-0.9364564
204	0xbf23f7ce	-0.64049995
205	0x3f3464b1	0.7046614
206	0x3f8088ce	1.004175
207	0xbf83c654	-1.02949
208	0x3f9041b3	1.127005
209	0xbf73e757	-0.9527487
210	0xbea710fb	-0.32630143
211	0x3e3c0df2	0.18364695
212	0x3e412cd3	0.18864755
213	0xbebf8dcc	-0.3741287
214	0xbebd5b98	-0.36983943
215	0xbe158127	-0.14600049
216	0xbe3d9ed2	-0.18517616
217	0x3edf921c	0.4366616
218	0xbf8431fb	-1.0327753
219	0xbf0184f8	-0.5059352
220	0x3e01a92b	0.12662189
221	0xbfa5ec36	-1.2962711
222	0x3f1af039	0.605228
223	0xbf9be23b	-1.2178415
224	0x3ecefd9f	0.40427873
225	0xbd8429e6	-0.06453304
226	0x3eb99f6c	0.36254442
227	0xbe9e2c11	-0.30892995
228	0xbe129d6f	-0.14317869
229	0xbecc5596	-0.39909047
230	0xbb28ecaf	-0.002577584
231	0x3e9f3c62	0.31100756
232	0x4002bd0d	2.0427887
233	0xc03da3fa	-2.9631333
234	0xbe89ee36	-0.26939553
235	0xbfced2a0	-1.6158028
236	0xbfa4dd8b	-1.288011
237	0xbef34a96	-0.47517842
238	0x4038f924	2.8902063
239	0x3fe2d236	1.7720401
240	0xbf3aae56	-0.72922266
241	0xbe8e52d4	-0.27797568
242	0x3e7f2280	0.24915504
243	0xbfa286af	-1.2697352
244	0x3f1037dd	0.5633524
245	0xbfbf31e9	-1.4937106
246	0xbe9c449c	-0.30521095
247	0x3e59a90e	0.21255895
248	0x3f2a20a4	0.66456056
249	0xc0029286	-2.040193
250	0x3fc28fc1	1.520012
251	0xbf4e2216	-0.8052076
252	0xbf306cd4	-0.6891606
253	0xbcfdf626	-0.031001162
254	0xbfa8a740	-1.3176041
255	0x3f8a1924	1.0788922

layer1.bias f4 [128]
0	0xbfbea54a	-1.4894192
1	0xbf8d6e93	-1.104937
2	0x3fa33290	1.2749805
3	0xc0041f63	-2.0644157
4	0x3f0eb3b1	0.5574294
5	0xbfc71a02	-1.5554812
6	0x3e3d6140	0.18494129
7	0x3fff8815	1.9963404
8	0xbfa10c62	-1.2581904
9	0x3dc23bf0	0.094840884
10	0xbee0acfe	-0.43881983
11	0x3fb917ff	1.4460448
12	0x3fc9b6b1	1.5758878
13	0x3fcf4701	1.6193544
14	0xbf9393bd	-1.1529461
15	0xbef01c3e	-0.46896547
16	0x3fa390e1	1.2778589
17	0xc00aa836	-2.1665168
18	0xbf1d29b0	-0.61391735
19	0x3f46d08a	0.77661955
20	0xbf7d9fb3	-0.99071807
21	0xbe32d7b2	-0.17465094
22	0xc0250afd	-2.5787957
23	0xbfbc76c3	-1.4723743
24	0x3f5528f0	0.8326559
25	0x3fb8c9e1	1.4436609
26	0x3f1eb023	0.61987513
27	0x3ff807a4	1.9377332
28	0xbfc82083	-1.5634922
29	0xbfcb6104	-1.5888982
30	0xbff0e494	-1.8819757
31	0x3e9df1ac	0.30848444
32	0x3fd3eb75	1.6556231
33	0xc000400b	-2.0039089
34	0xbff5fc98	-1.921771
35	0xbff8aff9	-1.9428703
36	0x3f3c418f	0.73537534
37	0xbf5dea0f	-0.8668527
38	0x4012436d	2.2853653
39	0x3f066301	0.5249482
40	0xbf22d13b	-0.6360051
41	0xbe7fc90a	-0.24979034
42	0xbfd7bb46	-1.6854026
43	0xc072f586	-3.7962356
44	0xbfafb410	-1.3726826
45	0x3f183e81	0.59470373
46	0xbf7d4b23	-0.98942775
47	0xbfe50d58	-1.7894697
48	0xbff1ee55	-1.8900858
49	0x3f772b17	0.96550125
50	0xbf46245c	-0.7739923
51	0xbe24b59f	-0.16084908
52	0xbe2be107	-0.1678506
53	0xbf14b341	-0.5808602
54	0x3d9700a4	0.07373169
55	0x4001472c	2.019969
56	0xbf112710	-0.5670023
57	0xbfa1ecb9	-1.2650367
58	0x3efd7509	0.49503353
59	0xbfca6f67	-1.5815247
60	0x3d22aeae	0.03971737
61	0xbe05e0e3	-0.13074069
62	0xbf06ede2	-0.5270673
63	0xbf1876eb	-0.59556454
64	0xbf1ce32b	-0.6128413
65	0x3ec6eeac	0.38853967
66	0x3f06dc6b	0.5268008
67	0x3fca7706	1.5817573
68	0x3ebdbf4d	0.37060013
69	0xbfb59ea9	-1.4189044
70	0xbf4e7893	-0.8065273
71	0xc050cca6	-3.2624907
72	0x3fe87f23	1.8163799
73	0x3f381324	0.71904206
74	0xbf956389	-1.1671001
75	0xbf46dae0	-0.77677727
76	0x3fc656db	1.5495256
77	0xc05b2a0f	-3.424442
78	0x3ed70908	0.41999078
79	0x3f9b3ea3	1.212849
80	0x3ffe980d	1.9890152
81	0xbf6b5ceb	-0.91938657
82	0x3f7ff224	0.9997885
83	0xc02e52f8	-2.723814
84	0x3fd2d034	1.6469789
85	0x3f6dbf18	0.9286971
86	0xbfa69842	-1.3015215
87	0x3e41bac4	0.18918902
88	0x3fa6b41e	1.3023717
89	0xbff2e127	-1.8974961
90	0x3fd18453	1.6368507
91	0x3e83e8c8	0.25763535
92	0x3f8bfbd4	1.0936227
93	0xbf28ad5e	-0.6588954
94	0xbf505f44	-0.81395364
95	0x3e5571f4	0.20844251
96	0xbfef2888	-1.8684244
97	0xbf9134e8	-1.1344271
98	0xc002bf4b	-2.0429256
99	0x3fed90a0	1.8559761
100	0xbf1c4442	-0.61041653
101	0xbf089b6a	-0.53362143
102	0x3d485328	0.04890743
103	0xbe13bd23	-0.14427619
104	0x400a9fd1	2.1660044
105	0xbeb86f4e	-0.3602242
106	0xbf61def9	-0.88230854
107	0xbf9acbb9	-1.2093421
108	0x3fa11b0e	1.2586381
109	0xbfc87191	-1.5659658
110	0xbeaedf70	-0.34154844
111	0xbff87d96	-1.9413326
112	0xbe904195	-0.28175035
113	0xbf8b1b9a	-1.0867798
114	0xbe9f83f4	-0.3115536
115	0x3fbaa7ee	1.4582498
116	0x3d8d128f	0.068883054
117	0xc017ea35	-2.3736699
118	0xbf2b9de8	-0.6703782
119	0xc015ec9c	-2.3425665
120	0xbf18e974	-0.5973122
121	0xbd81b851	-0.06333984
122	0x3ecc3d52	0.39890534
123	0xbfc6d590	-1.5533924
124	0xbfc05b07	-1.5027779
125	0xbf15e6f9	-0.5855556
126	0x3f53a02f	0.82666296
127	0x3f80ddcd	1.0067688

layer2.weight f4 [256, 128]
0	0xbc94c598	-0.018160626
1	0xbd4204fe	-0.047368042
2	0xbd1ab1b2	-0.03776712
3	0xbc202e87	-0.009776718
4	0xbe163997	-0.14670406
5	0xbe175f7e	-0.14782521
6	0xbddb3264	-0.107029706
7	0xbdd65de8	-0.1046713
8	0xbcf41646	-0.029795777
9	0x3b6b7dde	0.0035933177
10	0xbdd01fb7	-0.10162299
11	0xbd4e22c3	-0.05032612
12	0xbe17dd6b	-0.14830558
13	0xbe267e1e	-0.16259047
14	0xbd03e0fb	-0.03219698
15	0xbdc66704	-0.096876174
16	0xbdfb186d	-0.12260518
17	0xbd4b005f	-0.0495609
18	0x3c7196bd	0.014745411
19	0xbdebcbea	-0.11513503
20	0x3d46c669	0.048529062
21	0xbdbc3882	-0.091904655
22	0x3d4ec4b9	0.050480578
23	0xbd96bb3b	-0.0735993
24	0xbd611c9f	-0.054958936
25	0xbd995564	-0.0748699
26	0xbca01ea0	-0.019545853
27	0xbe08596a	-0.13315359
28	0xbdb73e16	-0.08947389
29	0xbdb3a9d6	-0.08772628
30	0xbda8d5a4	-0.08243874
31	0xbdae37c6	-0.08506732
32	0xbe2767bd	-0.16348167
33	0x3cac3d6a	0.021025378
34	0x3c7194a6	0.014744913
35	0xbe0df712	-0.13863781
36	0xbd32c596	-0.043645464
37	0x3c0bcd32	0.008532809
38	0x3c3c4fb6	0.011493614
39	0xbdeee21a	-0.11664219
40	0xbc7ad152	-0.015308695
41	0xbd9799d7	-0.074023895
42	0xbd4dd7f0	-0.050254762
43	0xbbb4bf36	-0.005515958
44	0x3c59cff4	0.013294209
45	0xbe095b42	-0.13413718
46	0xbdb00550	-0.08594763
47	0xbd33be2f	-0.043882545
48	0xbe3edbb2	-0.18638495
49	0x3debe4ef	0.11518275
50	0xbe35551f	-0.17708252
51	0xbd46109a	-0.048355676
52	0x3d8a61d0	0.067569375
53	0xbe21398f	-0.15744613
54	0xbd3d8dfc	-0.046277985
55	0xbe1b04c8	-0.15138543
56	0xbc342384	-0.010994796
57	0xbe350cb7	-0.17680632
58	0xbe07ddcb	-0.13268201
59	0xbcc0ae4c	-0.023520611
60	0x3d46ffde	0.048583858
61	0xbdd9a0b4	-0.10626355
62	0xbd2a2ea4	-0.041548386
63	0x3d1666ff	0.03671932
64	0xbe367a32	-0.17820051
65	0xbe458284	-0.19288069
66	0xbdbf8d12	-0.09353079
67	0xbdb4284e	-0.0879675
68	0xbe1e6d78	-0.15471447
69	0xbd018f86	-0.031631015
70	0xbd9c09f5	-0.07619087
71	0xbd6f031f	-0.058352586
72	0xba3adcd1	-0.0007128241
73	0xbd16f288	-0.03685239
74	0xbd1c1a4c	-0.038111016
75	0xbd4c3444	-0.049854532
76	0xbd0076a0	-0.03136313
77	0xbdd71e6e	-0.10503851
78	0xbdb6ad33	-0.08919754
79	0xbcbe33ca	-0.023218054
80	0xbdf475df	-0.119365446
81	0xbe3e5d93	-0.18590383
82	0xbd5f8ce6	-0.05457773
83	0xbde469ec	-0.111530155
84	0xbb9b421d	-0.004738106
85	0xbd8ba72c	-0.06818995
86	0xbd820069	-0.063477345
87	0xbd598193	-0.053102087
88	0xbdc42b9d	-0.09578631
89	0x3d0d1456	0.034443222
90	0xbc6987c6	-0.014253562
91	0x3d88c7ef	0.06678759
92	0xbe4d4f5e	-0.20049807
93	0x3d213b94	0.03936346
94	0xbdd55566	-0.10416679
95	0xbc1e4133	-0.009659099
96	0x3d348833	0.044075202
97	0xbd83d2a6	-0.064366624
98	0x3d382cf7	0.044964757
99	0xbdf999ee	-0.12187563
100	0x3d01c7e0	0.031684756
101	0xbd366167	-0.044526484
102	0xbd85d125	-0.06534032
103	0xbdaaa4c6	-0.08332209
104	0x3c788994	0.01516952
105	0xbd182533	-0.03714485
106	0xbdc70603	-0.097179435
107	0xbdc553f7	-0.09635156
108	0xbe323e37	-0.17406546
109	0xbb45ec5e	-0.00302007
110	0xbbea2b2e	-0.0071462607
111	0x3d52b18a	0.051438846
112	0xbd93df5e	-0.07220338
113	0xbdfb7186	-0.12277512
114	0xbcc07702	-0.023494247
115	0x3d620b2c	0.055186436
116	0xbbcd8862	-0.0062723616
117	0xbdc08108	-0.09399611
118	0xbdaf25b1	-0.08552111
119	0xbc72df98	-0.014823817
120	0xbc226a30	-0.009913012
121	0xbd371758	-0.044699997
122	0xbbfbbf45	-0.007682713
123	0xbd701bea	-0.05862037
124	0xbd27bbe7	-0.040950682
125	0xbc532daa	-0.012889305
126	0xbe4f3e86	-0.20238695
127	0xbd87d6a6	-0.06632738
128	0xbe25c465	-0.161882
129	0xbe784787	-0.24246036
130	0xbe9a52db	-0.3014134
131	0xbd669cea	-0.05630199
132	0xbe381fd4	-0.17980891
133	0xbd2524a9	-0.040318165
134	0x3cabc980	0.020970106
135	0xbe4e771e	-0.20162627
136	0xbdb16271	-0.08661354
137	0xbd3e8a19	-0.04651842
138	0xbd73dec7	-0.05953863
139	0xbe00e45d	-0.12587114
140	0xbdc59bf6	-0.09648888
141	0xbdad83ad	-0.08472381
142	0xbd85d2eb	-0.0653437
143	0xbe2bfc57	-0.16795479
144	0x3c96a62b	0.018389782
145	0xbe08dacd	-0.13364716
146	0xbe095c16	-0.13414034
147	0xbd954d16	-0.072900936
148	0xbdb120af	-0.08648812
149	0xbe27e161	-0.16394569
150	0xbf1f71aa	-0.6228281
151	0xbec10908	-0.37702203
152	0xbc1335a5	-0.008984958
153	0xbd2f9739	-0.042868827
154	0xbe132441	-0.14369299
155	0xbdc78586	-0.097422644
156	0xbe658390	-0.22413468
157	0x3c156ea1	0.009120614
158	0xbe9bb190	-0.30408907
159	0xbdcfccb9	-0.101464696
160	0xbe265663	-0.16243891
161	0xbe846fcc	-0.25866544
162	0xbe3c30a0	-0.18377924
163	0xbecfa633	-0.40556487
164	0x3d1c1690	0.038107455
165	0xbe424e1e	-0.18975112
166	0xbcdc2222	-0.026871745
167	0xbd4d8e69	-0.05018464
168	0xbddec8cf	-0.10878145
169	0xbd4b6019	-0.049652193
170	0xbe16ae72	-0.14714983
171	0xbf1a03fa	-0.6016232
172	0xbddc2aa3	-0.1075032
173	0xbebf44fe	-0.37357324
174	0xbe166de8	-0.14690363
175	0xbe62a7d4	-0.22134334
176	0xbeb5aca9	-0.35483292
177	0xbe1d13e9	-0.15339626
178	0xbd5db921	-0.05413163
179	0xbe90e328	-0.28298306
180	0xbe253db1	-0.16136815
181	0xbdb5bb9c	-0.08873674
182	0xbdbd9d49	-0.092585154
183	0xbe17f693	-0.14840154
184	0xbdb414d3	-0.087930344
185	0xbd401025	-0.046890397
186	0xbe4301ae	-0.1904361
187	0xbe7da3c5	-0.24769504
188	0xbe8d88e9	-0.27643517
189	0xbd2241d6	-0.039613567
190	0xbe2856d1	-0.16439368
191	0xbe286119	-0.1644329
192	0xbde7294b	-0.11287173
193	0xbe43a498	-0.19105756
194	0x3c017b32	0.007902907
195	0xbe77690c	-0.24161166
196	0xbd3767ca	-0.044776715
197	0xbd2aa660	-0.041662574
198	0xbc276dce	-0.010219051
199	0xbf49e798	-0.7886901
200	0x3d83b9fb	0.06431957
201	0xbe860198	-0.2617309
202	0xbe56fb5d	-0.20994325
203	0xbe71e5e5	-0.23622854
204	0xbde64fe1	-0.112457044
205	0xbf18e4ab	-0.5972392
206	0x3c0a2d35	0.00843363
207	0xbe272d77	-0.16325937
208	0xbe185b26	-0.1487852
209	0xbcc20df7	-0.0236883
210	0xbe0c1a81	-0.13681985
211	0xbe3e9ed4	-0.18615276
212	0xbdbe9f1b	-0.09307691
213	0xbe2429b5	-0.16031535
214	0xbe18c30e	-0.14918157
215	0xbe1ffa5d	-0.1562285
216	0xbdc6871f	-0.09693741
217	0xbda6bb49	-0.081411906
218	0xbd53e8b7	-0.051735606
219	0xbddf0d53	-0.10891213
220	0xbe687d2f	-0.22704004
221	0x3c4125e1	0.011788816
222	0xbdbf6379	-0.09345145
223	0xbdeac012	-0.11462416
224	0xbe02bc0a	-0.12767044
225	0xbec227d8	-0.37921023
226	0xbe77c398	-0.24195707
227	0xbdaf9bb4	-0.0857462
228	0xbdc779c0	-0.09740019
229	0xbe1c9019	-0.15289344
230	0xbe510075	-0.2041033
231	0xbe17a839	-0.14810266
232	0xbed15d3e	-0.4089145
233	0xbe3f696c	-0.18692559
234	0xbd908773	-0.07057085
235	0x3d4f40d7	0.050598945
236	0xbe9eeaae	-0.3103842
237	0xbcdf0656	-0.0272247
238	0xbd7b14e4	-0.06129922
239	0xbea3b8c1	-0.31976894
240	0x3e357bc1	0.1772299
241	0xbe1eb2f1	-0.15497948
242	0xbe82ee78	-0.25572562
243	0xbd92532b	-0.07144769
244	0xbdf61016	-0.12014787
245	0xbe9a956e	-0.3019213
246	0xbd7ac7a8	-0.061225563
247	0xbe029d3d	-0.12755294
248	0xbe762211	-0.24036433
249	0xbe6c51b7	-0.23078047
250	0xbe06c466	-0.13160858
251	0xbe32fc5b	-0.17479078
252	0xbe1f095b	-0.15530913
253	0xbe8325bf	-0.25614735
254	0xbd565803	-0.05233003
255	0xbe01938f	-0.12653945

layer2.bias f4 [256]
0	0xbdef3893	-0.116807126
1	0x3f01f677	0.507667
2	0xbf704c71	-0.9386664
3	0x3fc17641	1.5114213
4	0x3edfe63c	0.43730342
5	0x3de4c18c	0.11169729
6	0x3cc6ad24	0.024252482
7	0x3eaed851	0.3414941
8	0x403f81b5	2.9922917
9	0x400c0ac9	2.1881583
10	0x3fed82d8	1.8555555
11	0x3ec428dc	0.38312423
12	0xbff9dd76	-1.952071
13	0x3df6f633	0.120586775
14	0xbe35d963	-0.17758708
15	0x3d1580eb	0.0364999
16	0x3f60afd0	0.8776827
17	0xbec3c3bf	-0.3823528
18	0x3e9070d7	0.2821109
19	0x3fec95e3	1.8483242
20	0xc0134f96	-2.3017325
21	0x3e97e3b6	0.29665917
22	0x3fc5f93e	1.5466688
23	0xbea245c9	-0.31693867
24	0x3faab77c	1.3337245
25	0x3dbdf883	0.092759155
26	0x3f9c6bae	1.2220361
27	0xbdca7345	-0.09885267
28	0xbefd615a	-0.49488336
29	0xbdda1bbd	-0.10649822
30	0xbe378f44	-0.17925745
31	0xbdd1997c	-0.10234353
32	0x3f29ab28	0.6627679
33	0x3f645f71	0.8920813
34	0x3f96fccd	1.1795899
35	0x4013438d	2.300998
36	0x3fdeea55	1.7415262
37	0x3fbf78df	1.4958762
38	0xbc8700a6	-0.016479801
39	0x3f8fe213	1.1240867
40	0x3fc78766	1.5588195
41	0xbe1c2799	-0.1524948
42	0x3fcf1eec	1.6181312
43	0x3c1bc676	0.009507766
44	0x3f3c4448	0.7354169
45	0x3d8cd0e4	0.0687578
46	0x4030f818	2.7651424
47	0xbceef8ef	-0.029171435
48	0x3f999ddc	1.20013
49	0xbdbeac0a	-0.093101576
50	0xbe9144d4	-0.28372824
51	0xbd353ba7	-0.044246342
52	0xbd2f7f41	-0.04284597
53	0x3fda65d4	1.7062325
54	0xbf128684	-0.57236505
55	0xbf8bbf50	-1.0917759
56	0x3f9e5285	1.2368933
57	0x3f3f2dd6	0.74679315
58	0xbb6bb087	-0.0035963373
59	0xbdbcf0a7	-0.09225588
60	0xbf9e8a79	-1.2386009
61	0x3f1ccc80	0.6124954
62	0x3f073593	0.5281612
63	0x4035bcc5	2.8396466
64	0x4008245c	2.1272192
65	0x3fb804ec	1.4376502
66	0x3fcbebc4	1.5931325
67	0x3df51730	0.11967313
68	0x3f1e0dec	0.61739993
69	0x3f707e63	0.9394285
70	0x3ddd2b8d	0.10799322
71	0x3f653c6a	0.8954531
72	0xbd775423	-0.060382973
73	0xbde7b9d8	-0.11314744
74	0x3f0fd15e	0.56178844
75	0x3e7cf120	0.24701357
76	0x3e259038	0.16168296
77	0x3f8dec55	1.1087748
78	0x3f9df733	1.2341064
79	0x3f0e6e96	0.5563749
80	0x3d6e7b99	0.05822334
81	0x3f808aa2	1.0042307
82	0xbe394caa	-0.18095651
83	0x40283511	2.628239
84	0xbe8125a7	-0.2522404
85	0xbde95fc5	-0.1139522
86	0x401426ac	2.3148603
87	0x403fd3b3	2.997296
88	0x3fa9cf17	1.3266324
89	0x3f32c8fa	0.69837916
90	0x3f4a4a0e	0.7901925
91	0xbeb2d9a8	-0.34931684
92	0x3f31a235	0.69388133
93	0x404a8149	3.164141
94	0x3fd0a799	1.6301147
95	0x3f94ab7a	1.161483
96	0x3ff50294	1.9141412
97	0xbe57289d	-0.21011586
98	0x3f98b65a	1.1930649
99	0xbd7bdc38	-0.061489314
100	0x3eb13220	0.34608555
101	0x3edaebef	0.42758128
102	0x400264de	2.0374064
103	0x3ef8efb0	0.48620367
104	0x401ffb55	2.499715
105	0x3d06afeb	0.032882612
106	0xbe3a3223	-0.18183188
107	0x3f46ba08	0.7762761
108	0x3e9781dc	0.29591262
109	0x3f8dfb6f	1.1092356
110	0x3f68d498	0.9094939
111	0x406c37aa	3.6908975
112	0xbea45afd	-0.3210067
113	0xc024f951	-2.577717
114	0xbe95fa41	-0.2929249
115	0x405b467b	3.4261768
116	0x3f07da4d	0.53067476
117	0x3eb20bc9	0.34774616
118	0xbd2eefe4	-0.042709246
119	0xbf07870e	-0.5294045
120	0xbe2da078	-0.16955745
121	0x3f960abb	1.1722025
122	0x3b5d1429	0.003373394
123	0x3f9f934b	1.2466825
124	0x3db31228	0.087436974
125	0xbe4b855c	-0.19875091
126	0x3c73473c	0.014848527
127	0xbf0fdc5e	-0.5619563
128	0xbfb2ad17	-1.3959073
129	0x3f79efe5	0.97631675
130	0x3de7a5a1	0.11310888
131	0xbcd489ee	-0.025944676
132	0xbd9dc9dd	-0.07704518
133	0x3ebb915d	0.3663434
134	0xbe0dfb15	-0.13865311
135	0xbe7c0dc9	-0.24614634
136	0x3f197ddd	0.5995768
137	0x3f95d62d	1.1705986
138	0x3fcdb9a0	1.6072273
139	0x3f23b368	0.6394563
140	0x40003187	2.003023
141	0x3f6a5658	0.91538
142	0x3ef26659	0.4734371
143	0x3d0a1323	0.033709656
144	0x3e5c1ed0	0.21496129
145	0x3eedeeb1	0.4647117
146	0x405d786e	3.4604754
147	0x3d9a8b79	0.075461335
148	0x3e90fc96	0.28317708
149	0xbeec809a	-0.46191865
150	0x3ef76b71	0.4832416
151	0xbda4cd2e	-0.080469474
152	0x3ffedfdf	1.991207
153	0x3ccf78bf	0.02532613
154	0xbe45b4b7	-0.19307218
155	0xbe1944c4	-0.14967638
156	0x3f4d0fc3	0.80102175
157	0xbd37b5f3	-0.044851255
158	0xbef06477	-0.4695165
159	0x3f619721	0.8812123
160	0x3d0ccbad	0.034373928
161	0xbeb7847b	-0.35843262
162	0x3fabb871	1.3415662
163	0x402e49a4	2.7232447
164	0xbde26bff	-0.11055755
165	0x400fbe12	2.245976
166	0x3f9f2d6d	1.2435738
167	0x400d6e66	2.2098632
168	0x3fc52c79	1.5404197
169	0x3ee63fbe	0.44970506
170	0x404120f8	3.0176373
171	0x3cac3642	0.021021966
172	0x3e156253	0.14588289
173	0x3e40b968	0.18820727
174	0x3f796484	0.97419
175	0x3f536542	0.8257638
176	0xbd8efdb0	-0.06981981
177	0x3efb0a58	0.4903133
178	0x3e808d47	0.25107786
179	0x3e38b5b9	0.18038072
180	0xbe396bc0	-0.1810751
181	0xbe60da6d	-0.21958323
182	0xbe4912c6	-0.19636068
183	0xbeefc093	-0.4682661
184	0x3f86ae42	1.0521929
185	0x3f1b1a77	0.6058726
186	0xbcd69e37	-0.02619849
187	0xbd52e6f4	-0.051489785
188	0xbe18c8dc	-0.14920372
189	0x3f750e05	0.9572452
190	0x3fac1444	1.3443685
191	0x3df6b1ad	0.12045608
192	0xbe0abbff	-0.13548277
193	0xba245886	-0.00062692945
194	0xbf37ad24	-0.71748567
195	0x3f1f748c	0.6228721
196	0x3f5fc1e4	0.8740523
197	0x3e3f6542	0.1869097
198	0xbe85bcb7	-0.2612054
199	0xbff036a6	-1.8766677
200	0xbed164da	-0.40897256
201	0x3d63b6c4	0.05559422
202	0x3e8e6788	0.27813363
203	0x3d69ae08	0.057050735
204	0x3f65b879	0.8973461
205	0x3eb5b3ed	0.35488835
206	0x3f2ad223	0.66726893
207	0xbef35bed	-0.4753107
208	0x3e0b2ec8	0.13592064
209	0xbe14686b	-0.14492957
210	0x3d900c38	0.070335805
211	0xbf131f4f	-0.5746965
212	0xbddb6bc4	-0.10713914
213	0xbfbdf54e	-1.4840486
214	0x3d531653	0.051534962
215	0xbedcf7be	-0.43157762
216	0x3e0d36d5	0.13790448
217	0x3dbbd2c9	0.091710635
218	0x3e97d543	0.29654893
219	0x3e8fc269	0.2807801
220	0x3f4add4d	0.7924393
221	0x3eeb54e3	0.459632
222	0xbe161a8c	-0.14658564
223	0x3eed525a	0.46351892
224	0x3fa26cef	1.2689494
225	0x3f37ea19	0.7184158
226	0x3d16c908	0.036812812
227	0x3ee8e22f	0.45485064
228	0xbf6b726c	-0.9197147
229	0xbe7931c0	-0.24335384
230	0x3fd11080	1.633316
231	0x3c54c9a8	0.012987532
232	0x3f58d7d1	0.8470431
233	0x402087f4	2.508298
234	0x3e4054f3	0.18782406
235	0x3f9528a1	1.1653024
236	0x3c782cf7	0.015147439
237	0x3f56ab78	0.8385539
238	0xbddc5d49	-0.1075998
239	0x3fbdf3a2	1.4839976
240	0x4027fe4c	2.624896
241	0x3ea0951e	0.31363767
242	0x3e06297d	0.13101764
243	0x3e0bf27d	0.1366672
244	0x3f1323c6	0.5747646
245	0x3f249e29	0.64303833
246	0xbd95ba63	-0.07310941
247	0x3dc4ed45	0.09615568
248	0xbd125a16	-0.035730444
249	0x3ef4fee0	0.47850704
250	0xbb00d859	-0.0019660203
251	0xbf409354	-0.75224805
252	0x3fd5ccd2	1.6703131
253	0xbcc4ec06	-0.024038326
254	0xc024ccb9	-2.5749953
255	0xc0159c49	-2.337664

layer3.weight f4 [256, 256]
0	0xbca92381	-0.020646812
1	0xbdbaebca	-0.091270044
2	0xbda0bb79	-0.078482576
3	0xbea9af1b	-0.33141407
4	0xbeaf3d77	-0.3422658
5	0xbe1e87a5	-0.15481432
6	0xbf1a413e	-0.602558
7	0xbee682d3	-0.45021686
8	0xbdaf5c7e	-0.08562563
9	0xbee31acf	-0.4435639
10	0xbec2a7ee	-0.38018745
11	0x3dfb5cc8	0.12273556
12	0xbe0d91b4	-0.13825113
13	0xbe87cf54	-0.26525366
14	0xbceda06d	-0.029007161
15	0x3da94fba	0.0826716
16	0xbef65f58	-0.48119617
17	0xbd78e9da	-0.060769893
18	0xbd40f07a	-0.047104336
19	0xbe3fbd57	-0.18724571
20	0xbd8f5514	-0.06998649
21	0xbec8fd51	-0.39255765
22	0xbebf5a8b	-0.37373766
23	0xbdcf0b0f	-0.10109531
24	0xbb5dca8f	-0.0033842658
25	0x3d081a78	0.033228368
26	0xbe192c13	-0.14958219
27	0xbecf9360	-0.40542126
28	0xbee75167	-0.45179293
29	0xbd90d1b0	-0.07071245
30	0xbcb247b5	-0.021762708
31	0xbc86e6bf	-0.01646745
32	0xbe9c3f1e	-0.30516905
33	0xbeb04454	-0.3442713
34	0xbefa8c18	-0.48935008
35	0xbde79b78	-0.1130895
36	0xbe9d0d2e	-0.30674118
37	0xbe654c54	-0.22392398
38	0xbd8facc3	-0.070153736
39	0x3e708b55	0.23490651
40	0xbf016ee3	-0.50559825
41	0xbc817760	-0.015803993
42	0xbf90b730	-1.1305904
43	0x39ff73ad	0.00048723575
44	0xbd3ac20a	-0.045595206
45	0xbde25a9f	-0.11052441
46	0xbc9b5382	-0.018960718
47	0x3cc61bf9	0.02418326
48	0x3e30f753	0.17281847
49	0xbc89262d	-0.016741836
50	0x3e53dfa8	0.20690787
51	0x3e4c4016	0.19946322
52	0x3c551a5c	0.013006773
53	0xbe6439c6	-0.22287664
54	0xbe5439ad	-0.20725127
55	0x3dfc7cad	0.123284675
56	0xbe8b59c0	-0.2721691
57	0x3f231f46	0.63719594
58	0xbe404f51	-0.18780257
59	0xbe98b18e	-0.29822963
60	0xbf0de6a8	-0.5543008
61	0xbe653058	-0.22381723
62	0x3f154c97	0.5831999
63	0xbe55c96d	-0.20877619
64	0xbe4020f9	-0.18762578
65	0xbee9cdcb	-0.4566482
66	0xbe10f69b	-0.14156573
67	0x3cd0b1a7	0.025475336
68	0x3d390685	0.045172233
69	0xbe82887f	-0.25494763
70	0xbe5e80a6	-0.21728763
71	0xbf54a972	-0.83071053
72	0xbd08a7e3	-0.033363234
73	0xbe470ea5	-0.1943918
74	0xbe663a8f	-0.22483276
75	0xbebb62ae	-0.36598724
76	0x3bd60519	0.0065313694
77	0xbe183bd6	-0.14866576
78	0xbe62559a	-0.22102967
79	0xbc198cf7	-0.009371988
80	0xbd541349	-0.051776204
81	0xbde183eb	-0.110114895
82	0x3e4b2130	0.19836879
83	0xbea4d7fe	-0.3219604
84	0xbdbd844c	-0.09253749
85	0x3db09887	0.08622842
86	0xbd98958a	-0.07450397
87	0xbe919f22	-0.2844172
88	0xbeaaf188	-0.333874
89	0xbe563021	-0.20916797
90	0x3f4c046f	0.79694265
91	0x3d222cbc	0.039593443
92	0xbeae3fc7	-0.34033033
93	0xbe798d42	-0.24370292
94	0xbe0b61a3	-0.13611464
95	0x3e9eb801	0.3099976
96	0xbd03ec1f	-0.032207604
97	0xbda29234	-0.07938042
98	0x3e4adbf6	0.19810471
99	0x3c9eaa33	0.019368267
100	0xbd8c4f96	-0.06851117
101	0xbe02cdc5	-0.12773807
102	0xbe3bb266	-0.18329772
103	0xbe5ba4ff	-0.2144966
104	0xbe5dedf1	-0.21672799
105	0x3ceb7ba8	0.028745487
106	0xbd88da57	-0.0668227
107	0xbe9040c6	-0.28174418
108	0xbe95523a	-0.29164296
109	0xbf82c4c3	-1.0216297
110	0xbeb063a1	-0.3445101
111	0xbe742ff4	-0.23846418
112	0x3d469e00	0.048490524
113	0xbeeb45eb	-0.4595178
114	0x3ca5ac51	0.020223768
115	0xbe51410b	-0.20434968
116	0xbdc05357	-0.09390896
117	0xbd6fdc29	-0.05855957
118	0xbd7294d2	-0.059223957
119	0xbd88ecdd	-0.06685803
120	0xbd1ae37a	-0.037814595
121	0xbea4b07e	-0.32165903
122	0x3d031e42	0.032011278
123	0xbeb455b9	-0.3522165
124	0xbf213ef8	-0.6298671
125	0xbd300638	-0.04297468
126	0x3ce58192	0.028015886
127	0xbf48d79a	-0.7845398
128	0xbf49d48d	-0.7883995
129	0x3eb60213	0.35548458
130	0xbd9ac6ce	-0.0755745
131	0x3bc41690	0.005984135
132	0xbe383fbb	-0.17993061
133	0x3e9115ca	0.28336936
134	0xbd4d3061	-0.050094966
135	0x3cfd34c8	0.030908957
136	0xbd09f530	-0.033681095
137	0xbef70a73	-0.4825016
138	0xbf0a9ff0	-0.54150295
139	0x3e4d433a	0.20045176
140	0xbe13f58b	-0.14449136
141	0xbd437752	-0.047721215
142	0xbde802f5	-0.11328689
143	0xbd8146ab	-0.06312307
144	0xbc0970b3	-0.008388686
145	0xbf67aff7	-0.90502876
146	0xbe8a4d7d	-0.27012244
147	0x3d2bb621	0.04192174
148	0xbce3fc59	-0.02783029
149	0xbe14adcb	-0.14519422
150	0xbd606315	-0.054781992
151	0x3ba697ff	0.0050840373
152	0xbeb07f7c	-0.34472263
153	0xbf074b0d	-0.52848893
154	0xbc6b2405	-0.014351849
155	0xbd85570a	-0.06510742
156	0xbe83b675	-0.2572514
157	0x3cd3ac82	0.025839094
158	0xbe61d9e8	-0.22055781
159	0x3e908351	0.28225186
160	0xbcd719ab	-0.026257357
161	0x3d41233b	0.04715274
162	0xbe95ceee	-0.29259437
163	0xbecaabcd	-0.395842
164	0x3d6210fc	0.05519198
165	0xbe0d939e	-0.13825843
166	0xbf88b72d	-1.0680901
167	0xbe5af7fa	-0.21383658
168	0xbe7cf941	-0.24704458
169	0xbcccabad	-0.024984205
170	0xbe6ce41f	-0.23133896
171	0xbaedd941	-0.0018146412
172	0x3d051081	0.032486442
173	0xbd82f292	-0.06393923
174	0x3e3ada8a	0.18247429
175	0xbf0d4520	-0.551836
176	0xbd9eef2e	-0.07760464
177	0xbe88338d	-0.2660183
178	0xbe8d4e04	-0.27598584
179	0xbd6a3210	-0.05717665
180	0x3cb9f972	0.022701953
181	0xbd63b0aa	-0.0555884
182	0x3d32a4f1	0.04361433
183	0xbf07948e	-0.5296105
184	0x3d8431f6	0.06454842
185	0xbe823567	-0.25431368
186	0xbd2bef15	-0.041976053
187	0x3b87c6fb	0.0041435934
188	0x3c059167	0.008152342
189	0xbe4feda0	-0.2030549
190	0xbf466682	-0.77500165
191	0x3d7d8c3a	0.06190131
192	0xbcd51246	-0.02600969
193	0xbe9e5851	-0.30926755
194	0x3dbecdad	0.09316573
195	0xbefa1c89	-0.48849896
196	0xbee60369	-0.44924477
197	0x3e1965ec	0.14980286
198	0x3e530f5b	0.20611326
199	0xbedcb7b3	-0.431089
200	0xbe72f546	-0.23726377
201	0xbe8a41fa	-0.2700346
202	0xbcab36a3	-0.020900076
203	0xbf23705d	-0.6384333
204	0xbf79edb4	-0.9762833
205	0x3ec541ac	0.38526666
206	0xbebe82c5	-0.37209144
207	0x3f2417e6	0.64098966
208	0xbdaa9bf7	-0.08330529
209	0x3ea578a4	0.32318604
210	0xbd711b6f	-0.058864053
211	0x3ee8b902	0.4545365
212	0x3d0d37e3	0.034477126
213	0x3e3f5b75	0.18687232
214	0xbd150ded	-0.036390234
215	0x3de8ee43	0.1137357
216	0xbe2c8828	-0.16848814
217	0xbc28b0f4	-0.010296095
218	0xbed6c7bc	-0.4194926
219	0xbe245ee2	-0.1605182
220	0xbe79c838	-0.24392784
221	0xbed387ce	-0.41314548
222	0xbcb2452d	-0.021761501
223	0xbc5e77d0	-0.01357837
224	0x3e9f32c8	0.3109343
225	0x3ec8edfb	0.39244065
226	0xbe6379eb	-0.22214477
227	0x3d614bda	0.05500398
228	0x3db42ef9	0.08798022
229	0xbe416d12	-0.18889263
230	0xbeb162a9	-0.34645584
231	0xbed68e6c	-0.41905534
232	0xbcca0dbd	-0.024664754
233	0xbe817c40	-0.25290108
234	0xbebef93e	-0.37299532
235	0xbf2b13ed	-0.6682728
236	0x3d43bf56	0.047789894
237	0x3eb52571	0.35380128
238	0xbd9ebad5	-0.07750479
239	0xbea2c57d	-0.31791297
240	0xbdcea539	-0.100901075
241	0x3c25ce10	0.01011993
242	0x3c93eae9	0.01805635
243	0xbd4ae1d8	-0.049531788
244	0x3d83eaa9	0.06441242
245	0xbde9e6cb	-0.114209734
246	0xbdd59dae	-0.10430466
247	0xbf75cc88	-0.96015215
248	0xbcdfb78d	-0.027309204
249	0xbed66a5f	-0.4187803
250	0xbca1048f	-0.019655494
251	0xbf1276d9	-0.572126
252	0xbe82c0ef	-0.25537822
253	0xbcd9a841	-0.026569488
254	0xbedb9fea	-0.42895442
255	0xbf5d90cd	-0.86549073

layer3.bias f4 [256]
0	0xbf0fbccb	-0.5614745
1	0x3fbe5246	1.4868858
2	0x3d9441bf	0.072391026
3	0x403e2252	2.9708447
4	0xbd88f2f2	-0.06686963
5	0x3f4a4ce8	0.790236
6	0xbed527cb	-0.41631922
7	0x3e6912af	0.22761033
8	0x3f31697d	0.6930159
9	0x3e7d0d2d	0.24712057
10	0x3f0f1b62	0.5590116
11	0xbef79e22	-0.48362833
12	0x4093fdba	4.6247225
13	0x40833b7b	4.101011
14	0xbeb1bc09	-0.34713772
15	0x3fa9f890	1.327898
16	0x3fb94f75	1.4477373
17	0xbeb5cfcd	-0.35510102
18	0x408cdec6	4.402194
19	0xbe0fd91d	-0.14047666
20	0x3ebecb1e	0.3726434
21	0x3ddf9fb2	0.10919131
22	0xbd382427	-0.044956353
23	0x3f2da1b6	0.67824876
24	0x3e9a54a7	0.3014271
25	0x3fac1171	1.3442823
26	0x3f69a1b9	0.91262394
27	0xbe297f8d	-0.16552563
28	0xbea739c8	-0.3266127
29	0x409b448c	4.8521175
30	0x3e9b7c60	0.30368328
31	0xbd2d2c9a	-0.042278863
32	0x3eb57642	0.35441786
33	0xbe49e2a9	-0.1971537
34	0x3b21fbb0	0.0024716668
35	0xbee53325	-0.44765583
36	0xbfa261f2	-1.268614
37	0x3d4b7a3e	0.049677126
38	0xbcfe6d96	-0.031058114
39	0xbe65ac89	-0.22429098
40	0x3f4d13ce	0.80108345
41	0x3fbb3e61	1.4628412
42	0x3f7a68ca	0.97816145
43	0x4046ab27	3.1041963
44	0x3f373c89	0.71576744
45	0xbde041a9	-0.10950024
46	0xbdc3c9b9	-0.0955996
47	0xbe9a3957	-0.30121872
48	0xbf327f23	-0.69725245
49	0xbce756e3	-0.028239673
50	0xbe5b348e	-0.21406767
51	0x3f71c310	0.94438267
52	0x401c4752	2.441853
53	0x3fc762b5	1.5576998
54	0x3f8b2a12	1.0872214
55	0xbe4e42ed	-0.20142718
56	0x3ef27f1a	0.47362596
57	0xbe90714b	-0.28211436
58	0x3e2e8a6b	0.1704499
59	0xbe691e4f	-0.22765468
60	0xbf9b6e68	-1.2143068
61	0x3f8c9c72	1.0985243
62	0x3f62fbc6	0.88665426
63	0x3d82d228	0.063877404
64	0x3ee39e74	0.44456828
65	0x3f5810d0	0.84400654
66	0x3fb87e7c	1.44136
67	0xbf70585f	-0.93884844
68	0x3f098f83	0.53734607
69	0x3f24b6ca	0.64341414
70	0xbee59dec	-0.44847047
71	0xbe296232	-0.16541365
72	0x3e857d9c	0.26072395
73	0xbf6340b5	-0.8877061
74	0x3f5eeaed	0.8707722
75	0x3ea4205b	0.32055935
76	0xbdb31aff	-0.087453835
77	0x3f3f11ee	0.74636734
78	0x3e0e9654	0.13924533
79	0x3faea9f5	1.3645617
80	0x3fd3cbba	1.6546547
81	0x3ecf8777	0.4053304
82	0xbde871c4	-0.11349824
83	0x3fa47ffc	1.2851558
84	0x4077e1c9	3.8731558
85	0x3f0feb60	0.5621853
86	0x401627a1	2.3461688
87	0x3fb39d0d	1.4032303
88	0x4089b31b	4.3031135
89	0x3fb2593a	1.393348
90	0x3f8d62b9	1.1045753
91	0x406486cf	3.570728
92	0x3e90ccb0	0.28281164
93	0x3e8364ba	0.25662786
94	0x3fe1aef8	1.7631521
95	0xbf65b627	-0.8973107
96	0x404c0db5	3.1883366
97	0x3fcbc20a	1.5918591
98	0xbe8607dc	-0.2617787
99	0x3f658879	0.89661366
100	0x3fb948ea	1.4475377
101	0xbe2f028d	-0.17090817
102	0x3feb8b40	1.8401871
103	0x3e474c35	0.19462664
104	0x3ee2d3c0	0.44302177
105	0x3fd49307	1.6607369
106	0x3f933abb	1.1502298
107	0x3e30d5af	0.17269014
108	0xbf8a4730	-1.0802975
109	0x3e91f2cd	0.28505555
110	0xbea17052	-0.31531006
111	0x3d1afcc6	0.03783872
112	0xbedd8dbb	-0.43272194
113	0x3f8add03	1.0848697
114	0xbed8313c	-0.42225063
115	0x40806049	4.0117536
116	0xbe372252	-0.17884186
117	0xbe420328	-0.18946517
118	0x3fb70c92	1.4300711
119	0x3e40d824	0.18832451
120	0x3f430ea1	0.76194197
121	0x3c6fad46	0.014628714
122	0x40226ee0	2.5380173
123	0x3f4e8937	0.80678123
124	0xbcfe5af3	-0.031049227
125	0x3f35da06	0.710358
126	0x3ee6fffd	0.4511718
127	0xbf08eab8	-0.5348315
128	0xbeb6a563	-0.35673055
129	0xbe1ef192	-0.1552184
130	0x3f648f1c	0.8928087
131	0xbe94c918	-0.29059672
132	0xbe02d0a4	-0.12774903
133	0xbe9c2a3f	-0.3050098
134	0x3ef6f3f1	0.48232988
135	0x3f2b2177	0.6684794
136	0x40895399	4.291455
137	0x3f0ee31d	0.558153
138	0xbe15d4ed	-0.14632006
139	0x3f0dcb76	0.5538858
140	0x3fb38814	1.4025903
141	0xbefbddbf	-0.49192616
142	0x3f13daa8	0.5775552
143	0x4019e405	2.4045422
144	0x3e4507f2	0.19241312
145	0xbe351bd1	-0.17686392
146	0x3f9ccd5e	1.2250173
147	0xbea3c93c	-0.31989467
148	0x3ffba1fc	1.9658809
149	0x3ee7ac82	0.452488
150	0x3f6dee3a	0.9294163
151	0x3e3078f3	0.17233638
152	0xbdfe8412	-0.12427534
153	0x3e94ea22	0.2908488
154	0x3e2dee54	0.16985446
155	0x4038b616	2.8861136
156	0xbe762810	-0.2403872
157	0xbe9567c1	-0.2918072
158	0x3c37514f	0.011188819
159	0xbe0502b1	-0.12989308
160	0x3c764207	0.015030391
161	0x3ef57b39	0.47945574
162	0xbe4b3b28	-0.19846785
163	0x3f2dd648	0.6790509
164	0xbd504af7	-0.050852742
165	0x3fbf4fde	1.4946249
166	0x4029af9e	2.6513438
167	0x3f5e5ae0	0.86857414
168	0x3f2fcfc0	0.68676376
169	0xbfb298df	-1.3952903
170	0xbe9a185a	-0.30096704
171	0x3f05443a	0.5205723
172	0x3f91c5ee	1.1388528
173	0x3f961288	1.1724405
174	0x3f114f1b	0.5676133
175	0x3ef2ad11	0.47397664
176	0x3f1592e4	0.5842726
177	0x40093980	2.1441345
178	0xbf4199c1	-0.75625235
179	0xbe1cac45	-0.1530009
180	0xbf28047e	-0.65631855
181	0x3e23eda2	0.16008618
182	0x3d7e136d	0.062030245
183	0xbeac4a42	-0.33650404
184	0x3eca38a3	0.39496335
185	0xbf7afc1d	-0.98040944
186	0x3f81aad6	1.013026
187	0x3f3b3ec3	0.7314264
188	0x3e957162	0.29188067
189	0xbdccb44b	-0.09995326
190	0x3f92480f	1.142824
191	0xbe873981	-0.2641106
192	0x4026660a	2.599978
193	0x40801f12	4.003793
194	0x3ee0c639	0.43901232
195	0xbdd172ca	-0.102269724
196	0xbc8e7e6d	-0.017394269
197	0xbe24968d	-0.16073056
198	0x40801436	4.002467
199	0x3f337e26	0.7011436
200	0x3fdb0cf4	1.7113328
201	0x3da5990a	0.080858305
202	0x3dd06a38	0.101765096
203	0x3f5ba231	0.8579436
204	0xc0440239	-3.0626357
205	0xbe592e8b	-0.21209161
206	0xbe09a509	-0.13441862
207	0x3f755713	0.9583599
208	0x3f524d56	0.82149255
209	0x40081ba0	2.126686
210	0x3f903d72	1.1268752
211	0xbd3b0e22	-0.045667775
212	0xbe8ed352	-0.278956
213	0x3f21e807	0.6324467
214	0x3e1e5c96	0.15465006
215	0xbdd74148	-0.10510498
216	0x4089d0ee	4.306754
217	0xbdb3b850	-0.08775389
218	0x3f681609	0.9065862
219	0xbf0b6117	-0.5444502
220	0x3de1109b	0.10989495
221	0x3ebbeade	0.36702627
222	0xbdbd1867	-0.0923317
223	0xbdfdf8de	-0.12400983
224	0x4065afab	3.588847
225	0x3fbfd665	1.4987303
226	0x3fc911c0	1.5708542
227	0xbcd3bf51	-0.025848063
228	0x3f976033	1.1826233
229	0xbdd2ef85	-0.10299591
230	0x3ff4be0d	1.9120499
231	0x3e8a1607	0.2696993
232	0x3f4ad0d9	0.79224926
233	0x3dc9bce9	0.09850485
234	0xbcd3e689	-0.025866764
235	0x3f5a8282	0.8535539
236	0x40733132	3.7998776
237	0xbd4952e3	-0.049151313
238	0xbc808b9f	-0.015691577
239	0xbd294bd5	-0.041332085
240	0x3ec55b2c	0.3854612
241	0x3ed38fb2	0.41320568
242	0x3ed78c12	0.42099053
243	0xbeee3f60	-0.46532726
244	0x3ee204c6	0.44144267
245	0x3f326355	0.6968282
246	0x3ec2fcf3	0.3808361
247	0xbe0b19b4	-0.13584024
248	0xbf09366e	-0.5359868
249	0xbe662c9f	-0.22477959
250	0xbdaf78f2	-0.0856799
251	0x3f909ff4	1.1298814
252	0xbe122471	-0.14271714
253	0x3eac7809	0.3368533
254	0x3ec8cc53	0.39218387
255	0xbf4d51d4	-0.80202985

layer4.weight f4 [128, 256]
0	0xbdc63f94	-0.09680095
1	0x3c249d4e	0.01004727
2	0x3daf1092	0.085480824
3	0xbe4fb56c	-0.2028405
4	0xbd3d7f3d	-0.046263922
5	0x3a897062	0.0010485763
6	0xbd078057	-0.03308138
7	0xbe170a2b	-0.14749973
8	0xbd4ac298	-0.049501985
9	0xbb920137	-0.004455711
10	0xbdad7165	-0.08468894
11	0x3d0e3d8c	0.034726664
12	0xbd7ebd23	-0.062192094
13	0xbcb4a20c	-0.022049926
14	0x3d2ca51c	0.042149648
15	0x3d7633ac	0.060107872
16	0xba915851	-0.0011088942
17	0x3d024789	0.031806502
18	0xbcef8520	-0.029238284
19	0x3d19ac17	0.037517633
20	0xbd97e1c4	-0.07416108
21	0xbe2912c2	-0.16511062
22	0x3d2b8266	0.041872405
23	0xbcd65f7c	-0.026168577
24	0xbe19391c	-0.14963192
25	0x3ccde70b	0.025134584
26	0xbe9c9c38	-0.30587935
27	0xbd064d37	-0.03278848
28	0xbde8aa2d	-0.113605835
29	0xbc4eec0c	-0.01262952
30	0xbc637f02	-0.0138852615
31	0xbd97789e	-0.07396053
32	0xbd165208	-0.036699325
33	0x3d3a6dab	0.045514744
34	0xbe07e7c2	-0.13272002
35	0xbc8c9aa4	-0.017163582
36	0xbdde66ba	-0.10859437
37	0xbd6a96bf	-0.05727267
38	0x3d665f4c	0.056243226
39	0xbdc21af3	-0.094777964
40	0xbcd7e323	-0.026353424
41	0xbd8788b5	-0.06617872
42	0xbd587f96	-0.05285605
43	0x3dbad0a4	0.09121826
44	0xbdb53343	-0.08847668
45	0xbcff8443	-0.031190997
46	0x3c89c994	0.016819753
47	0x3d15888a	0.036507167
48	0xbd83fc36	-0.0644459
49	0xbd20c2a9	-0.039248142
50	0x3d16ed03	0.036847126
51	0x3cd43362	0.025903407
52	0x3e21fb88	0.15818608
53	0x3cb66bd3	0.022268211
54	0xbd65ee3e	-0.05613541
55	0x3c286602	0.010278227
56	0x3b1eab2e	0.0024210918
57	0x3bb645fa	0.005562541
58	0xbdb88c13	-0.09011092
59	0xbc52c1fc	-0.012863632
60	0xbe33e605	-0.17568214
61	0xbde8ab7a	-0.113608316
62	0xbda8a876	-0.082352564
63	0x3d0d713c	0.034531817
64	0xbdc1bf2d	-0.09460292
65	0xbdae08ce	-0.08497773
66	0x3c8dd496	0.017313283
67	0xbcc499da	-0.023999143
68	0xbe0491b8	-0.12946212
69	0xbd923b08	-0.071401656
70	0xbe26bf9d	-0.16284032
71	0x3d793976	0.060845815
72	0xbe1f4afd	-0.1555595
73	0xbde9cc9f	-0.114159815
74	0xbd7e8bd7	-0.06214508
75	0x3b708ac7	0.0036703811
76	0xbd301fe3	-0.04299916
77	0x3c91a9bf	0.017781137
78	0x3d260f58	0.040541977
79	0xbd943589	-0.072367735
80	0xbcee7f22	-0.029113356
81	0x3c887b7e	0.016660448
82	0x3d0fd9e4	0.035119906
83	0xbcc1f5cc	-0.023676775
84	0xbe7c172d	-0.24618216
85	0xbe97b4da	-0.29630166
86	0xbdcf032f	-0.10108029
87	0xbc153b23	-0.009108338
88	0xbd3bb621	-0.04582799
89	0x3d01d2c6	0.03169515
90	0x3d36353d	0.044484366
91	0x3bde5d92	0.006786057
92	0xbd3f93c6	-0.046771787
93	0x3c9fe3d0	0.01951781
94	0xbb1c5126	-0.002385208
95	0xbd462324	-0.048373356
96	0xbd3dcb99	-0.046336744
97	0xbd3cd4d9	-0.046101425
98	0xbc59b3f1	-0.01328753
99	0xbd951d2e	-0.07280956
100	0xbe3688cb	-0.1782562
101	0xbdafa5c4	-0.08576539
102	0x3c6cc109	0.01445032
103	0x3bd123a0	0.0063824207
104	0x3ef50e4b	0.47862467
105	0xbb686bd5	-0.0035464664
106	0xbc82fee6	-0.015990686
107	0xbde3be1f	-0.11120247
108	0xbd280285	-0.041018028
109	0x3ce03bb6	0.027372222
110	0xbbd86126	-0.006603378
111	0xbdfa8d18	-0.12233943
112	0xbd3893d0	-0.04506284
113	0xbd4d0192	-0.050050326
114	0xbe0505d6	-0.12990507
115	0xbd888c6f	-0.066674106
116	0x3cc7c48f	0.024385719
117	0xbce38945	-0.027775416
118	0x3cb7277b	0.022357693
119	0xbd1cfcc3	-0.03832699
120	0xbe0d617d	-0.1380672
121	0xbe29651f	-0.16542481
122	0xbd73fb0b	-0.059565585
123	0xb9e782f1	-0.00044157312
124	0xbd96df19	-0.07366771
125	0xbde35ec0	-0.111020565
126	0xbd9d6a3f	-0.076862805
127	0xbdf29cd0	-0.11846316
128	0xbd88f80d	-0.06687937
129	0xbd072ae4	-0.032999888
130	0x3d4db45e	0.05022084
131	0xbd8175a7	-0.063212685
132	0xbcd99d7b	-0.02656435
133	0xbdec8481	-0.115487106
134	0x3d0b2873	0.033974122
135	0xb8bd3846	-9.022704e-05
136	0xbd2f22f5	-0.042757947
137	0xbd2dbe9f	-0.04241812
138	0xbd9656c1	-0.07340766
139	0x3c2b6173	0.010460245
140	0xbdac09d0	-0.08400309
141	0xbc93be13	-0.01803497
142	0xbe23d74d	-0.160001
143	0xbedf0419	-0.43557814
144	0x3cd3511b	0.02579551
145	0x3cac3b02	0.02102423
146	0xbdc64113	-0.09680381
147	0x3d47bc9a	0.04876385
148	0xbe31c8e6	-0.17361793
149	0xbddef877	-0.10887235
150	0xbc6d8ea7	-0.014499343
151	0xbda580fe	-0.08081244
152	0x3da285d4	0.07935682
153	0xbe0e9239	-0.13922967
154	0xbde3e008	-0.11126715
155	0x3c6f0012	0.014587419
156	0x3c950a82	0.018193487
157	0xbccd45d1	-0.025057705
158	0xbdcc83dd	-0.099860884
159	0xbd3f2f15	-0.04667576
160	0xbe8d1c08	-0.2756045
161	0xbd87cb2c	-0.06630549
162	0xbdea9a0f	-0.114551656
163	0xbe0183a1	-0.12647869
164	0xbb4caa93	-0.00312296
165	0xbcde316f	-0.027123181
166	0xbcc26a9e	-0.02373248
167	0xbcf99a01	-0.030468943
168	0x3d6c2e87	0.05766156
169	0xbdfb8d66	-0.12282829
170	0xbbdae98a	-0.006680672
171	0xbda426d7	-0.080152206
172	0xbd5628cc	-0.052285
173	0xbd87d9b3	-0.0663332
174	0xbcb8d4e0	-0.022562444
175	0x3b57c4b2	0.0032923636
176	0xbd7c7645	-0.061636228
177	0xbd88ddbc	-0.066829175
178	0xbdfa61f8	-0.12225717
179	0xbda4a282	-0.080388084
180	0xbe1a5c3a	-0.15074244
181	0xbd9eb31e	-0.07749008
182	0x392d9f2f	0.00016557866
183	0xbd2b7d8b	-0.041867774
184	0x3b50e855	0.0031876762
185	0xbe1c4a78	-0.15262783
186	0x3c0339d3	0.008009392
187	0xbe1c87de	-0.15286204
188	0xbdc6104b	-0.096710764
189	0xbcd260dd	-0.025680954
190	0xbeb3cd8a	-0.3511775
191	0xbc8627aa	-0.016376335
192	0xbd3b1714	-0.045676306
193	0xbdad87ee	-0.08473192
194	0xbe60ce61	-0.21953727
195	0xbdce849e	-0.100838885
196	0xbcc444ab	-0.023958525
197	0x3d1b825c	0.037966117
198	0xbdb7246a	-0.08942492
199	0xbd98ccaf	-0.07460915
200	0xbcf327bb	-0.02968203
201	0xbd9b948e	-0.07596694
202	0x3c69007f	0.01422131
203	0x3c86f241	0.016472938
204	0xbdc88913	-0.0979177
205	0xbd2893a7	-0.041156437
206	0x3ac41914	0.0014961087
207	0xbc32c74e	-0.010911776
208	0xbd146a82	-0.036234386
209	0xbd51c0d5	-0.05120929
210	0xbdae1062	-0.084992185
211	0x3cce7716	0.025203269
212	0xbdbb0443	-0.09131672
213	0xbc8b1ff1	-0.016983004
214	0x3c8a0913	0.01685003
215	0x3cd0ddd8	0.025496408
216	0xbd5f12dd	-0.05446135
217	0xbba17b24	-0.0049280096
218	0xbe0e8057	-0.13916145
219	0xbd686905	-0.05674078
220	0xbd87e931	-0.066362746
221	0xbcf81dc9	-0.03028764
222	0xbd0f08e2	-0.03492058
223	0x3d20a7ac	0.039222404
224	0x3bf2382a	0.007391949
225	0x3d02cd46	0.031934045
226	0xbd0827eb	-0.033241194
227	0x3d467d22	0.04845918
228	0xbc4ea741	-0.012613119
229	0xb97bd3d4	-0.00024016137
230	0x3d044c00	0.03229904
231	0xbcf5c725	-0.030002186
232	0xbcb166a6	-0.021655392
233	0xbbc215b9	-0.0059229997
234	0xbd03fd64	-0.032224074
235	0x3cfcf2d0	0.0308775
236	0xbd0fa54e	-0.035069756
237	0x3d5aa2e8	0.053378016
238	0xbcce7578	-0.025202498
239	0x3da81066	0.08206253
240	0xba40ca38	-0.00073543517
241	0x3bd282b7	0.006424274
242	0xbc696e84	-0.01424754
243	0xbdb0edbd	-0.08639095
244	0xbcb0bed0	-0.021575361
245	0xbd2c600d	-0.04208379
246	0x3cfa5e9d	0.030562693
247	0x3db97d17	0.09057062
248	0xbb848af7	-0.004044886
249	0xbcaaa982	-0.02083278
250	0x3d47555c	0.04866539
251	0xbe6f950c	-0.233967
252	0xbd1b2a1a	-0.037881948
253	0xbdaf2888	-0.085526526
254	0xbd1b19cb	-0.037866395
255	0xbda5ccea	-0.08095725

layer4.bias f4 [128]
0	0x3de44e50	0.111477494
1	0x3efd698c	0.49494588
2	0x3fadece4	1.3587918
3	0x3ecb1e98	0.3967178
4	0xbea2542c	-0.31704843
5	0xbe078ebf	-0.13238047
6	0x3f411aae	0.75431335
7	0x3ebe7a80	0.37202835
8	0x3f85bcf1	1.0448285
9	0xbe6a5c9b	-0.22886889
10	0x3fee20c3	1.8603748
11	0xbc0a37e8	-0.008436181
12	0xbe8a4bab	-0.27010855
13	0xbd7c1c36	-0.06155034
14	0x3d8b15e1	0.067912824
15	0xbd53c288	-0.05169919
16	0xbea926d4	-0.33037436
17	0x3fe5ff79	1.7968589
18	0x3fb10e8d	1.3832566
19	0xbe2779e4	-0.16355091
20	0xbd652f66	-0.055953406
21	0x3d347925	0.044060845
22	0xbd696cf2	-0.056988664
23	0x40354623	2.8324058
24	0xbdbdb1f1	-0.09262455
25	0xbdf82a58	-0.121174514
26	0x3f289bde	0.65862834
27	0x3dc540c0	0.09631491
28	0x3faf3ef7	1.369109
29	0xbd89be60	-0.06725764
30	0x4038c1c4	2.8868265
31	0x3edb60a1	0.4284716
32	0x4066a530	3.6038322
33	0x3f6d17a8	0.9261422
34	0xbdcdd4e3	-0.100503705
35	0x3f9500e7	1.16409
36	0xbddb6058	-0.107117355
37	0x3c241892	0.010015624
38	0x3b73488d	0.00371221
39	0x3e35ccbc	0.17753881
40	0xbe327720	-0.17428255
41	0x405da4fa	3.4631944
42	0xbd8d61b6	-0.069034025
43	0xbe982cea	-0.29721767
44	0x3f6fedc2	0.93722165
45	0xbd99f487	-0.07517343
46	0x3f391bce	0.7230805
47	0xbea5aeea	-0.3236001
48	0x3fca8d6d	1.582441
49	0xbe009fd2	-0.12560967
50	0xbc7877dc	-0.015165295
51	0x3f7d3e9f	0.9892368
52	0x3db7fe7a	0.089840844
53	0xbcaa65ff	-0.020800589
54	0x3e92e778	0.28692222
55	0xbd7380ab	-0.05944888
56	0xbe005bf5	-0.12535079
57	0xbf0ae18e	-0.5425042
58	0x3e95c926	0.29255027
59	0xbd9f5540	-0.07779932
60	0xbea6a962	-0.32551104
61	0x40bc2265	5.8791986
62	0x3f4c9bb9	0.79925114
63	0xbbed4d1a	-0.0072418572
64	0xbc74c6cb	-0.014939974
65	0x3ee4486a	0.44586498
66	0xbd8047f4	-0.06263724
67	0x4001e14f	2.0293767
68	0xbdc078fe	-0.093980774
69	0xbd8eaced	-0.06966577
70	0x401df527	2.468088
71	0x3ebf37b3	0.37347183
72	0x3e25a362	0.16175607
73	0x401b3118	2.4248714
74	0xbdd69549	-0.10477693
75	0xbe353cf0	-0.17699027
76	0xbe2848c0	-0.16434002
77	0xbd75fef5	-0.0600576
78	0xbccb51c8	-0.02481927
79	0x3d9183e2	0.07105233
80	0xbbcffc62	-0.006347225
81	0xbe41852d	-0.18898459
82	0x3ee9af87	0.4564173
83	0x3c863918	0.016384646
84	0x3ef9fd2f	0.48825976
85	0xbe6c14f9	-0.23054875
86	0xbc87c3bb	-0.016572824
87	0x3f2ba422	0.6704732
88	0xbeeb9575	-0.46012464
89	0x40880a15	4.2512307
90	0x3f52357e	0.8211287
91	0x3cf51319	0.029916333
92	0x3f20ea68	0.62857676
93	0x3e02f405	0.12788399
94	0x3f6e3386	0.9304737
95	0x3f18d107	0.5969395
96	0xbdfc5f89	-0.123229094
97	0x3f49ecff	0.7887725
98	0x40ae01af	5.4377055
99	0x400ac663	2.1683586
100	0xbcd900ad	-0.02648958
101	0x3e2b618e	0.16736433
102	0x403304d1	2.797169
103	0xbdad07fa	-0.08448787
104	0xbdaebc1a	-0.08531971
105	0xbd9a86f6	-0.07545273
106	0xbb1dd630	-0.0024083965
107	0xbf0f9666	-0.56088865
108	0x3ec4b591	0.38419774
109	0xbe1f59a8	-0.15561545
110	0xbd931a4d	-0.07182751
111	0xbe7708fa	-0.24124518
112	0x3d82ac83	0.0638056
113	0xbe91a1bc	-0.28443706
114	0xbf182d70	-0.5944433
115	0xbdfbf2e9	-0.12302191
116	0xbcb9766e	-0.02263948
117	0x3ff3c641	1.9044877
118	0xbe03e803	-0.12881474
119	0xbd9b40be	-0.07580708
120	0x3f59b223	0.8503744
121	0xbe42f049	-0.19036974
122	0x408c0b11	4.376351
123	0xbec14b60	-0.3775282
124	0x3ee3d892	0.44501168
125	0xbe1b9b44	-0.15195948
126	0x3f158462	0.58405125
127	0xbcebb158	-0.028771088

layer5.weight f4 [1, 128]
0	0x3cbb4d37	0.022863967
1	0xbd920a6f	-0.07130896
2	0xbd792cce	-0.060833745
3	0x3c5f40f2	0.013626324
4	0xbd518367	-0.051150706
5	0xbbd4a6a3	-0.006489591
6	0xbc3f2d8a	-0.011668572
7	0x3a1d43e7	0.0005999193
8	0x3c3913cc	0.011296224
9	0x3c73c648	0.014878817
10	0xbe151b29	-0.14561142
11	0xbda67178	-0.08127111
12	0x3e416d76	0.18889412
13	0x3bae9506	0.0053278236
14	0x3d8d3e53	0.06896653
15	0xbd197fd7	-0.037475433
16	0xbda23027	-0.079193406
17	0xbf01765a	-0.50571215
18	0xbd9156b7	-0.07096618
19	0xbce9538a	-0.028482217
20	0xbcf84c09	-0.030309694
21	0x3cec2634	0.02882681
22	0x3e0c7ae5	0.13718756
23	0xbde6874f	-0.11256277
24	0xbd8bd496	-0.06827657
25	0x3dab244d	0.08356533
26	0xbddcdc0b	-0.10784157
27	0xbd974f6e	-0.07388197
28	0xbf475ab6	-0.7787279
29	0xbda543d6	-0.08069579
30	0xbedff81d	-0.43743983
31	0xbc954ff9	-0.01822661
32	0x3c87624b	0.016526362
33	0xbf16c616	-0.58896005
34	0x3e09a72e	0.1344268
35	0x3de4741d	0.11154959
36	0x3b52ca73	0.0032164126
37	0x3c167002	0.009181978
38	0xbc955330	-0.018228143
39	0x3d574e95	0.052565176
40	0x3d8cf658	0.06882924
41	0x3c77d49a	0.015126372
42	0x3c811c42	0.015760545
43	0x3e514c9a	0.20439377
44	0x3a4a5cd0	0.00077195186
45	0xbd7761d5	-0.060396034
46	0x3c39a424	0.011330638
47	0x3e03c4c1	0.12868024
48	0xbd8908a5	-0.06691102
49	0x3bc2356b	0.005926778
50	0xbc6a6658	-0.014306627
51	0xbc29dd4a	-0.010367701
52	0xbbb56efa	-0.005536911
53	0x3c859877	0.016308052
54	0x3da1250c	0.07868394
55	0xbd994754	-0.07484308
56	0xbd3cd6d8	-0.04610333
57	0xbf1acba2	-0.6046697
58	0xbddd8536	-0.108164236
59	0x3ce5e730	0.02806434
60	0xbbb1f48e	-0.0054307645
61	0xbeef983d	-0.46795836
62	0xbde1b832	-0.110214606
63	0xbb446b5f	-0.0029971225
64	0x3d843190	0.06454766
65	0xbd5b01e5	-0.053468604
66	0x3c92a561	0.017901124
67	0xbf26544f	-0.64972395
68	0xbd69083f	-0.05689263
69	0x3d54b170	0.05192703
70	0xbc0e1b37	-0.008673481
71	0xbda1860e	-0.07886897
72	0xbe3ae0f9	-0.18249883
73	0x3e160f1a	0.14654198
74	0x3d9e15ff	0.07719039
75	0x3d97a685	0.07404808
76	0xbda9189e	-0.082566485
77	0x3db05e98	0.08611792
78	0x3d05b21b	0.032640558
79	0x3d6fac73	0.05851407
80	0xbb16612b	-0.00229461
81	0x3cf53fa1	0.029937567
82	0xbe2cd1d2	-0.16876915
83	0xbc88e38d	-0.016710067
84	0xbe3e21b0	-0.18567538
85	0xbd85845f	-0.065193884
86	0xbdb27786	-0.087142035
87	0xbe880ca4	-0.26572144
88	0x3efeb54a	0.49747688
89	0xbee89e46	-0.45433253
90	0xbe1e9823	-0.15487723
91	0x3da8d690	0.082440495
92	0xbd0a4701	-0.03375912
93	0x3dfe175c	0.12406799
94	0x3d14179d	0.036155332
95	0x3da31a67	0.0796402
96	0x3cd1c9cb	0.025608918
97	0xbcc1a912	-0.02364019
98	0xbebf52e2	-0.37367922
99	0xbeb300ef	-0.3496165
100	0xbd025da4	-0.031827584
101	0xbd29dd6b	-0.041470926
102	0xbec1a3dc	-0.37820327
103	0xbd7370d4	-0.059433773
104	0xbd73ec63	-0.059551608
105	0xbc7ca085	-0.01541913
106	0x3d3a8599	0.045537565
107	0x3db07535	0.086161055
108	0xbdb9fa4c	-0.090809435
109	0xbccfe33c	-0.025376908
110	0xbd16f336	-0.036853038
111	0x3d5dc331	0.054141227
112	0xbdbcd5c8	-0.09220463
113	0xbdaf2607	-0.08552175
114	0x3c702407	0.014657027
115	0x3cbbed34	0.022940256
116	0x3df9f852	0.122055665
117	0x3ab553c7	0.0013834172
118	0x3f18a3ee	0.59625137
119	0x3c794cd8	0.015216075
120	0xbccaaf92	-0.024741922
121	0xbdd89df1	-0.10577
122	0xbe421cf9	-0.18956365
123	0xbe021485	-0.1270314
124	0xbe030999	-0.1279663
125	0x3da041b9	0.078250356
126	0xbdda8a9c	-0.10670969
127	0x3c6f7fb4	0.014617849
