PPO/ppo_critic.pth (torch, 546027 bytes, 9 tensors)

layer1.weight f4 [128, 29]
0	0xc006c6c2	-2.1058812
1	0x3f8eeb83	1.1165622
2	0xc03539ce	-2.831653
3	0xbf8c5fef	-1.0966777
4	0xbd583f3b	-0.052794676
5	0xbf83ae7a	-1.0287621
6	0xbfdc7040	-1.7221756
7	0xc014f0e7	-2.3272035
8	0xbfb68f90	-1.4262562
9	0x3e930ecd	0.2872223
10	0x3fe3f5ba	1.7809365
11	0x3e8469d5	0.25861993
12	0x3fc287f0	1.5197735
13	0x3fe64da8	1.7992449
14	0xbf6bdf86	-0.92137945
15	0x3e51ad2f	0.2047622
16	0xbeae6813	-0.34063777
17	0x3f9fe3f4	1.2491441
18	0x3eb712ef	0.35756633
19	0xbefa9f78	-0.4894979
20	0xbf80128c	-1.000566
21	0x3ecced56	0.40024823
22	0x3c646d6f	0.013942107
23	0x3e7e7c13	0.24852018
24	0x3d87fc33	0.066399
25	0xbe0100df	-0.12597989
26	0xbe9a26a1	-0.30107597
27	0xbef6a705	-0.481743
28	0xbf335bd9	-0.70062023
29	0xbec30efe	-0.38097376
30	0xbe44bc01	-0.19212343
31	0xbfea7202	-1.8316042
32	0xc0090abc	-2.1412802
33	0xc0966749	-4.700108
34	0x3e331504	0.17488486
35	0x3e7d8674	0.24758321
36	0x3f41cb91	0.7570124
37	0xbf7b20d9	-0.98096997
38	0xbea3893b	-0.31940636
39	0x3f982918	1.1887541
40	0x3e877bf4	0.26461756
41	0x3f98cb2b	1.1937002
42	0x3df7fe35	0.12109033
43	0xbfa0791b	-1.2536958
44	0x3f540aae	0.82828796
45	0xbe40f6f9	-0.18844213
46	0xbf248bb3	-0.64275664
47	0x3f6a62bb	0.915569
48	0x3eb27ad1	0.34859326
49	0xbeb38b18	-0.35067058
50	0xbd8b1bb7	-0.067923956
51	0x3d770bd9	0.060314033
52	0xbd52ec1f	-0.051494714
53	0x3eef5c04	0.4674989
54	0xbe193109	-0.14960112
55	0xbdae0b90	-0.08498299
56	0xbd8960f9	-0.06707949
57	0x3dba1613	0.090862416
58	0xbf888d92	-1.0668204
59	0x3f23b9f4	0.63955617
60	0xbfd75898	-1.6823912
61	0x3fd7129a	1.6802552
62	0x3f7af3c1	0.9802819
63	0xbdf691f8	-0.1203956
64	0xbf3d295c	-0.73891234
65	0x3e53854b	0.20656316
66	0xbffd3e7c	-1.9784694
67	0x3fcee051	1.6162206
68	0x3faf6ef9	1.3705741
69	0xbeb92e79	-0.36168268
70	0x3fbf27fc	1.4934077
71	0x3eb2458b	0.34818682
72	0xbf7112e1	-0.9416943
73	0x3ec4b49c	0.38419044
74	0xbc614587	-0.013749487
75	0x3fae3ca2	1.3612254
76	0xbf414e6f	-0.75510305
77	0x3f04b1e2	0.5183393
78	0x3d3077cb	0.043082993
79	0x3db73111	0.089449055
80	0xbd2e6918	-0.042580694
81	0x3e6f6ee5	0.23382147
82	0x3de12a6d	0.1099442
83	0xbdeade2c	-0.11468157
84	0x3e87ed36	0.26548165
85	0xbcfd9373	-0.030954098
86	0xbe5f9f94	-0.21838218
87	0xbfbc400e	-1.4707048
88	0x3f1b8937	0.6075625
89	0xbfabbe47	-1.3417443
90	0xbfc4f92a	-1.5388539
91	0xc0046cda	-2.0691438
92	0x3e06ebb8	0.13175857
93	0x400372f4	2.0538912
94	0xbed3bcec	-0.41355073
95	0xbff9f9cb	-1.9529356
96	0x3e81fa11	0.25386098
97	0x3fd022c9	1.6260616
98	0x3e9c3cf9	0.30515268
99	0x3fe3f7a4	1.7809949
100	0x3f50aae8	0.8151078
101	0xbfda424d	-1.7051483
102	0xc00b2e4a	-2.1747003
103	0xbc8ed625	-0.017436096
104	0xbf6bf6c3	-0.92173404
105	0xbe7abcfb	-0.24486153
106	0xbf34374a	-0.70396864
107	0xbf4bcf70	-0.796134
108	0x3f25738e	0.6462945
109	0xbbf79706	-0.007555845
110	0x3f86ea67	1.0540284
111	0xbf1e8394	-0.6191952
112	0x3d473f48	0.048644334
113	0xbf13ce44	-0.5773661
114	0x3d09b788	0.033622295
115	0x3f4f4c8f	0.80976194
116	0xbf4181d5	-0.7558873
117	0x3e165580	0.14681053
118	0xbfb8346a	-1.4390996
119	0xbdd03bd6	-0.10167663
120	0xbfafc551	-1.3732091
121	0xbfe80fcf	-1.8129824
122	0x3f8c5c07	1.0965585
123	0x3e37d296	0.17951426
124	0xbf39301e	-0.72339046
125	0xbeac3a5a	-0.3363827
126	0x3f28dc90	0.6596155
127	0xbed30b0e	-0.41219372
128	0x3f5848df	0.8448619
129	0xbf85c67f	-1.0451201
130	0xbf4a3758	-0.789907
131	0xbf67319f	-0.9031009
132	0xbe5ab930	-0.21359706
133	0x3fc2cf65	1.5219542
134	0x3f8148ef	1.0100383
135	0x3f481f91	0.78173167
136	0x3eb3a13b	0.35083947
137	0xbe04f2de	-0.12983271
138	0xbe88ea3c	-0.26741207
139	0xbea3aa69	-0.3196595
140	0x3dce5316	0.10074441
141	0x3ce3537a	0.027749766
142	0x3ef3a45e	0.4758634
143	0xbedf2a38	-0.43586898
144	0xbf526f9e	-0.82201564
145	0xbf88f009	-1.0698253
146	0xbede7acd	-0.43453065
147	0xbf95a592	-1.1691153
148	0xbf839494	-1.0279717
149	0xc0927517	-4.576793
150	0xbf7dddae	-0.9916638
151	0x3e903fda	0.28173715
152	0x3f0ba541	0.5454903
153	0xbf9d11ab	-1.2271017
154	0xbf06dbc0	-0.5267906
155	0x3f9cf4c2	1.2262194
156	0xbe246b51	-0.16056563
157	0x3faa3f22	1.3300517
158	0xbfbf2bfb	-1.4935297
159	0xbf7e0728	-0.9922967
160	0xbf3e2cd9	-0.7428718
161	0xbe184321	-0.14869358
162	0xc010c90b	-2.2622707
163	0xbf053daf	-0.52047247
164	0xbed1a7ea	-0.4094842
165	0x3d1e61ad	0.03866737
166	0x3e47e80d	0.19522114
167	0x3d91ec5c	0.0712516
168	0x3ec47b28	0.3837521
169	0xbeb81671	-0.3595462
170	0xbe6c03d6	-0.23048338
171	0xbe972de1	-0.2952719
172	0x3e383e7a	0.17992583
173	0xbe081701	-0.13290025
174	0x403bdbee	2.9352984
175	0xbfdcce86	-1.7250526
176	0xc00a4d76	-2.1609778
177	0xc04c7d46	-3.195146
178	0x40108f3b	2.258742
179	0x3fa3bd60	1.2792168
180	0xbfc92e2a	-1.5717213
181	0xbf3fc0aa	-0.7490336
182	0xbe5628a3	-0.20913939
183	0xbfba8a14	-1.4573388
184	0x3e5c5cb4	0.21519738
185	0x3f2fab72	0.6862098
186	0xbde1ff90	-0.11035073
187	0x3d44d176	0.04805132
188	0xbf195b8b	-0.5990531
189	0xbfc5988f	-1.5437182
190	0x3f98712d	1.1909539
191	0xbf773042	-0.9655801
192	0x3f10cf7f	0.56566614
193	0x3ea16bfb	0.31527695
194	0xbebab825	-0.36468616
195	0xbf3362b9	-0.70072514
196	0x3f37a067	0.7172913
197	0xbf06f1e5	-0.5271285
198	0xbd0cfdc8	-0.034421712
199	0xbf0b2b5d	-0.5436304
200	0xbea5bf58	-0.32372546
201	0x3f67138d	0.9026421
202	0x3f271d01	0.6527863
203	0xbde2203c	-0.110413045
204	0xbec30a6e	-0.38093895
205	0x3f5f51c3	0.87234133
206	0x3f93c6da	1.154506
207	0xbf41e803	-0.75744647
208	0x3f7be272	0.98392403
209	0xbf1925b0	-0.5982313
210	0xbee339d0	-0.44380045
211	0x3f142f7a	0.57884943
212	0xbe4a761a	-0.19771615
213	0xbf209059	-0.6272026
214	0xbe691db5	-0.22765239
215	0xbebbca60	-0.36677837
216	0xbe34bc2f	-0.17649911
217	0x3f444523	0.76667994
218	0xbf52b147	-0.82301754
219	0xbf129aac	-0.5726726
220	0xbe25df37	-0.16198431
221	0xbfa06de1	-1.2533532
222	0x3f284c23	0.65741175
223	0xbfa35cb7	-1.2762669
224	0x3f11c9e1	0.5694867
225	0x3e5b0f08	0.21392453
226	0x3f35dc1f	0.71039003
227	0x3e6ffcd8	0.23436296
228	0x3e6f9893	0.23398046
229	0xbe9c3b38	-0.3051393
230	0x3efae15f	0.4900007
231	0x3ec69956	0.3878886
232	0x3f897a61	1.0740472
233	0xc01bb85b	-2.4331272
234	0xbedc6b4e	-0.43050617
235	0xbfd66939	-1.6750861
236	0xbfc55c57	-1.5418805
237	0xbf300468	-0.68756723
238	0x402cd69a	2.7005982
239	0x400c0dae	2.188335
240	0xbf71405d	-0.94238836
241	0xbd8c8843	-0.06861927
242	0x3eb18572	0.34672123
243	0xbf9a8c96	-1.2074153
244	0x3f2cebb5	0.6754716
245	0xbf9bf773	-1.218489
246	0xbef6aee1	-0.48180297
247	0x3e9f69bf	0.31135365
248	0x3efd3d15	0.49460664
249	0xc0045282	-2.0675359
250	0x3fdce61a	1.7257721
251	0xbf04df4b	-0.5190322
252	0xbf7412ca	-0.9534117
253	0xbd165edd	-0.036711562
254	0xbfa4b4aa	-1.2867634
255	0x3f9c4b48	1.2210474

layer1.bias f4 [128]
0	0xbfb8e42b	-1.4444631
1	0xbf78c0a3	-0.9716894
2	0x3fadb4f1	1.3570844
3	0xbfc25c2b	-1.5184377
4	0x3f2a990d	0.66639787
5	0xbfbbba49	-1.4666225
6	0xbeb468f2	-0.35236317
7	0x400d0180	2.2032166
8	0xbfb4c7eb	-1.412351
9	0xbdd39568	-0.10331231
10	0xbe6053d8	-0.21906984
11	0x3fe40b02	1.7815859
12	0x3fdd9344	1.7310567
13	0x3fd53862	1.6657832
14	0xbfc69fe2	-1.5517542
15	0xbea36f11	-0.31920674
16	0x3fd4bb98	1.6619749
17	0xbff9c651	-1.9513646
18	0xbf3040f0	-0.68849087
19	0x3f6aa3ec	0.91656375
20	0xbf5e8463	-0.86920756
21	0xbf0d5d45	-0.55220443
22	0xc01f3c42	-2.4880528
23	0xbfcf140f	-1.6177996
24	0x3f796cc8	0.9743161
25	0x3fb91f23	1.4462627
26	0x3f4c433c	0.7979009
27	0x400df076	2.2178016
28	0xc0054993	-2.0826156
29	0xbfacfa4c	-1.3513885
30	0xbfe717bb	-1.8054117
31	0x3f16f585	0.58968383
32	0x3fd3dbee	1.6551492
33	0xc00c3527	-2.1907442
34	0xc00ece19	-2.2313292
35	0xbfdf9889	-1.7468425
36	0x3ed58c6c	0.41708696
37	0xbf10fa59	-0.56632
38	0x401df62c	2.4681501
39	0x3f127a86	0.57218206
40	0xbef7eb79	-0.4842184
41	0x3d8ba60f	0.068187825
42	0xbfc15205	-1.5103155
43	0xc068876f	-3.6332662
44	0xbfbeb25f	-1.4898185
45	0x3f3872fc	0.7205045
46	0xbfb6c0ca	-1.4277585
47	0xbfe4ce50	-1.7875462
48	0xc00bb390	-2.1828346
49	0x3f980bc6	1.1878593
50	0xbe8e1520	-0.27750492
51	0xbee5650e	-0.4480366
52	0x3da55877	0.08073514
53	0xbf039300	-0.5139618
54	0x3e413f89	0.18871893
55	0x40160125	2.3438199
56	0xbef32011	-0.47485402
57	0xbf99dec8	-1.2021112
58	0x3d455d83	0.048184883
59	0xbfcd8dda	-1.6058915
60	0xbee29ecb	-0.44261774
61	0x3d36e9c0	0.044656515
62	0xbe66dd79	-0.22545423
63	0xbf865170	-1.0493603
64	0xbf05672b	-0.52110547
65	0x3f1698d4	0.5882695
66	0x3ec7b66d	0.39006367
67	0x3fe29927	1.7702988
68	0x3f20f494	0.62873197
69	0xbfa5c5b0	-1.2950954
70	0xbe211036	-0.1572884
71	0xc05938b7	-3.3940866
72	0x3ffa6680	1.956253
73	0x3f266754	0.65001416
74	0xbf57d51d	-0.8430956
75	0xbf028bd1	-0.5099459
76	0x3fa31517	1.2740811
77	0xc0591544	-3.391923
78	0xbe68c7de	-0.22732493
79	0x3f8e633e	1.1124036
80	0x400992c3	2.1495826
81	0xbf6e0c61	-0.9298764
82	0x3f8fb33d	1.1226574
83	0xc01dcd18	-2.465643
84	0x3fcafc4a	1.5858243
85	0x3f3853fc	0.7200315
86	0xbfe2eb71	-1.7728101
87	0xbd8c7e81	-0.06860066
88	0x3fb36bc6	1.4017265
89	0xbfdd1195	-1.7270991
90	0x3ffc9137	1.9731816
91	0xbd13ac54	-0.036053017
92	0x3f49a9b6	0.78774583
93	0xbe89403d	-0.26806822
94	0xbf72425b	-0.946325
95	0x3ef82c8b	0.48471484
96	0xbfb9686b	-1.4484991
97	0xbf39a7fa	-0.72521937
98	0xbfce01a2	-1.6094248
99	0x3fd4b47d	1.6617581
100	0xbe6686bb	-0.22512333
101	0xbfacd1c4	-1.3501515
102	0xbeb987dc	-0.36236465
103	0xbf603015	-0.8757337
104	0x4012e7a1	2.2953875
105	0x3d01adf4	0.031660035
106	0xbeccee0a	-0.4002536
107	0xbf5d0155	-0.8633016
108	0x3fb0396b	1.3767523
109	0xc0010d30	-2.01643
110	0xbf3300f6	-0.6992334
111	0xbff527c4	-1.915276
112	0xbf7cf793	-0.9881527
113	0xbf6c7b1f	-0.9237537
114	0xbf0c42de	-0.5478953
115	0x3fad8487	1.3556069
116	0xbf2a2265	-0.6645873
117	0xc022efd6	-2.5458884
118	0xbf2d5b10	-0.67717075
119	0xbff7af8f	-1.9350451
120	0xbdc9216b	-0.09820827
121	0x3ea0baac	0.3139242
122	0xbed88ca5	-0.42294803
123	0xbfbeee71	-1.4916517
124	0xbf7bea77	-0.9840464
125	0xbec6bfd1	-0.3881822
126	0x3eeafcea	0.45896083
127	0x3f88bb61	1.0682184

layer2.weight f4 [256, 128]
0	0xbc94c598	-0.018160626
1	0xbd4204fe	-0.047368042
2	0xbd1ab1b2	-0.03776712
3	0xbc202e87	-0.009776718
4	0xbe163997	-0.14670406
5	0xbe175f7e	-0.14782521
6	0xbddb3264	-0.107029706
7	0xbdd65de8	-0.1046713
8	0xbcf41646	-0.029795777
9	0x3b6b7dde	0.0035933177
10	0xbdd01fb7	-0.10162299
11	0xbd4e22c3	-0.05032612
12	0xbe17dd6b	-0.14830558
13	0xbe267e1e	-0.16259047
14	0xbd03e0fb	-0.03219698
15	0xbdc66704	-0.096876174
16	0xbdfb186d	-0.12260518
17	0xbd4b005f	-0.0495609
18	0x3c7196bd	0.014745411
19	0xbdebcbea	-0.11513503
20	0x3d46c669	0.048529062
21	0xbdbc3882	-0.091904655
22	0x3d4ec4b9	0.050480578
23	0xbd96bb3b	-0.0735993
24	0xbd611c9f	-0.054958936
25	0xbd995564	-0.0748699
26	0xbca01ea0	-0.019545853
27	0xbe08596a	-0.13315359
28	0xbdb73e16	-0.08947389
29	0xbdb3a9d6	-0.08772628
30	0xbda8d5a4	-0.08243874
31	0xbdae37c6	-0.08506732
32	0xbe2767bd	-0.16348167
33	0x3cac3d6a	0.021025378
34	0x3c7194a6	0.014744913
35	0xbe0df712	-0.13863781
36	0xbd32c596	-0.043645464
37	0x3c0bcd32	0.008532809
38	0x3c3c4fb6	0.011493614
39	0xbdeee21a	-0.11664219
40	0xbc7ad152	-0.015308695
41	0xbd9799d7	-0.074023895
42	0xbd4dd7f0	-0.050254762
43	0xbbb4bf36	-0.005515958
44	0x3c59cff4	0.013294209
45	0xbe095b42	-0.13413718
46	0xbdb00550	-0.08594763
47	0xbd33be2f	-0.043882545
48	0xbe3edbb2	-0.18638495
49	0x3debe4ef	0.11518275
50	0xbe35551f	-0.17708252
51	0xbd46109a	-0.048355676
52	0x3d8a61d0	0.067569375
53	0xbe21398f	-0.15744613
54	0xbd3d8dfc	-0.046277985
55	0xbe1b04c8	-0.15138543
56	0xbc342384	-0.010994796
57	0xbe350cb7	-0.17680632
58	0xbe07ddcb	-0.13268201
59	0xbcc0ae4c	-0.023520611
60	0x3d46ffde	0.048583858
61	0xbdd9a0b4	-0.10626355
62	0xbd2a2ea4	-0.041548386
63	0x3d1666ff	0.03671932
64	0xbe367a32	-0.17820051
65	0xbe458284	-0.19288069
66	0xbdbf8d12	-0.09353079
67	0xbdb4284e	-0.0879675
68	0xbe1e6d78	-0.15471447
69	0xbd018f86	-0.031631015
70	0xbd9c09f5	-0.07619087
71	0xbd6f031f	-0.058352586
72	0xba3adcd1	-0.0007128241
73	0xbd16f288	-0.03685239
74	0xbd1c1a4c	-0.038111016
75	0xbd4c3444	-0.049854532
76	0xbd0076a0	-0.03136313
77	0xbdd71e6e	-0.10503851
78	0xbdb6ad33	-0.08919754
79	0xbcbe33ca	-0.023218054
80	0xbdf475df	-0.119365446
81	0xbe3e5d93	-0.18590383
82	0xbd5f8ce6	-0.05457773
83	0xbde469ec	-0.111530155
84	0xbb9b421d	-0.004738106
85	0xbd8ba72c	-0.06818995
86	0xbd820069	-0.063477345
87	0xbd598193	-0.053102087
88	0xbdc42b9d	-0.09578631
89	0x3d0d1456	0.034443222
90	0xbc6987c6	-0.014253562
91	0x3d88c7ef	0.06678759
92	0xbe4d4f5e	-0.20049807
93	0x3d213b94	0.03936346
94	0xbdd55566	-0.10416679
95	0xbc1e4133	-0.009659099
96	0x3d348833	0.044075202
97	0xbd83d2a6	-0.064366624
98	0x3d382cf7	0.044964757
99	0xbdf999ee	-0.12187563
100	0x3d01c7e0	0.031684756
101	0xbd366167	-0.044526484
102	0xbd85d125	-0.06534032
103	0xbdaaa4c6	-0.08332209
104	0x3c788994	0.01516952
105	0xbd182533	-0.03714485
106	0xbdc70603	-0.097179435
107	0xbdc553f7	-0.09635156
108	0xbe323e37	-0.17406546
109	0xbb45ec5e	-0.00302007
110	0xbbea2b2e	-0.0071462607
111	0x3d52b18a	0.051438846
112	0xbd93df5e	-0.07220338
113	0xbdfb7186	-0.12277512
114	0xbcc07702	-0.023494247
115	0x3d620b2c	0.055186436
116	0xbbcd8862	-0.0062723616
117	0xbdc08108	-0.09399611
118	0xbdaf25b1	-0.08552111
119	0xbc72df98	-0.014823817
120	0xbc226a30	-0.009913012
121	0xbd371758	-0.044699997
122	0xbbfbbf45	-0.007682713
123	0xbd701bea	-0.05862037
124	0xbd27bbe7	-0.040950682
125	0xbc532daa	-0.012889305
126	0xbe4f3e86	-0.20238695
127	0xbd87d6a6	-0.06632738
128	0xbe25c465	-0.161882
129	0xbe784787	-0.24246036
130	0xbe9a52db	-0.3014134
131	0xbd669cea	-0.05630199
132	0xbe381fd4	-0.17980891
133	0xbd2524a9	-0.040318165
134	0x3cabc980	0.020970106
135	0xbe4e771e	-0.20162627
136	0xbdb16271	-0.08661354
137	0xbd3e8a19	-0.04651842
138	0xbd73dec7	-0.05953863
139	0xbe00e45d	-0.12587114
140	0xbdc59bf6	-0.09648888
141	0xbdad83ad	-0.08472381
142	0xbd85d2eb	-0.0653437
143	0xbe2bfc57	-0.16795479
144	0x3c96a62b	0.018389782
145	0xbe08dacd	-0.13364716
146	0xbe095c16	-0.13414034
147	0xbd954d16	-0.072900936
148	0xbdb120af	-0.08648812
149	0xbe27e161	-0.16394569
150	0xbf1f71aa	-0.6228281
151	0xbec10908	-0.37702203
152	0xbc1335a5	-0.008984958
153	0xbd2f9739	-0.042868827
154	0xbe132441	-0.14369299
155	0xbdc78586	-0.097422644
156	0xbe658390	-0.22413468
157	0x3c156ea1	0.009120614
158	0xbe9bb190	-0.30408907
159	0xbdcfccb9	-0.101464696
160	0xbe265663	-0.16243891
161	0xbe846fcc	-0.25866544
162	0xbe3c30a0	-0.18377924
163	0xbecfa633	-0.40556487
164	0x3d1c1690	0.038107455
165	0xbe424e1e	-0.18975112
166	0xbcdc2222	-0.026871745
167	0xbd4d8e69	-0.05018464
168	0xbddec8cf	-0.10878145
169	0xbd4b6019	-0.049652193
170	0xbe16ae72	-0.14714983
171	0xbf1a03fa	-0.6016232
172	0xbddc2aa3	-0.1075032
173	0xbebf44fe	-0.37357324
174	0xbe166de8	-0.14690363
175	0xbe62a7d4	-0.22134334
176	0xbeb5aca9	-0.35483292
177	0xbe1d13e9	-0.15339626
178	0xbd5db921	-0.05413163
179	0xbe90e328	-0.28298306
180	0xbe253db1	-0.16136815
181	0xbdb5bb9c	-0.08873674
182	0xbdbd9d49	-0.092585154
183	0xbe17f693	-0.14840154
184	0xbdb414d3	-0.087930344
185	0xbd401025	-0.046890397
186	0xbe4301ae	-0.1904361
187	0xbe7da3c5	-0.24769504
188	0xbe8d88e9	-0.27643517
189	0xbd2241d6	-0.039613567
190	0xbe2856d1	-0.16439368
191	0xbe286119	-0.1644329
192	0xbde7294b	-0.11287173
193	0xbe43a498	-0.19105756
194	0x3c017b32	0.007902907
195	0xbe77690c	-0.24161166
196	0xbd3767ca	-0.044776715
197	0xbd2aa660	-0.041662574
198	0xbc276dce	-0.010219051
199	0xbf49e798	-0.7886901
200	0x3d83b9fb	0.06431957
201	0xbe860198	-0.2617309
202	0xbe56fb5d	-0.20994325
203	0xbe71e5e5	-0.23622854
204	0xbde64fe1	-0.112457044
205	0xbf18e4ab	-0.5972392
206	0x3c0a2d35	0.00843363
207	0xbe272d77	-0.16325937
208	0xbe185b26	-0.1487852
209	0xbcc20df7	-0.0236883
210	0xbe0c1a81	-0.13681985
211	0xbe3e9ed4	-0.18615276
212	0xbdbe9f1b	-0.09307691
213	0xbe2429b5	-0.16031535
214	0xbe18c30e	-0.14918157
215	0xbe1ffa5d	-0.1562285
216	0xbdc6871f	-0.09693741
217	0xbda6bb49	-0.081411906
218	0xbd53e8b7	-0.051735606
219	0xbddf0d53	-0.10891213
220	0xbe687d2f	-0.22704004
221	0x3c4125e1	0.011788816
222	0xbdbf6379	-0.09345145
223	0xbdeac012	-0.11462416
224	0xbe02bc0a	-0.12767044
225	0xbec227d8	-0.37921023
226	0xbe77c398	-0.24195707
227	0xbdaf9bb4	-0.0857462
228	0xbdc779c0	-0.09740019
229	0xbe1c9019	-0.15289344
230	0xbe510075	-0.2041033
231	0xbe17a839	-0.14810266
232	0xbed15d3e	-0.4089145
233	0xbe3f696c	-0.18692559
234	0xbd908773	-0.07057085
235	0x3d4f40d7	0.050598945
236	0xbe9eeaae	-0.3103842
237	0xbcdf0656	-0.0272247
238	0xbd7b14e4	-0.06129922
239	0xbea3b8c1	-0.31976894
240	0x3e357bc1	0.1772299
241	0xbe1eb2f1	-0.15497948
242	0xbe82ee78	-0.25572562
243	0xbd92532b	-0.07144769
244	0xbdf61016	-0.12014787
245	0xbe9a956e	-0.3019213
246	0xbd7ac7a8	-0.061225563
247	0xbe029d3d	-0.12755294
248	0xbe762211	-0.24036433
249	0xbe6c51b7	-0.23078047
250	0xbe06c466	-0.13160858
251	0xbe32fc5b	-0.17479078
252	0xbe1f095b	-0.15530913
253	0xbe8325bf	-0.25614735
254	0xbd565803	-0.05233003
255	0xbe01938f	-0.12653945

layer2.bias f4 [256]
0	0xbdef3893	-0.116807126
1	0x3f01f677	0.507667
2	0xbf99bee6	-1.2011383
3	0x3fc17641	1.5114213
4	0x3ede2567	0.4338791
5	0x3dc9b70e	0.09849368
6	0x3cc6ad24	0.024252482
7	0x3eaed851	0.3414941
8	0x403606f3	2.8441741
9	0x4006959f	2.1028821
10	0x3fdb7a6c	1.7146735
11	0x3ec428dc	0.38312423
12	0xc0102899	-2.252478
13	0x3e892c48	0.26791596
14	0xbe35d963	-0.17758708
15	0x3d5a6cd0	0.053326428
16	0x3f4380c5	0.7636836
17	0xbec3c3bf	-0.3823528
18	0x3e9070d7	0.2821109
19	0x3fff0c75	1.9925677
20	0xc00df332	-2.2179685
21	0x3e0c3b3f	0.13694476
22	0x3fa82507	1.31363
23	0xbebae1b4	-0.36500323
24	0x3f80aa78	1.0052023
25	0x3dbdf883	0.092759155
26	0x3fb61800	1.4226074
27	0xbe8d7bf3	-0.27633628
28	0xbf37f112	-0.7185222
29	0xbdda1bbd	-0.10649822
30	0xbe38134d	-0.17976113
31	0xbc8edd17	-0.017439408
32	0x3eb85537	0.36002514
33	0x3f57c4fc	0.8428495
34	0x3f75f48b	0.9607627
35	0x40163401	2.346924
36	0x3f5ea5de	0.86971843
37	0x3f54e009	0.8315435
38	0xbc8700a6	-0.016479801
39	0x3f84d792	1.0378287
40	0x3fb71144	1.4302144
41	0xbe1c2799	-0.1524948
42	0x3fb64db5	1.4242464
43	0xb9a5151a	-0.00031486974
44	0x3f1cb3e0	0.6121197
45	0xbfae2b0a	-1.3606884
46	0x4028be63	2.6366203
47	0xbceef8ef	-0.029171435
48	0x3f998692	1.1994193
49	0xbdbeac0a	-0.093101576
50	0xbe9144d4	-0.28372824
51	0xbd39ab1f	-0.04532921
52	0xbd2f7f41	-0.04284597
53	0x3fc2aba6	1.5208633
54	0xbf128684	-0.57236505
55	0xbf86558d	-1.0494858
56	0x3f860273	1.0469497
57	0x3f1029bb	0.56313676
58	0xbb6bb087	-0.0035963373
59	0x3e160875	0.14651664
60	0xbf9f404b	-1.2441496
61	0x3e95bf4e	0.29247516
62	0x3f120e92	0.5705348
63	0x403aa335	2.9162114
64	0x40142443	2.3147132
65	0x3f991fbc	1.196281
66	0x3fc03baa	1.5018208
67	0x3df51730	0.11967313
68	0x3f2ad1a5	0.6672614
69	0x3e96eff6	0.2947995
70	0x3ddd2b8d	0.10799322
71	0x3f653c6a	0.8954531
72	0xbd775423	-0.060382973
73	0xbc3c1f08	-0.011482008
74	0x3f0fd15e	0.56178844
75	0x3e2f9bb9	0.17149247
76	0x3e259038	0.16168296
77	0x3f22e8f7	0.63636726
78	0x3f9d3659	1.228221
79	0x3f0e6e96	0.5563749
80	0x3d6e7b99	0.05822334
81	0x3f544ddc	0.82931304
82	0xbdf804a3	-0.121102594
83	0x402d48b3	2.7075622
84	0xbf22104b	-0.6330611
85	0xbd88ea48	-0.066853106
86	0x4018ea34	2.3892946
87	0x40421d22	3.0330281
88	0x3fa7b78a	1.3102887
89	0x3f67da02	0.9056703
90	0x3f8a1fb6	1.0790927
91	0xbeb2d9a8	-0.34931684
92	0x3f45d7a4	0.77282166
93	0x404faf0c	3.245059
94	0x3fb2d0c1	1.3969957
95	0x3d306aaa	0.043070473
96	0x3fed33c9	1.8531429
97	0xbdfff148	-0.124971926
98	0x3f94479b	1.1584352
99	0xbd7bdc38	-0.061489314
100	0x3eb13220	0.34608555
101	0x3eeac176	0.45850724
102	0x400e0b99	2.2194579
103	0x3ee5a4c5	0.44852272
104	0x4013b612	2.3079877
105	0x3d06afeb	0.032882612
106	0xbe3a3223	-0.18183188
107	0x3f46ba08	0.7762761
108	0x3e9781dc	0.29591262
109	0x3f871f4c	1.0556426
110	0x3f4bb5fa	0.7957455
111	0x40615cd0	3.5212898
112	0xbea45afd	-0.3210067
113	0xc013b902	-2.308167
114	0xbe95fa41	-0.2929249
115	0x40520401	3.2814944
116	0x3ed7baf1	0.42134812
117	0x3eb20bc9	0.34774616
118	0xbd2eefe4	-0.042709246
119	0xbf07870e	-0.5294045
120	0x3db82482	0.08991338
121	0x3dca4b46	0.098776385
122	0x3b5d1429	0.003373394
123	0x3f4b14e9	0.7932878
124	0x3dba9949	0.09111268
125	0xbe4b855c	-0.19875091
126	0x3c73473c	0.014848527
127	0xbf0f06ab	-0.5586955
128	0xbf9d142b	-1.227178
129	0x3f79efe5	0.97631675
130	0x3de7a5a1	0.11310888
131	0xbcd489ee	-0.025944676
132	0xbd8fd2c3	-0.070226215
133	0x3e4a26e4	0.19741398
134	0xbe0dfb15	-0.13865311
135	0xbe7c0dc9	-0.24614634
136	0x3f197ddd	0.5995768
137	0x3f881e8a	1.063432
138	0x3fd8bb95	1.6932245
139	0x3ea0dea6	0.31419867
140	0x3ffed7bf	1.990959
141	0x3f86dbaf	1.0535792
142	0x3f1511d0	0.58230305
143	0x3d0a1323	0.033709656
144	0x3e5c1ed0	0.21496129
145	0x3f3f5749	0.7474256
146	0x4055a187	3.3379838
147	0x3d93786e	0.072007045
148	0x3ebb5878	0.36590934
149	0xbec48851	-0.3838525
150	0x3ef76b71	0.4832416
151	0xbda4cd2e	-0.080469474
152	0x3fe6445d	1.7989613
153	0x3ccf78bf	0.02532613
154	0xbe45b4b7	-0.19307218
155	0xbe1944c4	-0.14967638
156	0x3f88eeaa	1.0697834
157	0xbd37b5f3	-0.044851255
158	0xbeb2a337	-0.34890148
159	0x3f6d96ad	0.9280804
160	0x3d0ccbad	0.034373928
161	0xbf35bc95	-0.7099088
162	0x3fb40e88	1.4066935
163	0x40412d6c	3.0183973
164	0xbde26bff	-0.11055755
165	0x4022fda3	2.5467308
166	0x3df47de6	0.11938076
167	0x400392fe	2.0558467
168	0x3ee86a8b	0.45393786
169	0x3dfebfc0	0.12438917
170	0x40389af0	2.8844566
171	0x3cac3642	0.021021966
172	0x3e156253	0.14588289
173	0x3e40b968	0.18820727
174	0x3f70c281	0.9404679
175	0x3f536542	0.8257638
176	0xbd8efdb0	-0.06981981
177	0x3efb0a58	0.4903133
178	0x3e808d47	0.25107786
179	0x3e38b5b9	0.18038072
180	0xbe396bc0	-0.1810751
181	0xbe60da6d	-0.21958323
182	0xbe4912c6	-0.19636068
183	0xbe65dd61	-0.2244773
184	0x3f86ae42	1.0521929
185	0x3f2cc976	0.67494905
186	0xbcd69e37	-0.02619849
187	0xbd52e6f4	-0.051489785
188	0xbe18c8dc	-0.14920372
189	0x3f2621ef	0.6489553
190	0x3fac1988	1.3445292
191	0x3df6b1ad	0.12045608
192	0xbe07a9b0	-0.13248324
193	0xbeb4ed34	-0.35337222
194	0xbf22f1e6	-0.6365036
195	0xbe531e88	-0.20617115
196	0x3f5d3982	0.86415875
197	0x3e3f6542	0.1869097
198	0xbe5b3f56	-0.2141088
199	0xbfd290af	-1.6450404
200	0xbe55fa03	-0.20896153
201	0xbd8632ce	-0.06552659
202	0x3e8e6788	0.27813363
203	0x3d4fe8b7	0.050759044
204	0x3f35624c	0.70853114
205	0x3eb76d45	0.35825554
206	0x3f2ad223	0.66726893
207	0xbeaf951a	-0.34293443
208	0x3e0b2ec8	0.13592064
209	0xbe14686b	-0.14492957
210	0x3d900c38	0.070335805
211	0xbe765a5f	-0.24057911
212	0xbddb6bc4	-0.10713914
213	0xbfa06bbf	-1.2532881
214	0x3d531653	0.051534962
215	0xbf1bc227	-0.6084313
216	0x3e0d36d5	0.13790448
217	0x3dbbd2c9	0.091710635
218	0x3e97d543	0.29654893
219	0x3e8fc269	0.2807801
220	0x3f4add4d	0.7924393
221	0x3eeed661	0.46647933
222	0xbe161a8c	-0.14658564
223	0x3eee8a13	0.46589717
224	0x3ec29492	0.38003975
225	0x3f129a8c	0.5726707
226	0xbe83a190	-0.257092
227	0x3f51b946	0.8192333
228	0xbf6b726c	-0.9197147
229	0xbe7931c0	-0.24335384
230	0x3fd11080	1.633316
231	0x3d7cd144	0.06172301
232	0x3f17efed	0.5935047
233	0x4027cac1	2.62175
234	0x3e9e9de1	0.30979827
235	0x3fad22d5	1.3526255
236	0x3c782cf7	0.015147439
237	0x3f2d2e68	0.67648935
238	0xbe41ace3	-0.18913607
239	0x3fa8c4f4	1.3185105
240	0x4032b61b	2.7923648
241	0x3ea0951e	0.31363767
242	0x3e06297d	0.13101764
243	0x3dc87070	0.09787071
244	0x3f1323c6	0.5747646
245	0x3f249e29	0.64303833
246	0xbd95ba63	-0.07310941
247	0x3e035f90	0.12829423
248	0xbd125a16	-0.035730444
249	0x3f2a4ef4	0.6652672
250	0xbb00d859	-0.0019660203
251	0xbea78215	-0.32716432
252	0x3fdf1f21	1.7431375
253	0x3cc8a188	0.024491087
254	0xc0039daa	-2.056498
255	0xc0026d8a	-2.0379357

layer3.weight f4 [256, 256]
0	0xbca92381	-0.020646812
1	0xbdbaebca	-0.091270044
2	0xbda0bb79	-0.078482576
3	0xbea9af1b	-0.33141407
4	0xbeaf3d77	-0.3422658
5	0xbe1e87a5	-0.15481432
6	0xbf1a413e	-0.602558
7	0xbee682d3	-0.45021686
8	0xbdaf5c7e	-0.08562563
9	0xbee31acf	-0.4435639
10	0xbec2a7ee	-0.38018745
11	0x3dfb5cc8	0.12273556
12	0xbe0d91b4	-0.13825113
13	0xbe87cf54	-0.26525366
14	0xbceda06d	-0.029007161
15	0x3da94fba	0.0826716
16	0xbef65f58	-0.48119617
17	0xbd78e9da	-0.060769893
18	0xbd40f07a	-0.047104336
19	0xbe3fbd57	-0.18724571
20	0xbd8f5514	-0.06998649
21	0xbec8fd51	-0.39255765
22	0xbebf5a8b	-0.37373766
23	0xbdcf0b0f	-0.10109531
24	0xbb5dca8f	-0.0033842658
25	0x3d081a78	0.033228368
26	0xbe192c13	-0.14958219
27	0xbecf9360	-0.40542126
28	0xbee75167	-0.45179293
29	0xbd90d1b0	-0.07071245
30	0xbcb247b5	-0.021762708
31	0xbc86e6bf	-0.01646745
32	0xbe9c3f1e	-0.30516905
33	0xbeb04454	-0.3442713
34	0xbefa8c18	-0.48935008
35	0xbde79b78	-0.1130895
36	0xbe9d0d2e	-0.30674118
37	0xbe654c54	-0.22392398
38	0xbd8facc3	-0.070153736
39	0x3e708b55	0.23490651
40	0xbf016ee3	-0.50559825
41	0xbc817760	-0.015803993
42	0xbf90b730	-1.1305904
43	0x39ff73ad	0.00048723575
44	0xbd3ac20a	-0.045595206
45	0xbde25a9f	-0.11052441
46	0xbc9b5382	-0.018960718
47	0x3cc61bf9	0.02418326
48	0x3e30f753	0.17281847
49	0xbc89262d	-0.016741836
50	0x3e53dfa8	0.20690787
51	0x3e4c4016	0.19946322
52	0x3c551a5c	0.013006773
53	0xbe6439c6	-0.22287664
54	0xbe5439ad	-0.20725127
55	0x3dfc7cad	0.123284675
56	0xbe8b59c0	-0.2721691
57	0x3f231f46	0.63719594
58	0xbe404f51	-0.18780257
59	0xbe98b18e	-0.29822963
60	0xbf0de6a8	-0.5543008
61	0xbe653058	-0.22381723
62	0x3f154c97	0.5831999
63	0xbe55c96d	-0.20877619
64	0xbe4020f9	-0.18762578
65	0xbee9cdcb	-0.4566482
66	0xbe10f69b	-0.14156573
67	0x3cd0b1a7	0.025475336
68	0x3d390685	0.045172233
69	0xbe82887f	-0.25494763
70	0xbe5e80a6	-0.21728763
71	0xbf54a972	-0.83071053
72	0xbd08a7e3	-0.033363234
73	0xbe470ea5	-0.1943918
74	0xbe663a8f	-0.22483276
75	0xbebb62ae	-0.36598724
76	0x3bd60519	0.0065313694
77	0xbe183bd6	-0.14866576
78	0xbe62559a	-0.22102967
79	0xbc198cf7	-0.009371988
80	0xbd541349	-0.051776204
81	0xbde183eb	-0.110114895
82	0x3e4b2130	0.19836879
83	0xbea4d7fe	-0.3219604
84	0xbdbd844c	-0.09253749
85	0x3db09887	0.08622842
86	0xbd98958a	-0.07450397
87	0xbe919f22	-0.2844172
88	0xbeaaf188	-0.333874
89	0xbe563021	-0.20916797
90	0x3f4c046f	0.79694265
91	0x3d222cbc	0.039593443
92	0xbeae3fc7	-0.34033033
93	0xbe798d42	-0.24370292
94	0xbe0b61a3	-0.13611464
95	0x3e9eb801	0.3099976
96	0xbd03ec1f	-0.032207604
97	0xbda29234	-0.07938042
98	0x3e4adbf6	0.19810471
99	0x3c9eaa33	0.019368267
100	0xbd8c4f96	-0.06851117
101	0xbe02cdc5	-0.12773807
102	0xbe3bb266	-0.18329772
103	0xbe5ba4ff	-0.2144966
104	0xbe5dedf1	-0.21672799
105	0x3ceb7ba8	0.028745487
106	0xbd88da57	-0.0668227
107	0xbe9040c6	-0.28174418
108	0xbe95523a	-0.29164296
109	0xbf82c4c3	-1.0216297
110	0xbeb063a1	-0.3445101
111	0xbe742ff4	-0.23846418
112	0x3d469e00	0.048490524
113	0xbeeb45eb	-0.4595178
114	0x3ca5ac51	0.020223768
115	0xbe51410b	-0.20434968
116	0xbdc05357	-0.09390896
117	0xbd6fdc29	-0.05855957
118	0xbd7294d2	-0.059223957
119	0xbd88ecdd	-0.06685803
120	0xbd1ae37a	-0.037814595
121	0xbea4b07e	-0.32165903
122	0x3d031e42	0.032011278
123	0xbeb455b9	-0.3522165
124	0xbf213ef8	-0.6298671
125	0xbd300638	-0.04297468
126	0x3ce58192	0.028015886
127	0xbf48d79a	-0.7845398
128	0xbf49d48d	-0.7883995
129	0x3eb60213	0.35548458
130	0xbd9ac6ce	-0.0755745
131	0x3bc41690	0.005984135
132	0xbe383fbb	-0.17993061
133	0x3e9115ca	0.28336936
134	0xbd4d3061	-0.050094966
135	0x3cfd34c8	0.030908957
136	0xbd09f530	-0.033681095
137	0xbef70a73	-0.4825016
138	0xbf0a9ff0	-0.54150295
139	0x3e4d433a	0.20045176
140	0xbe13f58b	-0.14449136
141	0xbd437752	-0.047721215
142	0xbde802f5	-0.11328689
143	0xbd8146ab	-0.06312307
144	0xbc0970b3	-0.008388686
145	0xbf67aff7	-0.90502876
146	0xbe8a4d7d	-0.27012244
147	0x3d2bb621	0.04192174
148	0xbce3fc59	-0.02783029
149	0xbe14adcb	-0.14519422
150	0xbd606315	-0.054781992
151	0x3ba697ff	0.0050840373
152	0xbeb07f7c	-0.34472263
153	0xbf074b0d	-0.52848893
154	0xbc6b2405	-0.014351849
155	0xbd85570a	-0.06510742
156	0xbe83b675	-0.2572514
157	0x3cd3ac82	0.025839094
158	0xbe61d9e8	-0.22055781
159	0x3e908351	0.28225186
160	0xbcd719ab	-0.026257357
161	0x3d41233b	0.04715274
162	0xbe95ceee	-0.29259437
163	0xbecaabcd	-0.395842
164	0x3d6210fc	0.05519198
165	0xbe0d939e	-0.13825843
166	0xbf88b72d	-1.0680901
167	0xbe5af7fa	-0.21383658
168	0xbe7cf941	-0.24704458
169	0xbcccabad	-0.024984205
170	0xbe6ce41f	-0.23133896
171	0xbaedd941	-0.0018146412
172	0x3d051081	0.032486442
173	0xbd82f292	-0.06393923
174	0x3e3ada8a	0.18247429
175	0xbf0d4520	-0.551836
176	0xbd9eef2e	-0.07760464
177	0xbe88338d	-0.2660183
178	0xbe8d4e04	-0.27598584
179	0xbd6a3210	-0.05717665
180	0x3cb9f972	0.022701953
181	0xbd63b0aa	-0.0555884
182	0x3d32a4f1	0.04361433
183	0xbf07948e	-0.5296105
184	0x3d8431f6	0.06454842
185	0xbe823567	-0.25431368
186	0xbd2bef15	-0.041976053
187	0x3b87c6fb	0.0041435934
188	0x3c059167	0.008152342
189	0xbe4feda0	-0.2030549
190	0xbf466682	-0.77500165
191	0x3d7d8c3a	0.06190131
192	0xbcd51246	-0.02600969
193	0xbe9e5851	-0.30926755
194	0x3dbecdad	0.09316573
195	0xbefa1c89	-0.48849896
196	0xbee60369	-0.44924477
197	0x3e1965ec	0.14980286
198	0x3e530f5b	0.20611326
199	0xbedcb7b3	-0.431089
200	0xbe72f546	-0.23726377
201	0xbe8a41fa	-0.2700346
202	0xbcab36a3	-0.020900076
203	0xbf23705d	-0.6384333
204	0xbf79edb4	-0.9762833
205	0x3ec541ac	0.38526666
206	0xbebe82c5	-0.37209144
207	0x3f2417e6	0.64098966
208	0xbdaa9bf7	-0.08330529
209	0x3ea578a4	0.32318604
210	0xbd711b6f	-0.058864053
211	0x3ee8b902	0.4545365
212	0x3d0d37e3	0.034477126
213	0x3e3f5b75	0.18687232
214	0xbd150ded	-0.036390234
215	0x3de8ee43	0.1137357
216	0xbe2c8828	-0.16848814
217	0xbc28b0f4	-0.010296095
218	0xbed6c7bc	-0.4194926
219	0xbe245ee2	-0.1605182
220	0xbe79c838	-0.24392784
221	0xbed387ce	-0.41314548
222	0xbcb2452d	-0.021761501
223	0xbc5e77d0	-0.01357837
224	0x3e9f32c8	0.3109343
225	0x3ec8edfb	0.39244065
226	0xbe6379eb	-0.22214477
227	0x3d614bda	0.05500398
228	0x3db42ef9	0.08798022
229	0xbe416d12	-0.18889263
230	0xbeb162a9	-0.34645584
231	0xbed68e6c	-0.41905534
232	0xbcca0dbd	-0.024664754
233	0xbe817c40	-0.25290108
234	0xbebef93e	-0.37299532
235	0xbf2b13ed	-0.6682728
236	0x3d43bf56	0.047789894
237	0x3eb52571	0.35380128
238	0xbd9ebad5	-0.07750479
239	0xbea2c57d	-0.31791297
240	0xbdcea539	-0.100901075
241	0x3c25ce10	0.01011993
242	0x3c93eae9	0.01805635
243	0xbd4ae1d8	-0.049531788
244	0x3d83eaa9	0.06441242
245	0xbde9e6cb	-0.114209734
246	0xbdd59dae	-0.10430466
247	0xbf75cc88	-0.96015215
248	0xbcdfb78d	-0.027309204
249	0xbed66a5f	-0.4187803
250	0xbca1048f	-0.019655494
251	0xbf1276d9	-0.572126
252	0xbe82c0ef	-0.25537822
253	0xbcd9a841	-0.026569488
254	0xbedb9fea	-0.42895442
255	0xbf5d90cd	-0.86549073

layer3.bias f4 [256]
0	0xbf0fbccb	-0.5614745
1	0x3fefefde	1.8745077
2	0x3d9441bf	0.072391026
3	0x4035a5c9	2.8382437
4	0xbd88f2f2	-0.06686963
5	0x3ea3588a	0.31903487
6	0xbed527cb	-0.41631922
7	0x3e2668c8	0.16250908
8	0x3f3f55e5	0.7474044
9	0x3e907a96	0.28218526
10	0x3f1c8d41	0.61153036
11	0xbef79e22	-0.48362833
12	0x408fe9fa	4.4973116
13	0x40804b37	4.0091815
14	0xbeb1bc09	-0.34713772
15	0x3f429695	0.7601102
16	0x3f8d9621	1.1061441
17	0xbe9f7760	-0.31145763
18	0x4087ff38	4.2499046
19	0xbe0fd91d	-0.14047666
20	0x3ebecb1e	0.3726434
21	0x3ddf9fb2	0.10919131
22	0xbd382427	-0.044956353
23	0x3f2da1b6	0.67824876
24	0xbf037d4a	-0.5136305
25	0x3fac1171	1.3442823
26	0x3f88b2a5	1.0679518
27	0xbf0d471b	-0.55186623
28	0xbd9e7eb7	-0.07739013
29	0x4090de56	4.5271406
30	0x3e06ee3c	0.13176817
31	0xbd2d2c9a	-0.042278863
32	0x3eb57642	0.35441786
33	0xbe49e2a9	-0.1971537
34	0x3b21fbb0	0.0024716668
35	0xbee53325	-0.44765583
36	0xbfc92d6a	-1.5716984
37	0xbe7688f7	-0.24075685
38	0xbcfe6d96	-0.031058114
39	0xbed0bf29	-0.40770844
40	0x3f8d7752	1.1052039
41	0x3fa5ab63	1.2942928
42	0x3f206885	0.62659484
43	0x404ee7cf	3.2328985
44	0x3f524a7f	0.8214492
45	0xbde041a9	-0.10950024
46	0xbdc3c9b9	-0.0955996
47	0xbe8a7c43	-0.2704793
48	0xbf327f23	-0.69725245
49	0xbce756e3	-0.028239673
50	0xbe5b348e	-0.21406767
51	0x3f435427	0.7630028
52	0x401bc3c7	2.4338243
53	0x3f3bbcbd	0.73334867
54	0x3f8b2a12	1.0872214
55	0xbe4e42ed	-0.20142718
56	0x3ef27f1a	0.47362596
57	0xbe514cb8	-0.20439422
58	0x3e829eca	0.2551177
59	0xbe691e4f	-0.22765468
60	0xbf9769ef	-1.1829203
61	0x3eb6817d	0.35645667
62	0x3f62fbc6	0.88665426
63	0xbebbddcd	-0.36692658
64	0x3f2aeb13	0.66764945
65	0x3f3b5237	0.73172325
66	0x3f76b979	0.9637676
67	0xbed7e1d7	-0.4216449
68	0x3e83c295	0.25734392
69	0x3ee28360	0.44240856
70	0xbf2cd9ea	-0.6752001
71	0xbe296232	-0.16541365
72	0x3f023577	0.5086283
73	0xbf3eb795	-0.74498874
74	0x3f5eeaed	0.8707722
75	0x3ec49b16	0.3839957
76	0xbdb31aff	-0.087453835
77	0x3f0a4e16	0.540254
78	0x3e6f7d47	0.23387633
79	0x3fa5cf0d	1.2953812
80	0x3faf2120	1.3681984
81	0xbe297eb1	-0.16552235
82	0xbde871c4	-0.11349824
83	0x3fa47ffc	1.2851558
84	0x4085695a	4.1691103
85	0x3e8c882f	0.2744765
86	0x4034cf71	2.8251612
87	0x3fadb09c	1.3569522
88	0x409259b7	4.5734515
89	0x3faba5ae	1.3409936
90	0x3f8d62b9	1.1045753
91	0x4065adf7	3.588743
92	0x3e90ccb0	0.28281164
93	0x3e8364ba	0.25662786
94	0x3fe1aef8	1.7631521
95	0xbf65b627	-0.8973107
96	0x404be6bf	3.1859586
97	0x3fd46310	1.6592731
98	0xbe8607dc	-0.2617787
99	0x3f3b913c	0.73268485
100	0x3fd2ec39	1.647834
101	0xbe2f028d	-0.17090817
102	0x3feb8b40	1.8401871
103	0x3e6da24e	0.23206446
104	0x3eb2ab55	0.3489634
105	0x3fd49307	1.6607369
106	0x3f933abb	1.1502298
107	0xbe4668f9	-0.19375981
108	0xbf076ec5	-0.52903396
109	0x3e91f2cd	0.28505555
110	0xbe4566dd	-0.1927752
111	0x3d1afcc6	0.03783872
112	0xbea0d04a	-0.31408912
113	0x3f41ebfd	0.75750715
114	0xbecb8446	-0.39749354
115	0x407b5a52	3.9273877
116	0xbe08aca8	-0.13347113
117	0xbe420328	-0.18946517
118	0x3fb70c92	1.4300711
119	0x3e40d824	0.18832451
120	0x3f430ea1	0.76194197
121	0x3c6fad46	0.014628714
122	0x400b675a	2.178183
123	0x3f4e8937	0.80678123
124	0xbcfe5af3	-0.031049227
125	0x3f3b1463	0.7307798
126	0x3ee6fffd	0.4511718
127	0xbf08eab8	-0.5348315
128	0xbeb6a563	-0.35673055
129	0xbe1ef192	-0.1552184
130	0x3f78355d	0.96956426
131	0xbe94c918	-0.29059672
132	0xbe02d0a4	-0.12774903
133	0xbfa42a0f	-1.2825335
134	0x3f0ccdfa	0.55001795
135	0xbdf3511c	-0.11880705
136	0x40931b20	4.597061
137	0x3f0ee31d	0.558153
138	0xbe15d4ed	-0.14632006
139	0x3f0dcb76	0.5538858
140	0x3f42be72	0.76071846
141	0xbf6b8b9b	-0.92009896
142	0x3f2804e0	0.6563244
143	0x3ff60b0a	1.9222119
144	0x3e4507f2	0.19241312
145	0xbe351bd1	-0.17686392
146	0x3f367396	0.7127012
147	0xbea3c93c	-0.31989467
148	0x3ffba1fc	1.9658809
149	0x3e02b994	0.12766105
150	0x3f6dee3a	0.9294163
151	0x3e8f82d7	0.2802951
152	0xbf104ae4	-0.56364274
153	0x3e0caf14	0.13738662
154	0x3e2dee54	0.16985446
155	0x4047189b	3.1108768
156	0xbe762810	-0.2403872
157	0xbe9567c1	-0.2918072
158	0x3c37514f	0.011188819
159	0xbe0502b1	-0.12989308
160	0x3c764207	0.015030391
161	0x3e427234	0.18988878
162	0xbe6e9120	-0.23297548
163	0x3eb6439d	0.3559846
164	0xbb46caf0	-0.0030333363
165	0x3fbf4fde	1.4946249
166	0x4010766a	2.2572274
167	0x3f3c2bf2	0.73504555
168	0x3eb35eca	0.35033256
169	0xbfa95688	-1.3229532
170	0xbe9a185a	-0.30096704
171	0x3f05443a	0.5205723
172	0x3f1c7dc9	0.6112943
173	0x3e8d009c	0.27539527
174	0xbd97b497	-0.07407492
175	0x3ef2ad11	0.47397664
176	0x3f1592e4	0.5842726
177	0x400ae1bb	2.1700275
178	0xbf37a892	-0.7174159
179	0xbe1cac45	-0.1530009
180	0xbea1d229	-0.31605652
181	0x3d53d4c8	0.051716596
182	0x3d7e136d	0.062030245
183	0xbeac4a42	-0.33650404
184	0x3efd418c	0.4946407
185	0xbff4338f	-1.9078234
186	0x3f0efed3	0.5585758
187	0x3ee39e2e	0.4445662
188	0x3d9a704e	0.07540952
189	0xbd072f93	-0.033004355
190	0x3f92480f	1.142824
191	0xbe873981	-0.2641106
192	0x401b1800	2.4233398
193	0x407af110	3.9209633
194	0x3f57cf2c	0.84300494
195	0xbdd172ca	-0.102269724
196	0x3d30bbf2	0.04314799
197	0xbe24968d	-0.16073056
198	0x408a4546	4.320956
199	0x3f337e26	0.7011436
200	0x3fdb0cf4	1.7113328
201	0x3da5990a	0.080858305
202	0x3dd06a38	0.101765096
203	0x3f74ac10	0.95575047
204	0xc046f397	-3.1086175
205	0xbe592e8b	-0.21209161
206	0xbe09a509	-0.13441862
207	0x3f755713	0.9583599
208	0x3ee681e2	0.45020968
209	0x40081ba0	2.126686
210	0x3f903d72	1.1268752
211	0xbd3b0e22	-0.045667775
212	0xbe8ed352	-0.278956
213	0x3f21e807	0.6324467
214	0x3ea36ff8	0.31921363
215	0xbdd74148	-0.10510498
216	0x4092d55e	4.588546
217	0xbdb3b850	-0.08775389
218	0x3f681609	0.9065862
219	0xbf0b6117	-0.5444502
220	0xbf3ef6a7	-0.7459511
221	0x3ebbeade	0.36702627
222	0xbdbd1867	-0.0923317
223	0xbdfdf8de	-0.12400983
224	0x4065afab	3.588847
225	0x3f950d6f	1.1644725
226	0x3f3034d5	0.68830615
227	0xbcd3bf51	-0.025848063
228	0x3f9764b0	1.1827602
229	0xbdd2ef85	-0.10299591
230	0x3ffe88b6	1.9885471
231	0x3eb7f9db	0.35932812
232	0x3f40cf24	0.7531607
233	0x3dc9bce9	0.09850485
234	0xbcd3e689	-0.025866764
235	0x3f5a8282	0.8535539
236	0x406fbfc2	3.746079
237	0xbd4952e3	-0.049151313
238	0xbc808b9f	-0.015691577
239	0xbd294bd5	-0.041332085
240	0x3ec856a6	0.39128608
241	0x3ed38fb2	0.41320568
242	0x3ed78c12	0.42099053
243	0xbeee3f60	-0.46532726
244	0x3e09e624	0.13466698
245	0x3f326355	0.6968282
246	0x3ed7a149	0.42115238
247	0xbe0b19b4	-0.13584024
248	0xbf8b90cc	-1.0903563
249	0xbe303524	-0.17207772
250	0xbdaf78f2	-0.0856799
251	0x3f909ff4	1.1298814
252	0xbe122471	-0.14271714
253	0x3eac7809	0.3368533
254	0x3f3b43b1	0.73150164
255	0xbeaebaf2	-0.34127003

layer4.weight f4 [128, 256]
0	0xbdc63f94	-0.09680095
1	0x3c249d4e	0.01004727
2	0x3daf1092	0.085480824
3	0xbe4fb56c	-0.2028405
4	0xbd3d7f3d	-0.046263922
5	0x3a897062	0.0010485763
6	0xbd078057	-0.03308138
7	0xbe170a2b	-0.14749973
8	0xbd4ac298	-0.049501985
9	0xbb920137	-0.004455711
10	0xbdad7165	-0.08468894
11	0x3d0e3d8c	0.034726664
12	0xbd7ebd23	-0.062192094
13	0xbcb4a20c	-0.022049926
14	0x3d2ca51c	0.042149648
15	0x3d7633ac	0.060107872
16	0xba915851	-0.0011088942
17	0x3d024789	0.031806502
18	0xbcef8520	-0.029238284
19	0x3d19ac17	0.037517633
20	0xbd97e1c4	-0.07416108
21	0xbe2912c2	-0.16511062
22	0x3d2b8266	0.041872405
23	0xbcd65f7c	-0.026168577
24	0xbe19391c	-0.14963192
25	0x3ccde70b	0.025134584
26	0xbe9c9c38	-0.30587935
27	0xbd064d37	-0.03278848
28	0xbde8aa2d	-0.113605835
29	0xbc4eec0c	-0.01262952
30	0xbc637f02	-0.0138852615
31	0xbd97789e	-0.07396053
32	0xbd165208	-0.036699325
33	0x3d3a6dab	0.045514744
34	0xbe07e7c2	-0.13272002
35	0xbc8c9aa4	-0.017163582
36	0xbdde66ba	-0.10859437
37	0xbd6a96bf	-0.05727267
38	0x3d665f4c	0.056243226
39	0xbdc21af3	-0.094777964
40	0xbcd7e323	-0.026353424
41	0xbd8788b5	-0.06617872
42	0xbd587f96	-0.05285605
43	0x3dbad0a4	0.09121826
44	0xbdb53343	-0.08847668
45	0xbcff8443	-0.031190997
46	0x3c89c994	0.016819753
47	0x3d15888a	0.036507167
48	0xbd83fc36	-0.0644459
49	0xbd20c2a9	-0.039248142
50	0x3d16ed03	0.036847126
51	0x3cd43362	0.025903407
52	0x3e21fb88	0.15818608
53	0x3cb66bd3	0.022268211
54	0xbd65ee3e	-0.05613541
55	0x3c286602	0.010278227
56	0x3b1eab2e	0.0024210918
57	0x3bb645fa	0.005562541
58	0xbdb88c13	-0.09011092
59	0xbc52c1fc	-0.012863632
60	0xbe33e605	-0.17568214
61	0xbde8ab7a	-0.113608316
62	0xbda8a876	-0.082352564
63	0x3d0d713c	0.034531817
64	0xbdc1bf2d	-0.09460292
65	0xbdae08ce	-0.08497773
66	0x3c8dd496	0.017313283
67	0xbcc499da	-0.023999143
68	0xbe0491b8	-0.12946212
69	0xbd923b08	-0.071401656
70	0xbe26bf9d	-0.16284032
71	0x3d793976	0.060845815
72	0xbe1f4afd	-0.1555595
73	0xbde9cc9f	-0.114159815
74	0xbd7e8bd7	-0.06214508
75	0x3b708ac7	0.0036703811
76	0xbd301fe3	-0.04299916
77	0x3c91a9bf	0.017781137
78	0x3d260f58	0.040541977
79	0xbd943589	-0.072367735
80	0xbcee7f22	-0.029113356
81	0x3c887b7e	0.016660448
82	0x3d0fd9e4	0.035119906
83	0xbcc1f5cc	-0.023676775
84	0xbe7c172d	-0.24618216
85	0xbe97b4da	-0.29630166
86	0xbdcf032f	-0.10108029
87	0xbc153b23	-0.009108338
88	0xbd3bb621	-0.04582799
89	0x3d01d2c6	0.03169515
90	0x3d36353d	0.044484366
91	0x3bde5d92	0.006786057
92	0xbd3f93c6	-0.046771787
93	0x3c9fe3d0	0.01951781
94	0xbb1c5126	-0.002385208
95	0xbd462324	-0.048373356
96	0xbd3dcb99	-0.046336744
97	0xbd3cd4d9	-0.046101425
98	0xbc59b3f1	-0.01328753
99	0xbd951d2e	-0.07280956
100	0xbe3688cb	-0.1782562
101	0xbdafa5c4	-0.08576539
102	0x3c6cc109	0.01445032
103	0x3bd123a0	0.0063824207
104	0x3ef50e4b	0.47862467
105	0xbb686bd5	-0.0035464664
106	0xbc82fee6	-0.015990686
107	0xbde3be1f	-0.11120247
108	0xbd280285	-0.041018028
109	0x3ce03bb6	0.027372222
110	0xbbd86126	-0.006603378
111	0xbdfa8d18	-0.12233943
112	0xbd3893d0	-0.04506284
113	0xbd4d0192	-0.050050326
114	0xbe0505d6	-0.12990507
115	0xbd888c6f	-0.066674106
116	0x3cc7c48f	0.024385719
117	0xbce38945	-0.027775416
118	0x3cb7277b	0.022357693
119	0xbd1cfcc3	-0.03832699
120	0xbe0d617d	-0.1380672
121	0xbe29651f	-0.16542481
122	0xbd73fb0b	-0.059565585
123	0xb9e782f1	-0.00044157312
124	0xbd96df19	-0.07366771
125	0xbde35ec0	-0.111020565
126	0xbd9d6a3f	-0.076862805
127	0xbdf29cd0	-0.11846316
128	0xbd88f80d	-0.06687937
129	0xbd072ae4	-0.032999888
130	0x3d4db45e	0.05022084
131	0xbd8175a7	-0.063212685
132	0xbcd99d7b	-0.02656435
133	0xbdec8481	-0.115487106
134	0x3d0b2873	0.033974122
135	0xb8bd3846	-9.022704e-05
136	0xbd2f22f5	-0.042757947
137	0xbd2dbe9f	-0.04241812
138	0xbd9656c1	-0.07340766
139	0x3c2b6173	0.010460245
140	0xbdac09d0	-0.08400309
141	0xbc93be13	-0.01803497
142	0xbe23d74d	-0.160001
143	0xbedf0419	-0.43557814
144	0x3cd3511b	0.02579551
145	0x3cac3b02	0.02102423
146	0xbdc64113	-0.09680381
147	0x3d47bc9a	0.04876385
148	0xbe31c8e6	-0.17361793
149	0xbddef877	-0.10887235
150	0xbc6d8ea7	-0.014499343
151	0xbda580fe	-0.08081244
152	0x3da285d4	0.07935682
153	0xbe0e9239	-0.13922967
154	0xbde3e008	-0.11126715
155	0x3c6f0012	0.014587419
156	0x3c950a82	0.018193487
157	0xbccd45d1	-0.025057705
158	0xbdcc83dd	-0.099860884
159	0xbd3f2f15	-0.04667576
160	0xbe8d1c08	-0.2756045
161	0xbd87cb2c	-0.06630549
162	0xbdea9a0f	-0.114551656
163	0xbe0183a1	-0.12647869
164	0xbb4caa93	-0.00312296
165	0xbcde316f	-0.027123181
166	0xbcc26a9e	-0.02373248
167	0xbcf99a01	-0.030468943
168	0x3d6c2e87	0.05766156
169	0xbdfb8d66	-0.12282829
170	0xbbdae98a	-0.006680672
171	0xbda426d7	-0.080152206
172	0xbd5628cc	-0.052285
173	0xbd87d9b3	-0.0663332
174	0xbcb8d4e0	-0.022562444
175	0x3b57c4b2	0.0032923636
176	0xbd7c7645	-0.061636228
177	0xbd88ddbc	-0.066829175
178	0xbdfa61f8	-0.12225717
179	0xbda4a282	-0.080388084
180	0xbe1a5c3a	-0.15074244
181	0xbd9eb31e	-0.07749008
182	0x392d9f2f	0.00016557866
183	0xbd2b7d8b	-0.041867774
184	0x3b50e855	0.0031876762
185	0xbe1c4a78	-0.15262783
186	0x3c0339d3	0.008009392
187	0xbe1c87de	-0.15286204
188	0xbdc6104b	-0.096710764
189	0xbcd260dd	-0.025680954
190	0xbeb3cd8a	-0.3511775
191	0xbc8627aa	-0.016376335
192	0xbd3b1714	-0.045676306
193	0xbdad87ee	-0.08473192
194	0xbe60ce61	-0.21953727
195	0xbdce849e	-0.100838885
196	0xbcc444ab	-0.023958525
197	0x3d1b825c	0.037966117
198	0xbdb7246a	-0.08942492
199	0xbd98ccaf	-0.07460915
200	0xbcf327bb	-0.02968203
201	0xbd9b948e	-0.07596694
202	0x3c69007f	0.01422131
203	0x3c86f241	0.016472938
204	0xbdc88913	-0.0979177
205	0xbd2893a7	-0.041156437
206	0x3ac41914	0.0014961087
207	0xbc32c74e	-0.010911776
208	0xbd146a82	-0.036234386
209	0xbd51c0d5	-0.05120929
210	0xbdae1062	-0.084992185
211	0x3cce7716	0.025203269
212	0xbdbb0443	-0.09131672
213	0xbc8b1ff1	-0.016983004
214	0x3c8a0913	0.01685003
215	0x3cd0ddd8	0.025496408
216	0xbd5f12dd	-0.05446135
217	0xbba17b24	-0.0049280096
218	0xbe0e8057	-0.13916145
219	0xbd686905	-0.05674078
220	0xbd87e931	-0.066362746
221	0xbcf81dc9	-0.03028764
222	0xbd0f08e2	-0.03492058
223	0x3d20a7ac	0.039222404
224	0x3bf2382a	0.007391949
225	0x3d02cd46	0.031934045
226	0xbd0827eb	-0.033241194
227	0x3d467d22	0.04845918
228	0xbc4ea741	-0.012613119
229	0xb97bd3d4	-0.00024016137
230	0x3d044c00	0.03229904
231	0xbcf5c725	-0.030002186
232	0xbcb166a6	-0.021655392
233	0xbbc215b9	-0.0059229997
234	0xbd03fd64	-0.032224074
235	0x3cfcf2d0	0.0308775
236	0xbd0fa54e	-0.035069756
237	0x3d5aa2e8	0.053378016
238	0xbcce7578	-0.025202498
239	0x3da81066	0.08206253
240	0xba40ca38	-0.00073543517
241	0x3bd282b7	0.006424274
242	0xbc696e84	-0.01424754
243	0xbdb0edbd	-0.08639095
244	0xbcb0bed0	-0.021575361
245	0xbd2c600d	-0.04208379
246	0x3cfa5e9d	0.030562693
247	0x3db97d17	0.09057062
248	0xbb848af7	-0.004044886
249	0xbcaaa982	-0.02083278
250	0x3d47555c	0.04866539
251	0xbe6f950c	-0.233967
252	0xbd1b2a1a	-0.037881948
253	0xbdaf2888	-0.085526526
254	0xbd1b19cb	-0.037866395
255	0xbda5ccea	-0.08095725

layer4.bias f4 [128]
0	0x3de44e50	0.111477494
1	0x3eff3cfc	0.49851215
2	0x3fadece4	1.3587918
3	0x3ecb1e98	0.3967178
4	0xbea2542c	-0.31704843
5	0xbe078ebf	-0.13238047
6	0x3f411aae	0.75431335
7	0x3ebe7a80	0.37202835
8	0x3f85bcf1	1.0448285
9	0xbe6a5c9b	-0.22886889
10	0x3fee20c3	1.8603748
11	0xbc0a37e8	-0.008436181
12	0xbe8a4bab	-0.27010855
13	0xbd7c1c36	-0.06155034
14	0x3d8b15e1	0.067912824
15	0xbd53c288	-0.05169919
16	0xbea926d4	-0.33037436
17	0x3fa7233c	1.3057628
18	0x3f8437a1	1.0329477
19	0xbe2779e4	-0.16355091
20	0xbd652f66	-0.055953406
21	0x3d347925	0.044060845
22	0xbd696cf2	-0.056988664
23	0x40354623	2.8324058
24	0xbdbdb1f1	-0.09262455
25	0xbdf82a58	-0.121174514
26	0x3f289bde	0.65862834
27	0x3dc540c0	0.09631491
28	0x3f8fc7b0	1.1232815
29	0xbd89be60	-0.06725764
30	0x40370372	2.8595853
31	0x3efcb8cb	0.49359736
32	0x4066a530	3.6038322
33	0x3f47954f	0.779622
34	0xbdcdd4e3	-0.100503705
35	0x3f9500e7	1.16409
36	0xbddb6058	-0.107117355
37	0x3c241892	0.010015624
38	0x3b73488d	0.00371221
39	0x3e503dd5	0.20336087
40	0xbe327720	-0.17428255
41	0x405da4fa	3.4631944
42	0xbd8d61b6	-0.069034025
43	0xbe7b1fbf	-0.24523829
44	0x3f6fedc2	0.93722165
45	0x3d272706	0.0408087
46	0x3f790e79	0.9728771
47	0x3d5f05a2	0.05444873
48	0x3fcde2af	1.6084803
49	0xbe009fd2	-0.12560967
50	0xbc7877dc	-0.015165295
51	0x3f7d3e9f	0.9892368
52	0x3db7fe7a	0.089840844
53	0xbcaa65ff	-0.020800589
54	0x3e92e778	0.28692222
55	0xbd7380ab	-0.05944888
56	0xbe005bf5	-0.12535079
57	0xbf83591b	-1.0261568
58	0x3e95c926	0.29255027
59	0xbd9f5540	-0.07779932
60	0xbea6a962	-0.32551104
61	0x40bcfff5	5.9062448
62	0x3f4c9bb9	0.79925114
63	0xbbed4d1a	-0.0072418572
64	0xbc74c6cb	-0.014939974
65	0x3f07c04f	0.53027815
66	0xbd8047f4	-0.06263724
67	0x3fcd0161	1.6016046
68	0xbdc078fe	-0.093980774
69	0xbd8eaced	-0.06966577
70	0x401df527	2.468088
71	0x3ed9d4be	0.42545122
72	0x3e25a362	0.16175607
73	0x401efd06	2.4841933
74	0xbdd69549	-0.10477693
75	0xbe353cf0	-0.17699027
76	0xbe2848c0	-0.16434002
77	0xbd75fef5	-0.0600576
78	0xbccb51c8	-0.02481927
79	0x3d9183e2	0.07105233
80	0xbbcffc62	-0.006347225
81	0xbe41852d	-0.18898459
82	0x3ee9af87	0.4564173
83	0x3c863918	0.016384646
84	0x3ef9fd2f	0.48825976
85	0xbe6c14f9	-0.23054875
86	0xbc87c3bb	-0.016572824
87	0x3e9406e1	0.28911498
88	0xbf19e1ab	-0.60109967
89	0x40720a81	3.781891
90	0x3f52357e	0.8211287
91	0x3cf51319	0.029916333
92	0x3f20ea68	0.62857676
93	0x3e02f405	0.12788399
94	0x3f6e3386	0.9304737
95	0x3f2a3c67	0.66498417
96	0xbdfc5f89	-0.123229094
97	0x3f49ecff	0.7887725
98	0x40ae01af	5.4377055
99	0x4019e177	2.4043863
100	0xbcd900ad	-0.02648958
101	0x3e2b618e	0.16736433
102	0x403304d1	2.797169
103	0xbdad07fa	-0.08448787
104	0xbdaebc1a	-0.08531971
105	0xbd9a86f6	-0.07545273
106	0xbb1dd630	-0.0024083965
107	0xbf0f9666	-0.56088865
108	0x3ec4b591	0.38419774
109	0xbe1f59a8	-0.15561545
110	0xbd931a4d	-0.07182751
111	0xbe7708fa	-0.24124518
112	0x3d82ac83	0.0638056
113	0xbe91a1bc	-0.28443706
114	0xbf182d70	-0.5944433
115	0xbdfbf2e9	-0.12302191
116	0xbcb9766e	-0.02263948
117	0x3ff3c641	1.9044877
118	0xbf153587	-0.582848
119	0xbd9b40be	-0.07580708
120	0x3f59b223	0.8503744
121	0xbe42f049	-0.19036974
122	0x408c0b11	4.376351
123	0xbec14b60	-0.3775282
124	0x3ee3d892	0.44501168
125	0xbe1b9b44	-0.15195948
126	0x3f158462	0.58405125
127	0xbcebb158	-0.028771088

layer5.weight f4 [1, 128]
0	0x3cbb4d37	0.022863967
1	0x3dbb0c7e	0.09133242
2	0xbd792cce	-0.060833745
3	0x3c5f40f2	0.013626324
4	0xbd518367	-0.051150706
5	0xbbd4a6a3	-0.006489591
6	0xbc3f2d8a	-0.011668572
7	0x3a1d43e7	0.0005999193
8	0x3c3913cc	0.011296224
9	0x3c73c648	0.014878817
10	0xbe151b29	-0.14561142
11	0xbda67178	-0.08127111
12	0x3e416d76	0.18889412
13	0x3bae9506	0.0053278236
14	0x3d8d3e53	0.06896653
15	0xbd197fd7	-0.037475433
16	0xbda23027	-0.079193406
17	0xbe849d36	-0.25901192
18	0xbe185a4e	-0.14878199
19	0xbce9538a	-0.028482217
20	0xbcf84c09	-0.030309694
21	0x3cec2634	0.02882681
22	0x3e0c7ae5	0.13718756
23	0xbde6874f	-0.11256277
24	0xbd8bd496	-0.06827657
25	0x3dab244d	0.08356533
26	0xbddcdc0b	-0.10784157
27	0xbd974f6e	-0.07388197
28	0xbf476e44	-0.77902627
29	0xbda543d6	-0.08069579
30	0xbec16017	-0.37768623
31	0xbdaab4b4	-0.08335248
32	0x3c87624b	0.016526362
33	0xbefd4abb	-0.49471077
34	0x3e09a72e	0.1344268
35	0x3de4741d	0.11154959
36	0x3b52ca73	0.0032164126
37	0x3c167002	0.009181978
38	0xbc955330	-0.018228143
39	0x3da9a3aa	0.082831696
40	0x3d8cf658	0.06882924
41	0x3c77d49a	0.015126372
42	0x3c811c42	0.015760545
43	0x3e83435d	0.25637332
44	0x3a4a5cd0	0.00077195186
45	0xbe1bb4dd	-0.15205713
46	0x3e56e0c9	0.20984186
47	0x3ee2dad7	0.44307587
48	0xbdbe5ccb	-0.092950426
49	0x3bc2356b	0.005926778
50	0xbc6a6658	-0.014306627
51	0xbc29dd4a	-0.010367701
52	0xbbb56efa	-0.005536911
53	0x3c859877	0.016308052
54	0x3da1250c	0.07868394
55	0xbd994754	-0.07484308
56	0xbd3cd6d8	-0.04610333
57	0xbeb4de28	-0.35325742
58	0xbddd8536	-0.108164236
59	0x3ce5e730	0.02806434
60	0xbbb1f48e	-0.0054307645
61	0xbf19c065	-0.60059196
62	0xbde1b832	-0.110214606
63	0xbb446b5f	-0.0029971225
64	0x3d843190	0.06454766
65	0x3cda258f	0.026629237
66	0x3c92a561	0.017901124
67	0xbf145e0c	-0.57956004
68	0xbd69083f	-0.05689263
69	0x3d54b170	0.05192703
70	0xbc0e1b37	-0.008673481
71	0xbe05fd26	-0.1308485
72	0xbe3ae0f9	-0.18249883
73	0x3e52ce19	0.20586433
74	0x3d9e15ff	0.07719039
75	0x3d97a685	0.07404808
76	0xbda9189e	-0.082566485
77	0x3db05e98	0.08611792
78	0x3d05b21b	0.032640558
79	0x3d6fac73	0.05851407
80	0xbb16612b	-0.00229461
81	0x3cf53fa1	0.029937567
82	0xbe2cd1d2	-0.16876915
83	0xbc88e38d	-0.016710067
84	0xbe3e21b0	-0.18567538
85	0xbd85845f	-0.065193884
86	0xbdb27786	-0.087142035
87	0xbd8ed4cd	-0.06974182
88	0xbd3e2df9	-0.04643056
89	0xbe48f0a6	-0.1962305
90	0xbe1e9823	-0.15487723
91	0x3da8d690	0.082440495
92	0xbd0a4701	-0.03375912
93	0x3dfe175c	0.12406799
94	0x3d14179d	0.036155332
95	0xbdef4467	-0.116829686
96	0x3cd1c9cb	0.025608918
97	0xbcc1a912	-0.02364019
98	0xbebf52e2	-0.37367922
99	0xbf189b85	-0.59612304
100	0xbd025da4	-0.031827584
101	0xbd29dd6b	-0.041470926
102	0xbec1a3dc	-0.37820327
103	0xbd7370d4	-0.059433773
104	0xbd73ec63	-0.059551608
105	0xbc7ca085	-0.01541913
106	0x3d3a8599	0.045537565
107	0x3db07535	0.086161055
108	0xbdb9fa4c	-0.090809435
109	0xbccfe33c	-0.025376908
110	0xbd16f336	-0.036853038
111	0x3d5dc331	0.054141227
112	0xbdbcd5c8	-0.09220463
113	0xbdaf2607	-0.08552175
114	0x3c702407	0.014657027
115	0x3cbbed34	0.022940256
116	0x3df9f852	0.122055665
117	0x3ab553c7	0.0013834172
118	0x3ce0aa2e	0.027424898
119	0x3c794cd8	0.015216075
120	0xbccaaf92	-0.024741922
121	0xbdd89df1	-0.10577
122	0xbe421cf9	-0.18956365
123	0xbe021485	-0.1270314
124	0xbe030999	-0.1279663
125	0x3da041b9	0.078250356
126	0xbdda8a9c	-0.10670969
127	0x3c6f7fb4	0.014617849
