PPO/ppo_actor.pth (torch, 549599 bytes, 10 tensors)

layer1.weight f4 [128, 29]
0	0x3c2c8d7d	0.01053178
1	0xbe0393cc	-0.12849349
2	0xbe9d11fb	-0.3067778
3	0xbe6d61da	-0.23181859
4	0xbe55bdbd	-0.2087316
5	0xbf809dd2	-1.0048163
6	0x3ee1a6ef	0.44072673
7	0x3f51929d	0.8186434
8	0xbeb1a3d1	-0.34695294
9	0xbedb0e00	-0.4278412
10	0xbe5871a5	-0.21137102
11	0x3f4991e1	0.7873822
12	0x3ea889e3	0.329177
13	0x3f26fe49	0.6523176
14	0xbf28f5ae	-0.6599988
15	0xbd557c05	-0.052120227
16	0xbcac6737	-0.02104531
17	0xbddaaf42	-0.10677959
18	0xbf054670	-0.52060604
19	0xbe0dab6b	-0.13834922
20	0x3f188675	0.59580165
21	0xbe302f53	-0.17205553
22	0x3e643cc0	0.222888
23	0xbd30f408	-0.043201476
24	0x3eac725c	0.33681
25	0xbd5aa5f4	-0.05338092
26	0xbc67002f	-0.014099165
27	0xbdf93ed5	-0.121701874
28	0xbdd48fca	-0.10378988
29	0x3f0dc353	0.55376166
30	0x3ec05eb0	0.3757224
31	0xbf21d67f	-0.6321792
32	0xbf9a2bc2	-1.2044604
33	0x3f0f90a9	0.5608011
34	0xbe1a6726	-0.1507841
35	0x3dc0a348	0.094061434
36	0x3ddf8f15	0.109159626
37	0xbf871437	-1.0553044
38	0x3ec2725f	0.37977883
39	0x3f900165	1.1250426
40	0xbcbbdb95	-0.022931853
41	0x3ddbeb07	0.10738187
42	0x3d88a2d1	0.0667168
43	0xbebb2e1a	-0.3655861
44	0xbdfe5398	-0.12418288
45	0x3f002886	0.50061834
46	0x3f887ead	1.0663658
47	0xbe4f6400	-0.2025299
48	0xbf196d22	-0.5993215
49	0xbd34dc1c	-0.044155225
50	0x3d94bdb4	0.072627455
51	0x3eb5e47d	0.35525885
52	0xbf333adf	-0.70011705
53	0xbf1f980a	-0.6234137
54	0x3dfb75e1	0.12278343
55	0xbee45bad	-0.44601193
56	0xbec744ee	-0.38919777
57	0x3f6d7ba1	0.9276677
58	0xbefdbe52	-0.49559265
59	0x3e27a93e	0.16373155
60	0xbfae0972	-1.3596632
61	0x3dd3104a	0.10305841
62	0xbe01400b	-0.12622087
63	0x3edb94ef	0.42887065
64	0x3ed077c5	0.40716377
65	0xbf9763d6	-1.1827343
66	0xbf773066	-0.96558225
67	0xbdea4cdc	-0.11440441
68	0x3f25ed4d	0.6481522
69	0xbe842116	-0.25806493
70	0x3f30d82e	0.69079864
71	0xbeeee160	-0.46656322
72	0xbf17a34f	-0.59233564
73	0x3ec3a1bc	0.3820933
74	0xbe207043	-0.15667824
75	0xbfa2ae2c	-1.2709403
76	0xbf6e2671	-0.93027407
77	0xbf0dce86	-0.55393255
78	0x3e330054	0.17480594
79	0xbeb908ca	-0.36139518
80	0xbe2ab685	-0.16671188
81	0x3ddf3413	0.10898604
82	0x3eab9c0c	0.33517492
83	0xbd2cf986	-0.04223015
84	0xbe2d89ce	-0.169471
85	0xbed35cb5	-0.41281667
86	0x3e961b68	0.29317784
87	0x3da7c989	0.08192737
88	0x3f05486a	0.5206362
89	0xbe9d2d8f	-0.3069882
90	0x3e1b471e	0.15163848
91	0x3efd8853	0.4951807
92	0x3fab8c6c	1.3402228
93	0x3f536ba0	0.825861
94	0xbf3ed3e8	-0.74542093
95	0xbf642a9e	-0.8912753
96	0x3e0ffba4	0.14060837
97	0x3eb0c9b5	0.3452889
98	0x3e0462fb	0.12928383
99	0x3ed1cc46	0.4097616
100	0xbd6b3bed	-0.057430197
101	0xbe6c75d3	-0.23091821
102	0x3e4ba5e7	0.19887505
103	0x3f21b267	0.63162845
104	0x3fad7181	1.3550264
105	0x3dd2ffb3	0.10302677
106	0xbfa1e0c4	-1.2646718
107	0x3e83c276	0.257343
108	0x3e834d3e	0.2564487
109	0xbe11935a	-0.14216366
110	0xbdadbbbf	-0.08483075
111	0xbd741116	-0.059586607
112	0x3ef9afb2	0.48766857
113	0x3ef57a35	0.479448
114	0xbe633f3d	-0.22192092
115	0x3f8bd818	1.0925322
116	0xbb8fcbd1	-0.0043883105
117	0x3f151445	0.58234054
118	0x3e9b822b	0.30372748
119	0x3e5a991c	0.21347469
120	0x3f947042	1.1596758
121	0xbf264309	-0.6494604
122	0xbf6f1265	-0.9338744
123	0xbeff06a0	-0.49809742
124	0x3eacf9b4	0.33784258
125	0x3ef11617	0.47087166
126	0x3f063478	0.5242381
127	0xbeaa5dcc	-0.33274686
128	0x3ed03911	0.40668538
129	0x3f4c8ca8	0.79902124
130	0xbe59a937	-0.21255957
131	0xbf2f7c86	-0.6854938
132	0x3dbf70c9	0.09347684
133	0xbf2d7aa8	-0.67765284
134	0x3f1ff51c	0.6248338
135	0xbee6e477	-0.4509618
136	0xbf046488	-0.517159
137	0x3dcb27df	0.09919714
138	0x3f03fdad	0.51558954
139	0xbe8b8227	-0.27247736
140	0x3f17810a	0.59181273
141	0xbdfaf0d2	-0.12252964
142	0x3eb7f506	0.35929126
143	0x3e17bff9	0.14819326
144	0x3f47b511	0.7801066
145	0xbf99c5f9	-1.2013541
146	0xbe6b2707	-0.22964107
147	0xbb121903	-0.002229274
148	0xbd39a304	-0.04532148
149	0xbd9ef854	-0.077622086
150	0xbe0ee307	-0.13953792
151	0xbe8b0e71	-0.27159455
152	0xbfe72395	-1.8057734
153	0x3d20b656	0.03923639
154	0xbe329763	-0.17440562
155	0xbecfb1fd	-0.40565482
156	0x3fe61aa8	1.7976885
157	0xbde86be6	-0.11348705
158	0x3eacce63	0.3375121
159	0x3dfe6da8	0.12423259
160	0xbd03b37b	-0.032153588
161	0xbe074b85	-0.13212402
162	0x3f28efda	0.65990984
163	0xbef60e3b	-0.48057732
164	0x3f2d2aee	0.6764363
165	0x3e29b4a0	0.16572809
166	0x3ef6677b	0.48125824
167	0x3ccae031	0.024765106
168	0xbc078395	-0.008271118
169	0x3e225484	0.15852553
170	0xbf098063	-0.5371153
171	0x3ee78396	0.4521758
172	0xbf26f2a0	-0.65213966
173	0xbda7646f	-0.08173453
174	0xbc4c46ae	-0.012468023
175	0x3ec78961	0.38972
176	0x3f37df45	0.7182506
177	0x3e87dd4b	0.2653602
178	0xbe7fedf7	-0.2499312
179	0x3fa5add4	1.2943673
180	0xbf526e50	-0.82199574
181	0xbd950c9a	-0.07277794
182	0x3e5b4923	0.21414618
183	0x3f816ddb	1.011165
184	0x3e31d676	0.17366967
185	0xbeea5674	-0.45769083
186	0xbe622e5e	-0.22088
187	0xbe939f26	-0.28832358
188	0xbf01af56	-0.50658166
189	0xbf879534	-1.0592408
190	0xbf20d660	-0.6282711
191	0x3e4e027e	0.20118138
192	0xbef64e29	-0.48106506
193	0x3d52255f	0.05130517
194	0x3f0e4bd6	0.55584466
195	0x3e6e8417	0.23292576
196	0x3f7894b3	0.97101897
197	0xbf9226f1	-1.1418134
198	0x3e763984	0.24045378
199	0xbe874e33	-0.2642685
200	0x3e50c86d	0.20388956
201	0xbe1fedde	-0.15618083
202	0xbcd21418	-0.025644347
203	0x3f2c7048	0.6735883
204	0xbf69d312	-0.9133769
205	0x3e0ae770	0.13564849
206	0x3ea3cb4a	0.31991035
207	0xbfdab6ea	-1.7087071
208	0xbe517e9c	-0.20458454
209	0xbf9c4bf5	-1.221068
210	0x3e814339	0.252466
211	0x3e0b180d	0.13583393
212	0x3cc8cee0	0.024512708
213	0x3e98f412	0.2987371
214	0xbf2bbbb7	-0.67083305
215	0x3d7451ab	0.059648197
216	0xbe8aca15	-0.271073
217	0xbecea844	-0.4036275
218	0x3f5fa625	0.8736289
219	0xbd5dc0ad	-0.054138828
220	0x3f94250d	1.1573807
221	0xbf2f8eca	-0.68577254
222	0x3f430787	0.7618336
223	0xbebcae46	-0.3685171
224	0xbd2aacc0	-0.041668653
225	0xbd90efe0	-0.070770025
226	0x3f1b5aa1	0.60685164
227	0x3e1ac493	0.1511405
228	0x3ea7c49d	0.32767192
229	0xbebcd61d	-0.36882105
230	0x3f95cbb3	1.1702789
231	0xbf2134bd	-0.629711
232	0xbd643431	-0.055713836
233	0xbea4794b	-0.3212379
234	0xbe817e11	-0.25291494
235	0xbe8e921c	-0.27845848
236	0x3fbd0cb1	1.4769498
237	0xbe439f5b	-0.19103758
238	0x3f04e66a	0.51914084
239	0xbfd7ec16	-1.6868923
240	0x3e88926b	0.26674208
241	0xbc5c303e	-0.013439236
242	0xbed4eb59	-0.41585806
243	0x3e2cdb90	0.16880631
244	0xbde8bff3	-0.113647364
245	0xbefdbc33	-0.49557647
246	0x3ee2266b	0.44169936
247	0xbe617e41	-0.22020818
248	0x3f6135b3	0.87972564
249	0xbe5ea428	-0.21742308
250	0x3fbad5bb	1.4596475
251	0xbe5a723d	-0.21332641
252	0xbf3f6384	-0.74761224
253	0xbedd597c	-0.43232334
254	0xbf1f17dc	-0.6214578
255	0x3e567fbd	0.20947166

layer1.bias f4 [128]
0	0xbee42f52	-0.44567353
1	0xbf70de40	-0.94089127
2	0xbf2e90a8	-0.6818948
3	0xbdb397b9	-0.08769173
4	0x3ee48827	0.44635126
5	0x3ea17c80	0.31540298
6	0x3f05d30d	0.5227516
7	0x3c14c366	0.00907979
8	0xbde191f3	-0.11014166
9	0xbf7507e1	-0.9571515
10	0xbdeaeb31	-0.114706405
11	0xbf1d45c1	-0.6143456
12	0xbf036403	-0.5132448
13	0xbf1e7a4c	-0.6190536
14	0xbefb2057	-0.4904811
15	0xbe8da1f8	-0.27662635
16	0xbe8588f9	-0.26081064
17	0xbf6284b3	-0.8848373
18	0xbf09435a	-0.53618395
19	0xbf88f452	-1.0699561
20	0xbf27c85a	-0.6554009
21	0xbf9a5d93	-1.2059807
22	0x3c4d1d81	0.012519241
23	0x3e5f0637	0.21779715
24	0x3f0de0d6	0.554212
25	0xbe16a78a	-0.14712349
26	0xbf8c6b84	-1.0970311
27	0xbfbabde9	-1.4589206
28	0xbda2ac1e	-0.07942985
29	0xbd92bc83	-0.07164862
30	0xbf53a8e5	-0.8267959
31	0xbe394b8c	-0.18095225
32	0xbf150999	-0.5821777
33	0xbec9c9ff	-0.39411923
34	0xbf64f214	-0.8943188
35	0xbe708035	-0.23486407
36	0xbfa5aa7c	-1.2942653
37	0xbef4c829	-0.4780896
38	0xbecb9fd7	-0.39770386
39	0xbece7043	-0.40320024
40	0xbebbb654	-0.36662543
41	0xbda50b78	-0.08058828
42	0xbe872f93	-0.26403484
43	0x3ec5e0e9	0.38648155
44	0xbf10999b	-0.56484383
45	0xbecf803c	-0.40527523
46	0xbde9ee03	-0.1142235
47	0xbf4edd06	-0.80806005
48	0xbf828d2e	-1.0199335
49	0x3eb3e949	0.3513892
50	0xbe24db24	-0.1609922
51	0x3b61cd53	0.0034454658
52	0xbc871671	-0.016490193
53	0xbebc04c9	-0.367224
54	0x3e234a86	0.15946397
55	0x3eb898a3	0.36053953
56	0x3c9f3473	0.01943419
57	0xbd0c2793	-0.03421743
58	0xbf770922	-0.9649831
59	0xbf9f0baf	-1.242544
60	0xbea1d759	-0.3160961
61	0x3e59cb28	0.21268904
62	0x3e03a7fd	0.12857051
63	0xbf8665fb	-1.0499872
64	0x3d3d6ccc	0.046246335
65	0x3e44ec2d	0.19230719
66	0x3d4f1fd8	0.050567478
67	0xbee4df1b	-0.44701466
68	0xbe8864c6	-0.26639384
69	0xbee6123f	-0.44935796
70	0xbe26a9e0	-0.1627574
71	0xbdf02cf9	-0.11727328
72	0xbf689302	-0.90849316
73	0xbeea38f4	-0.45746577
74	0xbf7aa03e	-0.9790076
75	0xbeb3943b	-0.35074028
76	0x3e7d58ba	0.24740878
77	0x3e544117	0.20727955
78	0xbf1f328b	-0.621865
79	0x3efc8387	0.49319097
80	0xbeead403	-0.45864877
81	0xbea5d14b	-0.3238624
82	0x3cd6e966	0.02623434
83	0xbe16e3cf	-0.1473534
84	0xbf640828	-0.89074945
85	0x3e316fe2	0.17327836
86	0xbea3e3ee	-0.32009834
87	0x3e6f1050	0.23346066
88	0xbf155979	-0.5833965
89	0xbf25bc1d	-0.64740163
90	0xbedf9993	-0.43671855
91	0x3e721ec9	0.23644556
92	0xbf4c432c	-0.79789996
93	0xbf332c13	-0.69989127
94	0x3e51b7a6	0.20480213
95	0xbf2ed963	-0.68300456
96	0x3e56d866	0.20980987
97	0xbf4ada89	-0.7923971
98	0xbeca1045	-0.39465538
99	0xbe19554a	-0.14973941
100	0xbf420e29	-0.75802857
101	0x3c984d3c	0.018591516
102	0xbf544199	-0.82912594
103	0x3ebf38c1	0.37347987
104	0xbf9b1c77	-1.2118062
105	0xbca89537	-0.020578964
106	0xbe9871c8	-0.29774308
107	0xbc8ee4e5	-0.01744313
108	0xbf738925	-0.9513114
109	0x3cfdb9b7	0.030972345
110	0xbe71c0cc	-0.23608702
111	0xbe211823	-0.15731864
112	0xbf220d1e	-0.63301265
113	0xbf84c5c0	-1.0372849
114	0x3e619017	0.22027622
115	0x3f14114e	0.57838905
116	0xbe0eb090	-0.13934541
117	0xbf1ea2ab	-0.6196696
118	0xbf1f0a40	-0.62125015
119	0x3f13bd93	0.5771114
120	0x3d590ece	0.052992634
121	0xbd2818a3	-0.04103912
122	0xbedbc4c6	-0.42923564
123	0xbf018342	-0.5059091
124	0xbf49a289	-0.78763634
125	0x3f2c5e1d	0.67331105
126	0xbf3daf9b	-0.7409608
127	0xbd4f9efa	-0.05068872

layer2.weight f4 [256, 128]
0	0xbafe166c	-0.0019385344
1	0xbd272137	-0.04080316
2	0xbdc05f65	-0.09393195
3	0xbf0027c0	-0.50060654
4	0xbdede323	-0.116155885
5	0x3df1b195	0.11801449
6	0xbee15bf8	-0.4401548
7	0xbe50f53b	-0.20406048
8	0xbeaf6607	-0.34257528
9	0xbc2c7e4a	-0.0105281565
10	0xbf4fb10f	-0.81129545
11	0xbf3121d9	-0.6919227
12	0x3ea3fa4b	0.32026896
13	0x3f0705cf	0.5274324
14	0x3e65f3c5	0.22456272
15	0xbee3a889	-0.4446452
16	0x3dbc0d31	0.091822036
17	0x3e0f7b46	0.14011869
18	0x3ecfa1e1	0.4055319
19	0xbe743195	-0.23847039
20	0x3ea2c9cf	0.31794593
21	0xbebe867c	-0.37211978
22	0xbecb9b77	-0.39767048
23	0x3e9f1b29	0.3107541
24	0xbeb2157f	-0.34782025
25	0x3e32a5c8	0.17446053
26	0x3e8e8d0a	0.2784198
27	0xbe717174	-0.23578435
28	0x3dc7ba4a	0.09752329
29	0xbe76bacf	-0.240947
30	0xbf02bf15	-0.5107282
31	0xbeb39f01	-0.35082248
32	0xbebfc159	-0.374522
33	0xbddaaba2	-0.106772676
34	0x3e148b5b	0.14506285
35	0xbe74320c	-0.23847216
36	0xbd9e9f99	-0.077452846
37	0x3edf2f06	0.43590564
38	0xbe9a86cb	-0.30180964
39	0xbf1fabbe	-0.6237143
40	0xbfa8b90e	-1.3181474
41	0xbf158224	-0.58401704
42	0x3e635374	0.22199804
43	0x3ef0471b	0.4692925
44	0xbfab3681	-1.3376008
45	0xbdff9cfc	-0.12481114
46	0x3efada8f	0.48994872
47	0xbd3610ed	-0.044449735
48	0xbec843ad	-0.39114133
49	0xbf19e471	-0.601142
50	0x3da67115	0.081270374
51	0x3f13e386	0.5776905
52	0x3e952756	0.29131573
53	0x3b761dd0	0.003755439
54	0xbe8f385e	-0.27972692
55	0xba6afe0d	-0.0008964248
56	0xbe964f6e	-0.29357475
57	0xbe78e574	-0.2430628
58	0xbee2adcb	-0.4427322
59	0x3e33cc8c	0.17558497
60	0x3ece6a5f	0.4031553
61	0xbfa684a2	-1.3009226
62	0xbee69824	-0.4503795
63	0xbec5eb22	-0.38655955
64	0x3d593d21	0.053036813
65	0x3eecd05e	0.46252722
66	0x3ed50f40	0.41613197
67	0xbe34cef2	-0.17657068
68	0xbf08bb13	-0.5341045
69	0x3e5ceece	0.21575472
70	0x3ed1b0f9	0.40955332
71	0xbc252d74	-0.010081638
72	0xbe6f54ec	-0.23372239
73	0xbed7c863	-0.4214507
74	0x3c370c79	0.011172407
75	0xbdbede7b	-0.093197785
76	0x3eefd1ee	0.4683985
77	0xbf0d96e9	-0.55308396
78	0x3e84be88	0.25926614
79	0xbd02af3f	-0.03190541
80	0x3c7ada6a	0.015310863
81	0xbea15966	-0.31513518
82	0xbdf85621	-0.12125803
83	0xbb8a5da7	-0.00422259
84	0xbea2acc9	-0.3177245
85	0xbe401a60	-0.18760061
86	0xbe316a3a	-0.17325678
87	0xbf9fdee2	-1.2489893
88	0x3e49c2c1	0.19703199
89	0xbe87bd62	-0.26511675
90	0xbd2da0ba	-0.04238961
91	0x3f42771f	0.75963014
92	0xbe903829	-0.28167847
93	0xbe874998	-0.26423335
94	0xbe003bd8	-0.12522829
95	0xbd9dd749	-0.07707078
96	0x3f39c5d4	0.72567487
97	0x3d9eb8d5	0.07750098
98	0xbea1d25e	-0.3160581
99	0xbf026dbe	-0.50948703
100	0xbf2fa2c1	-0.6860772
101	0x3f2ce455	0.6753591
102	0x3db927b6	0.090407774
103	0xbe8d5fc0	-0.27612114
104	0x3d12fbbc	0.035884604
105	0xbea01af5	-0.31270567
106	0x3f33315a	0.6999718
107	0x3e95af04	0.2923509
108	0x3e8f8a1c	0.28035057
109	0x3e835469	0.25650337
110	0xbf532091	-0.8247157
111	0x3ea28705	0.31743637
112	0x3f1ea0c1	0.6196404
113	0x3e42fa26	0.19040737
114	0x3de6059a	0.11231537
115	0xbef989c5	-0.48737922
116	0x3ee15201	0.44007877
117	0xbf7d824e	-0.99026954
118	0xbef1ddf6	-0.47239655
119	0xbe6e7ed0	-0.23290563
120	0x3c8df922	0.01733071
121	0x3e42919f	0.19000863
122	0x3db5b0a2	0.08871581
123	0x3e6cb633	0.23116378
124	0x3e8719b8	0.2638681
125	0x3edd6d73	0.43247566
126	0xbf5ba5ba	-0.85799754
127	0x3e3a8b79	0.18217267
128	0xbc05b5af	-0.0081609925
129	0xbd84a5c4	-0.0647693
130	0xbc9687f8	-0.018375382
131	0xbdb0ff03	-0.086423896
132	0xbe0993a6	-0.1343523
133	0xbe7d3e24	-0.24730736
134	0xbe39b3b8	-0.18134964
135	0xbdc84b33	-0.09779968
136	0xbde39c3c	-0.11113784
137	0xbd91d9b4	-0.07121602
138	0xbe768600	-0.24074554
139	0xbdc6a7a3	-0.09699943
140	0xbd6f79b8	-0.05846569
141	0x3e7850ba	0.24249545
142	0xbd735cba	-0.059414603
143	0xbe1c42f7	-0.1525992
144	0xbe00be7d	-0.12572666
145	0xbc1f29e5	-0.009714578
146	0xbd41795d	-0.04723488
147	0xbe328667	-0.17434083
148	0x3dcd7092	0.10031237
149	0xbe3a0ee6	-0.18169746
150	0xbd813853	-0.06309571
151	0x3e064f1b	0.13116114
152	0xbd374003	-0.04473878
153	0xbe04f407	-0.12983714
154	0xbdbd363f	-0.09238862
155	0x3d8e8aa1	0.06960035
156	0xbdb097b1	-0.08622683
157	0xbd4e59f3	-0.05037875
158	0xbe0c17df	-0.13680981
159	0xbe843b1f	-0.25826356
160	0xbb023aab	-0.0019871395
161	0x3dd6970b	0.10478028
162	0xbd278abb	-0.040903788
163	0xbdc04103	-0.093874
164	0x3e70d984	0.23520476
165	0x3c9dee0c	0.019278549
166	0xbd206af2	-0.03916449
167	0xbcee2577	-0.029070599
168	0xbd19b90f	-0.03753
169	0x3a29bf61	0.0006475356
170	0xbe18bd13	-0.14915876
171	0x3de98915	0.114030994
172	0xbd8676a7	-0.065656
173	0x3c359f92	0.011085408
174	0xbe358240	-0.17725468
175	0x3cb7e045	0.022445807
176	0xbc072c44	-0.0082503
177	0x3cedd287	0.029031051
178	0xbe03fc31	-0.12889172
179	0xbe587439	-0.21138085
180	0x3d1aa04f	0.03775054
181	0xbc98da0e	-0.018658664
182	0x3ca23218	0.019799277
183	0xbd366b70	-0.044536054
184	0xbd7793ac	-0.060443565
185	0xbe4526e4	-0.19253117
186	0xbdff3c36	-0.12462656
187	0xbe0e53f9	-0.1389922
188	0xbd6ef99b	-0.05834351
189	0xbd9311d2	-0.07181133
190	0xbdffd17e	-0.12491129
191	0x3e1fefc7	0.15618812
192	0x3d9124c0	0.07087088
193	0xbeb38254	-0.3506037
194	0x3b229eab	0.0024813812
195	0xbd57d8d5	-0.05269702
196	0xbe168e0f	-0.14702629
197	0xbdfc46df	-0.12318205
198	0xbd8d30f3	-0.06894102
199	0xbe2ae843	-0.16690163
200	0xbe79be23	-0.24388938
201	0xbd754565	-0.059880633
202	0xbe726e72	-0.23674944
203	0xbe185e98	-0.14879835
204	0xbdd7509e	-0.105134234
205	0xbe18d732	-0.1492584
206	0xbdf3ba37	-0.11900752
207	0xbe6de4fc	-0.23231882
208	0xbe10be30	-0.14135051
209	0xbd73a851	-0.05948669
210	0xbe849b89	-0.25899914
211	0xbd3bf83a	-0.045891024
212	0x3d8bdc3c	0.06829116
213	0xbe1c4f73	-0.15264682
214	0xbe66a2dd	-0.22523065
215	0xbe12f4c3	-0.14351182
216	0xbd3d0787	-0.046149757
217	0xbeaba1c3	-0.33521852
218	0xbd28f3aa	-0.041248
219	0x3dea94cd	0.11454163
220	0xbb3b1020	-0.0028543547
221	0xbe44f711	-0.19234873
222	0xbd822e9f	-0.063565485
223	0xbd016406	-0.03158953
224	0xbe1d516a	-0.15363088
225	0xbdecea7d	-0.115681626
226	0xbe2e601b	-0.17028849
227	0xbd553e98	-0.052061647
228	0xbe3491f1	-0.17633797
229	0xbe1fb51b	-0.1559643
230	0xbcd75c4f	-0.026289133
231	0xbdabdec8	-0.083921015
232	0xbdf9fc49	-0.12206323
233	0xbd0d65d0	-0.034520924
234	0xbe1b00fe	-0.15137097
235	0xbd2148d0	-0.03937608
236	0xbea4ebdf	-0.32211205
237	0xbdc828c9	-0.09773404
238	0xbe82e8ad	-0.25568143
239	0xbb48464a	-0.0030559474
240	0xbe3e5940	-0.18588734
241	0xbe089544	-0.1333819
242	0xbd8fe868	-0.0702675
243	0xbdae367f	-0.08506488
244	0xbe41d6a0	-0.18929529
245	0xbe6edfe0	-0.23327589
246	0xbdbde177	-0.0927152
247	0x3d596ea1	0.05308402
248	0xbea04814	-0.3130499
249	0x3d3de1cf	0.046357926
250	0xbce350b4	-0.027748443
251	0xbe4e78d9	-0.20163287
252	0xbebcd2ed	-0.36879674
253	0xbe3ecdcb	-0.18633191
254	0xbd66a400	-0.056308746
255	0xbe5caed1	-0.21551062

layer2.bias f4 [256]
0	0x3eb5238e	0.3537869
1	0xbd1f4f44	-0.038893953
2	0x3ecdb67f	0.40178296
3	0xbe8d4e79	-0.27598932
4	0x3d903772	0.07041825
5	0xbd996aea	-0.07491095
6	0xbea96d53	-0.3309122
7	0xbe3b0f59	-0.18267573
8	0xbeb04de2	-0.3443442
9	0x3e673acb	0.22581021
10	0xbe51f1fb	-0.20502464
11	0xbdff7180	-0.1247282
12	0xbe56093b	-0.20901959
13	0xbe7d9311	-0.24763133
14	0xbf0c0991	-0.547021
15	0xbe89cacf	-0.26912543
16	0xbeaa3b34	-0.33248293
17	0xbdd1d814	-0.10246292
18	0x3e48837e	0.1958141
19	0x3ec5d410	0.38638353
20	0xbe2b5ceb	-0.16734664
21	0xbe02b6cc	-0.12765044
22	0xbf0f8d65	-0.56075126
23	0xbde7ad3f	-0.11312341
24	0xbe28d72c	-0.16488332
25	0x3e04a1ae	0.12952301
26	0xbe41348e	-0.18867704
27	0xbe69ca0a	-0.22830978
28	0xbe38eeaf	-0.180598
29	0xbe0afc70	-0.1357286
30	0xbe04a239	-0.12952508
31	0xbe65bb7c	-0.22434801
32	0xbebc2a91	-0.36751226
33	0xbe66e75c	-0.22549194
34	0xbf0f8fdb	-0.5607888
35	0xbddbccaa	-0.10732396
36	0x3ecebeb3	0.40379867
37	0xbd470c78	-0.048595876
38	0xbecf75a2	-0.40519434
39	0x3f409d2f	0.75239843
40	0xba03b9f2	-0.00050249614
41	0xbe5118cc	-0.20419616
42	0xbe8a9e47	-0.2707388
43	0xbef4122f	-0.47670123
44	0x3dbd9cd9	0.09258432
45	0xbe6e1d9e	-0.23253486
46	0xbe81002a	-0.25195438
47	0xbe7ab137	-0.24481665
48	0xbd00cc3a	-0.031444766
49	0x3d6ba995	0.057534773
50	0xbd815cb5	-0.063165106
51	0xbd7bbfc6	-0.061462186
52	0xbd1cbe3d	-0.038267363
53	0x3e6c63e5	0.23084982
54	0xbe66a405	-0.22523506
55	0x3cf33392	0.029687677
56	0xbed2229d	-0.41042033
57	0x3ebadb80	0.3649559
58	0xbe64a646	-0.22329053
59	0xbdfb24a0	-0.12262845
60	0x3c1e3ff1	0.0096587995
61	0xbcc3c4cb	-0.02389755
62	0xbe581da7	-0.21105061
63	0xbea0def5	-0.31420103
64	0xbea7395f	-0.32660958
65	0xbec1c88b	-0.37848315
66	0xbe216753	-0.15762071
67	0xbdbb25cd	-0.09138069
68	0xbec5fa9a	-0.38667756
69	0x3dccb562	0.099955335
70	0xbee368d4	-0.44415915
71	0xbf0ca1a3	-0.5493414
72	0xbddbfc78	-0.10741514
73	0x3dc3eea3	0.09567001
74	0xbdfed201	-0.12442399
75	0xbe7bd386	-0.24592409
76	0xbd725178	-0.059159726
77	0xbd922c9b	-0.07137414
78	0x3e46afd1	0.19403006
79	0xbe927a00	-0.28608704
80	0xbe43a083	-0.19104199
81	0x3e255e7a	0.16149321
82	0xbdf4e14b	-0.11957034
83	0xbdb0cfac	-0.0863336
84	0x3ed7ba85	0.4213449
85	0xbeee84ab	-0.46585593
86	0x3e4d7a03	0.20066075
87	0x3e39d319	0.18146934
88	0xbe8f6032	-0.2800308
89	0xbe294a69	-0.16532291
90	0xbdad201b	-0.08453389
91	0x3ef1da2a	0.47236758
92	0xbde7d72c	-0.11320338
93	0xbdf01925	-0.11723546
94	0xbe3537d5	-0.1769708
95	0xbe3ffd36	-0.18748936
96	0xbd1aabd3	-0.03776152
97	0x3e3a2669	0.18178715
98	0xbe6b5834	-0.22982866
99	0xbe0ad317	-0.13557087
100	0xbe0c08af	-0.13675188
101	0xbe59f12c	-0.21283406
102	0x3eaea962	0.34113604
103	0xbd8d0b4c	-0.0688692
104	0x3d1b123e	0.037859194
105	0xbe02a6a2	-0.12758878
106	0xbe384d57	-0.17998253
107	0xbc2e66c0	-0.010644615
108	0xbe4bc8a9	-0.19900765
109	0xbe22771d	-0.1586575
110	0x3eccb8a2	0.39984614
111	0xbc894a63	-0.016759103
112	0x3e2dcfff	0.16973875
113	0xbe6cc77f	-0.23122977
114	0xbe98d939	-0.29853228
115	0x3ec69f9d	0.3879365
116	0xbe7401b4	-0.23828775
117	0xbd6ee008	-0.05831912
118	0xbe75267e	-0.23940465
119	0xbeda7d47	-0.42673704
120	0xbe0444e9	-0.12916912
121	0x3ef02122	0.46900278
122	0xbe3be7a5	-0.18350084
123	0xbe01dbf2	-0.12681559
124	0xbe09e05d	-0.13464494
125	0x3e8ec7be	0.27886766
126	0xbc3330a4	-0.01093689
127	0x3df6e23a	0.12054868
128	0xbea1a102	-0.31568152
129	0xbddbf845	-0.10740713
130	0xbdcc2895	-0.09968678
131	0xbea347ee	-0.31890815
132	0xbd9eeee6	-0.0776041
133	0x3bd87704	0.0066059846
134	0xbd6bf22e	-0.057604007
135	0x3d0babbd	0.03409933
136	0xbe0eceea	-0.13946119
137	0xbd31084a	-0.043220796
138	0xbdd56156	-0.10418956
139	0x3ef4b435	0.47793737
140	0xbe380b69	-0.17973103
141	0x3e61aca6	0.22038516
142	0xbec7582a	-0.3893445
143	0xbe5c0318	-0.21485555
144	0xbe786cbc	-0.24260229
145	0xbee282ad	-0.44240323
146	0xbe4def07	-0.20110713
147	0xbe3e1c5e	-0.18565509
148	0xbdc907eb	-0.09815963
149	0x3d9f1ec0	0.07769537
150	0x3e9bf969	0.30463722
151	0xbdaf5c76	-0.085625574
152	0xbe8608b9	-0.2617853
153	0x3e5aa224	0.21350914
154	0xbe020f46	-0.12701139
155	0x3ccb7ac0	0.024838805
156	0xbf1137be	-0.5672568
157	0x3cd86521	0.02641541
158	0x3d31ee39	0.043440077
159	0xbd8d3e4c	-0.06896648
160	0xbf34f4f5	-0.70686275
161	0xbebbbff6	-0.36669892
162	0xbef95197	-0.4869506
163	0x3c979e87	0.018508209
164	0x3e760fb4	0.24029428
165	0xbe60ee57	-0.2196592
166	0xbe85839a	-0.26076967
167	0xbdd974bf	-0.10617971
168	0xbe92e5cf	-0.28690955
169	0x3ed9ae81	0.42515948
170	0xbe9f66ab	-0.31133017
171	0x3dd9d5f5	0.10636512
172	0xbe1b7684	-0.15181929
173	0xbee8e22a	-0.4548505
174	0xbe7953ee	-0.24348423
175	0xbd3729bc	-0.044717535
176	0x3e07eef6	0.1327475
177	0xbe2f5a86	-0.17124376
178	0xbe51773f	-0.20455645
179	0xbe39960a	-0.18123642
180	0xbe9325b7	-0.28739712
181	0x3e0aee27	0.1356741
182	0xbd26dee9	-0.040739927
183	0xbe9a2a92	-0.30110604
184	0x3dbc2df5	0.09188453
185	0xbe790462	-0.24318078
186	0xbea8b857	-0.3295314
187	0xbeaf78ca	-0.34271842
188	0xbe635a5a	-0.22202435
189	0x3d570eda	0.052504398
190	0xbecb275e	-0.39678472
191	0x3df7f6fc	0.121076554
192	0xbe1e1402	-0.1543732
193	0xbd21a760	-0.039466262
194	0xbe153459	-0.1457075
195	0xbe0d14f1	-0.1377752
196	0xbe13caa2	-0.14432767
197	0xbe11ae0f	-0.14226554
198	0xbd1e8999	-0.038705442
199	0xb9f813ba	-0.00047316944
200	0xbd554a5f	-0.05207288
201	0xbe178172	-0.14795473
202	0xbe945dc3	-0.28977785
203	0xbc26f5b4	-0.010190416
204	0xbe5b336a	-0.21406332
205	0x3d569a68	0.052393347
206	0xbea1d4fd	-0.3160781
207	0xbe6c7752	-0.23092392
208	0xbc9f1fe0	-0.019424379
209	0xbe3783fa	-0.17921439
210	0xbd29d652	-0.041464157
211	0xbe3bf0ef	-0.18353628
212	0xbe1b31f0	-0.15155768
213	0xbf0d25a5	-0.55135566
214	0xbe432139	-0.19055642
215	0xbd55b9a9	-0.052179012
216	0xbe3cb65a	-0.18428937
217	0xbebfb384	-0.37441647
218	0xbe3e3e15	-0.1857837
219	0x3ec39c10	0.38205004
220	0xbdca1ed9	-0.09869165
221	0xbeb96094	-0.36206496
222	0xbec52474	-0.38504374
223	0xbeb73421	-0.3578196
224	0xbf6f85dc	-0.9356363
225	0x3ddbf889	0.10740764
226	0xbdb1b2ee	-0.08676706
227	0xbe0791e0	-0.1323924
228	0xbe8ce09f	-0.27515122
229	0x3de3aca1	0.11116911
230	0xbd282bca	-0.041057386
231	0xbee5cd45	-0.4488317
232	0xbd91a93b	-0.07112356
233	0x3f1eaa9c	0.6197908
234	0xbeba0bf8	-0.36337256
235	0xbde0e6ae	-0.10981499
236	0xbe97aff1	-0.2962642
237	0x3ea7b057	0.32751724
238	0x3eabe9d4	0.33576834
239	0xbe94906b	-0.29016432
240	0xbe095f51	-0.13415267
241	0x3d975526	0.07389288
242	0x3c596be7	0.013270355
243	0xbdcf62d1	-0.101262696
244	0xbe3f825c	-0.18702072
245	0xbdde2f94	-0.108489186
246	0xbeee812b	-0.46582922
247	0xbe02b804	-0.12765509
248	0x3d76a471	0.060215417
249	0xbdc96dd2	-0.098354
250	0xbdf1e856	-0.11811893
251	0xbe2a2cbe	-0.1661863
252	0xbd98879c	-0.074477404
253	0xbe3f8f23	-0.18706946
254	0xbe974655	-0.29545847
255	0xbe833d05	-0.25632492

layer3.weight f4 [256, 256]
0	0xbd210c21	-0.039318208
1	0x3cc035e1	0.023463191
2	0xbd27542c	-0.040851757
3	0xbda93bd7	-0.08263367
4	0xbda5c05f	-0.080933325
5	0xbe059838	-0.13046348
6	0xbdd4c693	-0.103894375
7	0x396c203d	0.00022518724
8	0xbdd4a7b2	-0.10383548
9	0xbdd1b662	-0.10239865
10	0xbd9f817b	-0.07788368
11	0xbbc460a1	-0.0059929644
12	0xbd8c1d2e	-0.06841503
13	0xbd26cd78	-0.040723294
14	0xbc255b61	-0.010092587
15	0xbd772ad3	-0.060343575
16	0xbd5befb7	-0.053695407
17	0xbd6a5dbc	-0.0572183
18	0xbd3e3578	-0.04643771
19	0xbd95cd3c	-0.07314536
20	0xbd4acba8	-0.049510628
21	0xbd142bf0	-0.036174715
22	0xbeab1ca7	-0.33420298
23	0xbd16c9ec	-0.03681366
24	0xbccbff08	-0.024901882
25	0x3bf320f0	0.007419698
26	0xbdb0e1b8	-0.086368024
27	0xbdf81d5b	-0.12114974
28	0x3b8311db	0.0039999313
29	0xbd905162	-0.070467725
30	0xbd9d1fc4	-0.076720744
31	0x3ca3ee39	0.020011054
32	0xbd821edf	-0.063535444
33	0xbdaf9dc0	-0.0857501
34	0xbd9ac5a8	-0.07557231
35	0xbba773b8	-0.0051102303
36	0xbe12d582	-0.1433926
37	0xbdc9a37a	-0.09845634
38	0x3d667967	0.056268122
39	0xbd733be7	-0.0593833
40	0x3c8c29b0	0.017109722
41	0xbddcfea9	-0.1079076
42	0x3ca43913	0.020046746
43	0xbc825093	-0.015907561
44	0xbdc50f0e	-0.09622012
45	0x3addf15c	0.0016932893
46	0xbd07609f	-0.03305113
47	0xbe0fa4a7	-0.14027654
48	0xbc64b24c	-0.013958525
49	0xbdb83f91	-0.08996499
50	0xbd816d42	-0.063196674
51	0xbd4f9f5a	-0.05068908
52	0xbe7c4e9a	-0.24639359
53	0xbc5a78b5	-0.013334443
54	0xbd0ff454	-0.03514512
55	0xbe0acdef	-0.1355512
56	0x3d574d83	0.052564155
57	0xbc801a07	-0.01563741
58	0xbd343452	-0.04399521
59	0xbd73857e	-0.05945348
60	0xbd2fbba9	-0.042903576
61	0xbdc071c6	-0.093967006
62	0xbdbd1076	-0.09231655
63	0xbb59d362	-0.0033237566
64	0xbddea106	-0.108705565
65	0x3ceaa98f	0.028645305
66	0xbd91a008	-0.07110602
67	0xbdad7202	-0.08469011
68	0xbce6ff6f	-0.028197972
69	0x3cef0144	0.029175408
70	0x3bab2e28	0.005224008
71	0x3de0958a	0.10966022
72	0xbdd41948	-0.103563845
73	0xbdb9b8e6	-0.0906847
74	0x3c9eeafa	0.019399155
75	0xbc5ca368	-0.013466693
76	0xbd8bf07d	-0.06832979
77	0xbd90bf51	-0.07067741
78	0x3c5ba94d	0.013407064
79	0xbb945b0b	-0.0045274547
80	0xbd22a6c0	-0.039709806
81	0xbccbd1b0	-0.02488026
82	0xbd35b5c9	-0.044362817
83	0xbd4705cf	-0.048589524
84	0x3c0f6b00	0.008753538
85	0x3d617569	0.05504361
86	0x3c9349cf	0.01797953
87	0xbd5b90e5	-0.05360498
88	0x3c683c98	0.014174603
89	0xbd2c8930	-0.04212302
90	0xbd648afc	-0.05579661
91	0x3d96dad6	0.073659584
92	0xbdb1fb84	-0.08690551
93	0x3da07aa2	0.0783589
94	0x3a87cc32	0.0010360538
95	0xbdb6d0ac	-0.0892652
96	0x3d6d62fe	0.057955734
97	0xbd81f7bd	-0.063460805
98	0xbdeab514	-0.11460319
99	0xbb1d44b8	-0.0023997258
100	0xbe0459ad	-0.12924834
101	0xba7e5304	-0.00097017013
102	0xbd0484c0	-0.032353163
103	0xbde7041c	-0.11280081
104	0x3cdb6acb	0.026784321
105	0xbd509a00	-0.050928116
106	0xbc49728a	-0.012295375
107	0xbdadfb4e	-0.08495198
108	0xbdcab641	-0.098980434
109	0xbd1960bd	-0.037445772
110	0xbe1041da	-0.1408762
111	0xbe35708f	-0.17718719
112	0xbd281707	-0.041037586
113	0xbc447a8e	-0.01199211
114	0xbe17c5ab	-0.14821498
115	0xbdce966e	-0.10087286
116	0x3bb1e883	0.005429329
117	0xbde595e3	-0.11210229
118	0xbdbf0785	-0.09327606
119	0xbd936969	-0.0719784
120	0x3d7a6920	0.06113541
121	0xbd6b34fd	-0.05742358
122	0xbdba7c16	-0.09105699
123	0x3d21bfc3	0.03948952
124	0xbdbb6b08	-0.09151274
125	0xbdc12391	-0.09430612
126	0xbe2c09a0	-0.16800547
127	0xbdbe4849	-0.09291131
128	0xbdd0a330	-0.101873755
129	0x3d114438	0.03546545
130	0xbe02bd13	-0.12767439
131	0xbb960951	-0.0045787473
132	0x3b494b8c	0.0030715195
133	0xbccb70fa	-0.024834145
134	0xbc78a6e8	-0.015176512
135	0xbd7cc28e	-0.06170898
136	0xbe0649af	-0.13114046
137	0xbdb587cb	-0.08863791
138	0xbcad34b6	-0.021143299
139	0xbe2e0410	-0.16993737
140	0x3cf20798	0.029544637
141	0xbd87936b	-0.066199146
142	0xbe0ae5db	-0.13564245
143	0xbc9eee6c	-0.019400798
144	0xbc40a46d	-0.011757952
145	0xbd72df4b	-0.05929498
146	0xbd6fb41e	-0.058521383
147	0xbdc7752e	-0.09739147
148	0x3c359d13	0.011084813
149	0xbd0af8fc	-0.033928856
150	0x3d0655d1	0.032796685
151	0xbde8af7e	-0.113615975
152	0xbd7ef275	-0.062242944
153	0xbda4105a	-0.08010931
154	0xbd4c6631	-0.049902145
155	0xbd29f6c1	-0.04149509
156	0xbc7e5fff	-0.015525817
157	0x3d996faa	0.07492001
158	0xbd98b9e4	-0.07457331
159	0xbca68c94	-0.020330705
160	0xbe0825a2	-0.13295606
161	0xbd110b39	-0.035411093
162	0xbdbf0a16	-0.093280956
163	0xbd1d33bb	-0.038379412
164	0xbde4d858	-0.11174077
165	0x3c083c4e	0.008315159
166	0x3cbaac94	0.02278737
167	0xbdbcb133	-0.092134856
168	0xbd4123ce	-0.047153287
169	0x3d86166d	0.06547246
170	0xbd8f4d2c	-0.06997141
171	0x3d9a7b52	0.07543053
172	0xbd8e3b56	-0.06944911
173	0xbdcd8e17	-0.10036867
174	0xbe0e37fe	-0.13888547
175	0x3d1994b4	0.03749533
176	0xbd0c2228	-0.03421226
177	0x3c718357	0.0147407865
178	0xbcca1f2f	-0.024673073
179	0xbd8a3331	-0.06748045
180	0x3d72800b	0.059204143
181	0xbd28d06d	-0.041214395
182	0xbe01d4e4	-0.12678868
183	0xbd332821	-0.04373944
184	0xbdc576d0	-0.09641802
185	0xbdb73944	-0.089464694
186	0x3d075101	0.033036236
187	0x3ce91d83	0.028456455
188	0xbe2a2d75	-0.16618903
189	0x3db2096b	0.086932026
190	0xbd50b5b7	-0.050954547
191	0xbdfcabde	-0.123374686
192	0xbb88c2f1	-0.0041736295
193	0xbc88245f	-0.016618906
194	0xbd392f93	-0.045211386
195	0xba445e65	-0.00074908725
196	0x3c530896	0.012880465
197	0xbd59ff7b	-0.05322216
198	0xbd2f26d3	-0.042761635
199	0x3d2070fc	0.03917025
200	0x3d5cdb36	0.053919993
201	0xbd7f671b	-0.06235419
202	0x3db54aea	0.08852179
203	0xbcc87527	-0.024469925
204	0x3c69957a	0.014256829
205	0xbd6173a2	-0.055041917
206	0xbe286249	-0.16443743
207	0x3d60aeef	0.05485433
208	0x3d653dba	0.05596707
209	0x3c85d14f	0.016335158
210	0xbd8bdfcc	-0.06829795
211	0x3bcc122b	0.0062277517
212	0xbcd79c8e	-0.026319768
213	0xbdcd21df	-0.10016226
214	0xbd60159c	-0.05470811
215	0xbdc8d918	-0.09807032
216	0xbd428c28	-0.047496945
217	0xbc662d51	-0.01404889
218	0xbe597c42	-0.21238807
219	0xbd3a3793	-0.045463156
220	0x3cbe7f74	0.023254134
221	0xbe2cfa16	-0.16892275
222	0xbd2ce675	-0.04221197
223	0xbe01e23c	-0.12683958
224	0xbe7757b2	-0.24154547
225	0xbd48f7aa	-0.049064316
226	0xbc9fe018	-0.019516036
227	0x3cbab77d	0.022792572
228	0x3cfb6c59	0.030691313
229	0x3d468610	0.048467696
230	0xbdc0fe63	-0.094235204
231	0xbe1ed92f	-0.15512536
232	0xbdf421f2	-0.11920537
233	0xbd0766d8	-0.033057064
234	0xbc94e417	-0.018175168
235	0xbd30bbd5	-0.04314788
236	0x3c456bba	0.01204961
237	0xbe0bf8d3	-0.13669138
238	0xbd39c3b4	-0.045352653
239	0xbddb7ced	-0.10717187
240	0x3da7d965	0.081957616
241	0xbc8e88e7	-0.017399264
242	0xbc609957	-0.013708434
243	0xbdaf8a13	-0.085712574
244	0xbcf7495a	-0.030186344
245	0xbde6bcd2	-0.11266483
246	0xbdbadaaf	-0.09123742
247	0x3cb9b27f	0.022668121
248	0xbd4cc2b0	-0.049990356
249	0xbdc09b7f	-0.094046585
250	0xbcfc6fc7	-0.030815018
251	0xbd8daf2c	-0.06918177
252	0xbe25ff33	-0.16210632
253	0x3d4eb69c	0.05046712
254	0xbcc1e1a0	-0.023667157
255	0xbd019623	-0.031637322

layer3.bias f4 [256]
0	0xbe71a09a	-0.23596421
1	0xbe0ba082	-0.13635448
2	0x3cddaf16	0.027061027
3	0x3e7e3e22	0.2482839
4	0xbf7c15b4	-0.98470616
5	0xbf1759dc	-0.5912149
6	0xbeccc1ea	-0.39991695
7	0xbf558a4c	-0.8341415
8	0xbfb5ae9b	-1.419391
9	0xbefa677e	-0.48907083
10	0x3dc95802	0.09831239
11	0xbe64a5da	-0.22328892
12	0xbe737e09	-0.23778547
13	0xbde9f3b3	-0.11423435
14	0xbe2965a9	-0.16542687
15	0xbe8b64f2	-0.27225453
16	0xbea59731	-0.32341912
17	0xbf1bfb7f	-0.6093063
18	0xbf2841a8	-0.65725183
19	0xbeb2f339	-0.3495119
20	0xbe30f879	-0.17282285
21	0xbd03249d	-0.03201734
22	0xbf8e49a1	-1.111622
23	0xbe34658c	-0.17616862
24	0xbe29141b	-0.16511576
25	0x3b61e65e	0.0034469585
26	0xbe9f85c0	-0.3115673
27	0xbd41aac8	-0.04728201
28	0x3f11a601	0.56893927
29	0xbdddd58d	-0.10831747
30	0xbe6ecf2e	-0.2332122
31	0xbda4673f	-0.08027505
32	0x3e60c3b7	0.2194966
33	0xbc677d3d	-0.01412898
34	0xbeb7c324	-0.35891068
35	0xbf38379f	-0.7195987
36	0x3e7414e4	0.23836094
37	0xbea6f9d3	-0.32612476
38	0xbeab56aa	-0.33464557
39	0xbeb18314	-0.34670317
40	0xbee3ab23	-0.44466504
41	0x3d904368	0.07044107
42	0x3e97e2a9	0.29665115
43	0xbe5e2c2f	-0.21696542
44	0xbec4c7c9	-0.38433674
45	0x3f85618c	1.0420394
46	0xbef989db	-0.48737988
47	0x3ba4a03b	0.005023984
48	0x3df3a288	0.11896235
49	0xbee7b4ff	-0.45255277
50	0xbd90cefd	-0.0707073
51	0xbe9eb25e	-0.30995458
52	0xbe774a05	-0.2414933
53	0xbe72d2a7	-0.2371317
54	0xbe8e3041	-0.2777119
55	0xbdab0a91	-0.08351625
56	0xbe7987c4	-0.24368197
57	0xbe8b5def	-0.27220103
58	0xbf62369d	-0.88364583
59	0xbf59094d	-0.84779817
60	0xbf807132	-1.0034544
61	0x3d666012	0.056243964
62	0xbf0a3ba8	-0.5399728
63	0x3fd7024f	1.679758
64	0xbe878b82	-0.26473624
65	0x3eed86ad	0.46391812
66	0xbe2f02b8	-0.17090881
67	0x3ee0ba80	0.43892288
68	0xbde1ee79	-0.11031813
69	0xbdfb0b1d	-0.12257979
70	0x3e88ab83	0.26693353
71	0xbf111d26	-0.566851
72	0xbd7f9b9a	-0.062404253
73	0xbf11eea2	-0.5700475
74	0x3ea5e899	0.3240402
75	0x3e6e5ddf	0.23277996
76	0xbf4303a4	-0.7617743
77	0xbe9431d6	-0.28944272
78	0x3fb2b246	1.3960655
79	0xbea4746b	-0.3212007
80	0xbdf0bcd0	-0.11754763
81	0xbe562e53	-0.20916109
82	0x3d28aa46	0.04117801
83	0xbec3ff19	-0.38280562
84	0xbd63dfda	-0.055633403
85	0x3ccc7219	0.02495675
86	0xbedc3ec6	-0.43016642
87	0x3f1a6898	0.6031585
88	0xbe227164	-0.15863568
89	0xbe874957	-0.2642314
90	0xbeb50b83	-0.35360345
91	0x3e9ee57e	0.31034464
92	0xbdc3bdc4	-0.09557679
93	0xbf65de54	-0.8979237
94	0xbf2717b8	-0.65270567
95	0xbf8b3b9d	-1.0877568
96	0xbe8e22ff	-0.27761075
97	0xbfb566a5	-1.417195
98	0xbf2748d4	-0.653455
99	0x3e91c9de	0.28474325
100	0x3ef5411a	0.4790123
101	0x3f92b7cd	1.1462342
102	0xbec93642	-0.39299208
103	0x3cd27891	0.025692256
104	0xbf0ad4fc	-0.5423124
105	0xbe5b397f	-0.21408652
106	0x3e697745	0.22799404
107	0xbec01cdc	-0.37522018
108	0xbf3aa878	-0.7291331
109	0x3e921721	0.2853327
110	0xbefcbd64	-0.49363244
111	0x3e827cf1	0.25485948
112	0x3ed8b1ee	0.4232325
113	0xbf0afcfa	-0.5429226
114	0xbd45f826	-0.048332356
115	0x3ea6f3ff	0.3260803
116	0xbe7c5815	-0.24642976
117	0x3dc0b58b	0.094096266
118	0xbeb017a6	-0.34393042
119	0xbe185a59	-0.14878215
120	0xbeeb05d9	-0.459029
121	0xbd88e7bd	-0.066848256
122	0xbe5410e1	-0.20709564
123	0xbe1f8374	-0.15577489
124	0xbebe65fc	-0.37187183
125	0x3f4c6638	0.79843473
126	0xbedc2622	-0.42997843
127	0x3f28dfd7	0.6596655
128	0xbee9848c	-0.45608938
129	0xbe1c84d3	-0.15285043
130	0xbeca1bd4	-0.39474356
131	0x3e53e511	0.2069285
132	0xbc860379	-0.016359078
133	0xbea04d3e	-0.3130893
134	0x3ddb2d2c	0.10701975
135	0xbd46638a	-0.04843477
136	0xbec08a17	-0.37605354
137	0xbdedbb16	-0.116079494
138	0xbd960461	-0.07325054
139	0xbe52efb2	-0.20599249
140	0x3ee8c1e6	0.45460433
141	0x3e89a139	0.26880816
142	0xbe42f974	-0.19040471
143	0x3e8488c7	0.25885603
144	0xbf801ed5	-1.0009409
145	0x3e373d7a	0.17894545
146	0xbf29bddb	-0.6630532
147	0xbe64bc9c	-0.22337574
148	0xbef455ae	-0.47721618
149	0xbeba3d5f	-0.36374947
150	0xbf0b4a54	-0.5441029
151	0xbf297e7b	-0.6620862
152	0xbd8fcd52	-0.070215836
153	0xbee35bc9	-0.44405964
154	0xbe2dd6aa	-0.16976419
155	0x3e8f7873	0.28021583
156	0xbe5c6361	-0.21522285
157	0xbe62091c	-0.22073787
158	0xbe9e7d44	-0.30954945
159	0xbe65d3a7	-0.2244402
160	0x3eb2b8e3	0.34906682
161	0x3f1d472d	0.6143673
162	0x3df595e4	0.1199148
163	0xbf11cb45	-0.5695079
164	0xbf415831	-0.75525194
165	0xbef88941	-0.48542216
166	0xbf27170a	-0.6526953
167	0x3ee271e2	0.4422751
168	0xbeaffd3d	-0.34372893
169	0xbe884870	-0.26617765
170	0x3e83a081	0.25708392
171	0xbdd6f52b	-0.10495981
172	0xbe3aa9d8	-0.18228853
173	0xbea4fa07	-0.32222006
174	0x3e9b9258	0.3038509
175	0x3f761f6c	0.96141696
176	0x3e513c4f	0.20433162
177	0xbf224415	-0.63385135
178	0xbea251ef	-0.31703135
179	0xbe7aaf0e	-0.2448084
180	0xbe10d19c	-0.1414246
181	0xbe07f58b	-0.13277261
182	0x3dcbf4a5	0.099587716
183	0xbf1514a9	-0.5823465
184	0xbc4c5f94	-0.0124739595
185	0xbe83075e	-0.25591558
186	0xbea1011e	-0.31446165
187	0xbe1baf1d	-0.15203519
188	0xbf491cc5	-0.78559524
189	0xbec9057d	-0.39262
190	0xbd1067b0	-0.035255134
191	0xbeda66c2	-0.42656523
192	0xbe4e0b5c	-0.20121521
193	0x3f925f6b	1.1435369
194	0xbdc68a61	-0.096943624
195	0xbdefb425	-0.11704282
196	0xbf328b1c	-0.69743514
197	0x3dcaa02b	0.09893831
198	0xbed7fd50	-0.4218545
199	0xbf153404	-0.58282495
200	0xbe07ec61	-0.13273765
201	0xbe6347f3	-0.22195415
202	0x3f0ef1e7	0.55837864
203	0xbf3e77ae	-0.74401367
204	0x3db0589b	0.0861065
205	0xbee14178	-0.4399526
206	0xbf2b4812	-0.66906846
207	0x3eae1d2d	0.34006634
208	0x3e04a967	0.12955247
209	0x3ede8609	0.43461636
210	0xbf1a0f5c	-0.60179687
211	0x3e9412e5	0.28920665
212	0xbe20eac0	-0.1571455
213	0xbe4acb6e	-0.19804165
214	0xbf989615	-1.1920801
215	0xbec92abf	-0.39290425
216	0xbeba17d2	-0.36346298
217	0xbf0e2459	-0.5552421
218	0xbf08679e	-0.5328311
219	0x3ddb1b5c	0.10698578
220	0xbe854842	-0.2603169
221	0x3f2a40b9	0.6650501
222	0xbe46904e	-0.19390985
223	0x3d962336	0.07330935
224	0xbe0a4066	-0.13501129
225	0xbdf04413	-0.11731734
226	0xbe6e8dab	-0.2329623
227	0xbc402e14	-0.011729736
228	0x3b105eda	0.0022029192
229	0xbd0879dc	-0.03331934
230	0xbe42d294	-0.19025642
231	0x3e45870e	0.192898
232	0xbece4e00	-0.40293884
233	0xbf0a1100	-0.5393219
234	0x3e1582e7	0.14600717
235	0xbefff084	-0.49988186
236	0xbee26f38	-0.44225478
237	0x3f345891	0.7044764
238	0x3e4cbf16	0.19994769
239	0xbe2eeab4	-0.1708172
240	0xbf8797f6	-1.059325
241	0xbea6486c	-0.32477129
242	0x3d17a376	0.037021123
243	0xbea76796	-0.32696217
244	0xbee81de6	-0.4533531
245	0x3ed55cdf	0.41672418
246	0xbef994dc	-0.48746383
247	0xbe8997bb	-0.26873574
248	0xbeb03bc4	-0.34420598
249	0xbe830b03	-0.2559434
250	0x3ec3fe92	0.3828016
251	0x3d5ca123	0.05386461
252	0x3f6453f1	0.89190584
253	0xbfa76bdd	-1.3079792
254	0xbe5d0626	-0.21584377
255	0x3e584edc	0.21123832

layer4.weight f4 [128, 256]
0	0x3dc73d41	0.0972848
1	0x3c72a22b	0.014809172
2	0xbe088fc0	-0.13336086
3	0x3d3d3664	0.04619445
4	0xbf259388	-0.6467824
5	0x3ebb1d97	0.36546013
6	0x3beeffc3	0.0072936728
7	0xbec4aae5	-0.38411632
8	0x3ca38af8	0.019963726
9	0xbe117805	-0.1420594
10	0x3d60af58	0.05485472
11	0x3e7a1153	0.24420671
12	0x3d30099d	0.042977918
13	0xbdb6ad80	-0.08919811
14	0x3ce62926	0.028095793
15	0x3ce7ad13	0.02828077
16	0xbea6ee88	-0.3260386
17	0x3baac973	0.005212003
18	0x3c0c0a56	0.008547386
19	0xbde30f5d	-0.11086915
20	0x3cc9c01c	0.024627738
21	0xbd8ba5f3	-0.06818762
22	0xbd95ce80	-0.073147774
23	0xbde89d95	-0.113581814
24	0x3d787d76	0.060666524
25	0xbd65ca13	-0.056100916
26	0xbda11c05	-0.078666724
27	0x3cce686f	0.025196282
28	0xbf0c1249	-0.547154
29	0xbd898b7d	-0.067160584
30	0xbf097888	-0.5369954
31	0x3e12934a	0.14313999
32	0xbd318423	-0.043338906
33	0xbe6bb144	-0.2301684
34	0x3d6c8797	0.057746496
35	0xbd9d921b	-0.07693883
36	0xbe14c2c9	-0.1452743
37	0xbe997963	-0.29975423
38	0xbe076056	-0.13220343
39	0xbdb2c9c8	-0.08729893
40	0xbf1995fa	-0.5999447
41	0x3efc73ac	0.49307
42	0xbdf9f4b6	-0.12204878
43	0x3d29f446	0.041492723
44	0xbe83e695	-0.25761858
45	0x3d805458	0.06266087
46	0xbdb941fc	-0.09045789
47	0xbd61fe3d	-0.0551741
48	0x3cf8c7c4	0.030368693
49	0xbf4f3a09	-0.8094793
50	0x3c593f12	0.013259666
51	0xbe44290b	-0.19156282
52	0xbc8f1cf2	-0.017469857
53	0x3e80e5cf	0.2517533
54	0xbe042195	-0.12903436
55	0xbd2ee00c	-0.042694137
56	0xbd99c1b3	-0.07507648
57	0xbd67bc44	-0.05657603
58	0xbe702844	-0.2345286
59	0xbe41e143	-0.18933587
60	0xbe946041	-0.28979686
61	0xbd907a72	-0.070546046
62	0xbdff9567	-0.12479668
63	0xbe07bad4	-0.13254863
64	0x3d22b1a7	0.039720204
65	0x3e479b5f	0.19492863
66	0xbf1848c6	-0.59486043
67	0xbe836f21	-0.25670722
68	0x3bd3d34a	0.0064643966
69	0xbeb1c51b	-0.34720692
70	0xbec146de	-0.3774938
71	0xbd836edc	-0.06417629
72	0xbd6f0f52	-0.05836422
73	0xbe8a6be6	-0.27035445
74	0xbe885317	-0.26625893
75	0x3db676c1	0.08909369
76	0xbe673a08	-0.22580731
77	0x3de8cfbc	0.11367747
78	0x3d0fb5c9	0.035085473
79	0xbf0c2973	-0.54750746
80	0x3dca8fb5	0.09890691
81	0xbd76331d	-0.06010734
82	0xbc20888b	-0.009798179
83	0xbebea6e2	-0.37236696
84	0xbe9bcf4d	-0.30431595
85	0x3d4ab4cc	0.049488828
86	0x3e17aa6d	0.14811106
87	0xbcf3945b	-0.029733827
88	0x3d943f6c	0.07238659
89	0xbdf24c0f	-0.11830913
90	0xbdf0dd78	-0.11760992
91	0xbf2a1729	-0.6644159
92	0xbe37d7ca	-0.1795341
93	0x3e0a5f09	0.13512816
94	0x3d99898b	0.07496937
95	0xbe92ef3c	-0.28698146
96	0xbd9c9117	-0.07644861
97	0xbd5e56da	-0.054282047
98	0xbdef9194	-0.11697689
99	0xbbde48bb	-0.0067835725
100	0xbcf6c5c7	-0.030123604
101	0xbe1a97d7	-0.15096985
102	0x3df112c2	0.11771156
103	0x3e119458	0.14216745
104	0xbc70c8fd	-0.014696357
105	0xbb8c034d	-0.0042728544
106	0xbcb596a4	-0.022166558
107	0x3dc9683a	0.09834333
108	0xbe626a2a	-0.22110811
109	0xbd041599	-0.03224716
110	0xbdcf1585	-0.101115264
111	0x3cbd335f	0.023095785
112	0xbeef18bb	-0.46698555
113	0xbe1012eb	-0.14069717
114	0xbe8b55b2	-0.27213818
115	0xbe665348	-0.22492707
116	0x3e111b50	0.14170575
117	0xbe8a420d	-0.27003518
118	0x3d5cc152	0.053895302
119	0x3d0c26d3	0.034216713
120	0xbcd6d8f7	-0.026226504
121	0x3d7f435e	0.062320106
122	0xbe6bf835	-0.23043902
123	0x3d6d7ef4	0.0579824
124	0xbdaecb0d	-0.085348226
125	0x3cf56da3	0.029959505
126	0xbecdc04c	-0.40185773
127	0xbc8622e4	-0.016374059
128	0xbe9196ff	-0.28435513
129	0xbdf1d4e5	-0.118081845
130	0x3d8fae1c	0.070156306
131	0x3a38e129	0.00070525944
132	0x3d19c79c	0.037543878
133	0xbe0e5981	-0.1390133
134	0x3d823061	0.06356884
135	0x3d8433a0	0.06455159
136	0x3ca3ae38	0.019980535
137	0x3e2ace4f	0.16680263
138	0x3d6a099d	0.057138074
139	0x3d5ad84a	0.053428926
140	0x3e651a8e	0.22373411
141	0xbf100e3b	-0.56271714
142	0xbdafdd54	-0.08587137
143	0xbebdef87	-0.37096807
144	0xbf45a835	-0.7720979
145	0xbe3a65ca	-0.18202892
146	0x3ddc315f	0.10751604
147	0xbd526b05	-0.051371593
148	0x3c73de89	0.0148845995
149	0xbe7f2d65	-0.2491966
150	0xbe2a7978	-0.16647899
151	0xbe181470	-0.14851546
152	0xbe7ff60d	-0.24996205
153	0xbd859ecd	-0.065244295
154	0x3dc80703	0.097669624
155	0xbea0d5c2	-0.31413084
156	0xbebd5a54	-0.36982977
157	0xbd5dbdd4	-0.054136112
158	0xbd3a690e	-0.045510344
159	0xbe12fda4	-0.14354569
160	0xbe0e4dc3	-0.13896851
161	0x3b8617e8	0.0040922053
162	0x3e232203	0.15930943
163	0xbed7c249	-0.42140415
164	0x3dcbcfee	0.09951769
165	0xbedfb135	-0.43689886
166	0x3eaa2bd7	0.33236572
167	0xbea84767	-0.32866976
168	0xbe659c97	-0.22423016
169	0xbe239c7b	-0.15977661
170	0xbef0ee40	-0.4705677
171	0x3d63b968	0.05559674
172	0xb985fd6c	-0.0002555655
173	0xbe800919	-0.2500694
174	0x3deab96b	0.11461147
175	0x3d28a2be	0.041170828
176	0xbf569421	-0.83819777
177	0xbd974ed2	-0.07388081
178	0xbca6fd4e	-0.020384457
179	0xbef94c38	-0.48690963
180	0xbe180dcc	-0.14849013
181	0xbee3a99c	-0.4446534
182	0xbe8e19c1	-0.27754024
183	0xbe09f364	-0.13471752
184	0xbd3bef72	-0.04588265
185	0x3e674413	0.22584562
186	0xbe50c237	-0.20386587
187	0xbe1dc98c	-0.15408915
188	0xbe1396c4	-0.14412981
189	0xbd109e66	-0.03530731
190	0xbcb4ff4a	-0.022094388
191	0x3eb937ee	0.36175483
192	0xbd0389be	-0.032113783
193	0xbf048dc1	-0.517788
194	0x3dad3004	0.08456424
195	0xbecad020	-0.39611912
196	0xbf0253eb	-0.509093
197	0xbe3c7198	-0.18402708
198	0xbe601bda	-0.21885625
199	0x3e698f9e	0.22808692
200	0xbdb49d3b	-0.08819052
201	0xbe506bd5	-0.20353635
202	0x3e2316b3	0.15926628
203	0xbe3c31a3	-0.1837831
204	0x3e17d57e	0.14827535
205	0xbd3472c2	-0.044054754
206	0xbe6bc67d	-0.23024936
207	0xbe03548e	-0.12825224
208	0xbef8ad71	-0.48569825
209	0xbe5ba602	-0.21450046
210	0x3ec70b4c	0.38875806
211	0xbedf27e4	-0.43585122
212	0x3d7ca296	0.06167849
213	0x3ee50423	0.4472972
214	0xbe9a5820	-0.3014536
215	0xbd80ce60	-0.06289363
216	0xbe21dc36	-0.1580666
217	0xbd37337e	-0.04472684
218	0x3e4caf81	0.19988824
219	0x3d33bec8	0.043883115
220	0x3ec01345	0.375147
221	0xbe73119a	-0.23737183
222	0xbd3e486a	-0.04645578
223	0xbd8e1a6f	-0.069386356
224	0x3d7b9c4e	0.06142836
225	0xbe58b170	-0.21161437
226	0xbe8c796b	-0.27436385
227	0x3e5c0f9c	0.2149033
228	0x3dc0c6e5	0.09412936
229	0xbd53f87c	-0.051750645
230	0xbe4f90a1	-0.20270015
231	0xbe7c4a19	-0.24637641
232	0xbe3a79c8	-0.18210518
233	0xbf11a2b8	-0.56888914
234	0x3e142d3e	0.14470384
235	0xbe8715df	-0.26383874
236	0x3d860e0d	0.06545649
237	0x3db948b2	0.09047069
238	0x3e42f133	0.19037323
239	0xbe7f90ed	-0.24957629
240	0xbd9f00a6	-0.077637956
241	0xbd7f3235	-0.06230374
242	0xbc7c2ede	-0.015392033
243	0xbf0908f1	-0.5352927
244	0x3d7a9a92	0.061182566
245	0xbefe960c	-0.49723852
246	0xba6d11ac	-0.0009043466
247	0xbd80d5cb	-0.06290778
248	0xbe2eb688	-0.17061818
249	0x3dfceb43	0.1234956
250	0xbddab86a	-0.106797054
251	0xbe08b7bc	-0.13351339
252	0xbdacc1b8	-0.084353864
253	0xbdd71cae	-0.10503517
254	0xbda9df7f	-0.082945816
255	0xbe927ee6	-0.2861244

layer4.bias f4 [128]
0	0xbda18c6d	-0.07888112
1	0xbbbdb9d0	-0.005789973
2	0x3e620957	0.22073875
3	0xbdc4b870	-0.09605491
4	0x3e1ed04c	0.15509146
5	0xbdbae11b	-0.09124967
6	0x3cfa2c5e	0.030538734
7	0xbdcb12ff	-0.099157326
8	0x3ef3f654	0.4764887
9	0xbcd7e865	-0.026355932
10	0xbd5980c1	-0.053101305
11	0xbd470037	-0.04858419
12	0xbe239477	-0.15974604
13	0xbe1e0dd3	-0.15434961
14	0x3cf72b52	0.030172024
15	0xbe601f7c	-0.2188701
16	0xbe00c8e9	-0.12576641
17	0xbf07ec35	-0.530948
18	0x3e3ffd6c	0.18749017
19	0xbd5c5840	-0.0537951
20	0xbdc1f079	-0.09469695
21	0xbdd54b00	-0.10414696
22	0xbe08f1d7	-0.13373505
23	0xbd973a39	-0.07384152
24	0xbc985230	-0.018593878
25	0xbddb1f9b	-0.10699388
26	0xbda33c95	-0.079705395
27	0xbc4c2f9c	-0.012462523
28	0xbcb3c42e	-0.021944132
29	0xbc202f91	-0.009776966
30	0xbc429b0a	-0.0118777845
31	0x3d6285ff	0.05530357
32	0xbdfc71cb	-0.12326392
33	0x3f652688	0.8951192
34	0x3da25f7e	0.0792837
35	0xbe825ad6	-0.25459927
36	0xbd7a5a30	-0.061121166
37	0xbe0251bd	-0.12726493
38	0xbdc5415d	-0.09631608
39	0x3fef46a6	1.8693435
40	0xbdea086e	-0.11427389
41	0xbe8e094d	-0.2774147
42	0xbdaae521	-0.08344484
43	0xbe8c8d19	-0.274514
44	0x3ddc41b8	0.10754722
45	0xbd86e804	-0.06587222
46	0x3de3a82a	0.11116059
47	0xbeb124fc	-0.3459853
48	0x3b968ba7	0.0045942846
49	0xbb2a88c0	-0.002602145
50	0xbdaa5b0a	-0.083181456
51	0xbe69c3bc	-0.22828573
52	0xbea52d85	-0.3226129
53	0xbe3ceb5a	-0.18449154
54	0x3caea0c5	0.021316895
55	0xbe72cad3	-0.23710184
56	0x3e49d8fc	0.19711679
57	0x38a39c58	7.801567e-05
58	0xbd03293f	-0.032021757
59	0xbdee97a6	-0.116500184
60	0xbeb69340	-0.35659218
61	0xbe206b1b	-0.15665857
62	0xbe162dbb	-0.14665882
63	0x3dd2958a	0.102824286
64	0xbe06579d	-0.1311936
65	0xbdf07a1a	-0.11742039
66	0xbdbfdd25	-0.09368352
67	0x3caf4878	0.02139686
68	0xbe2b16cc	-0.16707915
69	0xbdd554f4	-0.10416594
70	0x3e87e998	0.26545405
71	0xbd81c953	-0.06337228
72	0xbdc785ce	-0.09742318
73	0xbe5c4a1f	-0.2151265
74	0x3b945f79	0.004527983
75	0xbda8ea35	-0.082477964
76	0xbeadb109	-0.3392413
77	0x3e687077	0.22699152
78	0xbd3ef95a	-0.04662452
79	0xbe22bb52	-0.1589177
80	0xbe654b95	-0.22392114
81	0xbebb2f63	-0.3655959
82	0xbe39ca3d	-0.18143554
83	0xbde04fbe	-0.109527096
84	0x3df80257	0.12109821
85	0xbe347b46	-0.1762515
86	0xbdaeb00c	-0.08529672
87	0xbe38b63d	-0.18038268
88	0x3d4817d7	0.04885086
89	0xbe636cf5	-0.22209533
90	0xbddcacac	-0.10775122
91	0xbe7767bf	-0.2416067
92	0xbe226896	-0.15860209
93	0xbdbec17a	-0.093142465
94	0xbd913d9c	-0.07091829
95	0x3c2fb388	0.010723956
96	0x3bf7eadf	0.0075658406
97	0xbedd88df	-0.43268487
98	0xbe6e19c1	-0.23252012
99	0xbe2c2677	-0.16811548
100	0xbd3ad011	-0.045608584
101	0xbe5bb387	-0.21455203
102	0xbe255ff0	-0.16149879
103	0xbd1ad7d0	-0.03780347
104	0xbe86b52f	-0.26310107
105	0x3bb5d5c3	0.005549164
106	0xbdd1a38a	-0.10236271
107	0xbe0e842b	-0.13917606
108	0x3e47a561	0.19496681
109	0xbe0d5d15	-0.13805039
110	0x3e55310e	0.20819494
111	0xbdf10c88	-0.11769968
112	0x3cde829c	0.027161889
113	0xbd17d367	-0.037066843
114	0xbec49fb4	-0.38403094
115	0xbde51a1a	-0.11186619
116	0xbeffce1f	-0.49961945
117	0x3dc820d7	0.09771889
118	0xbe83bc42	-0.25729567
119	0xbd323c33	-0.04351444
120	0xbe8839e1	-0.26606658
121	0xbe424163	-0.18970256
122	0xbe7026d5	-0.23452313
123	0xbe53c94f	-0.20682262
124	0xbe00eb10	-0.12589669
125	0xbe4a7a99	-0.1977333
126	0xbe821d55	-0.25413004
127	0xbe6aeec7	-0.22942649
