PPO/ppo_critic.pth (torch, 546027 bytes, 9 tensors)

layer1.weight f4 [128, 29]
000000 8d e1 20 bc b9 18 4c 3d 51 d9 0c 3e 06 21 5d 3d
       -0.0098194005 0.049828265 0.13754775 0.05398657
000010 89 7d 16 3e d2 c8 db bd 70 05 7c 3c 48 be 8a 3d
       0.14696325 -0.10731663 0.015382156 0.067745745
000020 9d ec 89 bd cd 53 4f bc e2 a4 45 bd da 6b 1b 3e
       -0.067345835 -0.012654257 -0.048252948 0.15177861
000030 e8 27 d8 3d 97 a4 39 3c 6b 39 1e be 7f a8 d8 3d
       0.105544865 0.011330745 -0.1545159 0.10579013
000040 5a b0 14 be 6f cb ec bd 0c cd 54 3e 75 dc 0a be
       -0.14520398 -0.115622394 0.20781344 -0.1356066
000050 8d a5 2f be 46 8a c3 bd 9a c2 2b bd ed 3d 0d be
       -0.17152996 -0.09547858 -0.041933633 -0.13793154
000060 70 76 f5 bc 50 20 8e 3d 39 23 83 3c 97 a6 0c 3e
       -0.029963702 0.06939757 0.016008006 0.13735424
000070 fe a9 c3 bd 49 d0 b1 bd f5 ca 8d 3d 93 23 86 3c
       -0.09553908 -0.08682305 0.069234766 0.016374385
000080 81 d4 15 3e d8 29 a3 bd 77 79 e6 3d 30 67 b7 3d
       0.14631845 -0.079669654 0.11253636 0.08955228
000090 70 46 7e 3e 73 e3 03 3e 1a a1 21 3e bf 60 33 3e
       0.24831557 0.12879734 0.15784112 0.17517374
0000a0 14 b3 51 be 4f 24 2b be 50 f2 f7 bd 95 5a 4c be
       -0.20478469 -0.1671307 -0.12106764 -0.1995643
0000b0 9e 10 87 be 84 f0 8f bd 7a 59 9f 3c 2b 1e d6 bd
       -0.26379865 -0.070282966 0.019451845 -0.10454973
0000c0 15 29 92 bd d3 be f1 3b 41 72 2f 3d a4 95 e6 3d
       -0.07136742 0.0073774843 0.04283357 0.112590104
0000d0 52 65 68 3d 43 8b e0 bd 68 a0 2e 3d 1e ac 00 3e
       0.05673725 -0.10964062 0.042633444 0.12565657
0000e0 77 0b 10 bb 9a e0 af 3d 2e c7 1f 3d 48 4b 12 bc
       -0.002197949 0.08587761 0.039008312 -0.008929081
0000f0 ed e2 35 bd bb 9c 29 3d 0a b7 49 be 33 14 84 3c
       -0.044405866 0.041409235 -0.1969873 0.016122913
000100 4a 79 78 be b4 3f 10 be 03 dd 49 3d f7 62 be 3c
       -0.24265018 -0.14086801 0.04928304 0.02324055
000110 4c ac 0c be 5e 9f 07 3e e6 fc e8 bc 63 9c e4 bc
       -0.13737601 0.13244388 -0.028440904 -0.027906602
000120 fd d7 e6 3d 0a cd 30 be 06 77 a2 bd 25 a3 05 be
       0.11271665 -0.17265716 -0.07932858 -0.13050516
000130 87 bf 2d 3d b9 49 50 3e 3b ff 35 be 9e 3a 2d 3c
       0.042418983 0.20340623 -0.17773144 0.010573057
000140 73 cb e4 3c 25 b7 d9 3d 51 04 bb 3d 05 7e 71 bd
       0.027929043 0.10630635 0.09131683 -0.058958072
000150 bf 95 d5 3a d0 bd e2 3d f3 e9 c6 3c 2f e8 9e 3d
       0.0016295238 0.1107136 0.024281478 0.07759129
000160 90 b2 9f 3d b3 17 1d bd f6 12 bb 3e 34 d6 ce bd
       0.0779773 -0.03835268 0.36537904 -0.1009945
000170 8e 01 35 be 7a 09 0e be 1c 78 81 bc 84 9d 44 3d
       -0.17676374 -0.13870803 -0.015804343 0.04800178
000180 15 7e eb bd 95 60 a2 3d c2 d7 85 3e e9 6c 4e 3d
       -0.114986576 0.07928578 0.26141173 0.050396834
000190 a2 c7 f2 3d 98 11 a6 3d 11 23 b3 bd 21 d8 51 be
       0.11854483 0.081088245 -0.08746923 -0.20492603
0001a0 7b 5b 8f be 4d 08 3d bd d7 53 4e be 2a 27 e9 3d
       -0.27999482 -0.046150494 -0.2014917 0.11384423
0001b0 85 38 b5 3d 92 4e a3 bd 60 91 0c 3c 41 be 88 3c
       0.08848671 -0.079739705 0.008579582 0.016692283
0001c0 2a c1 a7 3d 50 81 d9 3c f0 4d 8a 3d d9 2e 92 3c
       0.0819114 0.026550919 0.06753147 0.017844604
0001d0 99 da 55 3d 79 d3 d3 bd 8b 14 83 3d 6b cb 49 3e
       0.052210424 -0.103430696 0.06400403 0.19706504
0001e0 46 51 42 3e 8c 4b c2 3e 3e 4a 8e 3d d5 f0 3b 3e
       0.18976316 0.37948263 0.06947754 0.18353589
0001f0 42 12 d2 3d d1 58 e0 3d a9 88 a6 3c 9b 76 16 3e
       0.10257389 0.109544404 0.020328837 0.14693682
000200 09 16 42 3e e9 3f 44 3e 72 b9 06 be 43 b0 10 bc
       0.18953718 0.19165005 -0.1315668 -0.008831087
000210 94 e2 1d 3e c6 96 be be 07 61 a7 bd ad 21 5b 3e
       0.15418464 -0.37224406 -0.08172803 0.21399565
000220 e8 ed c0 3d 5c 45 15 bd de a3 c0 3c 70 97 0f bb
       0.09420377 -0.0364431 0.023515638 -0.0021910332
000230 c4 f2 ed 3c 8c 8f 15 bd 89 8b 39 bc 1b 5c 88 bd
       0.029046424 -0.03651385 -0.011324772 -0.06658193
000240 c5 f9 02 bc fe 1f 0d be 99 18 ae 3d 51 90 3e 3e
       -0.00799412 -0.13781735 0.085007854 0.1860974
000250 69 0b 85 3e 35 a1 88 bc 42 fb 3f 3e 52 30 39 bd
       0.25985268 -0.016678432 0.18748191 -0.045212097
000260 9e 48 87 3b e1 34 02 b9 bb 2c 49 3e b7 0d d1 bd
       0.0041285297 -0.00012417465 0.1964597 -0.10207694
000270 eb 71 62 bd 61 6e e4 3c 89 7c fd 3d 52 80 82 3d
       -0.055284422 0.027884664 0.12377269 0.063721314
000280 10 3c d9 3c 0a 65 15 3d 2f f9 c7 bd fd 20 0e be
       0.026517898 0.03647331 -0.09764325 -0.13879772
000290 89 b2 85 bd f2 d7 9d bd 21 8c cf bd 0b 60 e4 3d
       -0.065281935 -0.07707204 -0.10134149 0.11151131
0002a0 90 70 88 3d c6 d4 a2 3d 46 11 c7 3d 74 88 e4 bc
       0.066620946 0.079507396 0.097200915 -0.027897097
0002b0 83 31 3b bd e9 17 61 bc c8 04 bc 3d 76 4f be bb
       -0.045701515 -0.013738611 0.091805995 -0.0058078123
0002c0 84 93 39 3d e0 68 3f 3e 83 b6 a9 bd 37 a6 91 bd
       0.045306697 0.1869235 -0.082867645 -0.07111781
0002d0 13 13 e6 3c fa 3f 3d be dc d7 20 be 67 d3 64 3e
       0.028085267 -0.18481436 -0.15707344 0.22346269
0002e0 aa a7 d1 bd 20 fe cc bd 8e 8b f5 bc d8 f5 a9 bd
       -0.102370575 -0.10009408 -0.029973771 -0.08298844
0002f0 76 d2 e4 bd d7 1b 3f 3e 42 4d c4 bd 27 4f 14 3e
       -0.11172955 0.18662964 -0.09585048 0.14483319
000300 f2 dc ed bd b2 79 06 3e 30 70 cb 3d 26 88 4c bd
       -0.116144076 0.1313236 0.099335074 -0.04993453
000310 a4 4c 34 bd cb 1d 4d bc 97 4e 14 be dc e8 8d bd
       -0.044018403 -0.01251931 -0.14483105 -0.0692918
000320 2d df 0f 3e 1a b7 92 3d c4 e9 07 3e f0 fc 14 3e
       0.14049979 0.0716383 0.13272768 0.14549613
000330 b7 97 bc bd 9b b3 27 be 6f 76 28 bd 44 13 65 be
       -0.09208625 -0.16377108 -0.041128572 -0.2237063
000340 5b 16 ad 3e 4d 69 85 bd 8d 49 2c 3e 47 a8 8b 3d
       0.33806118 -0.06514225 0.16824932 0.06819206
000350 c3 77 20 3e 6b a8 5a be 7a 03 0a 3e d0 63 88 bc
       0.15670685 -0.21353309 0.13477889 -0.016649157
000360 0c c9 2e bd da 80 43 3c 7d 9f c5 bd b0 2d 6f 3d
       -0.042672202 0.011932576 -0.096495606 0.05839318
000370 39 be 6e bd 83 b3 66 bd 73 fa 14 bc 01 a2 8d bd
       -0.05828688 -0.05632354 -0.009092915 -0.069156654
000380 d0 b1 1e 3d 9d 5c 6a bc e2 2b 54 3d f0 79 60 3a
       0.038743794 -0.014304307 0.051799662 0.0008563092
000390 1b 87 47 bd c6 b7 1c bc 46 01 17 bd ee 24 c0 bc
       -0.04871283 -0.009565299 -0.03686645 -0.02345511
0003a0 1e 9c c5 3d 5f b7 a7 3d 7b b3 61 3e a8 38 84 3e
       0.096489176 0.08189272 0.22041123 0.25824475
0003b0 25 47 ec 3d 66 8c d8 bc c4 90 c8 bd 47 4a 58 3d
       0.11537007 -0.026434135 -0.09793237 0.05280521
0003c0 f0 3d c6 3d d7 b7 c9 bd da 78 0e bd f7 ba b2 bd
       0.096797824 -0.09849518 -0.03478322 -0.08727067
0003d0 bb 2b aa bb 90 c6 3b 3d 4c 14 f7 bd c5 d8 33 3e
       -0.0051932014 0.04584366 -0.12064418 0.1756316
0003e0 21 8e f1 bd 43 55 0d 3d ba 66 a9 3d 06 1d ad bb
       -0.11794687 0.03450514 0.08271547 -0.005283001
0003f0 90 04 d4 bd 33 94 10 3e e6 c5 43 bd 1a 87 28 bd
       -0.10352433 0.14119034 -0.047796153 -0.041144468

layer1.bias f4 [128]
000000 96 53 8d bd 6b a1 85 3e 00 7b 0d 3d a4 fc c7 3c
       -0.069007084 0.26099715 0.03454113 0.02441246
000010 3d 4c dd bb e5 66 c9 bd bb 9a ee bd bd 71 ae 3e
       -0.006753473 -0.09834079 -0.11650606 0.3407115
000020 f7 69 87 be 73 84 7a 3e b0 31 c5 3b 21 df a4 3e
       -0.26448032 0.24464588 0.006017886 0.32201484
000030 44 bd 33 be 09 85 09 bd 30 2a d9 3b 81 d1 3d bc
       -0.17552668 -0.033574138 0.0066273436 -0.011585594
000040 f9 e4 ab 3e a5 56 8a 3e 47 c7 00 be 46 3a 94 3d
       0.3357313 0.2701923 -0.12576018 0.07237677
000050 7e 8a 9b bd c5 d7 cd bd a5 26 2d be 03 96 90 bc
       -0.07594775 -0.100509204 -0.16909273 -0.017649656
000060 39 4d 35 be a8 2b bd bc f1 d8 a5 3e 91 b8 09 3d
       -0.1770524 -0.023092106 0.32392076 0.033623282
000070 98 8a 6c 3e a4 cc 35 3e e9 96 45 bd cf d5 a2 3e
       0.23099744 0.17753845 -0.048239622 0.31803748
000080 0c a2 96 3e 23 ad f7 bd ad a7 5e be 88 2f 12 be
       0.29420507 -0.1209357 -0.2174365 -0.14275944
000090 60 95 ad bd 2e a1 6f bd cf e4 59 3e 22 96 83 3d
       -0.08475757 -0.058503322 0.2127869 0.0642512
0000a0 62 09 05 3d b7 1c 78 3e 1e 23 0b be e5 8f 28 3e
       0.03247965 0.24229704 -0.13587615 0.16461141
0000b0 71 ea 57 be db 20 04 be 1d 37 60 3e a9 d8 1b be
       -0.21085526 -0.12903158 0.21896024 -0.15219368
0000c0 05 38 d9 3d af b0 91 3e 44 e9 50 3e de 9a 42 3e
       0.10606388 0.2845511 0.20401484 0.1900439
0000d0 46 b6 27 be bc c2 3a be 16 13 42 3e 34 db 96 3e
       -0.16378126 -0.18238348 0.18952593 0.29464114
0000e0 dd 41 2f 3e de 55 e7 3d a6 0a c2 bd f9 cb b6 3b
       0.17114969 0.11295675 -0.09474687 0.0055785147
0000f0 15 74 ad 3c 50 e5 b1 bd 9e 39 3d 3e ad 08 0d 3d
       0.021173516 -0.08686316 0.1847901 0.034432102
000100 0a 86 9e bd eb 0e 61 3d f6 7c 36 be f8 ba a9 3c
       -0.0774041 0.054945868 -0.17821106 0.020719036
000110 cd a9 87 3e b0 e9 86 3e 0d fb 9a 3e 41 7b 0f 3e
       0.26496735 0.26350164 0.30269662 0.14011861
000120 a3 d4 01 3e f0 0b 23 be 23 8b 62 be 2d a3 e7 bd
       0.1267877 -0.15922523 -0.22123389 -0.1131042
000130 55 c7 a3 3d 0b f0 65 3e e7 d9 ee 3d 2d 5d 8b 3e
       0.07997004 0.2245485 0.11662655 0.27219525
000140 66 36 f0 bd 4b 46 55 bd a7 77 09 bd e2 ee 62 bd
       -0.11729126 -0.05206899 -0.033561375 -0.055403598
000150 c6 49 a2 3d 75 af 0e 3e 71 2b 6e be 16 94 88 3e
       0.079242274 0.13934119 -0.23258759 0.2667548
000160 ad 55 a5 3d f5 5d 9f 3e ab 70 c1 3e 15 71 25 be
       0.08072982 0.3112637 0.3778127 -0.16156419
000170 79 82 93 bd 1e e0 a3 bd 84 f8 97 3e 1c b3 2d 3e
       -0.0720262 -0.08001731 0.2968179 0.16962856
000180 bf db 01 be 77 73 60 3e 3d 2b 74 3e 5e ca 72 3e
       -0.12681483 0.21919046 0.23844619 0.2371001
000190 55 dd 82 3d 78 dd f9 bc 64 e2 b0 3e 84 49 ca 3d
       0.06389872 -0.030501112 0.34547722 0.09877303
0001a0 53 63 fc 3d e5 bf d1 bd ff 28 0d 3e 22 e4 8e 3d
       0.12323632 -0.10241679 0.1378517 0.06977107
0001b0 ec 2f 04 3e 64 a5 16 3e 4c 0b 51 be 84 4e 67 be
       0.12908906 0.14711529 -0.20414466 -0.22588545
0001c0 2b 59 90 3e 5b 45 49 be 8d 24 43 be 88 91 b6 bc
       0.2819303 -0.19655363 -0.19056912 -0.022286192
0001d0 f0 7a 1b be db 0b 9b 3e 7f 1d 46 be 28 3d 67 bc
       -0.15183616 0.30282483 -0.1934719 -0.014113702
0001e0 5b fa 8e 3c b0 55 c8 bd 10 d9 62 3e e3 c7 02 3e
       0.017453363 -0.097819686 0.22153115 0.12771563
0001f0 ee 97 8f 3e 7e 5c a8 3b 7e 4f 14 3e 7e ac 46 3d
       0.280456 0.005137979 0.14483449 0.048504345

layer2.weight f4 [256, 128]
000000 25 99 83 bd 34 e0 a8 3d df bf 5e 3d d1 32 e4 bd
       -0.064256944 0.08245888 0.0543822 -0.11142505
000010 95 69 a7 3d 2f c1 a1 bd a7 c2 c0 bd eb 8b 3c ba
       0.08174435 -0.07898175 -0.09412127 -0.000719248
000020 a6 07 bf bc 7d c3 98 3d 32 dc 24 3d 3f 82 93 3d
       -0.023319077 0.074591614 0.040249057 0.07202577
000030 17 73 c3 bd 55 c0 84 bd 49 08 d1 bd 00 a4 a5 3d
       -0.09543436 -0.06481997 -0.102066584 0.08087921
000040 ce 79 ac bc ab 59 f9 3d ee b9 b2 bd 77 b1 88 3c
       -0.021054175 0.12175306 -0.087268695 0.016686184
000050 ec 1d 48 3c 57 11 54 3c da c9 7b bd 57 1d 0b bd
       0.012214165 0.012943587 -0.061471798 -0.033963528
000060 1a 81 c3 3b 41 aa 75 bc 7e 3c a9 3b 51 86 c5 bc
       0.005966318 -0.014994205 0.005164682 -0.024111899
000070 9d d0 cc 3b 3a 4f cd 3c cf 05 cd 3c fd 3b 5c bd
       0.0062504546 0.025062192 0.025027184 -0.053768147
000080 5b 8c 78 3c ab 56 92 bd 90 d7 c2 bd 71 ef b0 bd
       0.015170182 -0.07145437 -0.095137715 -0.0863942
000090 22 2b 22 3d 3b f1 42 bc a0 c1 93 3c 67 0e b7 3d
       0.039591916 -0.011898334 0.018036664 0.08938294
0000a0 07 a5 56 3c 0f 54 a9 3d de 94 05 be a9 35 36 3c
       0.013100869 0.08267986 -0.1304507 0.011121192
0000b0 5e 3c ae bd 85 34 98 bc 4c d9 a4 3d 07 65 84 bd
       -0.08507608 -0.01857973 0.080492586 -0.06464582
0000c0 f4 a4 aa 3c d7 7d 0c 3d 86 df 16 3d c7 70 38 bd
       0.020830609 0.034299698 0.036834262 -0.045029428
0000d0 92 5c f7 3a e3 a0 a5 3c 8a 7e c1 3d b5 fc 33 bd
       0.0018872193 0.020218318 0.094479635 -0.043942172
0000e0 4f ee 87 3c 0a f7 c8 bd b8 97 16 3d 00 e5 b8 3c
       0.016593127 -0.09812744 0.036765784 0.022570133
0000f0 2e 9f e7 bd 23 e7 7e 3b a3 b0 02 bd 54 ba 64 3d
       -0.11309658 0.0038895092 -0.031906735 0.05584176
000100 18 70 64 3b 7d 70 f8 bc 52 38 05 bd 4b 0a fe 3b
       0.0034856852 -0.030327076 -0.032524414 0.007752692
000110 9d 45 49 bd 32 92 68 3c 48 70 6c bc 96 56 5d 3d
       -0.049138654 0.014195012 -0.014431067 0.054037653
000120 cd ff 1e ba 65 5c ec bc eb bc 6d bc d2 ef ba bd
       -0.0006065339 -0.02885265 -0.014510374 -0.09127773
000130 e3 40 95 3c 48 12 17 3d 88 a0 8d bd 23 f6 d9 3c
       0.018219417 0.03688267 -0.069153845 0.026606625
000140 e5 6e bc bd 05 92 bc bc a7 13 99 3c c7 8f 48 3d
       -0.09200839 -0.023018846 0.018686129 0.04896524
000150 07 12 42 bb 32 3d 8e 3d 42 cb 9a bd ed 45 87 3d
       -0.0029612796 0.06945266 -0.075582996 0.06605134
000160 3a 37 14 3d 56 7c 4d 3d 0a 3a d3 3c 36 03 9b 3c
       0.03618548 0.050167404 0.025784511 0.01892243
000170 37 c7 2a 3d 7c ba ca bc a0 11 04 3d 8d 4e ce bd
       0.041693892 -0.024747126 0.03224337 -0.10073576
000180 ef 45 b8 bc 8e ad 54 bd 98 b6 46 bc a6 15 87 3b
       -0.022494284 -0.051923327 -0.012128495 0.0041224537
000190 c3 d4 28 bd 25 3f 6b bd a9 d7 68 bd e5 45 2f 3d
       -0.04121853 -0.057433266 -0.056846295 0.042791266
0001a0 33 b0 24 bb 51 45 f6 bc a1 02 d6 3d 4f e7 b6 bd
       -0.0025129437 -0.03006235 0.1044972 -0.08930837
0001b0 db f4 a9 3d 65 9f e3 3c 15 17 c8 bb 9c 92 41 3d
       0.082986556 0.027785966 -0.006106267 0.04725896
0001c0 1d f5 cf 3d 1a d6 5f bd 02 ec 9b bd cb c5 1b bd
       0.101541735 -0.054647543 -0.07613374 -0.038030427
0001d0 9c 05 51 bb b0 2e 65 3d 72 f8 b5 bd 16 5d 3d be
       -0.0031894213 0.055952728 -0.08885278 -0.1849254
0001e0 43 3a aa bc fc 0d b7 bd 94 36 88 3d 97 c9 3e bd
       -0.020779734 -0.08938214 0.06651035 -0.04657897
0001f0 91 86 6f 3d bf 24 54 bd 42 4f 0e bd f6 c5 cb 3d
       0.058477942 -0.051792856 -0.034743555 0.099498674
000200 ad 9b 0c 3d 13 86 73 3c cf 67 24 bd 95 25 c9 bd
       0.03432815 0.014863509 -0.040138062 -0.09821621
000210 41 68 16 bd ae c7 d7 bd 4e 55 1d bc 9a 6a 70 3c
       -0.036720518 -0.10536133 -0.009602858 0.014673853
000220 e3 a6 c8 3c b1 ae 11 bd fb c6 b2 3d 79 1b ac 3d
       0.02449364 -0.03556699 0.08729359 0.084036775
000230 20 f6 05 bd c2 a4 28 bd 82 7a c8 3c cf 52 a0 bc
       -0.032705426 -0.04117275 0.024472479 -0.019570736
000240 52 55 a0 3d 13 9c f2 3d bf de 8a bc d1 d3 45 bd
       0.078287736 0.11846175 -0.016951917 -0.048297707
000250 c5 c0 ab bd e6 34 a4 bd 7b 31 92 3c 1f be 87 3d
       -0.08386377 -0.08017902 0.01784586 0.066280596
000260 bd 3c 4b 3c 85 10 25 bd 5f cf a3 3d 74 94 c1 3c
       0.012404618 -0.040298957 0.07998537 0.023630358
000270 6a fe 80 bd c4 d2 3b 3c 88 8f 21 bd 06 84 76 3c
       -0.06298526 0.011463825 -0.039443523 0.015046125
000280 61 ee be 3d 53 46 08 3d e9 7b 3f 3d 99 51 97 3d
       0.09322811 0.03327019 0.04674903 0.073886104
000290 59 b4 11 bc e2 be d6 bc 59 e1 47 bd 96 a7 04 3c
       -0.008893096 -0.026214067 -0.048798893 0.008096596
0002a0 d5 fa 90 3d 16 14 a3 3d 3b 4c 9f 3c 92 bf 23 3d
       0.070790924 0.079628155 0.01944553 0.039977618
0002b0 93 f4 bc bd 6c 18 dd bd f9 c3 fe 3d 2d 67 c2 bd
       -0.09226336 -0.10795674 0.124397226 -0.094923355
0002c0 4d fc 33 bd 34 35 9e bd 94 0b 6f 3d 34 e9 1a 3d
       -0.043941785 -0.077249914 0.05836065 0.037820056
0002d0 33 4a 97 bc b2 f9 92 bd 2f 8f b7 3d d7 61 5f bc
       -0.018467998 -0.07176532 0.08962857 -0.013634167
0002e0 3d 6e a7 bd 0e 7a 88 bd df ba 32 3d 5a 87 07 3d
       -0.08175323 -0.06663905 0.043635245 0.033088066
0002f0 33 54 fa 3c 9d 6f a7 bc 65 fd e5 3c 7f 1f 8e 3c
       0.030557727 -0.020438964 0.02807493 0.017349003
000300 9e 67 3b 3d 65 6f d2 3c b3 c7 8f 3d eb c6 4b bd
       0.045753114 0.025687883 0.070205115 -0.04975025
000310 7f 2b f2 3d b0 de cb 3d 24 9a 81 bd cb 01 b7 bd
       0.118247025 0.09954584 -0.06328228 -0.08935889
000320 b7 2d 46 bc 80 34 5b bc 1f 20 ba bd ee d0 fb bb
       -0.01209586 -0.013379216 -0.09088158 -0.0076848185
000330 c6 8e 77 3d 7c 34 0c bd 7f e4 a4 bd c5 ea 7c 3d
       0.060438894 -0.03422974 -0.08051395 0.06174733
000340 8d d6 04 bc 0e bd 1a bd da 50 72 bd da b7 61 bd
       -0.0081077935 -0.037777953 -0.059159137 -0.055106975
000350 77 ea bf 3d 7a 13 56 3d 5b 9e c8 3c da 2c 36 bd
       0.093708925 0.052264668 0.024489572 -0.044476368
000360 06 51 7f bd 20 96 70 bd 43 74 34 3d 8e 24 07 bd
       -0.06233313 -0.05873692 0.04405619 -0.032993846
000370 a4 44 7e 3c 38 e8 8d 3c 9a ec 33 3d c1 9b b4 bd
       0.015519295 0.017322645 0.043926813 -0.0881877
000380 06 eb c8 bb 4b fc ed 3c 2c 40 7d 3c 18 54 ae bd
       -0.0061315326 0.029050967 0.015457194 -0.08512133
000390 0d 87 3d bc e5 71 97 bd 40 e0 86 3b 32 87 9f 3d
       -0.011567843 -0.073947705 0.004116088 0.07789458
0003a0 3a db 91 bd a2 a5 81 3d cb 85 dc 3b 9c 9b 67 3d
       -0.07121892 0.0633042 0.0067298166 0.056544885
0003b0 0d 2c 9c bc b5 d2 1e bd 9a 26 4a 3d 36 58 f7 bb
       -0.019063974 -0.038775165 0.04935322 -0.0075483574
0003c0 e7 37 67 3c ef 25 8d 3d fe 8b c4 3c 27 80 ee bc
       0.014112449 0.06892001 0.023992535 -0.029113842
0003d0 87 e4 8c bd 46 e9 a1 3c 0c b8 55 3d 61 bc 39 3d
       -0.06879526 0.019764554 0.052177474 0.045345668
0003e0 01 d6 cb bc 42 11 15 3d f8 82 85 3d e5 7b 8c 3b
       -0.024882318 0.03639341 0.06519121 0.0042872303
0003f0 c4 db b7 bc 5a 5e 9a 3d cc a7 7d bd 01 25 97 bd
       -0.02244366 0.075375274 -0.0619276 -0.07380105

layer2.bias f4 [256]
000000 40 ec a1 3c f5 4f 03 3e 86 fc d2 3d 01 78 2c be
       0.019765973 0.1282347 0.10302071 -0.16842653
000010 66 ff 79 3d 18 63 29 3e 7d 91 14 3b dd 35 4c 3e
       0.061034583 0.16541708 0.0022669726 0.19942422
000020 f2 5d 66 3e c6 77 5e 3e 08 92 2b 3e cd 90 25 be
       0.22496775 0.21725377 0.16754925 -0.16168518
000030 10 aa 10 3d b6 42 1b 3e 3c c5 c5 bc cb 40 59 3e
       0.035318434 0.15162167 -0.0241419 0.21216123
000040 49 54 40 be 5d 27 8a 3d cc 80 40 be 4e 18 38 bc
       -0.18782152 0.06745789 -0.18799132 -0.011236263
000050 d0 94 48 bd f7 d9 44 bd 32 1c 04 3e b4 04 13 be
       -0.048970044 -0.04805943 0.1290138 -0.14357263
000060 e6 ae ea 3d bf cb 67 3d fa 49 59 3e 4d e2 55 3c
       0.114591405 0.05659079 0.21219626 0.013054443
000070 74 0c 9b bd 27 3e 29 3e 5b 1d 0f 3e 12 fc 47 3e
       -0.075707346 0.16527615 0.13976042 0.19529751
000080 36 75 eb 3d c7 a0 0a 3d 5f 20 74 3d 26 ad 2a 3e
       0.114969656 0.033844735 0.059601184 0.16667613
000090 e5 fe 41 3e 4d 62 90 3d ec e2 c5 bd e9 d2 2f 3e
       0.18944891 0.070499994 -0.096624225 0.171703
0000a0 01 5b 24 3e bb 4f 90 3c 0d b8 7e 3d 59 51 6a 3d
       0.1605034 0.017616143 0.062187243 0.057206485
0000b0 df a2 d6 bd a1 da 4f 3e bf f7 1e 3e 0c 88 71 3e
       -0.10480284 0.20298244 0.15524195 0.23587054
0000c0 ac d4 48 3e 9f 02 c6 3d 9e 1f 0e 3e 41 8e 03 3e
       0.19612378 0.09668469 0.13879248 0.12847234
0000d0 9e 1d 50 bd af 97 ec 3d f2 74 68 3e 5a 25 28 3d
       -0.050809495 0.11552369 0.22700861 0.041051246
0000e0 ed 2b 41 3e bc 9e 53 3d 12 f1 3c 3e f7 a5 15 bc
       0.18864413 0.051665053 0.18451336 -0.009133807
0000f0 c2 93 34 3e 7e ad 0c bc a7 a6 f5 3d 8a 80 b5 3d
       0.1763449 -0.008586286 0.11994677 0.088624075
000100 a9 80 2b 3e f6 dc 92 3d 46 55 44 3e 38 ce 3a 3e
       0.16748299 0.07171051 0.19173154 0.18242729
000110 86 a0 17 3e 54 2a 37 3d 24 94 0b bc 6f 80 d9 3c
       0.14807329 0.0447181 -0.008519206 0.0265505
000120 a9 1a 78 3d 81 a5 64 3e be c6 fd bd e5 98 3d 3e
       0.0605723 0.2232876 -0.12391423 0.18515356
000130 e9 f8 1e 3e 9c 53 94 3d 70 06 65 3e 3d 75 0f 3e
       0.15524639 0.0724251 0.22365737 0.14009567
000140 e4 75 10 3e 48 65 02 3e 99 63 5d bd 5f 03 6d 3e
       0.14107472 0.12733948 -0.05405006 0.23145817
000150 b8 99 64 3d 54 b7 5d 3e fb c3 a6 3d 3e 6c 32 3e
       0.05581066 0.21651965 0.08142849 0.17424104
000160 12 f5 fa 3d 31 4e 8c 3d 80 93 56 3e 20 2a e2 3d
       0.12253775 0.06850851 0.20954704 0.11043191
000170 31 40 49 3d a5 a0 b9 bc ce b4 f6 bd ac f0 30 3e
       0.049133483 -0.02265961 -0.120462045 0.17279309
000180 3b 1c 33 3e 8b 59 ad 3c cc 0c 90 3d 88 ca 80 3d
       0.17491238 0.021160861 0.07033691 0.0628863
000190 c8 d7 5a 3e ac e1 e7 3d 51 68 22 3e 31 ca 90 3d
       0.21371377 0.1132234 0.15860106 0.07069815
0001a0 63 7d 42 3d 95 1e cf 3d 82 cf 22 3e dc 41 ae bc
       0.04748286 0.10113255 0.1589947 -0.021271639
0001b0 b7 e5 2a be 07 c1 eb 3d af 92 b1 3d e7 48 5e 3e
       -0.16689192 0.115114264 0.08670556 0.21707498
0001c0 87 3f 5c 3e 57 51 88 bd ad 6e cc 3d dd 60 30 3e
       0.21508609 -0.06656139 0.09982047 0.1722445
0001d0 1d dc 1d 3e ec 36 c0 bd d6 e5 16 3e ef fe 4f 3e
       0.15415998 -0.093854755 0.14736113 0.20312093
0001e0 f4 75 45 3e 14 7b 3b 3e c7 de 06 3e 7e 55 14 3e
       0.19283277 0.1830867 0.1317092 0.14485738
0001f0 6b 66 68 3d f2 cd 5f 3e 27 47 16 3e 73 bb 59 3e
       0.0567383 0.21855906 0.1467558 0.21262912
000200 dd 2f 3b 3e c1 96 4f 3e c0 86 58 3e 7a bf 48 3e
       0.18279977 0.20272352 0.21145153 0.19604293
000210 5b 44 5f 3d 71 8b fa bd 5b 14 8b 3d 20 73 00 be
       0.05450855 -0.122336276 0.06790992 -0.12543917
000220 90 a3 6b 3e e6 4b 56 3e 95 84 44 3e 03 4d 8e bd
       0.23011613 0.2092739 0.19191201 -0.069482826
000230 43 92 57 3e ad 04 d9 3d 87 f5 1e bd 87 9c 34 3e
       0.21051888 0.10596595 -0.038808372 0.17637835
000240 3e 16 6c 3d 20 51 54 3b 43 47 e5 3d 14 cd 05 be
       0.0576384 0.0032396987 0.11195233 -0.13066512
000250 99 6f 00 3e bd 53 26 3e 83 fd 4f 3e 02 5e 11 3e
       0.12542571 0.16242881 0.20311551 0.14196017
000260 2f a2 14 3d ee 8b 10 3e 48 20 f4 3d 30 90 0d be
       0.036287483 0.14115879 0.1192022 -0.13824534
000270 e7 e0 64 3e 05 24 2a 3e 7c 05 3e 3e 24 b5 17 3d
       0.22351418 0.16615303 0.1855678 0.037037984
000280 19 63 26 3e d5 9c e6 3d 22 4e b8 3d 17 e1 56 3e
       0.1624874 0.11260382 0.08999278 0.20984302
000290 58 e2 46 3e ea f2 78 bd aa c9 2c bd 77 0d 59 3d
       0.19422281 -0.060778536 -0.04218451 0.052991357
0002a0 85 df 3d 3e 38 3e 62 3e 9a a4 32 3e 62 40 29 3b
       0.18542297 0.22094047 0.17445603 0.0025825729
0002b0 90 04 37 3e de d4 51 3e 82 1a 52 3d 27 12 5f 3e
       0.17872834 0.20491359 0.05129481 0.21784268
0002c0 ce 3f 5e 3d 84 d0 15 3b 00 3b 5a 3e 0b ba 1d 3d
       0.054260068 0.002285988 0.21311569 0.038507503
0002d0 85 46 4f 3e fb 41 64 3e 4b dc c6 3d b8 e9 a0 3c
       0.20241745 0.22290795 0.09709986 0.019642696
0002e0 76 82 94 3d 4f 15 5a 3e 17 ba 41 3e f2 bc 05 3e
       0.07251446 0.21297191 0.18918644 0.13060358
0002f0 3c 55 27 3e e3 2f a4 3c 40 ba 23 3e c4 8f 48 3e
       0.16341108 0.020042365 0.15989017 0.19586092
000300 6b 2c d7 bc 81 f0 fe 3d 09 fe 82 bd 61 3f aa bd
       -0.026266297 0.12448216 -0.063961096 -0.0831287
000310 ef 4a a9 3d ea fa 85 3d 97 e8 1e 3d e3 07 6f 3e
       0.082662456 0.06541999 0.038796034 0.23342852
000320 b9 a6 36 3e fa 17 44 3e f0 46 db bd 3d 97 47 3e
       0.17837037 0.19149771 -0.1070689 0.19491287
000330 7c a0 cd 3d 2b e4 57 3e 71 c7 d7 3d 7c fc 4e 3e
       0.100403756 0.21083133 0.10536087 0.20213503
000340 f4 48 58 3e e0 bb 36 3d ef 4f 45 3d c8 dc d0 3d
       0.2112158 0.044612765 0.048171934 0.10198361
000350 36 03 1f bc 8e 46 f9 bd fa 30 25 3e 55 ec 52 3e
       -0.009705355 -0.1217166 0.16131964 0.20597966
000360 87 9a 0f 3e a8 98 87 3d 56 66 be 3d e4 36 a0 3d
       0.14023791 0.06620914 0.09296863 0.078229696
000370 bc 90 8b 3b b5 31 1d 3e 57 ff 3d 3e d7 dd ef 3d
       0.004259197 0.15350993 0.18554436 0.117122345
000380 c5 07 4f 3e 4f 0d 40 3e f7 0a e1 bd da 3a 3d 3e
       0.20217808 0.18755077 -0.109884195 0.18479481
000390 07 f9 89 3d 24 66 7f 3d ad d8 4d 3e ce 40 59 3e
       0.06736951 0.06235327 0.20102187 0.21216127
0003a0 05 78 7e bd 24 bd 00 3e a2 fe 67 3e b8 24 2d be
       -0.06212618 0.12572151 0.22655728 -0.16908538
0003b0 6b 32 95 3d bf 88 a6 bd 50 7e 1f 3e 06 56 c1 bd
       0.07285007 -0.08131551 0.15575528 -0.09440236
0003c0 e0 cb 59 3e f8 5e 1d be 49 15 b1 3d 21 a9 f0 3d
       0.21269178 -0.15368259 0.08646638 0.11751009
0003d0 30 b4 18 3e b1 1a 47 3e 74 be 7b 3e f5 7f d5 3d
       0.14912486 0.19443776 0.24584371 0.104247965
0003e0 05 ef 0a bd 02 56 27 3e 05 13 c5 3c 8f b4 57 3d
       -0.033919353 0.16341403 0.02405692 0.05266243
0003f0 4d 44 ae bd 23 aa 5c 3e 25 15 13 3e 54 fc e3 3d
       -0.08509121 0.21549277 0.14363535 0.11132112

layer3.weight f4 [256, 256]
000000 be 40 cb bc ef 96 53 bd 19 c7 54 bd 27 27 35 3d
       -0.024811145 -0.051657613 -0.051947687 0.04422679
000010 17 0d e9 3c f4 cf fe bc ee c3 f2 bd f9 5a f6 bc
       0.028448625 -0.03110502 -0.11853777 -0.030072676
000020 a4 d5 3e bd 17 71 c2 bc 80 f2 dd 3c 8a 35 61 3d
       -0.046590462 -0.023735566 0.027093172 0.0549827
000030 d8 06 37 3c f5 f8 12 bd 46 a7 df bc 95 85 06 3c
       0.011171065 -0.035881955 -0.027301442 0.008210559
000040 b8 0d 9e 3b 50 4d 2f 3c 44 13 b6 3b 9e 2b 86 bd
       0.0048234127 0.010699585 0.005556496 -0.06551288
000050 c8 a2 6e bd 4f 7a 16 be 08 f5 2b bb f6 d7 f0 3c
       -0.05826071 -0.14695095 -0.002623858 0.029399853
000060 18 ca 0b bd e4 c1 3c bd d8 80 2a 3d 38 8e ad 3c
       -0.03412828 -0.046083346 0.04162678 0.02118598
000070 e4 2e 89 3d cd dd 8b 3c 92 97 1d bd 45 06 09 bd
       0.06698397 0.017073536 -0.038474627 -0.033453245
000080 df c3 58 bc c0 bb 04 bd 34 cc 2d bd 72 9f 84 bc
       -0.013230293 -0.032405615 -0.04243107 -0.01618931
000090 9f b5 3d bd e7 b0 f0 bc ed d1 ac 3c ba a7 58 3c
       -0.046315785 -0.029381229 0.021096194 0.013223583
0000a0 5a dc 4a 3d c8 61 97 bd c1 7c 32 3d 81 90 02 bd
       0.04952655 -0.07391697 0.043576006 -0.03187609
0000b0 be 09 e8 3c 04 ca 1d bc ee 1d 59 bd e3 a2 0b 3d
       0.028324958 -0.009630684 -0.05300706 0.034090888
0000c0 fd f3 37 bd c9 65 3c bc 40 f6 22 bc 5d db 2c 3b
       -0.04491042 -0.011498877 -0.009946406 0.0026375868
0000d0 fb 5a 02 be bd 1c 2a bd 8a b2 c7 bc bc a8 38 bd
       -0.12730019 -0.041531313 -0.024377126 -0.045082793
0000e0 87 1d ff 3c a8 9c e7 bb 2b 9b 47 3d da 5f 44 3d
       0.03114201 -0.0070682354 0.048731964 0.047942974
0000f0 33 88 79 bc 6e 15 c7 bd 41 04 01 3d 59 a4 a7 3c
       -0.015230226 -0.09720884 0.031498197 0.02046411
000100 0e bc de ba b3 13 e1 3c 43 82 ce 3c 01 cc 5a 3d
       -0.00169933 0.027475214 0.025208598 0.05341721
000110 99 f4 01 bb 25 91 84 3d cd d7 9e bc f5 e2 a6 3c
       -0.001982963 0.064729966 -0.019390011 0.020371893
000120 36 ec 95 bd c8 d9 11 bd 5c 0d 26 3d f7 3b 2d ba
       -0.07320444 -0.035608083 0.040540084 -0.0006608362
000130 67 91 2f 3c ab 2d 84 3c b3 45 e3 bc 47 a8 bd bc
       0.010715819 0.016135057 -0.027743196 -0.02315153
000140 c5 fc 43 3d 0f f5 2e bd 64 c4 e0 bd cc f8 8c bc
       0.04784848 -0.042714175 -0.109749585 -0.01720848
000150 28 2a c0 3c 01 87 7d bb 01 21 ce bc e1 b9 8a bd
       0.023457602 -0.0038685205 -0.025162222 -0.06773735
000160 56 67 86 3c e3 12 e5 3c 04 f5 63 3d ed 4e 49 3d
       0.016406696 0.027963107 0.055653587 0.049147535
000170 f7 84 e4 bc 41 08 52 3d 0a a7 97 3d ea 32 ca 3b
       -0.027895434 0.051277403 0.07404907 0.00617062
000180 db 3e 7a 3d a5 77 a0 bd f4 7b a4 3c 72 27 99 3c
       0.0610951 -0.078353204 0.020078637 0.018695567
000190 e4 89 47 3d 88 e1 e3 bc cf eb a6 bc f1 c1 3e bd
       0.048715487 -0.027817503 -0.020376114 -0.046571676
0001a0 1a d1 a5 3d 98 8b 35 3d 42 5e 05 3d 79 db 29 3c
       0.080965236 0.04432258 0.032560594 0.010367268
0001b0 b5 62 e4 3d 27 4b 2c 3d 92 94 b5 3c bd d1 bb bc
       0.11151639 0.04206386 0.02216557 -0.02292716
0001c0 30 4d 09 bd 5d 42 bf 3d 38 04 d1 bc 89 6e 10 3d
       -0.033520877 0.0933883 -0.025514707 0.035261665
0001d0 46 7f 7f bd 2a be 28 3d 85 e7 09 3c 1e a7 30 3c
       -0.062377237 0.04119698 0.008417015 0.010782031
0001e0 b4 43 6d 3d e4 16 d6 b8 8f c8 27 bc c8 5e 95 bd
       0.057925895 -0.00010208579 -0.010240688 -0.07293469
0001f0 1b 61 b6 bc 52 17 48 bd 45 db 8b bc 30 61 5e 3d
       -0.0222631 -0.048850365 -0.01707233 0.054291904
000200 7b ea c6 3c 0b 9e 4e 3c a3 96 91 bd c2 85 57 bc
       0.02428173 0.012610923 -0.0710881 -0.013154449
000210 dc 08 32 bd 43 eb bf 3d c5 f0 6b bd e7 e2 43 3c
       -0.04346548 0.093710445 -0.057602663 0.011955953
000220 d0 57 64 3c ef 56 2f 3d a9 fa 44 bd 64 d4 73 bd
       0.013936952 0.042807516 -0.04809061 -0.059528723
000230 89 68 e6 bc 74 4b 02 ba a6 96 bf bd 6f 7d 49 bc
       -0.028126018 -0.000497035 -0.09354906 -0.012297972
000240 20 3e 43 3c b3 f0 38 bd 82 68 01 ba 7e 10 5f 3d
       0.011916667 -0.045151424 -0.00049365324 0.054459088
000250 8a 25 04 bd 3c cb 9c 3d b3 47 19 3d 7f f0 a8 bd
       -0.032262363 0.076559514 0.037421893 -0.08248996
000260 67 9d 2f bd 72 d0 0e 3d e2 04 27 bd df 91 99 3c
       -0.04287472 0.034866758 -0.04077614 0.018746315
000270 98 8f 84 bd e3 62 ff bc c3 a6 66 3d 9e 46 b7 3b
       -0.06472701 -0.031175083 0.05631138 0.005593135
000280 9c 4b 33 3d 10 a6 16 3c 14 3a ab bd 1a 30 3c 3d
       0.04377328 0.009194866 -0.08360687 0.04594431
000290 07 5e 6d 3b 87 78 03 bd 42 0d ed bd 67 dc 8a bd
       0.0036219375 -0.032097366 -0.11574794 -0.0678032
0002a0 54 18 e2 bc 62 b7 46 bc 9f 81 74 3d 3f c0 d7 3b
       -0.027599491 -0.012128683 0.05969393 0.006584197
0002b0 90 64 d7 3c 90 db 09 bd b6 93 85 bd e8 73 57 3b
       0.02629307 -0.033656657 -0.06522314 0.0032875482
0002c0 07 84 02 3c e2 6c e1 bd 11 d8 2b 3d fa 30 e9 3b
       0.007966048 -0.11007096 0.041954104 0.007116434
0002d0 ef 00 47 bc 50 6a 1d bd 19 fb 6a bd 37 5d 89 bc
       -0.012146219 -0.038431466 -0.05736837 -0.016768081
0002e0 49 1b 43 3c 73 af 0e bc 6e cc cf bc 84 b0 d8 bc
       0.011908361 -0.008708823 -0.025366034 -0.026451357
0002f0 25 0d 0e bd e7 83 0c bc 65 6e af bd 93 10 51 bc
       -0.034680504 -0.00857637 -0.08565978 -0.012760299
000300 b9 d7 02 bd 40 07 5c bc d3 6f af bd ad 3e 18 bc
       -0.03194401 -0.013429463 -0.08566251 -0.009292287
000310 66 38 f7 bc 23 a5 10 bd 03 2b 08 bd 6f f4 e5 3c
       -0.03017826 -0.035313737 -0.033244144 0.028070657
000320 4b 52 96 3d cf 94 37 3d 71 d8 09 be bb 64 73 bd
       0.07339915 0.04481965 -0.13461472 -0.059422236
000330 2a be 5d bd ea 28 af bc db 57 b6 3c 44 ef cd 3c
       -0.054136433 -0.021381814 0.02225869 0.025138505
000340 c5 1d 0d bd 56 4c dd bd 30 f0 93 3d ea c9 92 bc
       -0.03445222 -0.108055755 0.072235465 -0.017918546
000350 ac 44 33 bc 21 cb aa 3d 39 91 1a bd 91 1b ca bc
       -0.010941666 0.08339525 -0.03773615 -0.024671348
000360 83 a5 d3 3c 80 c5 a7 bb 54 ee 06 3d bb 7a de bc
       0.025835758 -0.0051199794 0.03294213 -0.027158132
000370 58 8b 9f bc e7 5d 3d 3d f6 d9 0c bc d8 18 6a bd
       -0.019475624 0.04623213 -0.008596888 -0.0571526
000380 5a c2 4d bd f6 a9 b6 3c b6 08 1e be c5 ac 91 bc
       -0.050234176 0.02229784 -0.1543301 -0.017782578
000390 58 11 ae 3b 66 df a7 bc 78 65 49 bd b4 e5 09 bd
       0.005312126 -0.020492267 -0.049169034 -0.033666328
0003a0 14 fc c1 3c bf b4 8c bd 15 77 5b bd e1 25 7a 3d
       0.02367977 -0.06870412 -0.053580362 0.06107128
0003b0 33 35 00 bd 80 0d 8e bd af e0 03 3c 47 da 21 bc
       -0.031300735 -0.06936169 0.008049174 -0.0098787015
0003c0 3f a2 a4 3b a9 47 b0 3a 4d 7f cd 3c ed e7 f2 bc
       0.005024224 0.0013449091 0.025085116 -0.029651606
0003d0 e8 ed 8e bc 02 d2 9f 3c 8b f4 5c bd 03 0f 72 bd
       -0.017447427 0.01950932 -0.05394415 -0.059096348
0003e0 40 c9 02 be 39 82 2d 3d 3c 6e 0e bd 50 f9 9f bd
       -0.12772083 0.042360518 -0.034773096 -0.078112245
0003f0 00 43 93 3d 3f e2 66 bc a7 9d df bc 2d ca 84 bc
       0.071905136 -0.014092027 -0.027296854 -0.016209686

layer3.bias f4 [256]
000000 63 fe 3b 3d 85 e0 d3 3d 96 65 2a 3e 74 6c b9 3d
       0.0458969 0.10345558 0.16640314 0.09053889
000010 03 53 bf 3d 02 2c 4d 3d 26 aa 0a be dd e7 cf bd
       0.09342005 0.050090797 -0.13541469 -0.10151646
000020 1c 50 ee 3d b7 e4 19 3e 43 f2 15 3e 42 28 3a 3e
       0.116363734 0.15028654 0.14643197 0.1817942
000030 8d 15 04 3e 35 a6 32 3e a4 da fd bd 3e 5b 97 bd
       0.12898846 0.17446215 -0.12395218 -0.0739045
000040 cd c4 ad bd 7f c6 cc 3d 37 4c cb 3d 78 9f 17 3e
       -0.084848024 0.099987976 0.09926646 0.14806926
000050 e4 eb 88 3d 41 68 e6 3d 39 a7 c7 bd 3b c1 36 3e
       0.066856176 0.112503536 -0.09748692 0.17847149
000060 c8 0d fd bd 33 2d 31 3e 85 6e 08 3e 38 74 36 be
       -0.12356144 0.17302398 0.1332341 -0.17817771
000070 37 20 fa 3d 14 53 b6 bd b8 45 cf 3d 2d 3a 2b 3e
       0.12213176 -0.08902565 0.1012072 0.16721411
000080 50 ab 2b bd 11 91 3c 3e b9 e4 0f 3e 75 7d 46 3e
       -0.041911423 0.18414713 0.14052095 0.19383796
000090 b0 65 d5 bc 15 fc b1 bd 2f 62 44 3e 79 51 31 3e
       -0.026049465 -0.08690659 0.19178079 0.17316236
0000a0 cf e9 01 be 88 a0 33 3e c4 70 08 3e 62 bc 5d 3d
       -0.12686847 0.17541707 0.13324267 0.054134734
0000b0 37 97 45 3e 2c dd 2d 3e 1e 8e f3 3d 44 7c d2 3d
       0.19295965 0.16978902 0.11892341 0.10277608
0000c0 f5 f1 1c 3e ff c2 05 3e 7d fe 05 3e 95 8d 0b 3e
       0.15326674 0.13062666 0.13085361 0.13628228
0000d0 30 59 d0 bd c1 ad 8c 3d 7f ab 1d 3e a9 ba 18 3e
       -0.10173261 0.068690784 0.15397452 0.14914955
0000e0 01 f5 14 3e e4 a4 d1 3c 4e c1 32 3e b4 1e 1b 3e
       0.14546587 0.025591321 0.17456552 0.15148431
0000f0 b2 3b 35 3e 7f 0f e2 3d 19 d1 2d 3e 3e 6a 10 be
       0.17698553 0.11038112 0.16974296 -0.14103028
000100 fe 2e d5 bd 2e a4 da 3d 7a d4 2f 3e 93 13 83 bd
       -0.10409354 0.10675846 0.17170897 -0.06400218
000110 48 5c af 3d d8 75 ed bd af 5e f7 3d e5 15 2f 3e
       0.08562523 -0.115947425 0.12078606 0.17098196
000120 24 9e 38 3e 05 97 ec bd bf 7e 1b 3e 1a 4d d3 3d
       0.18029076 -0.11552242 0.15185069 0.1031744
000130 33 17 1d 3e 8a da d2 3d 93 e4 e9 bd 1b c5 c6 3d
       0.15340881 0.10295589 -0.1142055 0.09705564
000140 87 83 76 3d 0c 42 95 3d ad 39 e0 3d d4 87 0b 3e
       0.060184028 0.07287988 0.10948501 0.13626033
000150 6f 60 b3 3d 0f c1 a4 bc 9b 17 02 3e bd 75 d0 3d
       0.087586276 -0.020111589 0.12704317 0.10178707
000160 50 ed 30 3e 41 34 30 3e 93 3b d5 3d 90 ca a8 3d
       0.17278028 0.17207433 0.104117535 0.08241761
000170 2a ba 01 3e 0c 2a 91 3d 5a ec 1a be 45 12 08 3e
       0.12668672 0.07088098 -0.15129223 0.1328822
000180 bb 6d cb 3d a1 96 03 3e 38 97 b9 3c f6 b0 4b 3e
       0.09933039 0.12850429 0.022655115 0.19891724
000190 24 49 33 3e 84 a4 32 3e 37 54 4f bd af 0e 59 bd
       0.1750837 0.1744557 -0.050617423 -0.05299252
0001a0 1e 4f 3c 3e e5 e7 38 3e 2b db 0c be 75 98 a3 3d
       0.18389556 0.1805721 -0.13755481 0.07988063
0001b0 21 5a 54 bd 16 5f 29 3e 40 0a 2b 3e fe 5a 41 3e
       -0.051843766 0.16540179 0.16703129 0.18882367
0001c0 1c c4 fe 3d e8 12 ef 3d 1c 65 e9 3d 1e c6 05 be
       0.12439749 0.11673528 0.11396238 -0.13063857
0001d0 f8 b0 23 3e 07 53 84 3d 3d 20 63 3d a1 1f 6a 3d
       0.15985477 0.06461149 0.055450667 0.05715907
0001e0 78 89 d1 bd c9 90 72 3d db 51 d6 3d 4a 0b a0 3d
       -0.10231298 0.05922011 0.104648314 0.07814653
0001f0 d2 05 31 3e ee a9 2f 3e a9 d4 3c 3e 19 9b 7b 3e
       0.17287377 0.17154667 0.18440498 0.24570884
000200 cf c0 0c be 54 bf 2e 3e 87 fb 9b 3d 31 ae 17 3e
       -0.13745426 0.17065173 0.076163344 0.14812542
000210 26 41 23 3e 9e 00 b8 3d 26 a9 2f bd 61 21 3d 3e
       0.15942821 0.08984493 -0.042885922 0.18469764
000220 57 5c 8c 3d 46 57 3e 3e 7b e0 db 3d c7 cd c6 bd
       0.0685355 0.1858798 0.107361756 -0.09707218
000230 75 4d 0b 3e 99 3e 1e 3e db 0f 34 3e 04 2c 27 3e
       0.13603766 0.15453567 0.17584173 0.16325384
000240 42 c1 83 3d 23 61 85 bd 04 44 bf 3d 49 50 dc 3d
       0.064333454 -0.06512668 0.09339145 0.10757501
000250 97 79 e8 3d cb 56 cd 3d 8e 77 32 3e 3a f8 74 3d
       0.113513164 0.1002632 0.17428419 0.05980704
000260 05 77 92 3d 72 c9 b3 3d 25 7a f7 bc 50 c2 68 bd
       0.071516074 0.08778657 -0.03020961 -0.056825936
000270 8b 7d e0 3d 7f 97 01 3e 94 cf 03 3e 9c 31 cf 3d
       0.109614454 0.12655447 0.12872154 0.10116884
000280 3e 7e d1 3d d2 05 98 3d 5d c1 02 3e 22 37 f2 bd
       0.10229157 0.07422985 0.12769075 -0.11826922
000290 aa 91 3e 3e 43 88 b5 bd cc e6 34 be 3e 9d af 3d
       0.18610254 -0.088638805 -0.17666167 0.085749134
0002a0 66 04 96 3d 01 5f d9 3d 84 e5 f2 bd 3e 2f eb bd
       0.07325058 0.10613824 -0.11860183 -0.1148362
0002b0 9d 62 1f 3e 98 f8 24 3e 43 3e 01 3d 01 4d 3d 3e
       0.15564962 0.16110456 0.031553518 0.18486406
0002c0 1a fd 9e bc 15 71 39 3e ab a0 bb 3d 77 57 8c bd
       -0.019407798 0.18109544 0.09161504 -0.0685262
0002d0 9d 08 ee 3d c4 e6 38 3e 72 26 40 bd 48 1c b0 3d
       0.116227366 0.1805678 -0.046911664 0.08599144
0002e0 d1 49 3e 3e 19 fd 18 be 76 8b 95 3d ca ac 3c 3e
       0.18582846 -0.14940299 0.07301991 0.18425289
0002f0 08 94 b9 3d d6 ae 3c 3e 36 20 b5 3d 4f 60 f9 3d
       0.09061438 0.1842607 0.088440344 0.121765725
000300 47 0c 3b 3e 4c 6d 2d 3e 80 f5 43 3e 37 3f 0d 3e
       0.18266402 0.16936225 0.1913662 0.13793646
000310 89 b9 bc 3d b1 7b 0a 3e e9 90 b7 bd 7b cc 0b 3e
       0.092150755 0.13523747 -0.08963186 0.13652222
000320 08 44 ca 3d 43 14 f1 3d 67 c7 1f 3e 21 3b c2 bd
       0.09876257 0.11771443 0.1560341 -0.09483934
000330 27 29 14 bc 86 b7 c3 bc ce bb 0c be 44 e1 e1 3d
       -0.009043015 -0.023891222 -0.13743517 0.11029294
000340 cb 76 29 3e 8b db 01 3e 9f cb 12 3e 26 b6 0f 3d
       0.16549222 0.12681405 0.14335488 0.03508582
000350 dd 07 01 3e af 48 3e 3e 24 5b 20 3e 64 0a 39 bd
       0.12600656 0.18582414 0.15659767 -0.045175925
000360 94 51 35 3e 1f d3 a6 3d 57 9e 6d bd c1 9d 1c 3e
       0.17706901 0.08145737 -0.058012333 0.15294553
000370 26 bd 95 3d 59 94 cd 3d c0 d3 ea 3b 45 4c 94 3d
       0.07311468 0.10038061 0.007166356 0.0724111
000380 28 20 b0 3d eb 98 e6 bd e1 a7 39 3e 1e 02 be bd
       0.08599883 -0.112596355 0.18130447 -0.092777476
000390 58 15 fe 3d 95 e0 9d bd bd 8a 63 bd 58 85 44 3e
       0.12406415 -0.07708851 -0.055552233 0.19191492
0003a0 2e 87 0c 3e fc ee b4 bd cf e7 3d 3e 81 ce 31 3e
       0.13723442 -0.08834645 0.18545459 0.17363931
0003b0 16 c1 41 bd 71 a4 15 bd d3 5a ae 3d f0 d7 ef bd
       -0.04730328 -0.036533777 0.08513417 -0.11711109
0003c0 ac 5d 1c 3e 45 45 24 3e 07 1e 3b 3e bc c9 12 be
       0.15270108 0.16042049 0.18273173 -0.14334768
0003d0 93 f9 54 3c d8 9c c3 3d 87 f0 c6 bd 52 71 37 3e
       0.012998956 0.095514 -0.09713846 0.17914322
0003e0 a8 22 02 3e f7 c9 85 bd 84 6c f7 3d cb 9d 85 3d
       0.12708533 -0.06532662 0.120812446 0.06524237
0003f0 e7 05 09 3e 45 04 bd 3d 6d 97 0a 3e 0d 9d 15 bd
       0.13381158 0.0922933 0.13534327 -0.03652673

layer4.weight f4 [128, 256]
000000 67 45 9d 3d 59 8c 80 3d 09 41 3f bd 71 6b fa bc
       0.07679253 0.06276769 -0.04669288 -0.03056881
000010 5f 1d 11 bd 30 fb 07 bc 2e 96 5c 3b ab a4 d2 3c
       -0.0354284 -0.008299634 0.003365885 0.025713285
000020 2a a6 0f 3d d6 54 83 ba f3 34 46 bd 8f 5d 83 3c
       0.035070576 -0.001001979 -0.04839034 0.016035823
000030 97 4a ef bc f2 0a d8 3c c4 ed 89 3d 00 4b 37 3c
       -0.029210372 0.026372407 0.06734803 0.011187315
000040 20 d8 45 3c 64 dd 19 bd 84 eb 78 3c 16 0c 8c bb
       0.012075454 -0.03756465 0.01519287 -0.0042739017
000050 ed d0 f9 3c 14 3d 44 bd b9 1f 93 3c 70 21 dc ba
       0.030495131 -0.04790981 0.017959462 -0.0016794633
000060 9c 3a e6 3d 64 da 22 bd 7b d5 2c 3d 97 24 2f 3d
       0.112416476 -0.039759055 0.04219578 0.042759504
000070 f0 09 82 bd 86 a4 58 3e cf 0d 91 bc 0c 0d d6 bc
       -0.06349552 0.2115651 -0.01770678 -0.026129268
000080 ca 83 a8 3d dd f3 a1 bb f9 1f 3f bd 30 88 f2 3c
       0.08228262 -0.004942401 -0.04666135 0.029605955
000090 c5 c5 de bd 62 d1 7a 3d 06 71 42 3b 33 4e 42 3d
       -0.10877565 0.06123484 0.0029669418 0.047437858
0000a0 e8 29 85 3d 6c d8 a5 3c 63 7f 1c bd 74 24 cf bc
       0.065021336 0.0202448 -0.038207423 -0.025285937
0000b0 21 a4 0e bd a2 82 34 bd 0f 57 03 bd 67 47 15 3d
       -0.034824494 -0.044069894 -0.032065447 0.036445048
0000c0 8e c1 5b bc 4a 6a df bc 0e 1f f5 ba 87 fb 57 bc
       -0.013412846 -0.027272362 -0.0018701272 -0.013182527
0000d0 ea 32 0e 3d 61 95 ee 3c 0b 60 7a bd cb 6e 56 bd
       0.034716524 0.029123964 -0.06112675 -0.052351754
0000e0 41 7d c9 3c 7c 44 53 3b 6e 68 0a bd 24 43 0c bd
       0.024595859 0.0032236865 -0.033791 -0.034243718
0000f0 52 55 fe bc 50 ba 0a 3c aa ca 0b 3b a9 8c fd 3d
       -0.031046543 0.008467272 0.0021330514 0.123803444
000100 07 ed 24 3e 85 79 5d 3d 6c 5e 6f 3d 56 a2 77 bc
       0.16106044 0.05407097 0.058439657 -0.0151143875
000110 b2 39 49 3d f8 0d 74 3d e6 de 08 3d 47 10 e9 3c
       0.04912729 0.059583634 0.033415698 0.028450144
000120 a4 17 85 bd e5 33 c2 3d 83 ca 03 3d d8 2b 75 3d
       -0.0649865 0.09482554 0.032175552 0.059856266
000130 11 d3 ca 3c 83 4c 8b bc c7 4a be 3d 7d c1 76 3c
       0.024758847 -0.017004257 0.092916064 0.01506078
000140 32 6c c1 3d e7 a7 42 bd 2d 63 09 3d 17 89 2c bd
       0.09444465 -0.047523405 0.033541847 -0.042122927
000150 db 80 e9 bc f1 53 0b be 04 47 23 3d 54 3d 82 3d
       -0.028503826 -0.1360624 0.039862648 0.06359354
000160 40 b7 f6 bc f2 51 84 bb 81 0d 3f 3d 49 28 3a 3d
       -0.030116677 -0.004038089 0.046643738 0.045448575
000170 ee 5d 84 3d 7a 48 be bc 5c 58 a2 3b de 44 be 3c
       0.06463228 -0.023227919 0.004954381 0.023226198
000180 fa 28 a4 bc f7 81 9d 3b ea 78 19 3d c1 b2 50 bd
       -0.02003907 0.004806753 0.03746883 -0.050951723
000190 94 ed 5f 3d ac db 03 3d 93 31 32 3d 85 6f 94 3d
       0.05466993 0.032191917 0.04350431 0.07247833
0001a0 a1 b6 2d bc 28 7c 02 bd 32 95 45 3d 9e ef e7 3a
       -0.010602624 -0.031856686 0.048237987 0.0017695313
0001b0 14 e3 68 3d c8 b9 32 3d 8b fc 78 3d 6a d3 b5 bc
       0.056857184 0.043634206 0.06078772 -0.022195537
0001c0 1f 80 4c 3b 46 f0 ab 3c 6b 7e f4 3c bd 8c 79 3d
       0.0031204296 0.020988595 0.029845437 0.060925234
0001d0 26 c8 2d bd 72 38 c1 bc 34 15 e6 3c 13 58 93 bc
       -0.042427205 -0.023586486 0.028086282 -0.017986333
0001e0 20 1c 38 bc f1 c9 21 3d cb 4d 68 3d 5a 6d ed bb
       -0.011237174 0.039499227 0.056714814 -0.0072457017
0001f0 7c 15 c8 3c 8b 3d 98 3c e6 61 22 bb ec 75 1e be
       0.024424307 0.018584033 -0.002477759 -0.15474671
000200 41 f8 bd 3b 53 f7 dc 3c d3 8e 50 bd cf 5b aa bc
       0.0057974164 0.026973402 -0.050917458 -0.02079573
000210 03 83 6d 3c 40 e7 05 bd 25 f4 d5 3c e4 88 ef 3c
       0.014496568 -0.03269124 0.026117394 0.02924008
000220 29 39 0e bd 22 f9 30 bd e9 ef fb bc 39 a6 d6 3d
       -0.03472248 -0.04320634 -0.030754047 0.10480923
000230 f1 1b fe 3c f3 e9 69 bd f4 5a 7b 3d c6 81 4e bd
       0.031019183 -0.057107877 0.061366037 -0.05041673
000240 3f 7b 45 bd 5b 4e df 3d a8 b6 15 3d 1f e0 88 bc
       -0.04821324 0.10903617 0.036551148 -0.016708432
000250 6b 6d 6e 3d 78 ad 0b bd 66 3f 2d 3d fe ce 9a bc
       0.058209818 -0.03410098 0.04229679 -0.01889753
000260 6f c9 e4 3b 04 01 16 bd 4c 44 2b 3d d8 32 73 bd
       0.0069820206 -0.036622062 0.04181318 -0.05937466
000270 ec 27 52 bc 77 5b f9 3b a8 06 98 3c 2f 3e 8c 3c
       -0.012826901 0.0076097804 0.018557861 0.017119495
000280 7c 1e e8 bc 67 07 ac bc d4 f9 55 3b c7 93 f5 3d
       -0.028334849 -0.020999623 0.003265013 0.11991077
000290 74 96 ec 3a ac e8 29 3d 71 0c 3b 3c 7e 66 07 3c
       0.001805021 0.04148166 0.0114165405 0.008264182
0002a0 f8 05 30 3b c8 b9 33 bc 50 2e d4 3d f3 f9 5c 3d
       0.0026859026 -0.010969587 0.10360396 0.053949308
0002b0 7c 6f 0a bd 1c bc bd bc 38 2b 1f 3c e4 09 3c 3d
       -0.033797726 -0.023160987 0.009714894 0.04590787
0002c0 c1 e6 be bd 2f d4 21 3c 34 65 a3 3d 9a 01 d5 3d
       -0.093213566 0.009877249 0.07978287 0.10400696
0002d0 3b 22 d5 bb 44 98 73 bd 42 aa 40 3d b1 dd 01 3c
       -0.0065043247 -0.059471384 0.04703737 0.0079263905
0002e0 57 aa 11 3d a1 01 a8 bb 18 3e b6 3c 59 ca 58 bd
       0.03556284 -0.0051271473 0.022246405 -0.05292735
0002f0 f5 e2 6f 3d a5 bd 84 bc c2 76 28 bc 2d 26 26 3d
       0.058566052 -0.01620371 -0.01028222 0.04056375
000300 d1 ea 0c 3d b2 10 84 3c df 5f d9 bc 59 e8 10 3d
       0.034403626 0.016121242 -0.026534973 0.035377834
000310 3b 42 3c 3d 63 0a 34 3d 2e 51 91 3c c2 65 c5 bb
       0.0459616 0.043955218 0.017738905 -0.0060240934
000320 7a cb 0a 3d 21 07 2d 3c 88 b9 09 bd a8 fd fd 3d
       0.033885457 0.010560782 -0.033624202 0.12401897
000330 8e ad 02 3b 68 37 65 bb 3f 83 18 bd ab 85 e3 3c
       0.0019939872 -0.0034975652 -0.03723454 0.027773699
000340 eb f4 e3 bc ca 05 5c 3a 4e d6 97 bc c4 1d 98 3c
       -0.027826747 0.00083931966 -0.018534806 0.01856888
000350 80 2c 29 3d bb 46 42 bd 05 d4 63 bd 5d 97 1f bd
       0.041302204 -0.047430735 -0.05562212 -0.03896271
000360 31 af 56 3d 5e 4e 4b 3d f5 54 7e 3d cd 7e 83 3d
       0.05241317 0.049635284 0.06209274 0.0642067
000370 2a 2c 89 bc 3e 2a 01 3d 71 9e 63 3d 65 46 5d bd
       -0.016744692 0.031534426 0.055571023 -0.05402221
000380 db 67 53 bc 16 5f 80 3d e8 11 55 3d 1a d9 03 3d
       -0.012903179 0.06268136 0.05201903 0.032189466
000390 d2 e8 35 bd 4d f1 b2 3d 2d 0b 4e 3d 66 4a c1 bd
       -0.044411488 0.08737431 0.050303627 -0.094380185
0003a0 fb 4f 69 3c 3b a7 aa 3d a1 8c 29 bd 49 06 1d bd
       0.01424026 0.08332678 -0.04139388 -0.038336072
0003b0 ba 70 82 3c 04 73 19 3c 2a a2 78 3d 97 a8 04 3e
       0.015922893 0.009365801 0.060701527 0.12954937
0003c0 ff cc e9 bb 3f 4b 1b 3d 09 f0 58 3c 4f d7 7a 3c
       -0.007135033 0.037913557 0.013240823 0.015310123
0003d0 4b cb e1 bc db 28 b4 3c 14 d5 38 bc 98 61 9f 3b
       -0.027562758 0.021992138 -0.0112812705 0.004863929
0003e0 db c8 11 3d d7 28 e9 3d ac 45 13 bc 14 6c da bc
       0.03559194 0.11384743 -0.008988779 -0.026662864
0003f0 d4 db 55 bd c4 20 47 bd c5 87 80 bd 12 80 dd 3c
       -0.052211598 -0.048615232 -0.06275896 0.027038608

layer4.bias f4 [128]
000000 11 76 3b bd e9 7e 9a 3d 7d c1 92 3d e4 cf 8b bd
       -0.045766894 0.075437374 0.07165811 -0.06826761
000010 1a a5 d9 3d 83 a4 1b bd f5 27 8d bd 0a 2e b7 bd
       0.10627194 -0.037998687 -0.06892387 -0.08944328
000020 ee 24 28 3e 2d 43 19 3e ae ce 80 3c 3d 8b df 3d
       0.16420338 0.14967032 0.015723553 0.109152295
000030 68 14 08 be 60 44 b0 bd 93 d7 e6 3d 7d 89 57 bd
       -0.13289034 -0.086067915 0.11271586 -0.052621353
000040 41 a3 da bb d8 03 2d bd 66 ba 18 3e 47 c8 45 bc
       -0.0066722934 -0.042239994 0.14914855 -0.012071676
000050 df d2 76 bd fd 03 8d bd 85 b8 a3 3d 1b 80 fc 3d
       -0.060259696 -0.06885526 0.07994179 0.12329122
000060 ef 15 b9 3d 7b 7c aa bd 26 d2 68 3c e6 6f 24 3e
       0.090373866 -0.08324524 0.01421026 0.16058311
000070 3e 4e d3 3b f6 c8 22 be b1 c3 de bd 9a a1 a8 3d
       0.006448536 -0.15896973 -0.10877169 0.08233948
000080 62 f9 57 bc d8 2b a1 bc fe 35 6f bd d7 50 22 bd
       -0.013182016 -0.019674227 -0.0584011 -0.039627876
000090 df 69 b8 bd 88 e8 14 3e a1 7b 8f bd cf 4e 83 bc
       -0.09004568 0.14541829 -0.07006002 -0.01602879
0000a0 73 88 b9 bc ea c0 a9 3d c1 f0 1a 3e 05 7d 17 3e
       -0.022648072 0.082887486 0.15130903 0.14793785
0000b0 98 a3 44 bc 40 4b ca bd 0b ab 14 be d2 3c fa bd
       -0.012001894 -0.09877634 -0.14518373 -0.12218632
0000c0 c6 3b af bd cc a3 3b bd 1a 9e 14 bc 7d a9 ae bc
       -0.08556323 -0.045810506 -0.0090708975 -0.021321053
0000d0 72 9d b0 bd 25 30 7a bc c4 eb 3f bd f3 5d 3a 3b
       -0.0862378 -0.015270268 -0.046855703 0.0028437346
0000e0 33 9e 2a be c7 76 c0 3d 05 20 a8 3d 77 53 3f 3e
       -0.1666191 0.09397655 0.08209232 0.18684183
0000f0 9e 91 b3 bd d0 7e 85 bd be 8e f1 3d 0d 82 42 bd
       -0.08768009 -0.06518328 0.11794804 -0.047487307
000100 69 2f 02 3e 47 df 10 3e 1f 72 36 3e 25 b0 2e 3e
       0.12713398 0.14147674 0.17816971 0.17059381
000110 1f 3e fb 3d d7 dc 2f 3e ca 06 85 bd 01 f1 88 bd
       0.12267708 0.17174087 -0.064954355 -0.06686593
000120 94 5b 07 bc 86 42 c1 3d 5e d5 9c bd 44 fb 80 bd
       -0.00826158 0.094365165 -0.07657884 -0.06297925
000130 96 0e 4a bd 48 24 bb 3d a2 93 27 be 6b 95 d5 3d
       -0.049330316 0.091377795 -0.16364911 0.1042889
000140 61 ac cb 3d 39 1f 3d 3e b1 de ad 3d c0 1a 12 3d
       0.09944988 0.18468942 0.08489741 0.035670042
000150 a5 b9 97 3d 98 3a 07 bd 25 ef 52 3d 54 3b 7b bd
       0.07408456 -0.033014864 0.051497597 -0.061335877
000160 54 ac 88 bd a7 6f 3b 3e 52 f4 91 3c e1 b9 3c bd
       -0.06673494 0.1830431 0.017816696 -0.046075705
000170 ba 08 b4 bc 7e 31 19 3e b9 13 3a 3e 54 a6 10 bd
       -0.021976817 0.14960286 0.18171586 -0.035314873
000180 7d 2e c0 3d 3d 24 ac bc 08 c5 0d be e9 b9 49 bc
       0.09383867 -0.021013374 -0.13844693 -0.012312391
000190 d8 51 32 3e ae 9e 31 3e 68 ac b3 3d 78 6e 96 bd
       0.17414033 0.17345688 0.08773118 -0.07345289
0001a0 2a 88 10 3e ee 78 a2 3c 2d 48 29 3e 30 03 28 3e
       0.14114442 0.019833054 0.16531439 0.16407466
0001b0 2a 3c b9 3d 35 f7 31 bd 70 b3 c2 3d f9 4a 9b bc
       0.090446785 -0.043448646 0.09506881 -0.018956648
0001c0 04 65 a6 bc 96 db a9 bc 20 0b 9e bc 9d 92 8e bd
       -0.02031184 -0.02073459 -0.019292414 -0.06961558
0001d0 65 80 a3 bb 4f f6 d8 3d bf 68 2f bc 26 45 35 bc
       -0.004989671 0.10593855 -0.010706126 -0.01106385
0001e0 10 ea a8 3d c3 bc 1e 3e 8e 1c 0c 3e bb e3 2f 3e
       0.08247769 0.15501694 0.13682768 0.17176716
0001f0 45 5e 23 3e 29 7e 0d 3e 63 b1 1e bd d9 e6 e4 3d
       0.1595393 0.13817658 -0.038743388 0.11176843
