PPO/ppo_actor.pth (torch, 28583 bytes, 6 tensors)

layer1.weight f4 [64, 29]
-0.096462764 -0.054394033 0.013555458 -0.06695428 0.011756118 -0.10997726 -0.0735046 0.14295688
-0.08355801 -0.16483344 0.13058618 0.07756689 0.11270001 -0.052842975 -0.036777474 0.07425524
0.13898349 -0.12366354 0.114623934 -0.17821774 -0.07707087 0.105380215 0.050047323 -0.02094948
-0.11337273 0.120435886 -0.039129674 -0.07691586 0.011849651 -0.03537894 0.054973584 0.076412946
-0.08651012 -0.015049265 0.071759775 0.09020637 -0.07798561 -0.1342415 0.09102035 -0.1667149
-0.02944016 -0.05302402 -0.1234313 -0.15072884 -0.05539247 -0.010929578 -0.015251848 0.08499756
-0.1331721 -0.11513635 -0.030722715 -0.15819336 0.019844659 0.15198365 0.09872497 -0.025201268
0.10271837 -0.14353174 -0.053204395 -0.1343731 -0.15909708 -0.040397268 -0.07416297 -0.1294189
-0.029858425 0.21977395 -0.032242637 -0.19059435 0.083852656 0.05947617 0.13868654 0.023744406
-0.19756183 -0.1547157 -0.083889045 0.04335785 0.04034159 -0.12954946 -0.15511249 0.025139473
0.12591176 0.14803556 0.12879413 0.19848624 0.07601003 0.10649108 -0.11949351 -0.1273896
-0.16876596 -0.074864276 -0.1877099 0.14195104 -0.0012091605 0.10354964 -0.04250641 0.03613007
-0.16140829 0.15969864 -0.005853314 0.008100576 0.16669703 -0.18935484 -0.034523625 0.07269301
-0.04266054 -0.028162772 0.16077256 -0.10375313 -0.11064773 -0.023133548 -0.12109788 0.099709846
0.027034706 -0.07846668 -0.04550047 0.027862743 -0.013346924 0.00021467547 -0.1812463 -0.0679855
0.113895826 -0.08732505 -0.14363569 -0.10677792 0.039603382 -0.012171445 0.07263954 0.011000176
-0.028743597 -0.15629214 -0.12835287 -0.035383694 -0.05372765 -0.08821202 -0.15088744 -0.054037414
-0.061898105 0.16400601 0.14341864 0.07340752 0.079146765 -0.10102681 -0.06136529 -0.016360236
-0.04115579 0.15037496 0.0058999825 0.0590728 0.13702913 -0.26570246 0.14996254 -0.11440716
0.02117472 0.022848407 -0.113847435 0.0028434484 0.20508648 0.009797609 0.024358707 -0.12916379
0.19381608 0.045427557 -0.17807731 -0.02036551 -0.018258603 -0.014180941 0.011145687 -0.026111359
0.0773284 0.09143303 -0.07414236 -0.15798922 0.2154857 -0.18900497 -0.09174259 0.10446302
-0.20792615 0.009569422 -0.17528881 -0.20073523 0.052785285 -0.09165213 -0.15670127 0.17439073
0.112471625 0.0055369036 -0.007595657 -0.18327716 -0.186145 0.14236371 -0.18913966 -0.10985644
-0.13739014 0.080313824 -0.06755359 0.100817226 -0.0041315835 0.06869173 -0.126491 0.10116755
0.060737386 0.0284082 -0.030207155 0.07027412 0.13387355 -0.055752788 0.00070145656 -0.042970337
0.13379698 -0.038287114 -0.19632162 0.13454528 -0.06186737 0.10225668 0.05750824 0.16680412
0.16123721 -0.092068456 0.042918917 -0.13967934 -0.014447788 0.035477623 -0.18109469 -0.0058740103
-0.07122555 0.044629466 -0.054731302 0.04267545 -0.06732342 -0.08586882 0.12837969 0.185652
-0.02357869 0.15028398 0.03410114 -0.0883887 -0.09789825 0.15468442 -0.08599104 0.20968176
-0.049188074 0.11721691 -0.09989401 -0.07979677 -0.0110799335 0.12116699 0.10177117 -0.13631675
-0.16752265 0.065826215 0.009244196 -0.0873274 -0.0040804315 0.179458 0.10677186 0.08091069
00000000: 458e c5bd 47cc 5ebd b617 5e3c 531f 89bd
00000010: bc9c 403c c23b e1bd 9489 96bd 4a63 123e
00000020: 7620 abbd 19ca 28be 62b8 053e 64db 9e3d
00000030: 43cf e63d e071 58bd faa3 16bd 2213 983d
00000040: b051 0e3e 4f43 fdbd f4bf ea3d b67e 36be
00000050: 55d7 9dbd 95d1 d73d 6cfe 4c3d 3e9e abbc
00000060: f62f e8bd 17a7 f63d 7046 20bd 1086 9dbd
00000070: 0a25 423c 82e9 10bd fb2b 613d 647e 9c3d
00000080: 382c b1bd 3191 76bc caf6 923d 1ebe b83d
00000090: ebb6 9fbd 9b76 09be e168 ba3d 50b7 2abe
000000a0: 7e2c f1bc b72f 59bd 8dc9 fcbd a958 1abe
000000b0: 37e3 62bd f911 33bc e3e2 79bc 3313 ae3d
000000c0: 445e 08be 9bcc ebbd 34ae fbbc 71fd 21be
000000d0: 4491 a23c 9aa1 1b3e 5130 ca3d e472 cebc
000000e0: 025e d23d fcf9 12be daec 59bd 1a99 09be
000000f0: 58ea 22be 9b77 25bd c1e2 97bd 6386 04be
00000100: a899 f4bc 6c0c 613e db10 04bd 2a2b 43be
00000110: f1ba ab3d 499d 733d d803 0e3e a183 c23c
00000120: a64d 4abe cb6d 1ebe 05ce abbd 0098 313d
00000130: 393d 253d 9da8 04be cfd5 1ebe 4cf1 cd3c
00000140: 03ef 003e a296 173e 9ce2 033e fa3f 4b3e
00000150: 26ab 9b3d ff17 da3d 03b9 f4bd 6b72 02be
00000160: fcd0 2cbe 7152 99bd 0637 40be 9d5b 113e
00000170: b27c 9eba d511 d43d 341b 2ebd 20fd 133d
00000180: 3748 25be 0a88 233e 28cd bfbb 47b8 043c
00000190: a0b2 2a3e 3ce6 41be a568 0dbd 13e0 943d
000001a0: d2bc 2ebd 9db5 e6bc 90a1 243e 857c d4bd
000001b0: 479b e2bd 9182 bdbc 2a02 f8bd ad34 cc3d
000001c0: e377 dd3c 24b3 a0bd b35e 3abd 6840 e43c
000001d0: 0fad 5abc 821a 6139 a198 39be fb3b 8bbd
000001e0: 3742 e93d 7ad7 b2bd 3c15 13be 62ae dabd
000001f0: 2837 223d be6a 47bc 0ac4 943d 153a 343c
00000200: b177 ebbc 0c0b 20be ef6e 03be 7eee 10bd
00000210: 8611 5cbd 81a8 b4bd 3d82 1abe 5656 5dbd
00000220: de88 7dbd 31f1 273e 56dc 123e af56 963d
00000230: b317 a23d 25e7 cebd 2c5a 7bbd e705 86bc
00000240: f992 28bd e5fb 193e a454 c13b 52f6 713d
00000250: 5d51 0c3e 270a 88be c88f 193e 4d4e eabd
00000260: 9b76 ad3c 952c bb3c d828 e9bd 2659 3a3b
00000270: 3102 523e 2786 203c e98b c73c 8343 04be
00000280: b977 463e 3f12 3a3d e659 36be 92d5 a6bc
00000290: 1193 95bc 2d57 68bc 669c 363c 7de7 d5bc
000002a0: 5a5e 9e3d 3e41 bb3d f3d7 97bd edc7 21be
000002b0: 49a8 5c3e 858a 41be 8ae3 bbbd b5f0 d53d
000002c0: 98ea 54be 11c9 1c3c e97e 33be 898d 4dbe
000002d0: 6235 583d 1db4 bbbd 4c76 20be 7c93 323e
000002e0: 8657 e63d ea6e b53b fde4 f8bb 02ad 3bbe
000002f0: cb9c 3ebe cbc7 113e d4ad 41be 6afc e0bd
00000300: 00b0 0cbe 937b a43d 8959 8abd 4379 ce3d
00000310: 3c62 87bb 40ae 8c3d db86 01be ef30 cf3d
00000320: c4c7 783d 50b8 e83c ff74 f7bc e1eb 8f3d
00000330: 2616 093e 095d 64bd f4e1 373a aa01 30bd
00000340: 1302 093e f3d2 1cbd 8908 49be 3dc6 093e
00000350: a468 7dbd f36b d13d c38d 6b3d b3ce 2a3e
00000360: 5e1b 253e 638e bcbd bfcb 2f3d 1a08 0fbe
00000370: 6ab6 6cbc fc50 113d e370 39be c57a c0bb
00000380: b3de 91bd 63cd 363d ee2d 60bd 74cc 2e3d
00000390: dce0 89bd fedb afbd f775 033e 8f1b 3e3e
000003a0: 1928 c1bc 0be4 193e a3ad 0b3d 2205 b5bd
000003b0: e17e c8bd 9865 1e3e 121c b0bd d1b6 563e
000003c0: 6f79 49bd 6b0f f03d 3b95 ccbd 7d6c a3bd
000003d0: 9c88 35bc 6626 f83d 676d d03d 9e96 0bbe
000003e0: 0f8b 2bbe e5cf 863d f874 173c b5d8 b2bd
000003f0: 24b5 85bb d7c3 373e 34ab da3d 81b4 a53d

layer1.bias f4 [64]
-0.04631191 0.14039409 -0.13717796 0.015976587 -0.0137232235 -0.029289877 -0.06197225 -0.17421289
0.118019834 0.012052354 0.017533915 0.08253208 -0.13626501 0.032613218 0.18438074 -0.10494905
0.08801053 0.04646205 0.012317122 -0.09510712 0.144989 -0.03722329 -0.018997092 -0.19096638
-0.14789996 -0.034847293 0.04285243 0.10597635 0.10014363 0.10978397 0.14562686 0.14470306
-0.04373243 0.19442959 0.12080777 -0.08022527 -0.1185344 0.0070674447 -0.17325659 0.14189383
-0.06927425 0.10163693 0.12382743 -0.12800452 0.009047651 -0.16120973 0.17167222 0.081806295
0.09719554 -0.20214541 0.106853575 -0.18619074 0.17804796 -0.047768917 -0.11212652 -0.07189563
0.08243215 0.11816995 0.042739112 0.14675045 -0.036532477 -0.012340012 -0.11966434 0.052106395
00000000: 8fb1 3dbd 78c3 0f3e 6178 0cbe 55e1 823c
00000010: 5fd7 60bc 53f1 efbc 9dd6 7dbd dd64 32be
00000020: 62b4 f13d 3d77 453c 49a3 8f3c 9406 a93d
00000030: 0e89 0bbe 7095 053d 4ece 3c3e 87ef d6bd
00000040: dd3e b43d fe4e 3e3d c1cd 493c 86c7 c2bd
00000050: ff77 143e 7377 18bd ca9f 9bbc b18c 43be
00000060: 1673 17be 09bc 0ebd 0886 2f3d 210a d93d
00000070: 1a18 cd3d 6bd6 e03d 351f 153e 0a2d 143e
00000080: c720 33bd 8d18 473e 106a f73d 254d a4bd
00000090: 2ac2 f2bd 0696 e73b 2d6a 31be 9e4c 113e
000000a0: a8df 8dbd 0627 d03d 3c99 fd3d 9e13 03be
000000b0: 993c 143c 2a14 25be d8ca 2f3e 0f8a a73d
000000c0: 750e c73d 35ff 4ebe 0cd6 da3d c9a8 3ebe
000000d0: 3452 363e 57a9 43bd 97a2 e5bd 043e 93bd
000000e0: 30d2 a83d 1603 f23d 350f 2f3d c045 163e
000000f0: 14a3 15bd c32d 4abc 9412 f5bd 846d 553d

layer2.weight f4 [64, 64]
-0.090741396 0.10002469 -0.14073987 -0.048305154 0.105024636 -0.017782578 0.036892764 0.120370254
-0.039003626 0.008398421 0.03289212 -0.0344085 -0.039267942 0.0139791155 -0.088479586 -0.059919026
-0.05894619 0.08069613 -0.078502834 0.05473001 0.106838875 0.007224974 -0.082911916 -0.12021832
0.10280594 0.0626809 0.11733719 -0.063167326 -0.02904078 -0.001967729 0.094878525 -0.024224648
0.1022733 -0.062110323 0.11674152 -0.10976651 0.031824213 0.0941651 -0.093269855 0.031669572
-0.055782728 0.063326284 -0.017590893 0.11893294 -0.039716568 -0.053284157 -0.05684224 -0.0669871
0.07405072 -0.105054535 0.009452693 0.0956982 0.09848818 -0.101153806 -0.09287617 0.08216166
0.099813424 0.09657893 -0.0042271893 -0.09617534 -0.08564788 0.043538883 0.11815842 -0.05692334
-0.053885553 0.11802237 -0.104549564 0.08098427 0.10016416 0.022108372 -0.016251465 -0.02675803
-0.0264874 -0.043916397 0.040587533 -0.12732416 -0.13163367 -0.047502767 0.08174108 -0.014240159
0.13269867 0.01571548 -0.035777826 0.11211929 -0.03729573 0.045074325 -0.054877724 0.086707324
0.017560482 -0.035976045 0.09494189 -0.12443887 0.023971178 0.057679493 0.0943787 -0.04195025
0.064750195 -0.04621434 -0.03440183 0.0020100812 -0.0007178759 -0.09080741 -0.013537724 -0.1413591
0.052028526 0.00241563 0.09074377 -0.07496798 0.0029505226 -0.10444082 0.103844956 -0.05115386
-0.02135033 0.02234537 -0.054900255 -0.11552958 -0.04372645 0.0313342 -0.048021104 0.10710134
0.086980626 -0.09069668 -0.030583855 -0.045068976 -0.01951062 0.036599386 0.13129003 0.06334337
-0.10226121 -0.041911952 -0.108192824 -0.08057581 0.042971052 -0.018383658 0.04076079 0.11954099
-0.08713826 -0.09502695 0.06291995 -0.008392805 0.13154605 0.08227939 0.12871057 0.060486846
-0.0816072 -0.06837271 0.109815024 0.10174161 0.032333348 -0.04240975 0.08661377 -0.04417392
-0.0035490028 -0.011536862 -0.06557871 0.054129552 0.074156955 0.04634846 -0.07364839 -0.0361098
-0.08857533 -0.14715968 0.03210018 0.040468805 -0.11785629 0.013611942 0.083547994 0.03605735
-0.086734675 -0.0906967 0.100339666 0.09090051 0.05306448 0.040006757 -0.08989832 0.095772736
-0.111540996 -0.047068022 0.109326966 -0.06730994 -0.1142674 -0.12729143 0.09882769 0.111307465
0.034804963 0.019612392 0.03775157 -0.017146245 -0.13604382 -0.06730487 0.038830366 0.09396777
0.02105201 -0.0070811016 0.0068263267 -0.05209016 -0.07454496 -0.08931385 0.04358414 0.0149287535
-0.1447701 0.07909777 -0.10861 0.0073164687 -0.0032880374 0.0025255508 0.090906076 -0.091054566
0.08195489 0.08409985 -0.022337144 0.05083284 -0.101976365 0.06700077 0.098688915 -0.03547665
-0.096611194 -0.015086086 -0.06419189 0.063719966 -0.042424344 0.10195304 -0.0045204363 -0.082151175
-0.12198716 0.025602465 0.10387605 -0.04231194 0.036368433 -0.11011136 0.0926736 0.02378432
-0.14042003 -0.060265247 -0.011102327 -0.02322476 0.0057030832 0.029119773 0.045518357 -0.12626673
0.10343152 0.060628712 -0.035367038 -0.03174013 0.03496822 0.103087634 -0.121291794 0.056542426
0.06218865 -0.043276127 0.042355154 0.022179134 -0.10982417 0.05732568 -0.01169497 0.006857841
00000000: a0d6 b9bd bfd9 cc3d 1d1e 10be a0db 45bd
00000010: 2817 d73d c5ac 91bc de1c 173d ae84 f63d
00000020: 44c2 1fbd 8899 093c e3b9 063d edef 0cbd
00000030: 6cd7 20bd a908 653c c934 b5bd a76d 75bd
00000040: 8f71 71bd 0344 a53d 18c6 a0bd 932c 603d
00000050: 57ce da3d 7abf ec3b b9cd a9bd 0635 f6bd
00000060: ec8b d23d d85e 803d 7b4e f03d df5d 81bd
00000070: eee6 edbc 04f5 00bb ac4f c23d c572 c6bc
00000080: aa74 d13d 6567 7ebd 2e16 ef3d 44cd e0bd
00000090: 1b5a 023d a2d9 c03d 4404 bfbd f4b7 013d
000000a0: 6e7c 64bd 36b1 813d c71a 90bc 1d93 f33d
000000b0: d7ad 22bd 7d40 5abd 69d3 68bd 8830 89bd
000000c0: e7a7 973d d526 d7bd 78df 1a3c 6bfd c33d
000000d0: 2cb4 c93d ba29 cfbd dd35 bebd 5f44 a83d
000000e0: fb6a cc3d 2dcb c53d 3c84 8abb 94f7 c4bd
000000f0: 2868 afbd d455 323d 0bfd f13d 7328 69bd
00000100: 19b7 5cbd b6b5 f13d 151e d6bd 15db a53d
00000110: de22 cd3d 9e1c b53c cb21 85bc a833 dbbc
00000120: 1bfc d8bc aee1 33bd 1d3f 263d 4461 02be
00000130: faca 06be 4392 42bd de67 a73d 8e4f 69bc
00000140: 29e2 073e c0bd 803c c58b 12bd cc9e e53d
00000150: 68c3 18bd db9f 383d 77c7 60bd 9c93 b13d
00000160: 00db 8f3c 9e5b 13bd e570 c23d ced9 febd
00000170: 345f c43c 5541 6c3d 9f49 c13d 06d4 2bbd
00000180: c09b 843d 3f4b 3dbd efe8 0cbd 91bb 033b
00000190: d62f 3cba 3cf9 b9bd 54cd 5dbc 71c0 10be
000001a0: dd1b 553d 8c4f 1e3b dfd7 b93d d088 99bd
000001b0: 8e5d 413b 12e5 d5bd aaac d43d b686 51bd
000001c0: e3e6 aebc a30d b73c 17df 60bd c69a ecbd
000001d0: 821a 33bd 4a58 003d c7b1 44bd f357 db3d
000001e0: e622 b23d 2ebf b9bd fe8a fabc 3f9a 38bd
000001f0: bcd4 9fbc 3de9 153d e570 063e 2bba 813d
00000200: 536e d1bd deab 2bbd 3394 ddbd ee04 a5bd
00000210: 6a02 303d 5399 96bc c9f4 263d e8d1 f43d
00000220: 8b75 b2bd 7d9d c2bd 2ddc 803d fa81 09bc
00000230: 02b4 063e 1982 a83d b4cc 033e 0ec1 773d
00000240: ad21 a7bd fe06 8cbd b3e6 e03d e85d d03d
00000250: f96f 043d d9b5 2dbd 8f62 b13d b6ef 34bd
00000260: 6396 68bb 1b05 3dbc 214e 86bd f3b6 5d3d
00000270: 9adf 973d e2d7 3d3d f8d4 96bd dfe7 13bd
00000280: fc66 b5bd 07b1 16be 7a7b 033d 9ec2 253d
00000290: a35e f1bd 9f04 5f3c 361b ab3d dfb0 133d
000002a0: f3a1 b1bd 31bf b9bd e27e cd3d 0c2a ba3d
000002b0: 245a 593d 20de 233d 9c1c b8bd 7f24 c43d
000002c0: 9b6f e4bd 66ca 40bd d1e6 df3d cbd9 89bd
000002d0: 0705 eabd af58 02be 2c66 ca3d 2bf5 e33d
000002e0: a68f 0e3d 2baa a03c 64a1 1a3d 4876 8cbc
000002f0: 124f 0bbe 23d7 89bd 970c 1f3d 2d72 c03d
00000300: 4475 ac3c 9608 e8bb 61af df3b 7e5c 55bd
00000310: 07ab 98bd 2eea b6bd 4885 323d bb97 743c
00000320: 9d3e 14be 03fe a13d eb6e debd fdbe ef3b
00000330: 1d7c 57bb b683 253b f72c ba3d d17a babd
00000340: f7d7 a73d 8b3c ac3d 63fc b6bc 1936 503d
00000350: fcd8 d0bd b337 893d 6a1d ca3d f74f 11bd
00000360: 17dc c5bd a12b 77bc 0a77 83bd 9d7f 823d
00000370: 26c5 2dbd c1cc d03d 2b20 94bb e03e a8bd
00000380: 67d4 f9bd 43bc d13c f7bc d43d 494f 2dbd
00000390: 11f7 143d 1182 e1bd a8cb bd3d 56d7 c23c
000003a0: 45ca 0fbe b1d8 76bd 89e6 35bc da41 bebc
000003b0: eee0 ba3b 978c ee3c 7571 3a3d 114c 01be
000003c0: e8d3 d33d d055 783d 07dd 10bd f001 02bd
000003d0: d63a 0f3d 9c1f d33d d567 f8bd 0899 673d
000003e0: 87b9 7e3d 4f42 31bd 997c 2d3d 04b1 b53c
000003f0: 7feb e0bd 55ce 6a3d 429c 3fbc bdb7 e03b

layer2.bias f4 [64]
-0.07189256 0.084299564 -0.021762934 0.08650366 0.08115585 -0.048092186 -0.019801091 -0.12304384
-0.065235905 -0.026224503 -0.073757775 -0.053834293 0.084359385 -0.0802482 0.06390427 -0.0608371
-0.01936793 -0.07527468 -0.08053632 0.01459204 0.055991728 -0.12492286 -0.0034046131 -0.013745975
-0.13230847 0.070671074 0.07706056 -0.044354722 -0.0016129316 -0.044805128 -0.15295164 0.04454879
0.0825392 0.023159813 -0.04916319 -0.023645887 -0.09483782 -0.069052234 -0.0144716 -0.10895159
0.06584055 -0.07143016 -0.09045928 0.030742666 -0.05597206 0.04351036 -0.057375528 0.09821313
-0.06020257 0.039672937 0.061720036 -0.056712523 -0.06912586 -0.12604466 0.066671535 0.10792539
-0.02721528 -0.043255888 0.08577428 0.025770247 -0.09362736 -0.022747736 -0.11913984 -0.08044401
00000000: 683c 93bd 40a5 ac3d 2e48 b2bc d528 b13d
00000010: 0a35 a63d 50fc 44bd e635 a2bc 69fe fbbd
00000020: 679a 85bd c5d4 d6bc 510e 97bd 5981 5cbd
00000030: 9dc4 ac3d 2b59 a4bd 3ee0 823d 5330 79bd
00000040: 7ea9 9ebc 9d29 9abd 3af0 a4bd 7413 6f3c
00000050: 9557 653d 8ed7 ffbd ee1f 5fbb cc36 61bc
00000060: df7b 07be ffbb 903d edd1 9d3d 4cad 35bd
00000070: 0169 d3ba 9585 37bd 5b9f 1cbe cb78 363d
00000080: 500a a93d a6b9 bd3c 575f 49bd 05b5 c1bc
00000090: 553a c2bd 426b 8dbd 4a1a 6dbc 0322 dfbd
000000a0: 69d7 863d fa49 92bd b742 b9bd 0bd8 fb3c
000000b0: f542 65bd eb37 323d 9a02 6bbd f723 c93d
000000c0: f896 76bd 1780 223d 26ce 7c3d 644b 68bd
000000d0: dc91 8dbd da11 01be 168b 883d fd07 dd3d
000000e0: 94f2 debc 162d 31bd 6daa af3d 201c d33c
000000f0: b4bf bfbd 7659 babc 97ff f3bd d4bf a4bd

layer3.weight f4 [8, 64]
0.06547655 0.05647472 -0.084556036 -0.012606627 -0.100371845 -0.02744983 -0.020824766 0.001556322
-0.035035335 -0.081079334 -0.018736474 0.018863717 0.07721393 0.032016903 0.10883985 -0.1337743
-0.03257921 0.096465096 0.042169243 -0.039416503 -0.043016635 -0.07090995 -0.1353801 0.09769415
0.036946144 0.049864247 0.04337434 -0.041852318 -0.08301699 -0.010446776 -0.07327565 0.11087104
-0.11247441 0.11438845 -0.04688598 0.034443088 0.115770966 0.014151872 -0.08028255 0.0008536152
0.056553006 -0.003833309 0.07102859 -0.08273354 0.094351016 0.12731262 -0.038556654 -0.12268401
0.060612008 -0.060690053 0.017830353 -0.11030664 0.08581033 0.05077686 0.043015618 0.029379647
-0.055003557 0.004165123 0.02795877 -0.050573844 0.003922619 -0.056640264 0.09820862 -0.03309731
-0.0035040912 0.1058749 0.066424266 -0.07723827 0.08983204 -0.10043836 0.014482123 0.10139584
0.13329355 0.04401907 0.037703186 -0.048226457 0.04469667 -0.0890103 -0.0145280305 0.0707418
-0.037834607 -0.0013458946 0.09960133 -0.004911295 0.034124576 0.08468751 0.10946652 -0.07589592
-0.0052887974 0.042951092 -0.13805267 -0.13881858 0.06415545 0.09913453 -0.05606955 0.016669026
-0.1315626 0.07775708 -0.11511027 -0.10251925 0.0041675535 0.10411468 -0.023630284 0.06232274
0.06395682 0.09001169 0.12313106 0.011849272 -0.10546965 0.023592077 -0.08157652 0.096185625
0.09186723 -0.10702074 0.07880423 -0.094132006 -0.08796784 -0.004922278 0.08372009 0.099189505
0.04999912 -0.026299927 -0.029074999 0.041555766 -0.0789225 0.030705826 -0.083732724 0.049539436
0.041611824 -0.045145854 0.0519916 0.10175134 -0.0041211704 -0.022884028 0.018396307 -0.03814964
-0.030770877 -0.098028764 0.010277048 0.08643865 -0.031137519 0.115501516 0.089607 -0.033229697
0.10987336 0.034885757 -0.05198626 0.09086079 -0.0012144914 -0.07951636 -0.093313955 -0.016648814
0.0051929457 0.01738067 -0.054960717 -0.01399073 0.062643036 0.028238742 -0.055242456 -0.07885342
-0.034527663 0.03846332 0.005186096 0.02709207 -0.024930516 -0.103498355 0.056446884 0.017031731
0.016785463 -0.019124052 -0.040874418 -0.108897604 0.008984338 0.047159515 0.0272784 -0.0676397
-0.13196397 -0.102260895 -0.018997706 -0.031153327 0.10867595 0.017937372 -0.059978954 0.09861626
0.018134337 -0.120368645 -0.028231727 0.13428512 -0.08797272 -0.06886186 0.05770469 0.041709717
0.100761585 0.008438859 -0.0264499 -0.09498682 -0.032771528 0.10423476 0.039809003 -0.091441974
0.0010746609 0.11741361 0.029884545 0.018948454 0.01438443 0.049552273 0.016183414 -0.020990938
-0.023036774 0.03056235 0.059841163 0.015979266 -0.036181245 -0.11828141 0.018532552 0.0375552
0.1165993 -0.039374486 -0.03637593 0.13470195 -0.08634301 0.098308 -0.10943133 -0.083373256
0.009045631 -0.01667247 -0.06773713 0.07167926 -0.058433123 0.11482919 -0.07297195 0.021312166
0.04673967 -0.012265353 -0.101014145 0.07791356 0.032777634 0.07009653 -0.014958342 0.07687882
-0.078228146 -0.006866544 -0.044143386 0.057265006 -0.048954032 0.10768668 -0.11103634 -0.09459099
0.11712871 -0.0678375 0.13816336 0.01273168 -0.093823195 -0.033783033 0.085194334 -0.08237165
00000000: 9218 863d 0952 673d b72b adbd 078c 4ebc
00000010: c18f cdbd 77de e0bc b398 aabc 80fd cb3a
00000020: 3681 0fbd ec0c a6bd 3c7d 99bc 1588 9a3c
00000030: 5622 9e3d 2824 033d 6de7 de3d 21fc 08be
00000040: c771 05bd 7e8f c53d a8b9 2c3d 3373 21bd
00000050: 3632 30bd 3c39 91bd 15a1 0abe df13 c83d
00000060: d754 173d 743e 4c3d 4ba9 313d 566d 2bbd
00000070: d004 aabd f428 2bbc 8b11 96bd 5b10 e33d
00000080: fc58 e6bd 7e44 ea3d 830b 40bd 3214 0d3d
00000090: 5419 ed3d 41dd 673c 2d6b a4bd 25c5 5f3a
000000a0: 20a4 673d 4138 7bbb 7077 913d 3470 a9bd
000000b0: 1b3b c13d 3d5e 023e 95ed 1dbd c141 fbbd
000000c0: 4c44 783d 2296 78bd f610 923c 73e8 e1bd
000000d0: 54bd af3d 66fb 4f3d 2531 303d 96ad f03c
000000e0: 694b 61bd 967b 883b ca09 e53c 8526 4fbd
000000f0: 5089 803b 9fff 67bd 9a21 c93d 0c91 07bd
00000100: e5a4 65bb f1d4 d83d 7209 883d 192f 9ebd
00000110: dcf9 b73d a0b2 cdbd 6d46 6d3c 9fa8 cf3d
00000120: 1b7e 083e 574d 343d a86e 1a3d 1b89 45bd
00000130: db13 373d 084b b6bd fa06 6ebc 14e1 903d
00000140: 76f8 1abd bb68 b0ba c8fb cb3d eeee a0bb
00000150: 36c6 0b3d a570 ad3d fc2f e03d 526f 9bbd
00000160: a64d adbb 7ced 2f3d ae5d 0dbe 7526 0ebe
00000170: ef63 833d 0b07 cb3d 2fa9 65bd 7b8d 883c
00000180: 59b8 06be 1b3f 9f3d efbe ebbd 9df5 d1bd
00000190: f98f 883b 143a d53d 4c94 c1bc 2146 7f3d
000001a0: cbfb 823d 0d58 b83d 232c fc3d 7323 423c
000001b0: 7900 d8bd 2c44 c13c 9711 a7bd f8fc c43d
000001c0: e324 bc3d b12d dbbd 1d64 a13d 48c8 c0bd
000001d0: 7c28 b4bd 104b a1bb 7075 ab3d de23 cb3d
000001e0: e1cb 4c3d f272 d7bc b12e eebc 6136 2a3d
000001f0: 1fa2 a1bd c98a fb3c 107c abbd dde9 4a3d
00000200: 2971 2a3d dcea 38bd 25f5 543d 0263 d03d
00000210: e20a 87bb 4977 bbbc dab3 963c cc42 1cbd
00000220: 3513 fcbc 4ec3 c8bd 1061 283c bf06 b13d
00000230: 1c14 ffbc 0f8c ec3d e083 b73d dd1b 08bd
00000240: 4905 e13d 5ee4 0e3d 8bef 54bd 3915 ba3d
00000250: 922f 9fba 79d9 a2bd 631b bfbd 1863 88bc
00000260: 9629 aa3b e861 8e3c 7d1e 61bd 6039 65bc
00000270: fe4a 803d ef54 e73c ea45 62bd e77d a1bd
00000280: e16c 0dbd b78b 1d3d 20f0 a93b 30f0 dd3c
00000290: 153b ccbc f2f6 d3bd d934 673d 2186 8b3c
000002a0: ab81 893c 0baa 9cbc ef6b 27bd b505 dfbd
000002b0: 0b33 133c 562a 413d f376 df3c af86 8abd
000002c0: 9021 07be 296e d1bd 14a1 9bbc 4335 ffbc
000002d0: 7f91 de3d 65f1 923c 7eac 75bd 52f7 c93d
000002e0: 768e 943c d683 f6bd 3946 e7bc 0a82 093e
000002f0: 0b2b b4bd 7207 8dbd c15b 6c3d cfd7 2a3d
00000300: 175c ce3d 2443 0a3c 76ad d8bc 7388 c2bd
00000310: 703b 06bd 0979 d53d c40e 233d ee45 bbbd
00000320: a3db 8c3a 8c76 f03d 6fd0 f43c ca39 9b3c
00000330: acac 6b3c 53f7 4a3d 1493 843c 30f5 abbc
00000340: 9eb7 bcbc e55d fa3c 021c 753d f3e6 823c
00000350: c932 14bd 863d f2bd 94d1 973c 7bd3 193d
00000360: 9dcb ee3d 2447 21bd edfe 14bd 4fef 093e
00000370: 9bd4 b0bd b455 c93d 881d e0bd 99bf aabd
00000380: 2034 143c b494 88bc c4b9 8abd 93cc 923d
00000390: 9257 6fbd 912b eb3d 5172 95bd da96 ae3c
000003a0: 1972 3f3d 9ff4 48bc 81e0 cebd 2591 9f3d
000003b0: d741 063d c58e 8f3d d513 75bc a572 9d3d
000003c0: 1436 a0bd bf00 e1bb b2cf 34bd b68e 6a3d
000003d0: 0684 48bd d68a dc3d 0567 e3bd ecb8 c1bd
000003e0: 2de1 ef3d 63ee 8abd b27a 0d3e 8998 503c
000003f0: 6026 c0bd 1460 0abd 5e7a ae3d 78b2 a8bd

layer3.bias f4 [8]
0.016883194 0.008419044 -0.11418336 -0.08058062 0.037522715 -0.015994066 -0.07737324 0.07341565
00000000: a04e 8a3c 08f0 093c f7d8 e9bd 7407 a5bd
00000010: 6bb1 193d fd05 83bc dc75 9ebd f25a 963d
