PPO/ppo_actor.pth (torch, 549599 bytes, 10 tensors)

layer1.weight f4 [128, 29]
0.24176568 0.1524378 -0.16198544 -0.13731147 0.033367444 0.16502953 -0.0875458 -0.025279252
-0.18184043 -0.246891 0.039295845 -0.0659013 0.062722124 -0.22231549 -0.08354032 0.06226774
-0.061901405 -0.0036116329 -0.020504067 0.20491374 0.16275321 -0.120594904 0.01399319 0.004749274
0.16673923 -0.15899245 0.09344725 0.16912138 0.091520995 -0.079573385 0.124382615 0.15972623
-0.04301074 0.12018404 0.22594136 0.18324009 0.006012055 0.058454633 0.102437235 -0.15008704
-0.16626069 -0.13507932 -0.13851072 -0.020753505 -0.082228534 -0.14445746 0.11364986 0.081254
-0.037656248 0.11262113 0.115986004 0.13879958 0.1755064 0.1493737 -0.1347944 0.09652159
-0.040814232 -0.15464568 0.11746226 -0.14381386 -0.08445026 0.02878403 0.089003436 -0.19092727
-0.20426542 0.027576216 0.027826156 -0.08386577 -0.07831517 0.16386239 -0.13832751 0.008838376
-0.12727818 -0.019204963 -0.067732565 -0.21128117 0.14084342 -0.00465588 -0.00021960946 -0.09249734
0.12535521 0.038055122 -0.061990075 0.009908427 -0.1052275 0.034424067 -0.116988316 -0.012426089
0.13055368 0.044888124 -0.0910686 -0.010058225 0.03002828 0.10941427 0.17984542 -0.19368008
0.13090599 0.011777662 -0.12951834 0.008195819 -0.0066291513 0.0414027 -0.15261923 0.0669021
0.089953564 0.0005755765 -0.020146232 -0.059559185 -0.038304005 -0.1281089 0.10468387 -0.04447048
-0.19453004 0.0204053 0.1576653 0.10618473 0.10516226 -0.073931925 0.13265915 0.0071492647
0.12467835 -0.10611599 0.12744735 0.038999204 0.09642416 -0.31679815 0.18254669 0.09156221
0.00026530007 -0.0024548122 -0.1376783 -0.13665551 0.1568893 0.19403942 0.031107835 -0.033153012
-0.18459687 -0.082523644 -0.043225784 -0.11515838 -0.154998 -0.02321248 0.0550619 0.12966448
0.06200539 0.08529291 0.113146156 0.009722114 0.20432399 -0.21068299 0.18179585 -0.13592723
-0.008794686 0.13586022 0.29321918 0.085551806 0.007857543 0.021804959 -0.15733956 0.12755719
0.04018005 0.13394275 0.0711763 -0.050009634 0.03245803 -0.14897612 -0.13520329 -0.12429194
0.11303057 0.05031724 -0.01747144 0.06416358 0.08094896 -0.15124887 0.050837744 0.13802475
0.07518105 -0.04974775 -0.039308228 -0.09555783 0.0015142084 0.313762 0.10854454 -0.2530749
-0.00731795 0.032567374 0.15519556 0.15035927 -0.061006952 0.10430535 -0.14520474 0.2248271
-0.056685008 0.06586178 -0.15796357 -0.010877845 -0.12681666 -0.0019474933 -0.15084137 0.13094985
-0.05880797 -0.009612483 -0.018610617 0.14448008 0.069202594 0.14666662 0.20872612 0.10487224
0.0017678167 0.131011 0.027714951 -0.070739254 -0.3502267 -0.06358939 0.0019226458 -0.023879811
-0.27654508 -0.048256435 -0.1318113 0.08301571 0.17396134 -0.05365066 -0.03281538 -0.112324014
-0.07837895 -0.053556725 0.035722665 -0.071754515 -0.073273145 -0.035138227 -0.11288828 -0.030255113
-0.18603703 -0.08802788 -0.034833208 -0.12763834 0.10519359 0.06349315 0.14872523 0.12033934
-0.081415065 -0.099619925 0.17212825 -0.08422063 0.17266653 0.18453424 -0.06962259 0.1154339
-0.08887927 -0.11228606 0.25502923 -0.20916855 -0.08893059 0.100094125 -0.038875926 -0.12799618
00000000: 6c91 773e a818 1c3e 83df 25be 619b 0cbe
00000010: 4dac 083d 80fd 283e 364b b3bd 6f16 cfbc
00000020: 6134 3abe ffd0 7cbe aef4 203d 43f7 86bd
00000030: 7574 803d aca6 63be 3017 abbd 750c 7f3d
00000040: 548c 7dbd 25b1 6cbb 25f8 a7bc e8d4 513e
00000050: c7a8 263e 76fa f6bd b143 653c cc9f 9b3b
00000060: b0bd 2a3e ebce 22be 4661 bf3d 282e 2d3e
00000070: 5c6f bb3d 5ff7 a2bd 50bc fe3d 468f 233e
00000080: 082c 30bd 0d23 f63d 2c5d 673e 4aa3 3b3e
00000090: c600 c53b 206e 6f3d 9dca d13d 6bb0 19be
000000a0: 3e40 2abe 3c52 0abe c1d5 0dbe 4103 aabc
000000b0: 6f67 a8bd a8ec 13be 42c1 e83d 7f68 a63d
000000c0: 703d 1abd e8a5 e63d 128a ed3d 7a21 0e3e
000000d0: f3b7 333e 6bf5 183e 8b07 0abe 1dad c53d
000000e0: d32c 27bd 705b 1ebe 0e90 f03d f143 13be
000000f0: 42f4 acbd 7ccc eb3c 6f47 b63d 7082 43be
00000100: f42a 51be 84e7 e13c aef3 e33c d1c1 abbd
00000110: b463 a0bd 8bcb 273e baa5 0dbe d6ce 103c
00000120: 3655 02be ba53 9dbc 5fb7 8abd 175a 58be
00000130: 4239 103e 5a90 98bb f746 66b9 3f6f bdbd
00000140: 1e5d 003e b0df 1b3d 4ee9 7dbd f456 223c
00000150: 8481 d7bd 4000 0d3d 9297 efbd cb96 4bbc
00000160: ddaf 053e 9cdc 373d 2d82 babd 41cb 24bc
00000170: defd f53c 9714 e03d 6629 383e 1254 46be
00000180: 380c 063e 18f7 403c 75a0 04be c247 063c
00000190: 5a39 d9bb e195 293d 3748 1cbe f803 893d
000001a0: 9339 b83d 49e2 163a b609 a5bc 55f4 73bd
000001b0: a9e4 1cbd fb2e 03be 7f64 d63d ae26 36bd
000001c0: e232 47be 0429 a73c 0373 213e 6177 d93d
000001d0: 505f d73d 9f69 97bd cdd7 073e 6144 ea3b
000001e0: 5d57 ff3d 5753 d9bd 8f81 023e a1bd 1f3d
000001f0: 087a c53d 5e33 a2be 85ed 3a3e f884 bb3d
00000200: f917 8b39 eae0 20bb 8afb 0cbe 6cef 0bbe
00000210: 97a7 203e 45b2 463e dcd5 fe3c 74cb 07bd
00000220: f606 3dbe 2802 a9bd 850d 31bd 28d8 ebbd
00000230: ccb7 1ebe 1928 bebc 9688 613d c4c6 043e
00000240: 5df9 7d3d 0dae ae3d 2cb9 e73d 8049 1f3c
00000250: 4f3a 513e 48bd 57be b128 3a3e 8230 0bbe
00000260: 9617 10bc f11e 0b3e d320 963e c935 af3d
00000270: edbc 003c 50a0 b23c 9f1d 21be 5a9e 023e
00000280: d693 243d 4a28 093e e1c4 913d e7d6 4cbd
00000290: b6f2 043d 328d 18be bb72 0abe c68c febd
000002a0: 927c e73d 7319 4e3d 4420 8fbc 3268 833d
000002b0: 91c8 a53d fce0 1abe 3d3b 503d 5c56 0d3e
000002c0: 86f8 993d 4cc4 4bbd aa01 21bd d3b3 c3bd
000002d0: 6778 c63a 6aa5 a03e 9a4c de3d 0993 81be
000002e0: 6acb efbb 5e65 053d 96eb 1e3e c8f7 193e
000002f0: 6de2 79bd 0b9e d53d 8db0 14be 1339 663e
00000300: 8a2e 68bd 8ae2 863d 34c1 21be fd38 32bc
00000310: 3adc 01be 0843 ffba 2976 1abe b817 063e
00000320: a0e0 70bd ad7d 1dbc 4b75 98bc 96f2 133e
00000330: 17ba 8d3d c62f 163e 4dbc 553e 42c7 d63d
00000340: 16b6 e73a bf27 063e 770a e33c bedf 90bd
00000350: ea50 b3be 273b 82bd 4a01 fc3a 989f c3bc
00000360: 5197 8dbe 8aa8 45bd 8bf9 06be 2404 aa3d
00000370: ec22 323e cbc0 5bbd 6b69 06bd 220a e6bd
00000380: 2585 a0bd 4c5e 5bbd ee51 123d 08f4 92bd
00000390: 3b10 96bd 1aed 0fbd f831 e7bd 92d9 f7bc
000003a0: 7e80 3ebe f647 b4bd 44ad 0ebd a0b3 02be
000003b0: bd6f d73d b208 823d 6d4b 183e 7974 f63d
000003c0: f1bc a6bd 8805 ccbd 6342 303e de7b acbd
000003d0: 7fcf 303e 8bf6 3c3e 4a96 8ebd 9c68 ec3d
000003e0: 5606 b6bd 3cf6 e5bd 3193 823e 4830 56be
000003f0: 3e21 b6bd 26fe cc3d 5d3c 1fbd 6e11 03be

layer1.bias f4 [128]
0.17203866 -0.1771637 0.15791327 -0.07618724 0.041050464 0.19118693 -0.0768341 -0.012886552
0.14542909 -0.11729726 -0.01984532 -0.061337307 -0.10704744 -0.0646029 0.16121997 -0.07973084
0.14832555 -0.059696283 0.040897068 0.10589408 0.08709564 -0.06711082 -0.06731065 0.19820246
0.114927106 0.00028307427 0.18913025 -0.09998957 -0.014838824 0.15549524 0.004919793 0.107531816
0.16459244 0.0506259 0.08116369 0.12940624 0.15276411 0.00594147 0.08741124 0.09067576
-0.11130907 0.15939116 -0.10498884 -0.055499136 -0.09122628 -0.009872846 0.024839714 0.06703551
-0.14509837 0.002588006 -0.0033008882 -0.036242243 0.012726127 -0.035570875 0.11473713 0.12011516
-0.120267816 -0.046239976 -0.14388987 -0.081557535 -0.12038836 0.012212449 -0.041479032 0.14277051
0.028239127 -0.053022098 0.07456845 -0.16165629 0.07700667 -0.0621748 -0.074078836 0.05849747
0.018058795 -0.18765466 0.060969915 -0.101962574 -0.062964305 0.024184288 -0.005544831 0.1848118
0.013143462 -0.043484535 0.15887247 -0.026201474 0.074900605 -0.0108547015 -0.08593804 -0.17300962
0.1387517 0.027696552 -0.021583742 -0.09187806 0.041836176 0.21036269 0.16183588 -0.08354853
0.19038236 -0.056599937 0.108394966 0.1149101 0.13964051 -0.14346023 -0.040648345 -0.15306227
-0.14052829 0.17199256 0.023729047 -0.015535407 0.13309513 -0.13920318 0.07283036 0.14099172
0.17953326 -0.11315354 -0.1445044 0.11906811 0.014212311 -0.062777035 -0.1280891 0.050994232
0.09354521 -0.17918815 -0.03359983 -0.0799366 -0.11401094 -0.04407395 -0.17663823 -0.18931077
00000000: e72a 303e 676a 35be 04b4 213e 0e08 9cbd
00000010: 8824 283d 82c6 433e 325b 9dbd 1e22 53bc
00000020: 5deb 143e 8c39 f0bd a792 a2bc d43c 7bbd
00000030: b03b dbbd 864e 84bd d916 253e ec49 a3bd
00000040: a7e2 173e 1784 74bd af83 273d ffde d83d
00000050: 335f b23d 6671 89bd 2bda 89bd 96f5 4a3e
00000060: e75e eb3d 9669 9439 5cab 413e 55c7 ccbd
00000070: 8a1e 73bc 253a 1f3e 3736 a13b a439 dc3d
00000080: ec8a 283e 1b5d 4f3d 2639 a63d 1283 043e
00000090: 326e 1c3e aab0 c23b aa04 b33d 36b4 b93d
000000a0: 02f6 e3bd 7037 233e 6404 d7bd 1053 63bd
000000b0: d8d4 babd b8c1 21bc a87c cb3c ea49 893d
000000c0: ab94 14be 899b 293b b753 58bb bf72 14bd
000000d0: 3f81 503c c4b2 11bd 4dfb ea3d f0fe f53d
000000e0: f94e f6bd 2166 3dbd de57 13be a307 a7bd
000000f0: 2c8e f6bd b916 483c ebe5 29bd 6f32 123e
00000100: be55 e73c b32d 59bd 58b7 983d 3a89 25be
00000110: acb5 9d3d 01ab 7ebd a5b6 97bd 0b9b 6f3d
00000120: 0af0 933c 8b28 40be 97bb 793d c1d1 d0bd
00000130: 6ef3 80bd 211e c63c 6ab1 b5bb 4e3f 3d3e
00000140: ad57 573c d71c 32bd 77af 223e 79a4 d6bc
00000150: 7d65 993d ebd7 31bc 4800 b0bd 6f29 31be
00000160: ed14 0e3e e1e3 e23c 63d0 b0bc 902a bcbd
00000170: 695c 2b3d 5169 573e 4eb8 253e 7e1b abbd
00000180: 98f3 423e 56d5 67bd 2efe dd3d fd55 eb3d
00000190: ecfd 0e3e 3de7 12be e17e 26bd 5bbc 1cbe
000001a0: a6e6 0fbe d11e 303e 6b63 c23c 3888 7ebc
000001b0: 174a 083e 478b 0ebe 1528 953d 2260 103e
000001c0: 91d7 373e 0bbd e7bd f6f8 13be fbd9 f33d
000001d0: c1da 683c 3f91 80bd ca29 03be 54df 503d
000001e0: a294 bf3d 197d 37be fa9f 09bd cdb5 a3bd
000001f0: 917e e9bd e386 34bd a7e0 34be afda 41be

layer2.weight f4 [256, 128]
-0.10311971 -0.05257333 -0.022619372 -0.11239498 0.039436594 -0.03750464 -0.0063728015 -0.066271745
0.09545483 -0.05764015 -0.099688865 -0.08305441 0.070585765 -0.059679307 -0.031142944 -0.081725895
0.07723796 -0.0048399745 0.017037278 -0.04602068 0.05975297 -0.024572868 -0.09417301 0.01145116
0.049534064 0.038794324 -0.13892284 -0.106408484 0.0027926734 0.029727355 -0.030446278 0.049893346
0.062914975 -0.092089966 0.0020696558 -0.020149035 -0.027178349 0.021554891 0.081659615 -0.06206285
0.04102376 -0.044527613 0.033099327 0.042170133 0.048380025 -0.07374225 0.047326602 -0.02785409
-0.05122898 -0.047457542 -0.019731311 -0.031652756 0.059067078 0.08601281 -4.0808292e-05 0.002242972
0.072107054 -0.01211213 -0.009155922 -0.06933599 -0.06573634 -0.03506218 0.043076426 -0.024248965
0.08613184 0.005706461 0.07593084 -0.10945703 0.020051759 -0.070498824 -0.053456362 -0.09174239
-0.0019330528 0.065871805 -0.058866598 0.06930354 -0.14222942 -0.020800281 0.07569126 0.0094969
0.07836796 -0.016141118 0.04825031 0.045269605 -0.045395643 -0.03856945 -0.02569724 0.023699136
0.09551421 0.055206858 0.041112874 0.030056579 -0.004401442 0.0029300302 0.06090112 0.021214487
-0.025580643 0.046910495 0.020339314 -0.0066827005 0.08180851 0.036679152 -0.03910072 0.0069743237
-0.0076770047 -0.006827527 0.03865874 0.041624118 -0.039132956 0.057626724 0.030211136 0.049030352
0.0073065595 -0.09051951 0.02893746 0.058319174 0.033144895 0.0583098 0.010557556 -0.0796043
-0.08021409 -0.008540655 -0.0446356 -0.051320273 -0.080175795 0.08430993 0.09018493 0.04666252
-0.043865513 0.009605036 -0.059343062 -0.032736693 -0.040373776 0.035105634 -0.0058627017 -0.052838717
-0.030546485 0.06590256 -0.0034196468 0.03295438 0.07544092 -0.06253173 -0.08080152 0.0630064
0.02797624 -0.05804399 -0.06686141 0.060510766 -0.08508973 0.022425395 0.0064185117 0.029119378
0.034383148 0.07295926 0.06708494 -0.046251055 0.091164455 0.048334382 0.050850708 0.02748006
0.02998085 0.034447554 -0.017316647 -0.007174624 0.07396208 0.018892156 0.007825034 0.010177464
-0.0034851527 -0.1337579 0.011441821 0.051717002 0.09335087 0.066707045 -0.075818345 0.08864867
0.08391576 -0.034277473 -0.028921697 -0.03569103 -0.07781429 0.010260766 0.030690879 -0.077668145
0.07221457 0.10320627 0.06987523 0.11816491 0.058366783 -0.03926652 0.033253882 -0.07171526
-0.11561595 -0.029007081 -0.029883597 0.0021452806 -0.07091949 0.07477057 -0.01682272 0.015425844
-0.10809792 -0.05306246 -0.015642637 -0.10880186 -0.087788805 0.008806042 -0.022836117 -0.013901905
0.017789045 0.053582422 0.10943803 -0.05165679 0.0073219747 -0.06910363 -0.0075147236 0.05975698
-0.078529544 -0.02103012 -0.027626527 0.077148624 0.09464437 0.059703838 -0.056476355 0.022877391
0.011913725 0.00905076 0.04054125 -0.047743753 -0.06649328 0.011297597 -0.009419262 0.07396389
-0.05587467 0.01746238 0.051923424 0.05564837 0.0618759 -0.007861078 -0.027200025 0.05325632
0.031713553 -0.06602664 -0.07737338 -0.012151346 0.009595087 -0.09821691 0.028095849 0.011058104
-0.11070012 -0.11640365 0.05888057 0.0012938726 -0.03551676 0.02233485 -0.041775282 -0.07700434
00000000: 6d30 d3bd 2257 57bd 434c b9bc 572f e6bd
00000010: 4488 213d 779e 19bd efd2 d0bb 7bb9 87bd
00000020: d27d c33d 1418 6cbd ad29 ccbd 6e18 aabd
00000030: 458f 903d 4a72 74bd 7d1f ffbc e85f a7bd
00000040: f02e 9e3d a698 9ebb c391 8b3c 2e80 3cbd
00000050: 88bf 743d 0a4d c9bc c7dd c0bd a59d 3b3c
00000060: 3be4 4a3d cce6 1e3d ca41 0ebe b1ec d9bd
00000070: 4905 373b c886 f33c 796a f9bc f75c 4c3d
00000080: 91d9 803d aa99 bcbd 10a3 073b 970f a5bc
00000090: 21a5 debc e293 b03c 283d a73d 9d35 7ebd
000000a0: 8808 283d 9662 36bd 2993 073d 97ba 2c3d
000000b0: 222a 463d 2d06 97bd 8ad9 413d 432e e4bc
000000c0: 7bd5 51bd d762 42bd 8fa3 a1bc 52a6 01bd
000000d0: 52f0 713d 7c27 b03d 9229 2bb8 d3fe 123b
000000e0: ddac 933d f571 46bc b802 16bc 0700 8ebd
000000f0: c6a0 86bd 5c9d 0fbd e870 303d c4a5 c6bc
00000100: e465 b03d 44fd ba3b a181 9b3d 022b e0bd
00000110: 9643 a43c b061 90bd 0ff5 5abd 6fe3 bbbd
00000120: 7d5e fdba cce7 863d 1a1e 71bd 04ef 8d3d
00000130: 97a4 11be 5a65 aabc 0504 9b3d e398 1b3c
00000140: 627f a03d 613a 84bc 1ea2 453d 9f6c 393d
00000150: c8f0 39bd 00fb 1dbd 0583 d2bc b124 c23c
00000160: f49c c33d 9620 623d f965 283d 3739 f63c
00000170: f939 90bb c005 403b 7473 793d 01ca ad3c
00000180: 7f8e d1bc 3825 403d a29e a63c 8efa dabb
00000190: 388b a73d e13c 163d 1428 20bd de88 e43b
000001a0: 628f fbbb 73b9 dfbb a158 1e3d 0d7e 2a3d
000001b0: e149 20bd 000a 6c3d 587d f73c 0dd4 483d
000001c0: dd6b ef3b 4b62 b9bd 410e ed3c 16e0 6e3d
000001d0: f1c2 073d 42d6 6e3d 99f9 2c3c 9407 a3bd
000001e0: 4947 a4bd 1aee 0bbc d2d3 36bd 3535 52bd
000001f0: 3533 a4bd afaa ac3d e0b2 b83d 3321 3f3d
00000200: 53ac 33bd 715e 1d3c b611 73bd e916 06bd
00000210: f95e 25bd edca 0f3d e81b c0bb 696d 58bd
00000220: 9f3c fabc ecf7 863d 271c 60bb 2cfb 063d
00000230: c580 9a3d a310 80bd 447b a5bd 8009 813d
00000240: 6d2e e53c 89bf 6dbd a3ee 88bd 23da 773d
00000250: 8643 aebd 76b5 b73c 6152 d23b c38b ee3c
00000260: 58d5 0c3d aa6b 953d d463 893d bf71 3dbd
00000270: 6eb4 ba3d 46fa 453d d548 503d dd1d e13c
00000280: 669a f53c e118 0d3d a4db 8dbc 1c19 ebbb
00000290: 6e79 973d b9c3 9a3c 9234 003c 61bf 263c
000002a0: 2967 64bb d5f7 08be 7a76 3b3c 35d5 533d
000002b0: be2e bf3d b49d 883d a646 9bbd 6f8d b53d
000002c0: 07dc ab3d 8966 0cbd 32ed ecbc c230 12bd
000002d0: 195d 9fbd c61c 283c 706b fb3c 7a10 9fbd
000002e0: 3ce5 933d cf5d d33d bf1a 8f3d 7200 f23d
000002f0: 0212 6f3d eed5 20bd 3935 083d 73df 92bd
00000300: 0ec8 ecbd 42a0 edbc 72ce f4bc d697 0c3b
00000310: 3d3e 91bd 5021 993d cdcf 89bc aebc 7c3c
00000320: 7162 ddbd 0658 59bd fd24 80bc 82d3 debd
00000330: 9eca b3bd 3847 103c cf12 bbbc d1c4 63bc
00000340: 55ba 913c 3e79 5b3d 0c21 e03d 1296 53bd
00000350: 2ded ef3b 3486 8dbd 123e f6bb bcc3 743d
00000360: 19d4 a0bd 5c47 acbc 0751 e2bc 1900 9e3d
00000370: e8d4 c13d 038c 743d c053 67bd 5e69 bb3c
00000380: c931 433c a449 143c 950e 263d f48e 43bd
00000390: a12d 88bd 8e19 393c 4053 1abc 617a 973d
000003a0: d7dc 64bd 440d 8f3c a8ad 543d 8cef 633d
000003b0: 9571 7d3d c0cb 00bc 96d2 debc 4d23 5a3d
000003c0: 12e6 013d fa38 87bd ef75 9ebd 7016 47bc
000003d0: b634 1d3c f325 c9bd 4429 e63c 0d2d 353c
000003e0: bfb6 e2bd 0965 eebd c12c 713d 2997 a93a
000003f0: 067a 11bd 93f7 b63c 8f1c 2bbd 74b4 9dbd

layer2.bias f4 [256]
-0.029236002 -0.00596189 0.07007237 0.014923629 0.03456146 0.076982096 0.1564923 0.09651529
0.10901187 -0.018323854 0.0673693 -0.02175484 -0.032286983 0.079722404 0.06810229 -0.026371846
0.07409696 0.09393507 0.026921293 0.076653734 0.064317234 -0.056864336 -0.04186133 -0.07668457
0.042516947 -0.061198764 -0.033672098 -0.08220847 -0.039885942 0.04256918 0.07368809 -0.050443366
0.03409733 0.078492805 0.073691234 0.018783784 -0.08245432 0.076668344 -0.06939051 0.08655105
-0.08093631 0.0069662696 0.057479575 0.096379645 -0.024683079 0.077197164 0.06387709 0.0998154
-0.055396266 0.06466137 -0.0036786739 -0.042414576 0.047988016 -0.09692215 -0.032350395 -0.020994106
0.09220451 0.017644728 -0.07191922 -0.08385636 0.034319658 0.071590416 0.09902883 0.08866816
0.069677286 -0.018684562 0.09496843 -0.034986082 -0.055366077 -0.08559039 0.0048689535 0.011951634
0.05026558 0.04931841 -0.084490135 0.03810542 -0.02643836 0.06109952 -0.07965335 -0.020057285
0.06401703 0.07888945 -0.067378365 -0.059167955 -0.0041047162 0.09080999 -0.059424363 -0.024588827
-0.016446462 -0.03442038 0.06427351 -0.0039863954 -0.046445552 0.050588995 -0.024051046 0.058652
0.054664634 -0.053395413 0.047358006 -0.041471504 -0.051704884 -0.0204997 -0.05367481 -0.028467653
-0.062702216 -0.025148487 0.044387337 0.08675481 -0.052980278 -0.026544586 -0.030185739 -0.114750765
-0.06685873 0.07799712 -0.04487736 -0.063169464 0.014935249 -0.07887462 0.048121694 0.0371931
-0.011224268 0.078398205 0.03266336 -0.08352968 0.061194547 -0.045081034 -0.04452594 0.020868361
0.025815371 0.036052607 0.04847017 0.14804414 0.053791232 -0.054281633 0.06478173 0.0011432869
0.015989024 0.10354047 0.060555544 0.101269 0.09132688 -0.05650149 -0.017475544 -0.02085092
-0.021277456 -0.010711145 -0.018780814 0.104492575 0.02982251 0.0039201137 -0.037573684 0.056966353
-0.0008815407 -0.020203039 0.10711995 -0.08671205 -0.06283366 -0.08170302 0.025379201 0.074487515
0.08910795 -0.07071124 -0.037801977 -0.03421231 0.04868151 0.08839533 0.117229216 0.055996563
-0.04291322 0.0034114267 -0.018526418 0.017817957 -0.046294417 0.10086468 -0.044151958 0.10493101
-0.09138512 0.0137228845 0.037727896 0.122408144 -0.011663826 0.080931835 -0.068253666 -0.06121633
-0.07260357 -0.059144728 -0.044233695 0.010354589 -0.052431256 -0.055749554 0.050421815 -0.033241015
0.07009352 0.1366031 -0.06805237 -0.065458454 0.061276514 0.09959282 -0.027263215 -0.04988302
0.11609907 -0.008604626 0.01883793 -0.08718251 0.032016885 0.036475956 -0.036906555 0.0024782834
-0.00014752861 -0.034612678 -0.066644594 0.11057482 -0.040006056 -0.031525567 -0.09945094 -0.07534541
0.11306284 -0.053173117 0.00027024024 0.057083942 -0.027643967 -0.10093383 0.010704509 0.07987511
-0.0033164183 -0.080231346 -0.013617615 0.0010282903 -0.05409643 0.085402235 -0.053366452 0.04994016
-0.08186451 0.1394611 0.043243725 -0.0009055252 0.07314845 0.070632264 -0.023682786 -0.10421233
-0.062172364 0.08011349 -0.04062979 0.049995244 -0.005014249 0.07584847 0.010835329 0.007838887
-0.04720267 -0.0227493 0.032319024 -0.072977826 -0.030775748 0.039836355 -0.018297061 0.059687592
00000000: 5780 efbc f55b c3bb 1a82 8f3d 3d82 743c
00000010: 5190 0d3d caa8 9d3d 843f 203e cfa9 c53d
00000020: 9e41 df3d e81b 96bc eaf8 893d 3537 b2bc
00000030: 5b3f 04bd 8045 a33d 3779 8b3d c509 d8bc
00000040: 26c0 973d 0861 c03d 0b8a dc3c a2fc 9c3d
00000050: c1b8 833d 94ea 68bd c976 2bbd cd0c 9dbd
00000060: 4026 2e3d 8eab 7abd c1eb 09bd ea5c a8bd
00000070: 715f 23bd 055d 2e3d c8e9 963d b49d 4ebd
00000080: a4a9 0b3d d6c0 a03d 6eeb 963d 73e0 993c
00000090: cfdd a8bd 4b04 9d3d 9d1c 8ebd ad41 b13d
000000a0: f0c1 a5bd 4e45 e43b b46f 6b3d b162 c53d
000000b0: 2b34 cabc 8c19 9e3d fed1 823d 046c cc3d
000000c0: 32e7 62bd 2e6d 843d e815 71bb e8ba 2dbd
000000d0: 158f 443d 1f7f c6bd d981 04bd d5fb abbc
000000e0: b8d5 bc3d ad8b 903c 624a 93bd e2bc abbd
000000f0: c592 0c3d ff9d 923d a1cf ca3d a797 b53d
00000100: f7b2 8e3d 5e10 99bc cf7e c23d 914d 0fbd
00000110: 8ac7 62bd 044a afbd be8b 9f3b c9d0 433c
00000120: 48e3 4d3d 1a02 4a3d 2a09 adbd 6e14 1c3d
00000130: 4295 d8bc 7e43 7a3d 4c21 a3bd 2d4f a4bc
00000140: 5c1b 833d cb90 a13d abfd 89bd 195a 72bd
00000150: db80 86bb 97fa b93d f666 73bd 826e c9bc
00000160: bbba 86bc 62fc 0cbd d4a1 833d 4fa0 82bb
00000170: b13d 3ebd 6836 4f3d b306 c5bc 143d 703d
00000180: 06e8 5f3d 26b5 5abd 78fa 413d 06de 29bd
00000190: 80c8 53bd fdee a7bc 1eda 5bbd ff34 e9bc
000001a0: 056a 80bd 3304 cebc 7fcf 353d 81ac b13d
000001b0: d901 59bd 0874 d9bc 1548 f7bc 7302 ebbd
000001c0: 3bed 88bd f4bc 9f3d 53d1 37bd fe5e 81bd
000001d0: fab2 743c 0489 a1bd 411b 453d cb57 183d
000001e0: fee5 37bc 3d8f a03d 04ca 053d 9c11 abbd
000001f0: 22a7 7a3d e4a6 38bd d560 36bd 20f4 aa3c
00000200: c27a d33c e6ab 133d a888 463d e298 173e
00000210: 3254 5c3d 6b56 5ebd 49ac 843d 58da 953a
00000220: 6afb 823c 070d d43d 1709 783d 1f66 cf3d
00000230: 9609 bb3d 1b6e 67bd df28 8fbc 8ccf aabc
00000240: 0f4e aebc cc7d 2fbc 39da 99bc 3400 d63d
00000250: 564e f43c 4c74 803b dde6 19bd 8d55 693d
00000260: 3217 67ba d880 a5bc b461 db3d 1696 b1bd
00000270: efae 80bd ea53 a7bd 0be8 cf3c e98c 983d
00000280: 3b7e b63d 0ed1 90bd 3fd6 1abd 3522 0cbd
00000290: 4366 473d 9c08 b53d df15 f03d a75c 653d
000002a0: c6c5 2fbd 3e92 5f3b b7c4 97bc f7f6 913c
000002b0: 379f 3dbd 2492 ce3d afd8 34bd 12e6 d63d
000002c0: 1f28 bbbd f3d5 603c 9188 1a3d 1fb1 fa3d
000002d0: a219 3fbc 97bf a53d 94c8 8bbd f9bd 7abd
000002e0: 2eb1 94bd be41 72bd 642e 35bd 4ba6 293c
000002f0: 28c2 56bd a559 64bd 1b87 4e3d bb27 08bd
00000300: 318d 8f3d afe1 0b3e 0a5f 8bbd 150f 86bd
00000310: 15fd 7a3d 52f7 cb3d 1b57 dfbc 2352 4cbd
00000320: 59c5 ed3d 6bfa 0cbc 0152 9a3c be8c b2bd
00000330: 2324 033d d067 153d 542b 17bd b26a 223b
00000340: e9b1 1ab9 06c6 0dbd f67c 88bd 0d75 e23d
00000350: 64dd 23bd f420 01bd efac cbbd b24e 9abd
00000360: 7e8d e73d 0ecc 59bd 08af 8d39 dad0 693d
00000370: 9a75 e2bc 65b6 cebd f761 2f3c 9095 a33d
00000380: 4458 59bb 5550 a4bd 6b1c 5fbc b2c7 863a
00000390: 3894 5dbd 5ee7 ae3d c896 5abd 0e8e 4c3d
000003a0: 95a8 a7bd e4ce 0e3e 5520 313d c460 6dba
000003b0: dbce 953d a6a7 903d 6702 c2bc 466d d5bd
000003c0: 73a8 7ebd 8b12 a43d 6c6b 26bd d0c7 4c3d
000003d0: 924e a4bb 7156 9b3d aa86 313c ad6e 003c
000003e0: 9657 41bd bd5c babc f460 043d 6675 95bd
000003f0: 6c1d fcbc 722b 233d b8e3 95bc fa7a 743d

layer3.weight f4 [256, 256]
-0.02686162 -0.040492665 -0.011477331 -0.03763791 0.07289384 -0.041628096 -0.01576528 -0.07300089
-0.05582607 -0.0038070036 -0.030245379 -0.0054508885 -0.09873796 0.0036839782 -0.0038871982 0.05671396
0.041831814 -0.056904756 -0.034148637 -0.0372899 0.0850132 0.009282115 -0.0033713053 -0.022845145
-0.030841058 -0.044740535 -0.051914293 0.031588793 0.0113642 -0.027370574 -0.044777844 0.012932719
0.015475682 -0.02889107 0.051254336 -0.056053407 -0.10621007 -0.00093902013 0.016644284 -0.04773098
0.0070464704 -0.03369983 0.04392624 -0.058073375 0.016987968 0.02586002 0.02789184 -0.056335337
-0.002422077 -0.045067742 -0.04232887 0.012012351 -0.06230272 0.05442781 -0.07552591 -0.07754292
0.037401773 0.027104018 0.044394895 0.008259985 -0.05745084 -0.017875163 0.011118964 -0.07464437
0.0677358 -0.00025667588 0.04303888 0.028205395 -0.100811705 0.009596026 -0.04614362 0.025362035
-0.032787196 0.06983881 -0.03569939 0.07944866 0.06175248 -0.02945334 -0.026535427 -0.075210795
-0.04831369 -0.0057382626 -0.011938193 -0.036514796 -0.056675136 0.042660914 0.023107445 -0.04820277
-0.03451982 -0.009988633 -0.029325018 0.0614195 0.08261663 -0.012742953 -0.03516844 0.022843994
0.011445342 0.029292079 0.02135841 0.007453896 0.011016071 -0.04729663 -0.002292951 -0.017311927
0.04454501 -0.008775994 -0.016574867 0.0025057707 -0.055361614 -0.06536239 0.04782859 0.055985216
0.026189953 0.00553419 -0.045749858 0.046082463 -0.021541549 -0.024186457 0.08220166 -0.04338928
-0.053641334 0.03336044 0.030895263 0.05649324 0.039289426 -0.0071102097 0.00207408 -0.012175343
0.067045756 -0.07441205 -0.057301562 -0.021915326 0.05996144 -0.06317047 0.06717477 0.034688838
0.07615004 0.010066769 0.070539996 0.07060388 0.038594972 0.0026738942 0.041243423 -0.03067973
-0.036953438 0.056835756 0.017354127 0.03151634 0.045069516 -0.018658364 -0.025281496 0.048810747
0.0027408882 0.04932614 0.06898866 0.0707456 0.037634514 0.033047672 -0.0043904376 -0.070886694
-0.03150611 0.046004977 -0.013691796 0.028551646 -0.011965547 0.04660813 -0.06847171 -0.025625579
-0.0551607 0.0038396535 0.044056177 0.058168765 0.0024955475 0.0029142376 0.047719862 -0.036189593
-0.006532723 -0.030712536 -0.09086539 0.035264213 -0.0054564485 -0.041851647 -0.009340093 0.008107345
0.012318244 -0.040878877 0.09535568 0.017861243 0.031093946 0.030412499 0.044786662 -0.053961083
0.031282026 -0.048672855 0.011807136 0.048579704 0.03469331 -0.00082455925 0.027923005 0.005335704
0.06060158 0.085502975 0.011237695 -0.021652523 0.05941353 0.08688416 -0.014801717 -0.05591212
0.08104095 -0.03394148 -0.011426482 -0.01964321 -0.055638753 -0.0075701107 -0.005234987 -0.039803427
-0.004606481 -0.004706506 -0.019675825 0.06267489 -0.013827149 0.04672435 -0.0624651 8.730838e-05
0.06677405 0.008855159 0.03355041 0.0070349886 0.066382736 -0.017685782 -0.031931445 -0.04100703
-0.029659836 -0.034390938 0.06532111 -0.06671781 0.048662614 -0.02332887 -0.051580336 -0.019651417
-0.0026666336 0.053160723 -0.0022151824 -0.03486769 0.008154742 -0.07462762 -0.0648346 -0.0019368023
0.062486555 0.07419773 -0.010511384 -0.033212766 -0.034899987 -0.004105982 0.011831348 0.029141981
00000000: e60c dcbc a3db 25bd 6a0b 3cbc 362a 1abd
00000010: 5e49 953d 3982 2abd 3026 81bc 7e81 95bd
00000020: e1a9 64bd ec7e 79bb 28c5 f7bc 5e9d b2bb
00000030: 2137 cabd e66e 713b 5dc0 7ebb e64c 683d
00000040: d657 2b3d f614 69bd 71df 0bbd 4bbd 18bd
00000050: 671b ae3d 0314 183c 1ef1 5cbb be25 bbbc
00000060: 63a6 fcbc da41 37bd 15a4 54bd 4063 013d
00000070: e930 3a3c 4138 e0bc f968 37bd c1e3 533c
00000080: b78d 7d3c f7ac ecbc 11f0 513d 4298 65bd
00000090: aa84 d9bd 9328 76ba 9859 883c 8f81 43bd
000000a0: 14e6 e63b d508 0abd 00ec 333d 59de 6dbd
000000b0: 5a2a 8b3c 65d8 d33c 6e7d e43c e2bf 66bd
000000c0: b6bb 1ebb f498 38bd 0a61 2dbd 74cf 443c
000000d0: 2331 7fbd b2ef 5e3d 54ad 9abd d3ce 9ebd
000000e0: 9a32 193d 3f09 de3c 6cd7 353d e354 073c
000000f0: 9251 6bbd ef6e 92bc 512c 363c 26df 98bd
00000100: 11b9 8a3d 7492 86b9 8949 303d 000f e73c
00000110: 5e76 cebd a638 1d3c 1801 3dbd 0bc4 cf3c
00000120: de4b 06bd a607 8f3d 8639 12bd fbb5 a23d
00000130: 2bf0 7c3d 2248 f1bc d360 d9bc 1e08 9abd
00000140: 93e4 45bd 0908 bcbb 6998 43bc 8a90 15bd
00000150: 3024 68bd 36bd 2e3d d34b bd3c 4570 45bd
00000160: a864 0dbd 5da7 23bc 053b f0bc 0393 7b3d
00000170: e832 a93d d2c7 50bc c80c 10bd 5423 bb3c
00000180: 3e85 3b3c f1f5 ef3c d5f7 ae3c d03f f43b
00000190: c07c 343c 1cba 41bd 5645 16bb bed1 8dbc
000001a0: d474 363d 30c9 0fbc 04c8 87bc db37 243b
000001b0: dcc2 62bd b7dc 85bd e9e7 433d c150 653d
000001c0: 508c d63c 2758 b53b 3464 3bbd f7c0 3c3d
000001d0: e777 b0bc ad22 c6bc 5859 a83d f5b8 31bd
000001e0: 04b7 5bbd f5a4 083d 1018 fd3c 7565 673d
000001f0: f3ed 203d c3fc e8bb 4aed 073b 177b 47bc
00000200: 494f 893d 5865 98bd 0bb5 6abd c587 b3bc
00000210: 209a 753d 855f 81bd ed92 893d e215 0e3d
00000220: 8df4 9b3d 17ef 243c 4677 903d c498 903d
00000230: c315 1e3d 803c 2f3b ddee 283d 0f54 fbbc
00000240: 7d5c 17bd 9ccc 683d 3e2a 8e3c 4717 013d
00000250: d09a 383d 6dd9 98bc 241b cfbc c7ed 473d
00000260: 79a0 333b 350a 4a3d ed49 8d3d 12e3 903d
00000270: a626 1a3d ff5c 073d a9dd 8fbb 0b2d 91bd
00000280: 8d0c 01bd b76f 3c3d 8e53 60bc 24e5 e93c
00000290: 240b 44bc 2be8 3e3d e53a 8cbd bcec d1bc
000002a0: 30f0 61bd b2a2 7b3b 4074 343d 5f42 6e3d
000002b0: 578c 233b cbfc 3e3b e775 433d 8a3b 14bd
000002c0: 7410 d6bb db98 fbbc a217 babd 3571 103d
000002d0: 02cc b2bb a26c 2bbd 3007 19bc abd4 043c
000002e0: 76d2 493c 9c70 27bd d749 c33d be51 923c
000002f0: bbb8 fe3c a223 f93c 3872 373d 4c06 5dbd
00000300: 9521 003d 305d 47bd b872 413c 83fb 463d
00000310: 921a 0e3d 3c27 58ba c9be e43c 21d7 ae3b
00000320: 5d39 783d 2f1c af3d 4f1e 383c a260 b1bc
00000330: 9a5b 733d 53f0 b13d e782 72bc 1b04 65bd
00000340: ccf8 a53d 3906 0bbd 2436 3bbc ccea a0bc
00000350: 76e5 63bd b10e f8bb 418a abbb eb08 23bd
00000360: f7f1 96bb 0939 9abb 322f a1bc b15b 803d
00000370: 448b 62bc 0862 3f3d 68db 7fbd 5419 b738
00000380: d5c0 883d 3b15 113c 286c 093d c385 e63b
00000390: acf3 873d c6e1 90bc 8cca 02bd fdf6 27bd
000003a0: 2ff9 f2bc 83dd 0cbd 13c7 853d 59a3 88bd
000003b0: 7352 473d 301c bfbc e745 53bd 02fc a0bc
000003c0: b0c2 2ebb 0fbf 593d 982c 11bb 6cd1 0ebd
000003d0: 789b 053c 5ed6 98bd 01c8 84bd 4ddc fdba
000003e0: e7f1 7f3d fbf4 973d f137 2cbc 1c0a 08bd
000003f0: 4af3 0ebd 798b 86bb 45d8 413c 2abb ee3c

layer3.bias f4 [256]
-0.038555235 0.077715814 0.008110811 0.009643024 0.030017007 0.012375622 0.03808699 0.07936144
-0.059781466 -0.06363067 -0.016257724 0.038876534 -0.0061689774 0.05565089 -0.06026061 0.02238539
-0.014941853 0.06791606 -0.017812317 -0.029084267 -0.013291004 -0.037757427 -0.008490658 0.10787768
-0.050959665 0.07292782 -0.039234012 0.026223937 0.045833938 0.033934023 0.042184327 0.05367965
-0.03080078 0.06994234 0.04401571 -0.027256934 0.03621293 0.08988493 -0.017160676 0.0766542
0.07477 0.110185735 -0.004614747 -0.056294285 0.01824154 0.03144694 -0.018420173 0.04137228
0.013289083 0.0435813 0.038494598 -0.035511512 -0.05486755 -0.014372779 -0.008976586 0.016437868
-0.02326953 0.034176506 -0.01372989 0.063576825 -0.018276427 -0.013869763 -0.00033273283 0.046477746
-0.02098506 0.053587057 0.08137597 0.0070703537 0.0099497605 -0.027424049 -0.014258608 0.028376628
-0.058412716 0.027954463 -0.034189336 0.07603386 0.03757836 -0.0022788818 0.039467722 -0.021314112
0.05309431 0.06862162 0.03275708 -0.03344655 0.03748712 0.024343995 0.01568433 0.0046562627
0.014082389 -0.016879333 -0.043176316 0.06901553 0.07219928 0.021022622 -0.02620904 0.057285618
0.034974486 -0.03912618 -0.038607936 0.06486011 0.10074543 0.03614939 0.011627429 0.0043845708
0.105931096 0.02151316 0.09491144 -0.0070810597 0.018768515 -0.0028551673 -0.013712112 -0.021830281
-0.07200633 -0.005717263 0.028904337 0.009470641 0.022065733 -0.02686825 0.002007491 0.033447728
0.0294916 -0.05622095 0.046498127 0.12099197 -0.030701796 0.059479862 0.0046990095 0.030911455
-0.01685611 0.03106819 -0.003661037 -0.01782916 0.02996029 0.046358835 -0.005605238 -0.03527379
0.04887284 0.0476166 0.02210841 0.055255894 0.037714213 0.03721573 -0.032638106 0.03105612
0.042447817 0.032281935 0.019344827 0.034808636 -0.024343852 0.024320783 -0.043489277 -0.027140193
0.008431174 -3.3366938e-05 0.052831862 0.09084315 -0.029220691 0.056081988 0.059915278 -0.028200015
-0.005105407 -0.06132981 0.019584086 0.053836524 -0.0018650569 0.04409285 -0.039115857 0.096374765
0.016764842 0.038987566 0.025869813 0.012969814 -0.03909128 0.025362195 -0.033249572 0.07360622
0.019694624 0.05501689 0.1063307 0.012789302 -0.02316929 0.041496404 -0.011929777 0.052851286
0.019286504 -0.05128673 -0.067743085 -0.038430844 -0.0030395992 -0.011027219 0.059370197 0.015845956
0.070216574 -0.027691672 -0.0342663 0.09925183 0.031869944 0.017892791 0.030370655 -0.0028800706
-0.05781011 -0.03701026 -0.006004072 0.07561241 -0.01578559 -0.04246136 -0.013413156 0.010275791
-0.025008036 -0.028660486 -0.047623087 -0.058487073 -0.0011756035 0.043046154 0.07557802 -0.0053517907
0.0062467256 -0.06328763 -0.024451572 0.029347029 0.05234168 -0.042817045 0.008250603 -0.03903779
-0.02094707 -0.04240948 0.0316179 0.05584237 -0.05924325 -0.01063761 0.030844985 0.022428758
0.0022476877 0.056616846 0.006618702 -0.038553093 0.020459797 0.034167875 0.025931241 -0.023149528
0.022781607 0.04949953 -0.0106695155 0.029558005 0.03401825 0.059192862 -0.042031772 -0.0051838853
0.046713047 0.0017525373 -0.017352326 0.048234764 -0.03960716 0.055217955 0.028100552 -0.051408768
00000000: 18ec 1dbd 7829 9f3d 35e3 043c c6fd 1d3c
00000010: 3ae6 f53c 1fc3 4a3c 1b01 1c3d 4088 a23d
00000020: 69dd 74bd cc50 82bd eb2e 85bc 003d 1f3d
00000030: 2225 cabb 30f2 633d d4d3 76bd 9161 b73c
00000040: acce 74bc 9317 8b3d 23eb 91bc 2142 eebc
00000050: 83c2 59bc 88a7 1abd 671c 0bbc f9ee dc3d
00000060: 15bb 50bd 2e5b 953d d8b3 20bd 95d3 d63c
00000070: 5ebc 3b3d 67fe 0a3d 79c9 2c3d 31df 5b3d
00000080: eb51 fcbc ee3d 8f3d d149 343d ef49 dfbc
00000090: 0254 143d 9715 b83d 8c94 8cbc e1fc 9c3d
000000a0: 0421 993d 0fa9 e13d 4e37 97bb d694 66bd
000000b0: 486f 953c 82ce 003d e7e5 96bc fb75 293d
000000c0: 74ba 593c 4e82 323d 83ac 1d3d 8574 11bd
000000d0: ccbc 60bd ce7b 6bbc 8812 13bc b5a8 863c
000000e0: be9f bebc aafc 0b3d 55f3 60bc 9134 823d
000000f0: 72b8 95bc 013e 63bc a572 aeb9 735f 3e3d
00000100: dce8 abbc 1a7e 5b3d 72a8 a63d 6dae e73b
00000110: 5204 233c 66a8 e0bc f09c 69bc 1a76 e83c
00000120: 2c42 6fbd c200 e53c 1e0a 0cbd a4b7 9b3d
00000130: c4eb 193d 4b59 15bb e8a8 213d ef9a aebc
00000140: 6b79 593d 7e89 8c3d 4a2c 063d 40ff 08bd
00000150: 188c 193d 0f6d c73c 6d7c 803c 9093 983b
00000160: d2b9 663c 8746 8abc a6d9 30bd 0458 8d3d
00000170: 37dd 933d a237 ac3c 57b4 d6bc 53a4 6a3d
00000180: 6841 0f3d c642 20bd 5b23 1ebd 61d5 843d
00000190: 9f53 ce3d 6211 143d f980 3e3c 72ac 8f3b
000001a0: 67f2 d83d 5e3c b03c ee60 c23d 3c08 e8bb
000001b0: 6ec0 993c c21d 3bbb c4a8 60bc 6bd5 b2bc
000001c0: 0e78 93bd e157 bbbb cac8 ec3c bf2a 1b3c
000001d0: 32c3 b43c ce1a dcbc 1c90 033b 7c00 093d
000001e0: 5e98 f13c f047 66bd d274 3e3d a3ca f73d
000001f0: 5582 fbbc 28a1 733d 26fa 993b 053a fd3c
00000200: d315 8abc b782 fe3c 02ee 6fbb 750e 92bc
00000210: 486f f53c c3e2 3d3d 25ac b7bb 407b 10bd
00000220: e32e 483d a009 433d b21c b53c 0154 623d
00000230: 387a 1a3d 856f 183d 89af 05bd 6769 fe3c
00000240: c3dd 2d3d 103a 043d 0b79 9e3c 8093 0e3d
00000250: c26c c7bc 613c c73c d021 32bd 1c55 debc
00000260: e822 0a3c 7af3 0bb8 3966 583d f90b ba3d
00000270: 3b60 efbc 3ab6 653d b969 753d b803 e7bc
00000280: 424b a7bb f834 7bbd ce6e a03c b083 5c3d
00000290: ed74 f4ba b49a 343d f337 20bd 2260 c53d
000002a0: 6c56 893c 6db1 1f3d eeec d33c 587f 543c
000002b0: 2e1e 20bd 61c4 cf3c b430 08bd dcbe 963d
000002c0: 9f56 a13c 6459 613d e9c3 d93d 388a 513c
000002d0: 86cd bdbc 22f8 293d 1d75 43bc 977a 583d
000002e0: bbfe 9d3c 0912 52bd e3bc 8abd a969 1dbd
000002f0: 0334 47bb 82ab 34bc 2a2e 733d 61cf 813c
00000300: b5cd 8f3d a5d9 e2bc d25a 0cbd 8b44 cb3d
00000310: 0f8a 023d e793 923c e1cb f83c 91bf 3cbb
00000320: 4bca 6cbd 1298 17bd cebd c4bb aeda 9a3d
00000330: c850 81bc f7eb 2dbd dbc2 5bbc cb5b 283c
00000340: a7dd ccbc 65c9 eabc 6d10 43bd 2490 6fbd
00000350: b516 9aba 2a51 303d a6c8 9a3d 135e afbb
00000360: 55b1 cc3b f29c 81bd aa4e c8bc 2e69 f03c
00000370: 3b64 563d ed60 2fbd 8a2d 073c 17e6 1fbd
00000380: 3199 abbc 90b5 2dbd c581 013d f8ba 643d
00000390: 0da9 72bd 5f49 2ebc 9fae fc3c 84bc b73c
000003a0: f14d 133b 11e7 673d b2e1 d83b d9e9 1dbd
000003b0: 4e9b a73c 9df3 0b3d c16d d43c 14a4 bdbc
000003c0: 7ea0 ba3c 05c0 4a3d 31cf 2ebc a123 f23c
000003d0: b856 0b3d 3774 723d 8229 2cbd 95dd a9bb
000003e0: 2e56 3f3d 65b5 e53a 7726 8ebc d191 453d
000003f0: 1e3b 22bd 392c 623d 2133 e63c 0092 52bd

layer4.weight f4 [128, 256]
0.031053193 -0.08177954 -0.08396206 0.030403823 0.001508598 -0.016924072 -0.06541278 0.01138663
0.010323253 0.045258872 0.0043641133 -0.041197542 0.07862669 -0.026327578 -0.06087077 -0.036759615
0.025796913 -0.0013647268 -0.011220478 -0.05754368 -0.00968845 -0.031737983 0.07354033 0.010941788
0.10485339 0.02890726 -0.003026856 0.08925624 0.014491447 -0.048759606 -0.060365625 -0.05505961
-0.064732715 -0.0008988901 -0.01716336 -0.043947875 -0.019064669 0.031726457 0.074004844 0.06635513
-0.044797394 -0.034538362 -0.0024575917 -0.029536925 0.054496687 -0.0080795605 0.026163204 -0.042761613
0.051043693 0.0005993619 -0.049445793 -0.04834407 0.062146246 0.030253038 -0.016555483 -0.04050324
-0.050412185 -0.035114557 0.015516147 -0.0076429164 -0.059130754 0.00023360203 0.0016844029 -0.04750996
0.036028687 -0.002033009 0.021122653 0.0117646055 0.020807242 0.0013148322 0.047555458 0.03392138
0.008854222 -0.03548063 -0.0532943 -0.00382597 -0.00829617 -0.021343106 -0.039853167 -0.032685008
0.034623783 0.0034962653 -0.058609366 -0.03361872 0.05390692 -0.07810751 -0.023192663 0.013061152
0.07311483 -0.0080106445 -0.082926035 -0.006814355 0.034612007 0.039443348 -0.048426256 0.054470874
-0.036605626 -0.01697437 -0.007681288 0.081858516 -0.0032909382 0.0072516166 -0.005086387 0.06291585
-0.014547158 0.05211005 0.019539021 0.053525712 -0.06143395 -0.051578213 0.05647464 0.07643704
0.016047383 -0.030877212 0.08555743 0.017401863 0.062964305 -0.07153574 -0.061190173 -0.019330952
-0.03046036 0.043524593 0.046859257 0.033002857 0.008593905 0.013425639 0.0064256876 -0.04254801
-0.008876869 0.06043543 -0.03782065 -0.03109734 -0.07397169 -0.029341709 -0.10078993 0.0009025856
0.0056353635 0.05425362 -0.029604191 0.03736006 0.046480957 0.014240543 0.029745504 -0.08991158
-0.035892326 -0.018188601 -0.008802487 0.033018988 -0.014497313 0.0047611706 0.049525246 0.05817635
-0.031463295 -0.029564269 0.022450468 -0.0020840783 0.01527809 -0.007778356 -0.012335479 0.07764679
0.056817126 -0.04640613 -0.043167524 -0.0010909569 0.010919872 -0.011264854 0.062013168 0.037364878
-0.015814697 -0.0450388 0.017938739 -0.05614087 -0.05931637 0.069659516 -0.034589577 -0.02954152
0.08127829 -0.018394824 -0.038433682 -0.03768737 -0.039172333 -0.0053209085 0.05080821 0.076536484
-0.04532843 -0.0075601237 -0.015673708 -0.025255125 -0.028175976 0.08497199 -0.03050533 0.0063117514
0.07108051 0.042766016 -0.06515481 0.031478915 0.102829784 0.07909513 -0.0010245283 0.010266097
-0.03167681 0.033835668 0.030733692 -0.052335788 0.057335913 0.044941865 0.06338738 0.026467342
-0.087889686 0.026843982 -0.017475963 0.006919425 0.022780428 0.03669383 0.007921338 -0.01599289
-0.005863233 0.021179378 0.008059982 -0.09589247 0.0114478655 0.043435242 0.009605081 0.035758924
-0.07777493 0.056374334 -0.049070634 -0.054198824 -0.042245008 0.01678922 -0.041801732 0.07186733
0.025614096 0.07052443 -0.021531262 -0.0075801387 -0.021133652 0.017759724 -0.018314967 -0.044963468
-0.006803465 -0.020094508 0.038545407 -0.009537265 0.044244412 -0.025821295 0.0565074 0.0671369
0.03310543 -0.055111516 0.018524634 -0.043163918 -0.043680754 0.014205363 0.06252128 0.052627493
00000000: 4463 fe3c 087c a7bd 4df4 abbd 7011 f93c
00000010: 26bc c53a 5aa4 8abc 23f7 85bd fd8e 3a3c
00000020: dd22 293c 5e61 393d d600 8f3b c1be 28bd
00000030: 0807 a13d efac d7bc a153 79bd 4091 16bd
00000040: 0c54 d33c a2e0 b2ba 19d6 37bc ecb2 6bbd
00000050: 4ebc 1ebc b0ff 01bd 509c 963d 2f45 333c
00000060: 60bd d63d ebce ec3c 385e 46bb facb b63d
00000070: 896d 6d3c 27b8 47bd f241 77bd 3086 61bd
00000080: 9692 84bd 7ea3 6bba 2d9a 8cbc b002 34bd
00000090: 822d 9cbc 9af3 013d da8f 973d 33e5 873d
000000a0: 797d 37bd 1978 0dbd 8c0f 21bb 6cf7 f1bc
000000b0: eb37 5f3d 2260 04bc 3754 d63c cd26 2fbd
000000c0: 3113 513d 7f1e 1d3a ac87 4abd 6e04 46bd
000000d0: 108d 7e3d 38d5 f73c 5d9f 87bc bae6 25bd
000000e0: 027d 4ebd 48d4 0fbd 7037 7e3c 6e71 fabb
000000f0: 1733 72bd 11f3 7439 2fc7 dc3a ce99 42bd
00000100: d192 133d 3b3c 05bb 6a09 ad3c 55c0 403c
00000110: f373 aa3c 7356 ac3a 83c9 423d 25f1 0a3d
00000120: 4c11 113c 2354 11bd 204b 5abd 20bd 7abb
00000130: a9ec 07bc bdd7 aebc 133d 23bd b7e0 05bd
00000140: abd1 0d3d 9921 653b 6010 70bd c8b3 09bd
00000150: 81cd 5c3d d5f6 9fbd 8afe bdbc 71fe 553c
00000160: 3abd 953d 143f 03bc 20d5 a9bd f44a dfbb
00000170: 52c5 0d3d 598f 213d 9c5a 46bd da1c 5f3d
00000180: c8ef 15bd d60d 8bbc 50b3 fbbb 70a5 a73d
00000190: c8ac 57bb f89e ed3b b5ab a6bb 06da 803d
000001a0: 3457 6ebc 5971 553d 4c10 a03c c73d 5b3d
000001b0: 2aa2 7bbd ad43 53bd f451 673d 068b 9c3d
000001c0: cd75 833c 35f2 fcbc bc38 af3d 5a8e 8e3c
000001d0: 6ef3 803d 5481 92bd 8ca2 7abd f25b 9ebc
000001e0: 0188 f9bc d846 323d 7eef 3f3d 012e 073d
000001f0: 73cd 0c3c 36f7 5b3c 938e d23b d246 2ebd
00000200: 4a70 11bc 248b 773d d3e9 1abd d9bf febc
00000210: 787e 97bd 065e f0bc f36a cebd 7f9b 6c3a
00000220: dba8 b83b 0b39 5e3d 7d84 f2bc dd06 193d
00000230: d162 3e3d 2b51 693c d8ac f33c 9023 b8bd
00000240: d503 13bd 4300 95bc 4e38 10bc eb3e 073d
00000250: 2386 6dbc 9803 9c3b fcda 4a3d 534a 6e3d
00000260: a8df 00bd c430 f2bc 0bea b73c 0895 08bb
00000270: f450 7a3c 94e1 febb c01a 4abc 4805 9f3d
00000280: 13b9 683d 5b14 3ebd 6ed0 30bd 70fe 8eba
00000290: 43e9 323c 3990 38bc 8501 7e3d ea0b 193d
000002a0: d38d 81bc 9b7a 38bd 43f4 923c f8f3 65bd
000002b0: b9f5 72bd a6a9 8e3d cdad 0dbd 0f01 f2bc
000002c0: 3b75 a63d beb0 96bc a36c 1dbd 125e 1abd
000002d0: 2b73 20bd 045b aebb 451c 503d 29bf 9c3d
000002e0: 4eaa 39bd eaba f7bb 2666 80bc d6e3 cebc
000002f0: 4ed1 e6bc cb05 ae3d 50e6 f9bc cfd2 ce3b
00000300: a992 913d 6b2b 2f3d e36f 85bd 09f0 003d
00000310: 6c98 d23d a1fc a13d 7749 86ba 2233 283c
00000320: 8bbf 01bd 4597 0a3d 39c5 fb3c 0d5e 56bd
00000330: 10d9 6a3d f614 383d 3ed1 813d 0ad2 d83c
00000340: 82ff b3bd e9e7 db3c c029 8fbc 58bc e23b
00000350: 059e ba3c 454c 163d 80c8 013c 8503 83bc
00000360: 5d20 c0bb 6080 ad3c 040e 043c 4563 c4bd
00000370: d48f 3b3c 27e9 313d a15e 1d3c f377 123d
00000380: 7648 9fbd c6e8 663d 4afe 48bd 96ff 5dbd
00000390: 1a09 2dbd 8c89 893c 4b38 2bbd 2e2f 933d
000003a0: a7d4 d13c 1d6f 903d 5462 b0bc d062 f8bb
000003b0: 7b20 adbc d77c 913c 4509 96bc 9d2b 38bd
000003c0: 9aef debb 3d9d a4bc cae1 1d3d 3042 1cbc
000003d0: a139 353d 2e87 d3bc 4e74 673d 127f 893d
000003e0: 8f99 073d 9dbc 61bd f9c0 973c a6cc 30bd
000003f0: 97ea 32bd 9cbd 683c 280b 803d ed8f 573d

layer4.bias f4 [128]
0.05541044 0.0971186 0.05129513 0.022942685 -0.011746099 0.0061100028 0.087072425 0.023063717
5.166295e-05 0.079351686 0.06940285 0.03158238 -0.0022056752 0.01427151 -0.0013541197 -0.010702576
-0.022743575 -0.061194558 0.086484276 0.024093017 -0.046364415 0.028743396 0.0052939313 0.054957137
-0.032998558 0.02394605 -0.06504858 -0.010858239 -0.0022277206 -0.06979671 0.0390988 -0.058393683
0.043061752 0.065261014 -0.015328661 0.070414335 -0.009761153 0.007932249 0.061912578 -0.016009215
0.031158768 -0.021988109 -0.015163004 -0.0087285945 -0.0065296567 -0.0509076 0.051174443 -0.03678598
0.10610969 0.039976712 0.046072662 -0.059427314 -0.028299546 -0.039282504 0.03671979 -0.030999657
-0.0011314809 0.04269404 0.029349385 0.0014001621 -0.028018052 0.052947946 -0.01651226 -0.036415905
-0.024028627 0.014991201 -0.01613516 0.013350254 0.05135718 -0.024068411 0.06980351 0.077040866
0.035694424 -0.011711329 0.06626978 0.07798472 0.084834345 -0.050966784 0.087177336 0.0069736326
0.025349485 -0.009967971 -0.0046539367 -0.019013986 -0.0069140764 -0.024054592 -0.00663648 -0.06145026
0.057021584 0.042557176 0.015278357 0.011090647 0.013042077 0.015156336 -0.055945378 0.017007407
0.04580625 0.011621186 0.033164725 0.048905663 -0.016367467 0.023046983 -0.03130905 -0.023327557
-0.015252684 -0.0024901826 -0.010272319 -0.04801259 0.037531886 0.026845815 0.087314814 0.09895617
-0.023582086 0.0072873738 0.025413074 -0.03862412 -0.011467562 -0.016913593 0.033391733 -0.0054438785
0.006152816 0.007312991 0.024978334 -0.01718144 -0.0019376545 0.026896052 0.028258892 -0.026855916
00000000: 0ff6 623d 1ee6 c63d d81a 523d 4cf2 bb3c
00000010: b672 40bc 6b36 c83b 0753 b23d 1ff0 bc3c
00000020: acb0 5838 2383 a23d 1523 8e3d 875c 013d
00000030: 178d 10bb 0dd3 693c b87c b1ba db59 2fbc
00000040: bc50 babc 25a7 7abd ab1e b13d b85e c53c
00000050: 9de8 3dbd 4577 eb3c b778 ad3b bc1a 613d
00000060: 7f29 07bd 822a c43c 3138 85bd c1e6 31bc
00000070: f3fe 11bb 94f1 8ebd 1026 203d 372e 6fbd
00000080: 8561 303d 91a7 853d 1025 7bbc 6435 903d
00000090: 3eed 1fbc 44f6 013c 0b98 7d3d c225 83bc
000000a0: ac40 ff3c 6820 b4bc 406e 78bc 6102 0fbc
000000b0: bbf6 d5bb 7d84 50bd 4b9c 513d e5ac 16bd
000000c0: 0a50 d93d 9fbe 233d b0b6 3c3d 0e6a 73bd
000000d0: 73d4 e7bc b1e6 20bd 7e67 163d fef2 fdbc
000000e0: 334e 94ba f2df 2e3d 1f6e f03c a585 b73a
000000f0: 1d86 e5bc f2df 583d b844 87bc d828 15bd
00000100: afd7 c4bc a89d 753c e22d 84bc 06bb 5a3c
00000110: e85b 523d 1e2b c5bc 25f5 8e3d 9ac7 9d3d
00000120: 5134 123d e0e0 3fbc 73b8 873d 74b6 9f3d
00000130: a1bd ad3d 8cc2 50bd 088a b23d 1283 e43b
00000140: b9a9 cf3c b350 23bc 0d80 98bb 38c3 9bbc
00000150: 7a8f e2bb 230e c5bc d476 d9bb 45b3 7bbd
00000160: 778f 693d 6f50 2e3d 1352 7a3c 8cb5 353c
00000170: 70ae 553c 4852 783c fb26 65bd 1e53 8b3c
00000180: 569f 3b3d c966 3e3c bcd7 073d 4e51 483d
00000190: 1115 86bc 07cd bc3c eb3d 00bd 6f19 bfbc
000001a0: 65e6 79bc 5532 23bb 3b4d 28bc d9a8 44bd
000001b0: 09bb 193d c1eb db3c 1cd2 b23d 88a9 ca3d
000001c0: 382f c1bc ecca ee3b 142f d03c 5334 1ebd
000001d0: 71e2 3bbc 608e 8abc c5c5 083d 9062 b2bb
000001e0: 909d c93b d1a1 ef3b 5d9f cc3c 17c0 8cbc
000001f0: e5f8 fdba 1c55 dc3c 317f e73c f000 dcbc
