PPO/ppo_actor.pth (torch, 549599 bytes, 10 tensors)

layer1.weight f4 [128, 29]
0	0x3e025302	0.12726977
1	0xbc8c39b9	-0.017117368
2	0x3d06d715	0.032919962
3	0xbdf4d0e7	-0.119539075
4	0x3dd37127	0.103243165
5	0x3c8566d6	0.016284388
6	0xbd9b36ca	-0.075788096
7	0x3e08a20c	0.13343066
8	0x3deaa6e9	0.11457617
9	0x3d10425b	0.03521953
10	0x3d6793ab	0.05653731
11	0x3d019d5f	0.03164422
12	0x3e2bb428	0.16767943
13	0x3e2444b5	0.16041835
14	0xbcbe0844	-0.0231973
15	0xbe2a1a4c	-0.16611594
16	0xbe3d5a06	-0.18491372
17	0xbe0963e3	-0.1341701
18	0xbc8941d5	-0.016755024
19	0xbc89c8d6	-0.016819399
20	0x3d9326dd	0.07185147
21	0x3af52c90	0.0018705297
22	0xbd922f75	-0.07137958
23	0xbcb8247b	-0.022478333
24	0x3c45f40f	0.012082114
25	0xbc4e96df	-0.012609213
26	0x3d093108	0.033494025
27	0x3c38f4bf	0.011288821
28	0xbdf2631b	-0.11835309
29	0x3d87a690	0.06623566
30	0xbe0de7ac	-0.13857907
31	0xbe036384	-0.12830931
32	0x3e3a1710	0.1817286
33	0x3d8f2345	0.06989149
34	0xbd5f5c84	-0.05453159
35	0x3e0d2c09	0.1378633
36	0x3d852db5	0.065028585
37	0xbc154d25	-0.009112631
38	0x3d0de23b	0.03463958
39	0xbd78928d	-0.060686637
40	0xbe10016d	-0.14063044
41	0x3d7c1acf	0.061549004
42	0xbe04ffa0	-0.12988138
43	0x3df58976	0.11989109
44	0x3e3524f9	0.17689885
45	0x3e13bcc2	0.14427474
46	0xbe170831	-0.14749219
47	0x3e0b7fd8	0.13622987
48	0x3d677f08	0.05651763
49	0xbd9f0df3	-0.077663325
50	0xb8be8a69	-9.085687e-05
51	0xbd65a611	-0.056066576
52	0xbd4395bf	-0.04775023
53	0xbce707f2	-0.02820203
54	0xbde9dcfb	-0.11419102
55	0xbcce117f	-0.025154827
56	0x3db2d33e	0.087316975
57	0xbd59b4d3	-0.053150963
58	0xbe3e3d82	-0.18578151
59	0xbcc2a928	-0.0237623
60	0xbe2c9dc9	-0.16857065
61	0x3d51b17e	0.05119466
62	0x3dcbde8f	0.09954559
63	0x3d8377db	0.06419345
64	0xbe1d3bb8	-0.15354812
65	0xbb2b28c7	-0.0026116834
66	0xbe213795	-0.15743859
67	0x3df124b9	0.117745824
68	0xbe3cb167	-0.18427049
69	0x3e20582b	0.15658633
70	0xbe21828a	-0.15772453
71	0xbd132551	-0.03592426
72	0xbd8cf521	-0.06882692
73	0x3cdf6ec9	0.027274506
74	0xbd42cf51	-0.047560994
75	0x3e37bc7b	0.17942993
76	0xbe114e95	-0.14190133
77	0x3dcf9523	0.101358674
78	0x3e0054c9	0.12532343
79	0xbd9d6f01	-0.07687188
80	0x3ca9c2b8	0.020722732
81	0xbbbaebc2	-0.005704374
82	0xbd93db75	-0.072195925
83	0x3bb682b3	0.00556978
84	0x3d9927f7	0.07478326
85	0xbde74e3d	-0.1129422
86	0xbdc57243	-0.09640934
87	0xbc7e0928	-0.015505113
88	0xbe06116e	-0.13092586
89	0x3cc7d380	0.024392843
90	0x3e153b87	0.14573489
91	0xbe2ada41	-0.1668482
92	0xbd3fbf7d	-0.046813477
93	0xbd1800b6	-0.037110053
94	0x3e1d821e	0.15381667
95	0xbe02219d	-0.12708135
96	0x3d452fa3	0.048141133
97	0xbe389a4b	-0.18027608
98	0x3d413c78	0.047176808
99	0x3cd66ef4	0.026175953
100	0x3d5810fa	0.052750565
101	0x3e19e15e	0.15027377
102	0xbd92181e	-0.07133506
103	0x3da19aa8	0.078908265
104	0xbe00ff6f	-0.1259744
105	0xbd1738e3	-0.036919486
106	0x3c0eea9d	0.008722928
107	0x3e0ffec3	0.14062028
108	0x3d661aeb	0.056178015
109	0xbc8c2995	-0.017109672
110	0x3c93e0b7	0.018051488
111	0xbe11a7db	-0.14224188
112	0x3d6f7f4b	0.058471005
113	0xbe3ceaff	-0.18449019
114	0x3e2c5a8a	0.16831413
115	0x3cb19b93	0.021680629
116	0xbe0774f0	-0.13228202
117	0x3c76a7a8	0.015054621
118	0x3e0e9615	0.13924439
119	0x3d4ea705	0.05045225
120	0x3e2f546a	0.17122045
121	0xbdbf2654	-0.093334824
122	0xbde99895	-0.11406056
123	0xbd3d6152	-0.04623539
124	0xbdfe02e0	-0.12402892
125	0xbc6be7c3	-0.014398518
126	0xbdfc3a71	-0.12315834
127	0xbdbc37c0	-0.09190321
128	0xbe14c664	-0.14528805
129	0x3e148cbd	0.14506812
130	0xbaa1c87b	-0.0012343073
131	0x3e11a2ad	0.14222212
132	0x3e3e09fe	0.18558499
133	0xbdaecbf5	-0.085349955
134	0x3e0b64ec	0.13612717
135	0x3ca40b88	0.02002503
136	0xbb75459c	-0.0037425524
137	0xbd80072e	-0.062513694
138	0xbe0297db	-0.12753241
139	0x3df05886	0.117356345
140	0x3e387616	0.18013796
141	0xbd9deda4	-0.07711342
142	0x3d93ae8a	0.07211025
143	0xbe35956e	-0.17732784
144	0x3c835ea3	0.016036337
145	0xbd950bea	-0.07277663
146	0x3d27fd60	0.04101312
147	0x3e052d73	0.13005619
148	0x3aff06c5	0.0019456974
149	0xbd818e79	-0.06326003
150	0x3d9cc759	0.0765521
151	0x3db64726	0.08900289
152	0x3d5ebcc7	0.05437925
153	0x3db4229d	0.087956645
154	0x3d600f23	0.054701935
155	0xbdb0e9a7	-0.08638316
156	0x3e0a6d34	0.1351822
157	0x3d92b3ad	0.07163177
158	0x3e171d6d	0.14757319
159	0xbe143b07	-0.14475642
160	0x3b81fbdf	0.003966793
161	0xbd065e5f	-0.032804843
162	0xbdecc02a	-0.1156009
163	0x3c38850f	0.011262192
164	0xbe3d03a8	-0.18458426
165	0x3df73406	0.120704696
166	0x3ca2cb25	0.019872257
167	0x3c864c0f	0.01639369
168	0xbe3d163a	-0.1846551
169	0xbdf31656	-0.118694946
170	0x3d9a91b3	0.07547321
171	0x3e365355	0.17805226
172	0x3e00a589	0.12563147
173	0x3ba6d75f	0.005091592
174	0x3dec6808	0.1154328
175	0x3d83ca6b	0.064350925
176	0x3d801102	0.06253244
177	0xbde3c090	-0.11120713
178	0xbc382e35	-0.011241485
179	0x3e15e11e	0.14636657
180	0xbd01f7ae	-0.031730346
181	0x3c7f71dd	0.015591112
182	0x3a49dcfa	0.00077004696
183	0xbc496ac9	-0.012293526
184	0x3e14bf2a	0.14526048
185	0x3d9a1e8d	0.07525358
186	0x3dc9e909	0.09858901
187	0xbd91eab9	-0.07124848
188	0xbda09779	-0.07841391
189	0x3de2ae13	0.11068358
190	0x3e37b63b	0.17940609
191	0x3de5e0b0	0.11224496
192	0xbd385bf5	-0.045009572
193	0xbd96ae0c	-0.073574156
194	0x3ca350d8	0.01993601
195	0xbe08f88f	-0.13376068
196	0x3e2f414b	0.17114751
197	0xbe169980	-0.14706993
198	0x3d5c48ba	0.053780295
199	0xbd384f2e	-0.044997387
200	0xbe316d0c	-0.17326754
201	0xbe156842	-0.14590552
202	0x3c89c083	0.01681543
203	0xbdadb46c	-0.08481678
204	0xbcefdff3	-0.029281592
205	0x3e12f51b	0.14351313
206	0x3d3fab91	0.046794478
207	0x3e21fb30	0.15818477
208	0x3cd56437	0.026048763
209	0xbe023358	-0.12714899
210	0xbc804c50	-0.015661389
211	0x3e0d6429	0.1380774
212	0xbba93537	-0.0051638144
213	0xbda1b3e4	-0.078956395
214	0xbddda6d5	-0.10822836
215	0x3bc34b15	0.005959878
216	0x3ddab051	0.10678161
217	0xbe382a4e	-0.17984888
218	0x3d9c46c5	0.07630686
219	0xbe14d29f	-0.1453347
220	0x3d580a3c	0.052744135
221	0xbdd90dba	-0.10598321
222	0x3e180723	0.14846472
223	0xbda5e23e	-0.08099793
224	0xbdbafcfd	-0.09130285
225	0x3df91a1d	0.12163184
226	0xbd860dab	-0.06545576
227	0x3ce2c42f	0.027681438
228	0xbe11b43a	-0.14228907
229	0x3d120b45	0.03565528
230	0xbdd8d911	-0.10588277
231	0x3d0ac89c	0.033882722
232	0x3dad547b	0.08463379
233	0x3df61e1f	0.12017464
234	0xbdadc1ff	-0.084842674
235	0xbe36ebe7	-0.17863427
236	0x3d22c409	0.039737735
237	0x3d12ad89	0.035810027
238	0xbddb930b	-0.107214056
239	0x3e05d593	0.13069753
240	0xbd7a81bf	-0.06115889
241	0xbd2a3a85	-0.041559715
242	0xbd17897d	-0.036996353
243	0xbe011aa8	-0.12607825
244	0xbdc7e9c5	-0.09761385
245	0x3dcbaa71	0.099446185
246	0xbc8ea49e	-0.01741248
247	0x3d085c59	0.033291195
248	0xbd2ae637	-0.041723456
249	0xbc0062c2	-0.007836046
250	0x3e3bf413	0.18354826
251	0xbe3ae283	-0.1825047
252	0x3d508e54	0.050916985
253	0xbe037826	-0.12838802
254	0xbe3ae428	-0.18251097
255	0xbe0bcdaa	-0.13652673

layer1.bias f4 [128]
0	0xbe13c2b6	-0.14429745
1	0xbe276cb5	-0.16350062
2	0x3e37af61	0.17937995
3	0x3e37b427	0.17939816
4	0x3db065e0	0.08613181
5	0xbdd4bfed	-0.103881694
6	0x3e2cff6d	0.16894312
7	0xbc1b552b	-0.009480755
8	0xbe37d0fb	-0.17950813
9	0x3cb2d590	0.02183035
10	0x3d536982	0.051614292
11	0x3dab13ef	0.083534114
12	0x3e26b910	0.16281533
13	0x3e18bef7	0.14916597
14	0xbe19ab53	-0.15006761
15	0x3e1305a9	0.14357628
16	0x3c9de6db	0.01927512
17	0xbe34093e	-0.1758165
18	0x3d7135fd	0.058889378
19	0xbe1cda7f	-0.15317725
20	0xbe282238	-0.16419303
21	0xbd9fa1aa	-0.07794507
22	0x3e046b0d	0.12931462
23	0x3dbd4a04	0.09242633
24	0x3c728c58	0.014803968
25	0xbe319d3f	-0.17345141
26	0xbce16707	-0.027514948
27	0xbcb28a37	-0.021794422
28	0xbd99cae0	-0.075093985
29	0x3e0233aa	0.12715021
30	0xbda67925	-0.08128575
31	0x3e150ac4	0.14554888
32	0x3d96a2d7	0.07355278
33	0x3c3e7839	0.011625343
34	0x3cf9828f	0.030457763
35	0xbe39b24b	-0.1813442
36	0x3d4c72a8	0.049914032
37	0x3ccc5ee1	0.024947586
38	0xbd523544	-0.05132033
39	0xbd8c4f43	-0.068510555
40	0x3df0cc54	0.117577225
41	0xbdde9039	-0.10867352
42	0xbcb0ed0c	-0.021597408
43	0xbd99ef44	-0.075163394
44	0x3e2c9dfc	0.16857141
45	0xbe3b88d0	-0.18313909
46	0xbdd67f78	-0.104735315
47	0x3e0087b4	0.12551767
48	0xbe1e805e	-0.15478656
49	0xbe36de39	-0.17858209
50	0xbe1e74f2	-0.15474299
51	0xbd3ece3a	-0.04658339
52	0x3e10a3fe	0.14125058
53	0xbe0d11f1	-0.13776375
54	0x3e335e8a	0.17516533
55	0x3dfce22b	0.123478256
56	0xbe172981	-0.14761926
57	0x3dd2c7e1	0.1029203
58	0xbdda5385	-0.10660461
59	0xbe2bca42	-0.16776374
60	0x3ded767d	0.115948655
61	0x3e31b0d0	0.17352605
62	0xbdb5124e	-0.08841382
63	0x3db5a414	0.08869186
64	0xbdf7a8db	-0.120927535
65	0x3d7dd1a1	0.061967496
66	0x3e08e2c4	0.13367754
67	0x3e24821b	0.16065256
68	0x3e28df19	0.16491355
69	0x3c9eda56	0.01939122
70	0xbe11171d	-0.14168973
71	0xbe17d739	-0.14828195
72	0x3d08c6be	0.03339266
73	0xbddd662a	-0.10810502
74	0x3cfc7dbb	0.030821672
75	0xba880f8e	-0.0010380612
76	0xbdedd77e	-0.116133675
77	0x3e2fd019	0.17169227
78	0x3d8eb4c9	0.06968076
79	0x3e3e4145	0.18579586
80	0xbd91a6d9	-0.07111902
81	0x3e330ca3	0.1748529
82	0xbdf94e1f	-0.121731035
83	0x3c79acfb	0.015238996
84	0x3cc03289	0.023461597
85	0x3dd95e40	0.1061368
86	0x3cb5a15f	0.022171674
87	0x3e32202f	0.1739509
88	0x3d06adba	0.032880522
89	0xbe0ca9b4	-0.13736612
90	0xbcfa7cca	-0.030577082
91	0x3daa9af3	0.083303355
92	0x3cd9a4f3	0.026567912
93	0x3b0722cc	0.0020620106
94	0xbd5dbd70	-0.05413574
95	0xbc51e981	-0.012812019
96	0xbdd71d66	-0.10503654
97	0xbd8447ab	-0.06458982
98	0x3db02f05	0.08602718
99	0x3dd77d7a	0.1052198
100	0x3ccd405c	0.025055103
101	0x3d9a2a79	0.07527632
102	0xbd131a8a	-0.03591398
103	0x3e2aa303	0.16663747
104	0x3ca07a87	0.019589676
105	0x3d24d0d6	0.040238224
106	0xbdf557f6	-0.11979668
107	0x3e0b746f	0.13618635
108	0xbd7f6c78	-0.062359303
109	0x3e018866	0.12649688
110	0xba901e65	-0.0010995386
111	0x3ccb60af	0.024826376
112	0xbdc916fd	-0.09818838
113	0x3cdbc04d	0.026825095
114	0x3e2f9a0b	0.17148606
115	0x3d990813	0.07472243
116	0x3e20d5db	0.1570658
117	0x3d91071a	0.07081433
118	0xbbc111c0	-0.0058920085
119	0xbe08a45c	-0.13343948
120	0xbd719ab6	-0.058985434
121	0xbd75b6d1	-0.0599888
122	0x3e023405	0.12715156
123	0xbdb43414	-0.087989956
124	0xbd0636d8	-0.032767147
125	0x3da3ec38	0.080040395
126	0xbdda6f34	-0.106657416
127	0xbda21a53	-0.07915177

layer2.weight f4 [256, 128]
0	0x3b8757db	0.0041303462
1	0x3d2d205b	0.042267185
2	0x3cc74dc7	0.02432908
3	0xbda400e0	-0.080079794
4	0x3d6404ae	0.055668525
5	0xbdab8a17	-0.08375948
6	0xbce89086	-0.028389227
7	0x3d37c4c1	0.044865374
8	0x3d9acba8	0.075583756
9	0xbd3c3347	-0.04594734
10	0xbd04b92a	-0.03240315
11	0xbc338259	-0.01095637
12	0x3d1b1710	0.03786379
13	0xbca43b13	-0.0200477
14	0xbd3ec3e4	-0.046573535
15	0x3d39af64	0.04533328
16	0xbd338435	-0.043827254
17	0xbbcf52f7	-0.006327029
18	0x3d375a66	0.044763945
19	0x3d6cc77a	0.057807423
20	0xbc3ae846	-0.011407917
21	0xbd9472d4	-0.07248464
22	0x3d41cf06	0.047316574
23	0xbd9681b9	-0.073489614
24	0xbd40ce56	-0.047071777
25	0xbd77b919	-0.060479257
26	0x3d09dfeb	0.03366081
27	0xbd33d206	-0.043901466
28	0x3d249337	0.040179458
29	0x3d69acac	0.05704944
30	0xbcd2f3d1	-0.025751026
31	0xbd6806c2	-0.05664707
32	0x3d6e056f	0.05811065
33	0x3d032942	0.03202177
34	0xbd0567a0	-0.032569528
35	0xbd6e4937	-0.058175292
36	0x3d113b86	0.035457157
37	0xbc8f4db1	-0.0174931
38	0x3d83e638	0.06440395
39	0xbd746a06	-0.059671424
40	0x3cdc64e3	0.026903575
41	0x3d2a827c	0.041628346
42	0x3d717da0	0.058957696
43	0xbdabf4a1	-0.08396269
44	0xbdb0b164	-0.086275846
45	0xbda02c1a	-0.07820912
46	0xbd8f3c5c	-0.069939345
47	0xbd096ea0	-0.033552766
48	0xbd3f46b5	-0.04669829
49	0xbd4070f8	-0.046982735
50	0xbc461b88	-0.012091525
51	0x3da98c85	0.08278755
52	0xbd877069	-0.066132374
53	0x3be7bbf6	0.0070719672
54	0xbd4efe48	-0.05053547
55	0x3d6c36c5	0.05766942
56	0xbcd070b3	-0.025444364
57	0x3daa2980	0.08308697
58	0xbd96d3e7	-0.07364636
59	0xbd004550	-0.0313161
60	0xbdb48e87	-0.088162474
61	0x3b114b9b	0.0022170309
62	0x3d5ea1b2	0.054353423
63	0xbd18337f	-0.037158486
64	0x3d02c613	0.03192718
65	0x3bed2f86	0.0072383313
66	0x3db14570	0.08655822
67	0xbc8e7d4f	-0.017393736
68	0x3c20b696	0.009809157
69	0x3c8d958a	0.01728322
70	0xbca15e79	-0.019698368
71	0x3c63be78	0.013900392
72	0x3da240e6	0.07922535
73	0x3cdb7c75	0.026792744
74	0xbc439e09	-0.011939534
75	0x3d32cc3a	0.043651797
76	0xbda45e5a	-0.08025809
77	0x3d9b4212	0.07580961
78	0x3bcf2374	0.006321365
79	0x3daaa599	0.083323665
80	0x3c66dede	0.014091222
81	0xbcf876b8	-0.030330047
82	0xbdab5df4	-0.083675295
83	0x3d70163e	0.05861496
84	0x3d3afb73	0.045649957
85	0xbb8d1d97	-0.004306506
86	0x3d950c7b	0.07277771
87	0x3d5f6394	0.054538324
88	0x3d376d0f	0.04478174
89	0x3c48dd28	0.012259759
90	0x3d9a5002	0.075347915
91	0xbcca7372	-0.024713252
92	0xbd6f99d5	-0.058496315
93	0x3d023cf1	0.0317964
94	0x3bbf7a6e	0.005843452
95	0xbd663c96	-0.056210123
96	0xbcea54a2	-0.02860481
97	0xbc8ceeaa	-0.017203648
98	0x3d00c29b	0.03143559
99	0x38f4b287	0.0001166808
100	0xbceed8fb	-0.029156199
101	0xbc3fafd6	-0.011699637
102	0x3d9cbf99	0.07653732
103	0x3d133710	0.035941184
104	0x3d49e07f	0.04928636
105	0xbd936a40	-0.07198
106	0xbd7d28ae	-0.061806373
107	0xbdb4d730	-0.08830106
108	0x3d6fc24c	0.058534905
109	0xbd92c24e	-0.07165967
110	0x3d8de1f2	0.06927861
111	0xbccba126	-0.024857115
112	0xbd572040	-0.05252099
113	0xbd8591f5	-0.0652198
114	0x3d254802	0.040351875
115	0x3ca559c5	0.020184407
116	0xbda3a26d	-0.07989965
117	0x3d0b8a17	0.03406724
118	0xbb81c5a8	-0.00396033
119	0xbbad4b82	-0.0052885422
120	0x3d64bf00	0.055846214
121	0xbda0d66f	-0.078534
122	0x3d8d3a94	0.068959385
123	0xbd62b581	-0.055348877
124	0x3d96b44a	0.07358606
125	0x3bbd0895	0.0057688453
126	0x3cfea816	0.031086009
127	0xbcc4c79c	-0.024020962
128	0xbb51d9a2	-0.0032020588
129	0x3cc021bc	0.023453586
130	0x3c7fbbe7	0.015608764
131	0xbd5ebe98	-0.054380983
132	0x3daa4ce5	0.08315448
133	0x3d90418b	0.07043751
134	0xbd9d18a7	-0.07670718
135	0x3d4d106d	0.050064493
136	0x3d47f282	0.048815258
137	0xbd1cb3fb	-0.03825758
138	0xbc9d7eaf	-0.019225447
139	0xbdab6908	-0.083696425
140	0x3dae4cc3	0.08510735
141	0x3d3d41e0	0.0462054
142	0xbc5307dd	-0.012880293
143	0x3d80a3f6	0.06281273
144	0x3dacd8dd	0.08439801
145	0xbd0a240e	-0.03372579
146	0x3b5d15f2	0.0033735004
147	0x3d2389f0	0.03992647
148	0x3daba8cb	0.08381804
149	0xbd8bf158	-0.06833142
150	0x3d89be57	0.067257576
151	0x3da88bbe	0.08229779
152	0xbd492ae1	-0.049113158
153	0x3d8927ad	0.06697021
154	0xbd4be336	-0.049777232
155	0xbd8ee3d9	-0.06977052
156	0xbcb3cb65	-0.021947572
157	0xbd8aa789	-0.06770236
158	0xbd74dba8	-0.059779793
159	0xbca6a45a	-0.02034204
160	0xbb922943	-0.004460485
161	0x3d954221	0.07288004
162	0xbd4a2c22	-0.049358495
163	0xbc312d0e	-0.0108139645
164	0xbdaed9de	-0.085376486
165	0x3db2693f	0.0871148
166	0x3cebb316	0.028771918
167	0x3daf139b	0.08548661
168	0x3da712f7	0.08157914
169	0xbd0c3de4	-0.03423871
170	0xbdb1391a	-0.086534694
171	0x3d2c3690	0.042044222
172	0xbd424735	-0.04743119
173	0xbd9690fc	-0.07351872
174	0xbd3880f8	-0.04504487
175	0x3d8cb67b	0.06870743
176	0x3d88fe66	0.06689148
177	0xbcad8276	-0.021180373
178	0x3c11d635	0.008901169
179	0x3b444cc7	0.002995299
180	0x3db04441	0.086067684
181	0x3d11105a	0.035415985
182	0xbd188859	-0.037239406
183	0xbd8036e7	-0.06260472
184	0x3d14337e	0.03618192
185	0xbd6135fb	-0.05498312
186	0x3cb0da1b	0.021588376
187	0x3bd8d3db	0.006617052
188	0x3caec57a	0.021334399
189	0xbd488f42	-0.048964746
190	0x3d83d799	0.06437606
191	0x3cdf6237	0.027268512
192	0xbd931b2e	-0.071829185
193	0x3d142601	0.036169056
194	0x3d608a82	0.05481959
195	0x3d9b8407	0.075935416
196	0xbd764da8	-0.060132653
197	0xbb2e110a	-0.002656045
198	0x3c92ca00	0.017918587
199	0xbd17c114	-0.037049368
200	0xbd2c8f4f	-0.042128857
201	0x3d85627a	0.065129235
202	0xbcaa92fe	-0.020822044
203	0x3d795005	0.06086733
204	0x3d5c18a4	0.053734437
205	0x3d032640	0.0320189
206	0xbd9935d5	-0.07480971
207	0xbc6546b6	-0.01399391
208	0x3d8e32d2	0.06943287
209	0x3db493e3	0.0881727
210	0x3d9e0c3e	0.07717179
211	0x3d67468f	0.056463774
212	0xbc958b15	-0.018254796
213	0xbc2a78ec	-0.010404807
214	0xbc85d736	-0.016337972
215	0xbba0c2f4	-0.0049060527
216	0x3c1bedb1	0.009517119
217	0xbd2628e0	-0.040566325
218	0x3d6228e9	0.055214796
219	0xbdb52b81	-0.08846188
220	0xbd990026	-0.074707314
221	0x3d73e42a	0.059543766
222	0x3cf4a4fe	0.02986383
223	0xbd6a6649	-0.057226453
224	0x3c12acb1	0.008952306
225	0xbda7cb2e	-0.0819305
226	0x3cdb4a2f	0.026768772
227	0x3d390c90	0.045177996
228	0xbca624c9	-0.020281212
229	0xbda527ea	-0.08064254
230	0x3d254380	0.040347576
231	0xbda2ab37	-0.07942813
232	0x3d95a4f7	0.07306855
233	0x3d84d1a3	0.064852975
234	0x3d7321f9	0.05935857
235	0x3d9a77c7	0.07542377
236	0xbd99024f	-0.074711435
237	0xbd992b0e	-0.07478915
238	0x3c9a943d	0.018869514
239	0xbc9d4f1b	-0.01920276
240	0xbdb0e671	-0.08637703
241	0x3d9e8a46	0.07741217
242	0x3d0c9eb3	0.034331035
243	0xbd8ddd56	-0.06926982
244	0xbd6f80d5	-0.058472473
245	0x3d97d398	0.07413405
246	0x3c97dd93	0.018538272
247	0xbd2ee65e	-0.042700164
248	0xbb9b4395	-0.004738281
249	0x3d97ff58	0.0742175
250	0xbcd9922c	-0.026558958
251	0xbbd6578c	-0.006541198
252	0x3c2de9f7	0.010614864
253	0xbd2d4e74	-0.042311147
254	0x3cca79a0	0.024716198
255	0xbd94a10e	-0.07257281

layer2.bias f4 [256]
0	0xbc33da6e	-0.010977371
1	0xbd1bb9ce	-0.038018994
2	0xbc9ece24	-0.019385405
3	0x3cae3a49	0.021268027
4	0x3d2cb7a2	0.042167313
5	0xbd087528	-0.033314854
6	0xbcf32e46	-0.02968515
7	0xbd70b1b0	-0.058763206
8	0x3cf9126a	0.030404288
9	0xbb9dd061	-0.0048161005
10	0xbcf86637	-0.030322177
11	0x3d1e7dd2	0.03869421
12	0xbd9fbc73	-0.07799616
13	0x3cf6a8c2	0.030109767
14	0x3da9bea8	0.08288318
15	0x3b545efe	0.0032405253
16	0x3d2cf842	0.042228945
17	0x3d394404	0.04523088
18	0xbc45b520	-0.012067109
19	0x3dafbf09	0.08581359
20	0x3ccf3778	0.025295004
21	0xbd3e6a88	-0.046488315
22	0xbcc944f2	-0.024569008
23	0xbcf4c0b0	-0.029877037
24	0xbd318b82	-0.043345936
25	0xbd925be8	-0.07146436
26	0xbd5760b8	-0.052582473
27	0x3d534310	0.051577628
28	0x3d4e0e67	0.050306704
29	0x3cf19cf6	0.02949379
30	0xbd42e9ac	-0.047586128
31	0xbc66f557	-0.0140965795
32	0xbd96dc97	-0.07366293
33	0xbd340463	-0.043949496
34	0xbc431f0d	-0.011909259
35	0x3d88ad4b	0.06673678
36	0xbda56bd8	-0.0807721
37	0x3d5b5183	0.053544533
38	0x3c72f687	0.0148292845
39	0xbd623f94	-0.055236414
40	0xbd89977c	-0.067183465
41	0xbd3d9270	-0.04628223
42	0x3cb081c0	0.021546245
43	0xbd969aa8	-0.07353717
44	0x3d2c1261	0.042009715
45	0x3d8ce810	0.068802
46	0xbd9f91b0	-0.077914596
47	0x3d94a17d	0.07257364
48	0xbd1a9ae0	-0.037745357
49	0x3cf47566	0.029841136
50	0xbd9f9f85	-0.07794098
51	0xbd75211b	-0.059846025
52	0xbd148c55	-0.036266644
53	0x3d9b2660	0.07575679
54	0xbd44c609	-0.048040424
55	0x3d9d0578	0.07667059
56	0x3c034a60	0.008013338
57	0x3cc755c1	0.024332883
58	0x3d93262a	0.071850136
59	0xbda26862	-0.07930066
60	0xbd14b2a0	-0.036303163
61	0x3d2718f2	0.040795274
62	0xbd9663f4	-0.07343283
63	0x3c586a97	0.013209007
64	0x3d018e8d	0.031630088
65	0x3d853557	0.065043144
66	0x3c505cf1	0.012717471
67	0xbd26aa65	-0.040689845
68	0xbc78c2d8	-0.015183173
69	0xbcf5fb3b	-0.030027023
70	0xbd85ac4c	-0.06527004
71	0x3d3312ee	0.043719225
72	0x3cd48a88	0.025944963
73	0x3cc1675f	0.023608861
74	0x3cf0df23	0.029403275
75	0x3d5d46e6	0.054022692
76	0x3d032a64	0.03202285
77	0xbc49357a	-0.012280816
78	0xbd601d17	-0.054715242
79	0xbd030985	-0.0319915
80	0x3d042120	0.032258153
81	0xbd880d13	-0.06643119
82	0x397334cf	0.00023193959
83	0xbbd5782a	-0.006514569
84	0xbc58ded6	-0.013236722
85	0xbd54f205	-0.05198862
86	0x3d6aab6b	0.057292383
87	0x3d61c94b	0.05512361
88	0xbd65ccfa	-0.056103684
89	0xbd64fc7b	-0.055904847
90	0x3c59841a	0.013276124
91	0xbd1c4b5d	-0.03815781
92	0x3d2a9347	0.04164436
93	0x3dac417d	0.084109284
94	0xbb31188e	-0.0027022692
95	0xbd429522	-0.047505505
96	0xbc616f5a	-0.013759458
97	0x3d23bf7b	0.039977532
98	0x3d87ae30	0.066250205
99	0xbd8e39cf	-0.0694462
100	0x3d88cf93	0.06680217
101	0x3d7be8f1	0.061501447
102	0x3bf862b2	0.007580125
103	0xbd910501	-0.070810325
104	0xbc992769	-0.01869555
105	0x3d4c768e	0.04991775
106	0xbb769e46	-0.003763096
107	0xbc7f6a90	-0.015589371
108	0xbc959084	-0.018257387
109	0x3d91b690	0.07114899
110	0xbdb4f71b	-0.08836194
111	0xbc1a150d	-0.009404433
112	0xbd3fc1a6	-0.046815537
113	0x3c4a8d3f	0.012362777
114	0x3af788e1	0.0018885398
115	0x3c537fff	0.012908935
116	0xbcb5b94d	-0.022183085
117	0x3d4fb643	0.050710928
118	0xbd34956a	-0.044087805
119	0x3a0d80e8	0.00053979317
120	0xbd981fa8	-0.07427913
121	0xbd4d5d8a	-0.050138034
122	0x3da9a60d	0.08283625
123	0xbd72e9cf	-0.05930501
124	0x3c409274	0.011753667
125	0x3c7c87d6	0.015413245
126	0x3d57f7ae	0.05272644
127	0x3c8871a4	0.01665575
128	0xbd925c32	-0.07146491
129	0x3d327942	0.04357267
130	0xbd80654b	-0.0626932
131	0x3db0c934	0.086321265
132	0x3d18232f	0.03714293
133	0xbd15042f	-0.036380943
134	0x3d177462	0.036976226
135	0xbda3d142	-0.07998897
136	0x3d9e3e48	0.07726723
137	0xbd792f8c	-0.06083636
138	0xbd08bc58	-0.033382744
139	0xbd5d0ac6	-0.053965352
140	0x3b925621	0.004465834
141	0xbda3a679	-0.079907365
142	0x3cabf55f	0.020991025
143	0x3d6f2ebb	0.058394175
144	0x3d9fe448	0.07807213
145	0x3d265bcf	0.0406149
146	0xbd9a2355	-0.0752627
147	0xbda9a7df	-0.08283972
148	0xbd111a26	-0.035425328
149	0x3da73f55	0.081663765
150	0x3d846ac3	0.06465676
151	0xbd9a5719	-0.07536144
152	0x3d53d790	0.05171925
153	0xbdb065db	-0.086131774
154	0xbc1bdc7b	-0.009513016
155	0x3d2d90bd	0.04237436
156	0x3d97adf1	0.074062236
157	0xbd0f2da3	-0.034955632
158	0xbd2b7d30	-0.041867435
159	0xbc3c4fd4	-0.011493642
160	0xbdb24787	-0.08705049
161	0xbd460763	-0.04834689
162	0xbd1dae96	-0.038496576
163	0x3c39eec3	0.011348429
164	0x3c8fb25d	0.017541105
165	0x398a460d	0.00026373603
166	0xbd5b9fae	-0.05361908
167	0xbd0eeb56	-0.034892403
168	0x3a168482	0.0005741791
169	0x3b9a8733	0.004715824
170	0x3d54d8d1	0.051964585
171	0xbd96acea	-0.073571995
172	0xbb7c3ab8	-0.0038487148
173	0xbd7c97e9	-0.06166831
174	0x3dae184a	0.085007265
175	0x3d45294d	0.04813509
176	0x3d072f99	0.033004377
177	0x3d33c9d3	0.043893646
178	0xbd434c97	-0.047680464
179	0x3d1cd44b	0.038288396
180	0xbcb85356	-0.022500675
181	0x3db24201	0.087039955
182	0xbdb038cf	-0.086045854
183	0x3d80d7a3	0.062911294
184	0x3b930536	0.004486705
185	0xbd8086b0	-0.062756896
186	0x3d88b474	0.06675044
187	0x3d07c7d7	0.033149567
188	0x3c470700	0.012147665
189	0x3da2da11	0.07951749
190	0x3daed709	0.085371085
191	0xbd146563	-0.036229502
192	0x3c9643cb	0.018342873
193	0x3bdc8ae8	0.006730426
194	0xbd0a1e91	-0.033720557
195	0x3d019ed1	0.0316456
196	0x3bd8e369	0.0066189063
197	0xbd712097	-0.05886897
198	0x3b1c2481	0.002382547
199	0x3bcc00bb	0.006225673
200	0xbd2bd58c	-0.0419517
201	0xbd67888f	-0.056526717
202	0x3d64752b	0.055775803
203	0x3daec163	0.08532979
204	0x3d966677	0.07343762
205	0xbda9be86	-0.082882926
206	0x3d9be10f	0.07611286
207	0xbc606702	-0.013696434
208	0x3da4e1a0	0.08050847
209	0xbd856575	-0.06513492
210	0x3d2a5767	0.04158726
211	0x3d9159ae	0.07097183
212	0x3b0002a8	0.0019532833
213	0x3d39a333	0.045321655
214	0x3d814749	0.06312425
215	0xbd683420	-0.056690335
216	0xbdae88d2	-0.0852219
217	0xbd283922	-0.04107011
218	0xbd675898	-0.056480974
219	0x3beb1983	0.007174672
220	0xbda82d51	-0.082117684
221	0x3b778bf2	0.0037772623
222	0x3d8f07ee	0.06983934
223	0x3cf219f1	0.029553385
224	0x3d7730c6	0.06034925
225	0xba6f0069	-0.00091171876
226	0x3d94ddbf	0.07268857
227	0x3d8ac139	0.067751355
228	0x3d9127e2	0.07087685
229	0xbb34ca49	-0.0027586392
230	0xbb0f24c6	-0.0021841987
231	0x3c1dd5c3	0.009633484
232	0xbd3f332e	-0.046679668
233	0x3d920966	0.07130699
234	0x3d54dd17	0.05196866
235	0xbd14f777	-0.036368813
236	0xbd7f499c	-0.06232606
237	0x3bab382f	0.0052252035
238	0xbb023d69	-0.001987303
239	0xbd66f7a3	-0.05638851
240	0xbdb2909f	-0.087189905
241	0xbd92b358	-0.07163113
242	0x3c6b2741	0.014352621
243	0x3d10c96b	0.035348337
244	0x3c5f9d1a	0.013648296
245	0x3caa540e	0.020792034
246	0x3d8a9dcf	0.06768381
247	0x3c9276f4	0.017878987
248	0x3c25aa8b	0.010111461
249	0x3c6eb6f5	0.014569988
250	0xbd87f39f	-0.06638264
251	0x3da0ef28	0.078581154
252	0x3b5075b1	0.003180843
253	0xbd014438	-0.0315592
254	0x3d9990a9	0.07498295
255	0x3d8bca56	0.06825702

layer3.weight f4 [256, 256]
0	0x3c97ec7b	0.01854538
1	0x3be4b42e	0.006979487
2	0xbcf80664	-0.030276485
3	0xbd3943c9	-0.04523066
4	0x3d7ac3bc	0.061221823
5	0x3bb1f8c7	0.005431268
6	0xbd15cf4c	-0.036574647
7	0x3afc65b5	0.0019256385
8	0xba876228	-0.0010328935
9	0xba812493	-0.0009852819
10	0xbd772b3e	-0.060343973
11	0xbd150f00	-0.03639126
12	0x3a1fcb42	0.00060956564
13	0xbd51af43	-0.051192533
14	0x3d63eca7	0.05564561
15	0xbad4782d	-0.0016210132
16	0x3d77d7f1	0.060508672
17	0xbd582cf7	-0.052777257
18	0xbd085a9d	-0.03328954
19	0xbd09eea0	-0.033674836
20	0x3d6571a2	0.05601657
21	0x3d7bc24a	0.061464585
22	0x3bd02199	0.0063516614
23	0xbd56a96b	-0.052407663
24	0xbd6d77d6	-0.057975613
25	0xbd2329d9	-0.03983483
26	0xbb47b60d	-0.00304735
27	0xbd6e9149	-0.058244023
28	0xbcef5f68	-0.029220298
29	0x3d1709a8	0.036874443
30	0xbc3b86cb	-0.011445711
31	0xbd1144ab	-0.035465878
32	0xbd6c50c9	-0.05769423
33	0xba8bd4a0	-0.0010668226
34	0xbd4c1232	-0.04982204
35	0xbd024e55	-0.031812984
36	0x3d5c5018	0.05378732
37	0x3b8026ad	0.0039108605
38	0x3d5d7170	0.05406326
39	0xbcf4ce50	-0.029883534
40	0x3aad6785	0.0013229704
41	0x3c82f1b8	0.015984401
42	0xbd2455fb	-0.04012106
43	0xbcabde0e	-0.020979907
44	0x3cda26b6	0.026629787
45	0xbcfc7eaa	-0.030822117
46	0x3d0f49b4	0.0349824
47	0x3bf22a38	0.007390287
48	0x3c8390ae	0.0160602
49	0xbd658514	-0.056035116
50	0xbb1412a9	-0.002259413
51	0x3d5b6630	0.05356425
52	0x3d78357a	0.060597874
53	0x3c9706c3	0.018435841
54	0x3d19858d	0.03748088
55	0x3d056216	0.032564245
56	0xbc8d3a90	-0.017239839
57	0x3d0feccf	0.035137948
58	0xbd79b5bc	-0.06096433
59	0xbd3feb0e	-0.046855025
60	0x3cb4338d	0.021997238
61	0xbc56d5c2	-0.013112487
62	0xbc537397	-0.012905977
63	0xbc318164	-0.010834072
64	0x3d7f657e	0.06235265
65	0x3cf749e1	0.030186595
66	0xbb5f13bc	-0.0034038862
67	0x3d2c17f6	0.04201504
68	0x3d158c31	0.03651065
69	0x3ce967fb	0.028491965
70	0x3cf90906	0.03039981
71	0x3d56ed08	0.052472144
72	0x3ca0e71c	0.019641452
73	0xbd008c7e	-0.031383984
74	0x3d3f5fee	0.046722345
75	0xbbd1b78d	-0.006400055
76	0xbca65b02	-0.020307068
77	0xbd2e92c3	-0.04262043
78	0xbd70a156	-0.058747612
79	0xbd21f8a4	-0.039543763
80	0x3d71b112	0.059006758
81	0xbd5cb815	-0.05388649
82	0xbd3e7716	-0.046500288
83	0x3ca33c30	0.01992616
84	0xbce84783	-0.028354412
85	0xbd1cd10a	-0.038285293
86	0xbd42ac02	-0.04752732
87	0xbd509c44	-0.050930277
88	0xbb8320d7	-0.0040017175
89	0x3ca88b6b	0.020574292
90	0xbc16710b	-0.009182225
91	0x3d3940c5	0.045227785
92	0x3ce3b235	0.027794937
93	0x3ca81497	0.02051763
94	0xbca2a706	-0.019855034
95	0x3d7678a9	0.060173664
96	0x3d244b70	0.040111005
97	0xbc9062d1	-0.017625244
98	0x3b02532e	0.0019886005
99	0xbd712f17	-0.0588828
100	0x3bde543a	0.006784943
101	0x3cb71238	0.022347555
102	0xbc80880c	-0.015689872
103	0xbcf99dbf	-0.030470727
104	0xbc8e5d8c	-0.017378591
105	0x3cff8bbe	0.031194564
106	0xbc609211	-0.0137067
107	0x3c35109a	0.011051321
108	0x3c1e2921	0.009653361
109	0x3d490075	0.0490727
110	0x3d4cce05	0.050001163
111	0x3cf86e00	0.03032589
112	0x3d5e58ce	0.05428391
113	0xbb8dd96b	-0.0043288968
114	0x3c91888c	0.017765306
115	0xbd6796d9	-0.056540344
116	0x3d31c4ba	0.043400504
117	0x3cab1740	0.02088511
118	0xbba23ccc	-0.004951095
119	0x3c97bb02	0.01852179
120	0x3d023522	0.031788953
121	0x3bd90f53	0.0066241412
122	0x3d6b639d	0.057468046
123	0xbd49d8a1	-0.04927886
124	0xbc16dd28	-0.009208001
125	0x3c0c6ce2	0.008570882
126	0x3cc24a8c	0.023717187
127	0x3c0180e6	0.007904267
128	0xbd5344bd	-0.051579226
129	0xbc980269	-0.018555837
130	0x3d6b8fdd	0.057510246
131	0xbcfdac6d	-0.030966008
132	0x3d5140ef	0.051087316
133	0xbc12eccb	-0.008967589
134	0xbb9a0a06	-0.004700902
135	0x3cbcdd0c	0.023054622
136	0xbd50d586	-0.05098488
137	0x3bd2eb62	0.006436751
138	0x3d15ef09	0.036604915
139	0x3cdbecc1	0.026846291
140	0x3d6b282f	0.05741137
141	0xbd487bd6	-0.048946224
142	0x3d1a0c49	0.037609372
143	0xbd63e1b9	-0.055635188
144	0x3d6adcd2	0.057339497
145	0x3d42813f	0.04748654
146	0x3d412b1f	0.047160264
147	0x3d14e552	0.03635151
148	0x3d722727	0.05911937
149	0xbd086f9c	-0.033309564
150	0x3d5ca453	0.05386765
151	0x3a547a5e	0.00081053923
152	0xbcc00ac3	-0.023442632
153	0xbd30e93f	-0.04319119
154	0xbd70d281	-0.058794502
155	0xbd008296	-0.031374536
156	0xbd2c630d	-0.04208665
157	0x3c88702c	0.01665505
158	0xbc29f4b9	-0.010373288
159	0xbd2835f7	-0.04106709
160	0xbc896902	-0.016773704
161	0x3c5a1237	0.013310007
162	0xbc16da50	-0.009207323
163	0x3c0f01f4	0.008728493
164	0xbd2788ba	-0.040901877
165	0xbc96dcc5	-0.018415818
166	0xbbb0158f	-0.0053736637
167	0xbae79223	-0.0017667454
168	0x3ccaec0c	0.024770759
169	0xbd7c16e0	-0.061545253
170	0xbd37f499	-0.044911
171	0x3b9cc220	0.0047838837
172	0xbd60d8ef	-0.054894384
173	0xbd420cd8	-0.04737553
174	0xbd124178	-0.035706967
175	0xbc859ed6	-0.01631109
176	0xbc85cf3d	-0.01633417
177	0x3d37f5df	0.044912215
178	0x3d425e3e	0.047453158
179	0xbca536cf	-0.020167736
180	0x3c8aa5eb	0.016924819
181	0x3ca21a44	0.019787915
182	0xbcd44b65	-0.025914857
183	0xbd7a5ecf	-0.061125573
184	0xbd6c26c2	-0.05765415
185	0x3ce6b1af	0.028160898
186	0x3bfc440f	0.007698543
187	0xbd0833c4	-0.033252493
188	0x3d20ce7c	0.03925942
189	0x3d562fc6	0.052291654
190	0xbd7f4fa6	-0.062331818
191	0x3c7b2fcd	0.015331221
192	0x3d6eb745	0.05828025
193	0xbd6404c1	-0.055668596
194	0x3d13f0eb	0.03611843
195	0xbd720a10	-0.059091628
196	0x3d33bfe5	0.043884177
197	0xbc91922b	-0.017769894
198	0xbd75873d	-0.059943426
199	0xbd1209b0	-0.03565377
200	0xbd3f2d59	-0.046674106
201	0xbd4e542f	-0.050373252
202	0xbd5a88bb	-0.053353053
203	0x3d36bca1	0.044613484
204	0xbca57fbe	-0.020202514
205	0xbd36bb78	-0.044612378
206	0xbcb05c53	-0.021528399
207	0x3cc40b8b	0.023931285
208	0x3cf278c1	0.029598596
209	0xbd70b348	-0.058764726
210	0x3d3b63b9	0.0457494
211	0xbd292955	-0.041299183
212	0xbc120010	-0.008911148
213	0x3b2d5612	0.0026449007
214	0x3d2ef778	0.042716473
215	0x3a742009	0.0009312635
216	0x3d7c364a	0.06157521
217	0xbcf99b2e	-0.030469503
218	0x3bbae457	0.0057034898
219	0x3d3658a0	0.044518113
220	0x3d30716a	0.04307691
221	0x3c7b8589	0.0153516615
222	0xbc29d9ed	-0.010366899
223	0xbc76664c	-0.015039038
224	0x3d11129e	0.035418145
225	0xbc910be6	-0.017705869
226	0x3d08360d	0.03325467
227	0xbd365a15	-0.044519503
228	0x3d147421	0.03624356
229	0x3ca773e1	0.020440998
230	0xbd68feb9	-0.056883547
231	0x3c78222e	0.015144868
232	0x3ce1adbb	0.027548661
233	0x3d00dec7	0.031462457
234	0x3d7b0ea4	0.06129326
235	0xbd60f0ef	-0.054917272
236	0xbc9a2d01	-0.018820288
237	0xbcc5d5d4	-0.024149813
238	0x3d024b5e	0.031810157
239	0xbc977fe4	-0.0184936
240	0x3c659d15	0.014014502
241	0xbd5ecb7f	-0.054393288
242	0xbc3975a1	-0.011319549
243	0x3d6a5ef1	0.05721945
244	0xbc01ff75	-0.007934441
245	0x3d7627fd	0.06009673
246	0xbb0f543e	-0.002187028
247	0xbcee1796	-0.029063981
248	0xbd41cb38	-0.047312945
249	0xbd446365	-0.047946353
250	0x3a86a0d5	0.001027132
251	0x3c66121f	0.014042406
252	0x3cb9e385	0.022691498
253	0x3c2fc22c	0.0107274465
254	0x3d7d4066	0.061828993
255	0x3d099760	0.033591628

layer3.bias f4 [256]
0	0x3d00f143	0.031480085
1	0xbd304c21	-0.043041352
2	0x3be6da5a	0.0070450725
3	0x3cee453e	0.029085752
4	0xbd7b8bb0	-0.061412513
5	0x3cf153ab	0.029458841
6	0xbceb719a	-0.028740693
7	0xbb82dba9	-0.0039934707
8	0xbc1083b3	-0.008820462
9	0xbd3cb28c	-0.046068713
10	0x3d328820	0.04358685
11	0x3d7a44d9	0.061100814
12	0xbc68eb51	-0.01421626
13	0x3d0377a6	0.032096528
14	0xbb84edfa	-0.0040566893
15	0xbcc141a0	-0.023590863
16	0x3d657aa1	0.05602515
17	0xbcaaef8a	-0.020866174
18	0x3d2a95f6	0.04164692
19	0xbd343268	-0.043993384
20	0xbccdd85b	-0.02512758
21	0x3d790b39	0.06080172
22	0x3d33adb5	0.04386683
23	0x3b964d88	0.004586879
24	0x3d2a2805	0.04154207
25	0xbd482e77	-0.048872437
26	0x3bf7d795	0.007563541
27	0x3d524828	0.051338345
28	0xbd382064	-0.044952765
29	0xbd36abb6	-0.04459735
30	0xbb002e69	-0.0019558913
31	0xbd0dd942	-0.03463102
32	0x3b03d7ef	0.002011772
33	0x3c2b3e32	0.01045184
34	0xbc95f17b	-0.018303623
35	0x3c2618f9	0.01013779
36	0xbcc9f226	-0.024651598
37	0x3d695d53	0.056973767
38	0x3d21b91a	0.039483167
39	0x3d46aa66	0.04850235
40	0xbd36dd47	-0.04464462
41	0xbba8c6bf	-0.0051506455
42	0x3d633225	0.055467743
43	0xbc72c11e	-0.014816551
44	0xbc90bbaf	-0.01766762
45	0x3c8a0d28	0.016851977
46	0xbcf72f14	-0.030173816
47	0x3d35ba1e	0.04436695
48	0x3b1b21c6	0.0023671254
49	0xbc2640cb	-0.010147284
50	0xbd331f01	-0.04373074
51	0xbd0bbb75	-0.03411432
52	0xbd4f4c7c	-0.05061005
53	0x3cc6fccd	0.024290467
54	0x3d4c5765	0.049888033
55	0xbcf5df2d	-0.030013645
56	0xbd2804f2	-0.04102034
57	0x3d1e9917	0.038720217
58	0x3d5ca79a	0.053870775
59	0xbd7398ee	-0.059472017
60	0x3cc1e649	0.023669379
61	0xba5af768	-0.00083529064
62	0xbb9d3782	-0.004797877
63	0x3cd44c70	0.025915354
64	0x3d1a787e	0.037712567
65	0x3d05d0a3	0.032669675
66	0x3cd202b7	0.02563606
67	0xbceefcf9	-0.029173361
68	0x3c9f86d4	0.01947347
69	0x3cdd127e	0.026986357
70	0xbb62f835	-0.0034632806
71	0xbd644dcb	-0.05573825
72	0x3d56aac7	0.05240896
73	0x3c70b379	0.014691227
74	0xbc15b21f	-0.009136706
75	0x3d70a7fc	0.058753952
76	0x3ca5cc22	0.02023894
77	0xbd289357	-0.04115614
78	0x3c499d30	0.012305543
79	0xbcba7e0d	-0.022765184
80	0xbd10f043	-0.03538538
81	0x3d22c241	0.039736036
82	0xbca373da	-0.019952703
83	0xbbc5051e	-0.006012573
84	0xbaef29da	-0.0018246726
85	0x3b82f19c	0.0039960872
86	0xbd32d5d3	-0.04366095
87	0xbd4db837	-0.05022451
88	0x3d5a1999	0.053247068
89	0x3c3763e4	0.011193249
90	0xbc4453a6	-0.011982834
91	0xbd541ee0	-0.051787257
92	0xbccace5c	-0.024756603
93	0x3ca725c2	0.020403747
94	0x3c7486d0	0.01492472
95	0xb73901c5	-1.1027271e-05
96	0x3c88c583	0.016695743
97	0xbcc6b702	-0.024257187
98	0x3d599e11	0.05312926
99	0xbd1af42f	-0.037830528
100	0x3c8470d6	0.016167086
101	0xbd1e41d4	-0.038636997
102	0xbd0a77b8	-0.03380558
103	0x3d0514a1	0.032490376
104	0xbce144cd	-0.027498627
105	0x3d6f4c91	0.05842263
106	0x3c9f9d10	0.019484073
107	0x3d2aaead	0.04167049
108	0x3c850f9f	0.0162428
109	0xbd2330a5	-0.039841313
110	0x3cb15dcf	0.021651177
111	0x3cea7db9	0.028624402
112	0x3ac68ff4	0.0015149103
113	0xbce77cee	-0.028257813
114	0x3d61f2e4	0.05516328
115	0x3919189f	0.00014600389
116	0x3d1b2906	0.03788092
117	0x3d651e40	0.05593705
118	0xbcbcf06b	-0.023063859
119	0xbc6887de	-0.0141925495
120	0xbced7b80	-0.028989553
121	0x3d0ad496	0.033894144
122	0xbd733a93	-0.059382033
123	0x3cbee1ae	0.023300972
124	0xbcb82e66	-0.022483062
125	0x3d057b5a	0.03258834
126	0xbd08bccb	-0.033383172
127	0xbd08311f	-0.03324997
128	0xbd10dd9b	-0.03536759
129	0x3cd4a2d6	0.025956552
130	0xbc4f52e8	-0.012654044
131	0x3cecb57f	0.028895138
132	0xbd6e9a6c	-0.058252737
133	0x3c4d92f9	0.012547248
134	0xbd369b61	-0.044581775
135	0xbd5a289b	-0.05326138
136	0xbaa54fb0	-0.001261225
137	0xbc97d7a8	-0.01853545
138	0x3d78fb9d	0.060786832
139	0xbd30ae9f	-0.04313528
140	0xbd4c4ca2	-0.04987777
141	0xbc98d42f	-0.018655865
142	0x3c09117f	0.008365988
143	0xbce73d14	-0.028227367
144	0xbd4cbfb5	-0.049987514
145	0x3cc7bafe	0.024381157
146	0xbcc01ce7	-0.023451282
147	0x3c76a6bc	0.015054401
148	0x3d3b67d9	0.045753334
149	0x3ad6bbe5	0.0016382901
150	0xbd1abafd	-0.037775982
151	0xbd4ae258	-0.049532264
152	0x3c53346d	0.012890917
153	0xbb399278	-0.0028316062
154	0xbc438157	-0.0119326925
155	0xbd0d7311	-0.034533564
156	0x3d6175f9	0.055044148
157	0x3bf487fb	0.007462499
158	0xbd6297ea	-0.055320658
159	0xbc68ca4a	-0.014208386
160	0xbcea4538	-0.02859746
161	0x3b606a42	0.0034243022
162	0xbd6f307a	-0.05839584
163	0x3d58d286	0.052935146
164	0x3b6a3614	0.00357378
165	0xbc0e8e81	-0.008700968
166	0x3bc066a6	0.0058716116
167	0x3d41c918	0.04731092
168	0xbc2c5b60	-0.010519832
169	0xbcf32e3a	-0.029685128
170	0x3c564ae3	0.013079378
171	0x3bd3d997	0.0064651477
172	0x3d00d672	0.03145451
173	0x3b9f5933	0.0048629283
174	0xbd53f1c6	-0.051744245
175	0xbcb129af	-0.021626322
176	0xbc21f7f9	-0.009885781
177	0xbcc279e4	-0.023739763
178	0x3d2c4a37	0.042062964
179	0x3bad4416	0.0052876575
180	0xbd0bbd92	-0.034116335
181	0xbca5e5ed	-0.020251239
182	0xbd7dd082	-0.061966427
183	0x3ccd172a	0.02503546
184	0x3b03daf4	0.002011952
185	0xbd2597e0	-0.040428042
186	0xba96c73f	-0.0011503472
187	0xbd73ae7f	-0.059492584
188	0x3c8cb7a9	0.01717742
189	0xbd0ed636	-0.034872256
190	0x3ccc3ac3	0.024930364
191	0xbb13f066	-0.0022573709
192	0xbc4259e4	-0.011862252
193	0x3cca4d58	0.024695083
194	0x3cfbbc69	0.03072949
195	0xbd6204b4	-0.055180266
196	0x3cac3940	0.021023393
197	0x3be816d0	0.0070827976
198	0xbbcee107	-0.0063134464
199	0xbd1adfcb	-0.03781108
200	0x3ccb0656	0.024783295
201	0xbd011d6d	-0.031522203
202	0xbd564cc8	-0.052319318
203	0x3d0ab580	0.0338645
204	0x3d01845c	0.03162037
205	0xbd328c30	-0.043590724
206	0x3cee5c8a	0.02909686
207	0xbcbe02dc	-0.023194723
208	0x3cddae2a	0.027060587
209	0xbd7044b4	-0.05865927
210	0xbd08a903	-0.033364307
211	0xbd673e19	-0.056455705
212	0xbcee071a	-0.02905612
213	0x3d4504b3	0.048100185
214	0x3cb84577	0.02249406
215	0xbd6cea36	-0.05784055
216	0x3cd8464a	0.026400704
217	0x3cd996c5	0.02656115
218	0x3d6a8a88	0.05726102
219	0x3d130ab8	0.035898894
220	0xbcc7a594	-0.024370946
221	0x3c0d80df	0.008636682
222	0x3d51059e	0.051030748
223	0x3d30ee46	0.043195985
224	0xbc38f2de	-0.011288373
225	0x3b014822	0.0019726832
226	0xbc8029ce	-0.015644934
227	0x3d6b15b2	0.057393737
228	0xbbe8e8b3	-0.007107818
229	0xba036edf	-0.00050137745
230	0x3b682521	0.0035422521
231	0xbbd1a068	-0.0063972957
232	0xbcb66647	-0.022265567
233	0x3d59cf36	0.053176127
234	0xbd61838a	-0.055057086
235	0x3d5ab886	0.05339863
236	0x3d37b6bd	0.044852007
237	0xbd04fad4	-0.03246577
238	0xbd4ee728	-0.050513417
239	0xbcdc0ab3	-0.02686057
240	0x3d5ac989	0.053414855
241	0x3d08aa98	0.033365816
242	0xbd6a9e14	-0.05727966
243	0xbd0db84b	-0.034599584
244	0x3c677f1d	0.014129427
245	0xbcd8dc89	-0.026472347
246	0xbd070eea	-0.032973208
247	0x3d0ec77f	0.034858223
248	0xbd01e089	-0.031708274
249	0x3d70a403	0.058750164
250	0xbd34945b	-0.044086795
251	0x3d67f2f0	0.056628168
252	0x3bf32344	0.0074199755
253	0x3c46a42f	0.012124105
254	0x3c500c52	0.01269825
255	0xbcd8ab47	-0.026448859

layer4.weight f4 [128, 256]
0	0xbd0dd913	-0.034630846
1	0xbc857c59	-0.016294645
2	0xbd4cc705	-0.049994487
3	0xbd7ff180	-0.06248617
4	0xbb6652a4	-0.0035144472
5	0x3d5f5f0f	0.054534014
6	0xbceed524	-0.029154368
7	0xbd1c2b6c	-0.038127348
8	0x3c237d13	0.0099785505
9	0xbc9698ed	-0.018383468
10	0x3d475aa8	0.04867044
11	0xbd53b3a5	-0.051684994
12	0xbd5c5a96	-0.053797327
13	0xbc4cfa96	-0.012510916
14	0xbc8fdad8	-0.017560408
15	0x3cd67d53	0.026182806
16	0xbd389b2f	-0.04506987
17	0x3d2aa51f	0.041661378
18	0x3d3121a2	0.043244965
19	0xbc971a8a	-0.018445272
20	0xbd57daba	-0.05269883
21	0x3cc31b0f	0.023816613
22	0x3d352252	0.044222184
23	0xbcdaf96e	-0.026730265
24	0x3be64417	0.00702716
25	0x3d2e3306	0.04252913
26	0x3be6a088	0.00703818
27	0xbcf065ff	-0.02934551
28	0x3c9162f1	0.017747374
29	0x3d46c303	0.04852582
30	0xbc1925c8	-0.009347387
31	0xbc4925da	-0.012277091
32	0xbcf33787	-0.029689563
33	0x3bb1dc58	0.0054278784
34	0x3c4d0c3c	0.012515124
35	0xbc2bc50d	-0.010483992
36	0xba8e93be	-0.0010877771
37	0xbc1eb73a	-0.009687239
38	0x3cd9f78d	0.0266073
39	0xbd6440dc	-0.055725917
40	0x3d071e40	0.032987833
41	0x3d53d01b	0.051712137
42	0xbc89c1d1	-0.016816052
43	0x3d3ce952	0.04612095
44	0xbbd5ff55	-0.006530682
45	0x3d5e5cd7	0.054287758
46	0x3b2a9460	0.002602838
47	0x3d51f6b2	0.051260658
48	0xbc1deb54	-0.009638626
49	0x3d4453d3	0.047931504
50	0xbd773ba0	-0.060359597
51	0xbcc8fc81	-0.024534466
52	0xbd06db72	-0.032924123
53	0xbd0570df	-0.032578345
54	0xbd1d792b	-0.038445633
55	0xbbc81827	-0.006106395
56	0xbcee5740	-0.029094338
57	0xbc74d2bb	-0.01494282
58	0xbc57b95b	-0.013166751
59	0xbc271134	-0.010196973
60	0xbd393eca	-0.045225896
61	0xbcd0f0ae	-0.02550539
62	0x3d6b4f38	0.057448596
63	0x3d60931b	0.05482779
64	0xbd268522	-0.04065431
65	0xbd15ce15	-0.03657349
66	0xbc597ed8	-0.013274871
67	0x3c121b71	0.008917675
68	0x3c5db623	0.013532194
69	0x3c073019	0.0082512135
70	0xbd5b9b49	-0.05361489
71	0xbd4e2eb8	-0.050337523
72	0x3c8e5aa4	0.017377205
73	0xbd303254	-0.043016747
74	0x3d731c87	0.059353378
75	0x3d27cbce	0.040965848
76	0x3ceaf85b	0.028682878
77	0xbd6c9a4f	-0.057764348
78	0x3d5bc3ad	0.053653408
79	0xbd27b116	-0.040940367
80	0xbb765ec3	-0.0037593103
81	0x3bd78c6d	0.0065780194
82	0x3d4e3f3d	0.050353277
83	0xbd3836fb	-0.04497431
84	0xbccba693	-0.024859702
85	0xbc35e53e	-0.011102019
86	0x3d1b6f27	0.0379478
87	0xbd3979de	-0.045282237
88	0x3cb46753	0.022021925
89	0x3d7a2978	0.061074704
90	0xbd0ea5dd	-0.03482615
91	0x3caa6b72	0.020803187
92	0x3d4d00e8	0.050049692
93	0x3d66a4e6	0.056309603
94	0x3d3e18d7	0.046410408
95	0xbd19360e	-0.037405066
96	0x3c346779	0.011010998
97	0x3d658bde	0.05604159
98	0xbcc6e51e	-0.024279173
99	0x3cef9a3f	0.029248355
100	0x3cf913f7	0.030405028
101	0xbd4a1e35	-0.049345214
102	0x3b48112a	0.0030527809
103	0xbd69d11a	-0.05708418
104	0xbd241417	-0.04005822
105	0x3c78d36b	0.015187125
106	0xbb7d0ce3	-0.0038612417
107	0xbd422adc	-0.047404155
108	0xbd392100	-0.045197487
109	0xbcc2f9c3	-0.023800736
110	0x3d54c821	0.05194867
111	0x3ccabc0b	0.024747869
112	0x3caab149	0.02083649
113	0xbc52913b	-0.012852008
114	0xbd767e4e	-0.060179047
115	0xbd4eaefc	-0.050459847
116	0x3cb7569f	0.022380171
117	0xbd39936a	-0.0453066
118	0x3cc84989	0.024449127
119	0x3d7c12d4	0.061541393
120	0xbbcefac3	-0.006316514
121	0x3cbac2d1	0.022797974
122	0xbc659d6c	-0.014014583
123	0x3d0d87ff	0.034553524
124	0xbcec570c	-0.028850101
125	0x39d0c8c5	0.00039822437
126	0xbca380ed	-0.019958938
127	0xbd550015	-0.05200203
128	0x3d706a19	0.058694933
129	0x3d568550	0.05237323
130	0x3d3dda9c	0.04635106
131	0xbd6ef9df	-0.058343764
132	0x3d634343	0.055484068
133	0x3d24e5ec	0.040258333
134	0x3b05d16e	0.002041902
135	0xbd1927c4	-0.03739144
136	0xbc513d49	-0.012770959
137	0x3b99d41d	0.0046944753
138	0x3d692840	0.05692315
139	0xbd7eadae	-0.062177353
140	0x3cf2e0d5	0.029648224
141	0x3d4166f1	0.047217313
142	0x3d0e46fb	0.03473566
143	0xbc942125	-0.01808221
144	0x3d084b9a	0.033275224
145	0xbd37f256	-0.044908844
146	0xbcdc063e	-0.026858445
147	0x3bcfaa90	0.0063374713
148	0x3c2188ef	0.009859308
149	0xbd1b1748	-0.037864
150	0x3d37c0c2	0.044861563
151	0x3d5f31ed	0.054490972
152	0xbc2b16a6	-0.0104424115
153	0x3cf8c8ab	0.030369123
154	0x3d6b58d8	0.057457775
155	0xbbf2e15d	-0.0074121193
156	0xbd23eab2	-0.040018745
157	0xbd166d19	-0.036725137
158	0x3b5289dc	0.0032125628
159	0xbd7926b6	-0.060827933
160	0xbccded05	-0.025137434
161	0x3cb06968	0.021534637
162	0x3d6fa76c	0.058509275
163	0x3b1faef3	0.0024365752
164	0x3c74380a	0.014905939
165	0xbce9b41e	-0.02852827
166	0x3ce5d1aa	0.028054077
167	0x3c80af2c	0.015708528
168	0xbcd8fe41	-0.026488425
169	0x3d48e976	0.04905077
170	0xbd0d7f3b	-0.034545165
171	0x3d743b10	0.05962664
172	0x3d18a4f7	0.037266698
173	0x3ca62bb4	0.020284511
174	0x3cc5266f	0.024066178
175	0x3b775eb8	0.0037745666
176	0xbd5bf937	-0.053704467
177	0x3895dfd6	7.146566e-05
178	0xbd4d69f9	-0.05014989
179	0xbd4e2a51	-0.050333325
180	0xbd2d3284	-0.042284504
181	0x3a4f122d	0.0007899132
182	0xbc704a3b	-0.014666135
183	0x3d14ab35	0.03629609
184	0x3c58602b	0.013206522
185	0xbaa50224	-0.0012589139
186	0x3d66d22e	0.056352787
187	0xbc9cc613	-0.019137418
188	0x3cc1d361	0.023660364
189	0x3c2fc573	0.010728228
190	0x3d24a913	0.040200304
191	0x3d293fc5	0.04132058
192	0x3c6899cd	0.014196825
193	0xbd63aa22	-0.055582173
194	0xbcd0e16c	-0.025498115
195	0xbd0ddba9	-0.034633312
196	0xbd30b1e4	-0.0431384
197	0x3c67c63b	0.014146383
198	0xbc530080	-0.012878537
199	0x3cf4dd9c	0.029890828
200	0xbd2c100b	-0.042007487
201	0x3d356964	0.04428996
202	0x3d0c21ac	0.0342118
203	0xbd197fc1	-0.03747535
204	0xbd6fc502	-0.05853749
205	0x3d6bde53	0.05758507
206	0xbaf45cb3	-0.0018643349
207	0xbd7bf25e	-0.061510436
208	0x3d24d5e2	0.040243037
209	0xbc1d437d	-0.00959861
210	0x3cb858e7	0.02250333
211	0xbd7aace8	-0.061200052
212	0xbd3a6896	-0.045509897
213	0x3ce8adc6	0.028403174
214	0xbd35be19	-0.044370744
215	0xbcf9709a	-0.0304492
216	0x3ccec56b	0.02524062
217	0x3cba95ce	0.02277651
218	0x3cff7006	0.031181347
219	0x3ba0287c	0.0048876386
220	0xbd3ad377	-0.045611825
221	0x3d35c573	0.044377755
222	0x3d65d212	0.05610854
223	0xbd4b6e03	-0.049665462
224	0xbcc047de	-0.023471769
225	0x3cd3a954	0.025837578
226	0xbcf9a181	-0.030472519
227	0x3d5c888b	0.053841155
228	0x3d46e987	0.048562553
229	0x3d32699a	0.04355774
230	0x3ca58b97	0.020208163
231	0x3cfa219f	0.03053361
232	0x3d663ed7	0.056212272
233	0xbc39a6f0	-0.011331305
234	0x3d6da9c8	0.058023244
235	0x3c77dbf2	0.015128123
236	0xbcd2d6a5	-0.025737116
237	0x3bcb20df	0.006198987
238	0x3cf56569	0.029955583
239	0x3c5d8b87	0.013522035
240	0x3d13eb22	0.036112912
241	0xbd6a369d	-0.05718099
242	0x3b76b0d7	0.0037642026
243	0xbd48c342	-0.049014337
244	0xbd071b86	-0.032985233
245	0x3c1f82f5	0.009735812
246	0xbd1f1978	-0.03884265
247	0x3c15251a	0.009103084
248	0x3d599b8c	0.053126857
249	0xbd044605	-0.03229334
250	0xbbb0943b	-0.005388764
251	0xbbe3d6e7	-0.0069531086
252	0xbd450403	-0.04809953
253	0xbc4f7538	-0.0126622245
254	0xbd58bcf9	-0.052914593
255	0xbce8a0a8	-0.02839692

layer4.bias f4 [128]
0	0x3c1d6836	0.009607365
1	0xbd5941de	-0.05304133
2	0x3bb3c36b	0.005485942
3	0x3cc9032d	0.024537647
4	0x3d3e535c	0.046466216
5	0xbd78dc04	-0.0607567
6	0xbd0835f4	-0.03325458
7	0x3d5c3458	0.053760856
8	0xbd5fc666	-0.054632567
9	0xbc7f839c	-0.015595343
10	0x3d33312a	0.04374806
11	0xbcaadaab	-0.020856222
12	0x3bacac02	0.0052695284
13	0xbb4af589	-0.0030969104
14	0xbcab5a49	-0.020917075
15	0x3d4d1ab9	0.050074313
16	0x3d0ec973	0.034860086
17	0x3d71ed0d	0.05906396
18	0xb8ab3b0c	-8.164914e-05
19	0x3d6e8ed8	0.058241695
20	0xbd2ec253	-0.04266579
21	0x3d7416c2	0.059592016
22	0x3cc5f561	0.024164857
23	0xbd032567	-0.03201809
24	0xbd14abe9	-0.03629676
25	0x3caa2bbd	0.02077281
26	0x3c0bb472	0.008526908
27	0x3cc33a0f	0.023831395
28	0x3d162d1b	0.03666411
29	0x3ccec41d	0.025239998
30	0x3c917afd	0.01775884
31	0xbb62f1fe	-0.0034629102
32	0xbcaa489e	-0.02078658
33	0x3d4abeac	0.049498245
34	0x3b1234eb	0.0022309374
35	0xbcb5f139	-0.02220975
36	0x3d44d6d8	0.048056453
37	0xbcf73608	-0.030177131
38	0xbd235e3e	-0.0398848
39	0x3d1f40e6	0.03888025
40	0xbd0f497a	-0.034982182
41	0xbd11c31d	-0.035586465
42	0xbcbe3ebc	-0.023223273
43	0x3b6d1a99	0.0036179184
44	0x3d23ae07	0.039960887
45	0x3bb80dee	0.005616895
46	0x3d1fe370	0.03903526
47	0x3be5395a	0.006995362
48	0xbd285a08	-0.041101485
49	0x3d008823	0.03137983
50	0x3d54e76f	0.051978525
51	0x3c84c701	0.016208174
52	0x3d61c395	0.055118162
53	0x3b9025d0	0.004399039
54	0x3d41475f	0.047187205
55	0x3d160290	0.036623538
56	0xbbd873f6	-0.0066056205
57	0x3d653f86	0.055968784
58	0xbd54c9fc	-0.05195044
59	0xbb989df5	-0.004657502
60	0xbd05f4ab	-0.032704037
61	0x3ca43e2b	0.020049175
62	0xbd245eb5	-0.040129382
63	0x3cc0c091	0.023529323
64	0xbd2c871c	-0.042121038
65	0xbd3353b9	-0.043781016
66	0x3d2bc3bc	0.041934714
67	0x3c75c5fd	0.015000817
68	0xbce5d641	-0.028056266
69	0xbd7327b3	-0.059364032
70	0x3d6c1869	0.057640467
71	0x3d3c606e	0.0459904
72	0xbc01e511	-0.007928149
73	0x3be33f6a	0.00693505
74	0x3c46e8a2	0.012140425
75	0xbc541a73	-0.012945759
76	0x3d72cb76	0.059276067
77	0xbd6787d5	-0.056526024
78	0x3d0164ce	0.031590275
79	0xbd06243c	-0.0327494
80	0xbc6d5ab9	-0.014486962
81	0x3d1c23fa	0.038120247
82	0x3c932726	0.017963003
83	0x3ba83d7b	0.005134282
84	0xbd7a6fef	-0.061141904
85	0x3d6057dd	0.054771293
86	0xbbcfa342	-0.0063366005
87	0xbd438326	-0.047732495
88	0xbd629d81	-0.05532599
89	0xbca1f0df	-0.019768177
90	0x3d150bd4	0.036388233
91	0xbd5712d9	-0.05250821
92	0x39afc919	0.0003352843
93	0xbc5a7d6d	-0.013335568
94	0x3cf3dbc3	0.029767876
95	0xbcb41a60	-0.021985233
96	0x3d41685d	0.04721867
97	0x3d805ff3	0.06268301
98	0xbd0909e3	-0.033456694
99	0xbd7a9754	-0.061179474
100	0x3d5269e4	0.051370516
101	0xbb4acd13	-0.0030944988
102	0x3c0e937a	0.008702153
103	0x3c71282b	0.014719049
104	0xbcdf7791	-0.027278693
105	0x3d42c4b0	0.047550857
106	0x3d07c3a1	0.03314555
107	0x3d3bbbd0	0.04583341
108	0x3d3ef2e4	0.046618357
109	0x3d780e5f	0.06056058
110	0xbc9ea671	-0.019366475
111	0xbcab9292	-0.020943914
112	0xbd16b614	-0.036794737
113	0xbc5807a5	-0.013185416
114	0xbca2b5aa	-0.019862015
115	0xbd13df8c	-0.036101863
116	0x3cc29248	0.023751393
117	0xbd7ac7db	-0.061225753
118	0xbb8f67dc	-0.0043763947
119	0xbd70f40b	-0.058826488
120	0xbd0ee3bf	-0.034885164
121	0x3d0c8244	0.03430392
122	0x3d2606a1	0.040533666
123	0x3d0485ff	0.03235435
124	0x3d529149	0.051408086
125	0xbb9550c6	-0.004556748
126	0xbd257fa5	-0.040404934
127	0x3d3117e2	0.043235667
