PPO/ppo_critic.pth (torch, 546027 bytes, 9 tensors)

layer1.weight f4 [128, 29]
00000000: 2073 97bc 5d9f 023d 2111 303e faf6 243e
00000010: e836 0c3e 26c8 a6be 0a13 f3bd 3cf9 2e3d
00000020: 337f 8cbd 4759 2dbd fc8a 24bd b58a 323e
00000030: 54b2 ba3d b702 b03d 29ea 19be 59ec 5f3e
00000040: 7e5d 7bbd 0702 8abd d2de 903e 2f8d 85be
00000050: fe21 bfbd 2389 05ba 3a90 7dbd 1e23 14bd
00000060: c2a3 ddbb beb7 99bb 7f9a 84bd 31bc 0a3d
00000070: 1c07 aebc 594d 54bd b3bc 4c3d c402 0d3d
00000080: bbb8 843e 05cd 30bb 778c 8dba b794 d13d
00000090: 3c5d 9b3e bd0a fc3d b607 4d3e 58c8 3e3e
000000a0: 5311 68be 0534 2fbe e95f 33be 1fc4 39be
000000b0: dfea 82be 4dd9 9fbd 12ce 4bbc b4a5 1abe
000000c0: 4a3c 91bc c11d afbc cfed 9abc 2b1f 593d
000000d0: e20c 6fbc b68e 28bd 0eb0 0a3d c719 5a3d
000000e0: 5c3b 39bc 2776 103d d82e 933d b7dc 57ba
000000f0: 19da f6bd b979 77bb 6eea d6be 4f1a 143e
00000100: f60b febe a6ed 5ebe 2de5 a83c 37bd 59bd
00000110: 5cee 00be 8af1 b13b 5132 373c ea92 473c
00000120: 3e16 413d 62fe 31be 6cd4 69bd 83ae 25be
00000130: 928f 6b3d 7128 de3d b654 fbbd bb35 20bd
00000140: 864b a63b 5e93 b83c e5ec 6c3d 3a90 08bd
00000150: 080c aabc 0439 c7bb 3100 5f3c e738 9d3d
00000160: f1d4 863d 8a5c 2dbd fa83 ff3e bf64 82bd
00000170: b802 85be 8cc9 78be 9668 fdbc a278 283d
00000180: d3bb 02be 2e76 9f3d cee6 743e 7bf0 163d
00000190: 68b6 193e e193 c83d 8688 523c b910 4abe
000001a0: 2109 6cbe 7c7c 8fbb e48a febd 6474 133e
000001b0: dd85 2e3d fbe9 c5bc b460 fb3a 8901 01bd
000001c0: 813e 673d 6b8b 98bc 5f47 443d db61 1a3c
000001d0: 06ca 313d 98b5 8bbd 6a9e a83c aa1e 873e
000001e0: 15d6 5f3e ef5e 2c3f d398 093e 56bc fb3c
000001f0: 3d21 403d c7b3 eb37 ae13 513d af29 d83d
00000200: 9cb7 3d3e b727 b73e 9310 1bbe 9b0c 233c
00000210: 4129 b03d 2785 d5be fded 38be 39cc 223e
00000220: 16b0 0b3c 9267 30bd 97a8 ee3c 3bf9 233c
00000230: 22aa 163d 3375 a8bc 8b01 0d3d a827 c6bc
00000240: 814a a93c 7baa 9abd b9af a33d 34ad 613e
00000250: b780 cb3e b6b3 873d 31ce 453e 2b8b 39bd
00000260: 1fd5 1f3d c24a debb 5f37 7e3e 4cd1 fabd
00000270: 28cb c3bd 5235 4fbc 9b71 003e e25e b53d
00000280: 7993 bf3d 1c26 cd3c 2d84 e4bd 24e1 9bbd
00000290: 9082 a1bd 16ec 5bbd 1a52 2abd 6aac 423d
000002a0: 9552 c33c 840e 903c be56 8a3c 7b89 0b3d
000002b0: 5d0d 0dbd beb7 24bd 4850 5d3d 8bf2 99bc
000002c0: 497e 583d d595 783e b357 03bc 1a57 d13b
000002d0: 1f24 50bc 892e 10be 34e4 4dbe 21f8 9e3e
000002e0: 8ea1 b0bd 860d 22be 65df 06bd cc57 c1bd
000002f0: 7aed 04be 403d 513e e56e 07be f564 8a3d
00000300: 0994 7ebd 372f fd3d 6d8d b03d 1435 9b3c
00000310: f33d b1bc b131 82bc 4c86 74bd a2e4 0ebd
00000320: 1b06 903d 4410 203d aa6b 333d c7f1 e63d
00000330: 1f1f f9bd 29bb aebe cb88 19be dd3d 9cbe
00000340: 3884 d33e 54e5 06bd 3854 1f3e e89a 8cbc
00000350: 710f 493e 37da 18be 01b2 a83c ac7c 843d
00000360: 285e ebbd 1142 72bd 6539 1abe 766d fa3d
00000370: 2acf 2bbd af6f 14bd 5ebd 29bd 2f2f 2cbc
00000380: 22b2 45bc b306 32bd 3ccc 403c feb8 c83a
00000390: cebb ccbc 25f7 2c3c 5deb dabc 9c3c dabc
000003a0: 0225 9e3d 4116 bb3d c09e 873e feed b03e
000003b0: 92d0 b53d f55f 9bbc 93f9 4fbe dd09 bc3d
000003c0: fe9d be3d 2de5 a1bd 1db9 01bd aad5 00be
000003d0: 549a a2bc 3342 893d b862 01be 2883 533e
000003e0: 0d33 f8bd ebc9 8d3b fa82 ab3d 7c2e c33c
000003f0: 06f6 23bd 914c a43d b532 78bc 812c 4dbd
-0.018487513 0.031890262 0.17194034 0.16109839 0.1369282 -0.32574576 -0.11868866 0.042718157
-0.06860199 -0.04232147 -0.04017161 0.17435725 0.09116045 0.08594268 -0.15030731 0.21867503
-0.061368458 -0.06738668 0.28294998 -0.26084277 -0.09332655 -0.00050939823 -0.061905123 -0.036166303
-0.006763906 -0.004691093 -0.0647478 0.03387088 -0.021243624 -0.051831577 0.049984645 0.034426466
0.25922188 -0.002697767 -0.0010799308 0.10233443 0.3034457 0.12306736 0.20022473 0.18631113
-0.22662859 -0.17109688 -0.17517056 -0.1814122 -0.25569817 -0.07805119 -0.012439268 -0.15102273
-0.017728943 -0.021376492 -0.018912224 0.05300824 -0.014590474 -0.041151725 0.033859305 0.05324724
-0.011305656 0.03526893 0.07186669 -0.0008234488 -0.120533176 -0.0037761761 -0.4197573 0.14463161
-0.496185 -0.21770343 0.020617092 -0.053158965 -0.12590927 0.005430405 0.01118143 0.012181023
0.047140352 -0.17382196 -0.057087347 -0.16179852 0.057509966 0.10847557 -0.12272017 -0.03911374
0.005074921 0.022531208 0.057843108 -0.03334067 -0.02075769 -0.006079795 0.0136108855 0.07676869
0.06583584 -0.04232458 0.49905378 -0.06366872 -0.25978637 -0.24295634 -0.03093366 0.04113067
-0.12766962 0.07786213 0.2391617 0.036850434 0.15010989 0.09793831 0.012849933 -0.19732942
-0.23050357 -0.0043788534 -0.12428835 0.14399868 0.04260813 -0.024159422 0.00191786 -0.031495605
0.056456093 -0.018621167 0.047919627 0.009422745 0.043405555 -0.06821746 0.02058335 0.26390582
0.2185901 0.6733236 0.13437204 0.030729454 0.0469067 2.8097898e-05 0.05104416 0.105548255
0.18527073 0.35772488 -0.15143041 0.009951736 0.086016186 -0.4170315 -0.18059535 0.15898217
0.008525869 -0.043067522 0.029133124 0.010008152 0.036783345 -0.020563697 0.0344253 -0.024188831
0.020665409 -0.07552048 0.07992501 0.22038728 0.3974664 0.06626074 0.19316937 -0.045298737
0.039021607 -0.006783814 0.2482581 -0.122469515 -0.09560233 -0.01264699 0.12543337 0.08855988
0.093543 0.025042586 -0.11158023 -0.076113015 -0.07886231 -0.053691946 -0.041582204 0.047527708
0.02384309 0.017585047 0.016887065 0.03406666 -0.034436572 -0.040214293 0.05403164 -0.018792411
0.05285481 0.24275906 -0.008016515 0.006388557 -0.012703924 -0.14080252 -0.20106584 0.31048682
-0.08624564 -0.15825471 -0.03292789 -0.09440574 -0.12981215 0.20433521 -0.13225897 0.06757537
-0.062152896 0.12362521 0.08620725 0.018946208 -0.021635985 -0.015892835 -0.059698388 -0.03488601
0.070324145 0.039078012 0.04380385 0.11276584 -0.12164139 -0.34127167 -0.14993589 -0.30515948
0.41311812 -0.032933548 0.1555947 -0.017163709 0.19634797 -0.14926992 0.020592691 0.06469092
-0.11492568 -0.059145037 -0.15060957 0.12227909 -0.041945614 -0.036239322 -0.04144036 -0.010509296
-0.012066396 -0.04346342 0.011767443 0.0015313921 -0.024991896 0.010556971 -0.026723558 -0.026640229
0.077219024 0.09135104 0.26488304 0.34556574 0.08877672 -0.018966654 -0.20310049 0.09181569
0.09307478 -0.0790504 -0.03167068 -0.12581506 -0.01984898 0.067020796 -0.12635314 0.20655501
-0.12119112 0.004327049 0.08374591 0.023825876 -0.040029548 0.080224164 -0.015148808 -0.05009127

layer1.bias f4 [128]
00000000: 3adb 86bc 1cf8 b83e 353c fabc b53c 923d
00000010: 0812 4e3c fbd9 34bd cf81 01be fd78 923e
00000020: 8f06 80be 5fff 963e f6d9 1f3d 8a47 903e
00000030: 1e16 59be cb66 e33c 58f7 ac3d 51a1 db3d
00000040: b45a a43e 2083 803e 5f47 8cbd 54f7 6c3d
00000050: 183f b8bd 66d5 c8bd 98ca 18be 504d 87bd
00000060: be6c 0cbe ee40 d8bd 7f0f b43e 15e4 1d3d
00000070: 1dcd 643e 72e1 563e e50d 88bc ce44 de3e
00000080: d252 813e 0dc1 c8bd f4a2 a7be 1125 14be
00000090: 4491 25bd 6f52 a4bd 0ef5 523e 344c 8b3d
000000a0: b2d5 1e3d cefa 6c3e acc7 65be 5f4b 4d3e
000000b0: 7eac 25be 0766 0bbe de99 503e f060 54be
000000c0: abb0 4c3e 33b5 bc3e 56d6 983e 5461 2c3e
000000d0: d509 0abe 85ab 12be d1ab 523e 165d c13e
000000e0: bb69 1e3e ec4f 563e 6885 01be 5bf2 d8bc
000000f0: a657 cd3c 5c71 39bc 3304 9f3e 079f 023e
00000100: 9e54 15be 0adc 883d 235f 76be aca8 f13c
00000110: 8bcd 8e3e 1cb2 9d3e d111 7f3e 856e 053e
00000120: 85a1 bc3d a273 64be f792 49be 8d4b c9bd
00000130: 6473 a13c f81f 843e 88fb 343e 13c1 a53e
00000140: 3211 5bbe cc65 58bd 0341 ad3c fad9 3ebe
00000150: 9190 e53d b4e7 d93d 3972 afbe 2c97 a83e
00000160: 048d 2d3e 1362 db3e 4d80 b23e 7749 07be
00000170: b116 f3bc a5e5 0abe 8532 903e 6918 923e
00000180: 3099 4cbe 90b4 2e3e a8f7 943e 49d2 9e3e
00000190: 673d 133e e679 f8bd bd4a c43e 709f 983d
000001a0: dda5 573e ce6e 4cbe 3132 2b3e 0e69 203e
000001b0: e489 de3d c019 ef3d 3008 8abe 8b90 65be
000001c0: 7b03 a33e 2923 6ebe b319 8dbe e58d 993c
000001d0: 5752 eebd 5f74 9d3e 0563 2cbe 3735 9c3d
000001e0: 2c38 85bb 42a4 fcbc 5bf4 983e e101 ce3d
000001f0: 42f8 c43e 1e85 983c f8a4 063e b810 c13d
-0.016461957 0.36126792 -0.030546287 0.07140485 0.012577541 -0.044153195 -0.12647174 0.28607932
-0.25005004 0.29491708 0.039026223 0.2817958 -0.21199843 0.027758976 0.084456146 0.10724128
0.3210045 0.2510004 -0.068495505 0.057853058 -0.08996409 -0.098063275 -0.14921033 -0.06606543
-0.13713357 -0.10559259 0.35168073 0.038547594 0.2234387 0.20984438 -0.016608188 0.4341187
0.252585 -0.098024465 -0.3274151 -0.14467265 -0.04042174 -0.080235355 0.20601293 0.06801644
0.038778014 0.2314255 -0.2243945 0.20048283 -0.16179082 -0.13613139 0.20371196 -0.20740104
0.19989268 0.36856994 0.29851025 0.16834003 -0.13480313 -0.14323242 0.20573355 0.3776633
0.1547002 0.20928925 -0.12648547 -0.026482752 0.025066208 -0.011318531 0.3105789 0.12755977
-0.1458306 0.06682594 -0.2405973 0.029499374 0.27891192 0.3079995 0.2490914 0.13030441
0.09210495 -0.22309735 -0.19684969 -0.09828863 0.019708343 0.2580564 0.17674077 0.32373866
-0.21393278 -0.052831456 0.021149164 -0.18637839 0.112092145 0.10639897 -0.34266832 0.32927835
0.16948324 0.42848262 0.3486351 -0.13211618 -0.029673906 -0.13564165 0.28163543 0.28534248
-0.19980311 0.17061067 0.29095197 0.3101981 0.14378892 -0.12132625 0.3833827 0.07452285
0.21059366 -0.19964144 0.16718365 0.15665075 0.10866144 0.11674833 -0.26959372 -0.2241842
0.31838593 -0.232556 -0.2755867 0.018744418 -0.11636799 0.30752847 -0.16834648 0.076273374
-0.004065534 -0.030840043 0.29873928 0.10058952 0.38470656 0.018618163 0.13148868 0.09427017

layer2.weight f4 [256, 128]
00000000: e89a 9abc cbbc 6d3d bed5 6a3d 9b47 d7bd
00000010: 31d6 643d 2fde 94bd fd14 12bd 3ad6 2bbd
00000020: 6306 09ba b0f9 583d 2dfd 403d efbe e63d
00000030: 8fe7 f1bd 5850 a2bd 0755 c4bd 67db ba3d
00000040: e4c9 8cbc 9af1 fe3d c400 98bd d607 913d
00000050: 0ffd 103d 678c c23d da53 4ebc 6083 71bc
00000060: 2af5 203d e73a 06bb 0561 2a3d 451d 923d
00000070: a1e6 953c ea37 8e3d 830f a7bc e938 ecbc
00000080: 39e4 5e3c 1d84 7dbd 77d2 15be d3fe 07bd
00000090: 708b 383d 67f2 f3bc d0bb 3f3d 5e8c 973d
000000a0: 2925 81bd 2357 0e3e 3c81 f4bd ec90 f83b
000000b0: e400 dbbd b1b7 4fbc 8344 e13d 48af c3bd
000000c0: ad19 99bc 699f 523d 53da 703d 68db b03c
000000d0: bd7d 7e3c 533d 393d fdd2 eb3d 39e7 ab3c
000000e0: d545 d53c 477b 0ebe f1d2 fa3c 6e47 993d
000000f0: 1194 e8bd 4426 e33c 7f13 30bd 1f03 373d
00000100: 2d40 103d 1a97 6dbd 24d8 a2bc aef4 13bb
00000110: 5f01 fbbc 7a3c cb3d 100d 383d 0c70 363d
00000120: 3d7b 8abc 7c10 413a 3172 943b 75b4 8cbd
00000130: 4cde d03c fe1f ce3d c90e 57bd 8575 a1bb
00000140: 1ea4 98bd 0612 16bd 32a3 4d3d 71bf 733d
00000150: a59b 5e3d 9fe0 d83d 60c7 51bd 3fe3 863d
00000160: 8590 903c 2d2e 773d cba2 50bd a4b5 c13c
00000170: e3bf 343d 867e 38bd 220b b53c a22b 2fbe
00000180: 0693 d23c b754 353a 3c93 9bbc 912a 50bc
00000190: 639d 8b3c e391 18bd 9047 e9bc ea3d 3f3d
000001a0: 4861 2ebd a205 ae3c be03 463e f10d e3bd
000001b0: 4d16 103e ca0f 973d 38a2 b13c 5bac 343d
000001c0: 7cb9 013e 6896 36bd db38 29bd 2c04 a1bb
000001d0: 1510 d4bb ebe6 693d a420 97bd d5df 3dbe
000001e0: d3be 74bd c101 49bd 0d88 a43d 0968 22bd
000001f0: 1c6b aa3d a0ca 56bd fc77 1c3c 748d e83d
00000200: dbac 313b d805 ae3c 98ec 2bbd d033 f2bd
00000210: a925 bcbc c732 babd 7f71 903c 8d4d e3bc
00000220: 1f6e bcbc f410 08bd 86aa a13d 2c37 8d3d
00000230: 421f fdbc 47b9 36bd 292c a43d 80e0 28bc
00000240: 4e37 c43c afef 123e d6da 6bba 9c97 d4bc
00000250: 3bea e6bd 5fed 7dbd 8d7a 74bb 78d9 7e3d
00000260: d83b 46bc 7d97 21bd 9382 a93d f803 203c
00000270: 7c6f 7bbd 203a 713c 1366 24bd ec37 6f3c
00000280: 5627 713d c332 563d d51e 403a fc20 073e
00000290: 985f 3b3c 2e0f b1bd c201 9dbd e872 00bc
000002a0: 084f 413d e5c4 c73d e06c 003d 0d9a 8c3d
000002b0: bce5 33bd 7a2e e5bd 8b9e 1c3e 6c02 85bd
000002c0: 140b 6cbd bbe4 b0bd 3760 923d 3578 243d
000002d0: 09c0 12bd 808a 3bbd c721 a03d 4430 773b
000002e0: b62d d6bd e6a2 8fbd b6b5 fc3c 77f8 b93c
000002f0: d776 783d 2210 0f3d 0d77 fe3c 60e2 a83d
00000300: cccf 923c 6a9d 62bd 88e5 063d d2d0 d8bd
00000310: 2a40 073e cd25 003e 0879 8fbd 3acd 88bd
00000320: 8c84 7fbd 92e4 93bd 4c39 98bd 2cd9 0a3c
00000330: 3cc4 923d a9e7 a3bc 7e7f 1cbd 58ea 843c
00000340: 964f 34bd 18f7 87bd 8f5a e0bd ea86 0cbd
00000350: 7629 303e 6008 1c3d 04de 06bd d074 a0bd
00000360: 58d3 47bd f986 c0bd 1184 973d 627a d0bd
00000370: e991 763c df59 b7bc 8520 8e3d 2869 14be
00000380: 5d3f 2e3c 3e3b 133b dc22 143d 9fa8 0ebe
00000390: e528 fe3c bfaf 16be 6648 ecbc bb00 143d
000003a0: fa36 22bd 4f88 133d cce0 f03c ec9c 003d
000003b0: 311a ecbc 7102 2bbc b40c 6b3c 9aa3 3a3a
000003c0: c4c2 d23c bd42 363d 47f3 29bd 0503 0ebd
000003d0: be47 fabd bf4d f33c 64a3 0e3d 60a7 a53c
000003e0: bccc 88bd 4fcc 833d 8c9d a83d 1fdf af3c
000003f0: aea7 5bbd 0544 2a3d d081 b2bd c589 9dbd
-0.018872693 0.058041375 0.057332747 -0.105117045 0.05586833 -0.07268941 -0.035664547 -0.04195235
-0.0005227087 0.052972496 0.047116447 0.112668864 -0.118117444 -0.079254806 -0.0958653 0.09123879
-0.017186113 0.124484256 -0.07422021 0.07081573 0.035397585 0.09499436 -0.012593234 -0.014740795
0.039296307 -0.0020481886 0.04159643 0.07134489 0.018298449 0.069442585 -0.020393139 -0.02883573
0.013604217 -0.06189357 -0.14631067 -0.033202004 0.045054853 -0.029778672 0.04680997 0.0739982
-0.06305916 0.13900428 -0.11938712 0.0075856354 -0.10693529 -0.012678073 0.10999396 -0.095549166
-0.018689001 0.051421557 0.05880196 0.021588996 0.015532908 0.0452245 0.11514852 0.020984279
0.026034275 -0.13914214 0.030618163 0.07484327 -0.113563664 0.027728207 -0.042987343 0.04468071
0.035217453 -0.05800543 -0.019878455 -0.002257626 -0.030640302 0.09923644 0.044934332 0.04454045
-0.016904468 0.0007364822 0.0045302142 -0.06870357 0.025496624 0.10064696 -0.052504335 -0.0049273395
-0.07453178 -0.036638282 0.050204463 0.059508745 0.054347653 0.10589718 -0.05121553 0.065863125
0.017647037 0.06034677 -0.0509365 0.023646183 0.04412831 -0.045042537 0.022100035 -0.17106488
0.025704872 0.00069172255 -0.018991105 -0.012705461 0.017042821 -0.037248503 -0.028476506 0.046689905
-0.042573243 0.02124292 0.19337365 -0.110866435 0.14071007 0.073760584 0.021683797 0.044109683
0.12668413 -0.044577032 -0.041313987 -0.0049138274 -0.0064716437 0.057104986 -0.073792726 -0.18542416
-0.059752297 -0.04907394 0.08033762 -0.039649997 0.08321211 -0.052439332 0.009550091 0.11355105
0.0027111087 0.02124302 -0.04197368 -0.11826289 -0.022967177 -0.09091716 0.017632244 -0.02774694
-0.023001729 -0.033219293 0.07893853 0.06895289 -0.030898694 -0.044610288 0.080162354 -0.010307431
0.023952153 0.14349245 -0.00089971477 -0.0259512 -0.11275145 -0.061993953 -0.0037304491 0.062219113
-0.012099229 -0.03945111 0.08276858 0.009766571 -0.061385617 0.014723331 -0.040136408 0.014600735
0.058875404 0.052294504 0.0007328813 0.13196176 0.011436366 -0.086454734 -0.07666351 -0.007839896
0.04719451 0.097543515 0.03135383 0.0686532 -0.043920264 -0.11190505 0.15294854 -0.064946026
-0.057627752 -0.08637377 0.07147258 0.0401537 -0.03582767 -0.04578638 0.078189425 0.0037717978
-0.104579374 -0.07013492 0.030848365 0.022701485 0.06066021 0.034927495 0.031062627 0.082463026
0.01792135 -0.055325903 0.03293374 -0.10586704 0.1320807 0.1251442 -0.07005507 -0.06679769
-0.062382266 -0.07221331 -0.074328035 0.008474629 0.07166335 -0.020007925 -0.038207524 0.016225025
-0.04402121 -0.06638926 -0.10954773 -0.03430835 0.17203316 0.038093925 -0.032926574 -0.0783478
-0.048785537 -0.09400744 0.073982365 -0.10179593 0.015049436 -0.022381721 0.06939796 -0.14493239
0.010635224 0.002246573 0.036166057 -0.13931511 0.03102536 -0.1471548 -0.028843116 0.03613351
-0.03960321 0.036018666 0.029404067 0.031399652 -0.028821083 -0.010437594 0.01434629 0.00071197154
0.025727637 0.04449724 -0.041491773 -0.03467085 -0.12220715 0.029700158 0.03482379 0.020221412
-0.06679675 0.06435453 0.08233175 0.021468697 -0.05362671 0.041568775 -0.08716166 -0.07692293

layer2.bias f4 [256]
00000000: c961 6a3c 4beb f23d 2d05 403e 5052 0dbe
00000010: c834 653d f885 723e 9342 30bc 210d 5e3e
00000020: 95ec 683e b661 963e 8b20 383e bea3 0abe
00000030: 3c83 753c fdff 0d3e 5563 80bd c5bf 473e
00000040: 4a45 1dbe 1ef1 813d e0c3 2fbe f4b7 43bd
00000050: 2af5 6cbd 96e6 b1bd a34e 0d3e 9a06 28be
00000060: 75d4 373e c372 e93c a56e 953e 71ac 3f3b
00000070: d2ee a1bc 9b21 813e e57a 153e 8f5f 863e
00000080: b907 a83d e5ba e53d a659 943c c499 3f3e
00000090: 974f 5b3e f055 9a3d 437a 85bd 862a 273e
000000a0: b791 5b3e ef6d cebc f637 263e 1958 ac3d
000000b0: 16c0 8dbd be80 8e3e 4f08 7d3e 35cf 8a3e
000000c0: fed3 3f3e b4bd 113e a37d 243e e5ca 063e
000000d0: 0503 cebd b5c7 b93d 937d a13e d07e a23c
000000e0: 0d34 933e 0720 163d b592 393e fc32 963d
000000f0: 1a12 363e c916 fa3c 3029 383e f609 a83d
00000100: fd6d 6c3e 2c5d 1d3d 50d3 8e3e 15af 833e
00000110: d169 1d3e c386 393d 057e 02bd 58ea b53a
00000120: a264 283d f2c8 653e bff0 bbbd 3056 8c3e
00000130: f44a 123e 4714 7b3d 14e7 8d3e d711 473e
00000140: 9443 173e dc1a fe3d a087 e9bd 871a 9d3e
00000150: 961b 033e 5940 923e 9cde 3c3e 7b03 533e
00000160: 3ecb ba3d 2277 3e3d 58df 963e 83be 4e3e
00000170: b7e5 d93c 28a4 833d dd3d bbbd f17f 7e3e
00000180: 8e9f 243e 706a 223c 9ff1 0b3d 5a54 103d
00000190: 602c 8a3e 1ca9 e23d 30c6 6f3e 5b12 963d
000001a0: 8796 053e 01ce 3f3e 39bb 0d3e 82de 2e3d
000001b0: d79d 07be 2ad1 ee3d 4129 c33d 9ce5 9d3e
000001c0: 5e1b 9c3e b142 e4bc 1cae f63d 92ec 643e
000001d0: f1fd 513e be76 83bd f559 633e e816 823e
000001e0: e3aa 913e c49a 693e e381 0e3e 7a39 fc3d
000001f0: 220c 093c 515c 713e c213 763e 3a8d 933e
00000200: 343c 583e 6541 993e 091a 843e fcaf 1e3e
00000210: c4de 4b3c 2548 aabd 0d52 453d 08d7 19be
00000220: a64d 943e 6f65 973e 6b3c 643e 17dd ffbd
00000230: e269 9a3e 9884 113e 071b 59bd 71f2 283e
00000240: f75d 203e 23d5 a3bc 634f b63d 9364 d6bd
00000250: 6e91 1e3e e10d 2e3e 6fb5 843e ee62 753e
00000260: 8d4b aa3c a72d 173e 1de6 143e 3cc6 c3bd
00000270: f52c 803e 4575 863e c43a 8c3e 4c93 d73c
00000280: d98e 6d3e 27ba 4f3e 604b a93d 41ec 9c3e
00000290: 8468 933e 1be2 c3bd 3f43 b6bd 139b 6a3c
000002a0: f746 7f3e 06d4 3f3e c075 7c3e 08fd abbc
000002b0: 7ecf 323e 5b67 583e d6b6 a13c df21 933e
000002c0: fadb 1b3d 18b2 2abd fa89 913e 0f65 0d3c
000002d0: 32f4 953e 6ef0 9f3e f2f2 9e3c b558 c9bc
000002e0: 1e98 123d a190 793e 121a 433e 1935 b73d
000002f0: d1db 523e 7fd6 9f3b 4bdc 053e b826 453e
00000300: 419e bebd 73b9 fe3d da38 fabd 6d5e 4bbd
00000310: 24e0 223d 759e 8c3c d678 443d 67ca 9e3e
00000320: 3b94 873e 7985 953e 4c3e 5cbe 6559 883e
00000330: 59e7 9d3d acd6 603e c2be 463e 4dc7 563e
00000340: 3ffb 9c3e 871c e93c 4c62 923d 09a4 ab3d
00000350: 5420 5ebd 3498 8ebd 8542 3f3e 162c 843e
00000360: da99 733e 7587 633d d519 463d f8b9 a73d
00000370: cbb7 27bd a65f 7f3e 9250 5b3e d896 003e
00000380: 0fa8 573e 76bf 4a3e 0ec7 26be 506d 543e
00000390: 82f2 a83d 1fa9 7c3d 6f39 883e f4bb 553e
000003a0: a81c b5bd efce 143e cc6b 813e 94a5 4cbe
000003b0: 4950 273d d8b7 38be 9610 793e 169c 90bd
000003c0: af2a 943e 646a 2ebe d97c 813d 19f8 4a3e
000003d0: a3b9 683e e68c 4f3e 3fa7 b03e 3bf1 af3d
000003e0: 9f94 2cbd 2736 763e cd26 b43b 53d5 343d
000003f0: 3f1b 40bd 87d0 853e beaa 103e 0c25 e13d
0.01430554 0.11861285 0.18751974 -0.13800931 0.05595854 0.23683918 -0.01075806 0.21684696
0.22746499 0.29371423 0.17981164 -0.13539025 0.014984902 0.13867183 -0.06268946 0.19506748
-0.15358463 0.063448176 -0.17164564 -0.047782853 -0.057850994 -0.08686559 0.13799529 -0.16408768
0.1795214 0.028497105 0.29185978 0.002924707 -0.019767199 0.2522095 0.14597662 0.2624478
0.08204598 0.11217288 0.018109154 0.18711 0.2141708 0.075359225 -0.0651746 0.16324815
0.21442305 -0.025198905 0.16232285 0.08415241 -0.06921403 0.27832597 0.247102 0.2711121
0.18733212 0.14232522 0.16063552 0.13163336 -0.1005917 0.09071294 0.31541118 0.01983586
0.2875065 0.036651637 0.1812237 0.07333943 0.17780343 0.030528443 0.17984462 0.08205025
0.23088832 0.038418934 0.27895594 0.25719514 0.15372397 0.045294534 -0.031858463 0.0013879044
0.041111596 0.22439936 -0.09176778 0.27409506 0.14286405 0.061298635 0.2771536 0.19440399
0.14771873 0.12407467 -0.114028215 0.306843 0.12803492 0.28564718 0.18444294 0.20606796
0.091207966 0.046500333 0.29467273 0.20189862 0.026598794 0.06427795 -0.09142659 0.24853493
0.1607649 0.009913072 0.034165975 0.035236694 0.2698698 0.11067411 0.23415446 0.0732772
0.13045703 0.18730928 0.13840951 0.04269267 -0.13243805 0.11660989 0.09529353 0.3083924
0.3048963 -0.027863832 0.120449275 0.2235587 0.20507027 -0.06419133 0.22202285 0.254081
0.2845069 0.22812945 0.13916735 0.1231565 0.008364709 0.23570372 0.24030975 0.28818685
0.21116716 0.29932705 0.25801113 0.1549682 0.012443248 -0.08314542 0.048173953 -0.15023434
0.2896549 0.29569575 0.22288673 -0.124933414 0.30158907 0.14210737 -0.05300429 0.16498734
0.15660845 -0.019999092 0.089018606 -0.10468402 0.15485165 0.16997482 0.25919673 0.2396352
0.020787979 0.14763509 0.14540906 -0.095592946 0.250343 0.26261345 0.27388585 0.026315354
0.23199023 0.20285855 0.0826633 0.30648997 0.28790677 -0.095646106 -0.08899545 0.014319199
0.24929415 0.18733224 0.24654293 -0.020994678 0.17461964 0.21133177 0.019740503 0.2873678
0.038051583 -0.04167375 0.2842558 0.008630051 0.2928787 0.3123812 0.019402955 -0.024578432
0.0357896 0.24371578 0.19052914 0.089456744 0.20591666 0.004877865 0.13072316 0.19253051
-0.09307528 0.124377154 -0.12217875 -0.0496506 0.03976454 0.017165402 0.0479668 0.31013796
0.26480278 0.29203394 -0.2150814 0.26630703 0.07710142 0.21956891 0.19408706 0.20974465
0.30660436 0.028455986 0.07147655 0.083808966 -0.05423005 -0.06962624 0.18677719 0.25814885
0.23789158 0.055549104 0.04836448 0.081897676 -0.040946763 0.2493883 0.21417454 0.12557542
0.21060203 0.19799599 -0.16286871 0.20744824 0.0824938 0.061684724 0.26606318 0.2087248
-0.08843356 0.14532064 0.25277555 -0.19985038 0.04084805 -0.18038881 0.24322733 -0.07061021
0.28938815 -0.17032772 0.06322641 0.19821204 0.22727065 0.20268592 0.345026 0.08590933
-0.042133924 0.24044095 0.0054977895 0.044148754 -0.046900984 0.26135656 0.14127633 0.10993394

layer3.weight f4 [256, 256]
00000000: f7ba c7bd 7316 b6bd eafc 8c3c 2b92 733d
00000010: ad80 4b3d 182f 7e3d f351 61be d8e8 adbc
00000020: c134 1cbe b188 2e3d 4bb0 5fbd 775b 963d
00000030: bf0f 93bd e891 1fbd 4519 5ebd 7a89 5ebd
00000040: 9792 073d e386 88bd ed20 fa3c 2083 3cbe
00000050: 3a72 2fbe fb61 5abe 7cfb b0bd 5193 b3bc
00000060: 3318 3b3d 522b adbd d3fe d43d dafb a5bd
00000070: 782f d63d 5236 7e3d b685 efbd b65e b73d
00000080: 9b23 7d3c 4624 b93c 0eeb 89bd 94b7 2b3d
00000090: bd73 a6bd b2d8 e9bc 61fb 0f3d ff21 623d
000000a0: 5cec f83d 22a0 50be accb 053e c7d0 013e
000000b0: 2115 643d 41f4 c63d b4dc 0d3d 8dfd 84ba
000000c0: 3ff2 4ebd 6239 adbd 9c52 90bd 593b bdbc
000000d0: c6e7 23be bc9a 92bd 8240 f43d da9d a9bd
000000e0: 092c 1a3e be85 0e3b 9800 593d 67cf b43d
000000f0: 8484 b6bd 904e 00be a63c b83d b4ef fabd
00000100: 9844 343d b12a b63c 5e1c be3d d899 b53d
00000110: ac78 333d 116d e33b 5bd3 68bd 8e62 14bd
00000120: af22 53be 7c2c 7ebd 1108 983d 813c 383d
00000130: 9be4 08be f272 dfbc 0f49 b23d c7e9 983c
00000140: fbce b03d 9df0 bcbc 6fb8 2cbe 6c5a 6b3d
00000150: 4f75 183d bbc1 a43d af13 123e fb1a 11be
00000160: f450 64bd ecbe 363c dce9 de3d e0fe ea3d
00000170: 9b8b cfbd c1c2 be3d 3b6d c33d 7007 d83d
00000180: 774a 0bbc 221b 1abe fdd6 1c3a 7728 293b
00000190: e10d ff3d a89a 2fbd 1db9 003d 7446 4fbd
000001a0: b815 0e3e 9515 b63d 502c 94bd 5db7 493d
000001b0: f855 4a3e 7ffc 913a fe16 dfbd 5155 1a3d
000001c0: f831 263d 7320 163e f039 71bd 0f07 823d
000001d0: 167d 15bd e52f 9b3d d84a 943d 49d0 403d
000001e0: 3c80 3b3e 5838 493c 023b e6bd 8436 04be
000001f0: 56e6 4abe 2a25 61bd b9cb 6f3d 7dad d63d
00000200: dc66 1f3e 7528 8c3d 12b5 32bd 4d4c 82be
00000210: a289 acbd 9202 fe3d 319c a1bd 3dcb 093d
00000220: d1a5 983d ad19 ff3d 261d 30bc 30a8 9cbd
00000230: 629e 163d 7455 4c3e 9793 14be 6c42 213c
00000240: 8f1e 793d 919f 75bc 8c4a cc3d 43a2 a93d
00000250: b0b2 d33d b30a 9a3d a1d7 603e a41a a73d
00000260: f3fb 52be c314 933d 718e 843d bf1e 983d
00000270: ee59 eabd 1c29 483d 6f16 ee3d a4bd 023c
00000280: 28ad b13d 9332 b53d 5096 8dbe 1ca7 093e
00000290: 0453 673d ef2f a9bd b22e 30be db32 67be
000002a0: 8897 83bc 723a 08bd f95c e73d f032 8fbd
000002b0: 3a1c 8f3d 27a5 cc3d 23ab 2fbe d986 233d
000002c0: 0a22 c5bd c75d 45be d0d7 fe3d 001f 6ebc
000002d0: 010f 513d 4829 743d 00bc 28be 0f5a b5bc
000002e0: d93d 89bc 8608 72bc a2fe dfbd 30f3 d0bc
000002f0: 35d3 0fbe 9679 e5bd 9d93 3dbe 8274 fc3c
00000300: 1fde 4ebd ffaf 6d3c c77e 09be da93 ea3c
00000310: d77e 3bbd 0fbc a5bd 6a61 3dbe 655a c23d
00000320: 58cf 353e 512f 223e ce22 a6be 6567 c2bb
00000330: 3d18 98bd 53fd 7bbd df42 c03d 9b45 113e
00000340: e11c 873d d0a8 1cbe 4c1e 4f3e 84a9 71bd
00000350: 82ca 31bd b716 e93d d9d4 19bd 8249 fabd
00000360: 3cf5 c53d 0738 c6bc c067 8abc 0af9 e1bd
00000370: 4eeb 2abd 6806 cb3d 8233 d6bc 85b7 413d
00000380: 69ac a6bd c686 403d 1454 33be b823 7abd
00000390: bfc5 9abd 7f19 92bc c444 acbb 53c7 54be
000003a0: 0aea 5c3d b046 28be aabd b2bd df43 3c3d
000003b0: 7403 77bd 7fb6 8dbe 609d cc3d 74af b23c
000003c0: eb8c 793d 75af c1bb 6268 803d 5a59 fa3c
000003d0: 6e44 2b3d 3522 bd3d bab0 8f3d 91a0 87bd
000003e0: dd0e 64be 0bfe ca3d 0623 d9bd 35ae 3bbe
000003f0: bca5 e13d 070e 0b3d 0dc9 a9bd f678 a4bd
-0.097524576 -0.088910006 0.017210443 0.05946557 0.04968326 0.06205663 -0.22003917 -0.021229193
-0.15254499 0.042610828 -0.054611485 0.07341664 -0.07180738 -0.038957506 -0.054223318 -0.054330327
0.033098783 -0.066663526 0.030533278 -0.18409395 -0.17133418 -0.21326439 -0.08641717 -0.021920832
0.045677375 -0.08455528 0.10400166 -0.081046775 0.10458273 0.062063523 -0.11695425 0.089536116
0.015450384 0.022600304 -0.06734286 0.04192312 -0.08127544 -0.028545711 0.035151843 0.055208202
0.12154457 -0.20373586 0.13065976 0.12677298 0.055684213 0.097145565 0.034634307 -0.0010146365
-0.050523993 -0.084582105 -0.070470065 -0.023099588 -0.16006383 -0.071584195 0.119263664 -0.08282061
0.1505586 0.0021747197 0.052979082 0.08828621 -0.08911994 -0.12529969 0.08995943 -0.12252751
0.04401073 0.022237154 0.09282754 0.08867234 0.043816254 0.006940492 -0.05684219 -0.0362268
-0.206187 -0.062054142 0.074234135 0.044979576 -0.13368456 -0.02727649 0.08705341 0.018666161
0.086332284 -0.023063952 -0.16867231 0.05745928 0.03722125 0.08044764 0.14265321 -0.14170448
-0.055741265 0.011153918 0.10884449 0.11474395 -0.101340495 0.0931449 0.095423184 0.105482936
-0.0085016405 -0.15049413 0.00059829635 0.0025811472 0.12453819 -0.0428721 0.031426538 -0.0506043
0.13875473 0.08890835 -0.072350144 0.049247134 0.19759357 0.0011137872 -0.10893057 0.03767902
0.040574998 0.14660816 -0.058893144 0.063490026 -0.036496244 0.075774945 0.07240838 0.047073636
0.18310636 0.0122815 -0.112417236 -0.12911421 -0.19814429 -0.054967083 0.058543894 0.10482309
0.15566581 0.06843654 -0.043629713 -0.25448838 -0.08424689 0.12402834 -0.07891119 0.03364109
0.07453502 0.12456069 -0.010749137 -0.07649267 0.03677214 0.19954473 -0.14509426 0.009842496
0.06082016 -0.014991657 0.09975156 0.08282902 0.10336816 0.07521572 0.21957256 0.08159378
-0.20603923 0.07181694 0.06472481 0.07427739 -0.11442934 0.04886733 0.116253726 0.007979784
0.08675605 0.08847537 -0.27653742 0.13442653 0.056475654 -0.08261096 -0.17205313 -0.22577994
-0.016063467 -0.033258863 0.1129703 -0.069921374 0.06987806 0.09992438 -0.17155127 0.039923523
-0.09625633 -0.19274054 0.12443507 -0.014533758 0.0510397 0.05960968 -0.16477966 -0.02213767
-0.016753124 -0.01477254 -0.10937239 -0.025506586 -0.14045413 -0.11204831 -0.18513341 0.030817274
-0.0505048 0.014507293 -0.13427268 0.028634954 -0.04577526 -0.0809251 -0.18494192 0.09489898
0.17754877 0.15838362 -0.3244843 -0.0059327357 -0.07426498 -0.061520886 0.09387755 0.14186709
0.06597305 -0.15298772 0.20226401 -0.058999553 -0.043406017 0.11381286 -0.037556503 -0.12221052
0.09665915 -0.024196638 -0.016895175 -0.110338286 -0.04172831 0.09913331 -0.026147608 0.04729416
-0.081383534 0.04700353 -0.17512542 -0.06106922 -0.07557248 -0.017834423 -0.005257221 -0.20779161
0.053934135 -0.16433215 -0.08727582 0.045963164 -0.060306028 -0.27678296 0.099909544 0.021812178
0.060925405 -0.0059108087 0.062699094 0.030560184 0.041813307 0.0923504 0.0701613 -0.066224225
-0.22271295 0.09911736 -0.10602383 -0.18328173 0.110179394 0.033948924 -0.082903005 -0.08030884

layer3.bias f4 [256]
00000000: c3ec d73d 7688 ef3d f0c1 3f3e 8284 eb3d
00000010: 71f0 f03d b3fb 4d3d 6be3 02be f1a7 3cbe
00000020: 661c fa3d d98c 5c3e db50 683e a579 4f3e
00000030: 852f 1b3e 7230 883e 346e 58be be19 fcbd
00000040: 80e3 02be e85f 4e3e 7eee 413e 0a07 683e
00000050: 9e76 fa3c 76cc 133e c474 68bd 649e 573e
00000060: 76b3 03be 03f6 413e 0142 403e 0509 51be
00000070: c840 553e b251 87bd f40f 293e e42c 2d3e
00000080: cad1 953c eb84 463e ac4d 2b3e 446b 853e
00000090: 4ebf 923c 46f4 09be e63b 673e 9b78 453e
000000a0: 7b13 15be 6dc9 7b3e fe5f 593e 415e 383d
000000b0: 5464 5a3e 40af 453e d3fc 043e db81 ba3d
000000c0: 4a1c 423e 9cee 543e d531 593e 2d83 623e
000000d0: d34b a9bd d4eb 7b3d be5b 6b3e ffba 523e
000000e0: 5a98 2f3e 54c1 b13c c629 2e3e ea39 273e
000000f0: 5d85 793e be39 b33d ca8f 863e cc7d f8bd
00000100: 44d2 82bd 046f f43d 8d6b 553e 3785 78bb
00000110: b206 c33d da04 e4bd 2601 1f3e 229f 823e
00000120: 70e0 513e 2aaf fcbd 9262 2e3e 84f6 2b3e
00000130: 96ee 613e a4b7 e63d eeec fbbd 81a5 393e
00000140: 1139 e43d 6f6c d13d 36e0 0b3e a110 693e
00000150: f04f 323e 9b97 c7bd 8aab 473e 22a2 d93d
00000160: cfec 533e 2e46 453e f7b4 373e cd02 213e
00000170: 69e3 4d3e 47a5 a93d e4c7 15be 603f 2b3e
00000180: 4d55 ca3d 2f13 623e b5bd 023d 33e1 753e
00000190: 487f 503e 2711 833e b0e2 46bc f7cd 0ebe
000001a0: 0a77 543e 497a 653e c5ea a3bd b662 d63d
000001b0: cc50 adbc 5d74 6c3e 6ea9 683e 6f9c 5d3e
000001c0: 9f2c 523e efb7 cb3d 2916 c13d e4be 9fbd
000001d0: b1bd 333e 7b6d 8f3d 5c54 453d 7f89 103e
000001e0: a657 52be 1a2c ab3d 55d0 f83d aca5 db3d
000001f0: d8cd 473e b355 823e 30a5 573e b56b a03e
00000200: daf4 1abe d194 583e a883 253e f9c7 2e3e
00000210: 5d57 753e cd07 de3d c57b 6d3c 3461 6c3e
00000220: ccc3 c63d a3ee 503e 2752 0e3e 14d9 35be
00000230: d58d 433e b251 2a3e 456a 6d3e c7fd 2d3e
00000240: 2ad0 2d3e 95f5 68bc 2b7a 9a3d 7d52 023e
00000250: 1481 483e 6f0c 303e 08a4 493e dc61 973d
00000260: 6e7b a63d c4fc 143e db70 e73c 4d1d c2bc
00000270: 5d2e 0a3e 99e6 543e 8730 533e 7aa2 0b3e
00000280: dcf4 113e 68f3 b1bc 4313 113e 7bcd 2bbe
00000290: dfc8 8e3e 8e99 c0bd 5ea6 7abe 9510 0c3e
000002a0: fe6f a23d 91a4 4d3e c95b dbbd 89cc 2ebe
000002b0: 3c6a 733e 38c5 2c3e 0727 783d 732e 7c3e
000002c0: 1357 073d 0ea8 653e f478 b43d 4353 02be
000002d0: ac0a 483e 8bfd 443e e25a e9bd 2655 dc3d
000002e0: 2ebb 553e a94f ebbd 4c28 f83d 3b4c 593e
000002f0: 440f 133e 364c 583e 15a4 0b3e 220a c53d
00000300: 0fa9 903e 750d 603e c07a 673e e79e 113e
00000310: ee7f b03d 54ad 633e 68a7 26bd f9d2 103e
00000320: 808a a23d 6fb5 4b3e a576 323e f7fa 1abe
00000330: 8b1f 66bc 4e96 b3bd 85f8 bcbd 60be ff3d
00000340: 37eb 583e cf58 5c3e 7874 4a3e be79 8a3d
00000350: 66c3 233e 20e1 5b3e 2d51 823e 4c42 eb3b
00000360: f3a8 503e b34c a63d 315a 87bd 9dab 3b3e
00000370: 76f4 973d 2115 f23d a550 833d 57bb 993d
00000380: daa9 1a3e 35c8 d8bd af95 523e 2032 bfbd
00000390: 10bf 323e af22 d2bd e234 eabd ca63 7a3e
000003a0: 34a6 2a3e 6699 cbbd 97cc 5a3e 101b 5f3e
000003b0: ef89 a0b9 eb22 6b3c 87f3 dd3d a85c c0bd
000003c0: fb60 363e 2b30 3a3e 4049 833e 88f3 08be
000003d0: fcae 613d 5121 e83d f293 42be 06f1 4d3e
000003e0: 241a de3d 42eb 83bc 3cac 583e fd41 873d
000003f0: f0e1 113e 8f55 d23d c466 263e 3969 b4bd
0.105432056 0.1169595 0.18726325 0.11499883 0.117646106 0.050288867 -0.12782066 -0.1842344
0.12212448 0.21538104 0.22687094 0.20261247 0.15154846 0.2659946 -0.21135789 -0.123095974
-0.12782097 0.20153773 0.18938634 0.22658935 0.03057414 0.14433464 -0.05675198 0.21056515
-0.12861428 0.18941502 0.18775178 -0.20413597 0.20825493 -0.06607379 0.16509992 0.16911656
0.018288512 0.19386642 0.16728848 0.260584 0.017913487 -0.13472089 0.22581443 0.19284289
-0.14558212 0.24588557 0.21228024 0.045011763 0.21327335 0.19305134 0.1298707 0.09106799
0.18956104 0.20794147 0.21210416 0.22120352 -0.082664154 0.0615042 0.22984216 0.20579146
0.17147961 0.021698631 0.17008123 0.16330686 0.2436728 0.08751248 0.26281577 -0.12133369
-0.06387761 0.11935237 0.20841809 -0.00379212 0.095227614 -0.11133738 0.15527782 0.25512034
0.20495772 -0.123380974 0.17029789 0.16793257 0.2206367 0.112654954 -0.1230105 0.18129541
0.11143697 0.1022576 0.13659748 0.2276025 0.17413306 -0.09745713 0.1949903 0.106266275
0.20695804 0.19265053 0.17940126 0.15723725 0.20106281 0.08283477 -0.14627033 0.16723394
0.09879551 0.2207763 0.0319192 0.24011688 0.20361054 0.25599024 -0.012139007 -0.13945757
0.20748535 0.2240993 -0.08003763 0.10468046 -0.021156691 0.23091264 0.22720882 0.21641706
0.20524834 0.09947192 0.09428055 -0.07800081 0.1755283 0.070033036 0.048176154 0.1411495
-0.20541248 0.08358021 0.12149111 0.10724959 0.19512117 0.25456008 0.21059108 0.31332174
-0.15132466 0.21150519 0.16163504 0.17068471 0.23959108 0.10841332 0.014494841 0.23083955
0.09705314 0.20403533 0.13898526 -0.1775859 0.19097073 0.16632727 0.2318507 0.1699134
0.1697394 -0.014218708 0.07542833 0.1272678 0.1958049 0.17192243 0.19691479 0.07391712
0.08129011 0.14549547 0.028252056 -0.023695612 0.13494249 0.20791091 0.2062398 0.13636199
0.14253563 -0.02172251 0.14167504 -0.16777603 0.27887627 -0.09404288 -0.24477527 0.136782
0.07931517 0.20082308 -0.10710866 -0.17070211 0.23770994 0.16872108 0.060584094 0.24627094
0.033042025 0.22427389 0.088121325 -0.12727074 0.19535321 0.19237344 -0.11394288 0.10758428
0.20872185 -0.11489803 0.12117061 0.21220486 0.14361292 0.21122822 0.13636811 0.09621073
0.2825398 0.21880133 0.22605419 0.14220773 0.08618151 0.22234088 -0.040686995 0.1414298
0.07936573 0.1989343 0.17428072 -0.15134798 -0.014045606 -0.08768903 -0.09227089 0.12487483
0.21183477 0.21518253 0.19770992 0.06761502 0.15992507 0.21472597 0.25452557 0.007179534
0.20376949 0.08120098 -0.066089995 0.18327184 0.07419674 0.11820436 0.06411866 0.07506435
0.15103856 -0.105850615 0.20564912 -0.093357325 0.17455697 -0.102605216 -0.11435868 0.24452129
0.16664964 -0.09941368 0.21367107 0.21787667 -0.00030620347 0.014351587 0.10837465 -0.09392673
0.17810433 0.18182437 0.25641823 -0.1337415 0.05509852 0.113344796 -0.19001749 0.20111474
0.1084483 -0.01610339 0.21159452 0.06604383 0.14246345 0.10270225 0.1625014 -0.08809132

layer4.weight f4 [128, 256]
00000000: 625d 873e c661 0e3d 8de2 b2bd 2571 3abd
00000010: 4d4d 17bd c4b3 283c 3421 d73b 081f 0bbc
00000020: 0f35 fb3c 424c ef3c bed5 edbc 6907 a2b8
00000030: 1bb9 e5bd 12bf 853d 66de 723c 3ce4 fabb
00000040: eebb ac3c c35a 633b 6db8 283d ea92 513c
00000050: 0fce 3e3d 43fe a1bd 097b 063e 6ebd 2fbc
00000060: 3f2e da3d 0035 50bd 0b02 253d 6c18 4a3e
00000070: 9c3d 34bc 36b9 633e 647f 46bc b4e1 423d
00000080: 2da1 8f3e 2ee7 3bbd 6732 91bd 2577 313d
00000090: c950 c63b 0cf7 773d 5780 833d 06e1 f63c
000000a0: 8d13 8e3d 249f 063d 38bd e6bb 7424 cfbc
000000b0: 25a4 1ebd 9985 5abd b73d 88bd 6326 c93d
000000c0: 1be6 8dbc 86e3 56bc 36fb cf3c c8f9 29bc
000000d0: eb9b 613d dbb0 c53d 6fd2 98bc 49bc 21bd
000000e0: 6d80 873b f82b 083d aeca 873d 0342 77bd
000000f0: 219d 33bc d2a6 883c b8fa e73c 6e30 103e
00000100: 8895 213e 73c5 133e 94b6 8e3d 0cc8 fb3d
00000110: 7f06 123e ae58 633d fe83 223b c3fb e53d
00000120: fa29 b8bd d416 db3d e525 44bc c953 a73d
00000130: 25c3 373d ca99 b9bd 6ae0 a93d 0e8b 523d
00000140: 7bb1 063e 3e5f bbbd fbe6 023c 5214 b5bb
00000150: 6f37 f3bb ca0c c7bd 7b06 f03d 93de a23d
00000160: 0f1b 09bd 1d08 f6bc 9857 803d 99bf 843d
00000170: d385 923d d88c 7d3d c4f4 813a b154 2abc
00000180: ccca 553c 6c6d 163d 5267 28bc 41af 32bd
00000190: e3d3 f73c 2868 d83d 4ea6 723d 6e51 ef3c
000001a0: d599 b5bc 7bf3 d7bb 65c5 cf3d a555 17bb
000001b0: 8b2e c23d 16fb 703d 67ab da3d 39d3 d6bc
000001c0: 683d b83c 6b8d 9c3d 4a25 e43d 4af6 473e
000001d0: 6989 d9bd fa7c adbc 1f59 b53d 6ce6 e83c
000001e0: 2eb0 83bd f467 223e a3ba 9c3d b2b3 e5bc
000001f0: dd1b 193c 9cbf 643d b20d 3b3c df9d 79bd
00000200: 8aff abbb 25c4 a7bc 1380 97bc 8cf9 26bd
00000210: 8f28 413d af23 623c ffd4 853d e6bc dd3a
00000220: 1f24 aebd 5046 5abd f130 273d 81a9 523d
00000230: 568b 1a3d 19bc c5bd 4ea1 ab3d caf9 afbd
00000240: e487 88bc b161 0c3e c82a 803d 7459 debc
00000250: 0c29 963d a803 84bb ca29 ff3c bf15 f73b
00000260: 687d 67bd b69f beba 107d a53d 5349 7ebc
00000270: 2bf2 f4bc f053 fd3c a173 223d 485f 8c3b
00000280: 68f6 7ebd cf68 88bd 4bbc 1dbd 8185 113e
00000290: effc 753d e473 4b3d e722 80bc c4d6 f13b
000002a0: 2f70 38bd 0988 da3c d6b6 e13d 9e43 9b3d
000002b0: 3f3a 263d 69b7 0fbe 85a3 413e dcb3 8d3d
000002c0: 25c5 793b 78f0 e73b 2bb3 073e cd69 d03d
000002d0: aed0 933c 8d7c 32be 0447 d2bd 919e 513d
000002e0: c78f a73c 9490 1239 94d6 833d df18 95bd
000002f0: d648 d43d 6d17 d8bc 3ff7 35bc 0f67 3e3d
00000300: 3cb7 a83d 864c e63c c868 47bd db4f c33d
00000310: 9c0f 9e3d ad96 953d c162 293e 6ab8 d0bc
00000320: 3afc d23d 73d3 083d 52e9 0bbd 7555 cb3d
00000330: 8ead 023b 13d8 e7bd 3f0b 233b 5617 50bd
00000340: 2115 92ba 57ed 133d c38a e13b ff5f 493e
00000350: f1c7 9d3c dde7 37bd 203e 86bc f88c c13d
00000360: 1efb 293d c994 fb3d 6342 da3d 6197 d93a
00000370: 7c58 b1bc fa1e 55bb e780 723e 9246 2cbe
00000380: 9d9c adbc 1560 903d e6c5 1e3d 4777 913d
00000390: 0f48 ccbc 7cdb 5f3e af08 073d e924 52bd
000003a0: 9b60 b83c a35a 053e d133 3abd 3c20 90bc
000003b0: 0bc0 3c3d e8a7 f13c ce50 443d 10d4 143e
000003c0: 4c3b 0ebc 1daa 833c 5154 1e3d 61fe 543c
000003d0: 6ed4 e23d 73e5 91bb b26b 3cbd b9c5 933b
000003e0: 939c 193d e600 9c3e 5e12 bf3c 8ee7 7bbc
000003f0: 3774 d9bd b43e 01be 3ae5 4ebd ba2c 15bc
0.26438433 0.034761213 -0.087346174 -0.04551806 -0.036938954 0.010296766 0.0065652374 -0.008491285
0.030664949 0.029211167 -0.029032584 -7.726142e-05 -0.11216947 0.065305844 0.014823532 -0.007656602
0.021085706 0.003469155 0.041191507 0.012791375 0.04658323 -0.07909825 0.13132872 -0.010726316
0.10653352 -0.050831795 0.04028515 0.19735879 -0.011001017 0.22238621 -0.012115333 0.04757853
0.28052655 -0.045874767 -0.070896916 0.043326516 0.006052111 0.060538337 0.06420963 0.030136596
0.06937323 0.032866612 -0.0070415996 -0.025285937 -0.03873076 -0.053350065 -0.06652396 0.09821775
-0.017321637 -0.013115769 0.025388341 -0.010374494 0.055080336 0.09652873 -0.01865503 -0.039486203
0.0041351826 0.033245057 0.06630455 -0.060365688 -0.010962755 0.016681109 0.028317794 0.14080974
0.15779698 0.1443079 0.06968418 0.12294015 0.1426029 0.055504493 0.0024797912 0.1122966
-0.089923814 0.106977135 -0.011971925 0.081702776 0.04486384 -0.09062536 0.08294757 0.051402144
0.13153641 -0.091490254 0.00798964 -0.005526104 -0.0074223797 -0.09719236 0.11719986 0.07952609
-0.03347307 -0.030033166 0.06266707 0.06481857 0.07154431 0.061901897 0.0009914865 -0.010396169
0.013048839 0.036725447 -0.01027854 -0.043624166 0.030252403 0.10566741 0.05924063 0.029213633
-0.02216808 -0.0065903044 0.10145072 -0.002309182 0.094815336 0.058833204 0.10677224 -0.026223766
0.022490218 0.07644161 0.11139925 0.19527546 -0.10621912 -0.021177758 0.08854889 0.028430186
-0.06430088 0.15859967 0.07652786 -0.028039787 0.009345022 0.055846795 0.011416839 -0.060941573
-0.0052489685 -0.020479271 -0.018493688 -0.04076533 0.04715782 0.013802453 0.065347664 0.0016917258
-0.08502983 -0.05328971 0.04081816 0.051431183 0.037730537 -0.096550174 0.08380376 -0.08592565
-0.01666636 0.13709141 0.0625816 -0.027142264 0.07332048 -0.004028756 0.031147856 0.007540434
-0.05651608 -0.0014543447 0.080804944 -0.015520412 -0.029900631 0.030923814 0.039661054 0.0042838193
-0.06224671 -0.06660616 -0.03850965 0.14211084 0.06005567 0.04967107 -0.015641643 0.0073803384
-0.04502886 0.026676195 0.11021201 0.07581256 0.04058289 -0.14034809 0.18910034 0.06919071
0.0038111892 0.0070782267 0.13251941 0.1017643 0.018043842 -0.17430325 -0.102674514 0.05117661
0.0204543 0.00013977505 0.06437412 -0.072801344 0.10365455 -0.026378358 -0.011106311 0.046485003
0.08238074 0.028112661 -0.04868391 0.095367156 0.07717821 0.0730413 0.16541578 -0.02547856
0.10302015 0.03340478 -0.03415806 0.09928409 0.0019939872 -0.1132051 0.002487853 -0.050803505
-0.0011145213 0.036115017 0.0068829968 0.19665526 0.019260379 -0.044898856 -0.016387045 0.09450716
0.04149925 0.12284238 0.106571935 0.00166009 -0.021648638 -0.0032519684 0.23681985 -0.16823795
-0.021192843 0.07049576 0.03876295 0.071028285 -0.024936704 0.2186107 0.032967266 -0.05130473
0.022507003 0.13022856 -0.045459572 -0.017593496 0.046081584 0.02949901 0.047928624 0.1453402
-0.00868113 0.016072327 0.03865463 0.013000102 0.11075674 -0.0044524013 -0.046001144 0.0045096544
0.037502836 0.30469435 0.023324188 -0.015375031 -0.10617869 -0.12621576 -0.050511576 -0.009104902

layer4.bias f4 [128]
00000000: 3c80 043c 3c22 c23d 1fc5 b73d e9f4 46bc
00000010: d658 063e 0625 46bb 9e57 9bbc a5b8 37bd
00000020: d757 693e b898 5c3e 7f8d 9a3d 9485 1e3e
00000030: 0b3f 9cbd 2f1a 46bd 3399 083e d4c1 89bd
00000040: ddf8 78bc eaf4 9f3b 6d33 2f3e f443 b83c
00000050: a0df 6cbc fd75 eabc d434 083e 6309 4d3e
00000060: 5c3c eb3d 2c48 16bd b292 933d b9fe 383e
00000070: cd1d 773d 1c49 eabd 53ee 80bd 406f dc3d
00000080: 3122 aabd 085f b93c af8b b2bc 8e39 e93b
00000090: 97a6 3abd 7eb0 283e 761e 04bd 1fad b23c
000000a0: 6647 853c 0b0e 193e 318b 2a3e edf6 5a3e
000000b0: 358a 023d 112b 3ebe ca3e bbbd 8948 90bd
000000c0: 39a0 15bd 416d 0ebb 5ce9 1bbd 7da9 aebc
000000d0: 85d9 f2ba a560 363d c4eb 3fbd f35d 3a3b
000000e0: 70f5 e2bd 392e ea3d a448 1e3e cbfd 773e
000000f0: 09b1 34be d630 f0bc 5c8a 0a3e 0058 39bc
00000100: 3f0e 173e 5a7e 233e 2f00 4d3e a82d 543e
00000110: 6266 0f3e 6893 3f3e f9fd 78bc 34b9 e9bc
00000120: f871 203d a20a ed3d 1296 12bd eaaa a3bd
00000130: 05b8 9cbd 08cc e13d 7f14 e9bd f941 2b3e
00000140: 812b 1d3e 07b0 623e 6ac8 0f3e 04d4 bc3d
00000150: bf53 c03d 8393 30bd 2888 da3d 4d7f babd
00000160: 42ff 03bd 9874 503e 1844 9a3d ed1e 29be
00000170: e9f7 96bb 5a8a 583e b8a6 523e c0e0 a43c
00000180: 45bf e23d bf19 163d 8ebf b3bd 85a9 403d
00000190: 48c4 603e fa3d 483e 27f9 d73d a49f b8bc
000001a0: 0e8c 4d3e dac3 773d 535a 3b3e 8a7e 373e
000001b0: 32b8 133e 8793 d939 5e2f 1e3e 8615 803c
000001c0: b8c7 473c c48d d93d fdd9 db3d b270 d8bc
000001d0: 6580 a3bb 77e4 2c3e 1b89 593d f75c 033d
000001e0: b4ba d03d 5f95 363e 50ea 483e 2972 473e
000001f0: e855 363e ceb6 1f3e a3ce 753c fc43 053e
0.008087214 0.09479186 0.08973145 -0.012143352 0.13119826 -0.003023447 -0.018962678 -0.044853825
0.22787414 0.21542633 0.075465195 0.15480644 -0.07629212 -0.048364814 0.13339691 -0.06726423
-0.015196052 0.004881491 0.17109461 0.02249334 -0.014457613 -0.028620714 0.13301402 0.20023112
0.11486122 -0.036689922 0.07205714 0.18065919 0.060331155 -0.11439726 -0.06295457 0.10763407
-0.08307303 0.022628322 -0.021795122 0.0071174568 -0.04556903 0.16473576 -0.032255612 0.021811066
0.016269397 0.14946763 0.1665466 0.21383257 0.031870086 -0.18571116 -0.091428354 -0.07045085
-0.036529753 -0.00217326 -0.038064346 -0.021321053 -0.0018527961 0.04452576 -0.046855703 0.0028437346
-0.1108197 0.114345975 0.15457398 0.24217908 -0.17645659 -0.029320162 0.13529342 -0.011312485
0.14751528 0.15966168 0.20019601 0.20720541 0.140039 0.18708575 -0.015197271 -0.028530695
0.03917119 0.11574294 -0.03578765 -0.07991584 -0.076522864 0.11025244 -0.113808624 0.16724385
0.15348627 0.22137462 0.14041296 0.09220126 0.09390973 -0.04310943 0.10670501 -0.09106312
-0.032225855 0.20356977 0.07532519 -0.16515703 -0.00460719 0.21146527 0.2057141 0.0201267
0.11071638 0.036645647 -0.087767705 0.047036666 0.21949875 0.19554892 0.10545569 -0.02253706
0.20072958 0.060489513 0.18296175 0.17919365 0.14425734 0.00041499382 0.15447757 0.015635263
0.012193613 0.10622743 0.10734937 -0.026420925 -0.004989671 0.16884027 0.05310927 0.03207108
0.10191861 0.17830418 0.19620633 0.19477142 0.17806208 0.15597078 0.015002879 0.13014215

layer5.weight f4 [1, 128]
00000000: 1392 113e 971b 8cbd e46d 30bd 4e22 ec3d
00000010: b453 84bd a06d f63d 01a8 193e 7e74 ab3d
00000020: b7f9 04be d28d f5bd 0855 613e 3a9f ebbd
00000030: b2c4 fe3d 2b52 103e d346 c9bd d5da 8e3c
00000040: c34f 6a3d 9a93 103e 514a b1bd 3873 b23d
00000050: 3cfb d13d d775 f83d ab0c cfbd 8060 0bbe
00000060: 90fb eabd c1dd 013e ad21 1d3e 54cb 8bbd
00000070: c254 fb3d 1c18 ec3d b4f8 303e 7e74 99bd
00000080: 0945 21bf ab7c 2c3e 4ccc 0f3e 7b38 373e
00000090: a26a 063e f057 b8bd 31f9 c43d 089d c83d
000000a0: f596 293e 0f46 0cbe 515a eabd cb45 0cbe
000000b0: 8af2 3c3e 6d33 aabe 612f f13d cba0 873d
000000c0: 0d64 8d3d 3e28 113e b811 2cbe 0d9d 3e3d
000000d0: df15 fe3c 2efb 473e c11e a23b 7ac1 3a3b
000000e0: 9610 123e 1a6a 06bd ee22 9bbd 2e94 debd
000000f0: bc20 96be 6cb9 6a3d 041a 46bd 3a1f c43d
00000100: 71e7 5bbd 648c 9dbd 05a6 4fbd bb12 8dbd
00000110: bb5c c3bd 4209 36bd 0bda 163e 235c ae3d
00000120: 2eab 0a3e 6c5c 3bbd aa38 203e b577 813b
00000130: d7ec f8bd c8b2 b8bd 5038 033e 0d2e ecbd
00000140: 16a3 c0bd 9e04 eebd 9a75 f9bd 76db f13d
00000150: 3167 82bd e945 64bd afbe 353e 0763 17bf
00000160: 9093 c73d d943 aabd afba 263e 9552 4abe
00000170: 2409 32be d6fa c5bd 25c6 a1bd 635c 313e
00000180: 5f1d 52bd 1919 4d3e bc09 a93d df0f 233e
00000190: 3f61 eebd 69f1 d4bd ecf9 76bd a4ab d63d
000001a0: aabf 8cbd 17a0 123e 8785 49bd 98b2 f7bd
000001b0: 269f e9bd 692b c83d 5c57 08be 2504 113e
000001c0: f8ee cc3d 26dc 923e 6875 d43e 147a d43d
000001d0: 68cc 053d 73a7 82bd 6c34 ac3d 49e2 0f3e
000001e0: 3fc6 15bd 0c6c 82bd fc03 a3bd 07c4 8abd
000001f0: a3ca 3abd 3d64 36bd 2395 fa3d b232 91bd
0.14215879 -0.068412 -0.04307355 0.115299806 -0.064612776 0.12032628 0.15005495 0.083718285
-0.12985884 -0.11989941 0.22005093 -0.115049794 0.124398604 0.14093845 -0.09827962 0.017438332
0.057204973 0.14118806 -0.08656753 0.087133825 0.10252997 0.12131851 -0.10109838 -0.1361103
-0.11473763 0.12682249 0.15344878 -0.06825891 0.12272026 0.11528036 0.17282373 -0.07492922
-0.62995964 0.16844432 0.14042777 0.1789264 0.13126615 -0.09001148 0.09617842 0.09795576
0.16561492 -0.136986 -0.11443008 -0.13698499 0.18451896 -0.3324236 0.11776615 0.06622466
0.06903849 0.14175507 -0.16803634 0.046536494 0.031016288 0.19529411 0.004947514 0.0028496669
0.1426414 -0.03281603 -0.07575022 -0.10868107 -0.2932185 0.05730574 -0.048364654 0.095762685
-0.053687517 -0.07692793 -0.050695438 -0.06888338 -0.09539171 -0.044442423 0.14731614 0.085136674
0.13541862 -0.045742437 0.15646616 0.003951038 -0.121545486 -0.09018475 0.1281445 -0.11532221
-0.09406106 -0.116219744 -0.12180634 0.11809437 -0.063673384 -0.055730734 0.17748521 -0.5913548
0.09744942 -0.08313722 0.16282152 -0.19758065 -0.173863 -0.09666984 -0.07899121 0.17320399
-0.05129754 0.20029105 0.0825381 0.15924023 -0.11639642 -0.10397608 -0.060296938 0.104819566
-0.068724945 0.14318882 -0.049199607 -0.12094611 -0.11407308 0.09773905 -0.13314575 0.14161737
0.10006517 0.28683585 0.41495824 0.10374847 0.03266564 -0.06379595 0.08408436 0.14051165
-0.036566015 -0.063682646 -0.07959744 -0.067756705 -0.045603406 -0.04452919 0.12235477 -0.070897475
