PPO/ppo_critic.pth (torch, 546027 bytes, 9 tensors)

layer1.weight f4 [128, 29]
0	0xbca5188c	-0.020153306
1	0x3d134da6	0.035962723
2	0x3e34b966	0.17648849
3	0x3e2e1c85	0.17003067
4	0x3e2f8742	0.1714144
5	0xbec094ee	-0.37613624
6	0xbe01809e	-0.1264672
7	0x3d681bae	0.056667022
8	0xbd8a9117	-0.06765955
9	0xbcb32732	-0.021869276
10	0xbd385695	-0.045004446
11	0x3e306c51	0.1722882
12	0x3dae4d2d	0.08510814
13	0x3d92b3dc	0.07163212
14	0xbe13c181	-0.14429285
15	0x3e5d7279	0.21625699
16	0xbd52c1a3	-0.051454198
17	0xbd76f01c	-0.06028758
18	0x3ea75646	0.3268301
19	0xbe8e0a24	-0.27742112
20	0xbdc81d1f	-0.097711794
21	0xbca558ae	-0.020183887
22	0xbd7f627e	-0.06234979
23	0xbc976054	-0.01847855
24	0xbba2137e	-0.0049461713
25	0xbc4302a0	-0.011902481
26	0xbd7dfa94	-0.062006548
27	0x3cd77af7	0.026303751
28	0xbc6ba18c	-0.0143817775
29	0xbd515073	-0.051102113
30	0x3d588414	0.052860335
31	0x3d45c7a1	0.048286084
32	0x3e8c58da	0.27411538
33	0x3cef809c	0.02923613
34	0x3c92a95d	0.017903024
35	0x3dc97513	0.09836783
36	0x3e9f1862	0.3107329
37	0x3dff225f	0.12457728
38	0x3e5ee20c	0.21765918
39	0x3e38a3a7	0.18031178
40	0xbe6af4a3	-0.22944884
41	0xbe3565a0	-0.17714548
42	0xbe33ed2e	-0.17570946
43	0xbe35f645	-0.17769726
44	0xbe734e99	-0.23760451
45	0xbd709ec5	-0.058745164
46	0xbbd6dce5	-0.0065570944
47	0xbe20fb22	-0.157208
48	0xbccb0ef4	-0.024787404
49	0xbbe35edb	-0.006938798
50	0xbcc15489	-0.02359988
51	0x3d4c1fff	0.0498352
52	0xbc814d7d	-0.01578402
53	0xbd2a7a77	-0.041620698
54	0x3ce827a7	0.02833922
55	0x3d72b83c	0.05925773
56	0xbc392d9b	-0.011302377
57	0x3d131dac	0.03591697
58	0x3d8b2d0e	0.06795703
59	0xbbea2a46	-0.0071461527
60	0xbe03cba0	-0.12870646
61	0xbca14a32	-0.0196887
62	0xbeeb0770	-0.45904112
63	0x3dc16fc5	0.094451465
64	0xbf00bb28	-0.5028558
65	0xbe63f914	-0.22262985
66	0x3c2b585f	0.010458081
67	0xbd9162e0	-0.07098937
68	0xbdee31bd	-0.116305806
69	0xbbad4d7e	-0.005288779
70	0x3cb6b470	0.022302836
71	0xbba0d1da	-0.0049078288
72	0x3d14a1c6	0.03628709
73	0xbe37b6d7	-0.17940842
74	0xbd677ee1	-0.056517486
75	0xbe0b5372	-0.1360605
76	0x3d87e0e6	0.06634693
77	0x3e00b129	0.12567581
78	0xbe091729	-0.13387741
79	0xbd097658	-0.033560127
80	0x3bdde327	0.0067714634
81	0x3c24dadd	0.010061947
82	0x3d41c9f7	0.04731175
83	0xbccf65f4	-0.02531717
84	0xbcfbfcc1	-0.03076017
85	0xbc4a41f3	-0.012344825
86	0x3c2ecf49	0.010669538
87	0x3d9cce29	0.076565094
88	0x3d908baa	0.07057889
89	0xbd1c9a52	-0.03823311
90	0x3f0274db	0.5095956
91	0xbd816c18	-0.06319445
92	0xbe81ce26	-0.2535259
93	0xbe823a4b	-0.254351
94	0xbcaf666a	-0.02141114
95	0x3d3378b5	0.043816287
96	0xbe0880bc	-0.13330358
97	0x3d91eabd	0.07124851
98	0x3e774ca8	0.24150336
99	0x3ceeca18	0.0291491
100	0x3e19239c	0.1495499
101	0x3dd6211c	0.10455534
102	0x3c75f811	0.015012757
103	0xbe49366c	-0.19649667
104	0xbe6d4066	-0.23169097
105	0xbbd135ba	-0.0063845785
106	0xbdfa946b	-0.1223534
107	0x3e112c6a	0.14177099
108	0x3d0ea7dd	0.034828056
109	0xbcae531a	-0.02127986
110	0x3a00ad88	0.00049086707
111	0xbd0a1d87	-0.033719566
112	0x3d48e91c	0.049050435
113	0xbca7b849	-0.020473616
114	0x3d393c6a	0.04522363
115	0x3be5867a	0.0070045562
116	0x3cf04458	0.029329464
117	0xbd8da49d	-0.06916163
118	0x3c7f9494	0.015599389
119	0x3e89727e	0.26845163
120	0x3e2da62b	0.1695792
121	0x3f4b56f3	0.7942955
122	0x3e0f4ac7	0.13993369
123	0x3d0e8202	0.034791954
124	0x3d36534f	0.044513043
125	0xbb3b8802	-0.0028615003
126	0x3d57f12d	0.052720238
127	0x3dc47912	0.09593405
128	0x3e3ebb0c	0.1862604
129	0x3ec361cc	0.3816055
130	0xbe1cb73a	-0.1530427
131	0xbb7321e1	-0.003709905
132	0x3da8208d	0.082093336
133	0xbed122e9	-0.40846947
134	0xbe53a693	-0.20669012
135	0x3e0b69a3	0.13614516
136	0xbc9f44fe	-0.019442078
137	0xbd2816bc	-0.041037306
138	0x3d3e52cf	0.04646569
139	0x3c9a0914	0.018803157
140	0x3c907c8c	0.017637514
141	0xbca89612	-0.020579372
142	0x3cecbd65	0.028898904
143	0xbcf75138	-0.030190095
144	0x3cdc527e	0.026894804
145	0xbd84017f	-0.06445598
146	0x3daa5047	0.08316093
147	0x3e692a44	0.2277003
148	0x3ed2baaa	0.41158038
149	0x3daea1ad	0.08526931
150	0x3e4aa9ba	0.19791308
151	0xbd76ac76	-0.060223065
152	0x3d5fd5d5	0.054647285
153	0xbaa80510	-0.0012818892
154	0x3e710a5e	0.23539111
155	0xbe086d35	-0.13322909
156	0xbdbc0aef	-0.09181773
157	0xbcc20aa8	-0.023686722
158	0x3dfd8992	0.12379755
159	0x3dcb1c05	0.09917454
160	0x3dcb45fd	0.099254586
161	0x3caf2824	0.021381445
162	0xbdfb75ff	-0.12278365
163	0xbd9bdb72	-0.07610215
164	0xbdb7d105	-0.08975414
165	0xbd60292c	-0.054726765
166	0xbcbffdee	-0.023436513
167	0x3d5945da	0.05304513
168	0x3ca21167	0.019783689
169	0x3ca4a2a7	0.02009709
170	0x3cf3c78c	0.029758237
171	0x3cca1110	0.02466634
172	0xbd1c3f07	-0.038146045
173	0xbd255e12	-0.040372916
174	0x3d3e66a0	0.04648459
175	0xbc73120c	-0.014835846
176	0x3d472457	0.04861864
177	0x3e7bd875	0.2459429
178	0x3c265b25	0.0101535665
179	0x3cf9034c	0.03039708
180	0xbc9105ef	-0.017703025
181	0xbe059875	-0.13046439
182	0xbe524f6b	-0.20538108
183	0x3e9d3c76	0.3071019
184	0xbdaf8f62	-0.0857227
185	0xbe258630	-0.1616447
186	0xbd09d6aa	-0.033651985
187	0xbdde990e	-0.108690366
188	0xbe06811a	-0.13135186
189	0x3e4d8c94	0.20073158
190	0xbe0957ce	-0.13412401
191	0x3d8701fa	0.06592174
192	0xbd68a6a6	-0.056799553
193	0x3e054943	0.13016228
194	0x3dc665d8	0.09687394
195	0x3c699994	0.014257807
196	0xbcd11532	-0.025522802
197	0xbc844d9a	-0.016150285
198	0xbd14e0d8	-0.03634724
199	0xbcce9548	-0.025217667
200	0x3da0b780	0.078475
201	0x3d1a88e1	0.037728194
202	0x3d0ac4e4	0.033879176
203	0x3dbf794c	0.093493074
204	0xbe0aa522	-0.13539556
205	0xbebf252a	-0.3733304
206	0xbe2e1096	-0.16998515
207	0xbea98da1	-0.33115867
208	0x3ed31c5d	0.41232577
209	0xbcfb7234	-0.030694105
210	0x3e037619	0.1283802
211	0xbd4392f4	-0.047747567
212	0x3e237b30	0.15964961
213	0xbe047cff	-0.12938307
214	0x3ba16440	0.004925281
215	0x3dac4e3f	0.08413362
216	0xbe079b71	-0.1324289
217	0xbdada26b	-0.084782444
218	0xbe261afd	-0.16221233
219	0x3dec138f	0.11527168
220	0xbd6df661	-0.058096293
221	0xbcafce0d	-0.021460557
222	0xbd1edca9	-0.038784657
223	0x3a87757a	0.0010334693
224	0xbcca28e4	-0.024677701
225	0xbd356f67	-0.044295695
226	0x3cb49b72	0.022046778
227	0x3c585d38	0.013205819
228	0xbd001d10	-0.031277716
229	0x3ca4fad9	0.020139145
230	0xbd24dd22	-0.04024995
231	0xbcdf8412	-0.027284656
232	0x3d950afd	0.072774865
233	0x3dc200d3	0.094728135
234	0x3e89909d	0.26868144
235	0x3eb47de8	0.3525231
236	0x3db06483	0.08612921
237	0x3cbe01e5	0.023194263
238	0xbe54ffbc	-0.2080068
239	0x3dd579fc	0.10423657
240	0x3dc37220	0.09543252
241	0xbd8ab22e	-0.06772266
242	0xbd0935d0	-0.033498585
243	0xbe0351fb	-0.12824242
244	0xbcbe6a0e	-0.02324393
245	0x3da82a12	0.08211149
246	0xbdff0fe7	-0.12454205
247	0x3e4fdd2e	0.20299217
248	0xbdf1baf5	-0.11803237
249	0x3ba14bb5	0.004922355
250	0x3da69149	0.0813318
251	0x3d001492	0.031269617
252	0xbd39a960	-0.045327544
253	0x3d98cb9f	0.07460713
254	0xbcca8e3f	-0.024726031
255	0xbd3fe5de	-0.046850078

layer1.bias f4 [128]
0	0xbbf58a30	-0.00749328
1	0x3ebfe1c6	0.3747694
2	0xbd302d9e	-0.043012254
3	0x3da7996d	0.081835605
4	0x3c6e2b5b	0.014536704
5	0xbcf66fdc	-0.030082636
6	0xbdfc1cca	-0.123101786
7	0x3e899a64	0.26875603
8	0xbe7a1754	-0.24422961
9	0x3ea27541	0.31730083
10	0x3d09098c	0.03345637
11	0x3e8b1896	0.27167195
12	0xbe578c1d	-0.21049543
13	0x3d1cd387	0.038287666
14	0x3dcd4776	0.10023396
15	0x3dfa4e30	0.12221944
16	0x3ea737ec	0.32659853
17	0x3e872aba	0.26399785
18	0xbd6e9662	-0.058248885
19	0x3d5199f5	0.051172215
20	0xbdb02a15	-0.086017765
21	0xbdb3521b	-0.08755895
22	0xbe122c54	-0.14274722
23	0xbda94b24	-0.08266285
24	0xbe05493f	-0.13016222
25	0xbdf174b8	-0.117898405
26	0x3ebaed9a	0.365094
27	0x3ce6141f	0.028085766
28	0x3e684fca	0.22686687
29	0x3e59e2a3	0.21277861
30	0xbba79e35	-0.0051152953
31	0x3ee4d537	0.4469392
32	0x3e76c546	0.24098691
33	0xbdb8c71f	-0.09022354
34	0xbeae2323	-0.34011182
35	0xbe18fab9	-0.14939393
36	0xbcfb1476	-0.030649405
37	0xbdc9f6e1	-0.098615415
38	0x3e56c3d2	0.20973137
39	0x3d8d0c6e	0.068871364
40	0x3d34cc3a	0.044140078
41	0x3e62cbf0	0.22148108
42	0xbe72b7f4	-0.23702985
43	0x3e585382	0.21125606
44	0xbe223729	-0.15841354
45	0xbe196b07	-0.14982234
46	0x3e4cdb4c	0.2000553
47	0xbe4a7807	-0.1977235
48	0x3e59799e	0.212378
49	0x3ec234f4	0.37931025
50	0x3e9e4ebf	0.30919454
51	0x3e2c142b	0.16804568
52	0xbe037f8f	-0.12841628
53	0xbe0ceea0	-0.13762903
54	0x3e63d89f	0.22250603
55	0x3ec7cbb0	0.3902259
56	0x3e1d64ad	0.15370436
57	0x3e676875	0.22598441
58	0xbdfb508b	-0.12271222
59	0xbc925a53	-0.017865336
60	0x3d08a5bb	0.033361178
61	0x3bafeb5b	0.0053686327
62	0x3ea416b3	0.32048568
63	0x3e090619	0.13381232
64	0xbe22cf24	-0.1589933
65	0x3d9ba6a7	0.07600146
66	0xbe760b1d	-0.24027677
67	0x3d04e8d7	0.032448616
68	0x3e8cc843	0.27496538
69	0x3e9d76df	0.30754754
70	0x3e763d33	0.24046783
71	0x3e185667	0.1487671
72	0x3d9c6444	0.07636312
73	0xbe70d2ee	-0.23517963
74	0xbe44109d	-0.19146962
75	0xbd99945f	-0.07499003
76	0x3c6d0a74	0.014467824
77	0x3e8c55c5	0.27409187
78	0x3e41118e	0.18854353
79	0x3ead9846	0.33905238
80	0xbe73111e	-0.23736998
81	0xbd432d90	-0.047650874
82	0x3cdba1cd	0.026810551
83	0xbe3c59dd	-0.18393655
84	0x3dd81df0	0.10552585
85	0x3dc942ad	0.098271705
86	0xbeb6882f	-0.35650775
87	0x3eade0df	0.33960626
88	0x3e39d076	0.18145928
89	0x3ee07d08	0.4384539
90	0x3eb4d9e3	0.35322484
91	0xbdfd42a8	-0.12366229
92	0xbc725b27	-0.01479224
93	0xbe104d1d	-0.14091916
94	0x3e98593e	0.29755586
95	0x3e97515c	0.2955426
96	0xbe54f859	-0.20797862
97	0x3e256c8c	0.16154689
98	0x3e9e1a35	0.3087937
99	0x3ea57b70	0.32320738
100	0x3e201dc4	0.15636355
101	0xbe0c5ee2	-0.1370807
102	0x3ecdd262	0.40199572
103	0x3d9012f0	0.07034862
104	0x3e6886c3	0.22707658
105	0xbe4b0a8e	-0.19828245
106	0x3e2a056a	0.16603628
107	0x3e2b8dd4	0.16753322
108	0x3de2c667	0.110729985
109	0x3ddc245f	0.10749125
110	0xbe9213a6	-0.28530616
111	0xbe61ce5e	-0.22051379
112	0x3eacd5ad	0.33756772
113	0xbe639913	-0.22226362
114	0xbe93388d	-0.28754082
115	0x3cb3ed59	0.021963762
116	0xbdde2fc3	-0.108489536
117	0x3e99a439	0.30008104
118	0xbe33bd62	-0.17552713
119	0x3db0fca0	0.086419344
120	0xbc93c2e0	-0.01803726
121	0xbcaf8759	-0.021426843
122	0x3e9e95c8	0.3097365
123	0x3db91dd9	0.09038896
124	0x3ecb78d7	0.3974063
125	0x3cd5dd61	0.026106538
126	0x3df3a2b2	0.11896266
127	0x3ddddf06	0.10833554

layer2.weight f4 [256, 128]
0	0xbc7f3e14	-0.015578765
1	0x3d455687	0.048178222
2	0x3d6edc01	0.05831528
3	0xbdd39e21	-0.10332895
4	0x3d8624b5	0.0654997
5	0xbd945bd6	-0.07244079
6	0xbd05df4d	-0.03268366
7	0xbd072f90	-0.033004344
8	0x3b432043	0.0029773868
9	0x3d16e3c7	0.03683832
10	0x3d2ccb0b	0.042185824
11	0x3df45c30	0.11931646
12	0xbe100e92	-0.14068058
13	0xbd9ad75c	-0.07560608
14	0xbdedf537	-0.11619037
15	0x3db71023	0.08938625
16	0xbb9ac7e6	-0.004723537
17	0x3e0263b0	0.1273334
18	0xbd92f751	-0.07176078
19	0x3d876570	0.066111445
20	0x3d2a2e91	0.041548315
21	0x3dc929e5	0.09822444
22	0xbc6d2199	-0.014473342
23	0xbc6c80d5	-0.014435013
24	0x3d133653	0.03594048
25	0xbaa26725	-0.0012390359
26	0x3d209340	0.03920293
27	0x3d9df089	0.07711894
28	0x3c5caeda	0.013469422
29	0x3d882820	0.06648278
30	0xbd21dd95	-0.039517958
31	0xbcf0479f	-0.029331027
32	0x3cd7ae1a	0.026328135
33	0xbd806157	-0.06268566
34	0xbe13576d	-0.14388819
35	0xbd2eced7	-0.042677727
36	0x3d3cd86f	0.046104845
37	0xbce68601	-0.02814007
38	0x3cdc5388	0.0268953
39	0x3da2b638	0.07944912
40	0xbd82e3ea	-0.063911274
41	0x3e132171	0.14368226
42	0xbde48c49	-0.1115957
43	0x3a2b93bd	0.0006545147
44	0xbdeac0aa	-0.11462529
45	0xbc5106bc	-0.012757953
46	0x3dea3007	0.11434942
47	0xbdd2800e	-0.10278331
48	0xbcadc294	-0.021210946
49	0x3d48e844	0.04904963
50	0x3d64f400	0.05589676
51	0x3cbb4f9e	0.022865113
52	0x3ca7c6e5	0.020480582
53	0x3d3aa3b7	0.045566287
54	0x3ddd3a4f	0.10802137
55	0x3cc2d021	0.023780884
56	0x3c4f2e60	0.012645334
57	0xbe120b64	-0.14262158
58	0x3cdd8600	0.027041435
59	0x3da1ee04	0.07906726
60	0xbdfc649a	-0.12323876
61	0x3cea7b22	0.028623167
62	0xbd2dc6b8	-0.04242584
63	0x3d0cfa47	0.03441837
64	0x3d2411dc	0.040056095
65	0xbd5bca3d	-0.053659666
66	0xbcb2fecb	-0.02185001
67	0x3a87e787	0.0010368683
68	0xbd208756	-0.039191566
69	0x3dc14d17	0.09438532
70	0x3d822892	0.063553944
71	0x3d1a4219	0.037660692
72	0xbc397037	-0.011318258
73	0x3c1b91b5	0.0094951885
74	0x3c3fc93c	0.011705693
75	0xbd8a0b05	-0.06740383
76	0x3c8db055	0.017295996
77	0x3dd94b52	0.10610069
78	0xbd8e7a0c	-0.06956872
79	0xbbd1f234	-0.0064070467
80	0xbd9a56ae	-0.07536064
81	0xbd367bb2	-0.04455156
82	0x3d3d23a9	0.046176586
83	0x3d2fbf8f	0.042907294
84	0x3d6c6647	0.057714727
85	0x3dcf485e	0.10121225
86	0xbd530350	-0.05151683
87	0x3d8ca58e	0.068675146
88	0x3c6f2e5f	0.014598458
89	0x3d7b83f7	0.06140515
90	0xbd8d9132	-0.069124594
91	0x3cbc2c94	0.022970475
92	0x3d403ad7	0.046931114
93	0xbd6fecbd	-0.05857538
94	0x3c4872b4	0.012234379
95	0xbe2cef6e	-0.1688821
96	0x3c95a16e	0.018265452
97	0x3c38806b	0.011261086
98	0xbd0fde13	-0.035123896
99	0xbc8a6a7b	-0.016896477
100	0x3c8fbe3a	0.017546762
101	0xbcdc3ec5	-0.0268854
102	0xbd333e91	-0.04376084
103	0x3d33fc18	0.043941587
104	0xbd5fc9e6	-0.054635905
105	0x3c2ea8ba	0.010660345
106	0x3e50dd3a	0.20396891
107	0xbde64fe7	-0.11245709
108	0x3e13561a	0.14388314
109	0x3db23903	0.0870228
110	0x3cfe98fd	0.03107881
111	0x3d261478	0.040546864
112	0x3e0bce7d	0.13652988
113	0xbd5d0ed5	-0.053969223
114	0xbd1a6115	-0.03769024
115	0xbca89f0f	-0.020583658
116	0xbb2c1035	-0.0026254777
117	0x3d4447cd	0.047920037
118	0xbdb96757	-0.09052914
119	0xbe3afe06	-0.18260965
120	0xbd923f67	-0.07140999
121	0xbd4b541f	-0.04964077
122	0x3d9bc269	0.0760544
123	0xbd5d38c4	-0.054009214
124	0x3daa03c3	0.08301499
125	0xbc9d6866	-0.01921482
126	0x3c2130cf	0.009838297
127	0x3de3da17	0.11125582
128	0x3aafb526	0.0013405427
129	0x3c89661c	0.016772322
130	0xbcbef083	-0.023308044
131	0xbdf34a4f	-0.118794076
132	0xbcb862ee	-0.02250811
133	0xbdc3481f	-0.095352404
134	0x3d3ae798	0.04563102
135	0xbce8884c	-0.028385304
136	0xbcd459df	-0.02592176
137	0xbd187916	-0.03722485
138	0x3dd78edd	0.10525296
139	0x3da3a50d	0.07990465
140	0xbcfa7c76	-0.030576926
141	0xbd4c571d	-0.049887765
142	0x3d8c9cc3	0.068658374
143	0xbc20345e	-0.00977811
144	0x3ced1ca0	0.028944314
145	0x3e0cb597	0.13741146
146	0xbcbff722	-0.023433272
147	0xba82fc1b	-0.0009993346
148	0xbde9728e	-0.11398803
149	0xbdc3c080	-0.09558201
150	0xbc376fdd	-0.011196104
151	0x3dbf0640	0.09327364
152	0xbc94915c	-0.018135719
153	0xbd3ace8e	-0.045607142
154	0x3db0ded9	0.08636255
155	0x3d038e8c	0.032118365
156	0xbd819213	-0.063266896
157	0x3c641fe2	0.013923617
158	0xbd03338e	-0.03203159
159	0x3c5540fe	0.013015984
160	0x3d949092	0.07254137
161	0x3d59015f	0.052979823
162	0xbbca955b	-0.0061823553
163	0x3e0618d2	0.13095406
164	0x3c33f0c3	0.010982695
165	0xbdacec6f	-0.08443534
166	0xbd6294d2	-0.055317707
167	0xbc7d5f42	-0.015464606
168	0x3d4ea65b	0.050451618
169	0x3dd00c27	0.10158568
170	0x3d302d0b	0.043011706
171	0x3db2f342	0.08737804
172	0xbd589e2a	-0.052885212
173	0xbddd5813	-0.108078144
174	0x3e1fa7e9	0.15591396
175	0xbd33cfa5	-0.043899197
176	0xbd6daeee	-0.058028154
177	0xbdb8ac2b	-0.090172134
178	0x3d80704d	0.0627142
179	0x3d08f368	0.033435255
180	0xbd203313	-0.03911121
181	0xbd5d45d4	-0.05402167
182	0x3db6df61	0.08929325
183	0xbb19da10	-0.0023475923
184	0xbdfe77f3	-0.12425222
185	0xbd999702	-0.074995056
186	0x3c8fb376	0.017541628
187	0x3cc1a2af	0.023637144
188	0x3d8975e9	0.06711943
189	0x3ce63bd3	0.028104698
190	0x3cf6be31	0.030119987
191	0x3da0fa7e	0.078602776
192	0x3cdd9cea	0.027052362
193	0xbd547dfb	-0.051877957
194	0x3ca3fe3d	0.020018691
195	0xbdc36968	-0.09541589
196	0x3e0ab9f5	0.135475
197	0x3e07b10b	0.1325113
198	0xbd79ec54	-0.061016396
199	0xbd9a8a1b	-0.07545873
200	0xbd5f5660	-0.054525733
201	0xbd745649	-0.0596526
202	0xbdbcae55	-0.09212939
203	0x3c1a1a82	0.009405734
204	0x3d513a5f	0.051081058
205	0xbcb086cb	-0.02154865
206	0xbd23dabf	-0.040003534
207	0x3c937b74	0.018003203
208	0xbd273845	-0.040825147
209	0xbda62507	-0.08112531
210	0xbdd58f0f	-0.10427677
211	0xbbcd13ab	-0.006258448
212	0x3e3a4d1e	0.1819348
213	0x3d30025b	0.042970996
214	0x3c935331	0.017984005
215	0xbda922bd	-0.08258579
216	0xbd4b3871	-0.049614374
217	0xbda42a3c	-0.08015868
218	0x3da99825	0.082809724
219	0xbde22ced	-0.11043725
220	0x3bd41465	0.006472158
221	0xbc7e6fa7	-0.01552955
222	0x3da7ab08	0.081869185
223	0xbe16d91f	-0.14731263
224	0x3cb27a57	0.021786852
225	0x3c3929f5	0.011301507
226	0x3d1689bf	0.03675246
227	0xbdfd8748	-0.123793185
228	0x3cafc83b	0.021457782
229	0xbe1dc6e2	-0.15407899
230	0xbc961cea	-0.018324334
231	0x3cc0e5be	0.02354705
232	0xbd328021	-0.043579224
233	0x3c8aa61a	0.016924907
234	0x3cce6084	0.025192507
235	0x3cdba902	0.026813988
236	0xbc9a87a4	-0.018863507
237	0x3bfeef15	0.0077799656
238	0x3d1deffb	0.03855894
239	0xbc2ee935	-0.010675718
240	0x3cac07ee	0.020999875
241	0x3d4c3599	0.049855802
242	0xbd3c7068	-0.046005636
243	0xbcf15232	-0.02945814
244	0xbe05dde4	-0.13072926
245	0x3d05ebec	0.032695696
246	0x3c8c4c64	0.01712627
247	0x3cf1870c	0.02948334
248	0xbd5e1a5c	-0.054224357
249	0x3d7803c9	0.060550485
250	0x3da227da	0.07917757
251	0x3cc994fc	0.024607174
252	0xbd8ad59c	-0.06779024
253	0x3d0d9b60	0.034572005
254	0xbdaa1771	-0.08305252
255	0xbdb76428	-0.0895465

layer2.bias f4 [256]
0	0x3c50d1d3	0.0127453385
1	0x3def25e7	0.11677151
2	0x3e4b99d0	0.19882894
3	0xbe025695	-0.12728341
4	0x3d55aa58	0.052164406
5	0x3e7d4776	0.24734291
6	0xbc846f6c	-0.016166411
7	0x3e6df0e4	0.23236424
8	0x3e69cf5d	0.22833009
9	0x3e9caa1b	0.3059853
10	0x3e3324d7	0.17494522
11	0xbe00145f	-0.12507771
12	0x3c18ddec	0.009330254
13	0x3e097607	0.1342393
14	0xbd8853c7	-0.06656604
15	0x3e415241	0.18879034
16	0xbe1134ae	-0.14180252
17	0x3d62b76a	0.0553507
18	0xbe2bd63c	-0.16780943
19	0xbd5c3841	-0.053764585
20	0xbd804649	-0.06263406
21	0xbdc54157	-0.09631603
22	0x3e0ab0e4	0.13544041
23	0xbe306ad1	-0.17228247
24	0x3e4246f7	0.18972383
25	0x3cb30dbf	0.02185714
26	0x3e9b6f6f	0.30358455
27	0xb8b95d6a	-8.838887e-05
28	0xbbfb42e2	-0.007667885
29	0x3e86f860	0.2636137
30	0x3e10040e	0.14064047
31	0x3e8d4724	0.27593338
32	0x3d938d26	0.07204656
33	0x3dfd437b	0.123663865
34	0x3bf4a2f2	0.0074657137
35	0x3e3d8e80	0.1851139
36	0x3e5d8c4d	0.21635552
37	0x3da396ed	0.07987771
38	0xbd5f3b6a	-0.05450002
39	0x3e355812	0.17709377
40	0x3e66efa5	0.22552355
41	0xbce90656	-0.028445404
42	0x3e325ba8	0.17417777
43	0x3dbee97d	0.09321878
44	0xbd6cfccb	-0.05785827
45	0x3e941b42	0.28927046
46	0x3e849809	0.25897244
47	0x3e8de667	0.27714846
48	0x3e436fae	0.19085571
49	0x3e1e9f86	0.15490541
50	0x3e2b0d4e	0.16704294
51	0x3e02b3b7	0.12763868
52	0xbdda51ba	-0.10660119
53	0x3daeedd0	0.08541453
54	0x3ea7aa31	0.32747033
55	0x3c35a7e0	0.011087388
56	0x3e991465	0.29898372
57	0x3d0602aa	0.032717384
58	0x3e36710a	0.17816558
59	0x3daeb0d1	0.08529819
60	0x3e37f9d0	0.1796639
61	0x3d17d865	0.037071604
62	0x3e43e3fe	0.19129941
63	0x3da0688c	0.07832441
64	0x3e795628	0.24349272
65	0x3cdf8f5d	0.02729004
66	0x3e954949	0.29157475
67	0x3e87a319	0.2649162
68	0x3e2b71f8	0.16742694
69	0x3d27002e	0.040771656
70	0xbd2fe7e8	-0.042945772
71	0xbc16dcf1	-0.00920795
72	0x3d1360ff	0.035981175
73	0x3e5f54fb	0.21809761
74	0xbda515b4	-0.0806078
75	0x3e92bb51	0.28658536
76	0x3e09d1e8	0.13458979
77	0x3d597a0f	0.05309492
78	0x3e923392	0.2855497
79	0x3e517de9	0.20458187
80	0x3e1a9587	0.15096103
81	0x3dfdf2e0	0.1239984
82	0xbe0004b5	-0.12501796
83	0x3ea36403	0.3191224
84	0x3e0a67d0	0.13516164
85	0x3e985a99	0.2975662
86	0x3e4976bb	0.19674198
87	0x3e5c9dc5	0.2154456
88	0x3da847ce	0.08216821
89	0x3d4a2de3	0.049360167
90	0x3e9cbd00	0.30612946
91	0x3e5ac8ca	0.21365657
92	0x3c945c10	0.018110305
93	0x3d9bf2bd	0.07614658
94	0xbda460bc	-0.08026263
95	0x3e854790	0.2603116
96	0x3e1c05af	0.15236543
97	0x3b4542b1	0.0030099566
98	0x3cbd2581	0.023089172
99	0x3cc5dfc5	0.024154553
100	0x3e8d8fe5	0.27648845
101	0x3de6b170	0.11264312
102	0x3e7dc1ed	0.24781008
103	0x3d85ab0b	0.065267645
104	0x3e11d0bc	0.14239782
105	0x3e4b60a7	0.19861089
106	0x3e0d6136	0.13806614
107	0x3d5f78a0	0.054558396
108	0xbdf6139f	-0.12015461
109	0x3df6f07c	0.120575875
110	0x3dbb3ab3	0.09142055
111	0x3ea45e8e	0.3210339
112	0x3ea240b6	0.31689996
113	0xbc81f633	-0.015864467
114	0x3df550aa	0.11978276
115	0x3e712533	0.23549347
116	0x3e58f419	0.21186866
117	0xbd5b30ef	-0.053513464
118	0x3e6f5f61	0.23376228
119	0x3e87787f	0.2645912
120	0x3e981674	0.2970463
121	0x3e76f3c3	0.24116425
122	0x3e0d48ad	0.13797255
123	0x3df4badf	0.11949705
124	0x3b62e798	0.0034622904
125	0x3e73338d	0.23750134
126	0x3e80e195	0.25172105
127	0x3e98b674	0.298267
128	0x3e649bd8	0.22325075
129	0x3ea027da	0.31280404
130	0x3e8c3282	0.27382284
131	0x3e1cee86	0.15325364
132	0xba086511	-0.00052030483
133	0xbd924669	-0.07142336
134	0x3d259e43	0.040434133
135	0xbe101d26	-0.14073619
136	0x3e9a07b3	0.30084
137	0x3e9d75c7	0.3075392
138	0x3e6e0f6e	0.23248073
139	0xbe09a193	-0.13440542
140	0x3ea06a76	0.31331223
141	0x3e1e8eea	0.15484205
142	0xbd68e28c	-0.056856677
143	0x3e24702b	0.16058414
144	0x3e2ca852	0.16861084
145	0xbcec1cb8	-0.028822288
146	0x3dbd367d	0.092389084
147	0xbdbe954f	-0.09305822
148	0x3e2a24c6	0.1661559
149	0x3e299f5d	0.16564699
150	0x3e88ff97	0.267575
151	0x3e80e5e4	0.25175393
152	0x3c97a03c	0.018509023
153	0x3e193d5f	0.14964817
154	0x3e0e0cdf	0.13872097
155	0xbdab1068	-0.083527386
156	0x3e77d672	0.24202898
157	0x3e8d02a5	0.2754108
158	0x3e925064	0.28576958
159	0x3ca3ca2d	0.019993866
160	0x3e7b77aa	0.24557367
161	0x3e5b6665	0.21425779
162	0x3d9dd212	0.07706083
163	0x3ea31b5d	0.31856814
164	0x3e998f86	0.29992312
165	0xbdd76c92	-0.10518755
166	0xbdc922b8	-0.09821075
167	0x3c6959eb	0.0142426295
168	0x3e871ff3	0.26391563
169	0x3e3eeea8	0.18645728
170	0x3e85e860	0.2615385
171	0xbcdc31ac	-0.026879154
172	0x3e32cf7e	0.17461964
173	0x3e63e55c	0.22255462
174	0x3c8cc9b3	0.017186021
175	0x3e9922a7	0.2990925
176	0x3d10e678	0.035376042
177	0xbd4f77f3	-0.050651502
178	0x3e976642	0.29570204
179	0xbaf2e5e7	-0.0018531651
180	0x3e9c8c29	0.30575684
181	0x3ea5f245	0.324114
182	0x3c43ca88	0.011950143
183	0xbd1be479	-0.038059685
184	0x3ce0c3b0	0.027437061
185	0x3e7ae6aa	0.24502054
186	0x3e436c17	0.19084202
187	0x3db73519	0.089456744
188	0x3e56f403	0.2099152
189	0x3bb20dee	0.0054337895
190	0x3dfe930d	0.124303915
191	0x3e3ffa5a	0.18747845
192	0xbdd64c27	-0.10463744
193	0x3df6c72a	0.12049706
194	0xbe062db1	-0.13103367
195	0xbd1e37a0	-0.038627267
196	0x3cb9ea2e	0.022694673
197	0x3c6878ff	0.014189004
198	0x3d327b63	0.043574702
199	0x3ea4fff2	0.3222652
200	0x3e8d8bc0	0.27645683
201	0x3e9b6d49	0.30356815
202	0xbe5e2efd	-0.21697612
203	0x3e8ecf83	0.27892694
204	0x3d9a13ec	0.07523331
205	0x3e5af452	0.21382263
206	0x3e5234a8	0.205279
207	0x3e669612	0.22518185
208	0x3ea2ee3f	0.31822392
209	0x3cc7b3f6	0.024377804
210	0x3d9f3fd7	0.07775848
211	0x3da423e8	0.08014661
212	0xbd80cd8f	-0.06289207
213	0xbd6e4e62	-0.05818022
214	0x3e494741	0.19656087
215	0x3e875416	0.2643134
216	0x3e7fae3d	0.2496881
217	0x3d638775	0.055549104
218	0x3d1d5ef5	0.038420636
219	0x3da05cc2	0.07830192
220	0xbd455656	-0.04817804
221	0x3e85bb1c	0.26119316
222	0x3e581118	0.21100271
223	0x3e08dcbb	0.13365452
224	0x3e56f739	0.20992745
225	0x3e555df5	0.20836623
226	0xbe26c70e	-0.16286871
227	0x3e50aa39	0.20377435
228	0x3dae9d0d	0.08526049
229	0x3d57e81a	0.052711584
230	0x3e8d31c4	0.2757703
231	0x3e5409a0	0.20706797
232	0xbdd045a7	-0.10169535
233	0x3e11fb9a	0.14256135
234	0x3e84cf8e	0.25939602
235	0xbe563fd4	-0.20922786
236	0x3d021179	0.031754944
237	0xbe3f1cf5	-0.1866339
238	0x3e825f3e	0.2546329
239	0xbd745281	-0.059648994
240	0x3e99ef16	0.3006522
241	0xbe327173	-0.1742609
242	0x3d7925d2	0.060827084
243	0x3e560da0	0.20903635
244	0x3e74abcf	0.23893665
245	0x3e502285	0.20325668
246	0x3eb6b3bb	0.35683998
247	0x3da031ea	0.0782202
248	0xbd44023a	-0.047853686
249	0x3e7ead11	0.24870707
250	0xbae91095	-0.0017781431
251	0x3d4f53fe	0.05061721
252	0xbd0faa26	-0.035074376
253	0x3e8be5bc	0.2732371
254	0x3e0b166e	0.13582775
255	0x3dd28b3f	0.10280465

layer3.weight f4 [256, 256]
0	0xbdcccbad	-0.099997856
1	0xbdcc6798	-0.099806964
2	0x3cbe4ffe	0.023231503
3	0x3d81c4ae	0.06336342
4	0x3d419d31	0.04726905
5	0x3d91c05a	0.07116766
6	0xbe6a5936	-0.22885594
7	0x3c5be95c	0.013422336
8	0xbe2ff184	-0.17181975
9	0x3d56efc1	0.05247474
10	0xbd8597f1	-0.06523121
11	0x3d9c59ed	0.076343395
12	0xbda1f318	-0.079076946
13	0xbd35c350	-0.044375718
14	0xbd3e6320	-0.04648125
15	0xbd8abb64	-0.06774023
16	0x3d15c923	0.036568772
17	0xbd951256	-0.07278888
18	0x3d043c66	0.032284163
19	0xbe3d3f79	-0.18481244
20	0xbe2c8a7b	-0.16849701
21	0xbe5bf0b4	-0.2147854
22	0xbdd0e496	-0.10199849
23	0xbd219821	-0.039451722
24	0x3d46c209	0.04852489
25	0xbda5f5db	-0.08103534
26	0x3de72eba	0.11288209
27	0xbd8fd62f	-0.07023274
28	0x3de54c8a	0.11196239
29	0x3d8dc5f5	0.06922523
30	0xbdfd3f59	-0.12365598
31	0x3dd15d2a	0.10222848
32	0x3bb6eaa6	0.0055821715
33	0x3ce57b34	0.02801285
34	0xbd8e6dbe	-0.069545254
35	0x3d1aceaa	0.037794746
36	0xbdb9be2f	-0.09069478
37	0xbd2fbb4a	-0.042903222
38	0x3d1975c9	0.037465844
39	0x3da53d5b	0.08068343
40	0x3e01b229	0.12665619
41	0xbe4e2071	-0.20129563
42	0x3e0f89d0	0.14017415
43	0x3e110878	0.14163387
44	0x3d80b145	0.062838115
45	0x3dd4bdbf	0.10387754
46	0x3d2e7e1b	0.042600732
47	0xbc88d5fa	-0.016703594
48	0xbcd374d9	-0.025812553
49	0xbda0a4a3	-0.07843902
50	0xbdc803b7	-0.097663336
51	0xbd2e6954	-0.042580917
52	0xbe260322	-0.16212133
53	0xbd9d606e	-0.07684408
54	0x3e031ef8	0.12804782
55	0xbdd426fc	-0.10358998
56	0x3e1f99cd	0.15586014
57	0x3b1b3e9f	0.0023688448
58	0x3d13830b	0.036013644
59	0x3dc27b88	0.09496218
60	0xbdde5abf	-0.10857152
61	0xbdffb5b7	-0.12485831
62	0x3dc413e7	0.095741086
63	0xbe0e7790	-0.13912797
64	0x3d5914e2	0.05299843
65	0x3ca7003c	0.020385854
66	0x3dd26dec	0.10274872
67	0x3dbaa7b1	0.09114016
68	0x3d288c49	0.04114941
69	0x3b889418	0.004168045
70	0xbd6303f3	-0.05542369
71	0xbd1b8e86	-0.037977718
72	0xbe5de9d7	-0.21671234
73	0xbd8d634d	-0.06903706
74	0x3d9deb6f	0.07710921
75	0x3d544a58	0.051828712
76	0xbe095c54	-0.13414127
77	0xbce91d0b	-0.028456232
78	0x3dcc2bc5	0.09969286
79	0x3cdc121a	0.0268641
80	0x3dabe550	0.08393347
81	0xbcc09514	-0.023508586
82	0xbe2c7085	-0.16839798
83	0x3d8762fc	0.06610677
84	0x3d2e9788	0.04262498
85	0x3db20aee	0.08693491
86	0x3e1c2075	0.15246756
87	0xbe3508aa	-0.17679086
88	0xbd6ade3f	-0.057340857
89	0xbbd64b34	-0.0065397266
90	0x3def730f	0.116918676
91	0x3dfac23d	0.12244079
92	0xbdbdbef4	-0.09264937
93	0x3dce8aa7	0.100850396
94	0x3dcc29ea	0.09968932
95	0x3de1418e	0.10998832
96	0xbc8e1de2	-0.017348234
97	0xbe18c917	-0.1492046
98	0xbb3e70fe	-0.0029059048
99	0x3b5c20d6	0.0033588908
100	0x3e013c4c	0.12620658
101	0xbd7986cd	-0.06091957
102	0x3d2da8f2	0.042397447
103	0xbd678108	-0.05651954
104	0x3e143a0b	0.14475267
105	0x3dc735ff	0.09727096
106	0xbda13430	-0.07871282
107	0x3d6889d4	0.05677207
108	0x3e4f36a9	0.20235695
109	0xbb9518ff	-0.004550099
110	0xbdea7ac8	-0.114492
111	0x3d496dc7	0.049176957
112	0x3d47ad53	0.04874928
113	0x3e19e292	0.15027836
114	0xbd7225cb	-0.059118073
115	0x3d95f599	0.07322235
116	0xbcf8e121	-0.030380787
117	0x3da1f1bd	0.07907436
118	0x3d9ecb14	0.07753578
119	0x3d6acfca	0.05732707
120	0x3e44eaf8	0.19230258
121	0x3cdb5842	0.026775483
122	0xbe10b999	-0.141333
123	0xbe1cbf1c	-0.15307277
124	0xbe502a03	-0.20328526
125	0xbd77e6e7	-0.06052294
126	0x3d885c80	0.06658268
127	0x3de8a87d	0.113602616
128	0x3e229b36	0.15879521
129	0x3d9f8384	0.077887565
130	0xbce624ff	-0.028093813
131	0xbe936d3d	-0.2879428
132	0xbdac25ca	-0.08405645
133	0x3e032ed2	0.1281083
134	0xbda0d02b	-0.07852205
135	0x3d1aa21d	0.03775226
136	0x3da801b7	0.08203452
137	0x3e086f93	0.13323812
138	0xbbdd1a3b	-0.0067475117
139	0xbd947396	-0.07248609
140	0x3d34c6f2	0.04413504
141	0x3e591648	0.21199906
142	0xbe1c5659	-0.15267314
143	0x3c7e64eb	0.01552699
144	0x3d8b37dc	0.06797764
145	0xbc884bd7	-0.016637726
146	0x3df60a39	0.120136686
147	0x3daffeef	0.085935466
148	0x3df30ec7	0.11868053
149	0x3d76f21c	0.060289487
150	0x3e87cd11	0.2652364
151	0x3db90c4d	0.09035549
152	0xbe656e40	-0.22405338
153	0x3db94e64	0.09048155
154	0x3da9ddef	0.082942836
155	0x3da19f1c	0.07891676
156	0xbde6ae52	-0.11263718
157	0x3d68c4f8	0.05682847
158	0x3e009ac8	0.12559044
159	0x3c34c672	0.011033641
160	0x3dc2f93d	0.09520195
161	0x3dc211d0	0.09476054
162	0xbe8f6b78	-0.2801168
163	0x3e146134	0.14490205
164	0x3d82ee9e	0.06393169
165	0xbdad9ef6	-0.08477585
166	0xbe30c936	-0.17264256
167	0xbe7d1903	-0.24716572
168	0xbb7a9401	-0.003823519
169	0xbd231f75	-0.03982492
170	0x3df3ba95	0.11900822
171	0xbd9bdad5	-0.07610098
172	0x3d8f1c3a	0.06987806
173	0x3dfe69b3	0.12422504
174	0xbe3d8f6c	-0.18511742
175	0x3d34da7c	0.044153675
176	0xbddcb947	-0.10777526
177	0xbe46cb25	-0.19413431
178	0x3e084a8f	0.13309692
179	0xbc83b21a	-0.016076136
180	0x3d7a3248	0.06108311
181	0x3d8bc1bf	0.068240635
182	0xbe2fe680	-0.17177773
183	0xbcb70095	-0.022339145
184	0xbca71e84	-0.020400293
185	0xbcedebf7	-0.02904318
186	0xbdffa62b	-0.12482866
187	0xbcd0f330	-0.025506586
188	0xbe2e6172	-0.1702936
189	0xbdf2308a	-0.11825664
190	0xbe426eb2	-0.1898754
191	0x3cf04954	0.02933184
192	0xbd5670bd	-0.05235361
193	0x3b51bd13	0.0032003566
194	0xbe0b1e11	-0.13585688
195	0x3d037538	0.03209421
196	0xbd5006ef	-0.050787862
197	0xbda5bc0f	-0.0809251
198	0xbe331cbb	-0.17491429
199	0x3dd5080c	0.104019254
200	0x3e3b12fb	0.18268959
201	0x3e284208	0.16431439
202	0xbea8008c	-0.32812917
203	0xba178907	-0.00057806115
204	0xbd99d140	-0.075106144
205	0xbd7a8482	-0.061161526
206	0x3dc7b852	0.09751953
207	0x3e22c324	0.15894753
208	0x3d9749f8	0.07387155
209	0xbe1e640f	-0.15467857
210	0x3e6447fb	0.22293083
211	0xbd7fa520	-0.062413335
212	0xbd331c5f	-0.04372823
213	0x3df330e2	0.11874558
214	0xbd1ecef6	-0.038771592
215	0xbe201e4b	-0.15636556
216	0x3dd5efd1	0.10446132
217	0xbcc63807	-0.024196638
218	0xbc9b09f3	-0.018925643
219	0xbdf0f77e	-0.117659554
220	0xbd56639d	-0.052341092
221	0x3ddd07c7	0.10792499
222	0xbd6c33bc	-0.057666525
223	0x3d5369d0	0.051614583
224	0xbdbd556e	-0.0924481
225	0x3d4c4a80	0.049875736
226	0xbe335414	-0.17512542
227	0xbda48dd2	-0.080348626
228	0xbda25910	-0.079271436
229	0xbcbf2f1b	-0.023337891
230	0x3a2c1de4	0.00065657333
231	0xbe6a5fd3	-0.22888117
232	0x3d628b63	0.05530871
233	0xbe339de6	-0.17540702
234	0xbdd8f114	-0.10592857
235	0x3d4b1a4f	0.049585637
236	0xbd7d903c	-0.06190513
237	0xbe9595f5	-0.2921597
238	0x3ddc639d	0.10761187
239	0x3ccefaf4	0.025266148
240	0x3d86d92a	0.065843895
241	0xbc0afee5	-0.008483623
242	0x3d806862	0.062699094
243	0x3d2191c1	0.039445642
244	0x3d402c72	0.046917386
245	0x3db80755	0.089857735
246	0x3d9e937f	0.077429764
247	0xbd8402e2	-0.06445862
248	0xbe6c919e	-0.23102424
249	0x3de1c822	0.110245004
250	0xbdde4949	-0.10853822
251	0xbe4b5e90	-0.19860291
252	0x3de8ccee	0.11367212
253	0x3dbac9d2	0.091205254
254	0xbdd4391a	-0.10362454
255	0xbdb9b5c8	-0.09067875

layer3.bias f4 [256]
0	0x3df30b58	0.11867398
1	0x3de9dd15	0.11419121
2	0x3e3da3d8	0.18519533
3	0x3df6323a	0.12021299
4	0x3df0f071	0.117646106
5	0x3d6ee430	0.058323085
6	0xbe00bd23	-0.1257215
7	0xbe46c65e	-0.19411609
8	0x3dfa1c66	0.12212448
9	0x3e60193d	0.21884628
10	0x3e74bff1	0.23901345
11	0x3e4f98dc	0.20273155
12	0x3e184cd8	0.14873064
13	0x3e8e6ed7	0.2781894
14	0xbe60de79	-0.21959867
15	0xbe063040	-0.13104343
16	0xbe0f62f6	-0.14002594
17	0x3e5bc024	0.21460015
18	0x3e4e97c8	0.20175087
19	0x3e746e00	0.23870087
20	0x3cfa769e	0.03057414
21	0x3e0cb18d	0.13739605
22	0xbd37996f	-0.04482406
23	0x3e5cc2f9	0.21558751
24	0xbdf82a39	-0.12117428
25	0x3e3ef605	0.18648537
26	0x3e4fe0c0	0.20300579
27	0xbe3f27fe	-0.186676
28	0x3e61d5dd	0.22054239
29	0xbd664216	-0.05621537
30	0x3e330531	0.17482449
31	0x3e3337f4	0.17501813
32	0x3d00b708	0.031424552
33	0x3e424673	0.18972187
34	0x3e2c8833	0.16848831
35	0x3e8af790	0.27142
36	0x3cf4f3a2	0.02990133
37	0xbe158174	-0.14600164
38	0x3e75121a	0.23932686
39	0x3e472388	0.19447148
40	0xbe1a295e	-0.15054843
41	0x3e847612	0.2587133
42	0x3e65bd7a	0.22435561
43	0x3d385e41	0.045011763
44	0x3e6088c7	0.21927176
45	0x3e45312c	0.19257039
46	0x3dff8051	0.12475646
47	0x3de399a1	0.11113287
48	0x3e4234f9	0.1896552
49	0x3e5c97bb	0.21542256
50	0x3e655cc1	0.22398664
51	0x3e6c5e3a	0.2308282
52	0xbd9b4fe4	-0.07583597
53	0x3d9272d3	0.07150807
54	0x3e794896	0.24344096
55	0x3e61b696	0.22042307
56	0x3e310e3d	0.17290588
57	0x3cb1c154	0.021698631
58	0x3e33eccb	0.17570798
59	0x3e23814e	0.15967295
60	0x3e809e13	0.251206
61	0x3db339be	0.08751248
62	0x3e8cffe6	0.27538985
63	0xbdea134a	-0.1142946
64	0xbd593440	-0.053028345
65	0x3e001c6f	0.12510847
66	0x3e61f14e	0.22064707
67	0x3c110abe	0.008852659
68	0x3dcca961	0.09993244
69	0xbde2bf8d	-0.11071692
70	0x3e203878	0.15646541
71	0x3e89250d	0.2678608
72	0x3e55dde2	0.20885423
73	0xbdeb8821	-0.11500574
74	0x3e2aebfd	0.16691585
75	0x3e38f000	0.18060303
76	0x3e6f861f	0.23391007
77	0x3de2b859	0.11070318
78	0xbe0779ff	-0.13230132
79	0x3e463eb2	0.19359854
80	0x3df7e111	0.12103475
81	0x3dd1f0b0	0.102509856
82	0x3e116e4e	0.14202234
83	0x3e759ed7	0.23986374
84	0x3e3e8302	0.18604663
85	0xbde03324	-0.10947254
86	0x3e4a2bec	0.19743317
87	0x3def448c	0.11682996
88	0x3e59b1a6	0.21259174
89	0x3e4564e2	0.19276765
90	0x3e420a30	0.18949199
91	0x3e2d6c4f	0.16935848
92	0x3e5967c7	0.21230994
93	0x3db6632a	0.08905633
94	0xbe13774d	-0.14400978
95	0x3e283c18	0.16429174
96	0x3dea8f6f	0.11453139
97	0x3e6e7313	0.23286085
98	0x3d02bdb5	0.0319192
99	0x3e820b2a	0.25399143
100	0x3e4bb857	0.19894539
101	0x3e88f51d	0.26749507
102	0x399ae95b	0.00029547032
103	0xbe1a8003	-0.15087895
104	0x3e56e362	0.20985177
105	0x3e727e85	0.23681076
106	0xbd892bd2	-0.06697811
107	0x3ddb00ed	0.10693536
108	0xbc089a0b	-0.008337508
109	0x3e78fd75	0.24315436
110	0x3e764d28	0.2405287
111	0x3e6206d2	0.22072914
112	0x3e5e796d	0.21726008
113	0x3db44e5a	0.08804007
114	0x3dd15339	0.102209516
115	0xbd8574d3	-0.06516423
116	0x3e3444c0	0.17604351
117	0x3d8f6d7b	0.070033036
118	0x3d770ecd	0.06031685
119	0x3e1b50d3	0.1516755
120	0xbe5b9a06	-0.21445474
121	0x3db6e8a3	0.08931091
122	0x3e044243	0.12915902
123	0x3ddf3f5e	0.10900758
124	0x3e4a3ae0	0.19749022
125	0x3e87f3d3	0.2655321
126	0x3e706756	0.2347692
127	0x3ea6e020	0.3259287
128	0xbe15e580	-0.14638329
129	0x3e5bb187	0.2145444
130	0x3e31b62a	0.17354646
131	0x3e2ec7f9	0.17068471
132	0x3e80ce72	0.25157505
133	0x3dfed820	0.12443566
134	0x3ce2b6db	0.027675083
135	0x3e6f3005	0.23358162
136	0x3dbf81cc	0.09350929
137	0x3e54a7ca	0.20767131
138	0x3e1aea58	0.15128458
139	0xbe403782	-0.18771175
140	0x3e4da764	0.20083386
141	0x3e258db8	0.16167343
142	0x3e7800ec	0.24219102
143	0x3e2b8e30	0.16753459
144	0x3e3afb2d	0.18259878
145	0xba809bc3	-0.0009812046
146	0x3d8de301	0.06928063
147	0x3e08887b	0.13333313
148	0x3e54cc4b	0.20781057
149	0x3e3bf4cd	0.18355103
150	0x3e4d8fc9	0.20074381
151	0x3d96244f	0.07331144
152	0x3d9efd90	0.07763207
153	0x3e207377	0.15669046
154	0x3d2a3c7a	0.04156158
155	0xbc3fd667	-0.011708832
156	0x3e05f5f4	0.13082105
157	0x3e60b086	0.21942338
158	0x3e5e8e2d	0.21733923
159	0x3e0fcab2	0.14042166
160	0x3e0c60ad	0.13708754
161	0xbcfb60fd	-0.030685896
162	0x3e08c10f	0.13354896
163	0xbe2a81d0	-0.16651082
164	0x3e95462a	0.29155093
165	0xbdb41cb8	-0.0879454
166	0xbe8122f3	-0.25221977
167	0x3e125bd3	0.1429284
168	0x3d9c20d4	0.07623449
169	0x3e5a3353	0.21308641
170	0xbde31123	-0.11087253
171	0xbe3baa36	-0.18326649
172	0x3e7c3367	0.24628983
173	0x3e2a4c15	0.16630585
174	0x3d9619cb	0.07329138
175	0x3e83414d	0.25635758
176	0x3d3c00a7	0.04589906
177	0x3e6a9869	0.22909702
178	0x3dbbc479	0.091683336
179	0xbe0da8f0	-0.13833976
180	0x3e5321a5	0.20618303
181	0x3e43085a	0.19046155
182	0xbdf111b7	-0.11770957
183	0x3decbf54	0.115599304
184	0x3e58c3d4	0.21168453
185	0xbdd8a71f	-0.10578751
186	0x3e092c66	0.13395843
187	0x3e5cf2a3	0.21576934
188	0x3e1d6df3	0.15373974
189	0x3e5fcd2b	0.21855609
190	0x3e10d05d	0.14141984
191	0x3dc50a22	0.09621073
192	0x3e970a5c	0.2950009
193	0x3e6e5567	0.23274766
194	0x3e6787d5	0.2261041
195	0x3e1a3a8a	0.15061393
196	0x3dd1eca9	0.102502175
197	0x3e6fe003	0.23425297
198	0xbced3861	-0.028957548
199	0x3e0be590	0.1366179
200	0x3dbb922f	0.09158742
201	0x3e586e8d	0.21135922
202	0x3e3276a5	0.17428072
203	0xbe23d81f	-0.16000412
204	0xbc661f8b	-0.014045606
205	0xbdc5fccf	-0.0966736
206	0xbda2db56	-0.07951991
207	0x3dfacc2e	0.122459754
208	0x3e6424d3	0.22279672
209	0x3e697129	0.22797073
210	0x3e57e837	0.21084677
211	0x3da57089	0.08078105
212	0x3e24d2cb	0.16096036
213	0x3e63dba7	0.2225176
214	0x3e88f939	0.26752642
215	0x3ca60fd1	0.020271214
216	0x3e4ec424	0.20192009
217	0x3db7cf89	0.08975131
218	0xbd6413b8	-0.055682868
219	0x3e39a5ec	0.181297
220	0x3d97f476	0.07419674
221	0x3deb01d1	0.11474956
222	0x3d9ef1f4	0.07760993
223	0x3d9542f0	0.07288158
224	0x3e24eee3	0.16106753
225	0xbdcfc700	-0.10145378
226	0x3e57e1c0	0.2108221
227	0xbdbef2e0	-0.093236685
228	0x3e4231c3	0.18964295
229	0xbdbc72c9	-0.09201581
230	0xbdfe20be	-0.12408589
231	0x3e82be90	0.25536013
232	0x3e385bed	0.18003817
233	0xbdad7ba0	-0.08470845
234	0x3e5ecbf6	0.21757492
235	0x3e6746d0	0.22585607
236	0x3c540f7c	0.012943145
237	0x3ce10634	0.027468778
238	0x3ddb57c9	0.10710103
239	0xbdb1c4a2	-0.08680083
240	0x3e313ff8	0.17309558
241	0x3e3d5325	0.18488748
242	0x3e89d4e5	0.26920238
243	0xbe0292e4	-0.12751347
244	0x3d8b34a0	0.06797147
245	0x3ddfe7c9	0.109328814
246	0xbe4bb5a1	-0.19893505
247	0x3e4df106	0.20111474
248	0x3dde1a24	0.1084483
249	0xbb80c818	-0.003930103
250	0x3e65c2a5	0.22437532
251	0x3d89b2fc	0.06723592
252	0x3e11fd26	0.14256725
253	0x3dccfa7e	0.10008715
254	0x3e3ac167	0.1823784
255	0xbdc608dc	-0.096696585

layer4.weight f4 [128, 256]
0	0x3e8b1662	0.27165514
1	0x3cdf9de0	0.02729696
2	0xbddd0de5	-0.10793666
3	0xbd53a864	-0.05167426
4	0xbd174d4d	-0.036938954
5	0x3cb37457	0.021906061
6	0x3be3620d	0.006939179
7	0xbc617d1f	-0.013762741
8	0x3cfb350f	0.030664949
9	0x3d566b52	0.052348442
10	0xbcb28318	-0.021791026
11	0xbba1a98b	-0.004933541
12	0xbe047975	-0.12936957
13	0x3d96ab39	0.07356877
14	0x3c10be4b	0.008834432
15	0xbc3c2baf	-0.011485024
16	0x3cb4e6b7	0.02208267
17	0x3c3370e9	0.010952213
18	0x3d45a794	0.048255518
19	0x3cad330a	0.021142501
20	0x3d3ece0f	0.04658323
21	0xbda31743	-0.07963421
22	0x3e0f35f9	0.13985433
23	0xbc984f02	-0.018592361
24	0x3dc66dba	0.096888974
25	0xbd459608	-0.048238784
26	0x3d425afd	0.047450054
27	0x3e75c23d	0.23999877
28	0xbb1d57cd	-0.0024008632
29	0x3e65355c	0.22383636
30	0x3a605c41	0.0008558669
31	0x3d9cb847	0.076523356
32	0x3e9355aa	0.28776294
33	0xbd97b75b	-0.07408019
34	0xbd935ce5	-0.071954526
35	0x3d678f29	0.056533013
36	0x3c72eb24	0.01482657
37	0x3d78564b	0.06062917
38	0x3d8cdfad	0.068786
39	0x3ca203e4	0.019777246
40	0x3d973416	0.073829815
41	0x3d4755e5	0.0486659
42	0x3a82a96e	0.0009968707
43	0xbccf2474	-0.025285937
44	0xbd1562da	-0.036471225
45	0xbd6e7c2b	-0.058223885
46	0xbdb77b0b	-0.089590155
47	0x3de0a157	0.10968273
48	0xbcd94a75	-0.026524762
49	0xbc185c19	-0.009299302
50	0x3d060509	0.032719646
51	0xbb1d11e9	-0.0023966974
52	0x3d7355b8	0.05940792
53	0x3dec65c3	0.11542847
54	0xbc1c2c24	-0.009532008
55	0xbca52417	-0.02015881
56	0xbb4dad90	-0.003138397
57	0x3d082bf8	0.033245057
58	0x3db2f3fb	0.08737942
59	0xbda7d2e7	-0.08194523
60	0xbc040776	-0.008058419
61	0x3c88a6d2	0.016681109
62	0x3d111b53	0.03542645
63	0x3e0d6926	0.13809642
64	0x3e239027	0.15972959
65	0x3e156396	0.1458877
66	0x3db7d931	0.08976973
67	0x3e06c8cf	0.1316254
68	0x3e315909	0.1731912
69	0x3d36af45	0.044600744
70	0xbbe0fb2f	-0.006865881
71	0x3df8f383	0.12155821
72	0xbdc7bacd	-0.09752426
73	0x3dcab326	0.09897451
74	0xbc4c91f7	-0.012485973
75	0x3db91dd1	0.0903889
76	0x3d5aed81	0.053449158
77	0xbdf2516b	-0.118319355
78	0x3da679ba	0.08128686
79	0x3d73f769	0.05956212
80	0x3e061b67	0.1309639
81	0xbdc67bf0	-0.09691608
82	0xbb63cb3d	-0.003475859
83	0x3b2e516b	0.0026598822
84	0x38d6bc2a	0.000102393635
85	0xbdc0272c	-0.093824714
86	0x3e17cc7e	0.14824101
87	0x3de13af9	0.10997576
88	0xbd098752	-0.033576317
89	0xbd0db227	-0.034593727
90	0x3d8d79c7	0.06907993
91	0x3d93df63	0.07220342
92	0x3da1bec8	0.07897717
93	0x3dd1efd6	0.10250823
94	0x3a86ec14	0.0010293745
95	0xbc30cb91	-0.0107907215
96	0x3d0ec6c0	0.03485751
97	0x3d366e10	0.044538558
98	0xbc286752	-0.01027854
99	0xbd10e11e	-0.03537094
100	0x3cc4cc06	0.024023067
101	0x3debb272	0.11508645
102	0x3d7ed51d	0.06221496
103	0x3cc7955e	0.024363216
104	0xbd00e852	-0.031471558
105	0x3c26ad8d	0.010173214
106	0x3ddadda7	0.10686808
107	0xbc84ef1b	-0.016227296
108	0x3dc58015	0.0964357
109	0x3d9906dd	0.07472012
110	0x3defa27f	0.117009155
111	0xbd047255	-0.032335598
112	0x3cfc6e26	0.030814242
113	0x3d960080	0.07324314
114	0x3e0b0390	0.13575578
115	0x3e4f8dc5	0.20268925
116	0xbe0d40db	-0.13794272
117	0xbcad7cfa	-0.021177758
118	0x3dd88237	0.105717115
119	0x3d134d4d	0.03596239
120	0xbd9b7817	-0.07591265
121	0x3e47965e	0.19490954
122	0x3da95c93	0.0826961
123	0xbd219e0d	-0.03945737
124	0x38f0227b	0.00011450514
125	0x3d96311f	0.07333588
126	0x3cb70f8a	0.022346277
127	0xbd503a8a	-0.050837077
128	0xbc89e670	-0.016833514
129	0xbccfb49f	-0.025354682
130	0xbc336b69	-0.010950902
131	0xbd26f98c	-0.04076533
132	0x3d628757	0.05530485
133	0x3cab81e8	0.020935968
134	0x3d8f3673	0.06992807
135	0xbac6ad01	-0.001515776
136	0xbdb96656	-0.09052722
137	0xbd826c6a	-0.063683346
138	0x3d53209c	0.05154477
139	0x3d3c8411	0.046024386
140	0x3d4058a2	0.046959527
141	0xbdf65ecb	-0.12029799
142	0x3dc65485	0.096840896
143	0xbda5e5ed	-0.081004955
144	0xbc23fad9	-0.010008537
145	0x3e0ffb92	0.1406081
146	0x3d6fd0a5	0.05854859
147	0xbceff01d	-0.0292893
148	0x3da8062f	0.082043044
149	0x3b8319ef	0.0040008943
150	0x3cb11bb1	0.02161965
151	0x3c520876	0.0128194
152	0xbdacefaa	-0.0844415
153	0x3c8106ae	0.015750255
154	0x3dae1cbd	0.08501575
155	0xbbfe9ec9	-0.0077703935
156	0xbcd3fd43	-0.0258776
157	0x3d1a5a43	0.037683737
158	0x3d4c26a6	0.049841546
159	0x3a2c9ea4	0.00065849186
160	0xbd899ca2	-0.067193285
161	0xbd906a2f	-0.07051503
162	0xbdaad277	-0.08340924
163	0x3e1d6b1a	0.15372887
164	0x3d88cf59	0.066801734
165	0x3d3f6b96	0.04673346
166	0xbc95f7ac	-0.018306576
167	0x3ca152c0	0.019692779
168	0xbd931dad	-0.071833946
169	0x3d0f5fd4	0.0350035
170	0x3dddfd59	0.10839338
171	0x3d9f0996	0.077655
172	0x3d43f478	0.047840565
173	0xbe36fc65	-0.17869718
174	0x3e4b253f	0.19838427
175	0x3db2e464	0.08734968
176	0x3c482bf1	0.012217508
177	0x3aa7d6bb	0.0012805084
178	0x3e25e4f3	0.16200618
179	0x3dd0b29c	0.10190317
180	0x3cd27084	0.025688417
181	0xbe5482b6	-0.20752987
182	0xbe106c62	-0.14103845
183	0x3d6bd5a0	0.057576776
184	0x3c8fd9e1	0.017559947
185	0x3b8f6b01	0.0043767695
186	0x3d863479	0.06552977
187	0xbdb2b042	-0.08725025
188	0x3dde1a03	0.10844805
189	0xbcd8ac03	-0.02644921
190	0xbc746432	-0.014916467
191	0x3d3e670f	0.046485003
192	0x3db30e12	0.08742918
193	0x3d2a1e5b	0.041532855
194	0xbd525765	-0.051352877
195	0x3e00a630	0.12563396
196	0x3dac8f7b	0.08425804
197	0x3da54971	0.080706485
198	0x3e319046	0.17340192
199	0xbd0e701e	-0.034774892
200	0x3decfb5c	0.115713805
201	0x3d26288f	0.040566023
202	0xbd0be952	-0.03415806
203	0x3dc3a5ff	0.095531456
204	0x3b02ad8e	0.0019939872
205	0xbdebe303	-0.115179084
206	0x3bda9d77	0.0066716033
207	0xbda41c96	-0.08013265
208	0x3c9abcd7	0.018888874
209	0x3d316ac8	0.043314725
210	0x3c8342fb	0.01602315
211	0x3e52e4bd	0.20595069
212	0x3c1c671f	0.00954607
213	0xbd22cc9c	-0.039745912
214	0xbc113e6b	-0.008864979
215	0x3dd0bd2d	0.101923324
216	0x3d2b02de	0.04175078
217	0x3e159717	0.14608417
218	0x3e29b220	0.16571856
219	0xbbffbcf0	-0.0078045055
220	0xbcb1587c	-0.021648638
221	0xbd0ada8e	-0.033899836
222	0x3e7a2a34	0.24430162
223	0xbe4b2306	-0.19837579
224	0xbc6fa9bf	-0.014627873
225	0x3d903c1c	0.07042715
226	0x3d048651	0.032354657
227	0x3d91e982	0.07124616
228	0xbba16a3c	-0.004925994
229	0x3e91a253	0.28444156
230	0x3d040cc4	0.032238737
231	0xbd30b567	-0.04314175
232	0x3d147f56	0.03625425
233	0x3e2505b0	0.16115451
234	0xbd4185a9	-0.04724661
235	0x390aee2b	0.0001324943
236	0x3d459997	0.048242178
237	0x3d0a8988	0.033822566
238	0x3d2e2a1a	0.04252062
239	0x3e13a2e0	0.144176
240	0xbc22ec95	-0.009944101
241	0x3b8dbec7	0.004325721
242	0x3d4098f2	0.04702086
243	0x3c563895	0.013075014
244	0x3df47379	0.11936087
245	0xbcb27032	-0.021782015
246	0xbd50a87a	-0.05094192
247	0x3b93c5b9	0.0045096544
248	0x3d199c93	0.037502836
249	0x3ea03dec	0.31297243
250	0x3cfd0f73	0.030891156
251	0xbbee5cb6	-0.0072742356
252	0xbdf27ae7	-0.11839848
253	0xbe242f64	-0.16033703
254	0xbd19c2bc	-0.03753923
255	0xbc5eac98	-0.013590954

layer4.bias f4 [128]
0	0x3cb53faf	0.022125093
1	0x3dc2223c	0.09479186
2	0x3db7c51f	0.08973145
3	0x3aedbec3	0.0018138516
4	0x3e0658d6	0.13119826
5	0x3c336d55	0.01095136
6	0xbba0c938	-0.0049067996
7	0xbcfe6554	-0.031054176
8	0x3e6eded8	0.23327196
9	0x3e6710dd	0.22565027
10	0x3db6fc4d	0.08934841
11	0x3e279345	0.16364773
12	0xbd7f324b	-0.062303822
13	0xbd0c9c45	-0.034328718
14	0x3e089933	0.13339691
15	0xbd89c1d4	-0.06726423
16	0xbc78f8dd	-0.015196052
17	0x3c9afaa4	0.018918343
18	0x3e2f336d	0.17109461
19	0x3d14c098	0.036316484
20	0xba105a65	-0.0005506634
21	0xbc6fdd80	-0.014640212
22	0x3e0b63aa	0.13612238
23	0x3e55969d	0.20858236
24	0x3deb3c5c	0.11486122
25	0xbcb9e531	-0.022692295
26	0x3dafe994	0.08589473
27	0x3e38feb9	0.18065919
28	0x3d981276	0.07425396
29	0xbdcdb29d	-0.100438334
30	0xbd481bd8	-0.04885468
31	0x3ddc6f40	0.10763407
32	0xbdbd3fa7	-0.09240656
33	0x3d1667f7	0.036720242
34	0xbbfe4965	-0.007760214
35	0x3ca8a89c	0.020588212
36	0xbd014212	-0.03155715
37	0x3e28b07e	0.16473576
38	0xbc96927a	-0.018380392
39	0x3d123642	0.035696276
40	0x3cf8b36f	0.030358998
41	0x3e1d3ffe	0.15356442
42	0x3e2a8b31	0.1665466
43	0x3e65f125	0.2245527
44	0x3d3a6e09	0.045515094
45	0xbe490daa	-0.19634119
46	0xbd9ea48f	-0.07746231
47	0xbd68a780	-0.056800365
48	0xbcbb33e0	-0.022851884
49	0x3c4261e1	0.011864156
50	0xbd4c94dc	-0.04994665
51	0xbcaea97d	-0.021321053
52	0x3bfa789b	0.007643772
53	0x3d6ef7af	0.05834168
54	0xbd3febc4	-0.046855703
55	0x3b3a5df3	0.0028437346
56	0xbdc634fe	-0.09678076
57	0x3dea2e39	0.114345975
58	0x3e28490a	0.16434112
59	0x3e7b7c32	0.24559096
60	0xbe3e2222	-0.18567708
61	0xbc813cca	-0.015776057
62	0x3e0a8a5c	0.13529342
63	0x3b27d3ee	0.0025608498
64	0x3e170e3f	0.14751528
65	0x3e237e5a	0.15966168
66	0x3e4d002f	0.20019601
67	0x3e5fc7d0	0.21853566
68	0x3e0f6662	0.140039
69	0x3e3f9368	0.18708575
70	0xba963ba4	-0.0011461866
71	0xbc71300c	-0.014720928
72	0x3d59de4f	0.053190526
73	0x3ded0aa2	0.11574294
74	0xbcb1e6fe	-0.021716591
75	0xbda3aaea	-0.07991584
76	0xbdb24504	-0.0870457
77	0x3de1cc08	0.11025244
78	0xbdcc6830	-0.0998081
79	0x3e30fc55	0.17283757
80	0x3e206e50	0.15667081
81	0x3e6cec2f	0.23136972
82	0x3e1d64c4	0.1537047
83	0x3dd823d5	0.105537094
84	0x3dc053bf	0.09390973
85	0xbd57c594	-0.05267866
86	0x3df741b4	0.12073079
87	0xbdcc85a7	-0.0998643
88	0xbc964ef9	-0.018348204
89	0x3e507498	0.20356977
90	0x3db65c98	0.089043796
91	0xbe35713f	-0.17718981
92	0xbb96f7e9	-0.00460719
93	0x3e5931d9	0.21210422
94	0x3e52a6b8	0.2057141
95	0x3d0b28f6	0.03397461
96	0x3de2bf45	0.11071638
97	0x3d4f080d	0.050544787
98	0xbd97816c	-0.07397732
99	0x3d794800	0.06085968
100	0x3e647e98	0.22313917
101	0x3e483dfa	0.19554892
102	0x3dd7f927	0.10545569
103	0xbc0d411d	-0.008621481
104	0x3e553695	0.20821603
105	0x3d973b05	0.07384304
106	0x3e3b5a53	0.18296175
107	0x3e377e8a	0.17919365
108	0x3e17c955	0.14822896
109	0x3c6a45b4	0.014298845
110	0x3e210547	0.1572467
111	0x3cf31530	0.029673189
112	0x3cd5b000	0.0260849
113	0x3df661aa	0.12030347
114	0x3df6cc71	0.12050713
115	0xbc4cfa42	-0.012510838
116	0xbba38065	-0.004989671
117	0x3e34d131	0.17657925
118	0x3d80cd8f	0.06289207
119	0x3d3cd893	0.04610498
120	0x3dd0bab4	0.10191861
121	0x3e36955f	0.17830418
122	0x3e48f6b3	0.19625358
123	0x3e477229	0.19477142
124	0x3e3655e8	0.17806208
125	0x3e1fb6ce	0.15597078
126	0x3ced6bb0	0.028982013
127	0x3e0543fc	0.13014215
