PPO/ppo_actor.pth (torch, 549599 bytes, 10 tensors)

layer1.weight f4 [128, 29]
000000 08 62 7b 3e b0 f0 17 3e 5c b0 1d be 5d d3 0a be
       0.24549115 0.14837909 -0.15399307 -0.13557191
000010 5b 5e fd 3c 5a d0 46 3e 61 6d b3 bd cf c4 ee bc
       0.030928781 0.19415417 -0.08761097 -0.02914658
000020 1b 1b 3c be 76 d2 7f be 6b aa 2a 3d cd a9 8a bd
       -0.18369715 -0.24982628 0.04166643 -0.06770668
000030 48 bf 7c 3d ef 2c 73 be b8 43 af bd 97 aa 8e 3d
       0.061705858 -0.2374761 -0.08557838 0.06966131
000040 2b fa 44 bd 18 12 01 3b e4 9a 67 bc cb da 60 3e
       -0.04809014 0.0019694623 -0.01413605 0.21958463
000050 8c a8 2a 3e e9 4d 02 be d0 d3 89 3c 94 18 51 3c
       0.16665858 -0.12725033 0.016824633 0.012762208
000060 7f 83 29 3e c3 5a 20 be a2 f2 af 3d 9a 0f 1d 3e
       0.16554068 -0.15659623 0.085912004 0.15337983
000070 82 87 c6 3d a6 b3 9a bd 59 10 01 3e 56 9d 2d 3e
       0.09693815 -0.075537965 0.12603892 0.1695455
000080 7b 21 20 bd 79 70 04 3e 7e 50 76 3e 71 8c 43 3e
       -0.03909443 0.1293353 0.24054143 0.19096543
000090 1d 31 b7 3a 04 e7 61 3d 5e 04 e3 3d 28 9f 1d be
       0.0013976429 0.055151954 0.11084817 -0.15392745
0000a0 01 00 37 be 85 91 0a be 8e a4 18 be b2 e4 be bc
       -0.17871095 -0.13532074 -0.14906523 -0.02330241
0000b0 72 5f a1 bd 6b cc 07 be dc 1b dc 3d 0e 80 b7 3d
       -0.07879533 -0.13261573 0.10747501 0.08959971
0000c0 96 4f 44 bd ae 7a ed 3d 5c f1 ea 3d 6b 04 0d 3e
       -0.04792746 0.11595665 0.11471817 0.13771217
0000d0 89 c1 33 3e b9 a7 19 3e 07 01 07 be 53 a7 bf 3d
       0.17554297 0.15005387 -0.13183986 0.093580864
0000e0 b1 f4 4e bd 1f e8 1f be 8a a4 ed 3d 60 83 10 be
       -0.050526325 -0.15615891 0.11603649 -0.14112616
0000f0 33 60 9f bd 04 38 19 3d 5b 45 af 3d aa 00 3d be
       -0.077820204 0.037406936 0.085581504 -0.18457285
000100 54 23 4f be 17 81 f0 3c aa d0 d5 3c 87 af ad bd
       -0.2022832 0.02935843 0.026100475 -0.08480745
000110 bf fe 98 bd 6a 21 3c 3e 2e 59 13 be 5c 60 2c 3c
       -0.07470464 0.18372121 -0.14389488 0.010521021
000120 c0 41 02 be 9f 71 86 bc 51 34 83 bd 72 58 53 be
       -0.12720394 -0.0164116 -0.06406463 -0.20639208
000130 87 5a 12 3e 21 c4 8c ba 36 fd c2 3b 30 7c b4 bd
       0.14292346 -0.0010739603 0.0059505953 -0.088127494
000140 6a 78 08 3e 22 f3 0e 3d 03 e8 79 bd 96 bc f6 3b
       0.13327184 0.03489984 -0.06101228 0.0075298054
000150 cf 90 ef bd fe 80 f9 3c 04 7e da bd 5e 1c 93 bc
       -0.11697542 0.030457016 -0.10668567 -0.017957862
000160 9e eb 05 3e 6c b3 42 3d a4 81 c1 bd 4f f8 70 ba
       0.13078162 0.04753439 -0.09448555 -0.00091922743
000170 8e 2a 35 3d 83 11 d2 3d a9 57 3d 3e e6 eb 4a be
       0.044230036 0.10257246 0.18490471 -0.1981655
000180 6e 71 15 3e 14 39 58 3c 68 81 1f be 89 d5 4e 3c
       0.14594051 0.013197202 -0.15576708 0.012624153
000190 dd 33 fa bb ea 2c 10 3d 52 a7 18 be 0b 0f 8c 3d
       -0.007635577 0.035199083 -0.14907578 0.06838807
0001a0 ab 5f c2 3d 1d 4c c2 ba 7d 17 00 bd 1b 13 6e bd
       0.094909035 -0.0014823709 -0.0312724 -0.05812369
0001b0 70 02 d5 bc 18 e2 06 be 87 1b d8 3d e1 9c 28 bd
       -0.026002139 -0.13172185 0.105521254 -0.041165236
0001c0 4b 15 4a be 8d ba 9a 3c 00 af 1a 3e 11 c2 cd 3d
       -0.19734685 0.018887782 0.1510582 0.10046781
0001d0 ff 15 c9 3d 84 df a7 bd 7e 25 04 3e de 52 70 3a
       0.098186485 -0.08196929 0.12904927 0.00091676216
0001e0 0a f5 f2 3d c8 26 cd bd 2b e7 0f 3e d6 24 32 3d
       0.11863144 -0.100171626 0.14053027 0.04349216
0001f0 c4 c8 bf 3d bb 51 a6 be ec 75 40 3e 30 43 d0 3d
       0.09364465 -0.3248423 0.18794984 0.10169065
000200 ad 4b 9e 3b d5 41 fc bb 43 a4 13 be a9 87 0a be
       0.0048307986 -0.0076982775 -0.1441813 -0.13528313
000210 46 34 31 3e 9d 86 53 3e 85 4c 1f 3d 43 98 cc bc
       0.17305097 0.2065682 0.038891334 -0.024974948
000220 e9 d3 3d be f4 04 a7 bd 53 62 30 bd 6e 6e e2 bd
       -0.18537869 -0.081552416 -0.04306252 -0.11056219
000230 eb d3 21 be de b3 e9 bc eb b0 54 3d 55 df f3 3d
       -0.15803497 -0.02852815 0.051926535 0.119078316
000240 3f 84 86 3d 63 af be 3d 63 b1 e3 3d 2f d2 cb 3c
       0.06568193 0.09310796 0.11117818 0.024880497
000250 05 73 56 3e 24 a3 52 be a0 36 4a 3e fc a3 0d be
       0.20942314 -0.20570046 0.197474 -0.13832086
000260 2a 1f 90 bc bd 71 0f 3e e0 44 9a 3e db 30 a3 3d
       -0.017592985 0.14008231 0.30130672 0.07968303
000270 8a 9c 5b 3c 4f 91 75 3c a6 ea 26 be ad 46 0c 3e
       0.013404021 0.014988258 -0.16300449 0.13698836
000280 7f 1a 3d 3d e1 ce 0c 3e 4e 9a 91 3d 95 d6 3b bd
       0.046167847 0.13750793 0.071095094 -0.04585894
000290 26 49 f4 3c 7e 7e 11 be ae 62 05 be 05 9a ea bd
       0.029820036 -0.14208409 -0.13025925 -0.11455158
0002a0 b2 d7 e8 3d 0a da 57 3d 98 e0 a7 bc 6d a1 6b 3d
       0.113692656 0.052698173 -0.020492837 0.057526994
0002b0 21 f9 a0 3d ec 72 11 be 87 ff 37 3d b4 5c 0d 3e
       0.078600176 -0.14203995 0.044921424 0.13804895
0002c0 99 c4 8f 3d 2d be 7c bd 4e 19 25 bd e2 98 b1 bd
       0.0701992 -0.061704803 -0.040307336 -0.08671738
0002d0 3e c4 6b bb 7d 85 a4 3e 7b 64 cf 3d f7 f3 7f be
       -0.0035975124 0.32133093 0.10126587 -0.24995409
0002e0 30 90 ba 39 98 37 33 3d 30 36 25 3e e9 33 0a 3e
       0.00035584113 0.04375419 0.16133952 0.13496365
0002f0 fc ea 8b bd 1d a0 cf 3d ac d1 0a be 20 57 6b 3e
       -0.06831929 0.10137961 -0.13556546 0.22982454
000300 25 e3 61 bd 36 13 9f 3d ca ce 1d be c1 b7 9f bc
       -0.055148263 0.07767336 -0.15410915 -0.0194968
000310 fd 86 f0 bd de 2f b1 3a 2a 46 21 be cc 35 06 3e
       -0.11744497 0.0013518294 -0.15749422 0.1310646
000320 c1 93 87 bd 7d ee 78 bc e2 32 88 bc 4e 74 11 3e
       -0.06619979 -0.015193579 -0.016625825 0.14204523
000330 8c de 68 3d 1a 49 0f 3e 27 3d 49 3e 05 76 ca 3d
       0.056852862 0.1399273 0.19652234 0.09885792
000340 a7 80 bc 3a d0 0f 09 3e 92 6b 19 3d dc e2 a2 bd
       0.0014381603 0.13384938 0.037456103 -0.07953426
000350 a2 18 b4 be ca 36 4b bd d0 b4 2d 3c 00 3d 50 bc
       -0.35175043 -0.049612798 0.010602191 -0.012709856
000360 ee be 92 be 68 92 6f bd 08 ac 00 be 3b 76 b3 3d
       -0.28661293 -0.058489233 -0.12565625 0.08762785
000370 1e 5c 39 3e ed bf 1f bd 8f ff d0 bc 2c ca d8 bd
       0.18101546 -0.039001394 -0.025512485 -0.10585436
000380 2f 7c 98 bd a4 f3 3a bd 8b 1b e0 3c 71 3f 9d bd
       -0.07445561 -0.04564251 0.027356884 -0.07678116
000390 e0 a5 a8 bd 75 40 d5 bc 52 69 e7 bd b7 b8 11 bd
       -0.08234763 -0.026031712 -0.11299385 -0.03557655
0003a0 e8 ad 3d be 19 2e af bd a8 5f 1e bd 7d a9 03 be
       -0.18523371 -0.08553714 -0.038665444 -0.12857623
0003b0 d1 8f de 3d 66 8e 67 3d 11 89 0f 3e 35 4a 02 3e
       0.108672746 0.056532286 0.1401713 0.1272362
0003c0 da 38 9b bd 77 37 d3 bd 26 75 2d 3e c9 75 a6 bd
       -0.07579203 -0.103133135 0.1693922 -0.081279345
0003d0 1c cf 28 3e 97 7d 37 3e be 75 8d bd e1 b8 ef 3d
       0.16485256 0.17919002 -0.06907223 0.11705185
0003e0 e2 89 ba bd 1a 50 00 be 44 c9 87 3e d9 f4 60 be
       -0.0910833 -0.12530556 0.2652074 -0.21968402
0003f0 fb 16 d4 bd ed 0e d5 3d 76 64 e4 bc 24 49 03 be
       -0.10355946 0.104032375 -0.027879935 -0.1282087

layer1.bias f4 [128]
000000 bb 49 32 3e 35 a6 35 be 5c 96 25 3e 94 b0 a2 bd
       0.17410938 -0.17739184 0.16170639 -0.07943836
000010 db f1 16 3d 8b c9 4b 3e 49 ea a9 bd 97 2f af bc
       0.036851745 0.19901101 -0.082966395 -0.021384997
000020 0c 48 16 3e b8 3b f6 bd e6 74 50 bc c2 48 74 bd
       0.14675921 -0.12023109 -0.012723183 -0.0596397
000030 4f 97 c2 bd e4 5c 8f bd 17 d6 27 3e 8e 1f 9a bd
       -0.09501516 -0.07000139 0.16390263 -0.0752555
000040 6f 69 11 3e 9a 5d 6a bd 80 70 2d 3d b1 bc cf 3d
       0.14200376 -0.05721817 0.042343616 0.10143412
000050 ea 2b c5 3d e6 a3 6b bd 7b c5 a0 bd 63 81 51 3e
       0.096275166 -0.057529353 -0.078501664 0.20459513
000060 6d 51 df 3d c8 05 a2 bb ce 5a 3e 3e ba b7 c3 bd
       0.109042026 -0.004944537 0.18589327 -0.095565274
000070 a1 50 9e bc 21 c3 1f 3e 1e e8 57 ba a4 3d e2 3d
       -0.019325556 0.1560178 -0.0008236187 0.11046913
000080 94 20 2e 3e 82 94 4f 3d 07 96 9f 3d 25 59 04 3e
       0.17004615 0.050678737 0.07792287 0.12924631
000090 5a 93 20 3e 8e aa 61 3c 2d ad ba 3d 7c 9d bf 3d
       0.1568121 0.013773574 0.09115062 0.0935621
0000a0 ef 9a dd bd 1e 9c 1d 3e f7 23 e9 bd c6 f4 84 bd
       -0.10820567 0.15391585 -0.11383813 -0.06491999
0000b0 e1 dd b7 bd 6b 55 6a bc f4 8e 2a 3c 4c 3b 99 3d
       -0.08977867 -0.014302592 0.010410059 0.07482013
0000c0 0b 91 0d be 38 77 df 3a ad ab d2 ba 53 60 1e bd
       -0.13824861 0.001704908 -0.0016072892 -0.03866608
0000d0 46 14 b8 3b 77 92 0a bd 59 d2 d6 3d d6 91 01 3e
       0.005617651 -0.033831086 0.104893394 0.12653288
0000e0 c2 59 fc bd 82 2d 58 bd cf ab 09 be d6 6d a9 bd
       -0.123218074 -0.052777775 -0.13444446 -0.08272903
0000f0 3e 35 fa bd 55 62 f3 3b fe c0 21 bd bf a9 13 3e
       -0.122171864 0.0074274936 -0.039490692 0.14420222
000100 34 10 c0 3c c8 84 3b bd 0c de 93 3d 9e fc 27 be
       0.023445226 -0.045780927 0.072200865 -0.1640496
000110 46 26 9e 3d 39 f1 6e bd e7 25 8a bd 58 ea 60 3d
       0.07722144 -0.058335517 -0.067455105 0.054910988
000120 6c 7a b2 3c 6a 6a 43 be 4c ad 62 3d 0e 72 cc bd
       0.02178689 -0.19083562 0.05534105 -0.09982692
000130 af 0a 99 bd 57 d6 a0 3c 7a 79 58 3a d5 7e 3a 3e
       -0.07472741 0.019633455 0.00082578475 0.18212445
000140 f6 b5 0d 3c e1 4f 53 bd 49 c8 1e 3e b6 83 95 bc
       0.00864934 -0.05158985 0.1550609 -0.018251281
000150 a3 87 8a 3d 56 50 25 bc 88 7c a7 bd 1a 74 28 be
       0.06764152 -0.010089954 -0.08178049 -0.16450539
000160 7b e3 03 3e da 21 00 3d 16 2d 99 bc 47 3a b6 bd
       0.12879746 0.031282283 -0.018698256 -0.08897834
000170 ce e1 2d 3d 37 f4 54 3e 6a 91 2c 3e 20 62 ac bd
       0.042451672 0.20796286 0.16852346 -0.08417153
000180 4d 0e 46 3e 45 eb 3f bd e7 b8 c9 3d 85 44 f4 3d
       0.19341393 -0.04685523 0.098497204 0.119271316
000190 e1 56 0b 3e 66 46 12 be 45 8c 60 bd fb ee 25 be
       0.1360736 -0.14284667 -0.05482127 -0.16204445
0001a0 38 47 1a be 00 ed 2d 3e f3 96 01 3d e3 26 c9 bc
       -0.1506623 0.1698494 0.031638097 -0.024554675
0001b0 19 59 05 3e d4 8b 10 be 8a 79 8e 3d 77 48 13 3e
       0.1302227 -0.1411584 0.069567755 0.14383112
0001c0 cf 2e 39 3e 09 4a f4 bd 32 ba 0c be a3 61 dc 3d
       0.18084262 -0.119281836 -0.13742903 0.1076081
0001d0 82 38 3f 3c ac 05 54 bd 63 80 07 be 38 48 3b 3d
       0.011671187 -0.05176322 -0.1323257 0.04572317
0001e0 0a b0 bb 3d 73 1b 3b be 06 6f 08 bd 4b 1d 9c bd
       0.09164436 -0.1827219 -0.033309005 -0.07622775
0001f0 49 71 e1 bd 35 83 1e bd 44 a1 3a be e5 8f 3b be
       -0.110079356 -0.038699348 -0.1822558 -0.1831661

layer2.weight f4 [256, 128]
000000 14 50 d8 bd 2b 50 6f bd 63 f8 fa bc d9 27 d3 bd
       -0.10562149 -0.058426064 -0.030636018 -0.10310335
000010 b2 fc 3a 3d 4d 09 20 bd 4b 25 6b bb 30 1b 92 bd
       0.045651145 -0.03907137 -0.0035880383 -0.07134092
000020 06 fb c9 3d 7b 1a 80 bd 4b cf c8 bd 3d c8 ae bd
       0.09862332 -0.06255051 -0.09805163 -0.08534286
000030 d5 ab 81 3d 5b a0 5a bd c3 55 2f bd 8d f3 b9 bd
       0.063316025 -0.053375583 -0.042806398 -0.09079657
000040 0c a3 9b 3d ed 10 72 bc 5e 68 69 3c 2f e7 20 bd
       0.07599458 -0.014774543 0.0142460745 -0.039282974
000050 ec 33 76 3d 04 c8 d8 bc 34 13 b4 bd 8e 8f 58 3c
       0.06010811 -0.026462562 -0.08792725 0.01321782
000060 eb 3d 4c 3d 42 47 d4 3c 68 85 18 be 4d cf c1 bd
       0.049863737 0.025912885 -0.1489464 -0.094633676
000070 09 84 43 3b 2d d4 05 3d 46 ec 12 bd 43 f3 4a 3d
       0.0029833338 0.03267305 -0.03586986 0.0495484
000080 d4 0d 60 3d 5c ba b5 bd a1 4f 1f 3c 61 8f e1 bc
       0.054700688 -0.08873436 0.009723575 -0.027534189
000090 7f 1a f6 bc e5 4b da 3c ea 37 9e 3d d6 ea 74 bd
       -0.030041931 0.026647517 0.077255085 -0.05979427
0000a0 69 db 35 3d d2 cc 3a bd 73 d0 dc 3c d9 00 1d 3d
       0.0443987 -0.045605488 0.026954865 0.038330887
0000b0 1f 3e 3a 3d c4 4c b0 bd 87 2c 34 3d 63 96 8e bc
       0.0454694 -0.08608392 0.043987777 -0.017405694
0000c0 f1 ce 81 bd 21 22 49 bd 0d 40 e4 bc 03 ff 07 bd
       -0.06338299 -0.049104813 -0.027862573 -0.033202183
0000d0 65 56 75 3d 91 e7 ae 3d b9 1e 5f bc 9b b7 29 3c
       0.059896845 0.085402615 -0.013618165 0.010358716
0000e0 7d 63 81 3d 88 9d 9a bb 9c d5 93 bc df 93 a0 bd
       0.06317804 -0.004718486 -0.018046193 -0.07840704
0000f0 cf dd 8e bd e5 d8 b2 bc ae f2 33 3d 93 7d fb bc
       -0.069759004 -0.021831939 0.04393261 -0.030699527
000100 dd 5d a1 3d 37 e2 08 3c ff 9e 9e 3d bc 24 cc bd
       0.07879231 0.008354715 0.0774517 -0.09967944
000110 36 8a f1 3c 73 ad 87 bd be 7c 81 bd f8 25 a4 bd
       0.02948485 -0.0662488 -0.06322621 -0.080150545
000120 83 65 ea 3a 7f 28 85 3d 93 70 7a bd c1 86 7d 3d
       0.0017883036 0.06501865 -0.061142515 0.06189609
000130 d6 96 0a be ec 70 9f bc e4 d9 b6 3d bc 7c 89 3c
       -0.13534102 -0.019463025 0.08928278 0.01678311
000140 14 f7 8b 3d 4a 77 74 bb 13 a8 52 3d 86 7d 3c 3d
       0.06834236 -0.0037302547 0.05142982 0.046018146
000150 74 81 4e bd b8 e9 20 bd fe b7 12 bd 53 ef 2b 3c
       -0.050416425 -0.03928539 -0.03582 0.010494071
000160 4b 7b ce 3d 19 c1 77 3d 76 8a 2f 3d dc 63 d0 3c
       0.1008211 0.060486887 0.042856656 0.025438242
000170 38 17 8d bc 45 c8 13 3c 3f 3e 7c 3d c2 5f c8 3c
       -0.017222986 0.009019916 0.0615828 0.024459723
000180 4d f3 a4 bc 42 ed 2e 3d f7 1a 86 3c 81 23 55 bc
       -0.020135546 0.042706735 0.01637028 -0.013008953
000190 3b a5 a0 3d 10 a1 1d 3d eb cd 23 bd c8 c1 c3 3b
       0.07844015 0.03848368 -0.0399913 0.0059740283
0001a0 e3 d7 16 bc 8b 2c fb bb 31 91 11 3d 43 e9 39 3d
       -0.009206745 -0.007665222 0.035538856 0.04538847
0001b0 d7 4d 1b bd 8b f9 73 3d 5d 3e 0f 3d af d8 45 3d
       -0.03791603 0.059564155 0.034971584 0.04830235
0001c0 33 2e f6 3b 89 01 ad bd 18 41 dd 3c 86 24 7d 3d
       0.0075128316 -0.084475584 0.027008578 0.06180241
0001d0 78 ff 0f 3d 92 71 55 3d 5e b0 b7 3b bb e7 95 bd
       0.035155743 0.052110262 0.0056057414 -0.0731959
0001e0 cb b0 a2 bd 05 92 88 bc 8c e8 36 bd 7b 7f 51 bd
       -0.07943877 -0.01667119 -0.044655368 -0.051146965
0001f0 be 6c b9 bd 87 7f b2 3d 4b c0 a6 3d 3f 7e 35 3d
       -0.09053944 0.0871573 0.08142146 0.04430985
000200 38 3f 05 bd 4b 36 9f 3c 07 b4 64 bd 62 53 b2 bc
       -0.032530993 0.019435069 -0.05583575 -0.021768276
000210 9f 13 09 bd a3 03 3c 3d 6d da 26 3b c0 71 35 bd
       -0.033465978 0.045901906 0.0025459782 -0.044297934
000220 1a 22 d7 bc e7 b5 95 3d 00 62 bd b9 52 81 31 3d
       -0.026261378 0.07310086 -0.00036121905 0.04333622
000230 03 e8 ac 3d 2e 09 67 bd 33 c6 9a bd d5 11 86 3d
       0.0844269 -0.05640524 -0.07557335 0.0654637
000240 e8 4e 87 3c 4e 24 74 bd f2 fd 81 bd cd 37 8b 3d
       0.016517118 -0.059604935 -0.06347264 0.067977525
000250 3c 00 9b bd 24 0c 00 3d 16 16 a9 3a 96 79 e3 3c
       -0.07568404 0.03126158 0.0012900259 0.027767938
000260 05 6e 2d 3d 0e 60 a6 3d ab 1a 96 3d 51 3b 4b bd
       0.04234125 0.0812379 0.07329305 -0.049617115
000270 df b4 a5 3d 2c 4c 32 3d 25 6f 8c 3d b7 f2 05 3d
       0.08091139 0.043529674 0.06857137 0.032702174
000280 77 39 07 3d 2f 31 2d 3d 2a c3 62 bc a2 39 2d bb
       0.033013787 0.042283233 -0.013840476 -0.0026432057
000290 98 37 a9 3d d5 58 da 3c 4d 1c 37 3c ab 6a 5f 3c
       0.08262557 0.026653687 0.011176181 0.0136362715
0002a0 72 b8 2f 3a 23 96 f5 bd be a4 e8 3c 93 d2 77 3d
       0.00067032047 -0.11991527 0.028398868 0.060503554
0002b0 2a 96 da 3d 83 48 94 3d e9 c2 86 bd ad 6f af 3d
       0.10673173 0.07240393 -0.06580145 0.08566222
0002c0 ba 02 b4 3d 49 ca 2c bd e2 01 a6 bc 5f be c0 bc
       0.087895826 -0.0421851 -0.02026457 -0.023528276
0002d0 c6 a3 94 bd d8 3a 93 3c 6c 27 fc 3c 37 d7 a7 bd
       -0.072578 0.017972395 0.030780517 -0.08195346
0002e0 8e d4 9a 3d 4a 14 ce 3d 51 31 9a 3d eb 51 04 3e
       0.07560073 0.100624636 0.075289376 0.12921874
0002f0 9b 91 8b 3d 80 f8 13 bd 6c ab d9 3c 7f bd 8f bd
       0.068148814 -0.03612566 0.026570998 -0.070185654
000300 be 72 ea bd 18 76 f3 bc 79 92 e1 bc 11 0f 47 bc
       -0.114476666 -0.029719397 -0.027535664 -0.012149588
000310 c8 55 8c bd 0e 3f 8e 3d 5e c9 ad bb 39 e9 12 3c
       -0.06852299 0.069456205 -0.005303546 0.008966737
000320 83 28 e1 bd ee 2e 66 bd cc 1b 28 bc 3d 0f d8 bd
       -0.10994055 -0.0561971 -0.010260534 -0.105497815
000330 c9 7e bb bd 0c 79 a6 3b ca 73 cd bc f3 ec 5c bc
       -0.09155042 0.005080348 -0.025079627 -0.0134842275
000340 a7 ff db 3c 54 a4 6b 3d fd df e0 3d b6 2f 36 bd
       0.026855303 0.057529762 0.109802224 -0.044479094
000350 68 cd 83 3c a2 44 9e bd d8 fa 49 bb 49 3b 87 3d
       0.016089156 -0.077279344 -0.003081968 0.066031046
000360 73 88 a0 bd 6e ef 8a bc ab 03 f7 bc 69 49 b4 3d
       -0.078385256 -0.016959872 -0.030153116 0.088030644
000370 b1 8b d3 3d 11 4e 7f 3d 0c 5b 6a bd 71 d0 80 3c
       0.103293784 0.06233031 -0.057215735 0.015724393
000380 99 c1 0b 3c 5a 8a 8b 3c e3 ef 56 3d 8c 66 1e bd
       0.008530044 0.017033745 0.052474868 -0.038672015
000390 af 59 6f bd 41 68 a6 3c fc 1e 9b 3b c6 40 b9 3d
       -0.05843514 0.020313384 0.0047339182 0.09045558
0003a0 fd 08 51 bd b5 b9 53 3c 7c 85 52 3d c2 df 86 3d
       -0.051033963 0.012922694 0.051396832 0.06585647
0003b0 09 7b 7b 3d a7 77 88 3b 4e bc cd bc b1 6b 82 3d
       0.061396632 0.0041646543 -0.025114205 0.06368197
0003c0 68 91 17 3d b8 59 87 bd a9 92 93 bd df a9 fd bb
       0.037003905 -0.06608909 -0.072057076 -0.0077411975
0003d0 28 1b 7f 3c 80 ae a1 bd ac 4e 31 3d 1f 67 bb 3c
       0.015570439 -0.07894611 0.043287918 0.02287632
0003e0 4f 8c da bd 98 45 e3 bd b5 a6 7f 3d ae 9c 06 3b
       -0.10671293 -0.11097258 0.062414844 0.0020540166
0003f0 10 b3 00 bd b1 22 bc 3c 8a ab 05 bd f2 c9 9a bd
       -0.031420767 0.02296576 -0.032634296 -0.07558049

layer2.bias f4 [256]
000000 3a 34 09 bd ec 09 48 bb 22 fd 90 3d 71 3d 80 3c
       -0.033497073 -0.0030523492 0.07079531 0.015654298
000010 33 a3 02 3d f9 3d b2 3d 90 94 24 3e 4d c2 ca 3d
       0.03189392 0.087032266 0.16072297 0.09900341
000020 68 96 f3 3d 59 03 03 bc 1d 1f 86 3d 9d 34 a4 bc
       0.11893922 -0.007996404 0.06548903 -0.02004462
000030 89 a0 22 bd a3 37 aa 3d db 0e 97 3d 75 3a e2 bc
       -0.03970388 0.08311393 0.0737588 -0.027615765
000040 21 47 9a 3d f8 ac b4 3d b8 bb 09 3d 04 21 90 3d
       0.07533098 0.08822054 0.03362629 0.07037547
000050 ee 6e 63 3d 43 dd 6f bd b5 4c 2a bd 40 5e 92 bd
       0.055525713 -0.05856062 -0.04157706 -0.07146883
000060 42 18 2a 3d bd ea 7a bd 1e a4 1b bd 61 a3 a3 bd
       0.04152704 -0.06125902 -0.03799831 -0.079901464
000070 04 25 38 bd 5f 72 13 3d a2 4e a0 3d ff 8d 3d bd
       -0.044957176 0.035997745 0.07827498 -0.046277996
000080 f1 30 03 3d 04 2c 86 3d 5c af a6 3d 20 cd c1 3c
       0.032029096 0.06551364 0.08138916 0.023657382
000090 76 a2 a6 bd 9f 05 ab 3d 70 88 89 bd 95 ca c0 3d
       -0.08136456 0.083506815 -0.067154765 0.094136395
0000a0 ab 2e a1 bd 9c 27 ea 3a f9 ac 66 3d aa 86 c0 3d
       -0.07870229 0.0017864588 0.056317303 0.09400685
0000b0 2e bf ae bc 1b be 9d 3d f5 b5 89 3d bf 2b ce 3d
       -0.021331396 0.07702275 0.06724159 0.10066938
0000c0 25 98 4b bd 70 1c 96 3d 3d c0 0d bb 76 b7 20 bd
       -0.049705643 0.07329643 -0.0021629476 -0.039237462
0000d0 67 0a 60 3d 6a 37 c6 bd 5f a1 0d bd cc 26 f0 bc
       0.05469742 -0.09678538 -0.034577724 -0.029315375
0000e0 2e 5b bf 3d fc da af 3c cc 1b 95 bd d2 e7 a8 bd
       0.09343563 0.021466725 -0.072806925 -0.08247341
0000f0 e2 ae 19 3d bd a9 96 3d 94 ba cc 3d 6e 6b c4 3d
       0.037520297 0.07356594 0.099965245 0.09590803
000100 03 01 8f 3d 9c d4 9b bc 74 a0 b6 3d a9 16 25 bd
       0.06982615 -0.019022278 0.08917323 -0.040304814
000110 93 2a 63 bd a2 cd b2 bd 97 b3 41 3b d9 9f 8f 3c
       -0.055460524 -0.087306276 0.0029556507 0.017532276
000120 80 10 5f 3d 0e 91 39 3d 2a 19 b8 bd a6 82 0c 3d
       0.054459095 0.04530435 -0.08989175 0.034304284
000130 f3 c6 d7 bc b9 b5 56 3d 3e 41 b5 bd 61 bf de bc
       -0.026339984 0.052419398 -0.088503346 -0.027190866
000140 dc cc 94 3d 06 17 a5 3d b1 30 7f bd 4d 75 7e bd
       0.07265636 0.08061032 -0.062302295 -0.062123585
000150 49 ef d3 bb 7b 83 c1 3d 54 c7 65 bd 2d 42 1f bd
       -0.006467734 0.09448906 -0.056098297 -0.03888147
000160 a8 8f 33 bb 13 d0 ad bc fc ad 74 3d 3b 64 19 bb
       -0.0027398858 -0.021217382 0.059736237 -0.002340569
000170 ff 99 28 bd 3e c8 47 3d de 4c 03 bd 69 cb 60 3d
       -0.041162487 0.04877495 -0.03205573 0.054881487
000180 c1 8e 67 3d eb 92 60 bd 5b f1 3f 3d 5e cc 44 bd
       0.056532625 -0.054827612 0.046861034 -0.048046462
000190 6c fa 38 bd 7c 0f d4 bc f6 2a 58 bd 92 a9 26 bd
       -0.045160696 -0.02588629 -0.052775346 -0.04068906
0001a0 b6 26 5f bd 3d db d6 bc 0d cd 2d 3d 89 6c c2 3d
       -0.054480277 -0.026227588 0.04243188 0.09493358
0001b0 f5 1d 43 bd 20 bb f8 bc 33 aa fb bc 13 b7 fb bd
       -0.04763599 -0.030362666 -0.030720806 -0.12290778
0001c0 c5 99 78 bd a3 3d b0 3d 33 5d 34 bd 33 b6 7f bd
       -0.06069352 0.08605506 -0.044034194 -0.062429618
0001d0 ef c6 38 3c 29 9a 95 bd f4 9d 43 3d 80 8b 1e 3d
       0.011277898 -0.07304794 0.047758058 0.038707256
0001e0 51 5a 13 bc 72 36 a5 3d 12 81 09 3d 7c 5f a5 bd
       -0.008993701 0.08067025 0.033570357 -0.08074853
0001f0 0f 00 67 3d 12 5c 2f bd 3d f4 2b bd da b9 5e 3c
       0.05639654 -0.042812414 -0.04198097 0.013594115
000200 1e d5 f3 3c ec e8 eb 3c dd 68 68 3d e9 27 13 3e
       0.029764708 0.02879759 0.05674063 0.14370693
000210 cc 95 7a 3d 75 8c 72 bd e0 0f ab 3d 3d 26 04 3b
       0.061178014 -0.05921598 0.08352637 0.0020164393
000220 e1 67 b2 3c 8e cd ce 3d 0d 4d 5f 3d 47 1b d0 3d
       0.021778049 0.100978 0.05451684 0.10161453
000230 f4 82 9f 3d 52 70 32 bd d3 3f 85 bc 8f 6b 9a bc
       0.07788649 -0.04356415 -0.016265785 -0.018850116
000240 c5 1d 20 bd b7 92 82 bc 2a f1 c9 bc ff 0a d4 3d
       -0.03909089 -0.0159391 -0.024651129 0.1035366
000250 c3 d9 cf 3c 77 56 00 3c f1 af 3d bd c3 48 68 3d
       0.025372392 0.007833115 -0.04631037 0.056710016
000260 03 7e cd bb e4 82 c1 bc 61 39 d6 3d e5 d2 b0 bd
       -0.0062711253 -0.023621984 0.10460163 -0.08633975
000270 b1 cd 7f bd f7 9a aa bd fd 21 a2 3c 8d 97 af 3d
       -0.062452022 -0.083303384 0.019791598 0.08573828
000280 29 2e b6 3d 29 61 a0 bd 31 b8 28 bd 9a 9d 09 bd
       0.08895523 -0.07831032 -0.041191284 -0.033597566
000290 82 fa 49 3d 1f 09 be 3d 43 58 fc 3d 21 b2 72 3d
       0.04931117 0.092790835 0.12321522 0.05925191
0002a0 34 0d 33 bd 5d cd 3e 3c 0b f9 63 bc 73 ad b7 3c
       -0.043713763 0.011645642 -0.013914357 0.022421574
0002b0 c7 a4 37 bd d8 64 cc 3d 2f 20 26 bd 93 3d ea 3d
       -0.04483488 0.09980172 -0.040558036 0.114375256
0002c0 f9 68 bf bd 74 e7 56 3c 13 ae 2c 3d ef 81 f6 3d
       -0.09346194 0.013116706 0.042158198 0.120365016
0002d0 81 25 4f bc bd 8e b4 3d 28 96 83 bd 51 a3 73 bd
       -0.012643219 0.08816288 -0.064251244 -0.059481923
0002e0 9a d1 93 bd 88 17 7c bd 05 14 52 bd 68 3d 76 ba
       -0.07217713 -0.06154588 -0.051288623 -0.00093933055
0002f0 2f 0a 6d bd 53 44 51 bd 5e a2 4a 3d f3 cc 17 bd
       -0.05787104 -0.05109055 0.04947125 -0.03706069
000300 a0 99 94 3d c6 a0 0d 3e 1a 92 98 bd 27 99 7a bd
       0.07255864 0.13830861 -0.07449742 -0.061181214
000310 b9 60 8d 3d 6a d9 d1 3d 68 5a f7 bc ed 46 5a bd
       0.06903214 0.102465466 -0.030194476 -0.053290296
000320 91 ee f8 3d f9 07 7f bc 30 ed 93 3c 42 e6 b1 bd
       0.12154878 -0.015565866 0.018057436 -0.08686496
000330 15 5b 06 3d a5 7d 48 3d 8a d7 05 bd 51 7f 27 3c
       0.032801706 0.04894795 -0.032676257 0.010223226
000340 ac b2 29 3c 7b fa 34 bd bf 29 8d bd d2 55 e2 3d
       0.01035754 -0.04418419 -0.06892728 0.11051525
000350 cf a4 0c bd 8c 20 aa bc ac c7 ac bd 38 6d a5 bd
       -0.03433686 -0.020767473 -0.08436522 -0.080774724
000360 d3 a1 eb 3d a8 1d 4f bd d5 a4 87 39 55 53 63 3d
       0.11505475 -0.05056539 0.00025872016 0.055499393
000370 59 01 81 bc 3c 53 d3 bd ae 3f 4c 3c c6 a6 b8 3d
       -0.015747713 -0.1031861 0.012466354 0.090161845
000380 a5 69 e0 bb 67 ab b8 bd ce ce 85 bc 1b 34 56 bc
       -0.0068485313 -0.090170674 -0.016333964 -0.013073946
000390 d5 39 80 bd 19 e0 b7 3d e1 1e 4b bd 51 44 74 3d
       -0.062610306 0.0897829 -0.049589995 0.059635464
0003a0 b0 fd a3 bd 97 ed 10 3e 39 3f 34 3d fe 03 bd ba
       -0.080073714 0.14153133 0.044005606 -0.0014420745
0003b0 02 d8 8c 3d 18 de 9c 3d 18 e4 99 bc 35 15 e1 bd
       0.06877138 0.076595485 -0.018785521 -0.10990373
0003c0 eb 3f 7a bd fe 68 a5 3d 5d bc 35 bd a7 96 4b 3d
       -0.061096113 0.08076666 -0.04436909 0.04970422
0003d0 09 3d 46 bb 61 51 9f 3d 17 3c dc 3c 59 c6 bb 3b
       -0.0030248782 0.07779194 0.026884122 0.005730432
0003e0 33 3e 52 bd f2 2c d0 bc 68 92 bf 3c 5c d6 8a bd
       -0.05132885 -0.025412057 0.023385242 -0.06779167
0003f0 a8 38 c5 bc f7 f1 27 3d 2b 94 bd bc cf c4 50 3d
       -0.024074867 0.04100224 -0.023141941 0.05096894

layer3.weight f4 [256, 256]
000000 3e 4a 9a bc 49 95 35 bd 7a 4b 1e bc 4a 94 22 bd
       -0.01883423 -0.044331823 -0.00966155 -0.0396922
000010 af f3 9f 3d c7 5e 36 bd 4c 52 24 bc 30 cb 9e bd
       0.07810151 -0.04452398 -0.010029387 -0.07753599
000020 be 20 80 bd 09 32 eb bb ae 10 00 bd 6b 0e 7b bc
       -0.06256245 -0.0071775955 -0.031265907 -0.015323262
000030 cd f7 ce bd 6e dd 4e 3c 81 93 31 bc 27 92 61 3d
       -0.10105858 0.012626035 -0.01083839 0.055071022
000040 ba 8e 4c 3d 25 b4 6e bd c0 b9 37 bd d2 38 15 bd
       0.049940802 -0.058277268 -0.04485488 -0.03643114
000050 2f c1 97 3d 96 54 82 3c e4 f5 89 3b 3c d7 94 bc
       0.07409894 0.015909474 0.0042102206 -0.018169038
000060 55 4d 21 bd c9 57 3b bd 5c d6 63 bd 0e a0 05 3d
       -0.03938039 -0.045738015 -0.05562435 0.032623343
000070 6e dd 90 3b f0 81 98 bc 9c 47 5b bd 42 e3 fc 3b
       0.0044209277 -0.018616647 -0.05353509 0.007717521
000080 12 35 56 3c 8a e7 be bc 64 c3 69 3d a3 c9 44 bd
       0.013074176 -0.023303766 0.057071105 -0.04804386
000090 f2 b5 d8 bd 8b 61 19 bb 50 be ac 3b 99 ad 47 bd
       -0.10581578 -0.0023404087 0.0052717105 -0.04874954
0000a0 30 56 d1 3c 54 12 0a bd 58 fe 1f 3d e2 2e 5c bd
       0.025553793 -0.033708885 0.03906092 -0.05375565
0000b0 21 be ad 3b 6b 41 96 3c 8c 38 73 3c 8b 44 6a bd
       0.005302206 0.01834174 0.014845025 -0.057194274
0000c0 97 a3 2c bc cf 1b 51 bd 76 37 36 bd 91 6d 2a 3c
       -0.01053705 -0.05105191 -0.044486485 0.010402099
0000d0 d8 7e 75 bd 6e 06 58 3d bd 82 9e bd 6d 54 ad bd
       -0.05993542 0.052740507 -0.0773978 -0.084633686
0000e0 7d 57 1b 3d f2 e9 14 3d b8 87 2a 3d 8d 29 19 3b
       0.037925232 0.03635592 0.041633338 0.0023370713
0000f0 e8 3c 6a bd c5 09 0e bc 24 aa 1e 3c 5d 1d ac bd
       -0.05718699 -0.008669321 0.009684119 -0.08404038
000100 ce 20 8c 3d da 09 b1 ba 74 cb 2f 3d d6 57 20 3d
       0.068421945 -0.0013506964 0.042918637 0.039146267
000110 1d 04 d1 bd fd e9 d7 3b 0a b0 58 bd f7 bb df 3c
       -0.10205863 0.006589173 -0.05290226 0.027311308
000120 63 da 0d bd c3 56 8a 3d 7b f8 14 bd 09 27 a6 3d
       -0.034632098 0.0675483 -0.036369782 0.08112914
000130 57 b1 6a 3d a0 84 f3 bc c0 f6 c9 bc f8 5c 9c bd
       0.05729803 -0.029726326 -0.024653792 -0.0763492
000140 91 f1 60 bd a2 29 58 bb 9a 1b 76 bc 06 68 29 bd
       -0.054917876 -0.00329838 -0.015021229 -0.04135897
000150 c4 bf 74 bd c7 24 37 3d 84 ad c2 3c 11 aa 4c bd
       -0.059753194 0.044712808 0.02376438 -0.049966875
000160 2c 8e 3c bd e7 ac 20 bc a2 61 de bc 8f 4e 5a 3d
       -0.046034023 -0.009806848 -0.027146164 0.053297576
000170 a3 31 ab 3d b1 16 bb bc 87 84 29 bd 39 e5 9c 3c
       0.08359077 -0.022837969 -0.041386154 0.01915227
000180 f7 00 05 3c d1 02 d3 3c fe 88 9c 3c 9d ad 46 bb
       0.008117906 0.025758179 0.019108292 -0.0030315884
000190 10 ca 75 3c 37 7a 57 bd 91 7b 91 3b 03 2f dd bc
       0.015001789 -0.052606788 0.004439779 -0.026999956
0001a0 6b 19 12 3d 32 40 3e bc a2 ff 8e bc d5 24 a4 bb
       0.03566877 -0.011611985 -0.01745588 -0.0050092735
0001b0 21 58 71 bd 37 3b 82 bd c6 a5 27 3d 5a 3c 3b 3d
       -0.058921937 -0.063589506 0.04092958 0.045711853
0001c0 03 fc a0 3c 84 29 e7 3b 80 24 43 bd a9 65 5e 3d
       0.019651419 0.0070545096 -0.04764223 0.05429617
0001d0 9b 79 e5 bc 61 a6 a6 bc a1 bd c7 3d d0 66 35 bd
       -0.028012088 -0.020343008 0.09752966 -0.044287503
0001e0 60 cc 70 bd 3e bd 06 3d b8 4d e8 3c b0 db 32 3d
       -0.058788657 0.03289532 0.028357372 0.04366654
0001f0 09 6f 1e 3d ed 4d 8d bc 92 c4 71 bc 17 dc 4f bc
       0.03868011 -0.017249072 -0.014756339 -0.012686751
000200 15 64 98 3d bd 13 ab bd 81 a3 78 bd 9a 8c f9 bc
       0.07440964 -0.08353374 -0.060702804 -0.030462552
000210 e7 4a 61 3d ef 79 8d bd 06 da 9b 3d f8 94 d1 3c
       0.055003073 -0.069080226 0.07609944 0.02558373
000220 39 2b 9a 3d db cc 17 3c 6c b5 7a 3d 2d 0f 97 3d
       0.07527775 0.00926515 0.061208174 0.073759414
000230 85 9f 3c 3d a4 03 0b 3c ff 4f 1a 3d a6 53 2f bd
       0.046050567 0.008484755 0.037673946 -0.042804383
000240 02 da 21 bd 30 ff 66 3d 8e 2c 30 3c cf 35 0b 3d
       -0.03951455 0.05639571 0.01075281 0.033986863
000250 c2 1b 24 3d c4 ea ae bc cb 34 0b bd 63 35 41 3d
       0.040065534 -0.02135218 -0.033985894 0.047170054
000260 1f 01 fe 39 6e 83 3f 3d 14 c0 99 3d b9 ee 9a 3d
       0.0004844749 0.0467562 0.07507339 0.07565064
000270 68 8a 1d 3d a3 fb d4 3c 3c 33 28 bc cc 53 92 bd
       0.038462073 0.025998896 -0.0102661215 -0.07144889
000280 ec 5c 21 bd 59 9b 1d 3d 0b c2 0f bc f5 03 af 3c
       -0.039395258 0.03847823 -0.008774291 0.021364192
000290 49 d4 a8 bc 06 2e 44 3d 63 a0 8b bd 50 6b 3c bd
       -0.020609038 0.047895454 -0.06817701 -0.04600078
0002a0 49 2a 60 bd 88 26 39 3c c0 4f 20 3d 42 fc 56 3d
       -0.054727826 0.0113006905 0.039138556 0.052486666
0002b0 51 4b 94 bb bc c1 f3 ba 26 7e 17 3d 4c 53 4d bd
       -0.00452558 -0.0018597166 0.03698554 -0.050128266
0002c0 3c 37 13 bc 82 6f 16 bd 8c ca a1 bd 7b c2 0f 3d
       -0.008985337 -0.036727436 -0.07899961 0.03509758
0002d0 72 c8 5a bc 11 49 27 bd 21 67 e3 bb 9f b9 81 3c
       -0.013353454 -0.040841166 -0.006939784 0.015835581
0002e0 8e 9c 6c 3b 66 0a 14 bd 21 c4 bf 3d ff 3f 81 3c
       0.0036104056 -0.03614273 0.093635805 0.015777586
0002f0 6f 0a 12 3d 57 41 fd 3c 0c c1 18 3d 42 65 6c bd
       0.03565448 0.030914946 0.03729348 -0.057713754
000300 ef 8f d7 3c 3e 45 41 bd 96 38 32 3b f8 9b 31 3d
       0.02631375 -0.047185175 0.0027194372 0.043361634
000310 ef ca eb 3c 6a b1 ff bb 47 a1 e7 3c bf 33 b2 3b
       0.02878329 -0.007803132 0.028275145 0.0054382975
000320 37 52 73 3d c9 8b c4 3d d4 f1 86 3b 7c dc 3f bc
       0.059404578 0.095969744 0.0041181836 -0.011710282
000330 58 96 87 3d f4 63 b1 3d 43 f1 d4 bc 53 e4 81 bd
       0.06620473 0.08661643 -0.025993949 -0.063423775
000340 81 ad a3 3d a0 58 d4 bc 6e 5d b0 bc 19 99 bf bc
       0.079920776 -0.025921166 -0.021528926 -0.023388432
000350 fc 0c 6e bd 22 2b 1e bc 81 3f 9b bb 22 b2 2f bd
       -0.05811785 -0.009653838 -0.004737795 -0.04289449
000360 3c 39 06 bc bf a4 83 bb c8 a3 d2 bc f6 95 9d 3d
       -0.008192357 -0.004017442 -0.025712863 0.076946184
000370 1d 93 4c bc 26 d2 3e 3d e8 cb 92 bd aa 47 cb bb
       -0.012486246 0.046587132 -0.07167798 -0.0062036114
000380 00 75 a0 3d ac db b2 3b fd 6e d8 3c c3 a0 b6 3b
       0.07834816 0.005458316 0.02642011 0.0055733635
000390 03 fb 83 3d 09 f0 aa bc 85 f8 0c bd 0e 42 40 bd
       0.06444361 -0.02086641 -0.034416694 -0.046937995
0003a0 68 6c ee bc c5 e9 39 bd d2 f8 80 3d 52 be 8a bd
       -0.029104427 -0.045388956 0.06297459 -0.06774582
0003b0 14 3a 61 3d 10 0e 0b bd d5 e4 46 bd 35 2e f9 bc
       0.05498703 -0.033948958 -0.048558075 -0.030417541
0003c0 48 9d c3 3a d9 f1 3f 3d 72 b1 ba bb f8 63 28 bd
       0.0014924193 0.046861503 -0.0056974227 -0.041110963
0003d0 68 9d 66 3c 71 c6 ad bd ed 6d 91 bd 48 48 3c bc
       0.0140756145 -0.08485115 -0.07101045 -0.011491843
0003e0 9a a1 7b 3d 87 96 9d 3d ea 86 f1 bb e9 cc 01 bd
       0.061433412 0.076947264 -0.0073708193 -0.03168956
0003f0 08 77 14 bd 04 88 59 bb d3 0d 9f 3a 63 95 e5 3c
       -0.03624633 -0.0033192644 0.0012134857 0.028025335

layer3.bias f4 [256]
000000 26 e0 28 bd 2c 93 8b 3d 22 77 cb 3b cf 91 96 3b
       -0.04122939 0.0681518 0.00620927 0.0045950185
000010 0d 8f fc 3c 56 b3 32 3c e1 62 ee 3c e0 2d a9 3d
       0.03082993 0.010907015 0.029099884 0.08260703
000020 ae e2 7f bd 4a 3a 65 bd 19 15 bc bc 35 ed 1d 3d
       -0.062472038 -0.055963792 -0.022959279 0.038556296
000030 ac 21 37 bc dd 1e 5e 3d 4c 3e 77 bd 36 ee d5 3c
       -0.011177462 0.054228652 -0.060362145 0.026114564
000040 c1 50 73 bc d6 bf 94 3d 61 70 8e bc 81 b1 b6 bc
       -0.014850796 0.07263152 -0.01738757 -0.022301437
000050 34 e2 74 bc 1c b0 17 bd ab d8 23 bc ba 11 d8 3d
       -0.014946509 -0.037033185 -0.010000388 0.10550256
000060 14 c5 3e bd 5e 62 a0 3d c3 62 4c bd 0d b3 06 3d
       -0.046574667 0.07831262 -0.049898874 0.0328856
000070 bf 85 34 3d db fb 02 3d 7a f3 57 3d aa 68 4c 3d
       0.044072863 0.03197847 0.05272243 0.049904503
000080 e2 3a 07 bd 5b c1 9c 3d d2 e8 3e 3d ff 34 ff bc
       -0.03301514 0.07654067 0.046608754 -0.0311532
000090 cc d8 0d 3d 9e 43 c1 3d 13 ca 6d bc 06 7c a8 3d
       0.03463058 0.09436725 -0.01451351 0.082267806
0000a0 28 be 94 3d 59 15 d5 3d 8f b8 e6 bb ae 36 5e bd
       0.07262832 0.10404462 -0.007041044 -0.054251365
0000b0 0e 4e 4a 3c 73 ca be 3c 9e f8 74 bc 9f 0e 44 3d
       0.012347711 0.023289895 -0.014951853 0.047865506
0000c0 41 31 a0 3c 7c 07 33 3d 1b dd 0d 3d 7e e8 1a bd
       0.019554736 0.04370831 0.03463469 -0.037819378
0000d0 65 22 72 bd 26 ff 2b bc 18 3f 10 bc 3b b9 b1 3c
       -0.059114832 -0.010497844 -0.008804105 0.02169477
0000e0 5f 89 8e bc 03 e7 f2 3c 24 c0 72 bc 9c 57 96 3d
       -0.017399488 0.02965117 -0.014816318 0.07340929
0000f0 b9 c2 75 bc 70 a2 3b bc 70 2c 72 bb 67 33 39 3d
       -0.015000039 -0.011452302 -0.0036952756 0.045215037
000100 46 60 dd bc 0e f1 78 3d d5 c0 b3 3d b7 c9 fc 3b
       -0.027023446 0.060776763 0.08777014 0.007714476
000110 1a c2 3c 3c 9e 76 c6 bc 4b 3d 8c bc 07 4f 2f 3d
       0.011520887 -0.024226483 -0.01711907 0.042799976
000120 ba 80 8d bd a4 bb 10 3d 5f 4b 05 bd 1f e2 ae 3d
       -0.06909318 0.035335198 -0.032542583 0.08539223
000130 da fa 2b 3d 02 5d 38 bc 7b b8 0c 3d 55 dd 81 bc
       0.041987278 -0.011252644 0.03435562 -0.01585261
000140 86 ed 6f 3d 72 87 8e 3d aa e6 01 3d db 3e fb bc
       0.05857613 0.06959428 0.03171412 -0.03066962
000150 c9 0c 30 3d c0 f0 dd 3c 6d 7c 80 3c 35 2e 6b 3c
       0.042980943 0.027092338 0.01568433 0.014354278
000160 d9 86 4a 3c 89 e3 97 bc 49 10 2b bd e6 9c ac 3d
       0.012361252 -0.018541114 -0.041763578 0.084283635
000170 9a b1 a6 3d 26 fc 1a 3d 6e c8 be bc 14 6a 6b 3d
       0.081393436 0.037838124 -0.023288932 0.05747421
000180 2b 82 12 3d 1f 98 23 bd 4f 7d 27 bd aa ee 86 3d
       0.03576867 -0.039939996 -0.040890988 0.0658849
000190 08 76 d1 3d de 3e 1e 3d 19 0e 02 3c be fd b9 3b
       0.10227591 0.038634174 0.007937931 0.0056760004
0001a0 35 b0 e2 3d 78 63 95 3c c0 40 ba 3d d8 af 57 bb
       0.11068765 0.018235907 0.09094381 -0.0032911208
0001b0 36 78 6d 3b ff 5d a1 3b 9f d9 4c bc 86 04 d8 bc
       0.0036234981 0.0049245353 -0.012503057 -0.026369344
0001c0 8c 37 72 bd de 31 f5 bb c9 53 d8 3c 9b e8 e3 3b
       -0.059135005 -0.0074827513 0.02640714 0.006955219
0001d0 07 34 bf 3c 58 89 f8 bc e2 e9 d8 3b 81 4e b0 3c
       0.023340238 -0.030338928 0.006619678 0.021521809
0001e0 54 d7 ae 3c 0e 35 88 bd 50 32 3f 3d 68 c5 fe 3d
       0.02134291 -0.066507444 0.04667884 0.12439996
0001f0 3e af 01 bd 89 d5 8a 3d 7a 7d 94 bb 16 5c 10 3d
       -0.031661265 0.0677901 -0.0045315595 0.03524407
000200 97 f8 5f bc 62 f4 26 3d 96 cc a8 3b b5 34 6e bc
       -0.013670108 0.040760405 0.0051513417 -0.0145389335
000210 db 4d e6 3c f8 93 53 3d 6b be de 3b f8 07 27 bd
       0.028113296 0.051654786 0.006797602 -0.040779084
000220 12 c8 4e 3d 18 e6 4d 3d 51 85 d2 3c 93 ac 73 3d
       0.05048377 0.050268263 0.025698336 0.05949075
000230 dd 97 22 3d 27 f7 06 3d 32 8c 00 bd 53 2b 04 3d
       0.03969561 0.032950547 -0.0313837 0.03226788
000240 aa 02 44 3d 16 97 01 3d 6a ca 8e 3c bc 10 1a 3d
       0.047854103 0.031638227 0.017430503 0.037613615
000250 af e7 a4 bc b3 05 b2 3c 41 e2 51 bd 2e df 01 bd
       -0.020130007 0.021731233 -0.051241163 -0.03170698
000260 64 70 23 3b 18 b4 a1 3b cf 87 77 3d 26 c1 c7 3d
       0.0024938816 0.004934799 0.06043225 0.09753637
000270 fc b2 ec bc 52 c3 62 3d e7 5d 92 3d 49 64 dc bc
       -0.02889394 0.055362053 0.07146817 -0.026903288
000280 df fb 46 bb d8 f3 8e bd 2b 28 c5 3c f3 a2 56 3d
       -0.003036253 -0.06980103 0.024067005 0.052401494
000290 0b b4 db 3b 01 84 29 3d 29 f7 25 bd 5a ba bd 3d
       0.0067048124 0.041385654 -0.040518913 0.09264059
0002a0 5b 2b 91 3c 87 a4 32 3d cf fb b4 3c 5a 36 0f 3c
       0.017720869 0.043613937 0.022092728 0.008740986
0002b0 1b 52 ff bc 09 f1 c9 3c 29 9e 10 bd 65 2a 8d 3d
       -0.03116708 0.024651067 -0.035307083 0.06892852
0002c0 7c f3 a8 3c 3a 67 8b 3d 2a 77 e1 3d 5a 6c b4 3c
       0.020623915 0.06806798 0.11009057 0.022024322
0002d0 79 64 e6 bc e8 d0 55 3d 21 0e 4e bc 63 fc 60 3d
       -0.028124081 0.05220118 -0.012576611 0.054928195
0002e0 6d 24 96 3c 39 1b 3f bd f5 51 8b bd 94 92 23 bd
       0.018327916 -0.04665682 -0.068027414 -0.03993471
0002f0 09 00 a1 ba e9 e1 cb b9 88 db 41 3d da 95 59 3c
       -0.0012283336 -0.00038887493 0.047328502 0.013280356
000300 b1 40 8b 3d 19 1d a8 bc 3a 76 27 bd bc 77 e2 3d
       0.06799448 -0.020521687 -0.040884234 0.11057994
000310 ce 05 f0 3c 0b 8d b1 3c f8 d6 ce 3c 4a 02 da bb
       0.029299643 0.0216737 0.02524899 -0.006653105
000320 32 3c 7a bd 77 02 2d bd 7a 0f 93 bb 0a ff 9e 3d
       -0.061092563 -0.04223868 -0.004487929 0.077634886
000330 3f f3 4f bc 62 da 0f bd 17 db 50 bc b2 3b 2e 3c
       -0.012692272 -0.035120375 -0.012747548 0.01063435
000340 44 f6 9a bc c5 f8 1b bd 5a 2c 5a bd 8f 2e 8b bd
       -0.018916257 -0.038079042 -0.053264953 -0.0679599
000350 c5 e7 3d bb 36 b7 5c 3d 96 90 92 3d 9b 55 51 ba
       -0.0028977257 0.05388566 0.07156484 -0.00079854735
000360 41 3a eb 3b 39 61 89 bd 7d 0d be bc 40 98 07 3d
       0.0071785753 -0.06707997 -0.023199791 0.03310418
000370 1c 4b 40 3d 98 5e 33 bd b3 e5 c2 3b 4b 33 0e bd
       0.04694663 -0.043791384 0.0059477924 -0.034716886
000380 c7 fc 65 bc 68 0b 0e bd 74 ab 35 3d ce 8f 87 3d
       -0.014037318 -0.034678847 0.044352964 0.066192254
000390 e8 5f 61 bd 01 a1 34 bc 73 30 f1 3c 62 ba a5 3c
       -0.055023104 -0.011024714 0.029442048 0.020230476
0003a0 36 4d c5 3b c4 74 7c 3d 6a 3f 3c 3c dc b2 14 bd
       0.006021167 0.061634794 0.0114897285 -0.036303386
0003b0 61 60 93 3c 49 fe 20 3d 3e 6d c6 3c 62 f4 f1 bc
       0.017990293 0.039305005 0.024222013 -0.029535476
0003c0 6c 2d a1 3c 24 ee 35 3d 62 a6 21 3b af 65 06 3d
       0.01967498 0.04441656 0.0024665822 0.032811817
0003d0 cb 53 03 3d 23 ff 80 3d 78 e2 f7 bc 20 09 b8 bb
       0.032062333 0.062986635 -0.030259356 -0.005616322
0003e0 70 51 32 3d 19 58 0f 3c 81 19 97 bc d1 88 60 3d
       0.043534696 0.008749031 -0.018444778 0.05481798
0003f0 21 8c 54 bd 64 0c 83 3d 7f 3b cc 3c 77 01 31 bd
       -0.05189145 0.06398848 0.024930714 -0.043214288

layer4.weight f4 [128, 256]
000000 7c f4 af 3c 7f 16 a1 bd 55 9c b3 bd 99 c2 19 3d
       0.021478884 -0.07865619 -0.08770052 0.0375391
000010 7a a9 e1 ba 83 df 93 bc 79 ba 6f bd 3b 67 65 3c
       -0.0017216646 -0.018050915 -0.058527444 0.014001663
000020 c7 8d 38 3c a7 12 41 3d 68 b3 42 39 6b dc 0a bd
       0.011264271 0.04713693 0.00018568116 -0.033901613
000030 e7 34 98 3d d7 00 d1 bc 35 99 7a bd 94 dd 0b bd
       0.07431965 -0.025513096 -0.061181266 -0.03414686
000040 d4 8e c7 3c c7 8a 14 3c f1 18 45 3a cc 92 70 bd
       0.024360098 0.00906629 0.000751867 -0.058733746
000050 b6 11 3f bb 4d 40 a5 bc 80 bd af 3d 65 83 36 3c
       -0.0029154844 -0.020172263 0.08581066 0.011139725
000060 7b 9e db 3d 95 6e aa 3c de 06 52 bb 8b 6a aa 3d
       0.10723587 0.020804683 -0.003204755 0.08321103
000070 87 47 52 3c 47 78 4b bd b8 06 8c bd 1a f7 50 bd
       0.012834436 -0.049675252 -0.06837219 -0.051016904
000080 49 c2 83 bd c4 5a 13 ba fd 4d 41 bc b1 73 0e bd
       -0.06433541 -0.000562113 -0.011798379 -0.0347783
000090 4b 31 72 bc e7 d8 13 3d 6d ff 8c 3d 5c 10 a3 3d
       -0.01478226 0.036095526 0.06884656 0.07962105
0000a0 b2 28 f8 bc d9 7f 8e bc 3b 67 a8 3b ed 2c c6 bc
       -0.030292843 -0.017394947 0.005139259 -0.024191344
0000b0 85 f1 8d 3d 1d 8f 83 bc 59 e2 e4 3c 52 aa 08 bd
       0.06930832 -0.016059453 0.027939962 -0.033365555
0000c0 cc 7e 53 3d 77 f5 12 3c 58 69 5b bd 7a 3d 1b bd
       0.051634595 0.008969656 -0.05356726 -0.037900425
0000d0 a7 44 80 3d 38 9f c8 3c 66 b6 39 bc 93 6e 32 bd
       0.062630944 0.024489984 -0.011334991 -0.043562483
0000e0 3c cd 21 bd e9 56 2b bd 17 2e 21 3c 1d 32 2f bc
       -0.039502367 -0.04183093 0.009837649 -0.0106931
0000f0 e9 a7 57 bd 6d 30 6f bb c9 a7 a7 bb 4e 9f 4d bd
       -0.052650366 -0.003649737 -0.005116437 -0.050200753
000100 86 07 2f 3d 7b 9b 44 3a c5 1e ce 3c ec ba 1b 3c
       0.042731784 0.0007499975 0.025161156 0.009505015
000110 77 88 c0 3c 13 0a 47 3c c7 c4 67 3d 48 2d 48 3d
       0.023502572 0.012148398 0.056584146 0.04887131
000120 7e d7 2f 3c 44 0f d1 bc 35 94 57 bd 37 8f aa 3a
       0.01073253 -0.025519975 -0.052631576 0.0013012652
000130 77 fe 99 bb c7 63 96 bc 36 79 04 bd 57 b9 12 bd
       -0.004699524 -0.018358124 -0.03234216 -0.035821285
000140 cf aa 12 3d d3 04 ba ba dc f8 6b bd 99 f3 97 bc
       0.035807427 -0.0014192112 -0.057610378 -0.018548774
000150 b6 22 41 3d d0 79 95 bd 8a fe bd bc 23 f8 8c 3c
       0.047152244 -0.072986245 -0.023192663 0.017208165
000160 2f d7 8d 3d 27 e3 05 3b 14 d8 9f bd 2c ce 8f bb
       0.06925809 0.0020429583 -0.078048855 -0.0043885913
000170 dc 0a 3e 3d f7 6e 7a 3d 96 64 6d bd 0e 2b 6a 3d
       0.046397075 0.06114098 -0.057957254 0.057169966
000180 57 ea 04 bd 8f b3 86 bc 58 34 d7 bb c3 2a b4 3d
       -0.032450046 -0.016443042 -0.006567519 0.08797219
000190 9a 39 ca bb 03 9a 00 3c 1d aa d5 bb 87 9e 92 3d
       -0.0061714174 0.007849219 -0.006520523 0.07159143
0001a0 d7 dd 78 bb 0d 10 54 3d 5c cd a8 3c a4 ee 53 3d
       -0.0037974024 0.05177312 0.020605735 0.051741257
0001b0 37 5e 6b bd bd ac 53 bd a4 f0 82 3d 82 c8 9a 3d
       -0.057462897 -0.051678408 0.06393555 0.07557775
0001c0 85 c6 92 3c 19 e6 0b bd b0 7d bb 3d ee e4 ae 3c
       0.017916927 -0.034154985 0.09154832 0.021349397
0001d0 d8 55 95 3d cb db 8f bd b4 39 43 bd 6e da e9 bc
       0.07291764 -0.07024344 -0.047662452 -0.028546538
0001e0 bf ec ae bc be 03 4a 3d 8a 04 3b 3d 36 54 49 3d
       -0.021353124 0.049319975 0.045658626 0.049152575
0001f0 18 02 5c 3c b9 b6 a0 3c 06 73 65 3c f0 d6 07 bd
       0.013428234 0.019618379 0.0140044745 -0.033163965
000200 8b 85 72 bc 17 55 80 3d 17 e4 1f bd bc d4 f3 bc
       -0.014802347 0.062662296 -0.039035883 -0.029764526
000210 07 e8 80 bd 82 29 73 bc 9f 83 d9 bd c3 fc 97 3a
       -0.06294256 -0.014841439 -0.10620808 0.0011595715
000220 e3 b7 34 3c 06 de 66 3d 28 a3 c1 bc 49 80 3b 3d
       0.01103017 0.05636408 -0.02363737 0.04577664
000230 ce a5 43 3d 5f 29 a1 3c 14 26 ea 3c 6f 8a b3 bd
       0.047765546 0.019673048 0.02858261 -0.087666385
000240 55 f1 1a bd 64 53 ab bc 51 85 c2 bb e2 7a ff 3c
       -0.03782781 -0.020913787 -0.0059363027 0.031186525
000250 b9 67 33 bc 08 c1 8d 3b a0 aa 43 3d fc 61 8b 3d
       -0.010950022 0.0043259896 0.047770143 0.068057984
000260 4b bd de bc 9f d7 70 bc 82 1c be 3c 1c 87 d3 bb
       -0.027189871 -0.014699846 0.023206953 -0.0064553153
000270 ec dc b0 3c 47 61 1f bc 50 53 02 bb f3 92 c0 3d
       0.021589719 -0.009727783 -0.0019886084 0.09403028
000280 6c 96 75 3d 15 f8 48 bd 05 85 1a bd 10 9c ba bb
       0.059957907 -0.049064714 -0.037724514 -0.0056948736
000290 16 b7 a8 3c d8 08 84 bc 43 6a 81 3d 86 2a 01 3d
       0.020595115 -0.016117498 0.06319096 0.031534694
0002a0 af ba 83 bc 78 25 1b bd ca 75 9f 3c d9 04 62 bd
       -0.016080229 -0.03787753 0.019465346 -0.055180404
0002b0 d2 55 77 bd 7b f5 93 3d 2a 19 fa bc 4d a3 08 bd
       -0.06038458 0.07224556 -0.030529577 -0.03335886
0002c0 33 35 aa 3d b1 b3 50 bc 9f 27 c6 bc 81 5e 28 bd
       0.08310928 -0.012738154 -0.024188815 -0.04110575
0002d0 ba 66 30 bd 6b 6d a3 3b 64 4e 4f 3d a3 62 92 3d
       -0.043066718 0.004987409 0.05061187 0.0714772
0002e0 5c df 2a bd 4b 5f c1 39 0a 58 d3 bc b0 0c bd bc
       -0.04171692 0.00036882827 -0.025798816 -0.023077339
0002f0 8a 3b d4 bc da 34 92 3d 53 df fd bc b5 ca 7d 3c
       -0.025907297 0.07138987 -0.030990278 0.015490224
000300 c3 62 9a 3d 7b 8f 39 3d 8c 29 97 bd 66 55 58 3d
       0.075383686 0.04530285 -0.07380971 0.052815817
000310 9e 26 d0 3d ec 98 a6 3d a6 d2 46 bb 6e e6 6e 3c
       0.10163616 0.08134636 -0.0030337959 0.014581306
000320 0b c7 2b bc e5 44 1f 3d 30 69 10 3d 2a 8b 45 bd
       -0.010484467 0.038884062 0.035256565 -0.04822842
000330 86 ca 82 3d 19 42 4d 3d 57 cb 8c 3d fb b7 a0 3c
       0.063862845 0.050111864 0.068747215 0.019618979
000340 5b c7 b8 bd 2a c8 ac 3c 0e 04 9e bc b3 a5 81 3c
       -0.09022399 0.02109154 -0.019289043 0.015826082
000350 51 f7 0c 3d 2b 68 f9 3c 13 6d 90 3c c1 4b 53 bc
       0.034415547 0.030445179 0.017630136 -0.012896479
000360 47 0d d1 bb d2 ea 50 3c 4e f9 d7 b9 ae 9a da bd
       -0.0063797566 0.012751298 -0.00041193742 -0.10674034
000370 e8 eb 17 3c cc ff 0e 3d 12 65 71 3c 47 db 46 3d
       0.009272553 0.034911916 0.01473357 0.048548963
000380 29 2d b6 bd c8 90 88 3d a0 22 2f bd c0 df 83 bd
       -0.08895332 0.0666824 -0.04275763 -0.06439161
000390 3f a8 19 bd a4 64 9a 3c 3e 2d 3e bd cb c5 ae 3d
       -0.037513968 0.018846817 -0.046429865 0.0853382
0003a0 d0 ab 06 3d b2 e5 a2 3d fd 07 b0 bc e0 ac 18 b8
       0.032878697 0.07953967 -0.021488184 -3.6400626e-05
0003b0 60 b6 d6 bc 78 c7 d4 3c 12 93 d3 bc d8 3d 47 bd
       -0.02621001 0.02597402 -0.025826965 -0.048642963
0003c0 7a c1 65 bc 84 76 5e bc 97 c5 60 3d 23 0f 4d bc
       -0.014023179 -0.013578061 0.054875936 -0.012515816
0003d0 68 e5 4b 3d 60 d8 79 bc dd 3e 7a 3d 34 3e a3 3d
       0.049779326 -0.015249342 0.061095107 0.07970849
0003e0 11 7b 28 3d 3f 7e 55 bd 46 ea a6 3c 7e 2c 3c bd
       0.04113299 -0.05212235 0.020375382 -0.04594087
0003f0 41 7a 1e bd 1b b8 89 3c b5 c3 91 3d 92 5d 4b 3d
       -0.03869081 0.016811421 0.07117406 0.049649782

layer4.bias f4 [128]
000000 de 21 71 3d af 1b d2 3d d8 a9 7d 3d d7 e4 e3 3c
       0.05887019 0.102591865 0.061929554 0.02781908
000010 e2 16 87 bc 0c 6e d7 3b 61 e8 ad 3d b5 df e1 3c
       -0.016490404 0.006574398 0.084915884 0.027572492
000020 80 1f ef 3a 53 43 ab 3d be 1f 93 3d 76 69 e3 3c
       0.0018243641 0.083624505 0.07183789 0.027760249
000030 d2 e1 86 bb 6b 4f 12 3c 3f 70 5e bc 08 73 12 bc
       -0.0041162753 0.0089300675 -0.013576566 -0.008938558
000040 53 c6 c9 bc 1f 1d 49 bd c7 a3 b8 3d 10 b4 d2 3c
       -0.024630701 -0.049100038 0.09015613 0.025720626
000050 3f 9f 15 bd 00 41 00 3d b4 6a 16 bb 4a e1 5d 3d
       -0.036528822 0.03131199 -0.0022951784 0.05416993
000060 d6 2d 0c bd 2b 9c d2 3c 77 40 80 bd e7 25 1f bc
       -0.0342234 0.025709232 -0.06262296 -0.0097136265
000070 90 5e 12 bb a8 3f 97 bd 60 91 1d 3d 8c 16 81 bd
       -0.0022334196 -0.07385188 0.03846872 -0.063031286
000080 bb 4f 30 3d a4 bb 85 3d 6f 40 b9 bc 90 c4 86 3d
       0.043044787 0.0652993 -0.022613732 0.0658046
000090 88 c4 33 bc ca d8 36 3c 27 2f 7a 3d 5a 6d 8e bc
       -0.01097215 0.011160085 0.061080124 -0.017386127
0000a0 d9 1e 93 3c 3c 84 87 bc f7 3e 9f bc e0 7b bd bb
       0.017959045 -0.016542546 -0.019439204 -0.0057825893
0000b0 8f 63 04 bb 9a bb 31 bd e1 3c 4c 3d 5a 4a 1b bd
       -0.0020200943 -0.0433918 0.049862746 -0.037912704
0000c0 c7 96 ea 3d 4a 02 3e 3d fb 3a 4e 3d 5f 8a 76 bd
       0.1145454 0.0463889 0.050349217 -0.060190555
0000d0 a0 ed a5 bc 5c b8 2a bd 9a 69 29 3d 07 46 11 bd
       -0.02025491 -0.041679725 0.041360475 -0.035467174
0000e0 be 2d 7f 3b e6 11 1d 3d a1 8a f5 3c bd 37 9e 3b
       0.0038937177 0.038347147 0.02997333 0.004828422
0000f0 69 78 17 bd a0 29 57 3d 7f 63 e3 bc b5 ea fa bc
       -0.036980066 0.05252993 -0.027757404 -0.030629495
000100 38 43 9d bc 3d 83 86 3c c6 2e 58 bc fc a6 5e 3c
       -0.019197091 0.016420001 -0.013194745 0.013589617
000110 70 2c 38 3d 39 9a ba bc 9a 2b 8f 3d 32 90 a9 3d
       0.044964254 -0.022778617 0.06990738 0.08279456
000120 d6 fa 20 3d 91 4d 1c bc d8 da 8a 3d 48 12 97 3d
       0.039301716 -0.009539978 0.067800224 0.07376534
000130 d0 cb ac 3d ab ff 1a bd c9 cc b8 3d 39 c4 23 3c
       0.08437312 -0.03784148 0.09023435 0.009995514
000140 97 4e ce 3c b5 ec 81 bc 2d 4a 84 3a 1b 4d be bc
       0.025183959 -0.015859941 0.0010092907 -0.023230126
000150 33 b0 15 bc 8e c8 cf bc 26 df eb bb f9 ff 87 bd
       -0.009136247 -0.025364187 -0.007198232 -0.0664062
000160 a6 c6 4d 3d 8c 00 4c 3d 99 fc 21 3c e9 0f 75 3b
       0.050238274 0.04980521 0.009886884 0.0037393516
000170 3d c4 3d 3c 23 b0 18 3c e5 47 6d bd 24 77 3f 3c
       0.011582431 0.009319338 -0.057929892 0.01168612
000180 b8 9b 4b 3d 5d 35 d2 3c b3 63 0d 3d 91 7f 6e 3d
       0.04970905 0.025660211 0.03451891 0.058227126
000190 7c 20 08 bc 9d df b7 3c 92 b9 e0 bc 79 1a 89 bc
       -0.008308526 0.022445494 -0.027432237 -0.016736256
0001a0 b2 d8 3d bc 8c d3 d9 bb b6 6a 47 bc b4 9c 31 bd
       -0.011587309 -0.006647533 -0.012171438 -0.043362334
0001b0 19 eb 15 3d 53 73 c2 3c 46 75 ba 3d 73 05 c6 3d
       0.03660116 0.023736631 0.091043994 0.09669008
0001c0 40 72 fc bc 0e 3e 76 3c 06 12 93 3c cc 26 1d bd
       -0.030816197 0.015029443 0.01795293 -0.038367078
0001d0 95 6a 18 bc 43 eb c0 bc 65 d9 33 3d 49 69 cc bb
       -0.009302755 -0.023549682 0.043908495 -0.006238137
0001e0 51 88 6e 3b 9a b0 b4 3b 28 40 c0 3c 82 64 aa bc
       0.003639717 0.0055142166 0.023468092 -0.020799879
0001f0 a1 61 17 bc 02 01 f9 3c 1b ab f6 3c e0 39 fc bc
       -0.009239585 0.030395988 0.030110886 -0.030789316
