PPO/ppo_actor.pth (torch, 549599 bytes, 10 tensors)

layer1.weight f4 [128, 29]
000000 b8 08 11 3c 9f 7c 03 be 6b e1 9a be 3a 31 6b be
       0.008852176 -0.12840508 -0.30250105 -0.22967997
000010 51 89 57 be 44 5a 81 bf 47 24 e0 3e a0 4f 52 3f
       -0.21048476 -1.0105672 0.43777677 0.8215275
000020 f0 82 b0 be e3 96 db be 5f f1 5a be c3 9d 4a 3f
       -0.34474897 -0.42888555 -0.21381138 0.79146975
000030 46 bf a6 3e fd e9 26 3f c0 df 27 bf dd ca 49 bd
       0.32567805 0.6520079 -0.6557579 -0.04926573
000040 34 84 d6 bc 6e 87 cc bd 8d ea 06 bf 17 e9 0c be
       -0.026186086 -0.09986769 -0.52701646 -0.13760792
000050 01 bf 18 3f 66 09 2a be 0d 46 68 3e 78 06 25 bd
       0.5966645 -0.16605148 0.22682972 -0.040289372
000060 3c be ad 3e 0e 55 65 bd 95 9d 8e bc fd 23 fc bd
       0.339342 -0.055989318 -0.017409125 -0.12311552
000070 26 3e ce bd c7 a3 0e 3f c7 a2 bf 3e d6 60 20 bf
       -0.100704476 0.55718654 0.37428877 -0.6264776
000080 62 3f 99 bf 7b c8 0f 3f a8 2f 1f be 45 dd b8 3d
       -1.1972468 0.56165284 -0.15545523 0.09026579
000090 16 f5 d8 3d 6e 62 86 bf 73 44 c1 3e b0 31 8f 3f
       0.105936214 -1.0498788 0.37747535 1.1187038
0000a0 dd 64 cc bc f6 97 cf 3d 15 5d 79 3d 14 8b b8 be
       -0.02495044 0.10136406 0.060879786 -0.36043608
0000b0 19 ac f3 bd dc 96 ff 3e 34 fe 88 3f ca 9f 58 be
       -0.118980594 0.49919784 1.0702577 -0.21154705
0000c0 79 de 17 bf 6b bd 2a bd e3 56 a0 3d be ea b6 3e
       -0.5932384 -0.04168455 0.07829072 0.3572597
0000d0 3e a6 32 bf fc fa 1e bf 44 53 f2 3d c8 08 e7 be
       -0.69784915 -0.6210172 0.11832288 -0.45123887
0000e0 f6 7d c9 be 9f e6 6e 3f 5e 00 01 bf 2c 59 26 3e
       -0.39353913 0.9332065 -0.50391185 0.16244954
0000f0 33 90 ae bf b1 44 cd 3d 0f b7 00 be 47 6d de 3e
       -1.3637756 0.100228675 -0.12569831 0.43442747
000100 7e ff d0 3e 3c 5a 97 bf 0a d5 77 bf 2a cf e4 bd
       0.40819925 -1.1824412 -0.96809447 -0.11172326
000110 e7 62 26 3f 83 63 84 be f9 af 31 3f 21 29 ec be
       0.64994663 -0.2585717 0.6940914 -0.4612513
000120 50 be 18 bf cf 03 c1 3e b2 86 1d be 7e 82 a3 bf
       -0.59665394 0.37698218 -0.15383413 -1.2774198
000130 00 72 6c bf e5 b3 0d bf c6 52 32 3e e9 78 ba be
       -0.9236145 -0.5535262 0.17414388 -0.36420372
000140 d6 7d 2e be f7 da dd 3d b5 b3 aa 3e ab b8 1e bd
       -0.1704019 0.1083278 0.3334023 -0.03875033
000150 c9 9d 2a be 40 cd d3 be 43 be 94 3e 85 e1 a8 3d
       -0.16661753 -0.4136753 0.29051408 0.082461394
000160 f3 21 04 3f b0 bd 9c be 4a 09 1e 3e 60 38 fc 3e
       0.516143 -0.3061347 0.15433231 0.4926176
000170 cc 2b ab 3f db d1 52 3f 41 86 3f bf 75 fa 63 bf
       1.3372741 0.82351464 -0.7481423 -0.8905404
000180 3e 4a 0d 3e 17 6d b0 3e cb 5c 03 3e 83 5d d1 3e
       0.13797852 0.3445823 0.12828366 0.40891656
000190 ee ea 74 bd e5 60 6b be 4e d9 4d 3e 17 43 22 3f
       -0.05979436 -0.22986181 0.20102426 0.6338362
0001a0 4b ce ad 3f 1d ad cd 3d 10 e1 a1 bf 22 e6 83 3e
       1.3578581 0.10042784 -1.2646809 0.25761515
0001b0 af d4 84 3e 8a 68 11 be 52 a4 ac bd 44 0d 79 bd
       0.25943515 -0.14200035 -0.08429779 -0.060803667
0001c0 9d 5c fa 3e 9a fb f4 3e f1 f4 63 be 6e e2 8b 3f
       0.48898783 0.47848207 -0.22261406 1.0928476
0001d0 e0 24 fc bb bf f5 14 3f ca 4f 99 3e 6d 48 55 3e
       -0.0076948255 0.5818748 0.29943687 0.2082841
0001e0 57 d2 93 3f b5 46 29 bf c2 27 6f bf d7 ad ff be
       1.1548566 -0.66123515 -0.9342004 -0.49937317
0001f0 31 4d aa 3e 22 66 f6 3e 82 9a 07 3f 70 8a a7 be
       0.33262017 0.48124796 0.52970135 -0.32722807
000200 87 b9 d2 3e 0b d3 4e 3f 36 4c 5c be 38 0b 31 bf
       0.4115717 0.80790776 -0.21513447 -0.69157743
000210 72 bf c1 3d e5 5a 2b bf 80 b7 20 3f 40 ce e9 be
       0.094603434 -0.6693557 0.6278 -0.4566517
000220 37 5b 05 bf ad 40 dd 3d 22 da 02 3f 62 06 8d be
       -0.5209231 0.108033516 0.51114094 -0.27543932
000230 41 89 16 3f 0d 54 f3 bd 92 65 b8 3e a1 8b 1e 3e
       0.5880318 -0.11881266 0.36014992 0.15482952
000240 df 78 46 3f 5e 33 9a bf b0 10 6d be d7 61 18 3b
       0.77528185 -1.2046926 -0.23150897 0.0023251676
000250 f1 70 29 bd 59 83 aa bd f7 6d 18 be 70 0e 8a be
       -0.041367475 -0.08325834 -0.14885698 -0.2696414
000260 4c 17 e7 bf 81 a1 2c 3d 1d 35 34 be f2 46 d1 be
       -1.8053985 0.04214621 -0.17598386 -0.4087444
000270 f5 de e5 3f 00 cd f0 bd b3 42 ae 3e ee 37 03 3e
       1.7958666 -0.11757851 0.34035262 0.12814304
000280 38 d1 f5 bc 3d 61 07 be 0e bd 29 3f 6d 62 f7 be
       -0.03000699 -0.13220687 0.663041 -0.4831728
000290 bf d7 2d 3f 7f 09 26 3e c3 c0 f9 3e 69 45 cd 3c
       0.6790733 0.1621456 0.48779878 0.025057511
0002a0 16 d2 04 bc 41 c0 22 3e 9f 8d 09 bf cb 53 e6 3e
       -0.008106729 0.15893652 -0.5373172 0.44985804
0002b0 c7 d9 27 bf 1d 84 aa bd 02 b0 5b bc cf 65 c8 3e
       -0.65566677 -0.0832598 -0.013408663 0.39140174
0002c0 dc 0f 39 3f 6f 80 89 3e 9b 9a 7c be 7b a5 a4 3f
       0.72289824 0.268558 -0.24668352 1.2863001
0002d0 0b 97 53 bf b3 0a 9b bd d4 a4 5d 3e fc a7 81 3f
       -0.8265235 -0.075704 0.21644908 1.012939
0002e0 ab b8 2e 3e ba de e9 be 50 fd 65 be 61 6c 93 be
       0.17062633 -0.4567774 -0.22459912 -0.28793624
0002f0 96 73 00 bf 28 53 87 bf a1 de 21 bf 25 14 53 3e
       -0.5017637 -1.0572252 -0.6323033 0.20613153
000300 63 97 f8 be 61 ab 5a 3d b9 a0 0e 3f bb 29 76 3e
       -0.48553 0.053386096 0.55713993 0.24039356
000310 40 fd 78 3f 3c e0 91 bf fb 89 78 3e 5e 9b 87 be
       0.9726143 -1.1396556 0.24271385 -0.26485723
000320 5f 41 4d 3e c0 ca 20 be eb 30 df bc e4 19 2c 3f
       0.20044468 -0.15702343 -0.027245006 0.67227006
000330 8c 5e 68 bf c0 b8 0a 3e 8a 85 a3 3e f9 a0 da bf
       -0.9076927 0.13547039 0.3193782 -1.7080375
000340 07 cb 51 be dc e1 9b bf 25 df 80 3e 9f a7 08 3e
       -0.20487605 -1.2178302 0.25170246 0.13345192
000350 0a 8d d2 3c 86 c1 98 3e 28 43 2a bf b3 66 78 3d
       0.025702018 0.29835147 -0.6650872 0.060644817
000360 75 81 87 be 57 11 cf be 79 c1 5f 3f ba fc 52 bd
       -0.26465955 -0.40442917 0.8740459 -0.05151055
000370 b7 a9 93 3f 9b d4 2f bf f3 96 42 3f 56 1a bb be
       1.1536168 -0.68683785 0.7601158 -0.3654353
000380 c8 c3 2c bd bd 22 8d bd 15 84 1c 3f e7 e5 1c 3e
       -0.0421789 -0.068913914 0.6113904 0.15322076
000390 54 a4 a7 3e 8c 57 bc be b3 0f 96 3f 66 c4 21 bf
       0.3274256 -0.36785543 1.1723541 -0.63190305
0003a0 a8 01 5a bd c5 bf a5 be 89 c4 82 be 57 d8 8f be
       -0.053224236 -0.3237287 -0.2554057 -0.28094742
0003b0 3f 5e bd 3f 65 14 41 be aa 89 05 3f b0 3d d8 bf
       1.4794387 -0.18855436 0.52163184 -1.6893826
0003c0 f1 4b 87 3e 95 60 33 bc dd a4 d3 be 96 4e 2a 3e
       0.26425126 -0.01094832 -0.41336718 0.1663154
0003d0 02 a6 e3 bd 78 02 ff be ee df e0 3e 37 0b 64 be
       -0.11115648 -0.4980657 0.43920845 -0.22269903
0003e0 f2 d8 61 3f 54 17 5c be 21 84 ba 3f 43 e5 57 be
       0.8822166 -0.21493274 1.4571573 -0.2108355
0003f0 44 c0 3e bf fb 9f de be c1 77 1e bf 2e f3 53 3e
       -0.74512124 -0.4348143 -0.6190148 0.20698234

layer1.bias f4 [128]
000000 46 7f e2 be 18 56 6f bf e4 3c 2f bf 34 d2 b1 bd
       -0.44237727 -0.93490744 -0.68452287 -0.08682671
000010 99 f5 e1 3e 00 8d a3 3e d7 ab 06 3f d7 05 0a 3c
       0.4413269 0.31943512 0.52605957 0.008424244
000020 f4 ab e6 bd f6 12 76 bf b6 8a f4 bd 21 f3 1c bf
       -0.11263266 -0.9612268 -0.119405195 -0.61308485
000030 c0 c1 02 bf fc f7 1e bf 20 29 fb be 73 1d 8f be
       -0.5107689 -0.62097144 -0.49054813 -0.27952155
000040 bd 86 84 be 52 7c 63 bf fa a4 09 bf 8f 3d 89 bf
       -0.25884047 -0.8886157 -0.5376736 -1.0721911
000050 5a c8 27 bf 63 59 9a bf 0a bb 65 3c f4 a9 5c 3e
       -0.6554009 -1.2058529 0.014021644 0.21549207
000060 ec 6e 0d 3f 66 4b 12 be d2 49 8c bf 0a a5 bb bf
       0.5524738 -0.14286575 -1.0960028 -1.4659741
000070 2e 1c ac bd 7b d1 8f bd e5 a8 53 bf b4 ba 39 be
       -0.08403812 -0.07022377 -0.8267959 -0.18137628
000080 99 09 15 bf 1e a8 ca be 53 d6 64 bf 28 a8 72 be
       -0.5821777 -0.39581388 -0.8938953 -0.23696959
000090 34 04 a6 bf bb 42 f2 be e9 fd cc be 7b 80 cd be
       -1.2970033 -0.47316536 -0.40037468 -0.40137085
0000a0 7c ec bc be cc 5b a9 bd 79 41 86 be db f7 c5 3e
       -0.36899173 -0.08269462 -0.26221827 0.3866566
0000b0 2a fe 11 bf bc 64 d0 be dd b3 ee bd aa 73 4d bf
       -0.5702845 -0.40701854 -0.116554 -0.80254614
0000c0 2e 8d 82 bf 4f fc b3 3e 53 d6 21 be 27 37 ca 3b
       -1.0199335 0.35153434 -0.15804414 0.0061711255
0000d0 3e af 96 bc 11 27 bb be 7a 9f 25 3e 3c e2 b7 3e
       -0.018394109 -0.36553243 0.16174117 0.3591479
0000e0 c1 57 a3 3c 45 2c f8 bc 76 24 76 bf c1 1a 9f bf
       0.019939305 -0.030294547 -0.96149385 -1.243004
0000f0 d3 06 a4 be 49 97 55 3e 26 b7 02 3e d4 86 86 bf
       -0.32036456 0.20858492 0.12765178 -1.0509896
000100 d5 63 45 3d 7a 69 46 3e a8 f3 4d 3d 6d 20 e3 be
       0.04819091 0.19376174 0.050281197 -0.44360676
000110 64 6d 87 be d2 a5 e4 be 9a 77 20 be aa 85 f1 bd
       -0.26450646 -0.4465776 -0.15670624 -0.117930725
000120 c7 64 69 bf 6c 8b e9 be b3 63 79 bf 3b 94 b3 be
       -0.911694 -0.45614183 -0.97417754 -0.35074028
000130 7a 7e 7a 3e 2b ee 50 3e 07 7d 1f bf a1 4d fa 3e
       0.2446231 0.20403354 -0.6230015 0.4888735
000140 2a a2 ea be 7e b0 a6 be 3a 9b b8 3c d9 c1 17 be
       -0.45826846 -0.32556528 0.022534955 -0.14820041
000150 fe b4 63 bf 0b 08 36 3e 1c 5d a6 be a0 89 68 3e
       -0.8894805 0.17776506 -0.32492912 0.2270875
000160 38 31 15 bf 94 37 26 bf 93 99 df be 66 9a 75 3e
       -0.58278227 -0.64928555 -0.43671855 0.2398468
000170 6f a1 4d bf a9 3e 33 bf c5 76 4e 3e bb 62 2f bf
       -0.80324453 -0.70017487 0.20162494 -0.68510026
000180 01 a2 58 3e f1 08 4b bf 61 70 cb be 4e df 18 be
       0.2115555 -0.7931052 -0.39734176 -0.14928934
000190 f3 e7 41 bf c8 84 a4 3c a2 48 54 bf 5a 96 c0 3e
       -0.7574455 0.020082846 -0.8292333 0.3761471
0001a0 85 47 9b bf 84 be a7 bc 00 8f 9b be 27 8c 71 bc
       -1.2131201 -0.020476587 -0.30382538 -0.014742888
0001b0 0d 0e 71 bf 68 57 04 3d d5 fb 6c be 9b b7 23 be
       -0.94162065 0.03230992 -0.23142941 -0.15988009
0001c0 8a f3 21 bf c0 c5 84 bf ed ed 5e 3e a3 b6 14 3f
       -0.63262236 -1.0372849 0.21770449 0.5809118
0001d0 82 a4 10 be 83 b1 1e bf 03 20 20 bf 1c ce 13 3f
       -0.14125255 -0.6198961 -0.62548846 0.5773637
0001e0 1f 8a 26 3d e3 8d 2b bd 87 4d de be 7e 02 00 bf
       0.040659066 -0.04188336 -0.43418524 -0.500038
0001f0 98 e4 49 bf dd 16 2c 3f f9 5d 3f bf 15 28 4a bd
       -0.7886443 0.67222387 -0.74752766 -0.04935463

layer2.weight f4 [256, 128]
000000 b5 fd 71 3b a2 79 24 bd 6b 9b b8 bd dc d3 ff be
       0.0036924903 -0.04015506 -0.090140186 -0.49966323
000010 73 36 eb bd 5a 0e f9 3d 6f b5 e0 be 03 96 4c be
       -0.11484995 0.121609405 -0.43888423 -0.199791
000020 07 66 af be 12 09 e9 bb 84 c0 4f bf 11 e6 30 bf
       -0.34257528 -0.007111677 -0.8115313 -0.69101053
000030 4b fa a3 3e 93 0b 08 3f 8e ed 66 3e 89 a8 e3 be
       0.32026896 0.5314266 0.22551557 -0.4446452
000040 34 3c b5 3d 46 7b 0f 3e e1 a1 cf 3e d5 ed 6e be
       0.088493735 0.14011869 0.4055319 -0.23332913
000050 cf c9 a2 3e 9a 09 be be 58 09 c9 be 0b 98 9f 3e
       0.31794593 -0.371167 -0.3926494 0.31170687
000060 ca ab b2 be f6 c8 36 3e e5 b2 8f 3e 8e 80 6f be
       -0.3489669 0.17850098 0.28066173 -0.23388883
000070 51 8b c9 3d ae 14 75 be 15 bf 02 bf 01 9f b3 be
       0.098410256 -0.2393367 -0.5107282 -0.35082248
000080 59 c1 bf be a2 ab da bd 6b 8c 14 3e 0c 32 74 be
       -0.374522 -0.106772676 0.1450669 -0.23847216
000090 bc 39 96 bd 23 48 e1 3e d8 ef 97 be 61 e8 1e bf
       -0.07335231 0.44000348 -0.29675174 -0.6207333
0000a0 0e b9 a8 bf 25 82 15 bf bc d2 64 3e c3 25 f2 3e
       -1.3181474 -0.5840171 0.22346014 0.47294435
0000b0 c3 15 ab bf 65 a9 fd bd 3e 41 fa 3e ed 10 36 bd
       -1.3366016 -0.12385825 0.488779 -0.044449735
0000c0 ad 43 c8 be 88 72 19 bf 30 55 aa 3d 1d e7 14 3f
       -0.39114133 -0.59940386 0.083170295 0.5816515
0000d0 38 a4 95 3e a2 f9 c0 3b fe 7b 8d be 6b a1 6b 3a
       0.2922685 0.0058891336 -0.2763366 0.0008988592
0000e0 ee 9d 95 be ba ee 76 be 69 f8 e3 be 8c cc 33 3e
       -0.29222053 -0.24114504 -0.4452546 0.17558497
0000f0 5f 6a ce 3e 89 c3 a6 bf 52 55 e6 be 39 33 c7 be
       0.4031553 -1.3028423 -0.4498697 -0.38906267
000100 77 b0 5c 3d ea 4b ed 3e 79 c6 d4 3e f2 ce 34 be
       0.053879227 0.4634698 0.41557673 -0.17657068
000110 f0 41 08 bf 2d bf 5f 3e 01 e8 d3 3e 91 7c 15 bc
       -0.5322561 0.21850272 0.41387942 -0.009123937
000120 ec 54 6f be 2a cb d7 be 79 0c 37 3c 7b de be bd
       -0.23372239 -0.4214719 0.011172407 -0.093197785
000130 7c fe ee 3e c7 24 0e bf e4 bb 86 3e 7d 96 06 bd
       0.4667853 -0.5552487 0.26315224 -0.03285836
000140 6a da 7a 3c 9b da 9e be 75 91 f0 bd cc 4f 2e bb
       0.015310863 -0.31026158 -0.11746494 -0.0026597856
000150 e7 2f a2 be ce 5c 3b be cb 6e 2c be 37 38 9f bf
       -0.31677172 -0.18297121 -0.16839139 -1.243903
000160 24 b0 4a 3e 88 66 87 be ba a0 2d bd dc 7a 43 3f
       0.19793755 -0.26445413 -0.04238961 0.76359344
000170 d4 52 8f be 25 61 87 be 0f f4 f6 bd c6 06 92 bd
       -0.2799288 -0.26441303 -0.12058269 -0.07130198
000180 17 d9 3a 3f d5 b8 9e 3d 5e d2 a1 be 4e 2f 02 bf
       0.729875 0.07750098 -0.3160581 -0.5085343
000190 37 e8 2e bf a2 9f 2d 3f b6 27 b9 3d 71 f1 8a be
       -0.6832308 0.67821705 0.090407774 -0.2713733
0001a0 66 4e 21 3d 20 4a a0 be 06 2a 33 3f 50 c0 97 3e
       0.039381407 -0.31306553 0.69986 0.2963891
0001b0 1c 8a 8f 3e e6 90 83 3e b2 0c 53 bf 8a 63 a5 3e
       0.28035057 0.25696486 -0.82441247 0.32302505
0001c0 c1 a0 1e 3f 26 fa 42 3e af 4d e8 3d ee f1 f7 be
       0.6196404 0.19040737 0.11342942 -0.48426765
0001d0 c3 5d e3 3e ea 9c 7c bf e8 a6 ef be 9b f0 6a be
       0.44407472 -0.9867693 -0.46807027 -0.22943346
0001e0 16 82 8c 3c 9f 91 42 3e 60 75 b2 3d 33 b6 6c 3e
       0.017151874 0.19000863 0.08713794 0.23116378
0001f0 68 39 87 3e 65 e0 dd 3e 70 f0 5b bf 79 8b 3a 3e
       0.26410985 0.43335262 -0.85913754 0.18217267
000200 af b5 05 bc c4 a5 84 bd f8 87 96 bc 03 ff b0 bd
       -0.0081609925 -0.0647693 -0.018375382 -0.086423896
000210 a6 93 09 be 24 3e 7d be b8 b3 39 be 33 4b c8 bd
       -0.1343523 -0.24730736 -0.18134964 -0.09779968
000220 3c 9c e3 bd b4 d9 91 bd 00 86 76 be a3 a7 c6 bd
       -0.11113784 -0.07121602 -0.24074554 -0.09699943
000230 b8 79 6f bd ba 50 78 3e ba 5c 73 bd f7 42 1c be
       -0.05846569 0.24249545 -0.059414603 -0.1525992
000240 7d be 00 be e5 29 1f bc 5d 79 41 bd 67 86 32 be
       -0.12572666 -0.009714578 -0.04723488 -0.17434083
000250 92 70 cd 3d e6 0e 3a be 53 38 81 bd 1b 4f 06 3e
       0.10031237 -0.18169746 -0.06309571 0.13116114
000260 03 40 37 bd 07 f4 04 be 3f 36 bd bd a1 8a 8e 3d
       -0.04473878 -0.12983714 -0.09238862 0.06960035
000270 b1 97 b0 bd f3 59 4e bd df 17 0c be 1f 3b 84 be
       -0.08622683 -0.05037875 -0.13680981 -0.25826356
000280 ab 3a 02 bb 0b 97 d6 3d bb 8a 27 bd 03 41 c0 bd
       -0.0019871395 0.10478028 -0.040903788 -0.093874
000290 84 d9 70 3e 0c ee 9d 3c f2 6a 20 bd 77 25 ee bc
       0.23520476 0.019278549 -0.03916449 -0.029070599
0002a0 0f b9 19 bd 61 bf 29 3a 13 bd 18 be 15 89 e9 3d
       -0.03753 0.0006475356 -0.14915876 0.114030994
0002b0 a7 76 86 bd 92 9f 35 3c 40 82 35 be 45 e0 b7 3c
       -0.065656 0.011085408 -0.17725468 0.022445807
0002c0 44 2c 07 bc 87 d2 ed 3c 31 fc 03 be 39 74 58 be
       -0.0082503 0.029031051 -0.12889172 -0.21138085
0002d0 4f a0 1a 3d 0e da 98 bc 18 32 a2 3c 70 6b 36 bd
       0.03775054 -0.018658664 0.019799277 -0.044536054
0002e0 ac 93 77 bd e4 26 45 be 36 3c ff bd f9 53 0e be
       -0.060443565 -0.19253117 -0.12462656 -0.1389922
0002f0 9b f9 6e bd d2 11 93 bd 7e d1 ff bd c7 ef 1f 3e
       -0.05834351 -0.07181133 -0.12491129 0.15618812
000300 c0 24 91 3d 54 82 b3 be ab 9e 22 3b d5 d8 57 bd
       0.07087088 -0.3506037 0.0024813812 -0.05269702
000310 0f 8e 16 be df 46 fc bd f3 30 8d bd 43 e8 2a be
       -0.14702629 -0.12318205 -0.06894102 -0.16690163
000320 23 be 79 be 65 45 75 bd 72 6e 72 be 98 5e 18 be
       -0.24388938 -0.059880633 -0.23674944 -0.14879835
000330 9e 50 d7 bd 32 d7 18 be 37 ba f3 bd fc e4 6d be
       -0.105134234 -0.1492584 -0.11900752 -0.23231882
000340 30 be 10 be 51 a8 73 bd 89 9b 84 be 3a f8 3b bd
       -0.14135051 -0.05948669 -0.25899914 -0.045891024
000350 3c dc 8b 3d 73 4f 1c be dd a2 66 be c3 f4 12 be
       0.06829116 -0.15264682 -0.22523065 -0.14351182
000360 87 07 3d bd c3 a1 ab be aa f3 28 bd cd 94 ea 3d
       -0.046149757 -0.33521852 -0.041248 0.11454163
000370 20 10 3b bb 11 f7 44 be 9f 2e 82 bd 06 64 01 bd
       -0.0028543547 -0.19234873 -0.063565485 -0.03158953
000380 6a 51 1d be 7d ea ec bd 1b 60 2e be 98 3e 55 bd
       -0.15363088 -0.115681626 -0.17028849 -0.052061647
000390 f1 91 34 be 1b b5 1f be 4f 5c d7 bc c8 de ab bd
       -0.17633797 -0.1559643 -0.026289133 -0.083921015
0003a0 49 fc f9 bd d0 65 0d bd fe 00 1b be d0 48 21 bd
       -0.12206323 -0.034520924 -0.15137097 -0.03937608
0003b0 df eb a4 be c9 28 c8 bd ad e8 82 be 4a 46 48 bb
       -0.32211205 -0.09773404 -0.25568143 -0.0030559474
0003c0 40 59 3e be 44 95 08 be 68 e8 8f bd 7f 36 ae bd
       -0.18588734 -0.1333819 -0.0702675 -0.08506488
0003d0 a0 d6 41 be e0 df 6e be 77 e1 bd bd a1 6e 59 3d
       -0.18929529 -0.23327589 -0.0927152 0.05308402
0003e0 14 48 a0 be cf e1 3d 3d b4 50 e3 bc d9 78 4e be
       -0.3130499 0.046357926 -0.027748443 -0.20163287
0003f0 ed d2 bc be cb cd 3e be 00 a4 66 bd d1 ae 5c be
       -0.36879674 -0.18633191 -0.056308746 -0.21551062

layer2.bias f4 [256]
000000 ff 8a b7 3e 44 4f 1f bd 7f b6 cd 3e b8 1f 8d be
       0.35848233 -0.038893953 0.40178296 -0.27563262
000010 72 37 90 3d 27 a1 93 bd 53 6d a9 be 59 0f 3b be
       0.07041825 -0.07208472 -0.3309122 -0.18267573
000020 50 2c b6 be cb 3a 67 3e fb f1 51 be 80 71 ff bd
       -0.35580683 0.22581021 -0.20502464 -0.1247282
000030 3b 09 56 be 11 93 7d be cc ac 0c bf cf ca 89 be
       -0.20901959 -0.24763133 -0.5495117 -0.26912543
000040 34 3b aa be 14 d8 d1 bd 7e 83 48 3e 10 d4 c5 3e
       -0.33248293 -0.10246292 0.1958141 0.38638353
000050 eb 5c 2b be cc b6 02 be df 9c 0e bf 3f ad e7 bd
       -0.16734664 -0.12765044 -0.55708116 -0.11312341
000060 2c d7 28 be ae a1 04 3e 8e 34 41 be 4f c1 6b be
       -0.16488332 0.12952301 -0.18867704 -0.2302296
000070 af ee 38 be 70 fc 0a be 39 a2 04 be 5a 7a 64 be
       -0.180598 -0.1357286 -0.12952508 -0.22312298
000080 91 2a bc be 5c e7 66 be db 8f 0f bf aa cc db bd
       -0.36751226 -0.22549194 -0.5607888 -0.10732396
000090 9c 3b d0 3e 94 23 48 bd a2 75 cf be de 56 41 3f
       0.40670478 -0.048862055 -0.40519434 0.75523174
0000a0 f2 b9 03 ba cc 18 51 be 47 9e 8a be 2f 12 f4 be
       -0.00050249614 -0.20419616 -0.2707388 -0.47670123
0000b0 d9 9c bd 3d 9e 1d 6e be 2a 00 81 be 1c ef 70 be
       0.09258432 -0.23253486 -0.25195438 -0.23528713
0000c0 3a cc 00 bd 95 a9 6b 3d b5 5c 81 bd c6 bf 7b bd
       -0.031444766 0.057534773 -0.063165106 -0.061462186
0000d0 da b1 1e bd e5 63 6c 3e 05 a4 66 be 92 33 f3 3c
       -0.03874383 0.23084982 -0.22523506 0.029687677
0000e0 9d 22 d2 be 32 5c b8 3e 46 a6 64 be a0 24 fb bd
       -0.41042033 0.3600784 -0.22329053 -0.12262845
0000f0 f1 3f 1e 3c cb c4 c3 bc a7 1d 58 be f5 de a0 be
       0.0096587995 -0.02389755 -0.21105061 -0.31420103
000100 5f 39 a7 be 8b c8 c1 be 5c d2 21 be cd 25 bb bd
       -0.32660958 -0.37848315 -0.15802902 -0.09138069
000110 9a fa c5 be 62 b5 cc 3d d4 68 e3 be f9 6f 0d bf
       -0.38667756 0.099955335 -0.44415915 -0.5524898
000120 78 fc db bd a3 ee c3 3d 01 d2 fe bd 86 d3 7b be
       -0.10741514 0.09567001 -0.12442399 -0.24592409
000130 78 51 72 bd 9b 2c 92 bd d1 af 46 3e 00 7a 92 be
       -0.059159726 -0.07137414 0.19403006 -0.28608704
000140 83 a0 43 be 7a 5e 25 3e 4b e1 f4 bd ac cf b0 bd
       -0.19104199 0.16149321 -0.11957034 -0.0863336
000150 3b e1 d5 3e ab 84 ee be 03 7a 4d 3e 19 d3 39 3e
       0.417734 -0.46585593 0.20066075 0.18146934
000160 32 60 8f be 69 4a 29 be 1b 20 ad bd f7 86 ee 3e
       -0.2800308 -0.16532291 -0.08453389 0.46587345
000170 2c d7 e7 bd 25 19 f0 bd 4f 3d 3a be 36 fd 3f be
       -0.11320338 -0.11723546 -0.1818745 -0.18748936
000180 d3 ab 1a bd 69 26 3a 3e 34 58 6b be 17 d3 0a be
       -0.03776152 0.18178715 -0.22982866 -0.13557087
000190 af 08 0c be 2c f1 59 be 8f 3a b0 3e 4c 0b 8d bd
       -0.13675188 -0.21283406 0.34419677 -0.0688692
0001a0 3e 12 1b 3d a2 a6 02 be 57 4d 38 be c0 66 2e bc
       0.037859194 -0.12758878 -0.17998253 -0.010644615
0001b0 da a1 4a be 1d 77 22 be a2 b8 cc 3e 63 4a 89 bc
       -0.19788304 -0.1586575 0.39984614 -0.016759103
0001c0 cb f8 2e 3e 7f c7 6c be 39 d9 98 be f2 21 c9 3e
       0.17087094 -0.23122977 -0.29853228 0.3928371
0001d0 b4 01 74 be 08 e0 6e bd 7e 26 75 be 47 7d da be
       -0.23828775 -0.05831912 -0.23940465 -0.42673704
0001e0 e9 44 04 be e7 7c f7 3e a5 e7 3b be f2 db 01 be
       -0.12916912 0.4833748 -0.18350084 -0.12681559
0001f0 5d e0 09 be be c7 8e 3e 20 e2 77 bc 3a e2 f6 3d
       -0.13464494 0.27886766 -0.015129596 0.12054868
000200 02 a1 a1 be 45 f8 db bd 95 28 cc bd ee 47 a3 be
       -0.31568152 -0.10740713 -0.09968678 -0.31890815
000210 e6 ee 9e bd 04 77 d8 3b 2e f2 6b bd bd ab 0b 3d
       -0.0776041 0.0066059846 -0.057604007 0.03409933
000220 ea ce 0e be 4a 08 31 bd 56 61 d5 bd ec 28 f7 3e
       -0.13946119 -0.043220796 -0.10418956 0.48273408
000230 69 0b 38 be a6 ac 61 3e 2a 58 c7 be 18 03 5c be
       -0.17973103 0.22038516 -0.3893445 -0.21485555
000240 bc 6c 78 be 41 34 e2 be 07 ef 4d be 5e 1c 3e be
       -0.24260229 -0.44180492 -0.20110713 -0.18565509
000250 eb 07 c9 bd c0 1e 9f 3d 69 f9 9b 3e 76 5c af bd
       -0.09815963 0.07769537 0.30463722 -0.085625574
000260 b9 08 86 be 24 a2 5a 3e 46 0f 02 be d6 9e b5 3c
       -0.2617853 0.21350914 -0.12701139 0.022170465
000270 be 37 11 bf 21 65 d8 3c 39 ee 31 3d 4c 3e 8d bd
       -0.5672568 0.02641541 0.043440077 -0.06896648
000280 f5 f4 34 bf f6 bf bb be 97 51 f9 be 87 9e 97 3c
       -0.70686275 -0.36669892 -0.4869506 0.018508209
000290 b4 0f 76 3e 57 ee 60 be 9a 83 85 be bf 74 d9 bd
       0.24029428 -0.2196592 -0.26076967 -0.10617971
0002a0 cf e5 92 be 81 ae d9 3e ab 66 9f be f8 bd d6 3d
       -0.28690955 0.42515948 -0.31133017 0.104854524
0002b0 a7 fc 15 be 2a e2 e8 be ee 53 79 be bc 29 37 bd
       -0.1464716 -0.4548505 -0.24348423 -0.044717535
0002c0 f6 ee 07 3e 86 5a 2f be 3f 77 51 be 0a 96 39 be
       0.1327475 -0.17124376 -0.20455645 -0.18123642
0002d0 b7 25 93 be 27 ee 0a 3e e9 de 26 bd 92 2a 9a be
       -0.28739712 0.1356741 -0.040739927 -0.30110604
0002e0 30 04 c5 3d 8e 7d 80 be 57 b8 a8 be 51 29 ab be
       0.09619939 -0.2509579 -0.3295314 -0.3342996
0002f0 5a 5a 63 be e7 7f 4a 3d 5e 27 cb be fc f6 f7 3d
       -0.22202435 0.049438383 -0.39678472 0.121076554
000300 02 14 1e be 60 a7 21 bd c6 33 0f be f1 14 0d be
       -0.1543732 -0.039466262 -0.13984594 -0.1377752
000310 a2 ca 13 be 0f ae 11 be 99 89 1e bd ba 13 f8 b9
       -0.14432767 -0.14226554 -0.038705442 -0.00047316944
000320 5f 4a 55 bd 72 81 17 be 05 4c 95 be d0 00 01 bc
       -0.05207288 -0.14795473 -0.2915956 -0.007873729
000330 6a 33 5b be 68 9a 56 3d fd d4 a1 be 52 77 6c be
       -0.21406332 0.052393347 -0.3160781 -0.23092392
000340 e0 1f 9f bc fa 83 37 be 52 d6 29 bd ef f0 3b be
       -0.019424379 -0.17921439 -0.041464157 -0.18353628
000350 f0 31 1b be a5 25 0d bf 39 21 43 be a9 b9 55 bd
       -0.15155768 -0.55135566 -0.19055642 -0.052179012
000360 5a b6 3c be 84 b3 bf be 28 83 3c be 43 af c2 3e
       -0.18428937 -0.37441647 -0.18409407 0.3802434
000370 d9 1e ca bd 94 60 b9 be 74 24 c5 be 21 34 b7 be
       -0.09869165 -0.36206496 -0.38504374 -0.3578196
000380 ba af 6f bf 89 f8 db 3d ee b2 b1 bd 2a 65 0b be
       -0.9362751 0.10740764 -0.08676706 -0.1361281
000390 9f e0 8c be a1 ac e3 3d ca 2b 28 bd 1e b1 e9 be
       -0.27515122 0.11116911 -0.041057386 -0.45642942
0003a0 3b a9 91 bd 9c aa 1e 3f f8 0b ba be ae e6 e0 bd
       -0.07112356 0.6197908 -0.36337256 -0.10981499
0003b0 fd e2 96 be 11 cc a7 3e d4 e9 ab 3e 6b 90 94 be
       -0.29470053 0.32772878 0.33576834 -0.29016432
0003c0 51 5f 09 be 26 55 97 3d e7 6b 59 3c d1 62 cf bd
       -0.13415267 0.07389288 0.013270355 -0.101262696
0003d0 5c 82 3f be 94 2f de bd 2b 81 ee be 04 b8 02 be
       -0.18702072 -0.108489186 -0.46582922 -0.12765509
0003e0 71 a4 76 3d d2 6d c9 bd 56 e8 f1 bd be 2c 2a be
       0.060215417 -0.098354 -0.11811893 -0.1661863
0003f0 9c 87 98 bd 23 8f 3f be 3e 92 96 be 05 3d 83 be
       -0.074477404 -0.18706946 -0.2940845 -0.25632492

layer3.weight f4 [256, 256]
000000 21 0c 21 bd e1 35 c0 3c 2c 54 27 bd d7 3b a9 bd
       -0.039318208 0.023463191 -0.040851757 -0.08263367
000010 5f c0 a5 bd 38 98 05 be 93 c6 d4 bd 3d 20 6c 39
       -0.080933325 -0.13046348 -0.103894375 0.00022518724
000020 b2 a7 d4 bd 62 b6 d1 bd 7b 81 9f bd a1 60 c4 bb
       -0.10383548 -0.10239865 -0.07788368 -0.0059929644
000030 2e 1d 8c bd 78 cd 26 bd 61 5b 25 bc d3 2a 77 bd
       -0.06841503 -0.040723294 -0.010092587 -0.060343575
000040 b7 ef 5b bd bc 5d 6a bd 78 35 3e bd 3c cd 95 bd
       -0.053695407 -0.0572183 -0.04643771 -0.07314536
000050 a8 cb 4a bd f0 2b 14 bd a7 1c ab be ec c9 16 bd
       -0.049510628 -0.036174715 -0.33420298 -0.03681366
000060 08 ff cb bc f0 20 f3 3b b8 e1 b0 bd 5b 1d f8 bd
       -0.024901882 0.007419698 -0.086368024 -0.12114974
000070 db 11 83 3b 62 51 90 bd c4 1f 9d bd 39 ee a3 3c
       0.0039999313 -0.070467725 -0.076720744 0.020011054
000080 df 1e 82 bd c0 9d af bd a8 c5 9a bd b8 73 a7 bb
       -0.063535444 -0.0857501 -0.07557231 -0.0051102303
000090 82 d5 12 be 7a a3 c9 bd 67 79 66 3d e7 3b 73 bd
       -0.1433926 -0.09845634 0.056268122 -0.0593833
0000a0 b0 29 8c 3c a9 fe dc bd 13 39 a4 3c 93 50 82 bc
       0.017109722 -0.1079076 0.020046746 -0.015907561
0000b0 0e 0f c5 bd 5c f1 dd 3a 9f 60 07 bd a7 a4 0f be
       -0.09622012 0.0016932893 -0.03305113 -0.14027654
0000c0 4c b2 64 bc 91 3f b8 bd 42 6d 81 bd 5a 9f 4f bd
       -0.013958525 -0.08996499 -0.063196674 -0.05068908
0000d0 9a 4e 7c be b5 78 5a bc 54 f4 0f bd ef cd 0a be
       -0.24639359 -0.013334443 -0.03514512 -0.1355512
0000e0 83 4d 57 3d 07 1a 80 bc 52 34 34 bd 7e 85 73 bd
       0.052564155 -0.01563741 -0.04399521 -0.05945348
0000f0 a9 bb 2f bd c6 71 c0 bd 76 10 bd bd 62 d3 59 bb
       -0.042903576 -0.093967006 -0.09231655 -0.0033237566
000100 06 a1 de bd 8f a9 ea 3c 08 a0 91 bd 02 72 ad bd
       -0.108705565 0.028645305 -0.07110602 -0.08469011
000110 6f ff e6 bc 44 01 ef 3c 28 2e ab 3b 8a 95 e0 3d
       -0.028197972 0.029175408 0.005224008 0.10966022
000120 48 19 d4 bd e6 b8 b9 bd fa ea 9e 3c 68 a3 5c bc
       -0.103563845 -0.0906847 0.019399155 -0.013466693
000130 7d f0 8b bd 51 bf 90 bd 4d a9 5b 3c 0b 5b 94 bb
       -0.06832979 -0.07067741 0.013407064 -0.0045274547
000140 c0 a6 22 bd b0 d1 cb bc c9 b5 35 bd cf 05 47 bd
       -0.039709806 -0.02488026 -0.044362817 -0.048589524
000150 00 6b 0f 3c 69 75 61 3d cf 49 93 3c e5 90 5b bd
       0.008753538 0.05504361 0.01797953 -0.05360498
000160 98 3c 68 3c 30 89 2c bd fc 8a 64 bd d6 da 96 3d
       0.014174603 -0.04212302 -0.05579661 0.073659584
000170 84 fb b1 bd a2 7a a0 3d 32 cc 87 3a ac d0 b6 bd
       -0.08690551 0.0783589 0.0010360538 -0.0892652
000180 fe 62 6d 3d bd f7 81 bd 14 b5 ea bd b8 44 1d bb
       0.057955734 -0.063460805 -0.11460319 -0.0023997258
000190 ad 59 04 be 04 53 7e ba c0 84 04 bd 1c 04 e7 bd
       -0.12924834 -0.00097017013 -0.032353163 -0.11280081
0001a0 cb 6a db 3c 00 9a 50 bd 8a 72 49 bc 4e fb ad bd
       0.026784321 -0.050928116 -0.012295375 -0.08495198
0001b0 41 b6 ca bd bd 60 19 bd da 41 10 be 8f 70 35 be
       -0.098980434 -0.037445772 -0.1408762 -0.17718719
0001c0 07 17 28 bd 8e 7a 44 bc ab c5 17 be 6e 96 ce bd
       -0.041037586 -0.01199211 -0.14821498 -0.10087286
0001d0 83 e8 b1 3b e3 95 e5 bd 85 07 bf bd 69 69 93 bd
       0.005429329 -0.11210229 -0.09327606 -0.0719784
0001e0 20 69 7a 3d fd 34 6b bd 16 7c ba bd c3 bf 21 3d
       0.06113541 -0.05742358 -0.09105699 0.03948952
0001f0 08 6b bb bd 91 23 c1 bd a0 09 2c be 49 48 be bd
       -0.09151274 -0.09430612 -0.16800547 -0.09291131
000200 30 a3 d0 bd 38 44 11 3d 13 bd 02 be 51 09 96 bb
       -0.101873755 0.03546545 -0.12767439 -0.0045787473
000210 8c 4b 49 3b fa 70 cb bc e8 a6 78 bc 8e c2 7c bd
       0.0030715195 -0.024834145 -0.015176512 -0.06170898
000220 af 49 06 be cb 87 b5 bd b6 34 ad bc 10 04 2e be
       -0.13114046 -0.08863791 -0.021143299 -0.16993737
000230 98 07 f2 3c 6b 93 87 bd db e5 0a be 6c ee 9e bc
       0.029544637 -0.066199146 -0.13564245 -0.019400798
000240 6d a4 40 bc 4b df 72 bd 1e b4 6f bd 2e 75 c7 bd
       -0.011757952 -0.05929498 -0.058521383 -0.09739147
000250 13 9d 35 3c fc f8 0a bd d1 55 06 3d 7e af e8 bd
       0.011084813 -0.033928856 0.032796685 -0.113615975
000260 75 f2 7e bd 5a 10 a4 bd 31 66 4c bd c1 f6 29 bd
       -0.062242944 -0.08010931 -0.049902145 -0.04149509
000270 ff 5f 7e bc aa 6f 99 3d e4 b9 98 bd 94 8c a6 bc
       -0.015525817 0.07492001 -0.07457331 -0.020330705
000280 a2 25 08 be 39 0b 11 bd 16 0a bf bd bb 33 1d bd
       -0.13295606 -0.035411093 -0.093280956 -0.038379412
000290 58 d8 e4 bd 4e 3c 08 3c 94 ac ba 3c 33 b1 bc bd
       -0.11174077 0.008315159 0.02278737 -0.092134856
0002a0 ce 23 41 bd 6d 16 86 3d 2c 4d 8f bd 52 7b 9a 3d
       -0.047153287 0.06547246 -0.06997141 0.07543053
0002b0 56 3b 8e bd 17 8e cd bd fe 37 0e be b4 94 19 3d
       -0.06944911 -0.10036867 -0.13888547 0.03749533
0002c0 28 22 0c bd 57 83 71 3c 2f 1f ca bc 31 33 8a bd
       -0.03421226 0.0147407865 -0.024673073 -0.06748045
0002d0 0b 80 72 3d 6d d0 28 bd e4 d4 01 be 21 28 33 bd
       0.059204143 -0.041214395 -0.12678868 -0.04373944
0002e0 d0 76 c5 bd 44 39 b7 bd 01 51 07 3d 83 1d e9 3c
       -0.09641802 -0.089464694 0.033036236 0.028456455
0002f0 75 2d 2a be 6b 09 b2 3d b7 b5 50 bd de ab fc bd
       -0.16618903 0.086932026 -0.050954547 -0.123374686
000300 f1 c2 88 bb 5f 24 88 bc 93 2f 39 bd 65 5e 44 ba
       -0.0041736295 -0.016618906 -0.045211386 -0.00074908725
000310 96 08 53 3c 7b ff 59 bd d3 26 2f bd fc 70 20 3d
       0.012880465 -0.05322216 -0.042761635 0.03917025
000320 36 db 5c 3d 1b 67 7f bd ea 4a b5 3d 27 75 c8 bc
       0.053919993 -0.06235419 0.08852179 -0.024469925
000330 7a 95 69 3c a2 73 61 bd 49 62 28 be ef ae 60 3d
       0.014256829 -0.055041917 -0.16443743 0.05485433
000340 ba 3d 65 3d 4f d1 85 3c cc df 8b bd 2b 12 cc 3b
       0.05596707 0.016335158 -0.06829795 0.0062277517
000350 8e 9c d7 bc df 21 cd bd 9c 15 60 bd 18 d9 c8 bd
       -0.026319768 -0.10016226 -0.05470811 -0.09807032
000360 28 8c 42 bd 51 2d 66 bc 42 7c 59 be 93 37 3a bd
       -0.047496945 -0.01404889 -0.21238807 -0.045463156
000370 74 7f be 3c 16 fa 2c be 75 e6 2c bd 3c e2 01 be
       0.023254134 -0.16892275 -0.04221197 -0.12683958
000380 b2 57 77 be aa f7 48 bd 18 e0 9f bc 7d b7 ba 3c
       -0.24154547 -0.049064316 -0.019516036 0.022792572
000390 59 6c fb 3c 10 86 46 3d 63 fe c0 bd 2f d9 1e be
       0.030691313 0.048467696 -0.094235204 -0.15512536
0003a0 f2 21 f4 bd d8 66 07 bd 17 e4 94 bc d5 bb 30 bd
       -0.11920537 -0.033057064 -0.018175168 -0.04314788
0003b0 ba 6b 45 3c d3 f8 0b be b4 c3 39 bd ed 7c db bd
       0.01204961 -0.13669138 -0.045352653 -0.10717187
0003c0 65 d9 a7 3d e7 88 8e bc 57 99 60 bc 13 8a af bd
       0.081957616 -0.017399264 -0.013708434 -0.085712574
0003d0 5a 49 f7 bc d2 bc e6 bd af da ba bd 7f b2 b9 3c
       -0.030186344 -0.11266483 -0.09123742 0.022668121
0003e0 b0 c2 4c bd 7f 9b c0 bd c7 6f fc bc 2c af 8d bd
       -0.049990356 -0.094046585 -0.030815018 -0.06918177
0003f0 33 ff 25 be 9c b6 4e 3d a0 e1 c1 bc 23 96 01 bd
       -0.16210632 0.05046712 -0.023667157 -0.031637322

layer3.bias f4 [256]
000000 9a a0 71 be bb 4c 09 be 16 af dd 3c c8 a8 7a 3e
       -0.23596421 -0.13408177 0.027061027 0.24478447
000010 86 95 7c bf d4 20 18 bf ea c1 cc be 23 d2 54 bf
       -0.98665655 -0.5942509 -0.39991695 -0.83133143
000020 d1 b8 b5 bf 7e 67 fa be 08 49 c0 3d da a5 64 be
       -1.4197026 -0.48907083 0.093889296 -0.22328892
000030 09 7e 73 be b3 f3 e9 bd d7 34 28 be 89 67 8c be
       -0.23778547 -0.11423435 -0.16426407 -0.2742274
000040 31 97 a5 be c5 2a 1c bf a8 41 28 bf 39 f3 b2 be
       -0.32341912 -0.6100276 -0.65725183 -0.3495119
000050 17 f7 2d be 9d 24 03 bd a1 49 8e bf 1a 4b 39 be
       -0.16988789 -0.03201734 -1.111622 -0.18095055
000060 1b 14 29 be 5e e6 61 3b c0 85 9f be c8 aa 41 bd
       -0.16511576 0.0034469585 -0.3115673 -0.04728201
000070 01 a6 11 3f 8d d5 dd bd 2e cf 6e be 3f 67 a4 bd
       0.56893927 -0.10831747 -0.2332122 -0.08027505
000080 b4 39 60 3e 3d 7d 67 bc 8c 65 b9 be cf c3 36 bf
       0.21897012 -0.01412898 -0.36210287 -0.7139253
000090 ae 8b 7c 3e d3 f9 a6 be 67 1a aa be 14 83 b1 be
       0.24662659 -0.32612476 -0.33223268 -0.34670317
0000a0 4c 2e e3 be 31 3d 8f 3d a9 e2 97 3e 2f 2c 5e be
       -0.4437126 0.06994093 0.29665115 -0.21696542
0000b0 c9 c7 c4 be c9 85 86 3f 68 f8 f8 be 95 06 60 39
       -0.38433674 1.0509578 -0.4862702 0.00021364757
0000c0 88 a2 f3 3d ff b4 e7 be fd ce 90 bd 21 4b 9f be
       0.11896235 -0.45255277 -0.0707073 -0.31112006
0000d0 05 4a 77 be a7 d2 72 be 06 bd 8e be a7 dd a5 bd
       -0.2414933 -0.2371317 -0.27878588 -0.080989175
0000e0 c4 87 79 be ef 5d 8b be 4f f8 62 bf 4d 09 59 bf
       -0.24368197 -0.27220103 -0.8866014 -0.84779817
0000f0 92 e8 80 bf e4 d1 6e 3d cf 31 0a bf 9d 1c d7 3f
       -1.0070975 0.058305636 -0.5398225 1.6805607
000100 82 8b 87 be 24 c3 f1 3e f0 28 2a be 28 26 e0 3e
       -0.26473624 0.47219193 -0.16617179 0.4377911
000110 79 ee e1 bd 1d 0b fb bd 83 ab 88 3e 26 1d 11 bf
       -0.11031813 -0.12257979 0.26693353 -0.566851
000120 9a 9b 7f bd a2 ee 11 bf 7f e3 a7 3e df 5d 6e 3e
       -0.062404253 -0.5700475 0.32790753 0.23277996
000130 d3 5d 41 bf a0 86 95 be da 80 b1 3f 6b 74 a4 be
       -0.7553379 -0.29204273 1.3867447 -0.3212007
000140 d0 bc f0 bd 53 2e 56 be bc be 28 3d 19 ff c3 be
       -0.11754763 -0.20916109 0.041197523 -0.38280562
000150 a3 0d 81 bd 5f 28 a4 3c c6 3e dc be b0 1b 1a 3f
       -0.06301429 0.020038782 -0.43016642 0.601985
000160 64 71 22 be e9 cb 86 be 83 0b b5 be 36 8b a1 3e
       -0.15863568 -0.26327446 -0.35360345 0.31551522
000170 c4 bd c3 bd e0 9a 65 bf fa 59 26 bf 02 e6 8a bf
       -0.09557679 -0.89689445 -0.64981043 -1.0851443
000180 18 e5 89 be cd 6d b5 bf d4 48 27 bf de c9 91 3e
       -0.26932597 -1.4174134 -0.653455 0.28474325
000190 44 fe f7 3e 89 6c 92 3f 81 9f c6 be 52 27 c0 3c
       0.48436177 1.1439372 -0.38793567 0.02345625
0001a0 fc d4 0a bf 7f 39 5b be ed 39 61 3e ce ff bf be
       -0.5423124 -0.21408652 0.21994753 -0.3749985
0001b0 78 a8 3a bf 40 12 91 3e 64 bd fc be f1 7c 82 3e
       -0.7291331 0.28334236 -0.49363244 0.25485948
0001c0 62 7e d7 3e 82 7e 0b bf d1 5d 26 bd ff f3 a6 3e
       0.4208861 -0.5448991 -0.040616814 0.3260803
0001d0 15 58 7c be 8e f9 b1 3d a6 17 b0 be 59 5a 18 be
       -0.24642976 0.08690177 -0.34393042 -0.14878215
0001e0 d9 05 eb be bd e7 88 bd e1 10 54 be 69 d5 22 be
       -0.459029 -0.066848256 -0.20709564 -0.15901722
0001f0 fc 65 be be 56 d1 4d 3f 22 26 dc be 0c 0a 28 3f
       -0.37187183 0.80397546 -0.42997843 0.6564033
000200 8c 84 e9 be d3 84 1c be d4 1b ca be bb 7b 50 3e
       -0.45608938 -0.15285043 -0.39474356 0.203597
000210 dc 81 81 bc 3e 4d a0 be 81 2b e1 3d 8a 63 46 bd
       -0.015808992 -0.3130893 0.10994626 -0.04843477
000220 17 8a c0 be f8 6e ea bd 7b 70 84 bd b2 ef 52 be
       -0.37605354 -0.11446947 -0.064667664 -0.20599249
000230 34 cf e7 3e 39 a1 89 3e 0e 42 43 be f0 79 83 3e
       0.4527527 0.26880816 -0.19068167 0.25678968
000240 46 04 80 bf d3 96 35 3e db bd 29 bf 9c bc 64 be
       -1.0001304 0.17733316 -0.6630532 -0.22337574
000250 ae 55 f4 be 5f 3d ba be 54 4a 0b bf 7b 7e 29 bf
       -0.47721618 -0.36374947 -0.5441029 -0.6620862
000260 59 0d 8b bd 96 0f e4 be aa d6 2d be 44 a9 90 3e
       -0.06789655 -0.4454314 -0.16976419 0.2825414
000270 a7 0a 5f be e2 74 5f be 44 7d 9e be a7 d3 65 be
       -0.21781407 -0.21821931 -0.30954945 -0.2244402
000280 e3 b8 b2 3e 1c 66 1f 3f 54 45 02 3e 45 cb 11 bf
       0.34906682 0.6226518 0.12721759 -0.5695079
000290 31 58 41 bf 41 89 f8 be 0a 17 27 bf 27 e3 e7 3e
       -0.75525194 -0.48542216 -0.6526953 0.4529049
0002a0 3d fd af be 2b 95 85 be 00 0a 7f 3e 2b f5 d6 bd
       -0.34372893 -0.2609037 0.24906158 -0.10495981
0002b0 d8 a9 3a be 07 fa a4 be 58 92 9b 3e 8c 7d 75 3f
       -0.18228853 -0.32222006 0.3038509 0.95894694
0002c0 4f 3c 51 3e 15 44 22 bf ef 51 a2 be 0e af 7a be
       0.20433162 -0.63385135 -0.31703135 -0.2448084
0002d0 88 3a 13 be ce 63 07 be f0 1e cc 3d a9 14 15 bf
       -0.14377797 -0.13221666 0.09966838 -0.5823465
0002e0 01 e6 6a bc a4 cc 83 be 40 12 a2 be 1d af 1b be
       -0.014337064 -0.25742066 -0.3165455 -0.15203519
0002f0 ee af 49 bf 7d 05 c9 be e6 68 1b bd c2 66 da be
       -0.7878407 -0.39262 -0.037941836 -0.42656523
000300 0b ac 48 be 41 45 92 3f 61 8a c6 bd 33 17 ec bd
       -0.19596879 1.1427385 -0.096943624 -0.115278624
000310 d7 71 33 bf 2b a0 ca 3d 50 fd d7 be 04 34 15 bf
       -0.7009558 0.09893831 -0.4218545 -0.58282495
000320 61 ec 07 be f3 47 63 be 9f 95 0f 3f ae 77 3e bf
       -0.13273765 -0.22195415 0.5608768 -0.74401367
000330 9b 58 b0 3d 78 41 e1 be 12 48 2b bf 8c 7a aa 3e
       0.0861065 -0.4399526 -0.66906846 0.3329662
000340 7c 0f 09 3e ab 43 e2 3e 1c 08 1c bf e5 12 94 3e
       0.13384813 0.44192252 -0.60949874 0.28920665
000350 c0 ea 20 be 6e cb 4a be 90 be 98 bf bf 2a c9 be
       -0.1571455 -0.19804165 -1.1933155 -0.39290425
000360 d2 17 ba be 50 97 0e bf 9e 67 08 bf 90 86 d9 3d
       -0.36346298 -0.55699635 -0.5328311 0.10621369
000370 92 97 86 be e5 86 2a 3f 23 05 46 be 60 15 9c 3d
       -0.26287514 0.6661208 -0.19337897 0.076212645
000380 71 c3 0e be 4d 59 f6 bd c9 01 6c be a9 84 68 bc
       -0.13941742 -0.120287515 -0.23047556 -0.014191785
000390 91 22 cf ba 02 d6 f8 bc 94 d2 42 be 38 52 48 3e
       -0.0015803148 -0.030375484 -0.19025642 0.19562614
0003a0 00 4e ce be 00 11 0a bf e7 48 16 3e 78 aa fe be
       -0.40293884 -0.5393219 0.14676248 -0.49739432
0003b0 38 6f e2 be 68 c5 36 3f 51 f4 40 3e df 13 33 be
       -0.44225478 0.7139497 0.188432 -0.17488049
0003c0 37 09 88 bf 6c 48 a6 be a4 de 16 3d d7 1c a7 be
       -1.0627812 -0.32477129 0.03683342 -0.3263919
0003d0 e6 1d e8 be f9 2f d2 3e e1 e3 fa be bb 97 89 be
       -0.4533531 0.41052225 -0.49001983 -0.26873574
0003e0 c4 3b b0 be 03 0b 83 be d2 ab c2 3e 3f 36 79 3d
       -0.34420598 -0.2559434 0.38021713 0.06084275
0003f0 8c e8 63 3f 54 03 a7 bf 26 06 5d be cf cc 5c 3e
       0.89026713 -1.3047891 -0.21584377 0.21562503

layer4.weight f4 [128, 256]
000000 41 3d c7 3d 2b a2 72 3c c0 8f 08 be 64 36 3d 3d
       0.0972848 0.014809172 -0.13336086 0.04619445
000010 88 93 25 bf 97 1d bb 3e c3 ff ee 3b e5 aa c4 be
       -0.6467824 0.36546013 0.0072936728 -0.38411632
000020 f8 8a a3 3c 05 78 11 be 58 af 60 3d 53 11 7a 3e
       0.019963726 -0.1420594 0.05485472 0.24420671
000030 9d 09 30 3d 80 ad b6 bd 26 29 e6 3c 13 ad e7 3c
       0.042977918 -0.08919811 0.028095793 0.02828077
000040 88 ee a6 be 73 c9 aa 3b 56 0a 0c 3c 5d 0f e3 bd
       -0.3260386 0.005212003 0.008547386 -0.11086915
000050 1c c0 c9 3c f3 a5 8b bd 80 ce 95 bd 95 9d e8 bd
       0.024627738 -0.06818762 -0.073147774 -0.113581814
000060 76 7d 78 3d 13 ca 65 bd 05 1c a1 bd 6f 68 ce 3c
       0.060666524 -0.056100916 -0.078666724 0.025196282
000070 49 12 0c bf 7d 8b 89 bd 88 78 09 bf 4a 93 12 3e
       -0.547154 -0.067160584 -0.5369954 0.14313999
000080 23 84 31 bd 44 b1 6b be 97 87 6c 3d 1b 92 9d bd
       -0.043338906 -0.2301684 0.057746496 -0.07693883
000090 c9 c2 14 be 63 79 99 be 56 60 07 be c8 c9 b2 bd
       -0.1452743 -0.29975423 -0.13220343 -0.08729893
0000a0 fa 95 19 bf ac 73 fc 3e b6 f4 f9 bd 46 f4 29 3d
       -0.5999447 0.49307 -0.12204878 0.041492723
0000b0 95 e6 83 be 58 54 80 3d fc 41 b9 bd 3d fe 61 bd
       -0.25761858 0.06266087 -0.09045789 -0.0551741
0000c0 c4 c7 f8 3c 09 3a 4f bf 12 3f 59 3c 0b 29 44 be
       0.030368693 -0.8094793 0.013259666 -0.19156282
0000d0 f2 1c 8f bc cf e5 80 3e 95 21 04 be 0c e0 2e bd
       -0.017469857 0.2517533 -0.12903436 -0.042694137
0000e0 b3 c1 99 bd 44 bc 67 bd 44 28 70 be 43 e1 41 be
       -0.07507648 -0.05657603 -0.2345286 -0.18933587
0000f0 41 60 94 be 72 7a 90 bd 67 95 ff bd d4 ba 07 be
       -0.28979686 -0.070546046 -0.12479668 -0.13254863
000100 a7 b1 22 3d 5f 9b 47 3e c6 48 18 bf 21 6f 83 be
       0.039720204 0.19492863 -0.59486043 -0.25670722
000110 4a d3 d3 3b 1b c5 b1 be de 46 c1 be dc 6e 83 bd
       0.0064643966 -0.34720692 -0.3774938 -0.06417629
000120 52 0f 6f bd e6 6b 8a be 17 53 88 be c1 76 b6 3d
       -0.05836422 -0.27035445 -0.26625893 0.08909369
000130 08 3a 67 be bc cf e8 3d c9 b5 0f 3d 73 29 0c bf
       -0.22580731 0.11367747 0.035085473 -0.54750746
000140 b5 8f ca 3d 1d 33 76 bd 8b 88 20 bc e2 a6 be be
       0.09890691 -0.06010734 -0.009798179 -0.37236696
000150 4d cf 9b be cc b4 4a 3d 6d aa 17 3e 5b 94 f3 bc
       -0.30431595 0.049488828 0.14811106 -0.029733827
000160 6c 3f 94 3d 0f 4c f2 bd 78 dd f0 bd 29 17 2a bf
       0.07238659 -0.11830913 -0.11760992 -0.6644159
000170 ca d7 37 be 09 5f 0a 3e 8b 89 99 3d 3c ef 92 be
       -0.1795341 0.13512816 0.07496937 -0.28698146
000180 17 91 9c bd da 56 5e bd 94 91 ef bd bb 48 de bb
       -0.07644861 -0.054282047 -0.11697689 -0.0067835725
000190 c7 c5 f6 bc d7 97 1a be c2 12 f1 3d 58 94 11 3e
       -0.030123604 -0.15096985 0.11771156 0.14216745
0001a0 fd c8 70 bc 4d 03 8c bb a4 96 b5 bc 3a 68 c9 3d
       -0.014696357 -0.0042728544 -0.022166558 0.09834333
0001b0 2a 6a 62 be 99 15 04 bd 85 15 cf bd 5f 33 bd 3c
       -0.22110811 -0.03224716 -0.101115264 0.023095785
0001c0 bb 18 ef be eb 12 10 be b2 55 8b be 48 53 66 be
       -0.46698555 -0.14069717 -0.27213818 -0.22492707
0001d0 50 1b 11 3e 0d 42 8a be 52 c1 5c 3d d3 26 0c 3d
       0.14170575 -0.27003518 0.053895302 0.034216713
0001e0 f7 d8 d6 bc 5e 43 7f 3d 35 f8 6b be f4 7e 6d 3d
       -0.026226504 0.062320106 -0.23043902 0.0579824
0001f0 0d cb ae bd a3 6d f5 3c 4c c0 cd be e4 22 86 bc
       -0.085348226 0.029959505 -0.40185773 -0.016374059
000200 ff 96 91 be e5 d4 f1 bd 1c ae 8f 3d 29 e1 38 3a
       -0.28435513 -0.118081845 0.070156306 0.00070525944
000210 9c c7 19 3d 81 59 0e be 61 30 82 3d a0 33 84 3d
       0.037543878 -0.1390133 0.06356884 0.06455159
000220 38 ae a3 3c 4f ce 2a 3e 9d 09 6a 3d 4a d8 5a 3d
       0.019980535 0.16680263 0.057138074 0.053428926
000230 8e 1a 65 3e 3b 0e 10 bf 54 dd af bd 87 ef bd be
       0.22373411 -0.56271714 -0.08587137 -0.37096807
000240 35 a8 45 bf ca 65 3a be 5f 31 dc 3d 05 6b 52 bd
       -0.7720979 -0.18202892 0.10751604 -0.051371593
000250 89 de 73 3c 65 2d 7f be 78 79 2a be 70 14 18 be
       0.0148845995 -0.2491966 -0.16647899 -0.14851546
000260 0d f6 7f be cd 9e 85 bd 03 07 c8 3d c2 d5 a0 be
       -0.24996205 -0.065244295 0.097669624 -0.31413084
000270 54 5a bd be d4 bd 5d bd 0e 69 3a bd a4 fd 12 be
       -0.36982977 -0.054136112 -0.045510344 -0.14354569
000280 c3 4d 0e be e8 17 86 3b 03 22 23 3e 49 c2 d7 be
       -0.13896851 0.0040922053 0.15930943 -0.42140415
000290 ee cf cb 3d 35 b1 df be d7 2b aa 3e 67 47 a8 be
       0.09951769 -0.43689886 0.33236572 -0.32866976
0002a0 97 9c 65 be 7b 9c 23 be 40 ee f0 be 68 b9 63 3d
       -0.22423016 -0.15977661 -0.4705677 0.05559674
0002b0 6c fd 85 b9 19 09 80 be 6b b9 ea 3d be a2 28 3d
       -0.0002555655 -0.2500694 0.11461147 0.041170828
0002c0 21 94 56 bf d2 4e 97 bd 4e fd a6 bc 38 4c f9 be
       -0.83819777 -0.07388081 -0.020384457 -0.48690963
0002d0 cc 0d 18 be 9c a9 e3 be c1 19 8e be 64 f3 09 be
       -0.14849013 -0.4446534 -0.27754024 -0.13471752
0002e0 72 ef 3b bd 13 44 67 3e 37 c2 50 be 8c c9 1d be
       -0.04588265 0.22584562 -0.20386587 -0.15408915
0002f0 c4 96 13 be 66 9e 10 bd 4a ff b4 bc ee 37 b9 3e
       -0.14412981 -0.03530731 -0.022094388 0.36175483
000300 be 89 03 bd c1 8d 04 bf 04 30 ad 3d 20 d0 ca be
       -0.032113783 -0.517788 0.08456424 -0.39611912
000310 eb 53 02 bf 98 71 3c be da 1b 60 be 9e 8f 69 3e
       -0.509093 -0.18402708 -0.21885625 0.22808692
000320 3b 9d b4 bd d5 6b 50 be b3 16 23 3e a3 31 3c be
       -0.08819052 -0.20353635 0.15926628 -0.1837831
000330 7e d5 17 3e c2 72 34 bd 7d c6 6b be 8e 54 03 be
       0.14827535 -0.044054754 -0.23024936 -0.12825224
000340 71 ad f8 be 02 a6 5b be 4c 0b c7 3e e4 27 df be
       -0.48569825 -0.21450046 0.38875806 -0.43585122
000350 96 a2 7c 3d 23 04 e5 3e 20 58 9a be 60 ce 80 bd
       0.06167849 0.4472972 -0.3014536 -0.06289363
000360 36 dc 21 be 7e 33 37 bd 81 af 4c 3e c8 be 33 3d
       -0.1580666 -0.04472684 0.19988824 0.043883115
000370 45 13 c0 3e 9a 11 73 be 6a 48 3e bd 6f 1a 8e bd
       0.375147 -0.23737183 -0.04645578 -0.069386356
000380 4e 9c 7b 3d 70 b1 58 be 6b 79 8c be 9c 0f 5c 3e
       0.06142836 -0.21161437 -0.27436385 0.2149033
000390 e5 c6 c0 3d 7c f8 53 bd a1 90 4f be 19 4a 7c be
       0.09412936 -0.051750645 -0.20270015 -0.24637641
0003a0 c8 79 3a be b8 a2 11 bf 3e 2d 14 3e df 15 87 be
       -0.18210518 -0.56888914 0.14470384 -0.26383874
0003b0 0d 0e 86 3d b2 48 b9 3d 33 f1 42 3e ed 90 7f be
       0.06545649 0.09047069 0.19037323 -0.24957629
0003c0 a6 00 9f bd 35 32 7f bd de 2e 7c bc f1 08 09 bf
       -0.077637956 -0.06230374 -0.015392033 -0.5352927
0003d0 92 9a 7a 3d 0c 96 fe be ac 11 6d ba cb d5 80 bd
       0.061182566 -0.49723852 -0.0009043466 -0.06290778
0003e0 88 b6 2e be 43 eb fc 3d 6a b8 da bd bc b7 08 be
       -0.17061818 0.1234956 -0.106797054 -0.13351339
0003f0 b8 c1 ac bd ae 1c d7 bd 7f df a9 bd e6 7e 92 be
       -0.084353864 -0.10503517 -0.082945816 -0.2861244

layer4.bias f4 [128]
000000 6d 8c a1 bd d0 b9 bd bb 57 09 62 3e 70 b8 c4 bd
       -0.07888112 -0.005789973 0.22073875 -0.09605491
000010 4c d0 1e 3e 1b e1 ba bd 5e 2c fa 3c ff 12 cb bd
       0.15509146 -0.09124967 0.030538734 -0.099157326
000020 54 f6 f3 3e 65 e8 d7 bc c1 80 59 bd 37 00 47 bd
       0.4764887 -0.026355932 -0.053101305 -0.04858419
000030 77 94 23 be d3 0d 1e be 52 2b f7 3c 7c 1f 60 be
       -0.15974604 -0.15434961 0.030172024 -0.2188701
000040 e9 c8 00 be 35 ec 07 bf 6c fd 3f 3e 40 58 5c bd
       -0.12576641 -0.530948 0.18749017 -0.0537951
000050 79 f0 c1 bd 00 4b d5 bd d7 f1 08 be 39 3a 97 bd
       -0.09469695 -0.10414696 -0.13373505 -0.07384152
000060 30 52 98 bc 9b 1f db bd 95 3c a3 bd 9c 2f 4c bc
       -0.018593878 -0.10699388 -0.079705395 -0.012462523
000070 2e c4 b3 bc 91 2f 20 bc 0a 9b 42 bc ff 85 62 3d
       -0.021944132 -0.009776966 -0.0118777845 0.05530357
000080 cb 71 fc bd 88 26 65 3f 7e 5f a2 3d d6 5a 82 be
       -0.12326392 0.8951192 0.0792837 -0.25459927
000090 30 5a 7a bd bd 51 02 be 5d 41 c5 bd 71 cd f0 3f
       -0.061121166 -0.12726493 -0.09631608 1.8812696
0000a0 6e 08 ea bd 4d 09 8e be 21 e5 aa bd 19 8d 8c be
       -0.11427389 -0.2774147 -0.08344484 -0.274514
0000b0 b8 41 dc 3d 04 e8 86 bd 2a a8 e3 3d fc 24 b1 be
       0.10754722 -0.06587222 0.11116059 -0.3459853
0000c0 a7 8b 96 3b c0 88 2a bb 0a 5b aa bd bc c3 69 be
       0.0045942846 -0.002602145 -0.083181456 -0.22828573
0000d0 85 2d a5 be 5a eb 3c be c5 a0 ae 3c d3 ca 72 be
       -0.3226129 -0.18449154 0.021316895 -0.23710184
0000e0 fc d8 49 3e 58 9c a3 38 3f 29 03 bd a6 97 ee bd
       0.19711679 7.801567e-05 -0.032021757 -0.116500184
0000f0 40 93 b6 be 1b 6b 20 be bb 2d 16 be ab 24 cd 3d
       -0.35659218 -0.15665857 -0.14665882 0.100167595
000100 9d 57 06 be 1a 7a f0 bd 25 dd bf bd 78 48 af 3c
       -0.1311936 -0.11742039 -0.09368352 0.02139686
000110 cc 16 2b be f4 54 d5 bd 98 e9 87 3e 53 c9 81 bd
       -0.16707915 -0.10416594 0.26545405 -0.06337228
000120 ce 85 c7 bd 1f 4a 5c be 79 5f 94 3b 35 ea a8 bd
       -0.09742318 -0.2151265 0.004527983 -0.082477964
000130 09 b1 ad be 77 70 68 3e 5a f9 3e bd 52 bb 22 be
       -0.3392413 0.22699152 -0.04662452 -0.1589177
000140 95 4b 65 be 63 2f bb be 3d ca 39 be be 4f e0 bd
       -0.22392114 -0.3655959 -0.18143554 -0.109527096
000150 57 02 f8 3d 46 7b 34 be 0c b0 ae bd 3d b6 38 be
       0.12109821 -0.1762515 -0.08529672 -0.18038268
000160 d7 17 48 3d f5 6c 63 be ac ac dc bd bf 67 77 be
       0.04885086 -0.22209533 -0.10775122 -0.2416067
000170 96 68 22 be 7a c1 be bd 9c 3d 91 bd 88 b3 2f 3c
       -0.15860209 -0.093142465 -0.07091829 0.010723956
000180 df ea f7 3b df 88 dd be c1 19 6e be 77 26 2c be
       0.0075658406 -0.43268487 -0.23252012 -0.16811548
000190 11 d0 3a bd 87 b3 5b be f0 5f 25 be d0 d7 1a bd
       -0.045608584 -0.21455203 -0.16149879 -0.03780347
0001a0 2f b5 86 be c3 d5 b5 3b 8a a3 d1 bd 2b 84 0e be
       -0.26310107 0.005549164 -0.10236271 -0.13917606
0001b0 61 a5 47 3e 15 5d 0d be 0e 31 55 3e 88 0c f1 bd
       0.19496681 -0.13805039 0.20819494 -0.11769968
0001c0 9c 82 de 3c 67 d3 17 bd b4 9f c4 be 1a 1a e5 bd
       0.027161889 -0.037066843 -0.38403094 -0.11186619
0001d0 1f ce ff be d7 20 c8 3d 42 bc 83 be 33 3c 32 bd
       -0.49961945 0.09771889 -0.25729567 -0.04351444
0001e0 e1 39 88 be 63 41 42 be d5 26 70 be 4f c9 53 be
       -0.26606658 -0.18970256 -0.23452313 -0.20682262
0001f0 10 eb 00 be 99 7a 4a be 55 1d 82 be c7 ee 6a be
       -0.12589669 -0.1977333 -0.25413004 -0.22942649
