PPO/backup/ppo_actor.pth (torch, 549599 bytes, 10 tensors)

layer1.weight f4 [128, 29]
0	0x3e61397f	0.2199459
1	0x3dc2c116	0.095094845
2	0xbe667472	-0.22505358
3	0xbe4aed05	-0.19816978
4	0x3dcc38cf	0.09971773
5	0x3effa030	0.499269
6	0xbc5b8ada	-0.013399804
7	0xbdd88337	-0.10571902
8	0xbe7b6a44	-0.24552256
9	0xbe94c27a	-0.29054624
10	0x3dbdfe6b	0.09277042
11	0xbd9c1b07	-0.076223426
12	0x3d9457e7	0.072433285
13	0xbe77a8fc	-0.24185556
14	0xbde65303	-0.11246302
15	0x3d017dac	0.03161399
16	0xbd3f003c	-0.046631083
17	0xbd97b8da	-0.074083045
18	0xbb88b908	-0.004172448
19	0x3e4aa3d5	0.1978906
20	0x3e1bd548	0.15218079
21	0xbe05a39a	-0.1305069
22	0xbbefe048	-0.0073204376
23	0x3d1b884c	0.03797178
24	0x3e32e5f1	0.17470528
25	0xbe1894ea	-0.14900556
26	0x3dc54121	0.09631563
27	0x3de1db7f	0.11028194
28	0x3db83b71	0.089957125
29	0xbd84e2ad	-0.064885475
30	0x3e19c40a	0.15016189
31	0x3e87e577	0.26542255
32	0xbd3e1599	-0.046407316
33	0x3e1cea7b	0.15323822
34	0x3ea77411	0.3270574
35	0x3e8695d1	0.26286176
36	0x3de33421	0.11093927
37	0x3da5df7d	0.08099268
38	0x3df5b3cf	0.119971864
39	0xbe4f72f0	-0.20258689
40	0xbe5aabd2	-0.21354607
41	0xbe33c2df	-0.17554806
42	0xbde45efb	-0.111509286
43	0xbb1cb9f7	-0.0023914555
44	0xbde1edde	-0.11031698
45	0xbe186eb3	-0.14885978
46	0x3dbcbfca	0.09216268
47	0x3debf4ef	0.11521327
48	0xbe05db56	-0.13071951
49	0x3dcb3af6	0.09923355
50	0x3dfc515e	0.12320207
51	0x3e03fca1	0.12889339
52	0x3e278f81	0.16363336
53	0x3e184cc8	0.1487304
54	0xbdf5e8e1	-0.12007309
55	0x3cfc3bd1	0.030790241
56	0xbd7a9b20	-0.061183095
57	0xbdd8bd76	-0.10583012
58	0x3df1d453	0.11808076
59	0xbdacb01d	-0.084320284
60	0xbdf2343b	-0.118263684
61	0x3dc7dbf9	0.09758753
62	0x3d8d372e	0.0689529
63	0xbe36abdc	-0.17838997
64	0xbf11707a	-0.5681225
65	0x3d27ceca	0.040968694
66	0x3d575e83	0.052580368
67	0xbddd7a00	-0.10814285
68	0xbd49adf5	-0.049238164
69	0x3e5f2411	0.21791102
70	0xbe1d7885	-0.15378006
71	0xbd13949e	-0.036030404
72	0xbe1baea9	-0.15203346
73	0x3c9625a5	0.018328497
74	0xbdd2333a	-0.10263677
75	0xbe6abd53	-0.22923784
76	0x3dc3490b	0.09535416
77	0x3ccb098a	0.024784822
78	0xbb570bbc	-0.003281339
79	0xbd303892	-0.0430227
80	0x3dc22ec8	0.09481579
81	0x3c41465c	0.01179656
82	0xbd58876e	-0.05286353
83	0x3c7f846c	0.015595537
84	0xbde5c678	-0.112194955
85	0x3c21e288	0.009880669
86	0xbd936fc2	-0.071990505
87	0xbd9a086b	-0.07521137
88	0x3d75cc31	0.060009185
89	0x3d260250	0.04052955
90	0xbe4f24a8	-0.20228827
91	0x3c802cdd	0.015646392
92	0xbc90eb50	-0.01769033
93	0x3e24ab85	0.16081055
94	0x3e196d1e	0.14983031
95	0xbe870748	-0.26372743
96	0x3e8ae8ed	0.27130833
97	0x3d6ea280	0.05826044
98	0xbe8c81e9	-0.27442864
99	0x3d90ea22	0.07075907
100	0xbd57a2b7	-0.05264541
101	0x3af2f354	0.0018535652
102	0xbe21a34d	-0.1578495
103	0x3d4aa1d9	0.049470756
104	0x3ddd60f8	0.10809511
105	0x3d2f75d9	0.042836998
106	0xbdac1300	-0.084020615
107	0xbd853743	-0.06504681
108	0xbc2723b8	-0.010201387
109	0xbe173b2f	-0.1476867
110	0x3e03bfac	0.12866086
111	0xbdb25479	-0.08707518
112	0xbe3195fd	-0.17342372
113	0x3bed9d00	0.007251382
114	0x3ddfb3c9	0.10922963
115	0x3de941ba	0.113894895
116	0x3e095a28	0.13413298
117	0xbdeedd47	-0.11663299
118	0x3ddfee42	0.10934116
119	0xbd6de233	-0.05807705
120	0x3e388ee6	0.18023261
121	0xbe3e7b8e	-0.1860182
122	0x3e2f102b	0.17096011
123	0x3bed8374	0.0072483364
124	0x3dd126d3	0.10212483
125	0xbebfbfe1	-0.3745108
126	0x3e4453df	0.1917262
127	0x3de6b6d1	0.11265338
128	0x3d387727	0.045035508
129	0x3d6c3feb	0.057678144
130	0xbe258017	-0.16162144
131	0xbe03f3a9	-0.12885918
132	0x3e21c225	0.15796717
133	0x3e478f3b	0.19488232
134	0x3c25a36c	0.010109764
135	0xbdc85513	-0.097818516
136	0xbe3d5146	-0.18488035
137	0xbd5b334e	-0.053515725
138	0xbcd52e33	-0.026023006
139	0xbd93a210	-0.07208645
140	0xbe1a222f	-0.15052103
141	0xbd87815f	-0.066164725
142	0x3d5d8ba3	0.054088246
143	0x3dd74dd2	0.1051289
144	0x3d550be4	0.052013293
145	0x3da97f3f	0.082762234
146	0x3dfa5139	0.12222523
147	0x3d814c92	0.06313433
148	0x3e25556f	0.16145872
149	0xbe663dde	-0.22484538
150	0x3e9d1056	0.30676526
151	0xbe6037be	-0.21896264
152	0xbcfc321e	-0.030785616
153	0x3dbf162f	0.09330403
154	0x3ecf5b2d	0.4049925
155	0x3dd31385	0.103064574
156	0x3d65535d	0.055987705
157	0x3cd0f14d	0.025505686
158	0xbe8ff1aa	-0.28114063
159	0x3e03a3da	0.12855473
160	0xbd159e64	-0.036528006
161	0x3e491cd8	0.1963991
162	0x3dc23fb8	0.0948481
163	0xbd374450	-0.044742882
164	0x3bb6c937	0.005578186
165	0xbdcd0e1d	-0.100124575
166	0xbe123139	-0.1427659
167	0xbe006014	-0.12536651
168	0x3db83b1b	0.089956485
169	0x3cbcbaf8	0.023038372
170	0x3cbb711a	0.02288108
171	0x3d5abb0b	0.053401034
172	0x3d8825d0	0.06647837
173	0xbe040baa	-0.12895074
174	0x3d9b84ac	0.075936645
175	0x3ddce53a	0.10785909
176	0x3e154cba	0.1458005
177	0xbe1b0c04	-0.15141302
178	0x3bb2bee2	0.005454884
179	0xbe06d879	-0.13168515
180	0xbd914954	-0.07094064
181	0x3ed579cd	0.4169449
182	0x3e1bc69b	0.1521248
183	0xbe65e3ec	-0.22450227
184	0xbcfdb299	-0.030968951
185	0x3c90cfbf	0.017677186
186	0x3e00477c	0.12527269
187	0x3e42d096	0.19024882
188	0xbdaaf505	-0.08347515
189	0x3e05c460	0.13063192
190	0xbe7553d9	-0.23957767
191	0x3e7ead59	0.24870814
192	0xbdb22795	-0.08698956
193	0x3d8ba533	0.068186186
194	0xbe27f2cd	-0.16401215
195	0xbd10c364	-0.03534259
196	0xbdd18556	-0.1023051
197	0xbc6954ec	-0.014241438
198	0xbe07670c	-0.13222903
199	0x3d81b5bb	0.063334905
200	0xbd958057	-0.072998695
201	0xbd3e254b	-0.046422284
202	0xbd75e814	-0.06003578
203	0x3e140534	0.1445511
204	0x3cdfc32b	0.027314743
205	0x3e24e50a	0.16102996
206	0x3e4fc620	0.20290422
207	0x3e1e4126	0.1545454
208	0xbe6b8ab4	-0.2300213
209	0x3eaeca3d	0.3413867
210	0x3e176e9d	0.1478829
211	0xbd6a0d31	-0.057141487
212	0xbeadcee7	-0.33946916
213	0xbd68f322	-0.056872495
214	0x3c9b8781	0.018985512
215	0x3c3a96c7	0.011388487
216	0xbe8e47d5	-0.27789178
217	0xbdb81fa5	-0.08990411
218	0xbdcbd695	-0.09953038
219	0x3d10cf0b	0.0353537
220	0x3e635aa3	0.22202544
221	0xbb98c286	-0.004661861
222	0xbd024302	-0.031802185
223	0xbd8803af	-0.066413276
224	0xbd6ca87b	-0.057777863
225	0xbcf6486c	-0.03006383
226	0xbc4697d4	-0.01212116
227	0xbd878817	-0.06617754
228	0xbdc21adb	-0.094777785
229	0xbd83d150	-0.064364076
230	0xbda9e2e1	-0.08295227
231	0xbdb3a4c8	-0.08771664
232	0xbe0faf82	-0.14031795
233	0xbdbcded1	-0.09222186
234	0xbd817b46	-0.06322341
235	0xbe1ced83	-0.15324979
236	0x3e72d5a9	0.23714317
237	0xbce5208f	-0.027969627
238	0x3e1b38dd	0.1515841
239	0x3e238547	0.1596881
240	0xbd4eed5e	-0.05051934
241	0xbe300448	-0.17189133
242	0x3e30127c	0.17194551
243	0xbd9d74bf	-0.07688283
244	0x3e1f25e5	0.155418
245	0x3e7db5ff	0.24776457
246	0xbdd72ac6	-0.10506205
247	0x3dbcbd1f	0.092157595
248	0x3b502a6d	0.003176357
249	0xbe37b1a6	-0.17938861
250	0x3e87470f	0.264214
251	0xbe8c7319	-0.27431563
252	0xbd3af1c8	-0.045640737
253	0x3e0c17a4	0.13680893
254	0xbbbd1e18	-0.0057714097
255	0xbe082009	-0.1329347

layer1.bias f4 [128]
0	0x3e252400	0.16127014
1	0xbe1b7dce	-0.1518471
2	0x3e244417	0.16041599
3	0xbe187866	-0.14889678
4	0x3c695207	0.014240748
5	0x3e2fd98f	0.17172836
6	0xbd903e15	-0.07043091
7	0xbd0f263d	-0.034948576
8	0x3e052bb2	0.1300495
9	0xbded0c45	-0.11574606
10	0xbd398c61	-0.04529989
11	0xbd209ab0	-0.03921002
12	0xbd601fe5	-0.054717917
13	0xbdcd898d	-0.10036001
14	0x3e26795a	0.1625723
15	0xbd9f11ea	-0.07767089
16	0x3e16e738	0.1473664
17	0xbd840084	-0.06445411
18	0x3d586fae	0.05284088
19	0x3dcff28a	0.101536825
20	0x3de298e4	0.11064318
21	0xbd3a941e	-0.04555141
22	0xbdefa728	-0.117018044
23	0x3e62522e	0.22101662
24	0x3d9e8a57	0.0774123
25	0xbc72f1e7	-0.014828182
26	0x3e1a9684	0.1509648
27	0xbdb860e3	-0.09002855
28	0x3ce651cf	0.028115181
29	0x3e18c7e5	0.14920004
30	0xbd22ad9a	-0.03971634
31	0x3d76a096	0.06021174
32	0x3e2c2146	0.16809568
33	0x3d1a2e83	0.037642013
34	0x3d2e8a86	0.042612575
35	0x3e15ccb5	0.14628871
36	0x3e10371f	0.14083527
37	0x3d2998cc	0.041405484
38	0x3cca754a	0.02471413
39	0x3d86858c	0.06568441
40	0xbe0955de	-0.13411662
41	0x3e396ec2	0.18108657
42	0xbdc460f3	-0.09588804
43	0xbd4e36d3	-0.050345253
44	0xbd8b611c	-0.068056315
45	0xbc988605	-0.018618593
46	0xbc8fe74b	-0.017566344
47	0x3da35a19	0.07976169
48	0xbe13ec68	-0.1444565
49	0xbb8c92db	-0.0042899675
50	0x3cd64a4d	0.026158476
51	0xbd744216	-0.059633337
52	0xbcdcb57e	-0.026942011
53	0xbca8efe7	-0.020622207
54	0x3d80f3ea	0.06296523
55	0x3e1044fb	0.14088814
56	0xbe00b676	-0.12569603
57	0xbe01a415	-0.12660249
58	0xbe189aff	-0.14902876
59	0xbde37740	-0.111067295
60	0xbe0dacfd	-0.13835521
61	0xbb4e94d9	-0.0031521826
62	0xbd27c3e9	-0.04095832
63	0x3e019047	0.12652694
64	0xbcb5ece2	-0.022207681
65	0xbcb3af2b	-0.021934113
66	0x3da94ef2	0.08267011
67	0xbe252e00	-0.16130829
68	0x3d7a12b7	0.061053004
69	0xbccc00c9	-0.024902718
70	0xbdb90475	-0.09034053
71	0x3da75e31	0.081722625
72	0x3a9080b5	0.0011024686
73	0xbe4e8f1c	-0.2017178
74	0xbd1091c9	-0.03529528
75	0xbdd1eb8c	-0.10250005
76	0xbd5e593b	-0.054284316
77	0x3d61715e	0.055039756
78	0x3c4d3564	0.012524936
79	0x3e26a550	0.16273999
80	0x3d0d9930	0.03456992
81	0xbdd820fa	-0.10553165
82	0x3dbfa648	0.093578875
83	0xbcc5fb4a	-0.024167676
84	0x3c9cbc07	0.019132627
85	0xbd732527	-0.059361603
86	0xbd7a3745	-0.061087865
87	0xbe0a6cb0	-0.13518023
88	0x3e215ca2	0.15757993
89	0x3cc2a21d	0.023758942
90	0xbcf39638	-0.029734716
91	0xbda92cd6	-0.08260505
92	0x3d5b6c9a	0.053570367
93	0x3e486a19	0.19571723
94	0x3e3cc177	0.18433176
95	0xbdd86267	-0.10565644
96	0x3e11e30f	0.14246772
97	0xbd40dd7f	-0.047086235
98	0x3daa52cf	0.08316576
99	0x3e054213	0.13013487
100	0x3e145bdd	0.14488168
101	0xbddfa265	-0.10919646
102	0xbd9f1174	-0.07767001
103	0xbe32ffc5	-0.17480381
104	0xbe1955d3	-0.14974146
105	0x3e42990e	0.19003698
106	0x3c97ac70	0.018514842
107	0xbd021b5b	-0.03176437
108	0x3e1d24f6	0.1534613
109	0xbe279387	-0.16364871
110	0x3dd23655	0.10264269
111	0x3e0fc6e4	0.14040715
112	0x3e408673	0.18801288
113	0xbe0e1c06	-0.13877878
114	0xbe04d07a	-0.12970152
115	0x3dd544b1	0.104134925
116	0x3cf1f4b5	0.02953563
117	0xbde1d33f	-0.1102662
118	0xbdf87b76	-0.12132923
119	0x3c313d95	0.010817905
120	0x3d87d486	0.066323325
121	0xbe678707	-0.22610103
122	0xbda34ef8	-0.079740465
123	0xbd7297b5	-0.05922671
124	0xbe0cd3cf	-0.13752674
125	0xbd435350	-0.047686875
126	0xbe107a66	-0.14109191
127	0xbe44ca9c	-0.19217914

layer2.weight f4 [256, 128]
0	0xbdde6b96	-0.10860364
1	0xbd2eea3c	-0.042703852
2	0x3d5a2688	0.053259403
3	0xbdf40f65	-0.11916999
4	0x3dac4c96	0.08413045
5	0xbc53922b	-0.012913267
6	0x3dafd46a	0.08585437
7	0xbc93215e	-0.017960247
8	0x3d8cd29e	0.068761095
9	0xbd4499d8	-0.04799828
10	0xbddf9626	-0.109173104
11	0xbde786c9	-0.11305005
12	0x3d4c323b	0.04985259
13	0xbda62c02	-0.081138626
14	0xbcbb1699	-0.022837924
15	0xbd8f1950	-0.0698725
16	0x3de1dab1	0.1102804
17	0xbd012362	-0.031527884
18	0x3d170df3	0.036878537
19	0xbdd3de4b	-0.103451334
20	0x3da89874	0.08232203
21	0xbc3d89b3	-0.011568475
22	0xbdd81608	-0.10551077
23	0x3c995749	0.018718379
24	0x3db0fbc6	0.08641772
25	0x3d8535b6	0.06504385
26	0xbe2dbd94	-0.1696685
27	0xbdcc4ddf	-0.0997579
28	0x3ce612cd	0.028085137
29	0x3cc8524f	0.02445331
30	0xbcbf7913	-0.023373162
31	0x3d6751e0	0.056474566
32	0x3c4b9e73	0.012427914
33	0xbda92fd9	-0.08261079
34	0x3ccee50a	0.025255699
35	0xbcb48189	-0.022034423
36	0xbc28880b	-0.010286341
37	0x3c938a9e	0.018010434
38	0x3da750d8	0.081697166
39	0xbda32764	-0.079664975
40	0x3d4ac1f3	0.04950137
41	0xbd0018af	-0.03127354
42	0x3c6a078f	0.014284029
43	0x3ced4a78	0.028966174
44	0x3d0663da	0.03281007
45	0x38d180d2	9.989891e-05
46	0x3d0c3c26	0.03423705
47	0xbc671319	-0.014103674
48	0x3cc86be0	0.024465501
49	0xbc248956	-0.010042509
50	0xbcfe2b1c	-0.031026416
51	0xbc2e1ba1	-0.010626704
52	0x3d61096b	0.054940622
53	0x3d635ad2	0.055506535
54	0x3caf2e07	0.021384252
55	0xbb81075f	-0.0039376463
56	0x3dbd4c2e	0.09243046
57	0xbc5a7fe2	-0.013336154
58	0x3cccbfa4	0.024993725
59	0xbd2de43d	-0.042453993
60	0xbd1de8e6	-0.038552187
61	0x3c9e73b1	0.019342275
62	0x3d6eed79	0.05833194
63	0xbc0d6e17	-0.0086322045
64	0x3dac93a2	0.08426596
65	0x3d1fd6e9	0.039023314
66	0x3de7dba4	0.1132119
67	0xbdb3a533	-0.087717436
68	0x3cd788e2	0.026310388
69	0xbd1f95db	-0.038961273
70	0xbd544ed2	-0.05183298
71	0xbdd1348e	-0.10215102
72	0x3d179080	0.03700304
73	0x3da7beed	0.08190713
74	0xbd0f86d5	-0.035040695
75	0x3db6e7c5	0.08930925
76	0xbe0984d3	-0.13429575
77	0xbc5107a3	-0.012758168
78	0x3d9c7222	0.076389566
79	0x3a32e331	0.0006824015
80	0x3d8efe6d	0.069821216
81	0x3ab68a3f	0.0013926699
82	0x3dd54b8f	0.10414802
83	0xba68d397	-0.0008881627
84	0x3b2e0e8d	0.0026558966
85	0xbc8c5c39	-0.017133819
86	0x3b0fcabd	0.002194091
87	0x3d62b538	0.055348605
88	0x3e1af031	0.15130688
89	0x3da1074a	0.078627184
90	0x3d6b8fd8	0.057510227
91	0x3cdfd8d6	0.027325075
92	0x3b4141c5	0.0029488665
93	0xbca2d485	-0.019876728
94	0x3d9c5331	0.07633055
95	0x3cc3f8bd	0.023922319
96	0xbcc8a950	-0.024494797
97	0x3d7f7eb5	0.062376697
98	0x3ce2dda0	0.02769357
99	0xbcc1b934	-0.023647882
100	0x3df83c4e	0.12120877
101	0x3ccd9353	0.025094664
102	0xbd9379da	-0.07200976
103	0xbbcc8f3c	-0.006242661
104	0xbcc7c6b5	-0.024386743
105	0xbc0f0213	-0.008728522
106	0x3b94eef0	0.004545085
107	0x3d7edbb4	0.062221244
108	0xbd25d0b4	-0.040482238
109	0x3d958532	0.073007956
110	0x3d11a77a	0.03556011
111	0x3d463ffd	0.048400868
112	0x3d41557a	0.047200657
113	0xbd5f4658	-0.054510444
114	0x3d94292a	0.07234414
115	0x3dd8b615	0.105816044
116	0x3c325f94	0.010887045
117	0x3dd63871	0.10459984
118	0x3bbc419d	0.0057451264
119	0xbda83cff	-0.08214759
120	0xbd9b8d7c	-0.075953454
121	0x3c683641	0.014173091
122	0xbabbcae5	-0.0014327435
123	0xbd7a6bd1	-0.061137978
124	0xbd6c6529	-0.05771366
125	0x3d3b48f2	0.045723863
126	0x3dd315f6	0.10306923
127	0x3d836f82	0.06417753
128	0xbd10689c	-0.035256013
129	0x3c3a001a	0.011352563
130	0xbddd31b5	-0.108004965
131	0x3c8275ae	0.015925255
132	0xbd454ba9	-0.04816786
133	0x3d709f86	0.058745883
134	0xba2f0bea	-0.00066774955
135	0xbd8faa51	-0.07014907
136	0xbc66477e	-0.014055131
137	0x3dc01543	0.09379055
138	0x3b4ee6c7	0.003157066
139	0x3d44464d	0.047918607
140	0x3e06f3c2	0.13178924
141	0xbd116690	-0.0354982
142	0xbe054844	-0.13015848
143	0x3dd982d7	0.10620659
144	0xbd0c51a7	-0.034257557
145	0xbcbdeec8	-0.023185149
146	0xbdc1fa0b	-0.0947152
147	0x3d7a25f7	0.061071362
148	0xbde88251	-0.11352981
149	0xbc8a51b0	-0.016884655
150	0x3ccca7e5	0.024982402
151	0xbcc4024b	-0.023926875
152	0xbcb6e4e6	-0.022325944
153	0x3bec8114	0.0072175357
154	0x3d91aca7	0.07113009
155	0x39866a3a	0.00025637617
156	0x3db80d87	0.08986955
157	0xbc93f4e7	-0.018061114
158	0x3daabd48	0.08336884
159	0x3d8d0dd8	0.06887406
160	0x3db75e01	0.08953477
161	0x3d5e06ac	0.05420558
162	0xbd857b46	-0.06517653
163	0xbc5aff6c	-0.013366561
164	0x3deeaff5	0.11654655
165	0xbc934b9d	-0.017980391
166	0xbcfc4c5f	-0.030798135
167	0x3b53c71a	0.0032314719
168	0xbbdb51dd	-0.0066931085
169	0xbe477db9	-0.19481553
170	0x3d6871b7	0.056749072
171	0x3d9bf948	0.07615906
172	0x3e23d188	0.15997899
173	0x3d7837b4	0.060599998
174	0xbda51fd9	-0.08062715
175	0x3db2f80b	0.08738717
176	0x3d9a89cb	0.07545813
177	0xbde62f2d	-0.11239467
178	0xbd01a339	-0.031649802
179	0xbc8c5bad	-0.017133558
180	0xbd1c3af3	-0.038142156
181	0xbc60d990	-0.013723746
182	0xbcaecde2	-0.021338407
183	0xbde232d5	-0.11044852
184	0x3dac0815	0.08399979
185	0x3dbedb20	0.093191385
186	0x3d70bba1	0.058772687
187	0x3e042a45	0.1290675
188	0x3db5b79d	0.08872912
189	0xbd8f83ac	-0.07007536
190	0xbaa86b9b	-0.0012849452
191	0xbdd02c92	-0.10164751
192	0xbd10ed5f	-0.035382625
193	0xbd85a18d	-0.06524954
194	0xbcebccc8	-0.02878417
195	0xbd1fec38	-0.039043635
196	0xbde47954	-0.11155954
197	0x3ded8c6d	0.1159905
198	0x3ce01ba3	0.027356928
199	0x3d071906	0.03298285
200	0xbdf483e1	-0.119392164
201	0xbd59f492	-0.053211756
202	0xbdb657cc	-0.08903465
203	0xbe1ae726	-0.15127239
204	0xbde65844	-0.11247304
205	0xbcb8356d	-0.022486413
206	0xbbab1b2e	-0.005221746
207	0xbd5e1460	-0.05421865
208	0x3cbe962c	0.023264967
209	0x3d1b1abd	0.037867296
210	0x3d7a04a1	0.06103957
211	0xbcdf5fc6	-0.027267348
212	0xbd2a6958	-0.04160437
213	0xbda23e82	-0.07922079
214	0xbc619779	-0.013769024
215	0x3dc134f8	0.09433931
216	0xbdba5b65	-0.090994634
217	0xbd27ebb7	-0.04099628
218	0xbd6a262e	-0.057165317
219	0x3d937391	0.07199777
220	0x3db8cbd2	0.09023251
221	0x3d84d897	0.06486624
222	0xbd4e7076	-0.05040022
223	0x3b3907b3	0.002823335
224	0xbcc9a8f3	-0.024616694
225	0x3cbc3673	0.022975182
226	0x3d0ff372	0.035144277
227	0xbd7cf745	-0.061759252
228	0xbdd79d3b	-0.10528036
229	0x3d5ef64b	0.054434102
230	0xbacb035d	-0.0015488673
231	0x3e119a7b	0.14219086
232	0xbd46ca81	-0.048532967
233	0x3d94aabf	0.0725913
234	0x3d39ec19	0.045391176
235	0x3dbf11a5	0.09329537
236	0xbb016e68	-0.0019749645
237	0x3c8e30a1	0.017357172
238	0x3bf85630	0.0075786337
239	0x3c2dbc59	0.010603988
240	0xbc3ae372	-0.011406766
241	0xbe078702	-0.13235095
242	0xbdc9a315	-0.098455586
243	0xbac4bc6b	-0.0015009766
244	0x3d1a8e29	0.03773323
245	0xbd749e45	-0.05972125
246	0x3d7b2809	0.061317477
247	0x3d0ae770	0.033912122
248	0xbde17b29	-0.11009819
249	0xbe05e7cb	-0.13076703
250	0x3db8fac4	0.09032205
251	0x3b9e927c	0.0048392396
252	0xbd420f7b	-0.047378045
253	0x3c1a488a	0.009416709
254	0xbc9c003a	-0.019043077
255	0xbd52a1cf	-0.051423844

layer2.bias f4 [256]
0	0x3bdee72f	0.0068024616
1	0xbd040a45	-0.032236356
2	0x3da5f076	0.08102505
3	0x3d2849c3	0.04108597
4	0x3d42ee78	0.047590703
5	0x3dc804f3	0.09766569
6	0x3e0d9e8d	0.13830014
7	0x3de04087	0.109498076
8	0x3de2a5db	0.11066791
9	0xbc7d279b	-0.015451337
10	0x3dd0efc0	0.10201979
11	0xbc7c8877	-0.015413395
12	0xbcd9d8dc	-0.026592664
13	0x3d9173d2	0.07102169
14	0x3dc6ec23	0.09713008
15	0xbd28c6f0	-0.041205347
16	0x3dbdb060	0.092621565
17	0x3dd7c8db	0.10536357
18	0x3d23f597	0.040029135
19	0x3cf448e5	0.029819915
20	0x3cbc2e66	0.022971343
21	0xbd23d490	-0.039997637
22	0xbca71f91	-0.020400794
23	0xbdd39e48	-0.10332924
24	0x3d400db1	0.046888057
25	0xbcfee669	-0.031115727
26	0xbd4ff0a5	-0.050766606
27	0xbdcca206	-0.09991841
28	0xbd09a82e	-0.033607654
29	0x3cc54785	0.024081955
30	0x3ddbcbc6	0.10732226
31	0xbd1bf617	-0.038076486
32	0x3d21c48d	0.039494086
33	0x3dac3789	0.0840903
34	0x3d5c77f2	0.053825326
35	0x3b9f02b8	0.004852619
36	0xbdd649d7	-0.104633026
37	0x3df360d6	0.11883704
38	0xbd72cfdb	-0.059280258
39	0x3de50e46	0.11184363
40	0xbd29d041	-0.041458372
41	0x3c4817e7	0.01221273
42	0x3db74e03	0.089504264
43	0x3dfd2228	0.123600304
44	0xbc1cadb9	-0.009562903
45	0x3d58dd9c	0.05294572
46	0x3d183a66	0.037165068
47	0x3dba701b	0.09103414
48	0xbd46abbc	-0.048503622
49	0x3dc1dcdc	0.09465954
50	0xbc9d83e3	-0.019227928
51	0xbd5ff794	-0.05467947
52	0x3d314daf	0.043286975
53	0xbdf5139d	-0.119666316
54	0xbcff1678	-0.031138644
55	0xbca60a66	-0.02026863
56	0x3dca681e	0.0988314
57	0x3bc09c9d	0.0058780448
58	0xbd8708a1	-0.06593443
59	0xbdb40c6e	-0.08791433
60	0x3d836055	0.06414858
61	0x3da26938	0.07930225
62	0x3dd66a09	0.10469443
63	0x3dcab355	0.09897486
64	0x3d93a81b	0.07209798
65	0xbd06f2c2	-0.032946356
66	0x3dc98f6e	0.0984181
67	0xbdafadde	-0.085780844
68	0xbdd49342	-0.1037965
69	0xbd331d7a	-0.043729283
70	0x3cab2e43	0.020896083
71	0xbbc30b67	-0.005952287
72	0x3d898394	0.0671455
73	0x3cbc1b6d	0.022962296
74	0xbdf2a954	-0.11848703
75	0x3cf86ba1	0.030324759
76	0xbaab4128	-0.0013065683
77	0x3c95f1dd	0.018303806
78	0xbdd1b130	-0.10238874
79	0xbd034d2e	-0.032056026
80	0x3d404e61	0.046949748
81	0x3d991aea	0.074758366
82	0xbd2299b8	-0.03969738
83	0xbd79fd6c	-0.061032698
84	0x3c09a8df	0.008402078
85	0x3de41f40	0.11138773
86	0xbdb42173	-0.087954424
87	0xbd1023bd	-0.035190333
88	0x3c05bbdb	0.008162464
89	0x3c692c05	0.0142316865
90	0x3d828522	0.06373049
91	0x3c91e8d8	0.017811224
92	0xbd083fff	-0.033264156
93	0x3c94c719	0.018161343
94	0xbd1a27b5	-0.037635524
95	0x3da06fa5	0.078337945
96	0x3d4a3b49	0.049372945
97	0xbd252eb6	-0.04032775
98	0x3d90e05e	0.07074045
99	0xbd88eedd	-0.066861846
100	0xbd84b816	-0.06480424
101	0xbd87a170	-0.06622589
102	0xbd99e5d3	-0.075145386
103	0xbcaca9ce	-0.021077063
104	0xbd8485b6	-0.06470816
105	0xbc020399	-0.007935428
106	0x3d8122fd	0.063055016
107	0x3db0faf5	0.08641616
108	0xbca80f6d	-0.020515168
109	0xbd852fbb	-0.065032445
110	0xbcbc8b60	-0.023015678
111	0xbe00e4b8	-0.1258725
112	0xbd4514ba	-0.04811547
113	0x3de9ff74	0.11425677
114	0xbd93fa16	-0.072254345
115	0xbdcb3021	-0.09921289
116	0x3c88422a	0.016633112
117	0xbdc5ee60	-0.09664607
118	0x3cdd2398	0.026994511
119	0x3d2a0f7d	0.041518677
120	0x3be7e936	0.0070773615
121	0x3d84d14a	0.06485231
122	0x3c78d3d8	0.015187226
123	0xbdf8131c	-0.1211302
124	0x3d7f816c	0.062379286
125	0xbd79f9eb	-0.061029356
126	0xbd2d71bd	-0.042344797
127	0x3ce0ebff	0.027456282
128	0x3cc35f54	0.023849167
129	0xbba2b0dd	-0.0049649314
130	0x3d99e6b7	0.075147085
131	0x3e095395	0.1341079
132	0x3da88992	0.082293645
133	0xbdcae456	-0.09906833
134	0x3daee1ea	0.085391834
135	0x3d2fa2c1	0.042879824
136	0x3cbf9d28	0.023390368
137	0x3dfe5d7b	0.12420174
138	0x3d918a17	0.07106417
139	0x3d90c78c	0.070693105
140	0x3db609cb	0.088885866
141	0xbccbafac	-0.02486404
142	0x3c2cf97e	0.01055753
143	0xbc84cd69	-0.016211228
144	0xbd3880b7	-0.045044627
145	0x3ba570db	0.005048854
146	0xbc63e1a2	-0.0139087755
147	0x3d8c3256	0.06845538
148	0x3d0f2a1f	0.03495228
149	0x3c99af6d	0.018760407
150	0xbc0f4348	-0.008744068
151	0x3d21e57c	0.039525494
152	0xbcdc9d7f	-0.026930569
153	0xbceb1217	-0.02869515
154	0x3dd937d4	0.106063515
155	0xbddfe245	-0.10931829
156	0xbd5da93e	-0.05411648
157	0xbded5c2b	-0.11589845
158	0x3c90e528	0.017687395
159	0x3de31fb0	0.11090028
160	0x3da3811e	0.079836115
161	0xbd863b4e	-0.0655428
162	0xbcfd0c9a	-0.030889798
163	0xbcafe259	-0.021470236
164	0x3d3f88a5	0.046761174
165	0x3dc6a966	0.09700279
166	0x3ddabfb2	0.10681094
167	0x3d883842	0.06651355
168	0xbda54624	-0.08070019
169	0x3ca4525a	0.0200588
170	0x3c759d81	0.014991165
171	0x3c99f93e	0.018795606
172	0xbd624e58	-0.055250496
173	0x3e03382e	0.128144
174	0xbd86b306	-0.06577115
175	0x3e237d6c	0.15965813
176	0xbdd2ea9f	-0.10298657
177	0x3bce8229	0.0063021374
178	0x3d29a35c	0.041415557
179	0x3dcb1ac8	0.099172175
180	0x3906590f	0.00012812413
181	0x3d85812d	0.06518779
182	0xbcd9c7bd	-0.0265845
183	0xbdb3155e	-0.0874431
184	0xbd7be5e6	-0.061498545
185	0xbd821e65	-0.063534535
186	0xbca3fa56	-0.02001683
187	0x3b5b2975	0.0033441458
188	0xbda136dc	-0.07871792
189	0xbd211aa8	-0.039332062
190	0x3d1a8710	0.037726462
191	0xbd0a7d33	-0.033810806
192	0x3d951253	0.07278886
193	0x3e221ab8	0.15830505
194	0xbda71d76	-0.08159916
195	0xbca949b9	-0.020665037
196	0x3d88984c	0.06669673
197	0x3d75d683	0.060019027
198	0xbcf3f8fc	-0.029781811
199	0xbd4e2894	-0.050331667
200	0x3e0d624d	0.1380703
201	0xbc1df2d9	-0.009640419
202	0x3d2af911	0.041741434
203	0xbdcd086a	-0.100113705
204	0x3c06dabb	0.00823086
205	0x3d5d8b2c	0.054087803
206	0xbbd5cabd	-0.0065244124
207	0x3d08a4fb	0.033360463
208	0xbb2ed3e3	-0.0026676587
209	0xbd1152fb	-0.035479527
210	0xbda797d1	-0.081832536
211	0x3d9ee0d9	0.0775773
212	0xbc7c4c7e	-0.0153990965
213	0xbd85ecb7	-0.065392904
214	0xbde0f3af	-0.10983979
215	0xbe036dd9	-0.12834872
216	0x3df8c288	0.12146479
217	0xbd57336f	-0.052539285
218	0xbc14d913	-0.009084958
219	0x3cf2a400	0.029619217
220	0xbd41a2df	-0.047274467
221	0xbe05adf8	-0.13054645
222	0xbb9c2e2c	-0.0047662463
223	0x3e06b193	0.13153677
224	0x3bf94dc7	0.0076081487
225	0xbdfbd299	-0.12296028
226	0xbd23f5f9	-0.0400295
227	0x3d190776	0.03736063
228	0xbd47287e	-0.0486226
229	0x3e073ac5	0.13206013
230	0xbd452105	-0.048127193
231	0x3d853806	0.06504826
232	0xbd8a20c7	-0.06744533
233	0x3df2bc6f	0.11852347
234	0xbb8cf0ad	-0.0043011517
235	0x3c7b4543	0.0153363375
236	0x3d948723	0.07252338
237	0x3da2baf2	0.07945813
238	0xbcf4c0b0	-0.029877037
239	0xbddf245b	-0.10895606
240	0xbdc89641	-0.09794284
241	0x3d926b33	0.07149353
242	0xbd83f417	-0.06443041
243	0x3d7d22b6	0.06180068
244	0x3ca14d91	0.019690307
245	0x3db05ae5	0.08611087
246	0x3d2ddd13	0.04244716
247	0x3cbb44a1	0.022859873
248	0xbd969938	-0.07353443
249	0xbd367ef9	-0.044554684
250	0x3cc0a804	0.023517616
251	0xbd7c557f	-0.061604973
252	0xbc3ea977	-0.011637083
253	0x3d8edfad	0.069762565
254	0xbcb0a229	-0.021561699
255	0x3c77ee6a	0.015132526

layer3.weight f4 [256, 256]
0	0xbc88d7b7	-0.016704423
1	0xbdc256cc	-0.094892114
2	0xbc2b9bc3	-0.010474148
3	0xbcb4329b	-0.021996787
4	0x3dca2558	0.09870404
5	0xbd3490e7	-0.044083502
6	0xbcf714f0	-0.030161351
7	0xbd51baac	-0.051203415
8	0xbd9832fe	-0.07431601
9	0x3c90a2b7	0.017655713
10	0xbd392ad8	-0.045206875
11	0xbd07d7a8	-0.03316465
12	0xbe051d66	-0.12999496
13	0xbab1042e	-0.0013505274
14	0xbd115b28	-0.035487324
15	0x3d7f89e5	0.062387366
16	0x3d59a934	0.05313988
17	0xbc987250	-0.018609196
18	0xbca51800	-0.020153046
19	0x3c34451e	0.011002807
20	0x3d83aaae	0.06429039
21	0xbc173103	-0.009227994
22	0x3cc26a89	0.02373244
23	0x3bc1c7ff	0.005913734
24	0xbca11815	-0.019664804
25	0xbceaafac	-0.02864822
26	0xbd48dcd8	-0.049038738
27	0x3d25bf5e	0.040465705
28	0xbd0443fb	-0.032291394
29	0xbdce5624	-0.10075024
30	0xbd98605e	-0.074402556
31	0x3cb28550	0.021792084
32	0xbcd792cf	-0.026315121
33	0xbc04c188	-0.008102782
34	0x3d429e72	0.047514386
35	0xbda8b44f	-0.08237516
36	0xbe1c0c04	-0.15238959
37	0x3d0add6a	0.033902563
38	0xbc0ae918	-0.008478425
39	0xbd1c01df	-0.038087722
40	0x3d1be213	0.038057398
41	0xba8f3029	-0.0010924387
42	0x3d8ea26d	0.06964574
43	0xbd8776d8	-0.066144645
44	0x3c7054c6	0.014668649
45	0x3a984a3f	0.0011618807
46	0x3c7dd682	0.015493037
47	0xbdba6976	-0.09102146
48	0x3c9160b5	0.017746309
49	0xbd73c208	-0.059511214
50	0xbbdcb64b	-0.006735598
51	0x3b42f6b9	0.002974911
52	0xbdb355be	-0.087565884
53	0x3d5c8ecd	0.053847123
54	0xbd8907f1	-0.06690968
55	0x3c272e19	0.010203862
56	0x3d9bd50e	0.07608996
57	0x3ad8d76d	0.0016543694
58	0x3decc38f	0.11560737
59	0xbd1e236a	-0.038607992
60	0xbcbdf99d	-0.023190314
61	0xbc28a189	-0.010292419
62	0x3ce18974	0.027531363
63	0xbdb5d3fc	-0.088783234
64	0x3d8bf568	0.06833917
65	0xbc2fc915	-0.010729094
66	0x3d6d684a	0.057960786
67	0x3d9555cd	0.07291756
68	0xbe26dc03	-0.16294865
69	0xb960c9be	-0.0002143746
70	0xbe059198	-0.13043821
71	0x3c89b306	0.016808998
72	0xbd9f4c16	-0.07778184
73	0x3de6f7df	0.112777464
74	0xbd4a39e2	-0.049371608
75	0x3dae45cf	0.08509409
76	0x3d21f209	0.039537463
77	0xbc86660b	-0.01640608
78	0xbba975ff	-0.005171537
79	0xbd942b39	-0.072348066
80	0xbd0b11a5	-0.033952374
81	0xbca3cf16	-0.019996207
82	0xbcaa3253	-0.02077595
83	0xbc99d660	-0.01877898
84	0xbd8782dd	-0.06616757
85	0x3dc59b15	0.0964872
86	0x3c66d88f	0.0140897175
87	0xbdb75f35	-0.08953706
88	0xbd94fd3e	-0.072748646
89	0xbd0cd603	-0.034383785
90	0xbc4a51ca	-0.012348602
91	0x3d357bc2	0.044307478
92	0x3da143a2	0.07874228
93	0x3c234772	0.009965764
94	0xbd9c5a8b	-0.07634457
95	0x3d885d8d	0.066584684
96	0x3cba320b	0.02272894
97	0x3cb71881	0.022350552
98	0x3cc394dd	0.023874694
99	0xbd468e23	-0.048475396
100	0x3d23ac47	0.03995922
101	0xbc924197	-0.017853541
102	0xbcb3307f	-0.02187371
103	0x3c80df38	0.015731439
104	0x3bb92d97	0.0056511867
105	0x3b33e196	0.0027447692
106	0xbd788c07	-0.060680415
107	0xbb179790	-0.002313111
108	0xbd409a97	-0.04702243
109	0xbdc611b2	-0.09671344
110	0x3d9e376a	0.07725413
111	0x3d2a508e	0.04158073
112	0x3d955910	0.07292378
113	0x3c4af481	0.012387396
114	0xbd9ea6cb	-0.07746657
115	0x3d725e85	0.059172172
116	0xbd694dd3	-0.056958985
117	0xbc18cea4	-0.009326611
118	0x3e08b1ee	0.13349125
119	0xbda381dc	-0.07983753
120	0xbd53662c	-0.05161111
121	0x3d413d9e	0.047177903
122	0x3d340403	0.04394914
123	0xbb4195e3	-0.0029538802
124	0x3d40213e	0.046906702
125	0xbd9f02a0	-0.077641726
126	0x3c112b19	0.008860373
127	0xbcd78952	-0.026310597
128	0x3df4ee12	0.11959471
129	0xbddc546b	-0.10758289
130	0xbd224647	-0.039617803
131	0xbd32afab	-0.04362456
132	0x3d9a7db0	0.07543504
133	0xbdc9ea92	-0.09859194
134	0x3db602a7	0.08887225
135	0x3d16af60	0.036788344
136	0x3d9c960e	0.07645808
137	0x3d0cf6f0	0.034415185
138	0x3d997e13	0.0749475
139	0x3de12e0f	0.10995113
140	0x3c61e5fb	0.013787742
141	0x3d56a833	0.0524065
142	0xbc1ba505	-0.009499793
143	0xbc563121	-0.013073237
144	0xbc8ea2e8	-0.017411664
145	0x3d6fd81f	0.05855572
146	0x3dbc03c7	0.09180408
147	0x3ba7537e	0.0051063886
148	0x3d893f7e	0.06701563
149	0xbb251653	-0.0025190308
150	0x3c7eb8c6	0.015546983
151	0x3d8eeb64	0.06978491
152	0xbd0b6b29	-0.034037743
153	0x3d307a05	0.043085117
154	0x3d711ced	0.058865476
155	0x3db500c8	0.0883804
156	0x3cecaf5c	0.028892212
157	0xbca0b629	-0.01961811
158	0xbcf1bea0	-0.029509842
159	0xbc8516f4	-0.016246296
160	0xbcd10fb5	-0.025520185
161	0x3d76dd11	0.06026942
162	0xbc452b02	-0.01203418
163	0x3d293bc7	0.041316774
164	0xbd251b40	-0.04030919
165	0x3d65fb3f	0.05614781
166	0xbdaf9c49	-0.08574731
167	0xbd2ee7df	-0.0427016
168	0xbd8052b5	-0.06265775
169	0xbc75d11e	-0.015003471
170	0x3d3d833a	0.046267726
171	0x3d3a9d46	0.045560144
172	0xbd08c4b1	-0.033390705
173	0x3c4905dc	0.012269463
174	0xbc552652	-0.013009625
175	0xbd6ada49	-0.05733708
176	0xbcc4eb00	-0.024037838
177	0xbce54a04	-0.027989395
178	0xbdd52939	-0.10408253
179	0xbcfa7bdb	-0.030576637
180	0x3b85edcf	0.004087187
181	0xbd2ef225	-0.042711396
182	0xbb34ed54	-0.002760728
183	0x39b305f7	0.00034145985
184	0x3cd662ee	0.02617022
185	0xbd6eebbd	-0.058330286
186	0x3dab9165	0.08377341
187	0x3cedfc10	0.029050857
188	0x3d5a686b	0.053322237
189	0xbc58556f	-0.013203963
190	0x3d4825d4	0.0488642
191	0xbda9959e	-0.0828049
192	0x3ca20b31	0.019780727
193	0xbdd55962	-0.10417439
194	0xbda85a65	-0.082203664
195	0x3ce7241d	0.028215462
196	0x3ccb01f7	0.02478121
197	0x3c868437	0.016420467
198	0xbbdcda23	-0.006739871
199	0x3cc2043f	0.023683665
200	0x3df5052b	0.11963876
201	0x3e001128	0.12506545
202	0x3d5fd31c	0.05464469
203	0x3c58c838	0.01323133
204	0x3d6043fa	0.054752328
205	0x3debc030	0.11511266
206	0xbcc253f0	-0.023721665
207	0xbd4f1b1f	-0.050562974
208	0x3d74bc01	0.059749607
209	0x3d8a8948	0.067644656
210	0xbd1f0366	-0.0388216
211	0xbceae855	-0.028675238
212	0xbdcbb4a9	-0.099465676
213	0xbbff8f33	-0.007799053
214	0x3b807b51	0.0039209505
215	0xbda4bcf7	-0.08043855
216	0x3bf957c5	0.00760934
217	0xbd8a2f30	-0.067472816
218	0x3bb0f82c	0.005400678
219	0x3d916b35	0.07100526
220	0x3c7de06b	0.0154954
221	0x3d6b8bb4	0.05750628
222	0xbd4ec52b	-0.050481003
223	0x3c2af870	0.010435209
224	0x3de85e92	0.11346163
225	0x3d509744	0.05092551
226	0xbd495552	-0.049153633
227	0xbc26f525	-0.010190283
228	0x3d978512	0.07398428
229	0xbd8fdae5	-0.07024173
230	0xbd10c4b3	-0.035343837
231	0xbd6896aa	-0.05678431
232	0xbce413b7	-0.027841432
233	0xbd50c512	-0.05096919
234	0x3d1e8a65	0.038706202
235	0xbde4a70f	-0.111646764
236	0x3c1bed26	0.00951699
237	0xbbc28fa7	-0.005937535
238	0xbd601ae9	-0.054713164
239	0xbd15e949	-0.03659943
240	0xbc537e4f	-0.012908532
241	0x3cfcdb40	0.030866265
242	0xbd692df1	-0.05692858
243	0xbbeae30e	-0.0071681803
244	0x3d7f7484	0.062366977
245	0xbdb9fedc	-0.09081814
246	0xbd92436a	-0.071417645
247	0x3c996a42	0.018727425
248	0x3d953877	0.072861604
249	0x3d85d9b8	0.06535667
250	0xbbb2dcc9	-0.0054584485
251	0xbbd3d297	-0.0064643133
252	0xbd519aaa	-0.05117289
253	0x3caef0f8	0.021355137
254	0x3c52eb79	0.012873524
255	0x3ce8ea74	0.028432108

layer3.bias f4 [256]
0	0xbd738448	-0.059452325
1	0x3da7dcc3	0.08196404
2	0x3d5491dc	0.051896915
3	0x3cd8d391	0.02646807
4	0x3d82b639	0.063824125
5	0x3d3ce08b	0.04611258
6	0x3d25c326	0.04046931
7	0x3da0c151	0.07849372
8	0xbd19aa05	-0.03751566
9	0xbd909dba	-0.07061334
10	0xbd0f195f	-0.034936305
11	0x3d8d0f72	0.068877116
12	0xbce6685d	-0.028125936
13	0x3d054f3c	0.032546267
14	0xbd99d13d	-0.07510612
15	0x3cbaab77	0.022786839
16	0xbcdcdd9e	-0.026961144
17	0x3d26bd9c	0.04070817
18	0x3b563765	0.0032686826
19	0xbcfb78b6	-0.030697208
20	0xbd20af2d	-0.03922956
21	0xbce4e9af	-0.02794346
22	0xbd25a66a	-0.040441908
23	0x3dbab79a	0.091170505
24	0xbd550ce5	-0.05201425
25	0x3d38c456	0.045109116
26	0xbcc47e15	-0.023985902
27	0x3d467cb9	0.04845879
28	0x3d3c4d21	0.045971993
29	0x3d883439	0.06650586
30	0x3d99e5aa	0.07514508
31	0x3da02708	0.078199446
32	0xbcc89ce3	-0.024488872
33	0x3d82b347	0.06381851
34	0x3cea1227	0.028573109
35	0xbd24ab2f	-0.040202316
36	0x3cc5b436	0.024133783
37	0x3df7b5c8	0.12095219
38	0x3cab0894	0.020878114
39	0x3dbe1fbe	0.09283398
40	0x3da7bb17	0.081899814
41	0x3dc6ad6f	0.097010486
42	0x3cb09a81	0.021558048
43	0xbdaf85df	-0.08570456
44	0x3c846e11	0.016165765
45	0x3d70bd31	0.058774177
46	0xbbc3b740	-0.005972773
47	0x3d4768ca	0.04868392
48	0x3d864f00	0.06558037
49	0x3d682380	0.05667448
50	0x3d5cc6bf	0.053900477
51	0xbcd8b465	-0.026453206
52	0xbd5e834b	-0.05432443
53	0x3b25a897	0.002527749
54	0xbd133da4	-0.035947457
55	0x3c88da72	0.016705725
56	0xbc78067c	-0.015138265
57	0x3d96c70f	0.07362186
58	0x3c90d28a	0.017678518
59	0x3daff8bd	0.08592365
60	0xbc123208	-0.008923061
61	0xbd718c1b	-0.058971506
62	0xbca877d6	-0.020564955
63	0x3d1ad436	0.037800036
64	0xbb09697c	-0.0020967415
65	0x3d9022fe	0.07037924
66	0x3e062db7	0.13103376
67	0xbd0606e7	-0.032721426
68	0xbc92d63f	-0.017924426
69	0xbcd66ecd	-0.02617588
70	0xbd33f201	-0.043931965
71	0x3d319ebc	0.04336427
72	0xbd84e9db	-0.06489917
73	0x3cee3ecd	0.02908268
74	0xbd5a6318	-0.05331716
75	0x3d9a640e	0.07538615
76	0x3d95f497	0.073220424
77	0xbb84c460	-0.00405173
78	0x3d58a0a2	0.052887566
79	0xbd05cf94	-0.032668665
80	0x3d81d971	0.06340302
81	0x3d5c0c90	0.053722918
82	0x3d52f825	0.05150618
83	0x3c39d454	0.011342127
84	0x3d1066ca	0.035254277
85	0x3d4987aa	0.049201645
86	0x3c4c8aea	0.012484292
87	0x3c58b049	0.013225623
88	0xbce4510b	-0.027870676
89	0x3cd0b600	0.02547741
90	0xbd52db86	-0.051478885
91	0x3d82dbfd	0.06389616
92	0x3dbe2100	0.09283638
93	0x3d58c5f6	0.052923165
94	0xbceef20b	-0.02916815
95	0x3d9901d1	0.074710496
96	0x3d7a86ce	0.061163716
97	0xbd5388cf	-0.051644143
98	0xbd06bcd9	-0.032894943
99	0x3d2f4f41	0.04280019
100	0x3deecade	0.116597876
101	0x3da304a8	0.079598725
102	0x3b4efcc6	0.003158377
103	0xbc366828	-0.011133231
104	0x3de068e4	0.10957506
105	0x3d8c88c4	0.068620235
106	0x3db1bd98	0.0867874
107	0x3b12051b	0.0022280875
108	0x3c1b888d	0.009493005
109	0x3d0a7019	0.03379831
110	0x3cbbf735	0.022945026
111	0xbc4b9725	-0.012426172
112	0xbd90c632	-0.07069053
113	0xbd2868c5	-0.04111554
114	0x3c174a62	0.009234043
115	0x3c481277	0.012211434
116	0x3cb29403	0.021799093
117	0xbcd783ee	-0.026308026
118	0x3c94c7aa	0.018161613
119	0x3bf6d184	0.0075323004
120	0x3d42fd00	0.04760456
121	0xbd70b6de	-0.058768146
122	0x3d7977c2	0.060905226
123	0x3de5f8b4	0.11229077
124	0xbd88bd44	-0.066767246
125	0x3dc9a024	0.098449975
126	0x3c27e997	0.010248563
127	0x3a44b212	0.0007503341
128	0x3a5c9316	0.00084142515
129	0x3ba1db73	0.0049394905
130	0x3cbeabb5	0.023275236
131	0x3cce9769	0.025218682
132	0xbbf30b8e	-0.007417149
133	0x3d22bc43	0.03973032
134	0x3b9aee16	0.004728089
135	0xbc903b68	-0.017606452
136	0x3d2ff137	0.04295465
137	0x3dc09c28	0.094047844
138	0x3d44bb26	0.04803004
139	0x3d5ae0f9	0.053437207
140	0x3da28d05	0.079370536
141	0x3d5c9cb9	0.0538604
142	0x3bbdb2df	0.0057891454
143	0x3d8d9065	0.06912307
144	0x3d9aef34	0.075651556
145	0x3d34284e	0.04398375
146	0x3d630648	0.055425912
147	0x3c219018	0.009861015
148	0xbc9f0be9	-0.019414859
149	0x3d4e6165	0.05038585
150	0xbd2d8068	-0.042358786
151	0xbd339858	-0.04384646
152	0x3d366917	0.044533815
153	0x3c9c016a	0.019043643
154	0x3c71a517	0.014748833
155	0x3de07c12	0.109611645
156	0xbb682cab	-0.0035427015
157	0x3db4643d	0.088081814
158	0x3d0a2e2c	0.03373544
159	0x3c08ecfe	0.008357285
160	0x3ba536ab	0.0050419173
161	0xbd18c7ff	-0.037300106
162	0x3b2ca2d8	0.002634218
163	0x3d2d5f70	0.042327344
164	0x3bb512a3	0.0055259033
165	0x3c57fff3	0.013183582
166	0xbd137beb	-0.03600685
167	0x3d9f4a8a	0.07777889
168	0x3d2b712b	0.041855972
169	0x3cfd0c23	0.030889576
170	0x3c5eea27	0.013605631
171	0x3bf52024	0.007480638
172	0xbc97ad9e	-0.018515404
173	0x3d34a73a	0.044104792
174	0xbc6de084	-0.014518861
175	0x3d8f390f	0.06993305
176	0xbb14a36a	-0.002268041
177	0x3d95824e	0.07300244
178	0x3d918935	0.07106248
179	0x3d0e77fe	0.034782402
180	0xbcda084c	-0.026615284
181	0x3cdc8610	0.026919395
182	0x3c9922ff	0.018693445
183	0x3d80891d	0.06276152
184	0x3ca8f1f0	0.020623177
185	0xbc924843	-0.017856723
186	0xbd98a392	-0.074530736
187	0xbc9f1630	-0.01941976
188	0x3cdadf74	0.026717879
189	0x3d4d4ace	0.050120167
190	0x3c991bd6	0.018690031
191	0x3bc45472	0.005991512
192	0x3d7d6ec4	0.061873212
193	0xbbd6f676	-0.006560142
194	0xbd831a17	-0.064014606
195	0x3dd16008	0.10223395
196	0x3cdc9e29	0.026930885
197	0x3c864bfd	0.016393656
198	0xbc3d3166	-0.011547422
199	0x3c933c9f	0.017973242
200	0xbd3a27b9	-0.04544804
201	0xbd09df13	-0.033660006
202	0xbc1cacaf	-0.009562655
203	0x3dc9811a	0.09839077
204	0x3a3d7ae2	0.0007228089
205	0xba0cf128	-0.0005376511
206	0xbcab7c90	-0.02093342
207	0x3c1b3ea5	0.009475385
208	0xbd1c1e19	-0.03811464
209	0xbd1b3c5d	-0.037899364
210	0xbd4a2baf	-0.049358066
211	0xbd9272bb	-0.07150789
212	0xbc5dd71d	-0.0135400565
213	0x3d1657ce	0.03670483
214	0x3dbe18ec	0.09282097
215	0xbc7cc6a9	-0.015428224
216	0x3cc40fa4	0.02393324
217	0xbceb5a39	-0.028729545
218	0xbc8235b0	-0.01589474
219	0x3c00bb42	0.007857146
220	0x3db169da	0.08662768
221	0xbd4c2c97	-0.04984721
222	0x3d01bc4a	0.031673707
223	0xbc3c0bcf	-0.011477425
224	0xbbf03f27	-0.007331747
225	0xbd2a3bbd	-0.041560877
226	0x3d766f47	0.060164716
227	0x3d955de3	0.07293298
228	0xbdc8f640	-0.098125935
229	0xbd94183f	-0.07231187
230	0x3d895029	0.067047425
231	0x3c5f33b2	0.013623165
232	0x3bbe0f99	0.005800199
233	0x3d89a72e	0.0672134
234	0x3c6fb911	0.014631526
235	0xbcc49a92	-0.023999486
236	0x3c2944af	0.010331317
237	0x3d1f2fda	0.038863994
238	0xbc5fbe12	-0.013656156
239	0xbc2deeac	-0.010615986
240	0x3c6e6e5a	0.014552677
241	0x3ce3f2f4	0.02782581
242	0xbcbeb23e	-0.023278352
243	0x3db7b311	0.08969701
244	0x3d227cb1	0.039669696
245	0x3da6b85d	0.08140633
246	0xbd027fc9	-0.031860147
247	0xbcd7c589	-0.02633931
248	0x3da020fd	0.07818792
249	0x3cd703a2	0.02624685
250	0xbccdee58	-0.025138065
251	0x3d640d3c	0.055676684
252	0xbd2b02e2	-0.041750796
253	0x3db1412e	0.0865501
254	0x3cd4590d	0.025921369
255	0xbd1f94f2	-0.038960405

layer4.weight f4 [128, 256]
0	0xbd4c009f	-0.04980528
1	0xbda3cd53	-0.07998147
2	0xbe1188f1	-0.14212395
3	0x3cdb7395	0.026788512
4	0x3d1d5dec	0.03841965
5	0x3c002ff5	0.007823934
6	0xbde50e89	-0.11184413
7	0x3c935e07	0.017989172
8	0xbcb5478c	-0.022128843
9	0x3d9730b3	0.073823355
10	0x3c4d2649	0.012521335
11	0xbd439c2d	-0.047756363
12	0x3d8fadcc	0.07015571
13	0xbd9398ce	-0.072068796
14	0xbd840ef6	-0.06448166
15	0xbcaaca80	-0.020848513
16	0x3d1ff50d	0.039052058
17	0x3c3c9474	0.011510003
18	0xbd2567a9	-0.04038206
19	0xbda32c04	-0.0796738
20	0xbd795ee5	-0.060881514
21	0x3c7efb5c	0.015562858
22	0x3ccac548	0.024752274
23	0xbcb0f8a6	-0.02160294
24	0x3d819b9d	0.06328509
25	0xbd29fbbc	-0.04149984
26	0x3c9da244	0.019242413
27	0x3dba544a	0.09098108
28	0x3d4f3265	0.05058517
29	0xbd8961a4	-0.067080766
30	0xbd06e1e2	-0.032930262
31	0xbd55be4b	-0.05218343
32	0xbd67232a	-0.05643002
33	0xbc2e8d5a	-0.010653818
34	0xbd3de5df	-0.0463618
35	0xbd246732	-0.040137477
36	0xbd312f52	-0.04325802
37	0xbc3ca999	-0.011515045
38	0x3deafebd	0.11474369
39	0x3e0cfa6c	0.13767403
40	0x3cd58210	0.026062995
41	0xbd8525e2	-0.06501366
42	0xbc8b20cd	-0.016983414
43	0xbd3228f8	-0.043496102
44	0x3d167bbf	0.036739107
45	0xbd1983f3	-0.037479352
46	0xbbfe688d	-0.0077639283
47	0xbd186309	-0.037203822
48	0x3da66333	0.081243895
49	0x3d773c7f	0.060360428
50	0xbd9d9856	-0.076950714
51	0xbd9c3bec	-0.07628617
52	0x3d9c51a5	0.0763276
53	0xb9ee938e	-0.00045504834
54	0xbc94923f	-0.018136142
55	0xbd7d4e84	-0.061842456
56	0x3d05bb9d	0.032649625
57	0xbca315bb	-0.019907823
58	0xbd051a32	-0.032495685
59	0xbce6a59e	-0.028155144
60	0xbdc5dde6	-0.096614644
61	0xbcfdecb0	-0.03099665
62	0xbb0ba371	-0.0021307135
63	0xbd85be5f	-0.06530451
64	0x3d3435b7	0.04399654
65	0xbbe32763	-0.0069321855
66	0xbd73ff35	-0.059569556
67	0x3c1feecf	0.009761526
68	0xbc305a0b	-0.010763655
69	0x3bd7e497	0.0065885293
70	0x3d5df4da	0.054188587
71	0x3d0ff823	0.03514875
72	0x3ca192d7	0.019723339
73	0xbc6c8538	-0.014436059
74	0xbd05f26a	-0.032701887
75	0xbbdaf0b5	-0.0066815265
76	0x3d8b5527	0.06803351
77	0xbc88535f	-0.016641317
78	0x3c97eb1e	0.01854473
79	0xbd205578	-0.03914401
80	0x3d5b8753	0.053595852
81	0xbca26818	-0.019825026
82	0xbe04b19d	-0.12958379
83	0x3c2a0c57	0.010378919
84	0x3cb199aa	0.021679718
85	0xbd47fb85	-0.048823852
86	0xbca5832c	-0.02020415
87	0xbb2fbdde	-0.002681605
88	0x3dcc5fbe	0.09979199
89	0x3d488f00	0.0489645
90	0xbdac5f84	-0.08416656
91	0x3cc951d3	0.02457515
92	0x3ce7f809	0.028316515
93	0x3db69187	0.08914476
94	0xbe00c1c0	-0.1257391
95	0x3d82f4f4	0.06394377
96	0xbc813c81	-0.01577592
97	0xbc6ab42c	-0.014325183
98	0x3c2f93e5	0.010716413
99	0x3ce2c159	0.027680086
100	0x3c6c9c54	0.014441568
101	0x3d682e6c	0.056684896
102	0x3c441c5d	0.011969653
103	0x3db3417c	0.087527245
104	0xbdb3a0a4	-0.08770874
105	0x3d1cebec	0.03831093
106	0x3c1eab91	0.009684459
107	0x3c3f98c2	0.011694135
108	0xbd9a84ef	-0.07544886
109	0xbcab7b0a	-0.020932693
110	0x3dcbb4bc	0.09946582
111	0x3d840969	0.06447107
112	0x3cac6d32	0.021048162
113	0xbdc272aa	-0.09494527
114	0x3d9958a9	0.07487614
115	0xbc0f26a2	-0.008737238
116	0x3ce795bf	0.028269647
117	0xbdcb1b85	-0.09917358
118	0xbd546c55	-0.051861126
119	0xbd2a8c0a	-0.041637458
120	0xbc30444f	-0.010758474
121	0x3ba3c2ec	0.0049976017
122	0xbca0d546	-0.019632947
123	0xbd111af3	-0.03542609
124	0x3cf13edd	0.02944892
125	0x3d55a45d	0.052158702
126	0x3c8b4907	0.017002596
127	0xbcce4622	-0.025179926
128	0xbd898c1c	-0.06716177
129	0x3d6e3105	0.058152217
130	0xbd24d61e	-0.04024326
131	0xbd946628	-0.07246047
132	0xbcc7e61d	-0.024401719
133	0xbc533cce	-0.012892915
134	0xbd92660f	-0.071483724
135	0xbd08f235	-0.03343411
136	0xbb184bdd	-0.0023238577
137	0x3ded7802	0.11595155
138	0xbcf2fb36	-0.029660802
139	0x3ca4da3a	0.02012359
140	0x3d80c082	0.06286718
141	0x3cd278f7	0.025692446
142	0x3adc81c2	0.0016823339
143	0xbd6cb136	-0.05778619
144	0x3ae925bc	0.0017787735
145	0xbd75757e	-0.059926502
146	0x3d81ea31	0.063434966
147	0x3d1bfe66	0.03808441
148	0x3c5cc8ac	0.013475578
149	0x3d3dbc91	0.04632241
150	0x3d86e4e2	0.06586625
151	0x3dae477c	0.08509728
152	0xbd3d5bd8	-0.046230167
153	0xbcfa5351	-0.030557306
154	0x3d641754	0.05568631
155	0x3d8f449c	0.06995508
156	0x3d7ebd73	0.06219239
157	0xbdb6251c	-0.08893797
158	0xbd06134b	-0.032733243
159	0x3dbb9b07	0.091604285
160	0x3dc63200	0.096775055
161	0xbd8ea734	-0.06965485
162	0xbd0632e2	-0.03276337
163	0x3d22afad	0.03971832
164	0x3d51b6a2	0.051199563
165	0x3b78f115	0.0037985493
166	0x3d5c7d03	0.053830158
167	0x3c90c05c	0.01766985
168	0x3d0f3f3f	0.034972426
169	0xbd618455	-0.055057842
170	0x3d86fd14	0.065912396
171	0x3a923afa	0.0011156492
172	0xbdab825e	-0.08374475
173	0x3df1d4c0	0.11808157
174	0x3ca4263c	0.020037763
175	0xbaef35d0	-0.001825029
176	0x3dc7a285	0.09747795
177	0x3b33079b	0.0027317766
178	0xbda3596a	-0.07976039
179	0x3a3a3fd2	0.0007104847
180	0xbcb33eaa	-0.021880466
181	0x3d03e17d	0.032197464
182	0x3cf069d3	0.029347336
183	0x3d8c7a7f	0.06859302
184	0xbd96bb28	-0.07359916
185	0x3d3af9d1	0.0456484
186	0xbd0b5131	-0.034012977
187	0xbcba5869	-0.022747235
188	0xbc49e0ad	-0.012321633
189	0x3df4b23d	0.11948059
190	0xbd95c3cd	-0.07312737
191	0x3ca5a5c7	0.02022065
192	0x3d68dff9	0.056854222
193	0x3d3d9884	0.04628803
194	0xbd5f2fe1	-0.05448902
195	0x3d321bdc	0.0434836
196	0x3e2eca7a	0.17069426
197	0x3de0cc71	0.10976494
198	0xbcdf7229	-0.027276115
199	0xbd0d4640	-0.034490824
200	0xbd09015a	-0.033448555
201	0x3d9c2626	0.07624464
202	0xbcd54c12	-0.02603725
203	0xbdd47cbf	-0.10375356
204	0x3d89ca7b	0.06728073
205	0x3d58474e	0.052802376
206	0x3db2cbae	0.08730255
207	0xbd125d59	-0.035733555
208	0xbdff5290	-0.124669194
209	0xbcac4540	-0.021029115
210	0xbcaaac98	-0.020834252
211	0xbbd46990	-0.0064823106
212	0x3cb2ee18	0.021842048
213	0x3c8ae8b8	0.016956672
214	0x3c50c105	0.012741332
215	0xbd526450	-0.051365197
216	0x3c145801	0.009054185
217	0x3c1279a7	0.008940137
218	0xbc27e165	-0.010246609
219	0xbdc5e7a2	-0.09663321
220	0x3c93eb01	0.018056395
221	0x3d71eed4	0.059065655
222	0x3c98dfcb	0.0186614
223	0x3b3443c2	0.0027506207
224	0xbe181430	-0.14851451
225	0x3d5a2a54	0.053263023
226	0xbdb0ba10	-0.086292386
227	0xbdc5a7fa	-0.096511796
228	0xbc4ffca0	-0.012694508
229	0x3c0fbe81	0.008773447
230	0x3d01c5df	0.031682845
231	0x3dd04c69	0.10170824
232	0x3d1ef1ab	0.03880469
233	0x3e104ae3	0.14091067
234	0xbd9cdbea	-0.07659133
235	0xbc6b1040	-0.014347136
236	0xbd5d8be6	-0.054088496
237	0x3d153962	0.036431678
238	0xbd84edb6	-0.06490652
239	0xbce20370	-0.02758953
240	0x3a475195	0.0007603404
241	0xbd0ab5b3	-0.033864688
242	0x3cfb5e26	0.030684542
243	0xbc9a8f0b	-0.018867036
244	0x3d83058e	0.06397544
245	0xbc3fac0a	-0.011698732
246	0x3d57f5c4	0.052724615
247	0x3d94ad1e	0.07259582
248	0x3d3361c6	0.043794416
249	0xbd377343	-0.044787657
250	0x3b5c249f	0.0033591164
251	0xbd2a7f6e	-0.041625433
252	0xbd8bbb65	-0.06822852
253	0x3d76eb2f	0.060282882
254	0x3daec538	0.0853371
255	0x3d9b7eb7	0.07592528

layer4.bias f4 [128]
0	0x3da55275	0.08072368
1	0x3d6a7105	0.05723669
2	0x3d1a6dbf	0.03770232
3	0x3d686283	0.056734573
4	0x3be815ac	0.0070826616
5	0xbc5a9980	-0.013342261
6	0x3da80c0e	0.08205424
7	0x3a81f8a7	0.0009916023
8	0x3d0a0244	0.033693567
9	0x3d9e9b85	0.07744507
10	0x3d6900ae	0.056885414
11	0x3a24e466	0.00062901375
12	0x3c45f797	0.012082956
13	0x3cd9a86f	0.026569573
14	0xbb8004f2	-0.0039068395
15	0x3ced5c3d	0.028974647
16	0xbc08cda7	-0.008349813
17	0xbd75e370	-0.060031354
18	0x3dac5a30	0.084156394
19	0x3c01c1b6	0.007919719
20	0xbd08e385	-0.033420105
21	0x3d138b83	0.03602172
22	0xbc68c1fc	-0.014206406
23	0x3d854b29	0.06508476
24	0xba947e24	-0.0011329097
25	0x3cc01a1e	0.023449954
26	0xbd838af6	-0.06422989
27	0xbc863740	-0.016383767
28	0x3cc40581	0.023928406
29	0xbd8b91c2	-0.068149105
30	0x3d33b317	0.043871965
31	0xbdf8b370	-0.121436
32	0x3d886038	0.06658977
33	0x3d273105	0.040818233
34	0xbcc3135b	-0.02381294
35	0x3d667d2c	0.056271717
36	0xbc0c7f37	-0.008575252
37	0x3ca9af5e	0.020713504
38	0x3df93a48	0.121693194
39	0x3be8aa95	0.007100413
40	0x3d508236	0.05090543
41	0xbcb8da29	-0.022564964
42	0xbcac292d	-0.021015728
43	0xbb939f4e	-0.0045050746
44	0xbc84db53	-0.016217863
45	0xbd2d3e6e	-0.042295866
46	0x3d36e9d5	0.044656593
47	0xbd16ff16	-0.036864363
48	0x3dc53586	0.096293494
49	0x3d395dcc	0.045255467
50	0x3d756cd5	0.059918243
51	0xbdabc627	-0.08387404
52	0x3bd2e642	0.0064361403
53	0xbcf2500a	-0.029579181
54	0x3d9ecd00	0.077539444
55	0xbcb6a53f	-0.022295592
56	0xbc42665b	-0.011865224
57	0x3cc887b6	0.024478775
58	0x3d161580	0.036641598
59	0x3aba0027	0.0014190719
60	0xbd198b62	-0.03748644
61	0xbb6a60a5	-0.003576317
62	0xbd5ff563	-0.05467738
63	0xbd459f38	-0.048247546
64	0xbaede0df	-0.0018148682
65	0x3c0ae324	0.008477006
66	0x3ca02807	0.019550337
67	0x3d7d64ed	0.06186383
68	0x3d9485a9	0.07252056
69	0xbd0f3ab4	-0.034968093
70	0x3dd1f930	0.10252607
71	0x3dbbdba6	0.09172754
72	0x3d220d91	0.03956372
73	0xbc95abca	-0.018270392
74	0x3d48c03f	0.049011465
75	0x3e00cd79	0.12578382
76	0x3d951799	0.072798915
77	0xbd22d6ca	-0.03975562
78	0x3dcf19be	0.10112332
79	0x3c909af9	0.017652022
80	0x3ca83481	0.020532848
81	0xbd03214b	-0.032014173
82	0xbc8d6ef2	-0.017264817
83	0x3c4c970a	0.012487182
84	0xbcf19cfc	-0.029493801
85	0xbd1ef392	-0.038806506
86	0xbcb51d96	-0.022108834
87	0xbd0d8f45	-0.03456046
88	0x3d2e836e	0.04260581
89	0x3d12dd4a	0.03585557
90	0x3d627aed	0.055293012
91	0x3bdeb9d8	0.0067970566
92	0x3c2dd3f9	0.01060962
93	0xbb89940d	-0.004198557
94	0xbd4b8d80	-0.04969549
95	0x3d3720ba	0.044708945
96	0x3d5af47f	0.053455826
97	0x3ca3fdae	0.020018425
98	0x3d6f5a40	0.05843568
99	0x3dbdf1a8	0.09274608
100	0xbd5cdc60	-0.053921103
101	0x3d6cf6a8	0.057852417
102	0xbd2d614c	-0.042329118
103	0xbcf6e4e3	-0.030138439
104	0xbc3b1441	-0.011418403
105	0xbbfe1aac	-0.0077546444
106	0xbd11a308	-0.03555587
107	0xbd50af18	-0.050948232
108	0x3d5b3bc1	0.053523783
109	0x3c875542	0.016520146
110	0x3dca2d88	0.09871966
111	0x3dd9ddd3	0.10638013
112	0xbd43c457	-0.047794666
113	0xbca208c8	-0.019779578
114	0x3d9401be	0.07226895
115	0xbda35ec0	-0.079770565
116	0x3c73325c	0.01484355
117	0x3cdb89a3	0.026799029
118	0x3cab2758	0.020892784
119	0x3c7985cd	0.0152296545
120	0x3d8f5171	0.069979556
121	0x3ccd7da3	0.025084322
122	0x3d2849b5	0.041085918
123	0xbbbe08c5	-0.0057993853
124	0xbc3874b6	-0.011258295
125	0x3c657dce	0.014007045
126	0x3bb78d60	0.00560157
127	0xbd0bad05	-0.03410055
